results/ml_100k_mnph200_testmode/model_checkpoint1.pth (torch_old, 199661 bytes, 19 tensors)

convs.0.basis f4 [4, 4, 32]
0	0x3e04c4c7	0.1296569
1	0xbe22706e	-0.15863201
2	0x3e34db30	0.17661738
3	0x3d4f6695	0.05063494
4	0x3cb30c28	0.021856382
5	0x3e3e824b	0.1860439
6	0x3c32cad0	0.010912612
7	0xbe254856	-0.16140875
8	0x3cc720dd	0.024307663
9	0xbdee775c	-0.1164386
10	0x3de461f6	0.11151497
11	0xbc248af7	-0.010042897
12	0xbded4b6f	-0.115866534
13	0x3d2e09ea	0.042489924
14	0xbc929f5d	-0.017898256
15	0xbdeda14a	-0.11603029
16	0x3e040a4d	0.12894554
17	0xbbaf35d9	-0.0053469953
18	0xbe224861	-0.15847923
19	0x3cd95ba3	0.026532954
20	0x3e06f36a	0.13178793
21	0x3d96caf6	0.073629305
22	0xbce72ae0	-0.028218687
23	0xbda77acd	-0.08177719
24	0xbce82c74	-0.02834151
25	0xbd75b014	-0.059982374
26	0xbd938941	-0.072039135
27	0xbda45a9c	-0.08025095
28	0x3dbd8b7a	0.09255119
29	0x3e4811bb	0.19538014
30	0xbe05c653	-0.13063936
31	0xbd1f38c7	-0.038872506
32	0xbd9a616e	-0.075381145
33	0xbcafa14b	-0.021439215
34	0xbde07343	-0.109594844
35	0xbd9bc6d5	-0.076062836
36	0x3d64b023	0.05583204
37	0x3e760074	0.2402361
38	0xbd896832	-0.06709327
39	0xbe03ac9e	-0.12858817
40	0xbe00e5ed	-0.1258771
41	0xbddab83e	-0.10679673
42	0x3ddefe72	0.10888375
43	0xbde611c3	-0.112338565
44	0xbe3827dd	-0.17983957
45	0x3dad0aee	0.0844935
46	0xbb21de40	-0.0024699122
47	0xbd0be8d7	-0.0341576
48	0xbe2fe13b	-0.17175762
49	0xbe0f5dcd	-0.14000626
50	0x3e50be2a	0.20385042
51	0xbdae80a2	-0.085206285
52	0xbe43589b	-0.19076769
53	0x3d849033	0.06472816
54	0x3d342e39	0.043989394
55	0xbdb333f7	-0.08750146
56	0x3e6913b6	0.22761425
57	0xbd94abd7	-0.07259338
58	0xbd5836cf	-0.052786645
59	0xbdc14b34	-0.09438172
60	0x3d5da64a	0.054113664
61	0xbca27ac5	-0.019833932
62	0xbc155144	-0.0091136135
63	0x3d0f6256	0.03500589
64	0xbdbbb740	-0.091658115
65	0xbdf510c1	-0.11966086
66	0x3e598085	0.21240433
67	0x3e08cb3f	0.13358782
68	0xbe1e3120	-0.15448427
69	0xbdf87054	-0.121308
70	0x3c80799d	0.01568299
71	0xbe09b854	-0.13449222
72	0xbe127800	-0.14303589
73	0xbe076462	-0.13221887
74	0xbcbcd550	-0.023050934
75	0x3d3aceb8	0.0456073
76	0x3e7d5f95	0.24743493
77	0x3e253b4c	0.16135901
78	0x3d4bfb30	0.049800098
79	0xbe6cf8be	-0.23141763
80	0x3dedc3b5	0.11609594
81	0xbc9d7a69	-0.019223409
82	0x3d76f89b	0.060295682
83	0x3df2d849	0.11857659
84	0x3dac3b5a	0.08409758
85	0x3dc331fe	0.0953102
86	0xbe37ed6f	-0.17961667
87	0xbe42a0cf	-0.19006656
88	0xbe5523a2	-0.20814374
89	0xbe1caa89	-0.15299429
90	0xbe021149	-0.12701906
91	0x3c676f12	0.014125602
92	0xbde001aa	-0.109378174
93	0x3d4a7652	0.049429245
94	0x3cd041ac	0.02542194
95	0x3d49d92a	0.04927937
96	0x3e291750	0.165128
97	0x3e02eec7	0.12786399
98	0x3de48a84	0.11159232
99	0xbdbd8ba8	-0.09255153
100	0xbe318838	-0.1733712
101	0xbec638f4	-0.38715327
102	0xbe62c8d6	-0.22146925
103	0xbd845ecb	-0.06463393
104	0x3e784f03	0.2424889
105	0x3ea56917	0.3230674
106	0x3ebc520c	0.36781347
107	0x3e366c95	0.17814858
108	0xbe2161bc	-0.15759939
109	0xbe1e6038	-0.15466392
110	0x3b24159b	0.0025037292
111	0x3d117718	0.035513967
112	0xbe8777c8	-0.26458573
113	0xbd908ee6	-0.07058506
114	0xbe71165a	-0.23543683
115	0xbce7c8b1	-0.02829394
116	0x3e2d6523	0.16933112
117	0xbe96787d	-0.293888
118	0xbe395389	-0.18098272
119	0x3e62e083	0.22155957
120	0xbe1c7fd0	-0.15283132
121	0x3e7bfa9f	0.24607323
122	0xbe23e5b1	-0.16005589
123	0xbe546947	-0.20743285
124	0xbdab82eb	-0.0837458
125	0x3e4a3199	0.19745483
126	0x3d43b89f	0.04778349
127	0xbc6aa47a	-0.014321441
128	0x3d08be25	0.03338446
129	0xbe1a4740	-0.15066242
130	0xbd83fbba	-0.064444974
131	0xbc2a9577	-0.010411612
132	0x3e5adb02	0.21372607
133	0x3e7ce869	0.24698032
134	0x3d519619	0.051168535
135	0xbe66ed7f	-0.22551535
136	0x3e0654b7	0.13118254
137	0xbd84163b	-0.064495526
138	0xbce69667	-0.02814789
139	0x3db14d05	0.086572684
140	0xbe225e49	-0.1585628
141	0xbc0153b5	-0.0078934925
142	0x3e1d8e82	0.15386394
143	0xbd814ba3	-0.06313255
144	0xbe011015	-0.12603791
145	0xbb58e27d	-0.0033093982
146	0xbd977ebe	-0.07397221
147	0x3c58fd62	0.013244005
148	0x3e238ef1	0.15972497
149	0x3e1b0446	0.15138349
150	0x3e2bcf35	0.16778262
151	0xbe2df6cf	-0.16988681
152	0x3dd84027	0.10559111
153	0xbe25ea0b	-0.16202562
154	0x3ded53ea	0.11588271
155	0x3e373501	0.17891313
156	0xbd755040	-0.059890985
157	0x3e0747d4	0.13210994
158	0xbcc94a96	-0.024571698
159	0xbe409f0f	-0.18810676
160	0x3da63fa1	0.08117605
161	0x3c9e7848	0.019344464
162	0xbd9eaad3	-0.07747426
163	0x3d2c4d75	0.042066056
164	0x3dc4a956	0.09602611
165	0x3e426352	0.189832
166	0xbd5cf8b3	-0.053948116
167	0x3ce5f7b7	0.028072221
168	0x3d5b8c9a	0.053600885
169	0xbd124756	-0.035712563
170	0x3b4b25ed	0.0030997947
171	0xbe28c3ee	-0.16480991
172	0xbe0128df	-0.12613247
173	0x3af23647	0.0018479311
174	0x3dd93780	0.10606289
175	0x3cc9de78	0.024642214
176	0xbdbcd218	-0.0921976
177	0xbdd7b72a	-0.10532983
178	0x3e15b3ee	0.14619419
179	0x3dacf80c	0.08445749
180	0xbe006aae	-0.12540695
181	0xbd9e547e	-0.07730959
182	0x3cbb09c5	0.022831807
183	0xbdd2ce35	-0.10293237
184	0x3e272bd6	0.16325316
185	0xbda2863d	-0.0793576
186	0xbd4a4d09	-0.049389873
187	0xbd471d78	-0.048612088
188	0x3d6c840a	0.05774311
189	0x3dcbaf3c	0.09945533
190	0x3cc8cda7	0.024512125
191	0x3dd9a357	0.10626858
192	0x3a8d5f58	0.0010785861
193	0x3d8396a9	0.064252205
194	0xbda85bff	-0.08220672
195	0xba524a0c	-0.0008021898
196	0xbc7e5843	-0.015523973
197	0x3e11dd47	0.14244567
198	0xbdce4109	-0.10070998
199	0xbe02b801	-0.12765504
200	0xbe698dcb	-0.22807996
201	0xbd29de9e	-0.04147207
202	0xbde5b7d4	-0.11216703
203	0xbd38abb8	-0.04508564
204	0x3e5be746	0.21474943
205	0xbcfcbe48	-0.030852452
206	0xbe623200	-0.22089386
207	0xbe4e58dc	-0.20151085
208	0x3e87a5d9	0.2649372
209	0xbcbe0122	-0.0231939
210	0x3dd1462d	0.10218463
211	0x3e2baf0e	0.16765997
212	0xbdcb01e3	-0.09912469
213	0xbd82d5e4	-0.06388453
214	0xbda535c6	-0.08066897
215	0xbe7de153	-0.24792986
216	0xbe55b96c	-0.20871514
217	0xbdc9a980	-0.09846783
218	0x3de2f72b	0.110823
219	0xbd23b216	-0.039964758
220	0xbd876ddd	-0.06612752
221	0xbd8ce62d	-0.0687984
222	0xba95d1d2	-0.0011430329
223	0x3bdcb727	0.0067357006
224	0xbc887693	-0.016658103
225	0x3e878fd5	0.26476923
226	0x3ce9d80f	0.028545408
227	0xbca94dbf	-0.020666955
228	0x3e307c64	0.17234951
229	0xbe4b1ab4	-0.19834405
230	0x3cf955cb	0.030436417
231	0xbe0197f9	-0.12655629
232	0x3e21b495	0.15791543
233	0x3e6b2a2d	0.22965308
234	0x3e8c6500	0.27420807
235	0xbe58f2f4	-0.2118643
236	0xbe0665e4	-0.13124806
237	0xbdbb2a8a	-0.09138973
238	0xbde86286	-0.11346917
239	0xbb6dbfb5	-0.0036277596
240	0xbdd415e7	-0.1035574
241	0xbe097fbf	-0.13427638
242	0xbe19efe4	-0.15032917
243	0xbe1f1691	-0.15535952
244	0x3d49d823	0.04927839
245	0xbe8da2cb	-0.27663264
246	0x3e609a6f	0.21933912
247	0x3df6383e	0.12022446
248	0x3d266f2a	0.040633358
249	0x3e394ea4	0.18096405
250	0x3e400071	0.18750168
251	0xbd825c09	-0.063652106
252	0xbcb1e2ed	-0.021714652
253	0x3e077d48	0.13231385
254	0xbddf61a0	-0.10907292
255	0xbe46592e	-0.19369957

convs.0.att f4 [5, 4]
0	0x3e27f41e	0.16401717
1	0xbe0ca059	-0.13733043
2	0x3e3b3423	0.18281607
3	0xbc29e66b	-0.010369877
4	0x3e36e08f	0.178591
5	0x3cd9eb0a	0.026601333
6	0xbdc5e2a1	-0.09662367
7	0x3cc0b5f8	0.02352427
8	0x3b94e040	0.0045433342
9	0x3e451835	0.19247515
10	0x3e05aca2	0.13054135
11	0xbe138403	-0.14405827
12	0xbdcc6991	-0.09981073
13	0x3e4f3805	0.20236214
14	0xbcaf6860	-0.021412075
15	0xbe3ddc7b	-0.18541138
16	0x3e3a1c50	0.18174863
17	0xbd0abd45	-0.033871908
18	0xbda8e163	-0.08246114
19	0xbd8e006a	-0.06933673

convs.0.root f4 [4, 32]
0	0xbe2a3961	-0.16623451
1	0xbd7e7498	-0.06212291
2	0x3e6e11a3	0.23248915
3	0x3d707303	0.058703434
4	0x3e379c17	0.17930637
5	0xbe4744c2	-0.19459823
6	0xbd6868f2	-0.05674071
7	0xbe351904	-0.17685324
8	0x3e9905ca	0.2988723
9	0x3f061ac0	0.5238457
10	0x3efc7081	0.49304584
11	0x3d1549f8	0.036447495
12	0xbd600be4	-0.05469884
13	0xbe2cabbb	-0.16862385
14	0x3c27c96c	0.010240894
15	0xbe19c76a	-0.15017477
16	0xbdc08f92	-0.09402384
17	0x3ea767c4	0.32696354
18	0xbe461820	-0.1934514
19	0xbec2dfde	-0.38061422
20	0x3ebd81bc	0.37013042
21	0xbe8eaa41	-0.27864268
22	0x3db76f09	0.08956725
23	0x3ed520b8	0.41626525
24	0xbe270ce4	-0.16313511
25	0x3ed926d6	0.42412442
26	0x3df157fc	0.1178436
27	0xbf0b7a38	-0.54483366
28	0x3e6d4e19	0.23174323
29	0xbe2f4845	-0.17117412
30	0xbdba41af	-0.090945594
31	0xbe8a35a0	-0.26994038
32	0x3e7aa1bf	0.24475764
33	0x3e90a378	0.28249717
34	0xbd1cd167	-0.03828564
35	0xbba54a95	-0.0050442913
36	0xbd45572f	-0.048178848
37	0xbe8d85f3	-0.27641258
38	0xbc896bb0	-0.016774982
39	0xbe39f925	-0.18161447
40	0xbe286f84	-0.1644879
41	0xbe6ec2b0	-0.23316455
42	0x3d6533e1	0.05595768
43	0x3d53fab0	0.051752746
44	0x3ee0261b	0.43779072
45	0x3e83db24	0.2575313
46	0xbe70d67b	-0.23519318
47	0x3c8ca033	0.017166233
48	0x3e14934e	0.14509317
49	0xbd93b104	-0.072114974
50	0x3e4dc971	0.20096375
51	0xbe3bf141	-0.1835375
52	0x3d7e4cc4	0.06208493
53	0xbec4ece1	-0.38461974
54	0xbd72674e	-0.05918055
55	0xbede5836	-0.43426675
56	0xbea486bb	-0.3213404
57	0xbdffa715	-0.1248304
58	0x3eb11225	0.34584156
59	0xbd66d2f5	-0.056353528
60	0x3dba73bc	0.09104106
61	0xbdae4f54	-0.085112244
62	0x3e91813f	0.2841892
63	0x3e9f7716	0.31145543
64	0x3e6e9630	0.2329948
65	0x3e2a230b	0.1661493
66	0x3d6e2668	0.058142096
67	0xbd1dd69b	-0.03853474
68	0xbe1f2d05	-0.15544517
69	0xbe1bb00f	-0.1520388
70	0xbe0da6ff	-0.13833235
71	0xbd07d760	-0.033164382
72	0x3cefd6e4	0.029277273
73	0xbdd2a8b5	-0.102860846
74	0xbe7a98b7	-0.24472319
75	0x3e072d3a	0.13200846
76	0xbd1253e5	-0.03572454
77	0x3e751829	0.23934998
78	0xbcdcca6e	-0.026951995
79	0x3dae7758	0.08518857
80	0xbe1048ce	-0.14090273
81	0x3d0340eb	0.032044332
82	0xbe368ab3	-0.17826347
83	0x3e2c4691	0.16823794
84	0x3b52775a	0.0032114596
85	0x3e162ada	0.14664784
86	0xbcf9e2b8	-0.030503616
87	0x3e117e63	0.14208369
88	0x3e10f02a	0.14154115
89	0x3dff6827	0.12471037
90	0xbd1b349f	-0.03789198
91	0xbe04112a	-0.12897173
92	0xbe03be43	-0.12865548
93	0xbe4d8c9d	-0.20073171
94	0x3e46211f	0.19348572
95	0x3d65bb68	0.056086928
96	0xbd594a39	-0.0530493
97	0xbd847cec	-0.064691395
98	0xbd3f415c	-0.04669319
99	0x3e2f5bb6	0.17124829
100	0x3e1353bc	0.14387411
101	0xbdad4e39	-0.084621854
102	0x3c80a129	0.015701847
103	0xbe65b28d	-0.22431393
104	0xbe2a3bab	-0.16624324
105	0x3e5c6b5b	0.21525328
106	0xbdca4b08	-0.09877592
107	0xbdba8ae8	-0.091085255
108	0x3e5a1e02	0.2130051
109	0xbcd5785d	-0.02605837
110	0xbcfab734	-0.030604936
111	0x3da9dada	0.08293696
112	0x3df67afb	0.120351754
113	0xbe0e2954	-0.13882953
114	0xbde0ab9f	-0.10970234
115	0x3df059c5	0.11735872
116	0xbd1d9f49	-0.038481984
117	0x3d6f7c5a	0.0584682
118	0xbe393f09	-0.18090452
119	0xbe023776	-0.12716469
120	0xbd5f319a	-0.054490663
121	0x3e33f1c3	0.17572694
122	0xbded2599	-0.11579437
123	0xbc3ed001	-0.011646272
124	0xbe832d05	-0.25620285
125	0xbdda7a16	-0.10667817
126	0x3cfe8d32	0.031073187
127	0xbe5c83f9	-0.21534719

convs.0.bias f4 [32]
0	0x3e0661e9	0.13123287
1	0xbd3bf3ee	-0.045886926
2	0x3e664797	0.22488247
3	0xbe99ff12	-0.30077416
4	0x3e29f298	0.16596448
5	0xbd1eb3f0	-0.03874582
6	0x3e3fe2d5	0.18738873
7	0x3e233fe8	0.15942347
8	0x3e11bd4e	0.1423237
9	0xbdce38d7	-0.10069435
10	0xbd2f0752	-0.04273159
11	0x3e5b8234	0.21436387
12	0xbd28f819	-0.04125223
13	0xbe8213df	-0.25405785
14	0xbe668e22	-0.22515157
15	0x3d67815a	0.056519844
16	0x3e6c06ec	0.23049515
17	0x3e50f581	0.20406152
18	0x3de2fee8	0.11083776
19	0xbdfc75c9	-0.12327153
20	0x3e2d44a0	0.1692071
21	0xbe87da5e	-0.26533788
22	0x3e44defe	0.1922569
23	0x3d808575	0.06275455
24	0xbd26c235	-0.040712554
25	0xbd0e66e4	-0.034766093
26	0xbe00828a	-0.12549797
27	0xbc60d9ef	-0.013723834
28	0x3e0b02e1	0.13575317
29	0xbdc6a964	-0.097002774
30	0x3e245844	0.16049296
31	0xbd68a3ee	-0.05679696

convs.1.basis f4 [4, 32, 32]
0	0xbd0716e3	-0.03298081
1	0xbd235240	-0.03987336
2	0x3d4b651d	0.049656976
3	0xbd180254	-0.037111595
4	0x3d79fcb1	0.061032
5	0xbc89bb38	-0.016812906
6	0xbd5f92eb	-0.05458347
7	0x3d94c66f	0.07264411
8	0x3c840495	0.016115466
9	0xbd3c8fc9	-0.04603556
10	0x3d0bd6e5	0.034140486
11	0xbd887793	-0.06663432
12	0xbd396191	-0.045259062
13	0x3dc4f589	0.096171446
14	0x3cb27255	0.021783033
15	0x3c267dfc	0.010161873
16	0xbd80e4b9	-0.062936254
17	0xbd0611cb	-0.032731812
18	0x3c1bfd5e	0.009520857
19	0xbc0b951c	-0.008519437
20	0x3c826039	0.015915023
21	0x3d3d410e	0.04620462
22	0xbb5b6153	-0.0033474758
23	0x3dc44f10	0.095853925
24	0xbcf260bc	-0.029587142
25	0x3d6eb9ea	0.05828277
26	0xbbc8b1e6	-0.006124723
27	0xbd0f24b2	-0.034947105
28	0xbcc17b2c	-0.023618303
29	0x3d7c5e1e	0.061613195
30	0x3dc43e91	0.09582246
31	0xbdbf538a	-0.09342106
32	0x3d5e283b	0.054237586
33	0x3c91eb76	0.017812472
34	0xbdf42609	-0.11921317
35	0xbccdeeba	-0.025138248
36	0xbd4513d8	-0.048114628
37	0x3d1e9bda	0.03872285
38	0x3cb7bedb	0.022429874
39	0x3d64c40f	0.05585104
40	0xbddb57b9	-0.10710091
41	0xbd9aa295	-0.07550541
42	0x3d1578c0	0.03649211
43	0xbda85261	-0.082188375
44	0x3d5408a5	0.051766057
45	0x3dd7862a	0.10523637
46	0xbd264444	-0.040592447
47	0x3e076a41	0.13224126
48	0xbcbaf1bb	-0.022820344
49	0x3d1471e5	0.03624143
50	0xbbb6252e	-0.0055586314
51	0x3dc30efa	0.09524341
52	0xbd302230	-0.043001354
53	0xbd8740be	-0.066041455
54	0x3c7bb583	0.0153631
55	0x3e14d337	0.14533697
56	0xbd20107c	-0.03907822
57	0xbdf483f4	-0.119392306
58	0xbd456b9b	-0.048198324
59	0xbdda4930	-0.10658491
60	0xbd301e5d	-0.042997707
61	0x3d3aec3e	0.045635454
62	0x3e136dbf	0.14397334
63	0x3d8cc17a	0.0687284
64	0x3d567366	0.052356146
65	0x3db99aff	0.09062766
66	0x3d6688ae	0.05628269
67	0xbd9b5478	-0.075844705
68	0x3ceb70d8	0.028740332
69	0xbdde68fa	-0.108598664
70	0x3d8371de	0.06418203
71	0xbc4e5018	-0.012592338
72	0xbd10fbfd	-0.035396565
73	0xbdcaed49	-0.0990854
74	0x3dbe3406	0.092872664
75	0x3c9d0f1b	0.019172242
76	0xbd8eaec0	-0.06966925
77	0xbdb0df37	-0.08636325
78	0x3c57d690	0.013173714
79	0xbd3a83b9	-0.045535777
80	0x3b2f60ae	0.0026760506
81	0xbda46b13	-0.08028235
82	0x3db2bf56	0.08727901
83	0xbb712026	-0.0036792844
84	0x3cf3792e	0.029720869
85	0xbd6eb176	-0.05827471
86	0xbdb103e7	-0.086433224
87	0x3e1c9ca6	0.15294132
88	0xbdc91029	-0.098175354
89	0xbe1f5f2d	-0.1556365
90	0x3d3c5465	0.045978922
91	0xbca86f72	-0.020560954
92	0xba787dab	-0.0009479175
93	0x3d7ac5d5	0.061223824
94	0x3bec1a4e	0.007205284
95	0xbd9f3245	-0.0777326
96	0xbcc78c85	-0.024358997
97	0xbd2ca3dc	-0.042148456
98	0x3d4ad11e	0.049515836
99	0x3de8fe55	0.11376635
100	0xba897975	-0.0010488468
101	0x3b6d2a6f	0.0036188622
102	0x3c6c68ae	0.014429254
103	0x3c969da5	0.018385718
104	0xbc98cbea	-0.018651921
105	0x3d0ac159	0.033875797
106	0xbcbcc959	-0.023045229
107	0xbd1a541a	-0.03767786
108	0x3d321687	0.043478515
109	0x3c4042a4	0.011734638
110	0xbd4bcf17	-0.049758043
111	0x3dcc0652	0.09962143
112	0x36877f8f	4.0381633e-06
113	0xbded3eda	-0.115842536
114	0xbc348d32	-0.011019992
115	0xbc87dca0	-0.016584694
116	0xbcad64f3	-0.0211663
117	0x3d91601d	0.0709841
118	0xbd79ac14	-0.060955122
119	0xbbcf46cd	-0.006325579
120	0xbddba759	-0.107252784
121	0xbc4e9d76	-0.012610784
122	0xbc958f9c	-0.018256955
123	0xbc144717	-0.009050152
124	0x3cbe7516	0.02324919
125	0xbced7835	-0.028987983
126	0xbc986a2d	-0.018605316
127	0xbd0570a5	-0.03257813
128	0x3d1652dd	0.03670012
129	0xbcdc4a31	-0.026890846
130	0x3da9f24c	0.082981676
131	0x3c818fb4	0.015815593
132	0x3c3e1d65	0.011603688
133	0xbdb334bd	-0.087502934
134	0xbde1f333	-0.11032715
135	0xbd4c3388	-0.04985383
136	0x3e0de599	0.13857116
137	0xbd6e3f46	-0.05816581
138	0x3de55a0d	0.111988164
139	0xbdc71cf3	-0.097223185
140	0x3c8919fa	0.01673602
141	0xbd4dd531	-0.050252143
142	0x3d891d06	0.06694989
143	0xbd2b23bf	-0.041782137
144	0x3d72b427	0.059253838
145	0xbaed40ad	-0.001810094
146	0xbda73db0	-0.08166063
147	0x3d368ac9	0.04456595
148	0x3e06dcaf	0.13170122
149	0xbdd0cc5a	-0.10195227
150	0x3da05a05	0.0782967
151	0xbdc9a8c5	-0.09846643
152	0x3c0d2acb	0.00861616
153	0x3dab15ab	0.08353742
154	0xbda0bd72	-0.07848634
155	0x3d599045	0.0531161
156	0xbd9c7476	-0.07639401
157	0x3d809865	0.06279067
158	0xbdf8d2a7	-0.12149554
159	0xbd7489bc	-0.059701666
160	0x3d53a44e	0.051670365
161	0xbd2603f2	-0.040531106
162	0xbd3b0746	-0.045661233
163	0x3c296a0d	0.010340226
164	0x3d109dac	0.035306618
165	0xbd0858d8	-0.033287853
166	0x3d7fc6be	0.062445395
167	0xbde82980	-0.113360405
168	0x3dbf1c63	0.09331586
169	0xbd2349fd	-0.039865483
170	0x3936bd7a	0.00017427458
171	0xbcbba365	-0.022905061
172	0xbc4af412	-0.012387292
173	0x3dba5629	0.09098465
174	0x3ca49ed6	0.02009527
175	0x3d5a05d1	0.053228203
176	0x3bbf24b0	0.005833231
177	0xbc4a6464	-0.012353037
178	0xbd8d3bb7	-0.06896155
179	0x3d710733	0.058844756
180	0x3c7e91cf	0.015537693
181	0x3ccf66c3	0.025317555
182	0x3d9cf6d7	0.076642685
183	0xbc817bb4	-0.015806057
184	0x3cd677db	0.026180198
185	0x3e2834de	0.16426417
186	0x3d1c628e	0.038179927
187	0x3d35a0ac	0.04434268
188	0x3d8ff12e	0.07028423
189	0xbdb3c3aa	-0.08777554
190	0xbd387930	-0.04503745
191	0x3c941ba6	0.01807959
192	0xbd7d74ec	-0.061879084
193	0xbdaa3a2a	-0.08311875
194	0xbde9eff9	-0.11422724
195	0xbaf6aa8b	-0.0018819136
196	0x3da7cff8	0.08193964
197	0x3c0398c1	0.008032025
198	0xbc7f0439	-0.015564972
199	0xba381338	-0.0007021907
200	0xbc0a6ecb	-0.008449267
201	0xbded636c	-0.11591229
202	0x3d4a171e	0.049338453
203	0xbd507585	-0.050893325
204	0x3cbddaa1	0.02317554
205	0xbd5851c7	-0.052812364
206	0xbcf83173	-0.030297017
207	0xbdbc5fe7	-0.091979794
208	0xbc9fbb47	-0.01949848
209	0x3d9a29ef	0.075275294
210	0x3d98fb4b	0.07469805
211	0x3d429b79	0.04751155
212	0x3de6de9c	0.11272928
213	0x3d0fe4ec	0.035130426
214	0xbd0d8448	-0.03454998
215	0x3dcf3ad0	0.101186395
216	0xbdc5bd81	-0.096552856
217	0xbe22dd67	-0.15904771
218	0xbe071808	-0.13192761
219	0x3d0488c7	0.032357004
220	0xbde5451c	-0.11194822
221	0x3b242f9e	0.0025052796
222	0x3d7e2b57	0.06205305
223	0x3c789903	0.0151732
224	0x3d5a4e20	0.053297162
225	0x3d942be1	0.07234932
226	0xbd26558e	-0.040608935
227	0x3cbf1420	0.023325026
228	0xbcc92173	-0.024552083
229	0x3d86bcd2	0.06578983
230	0xbd0352f7	-0.032061543
231	0x3ca3ae87	0.019980682
232	0xbdca40ab	-0.09875616
233	0x3c2b3c51	0.010451392
234	0xbd573e06	-0.052549385
235	0xbd908117	-0.07055872
236	0x3d56fdb1	0.052488033
237	0xbd574f48	-0.052565843
238	0x3d5ac46a	0.05340997
239	0xbc832b8e	-0.01601198
240	0xbd40475d	-0.046943057
241	0x3d995154	0.07486215
242	0xbd99f99b	-0.075183116
243	0x3c3f7186	0.011684781
244	0x3caaf2a0	0.020867646
245	0x3c8db846	0.017299782
246	0xbba7b67b	-0.005118189
247	0x3d1e753c	0.038686022
248	0xbe1113d1	-0.14167716
249	0xbd9ec051	-0.07751525
250	0x3dadc506	0.08484845
251	0x3b38f1ec	0.0028220369
252	0x3c972cce	0.018453982
253	0xbbe190df	-0.006883725
254	0x3d840919	0.06447048
255	0x3d692576	0.05692049

convs.1.att f4 [5, 4]
0	0xbdfce17a	-0.12347694
1	0xbdfd26be	-0.12360905
2	0xbd0618db	-0.032738548
3	0x3e21c5c4	0.15798098
4	0xbd9ed22c	-0.07754931
5	0xbd5e2384	-0.05423309
6	0xbcf6fed4	-0.030150808
7	0x3deaf87b	0.11473175
8	0x3c1e7398	0.009671114
9	0x3d0982b2	0.033571906
10	0xbc36a261	-0.011147113
11	0x3db6c506	0.08924298
12	0x3d8fa394	0.07013622
13	0x3ce00937	0.027348144
14	0xbd2180d6	-0.03942951
15	0xbd6a018f	-0.057130393
16	0x3e092fff	0.13397215
17	0x3d2febec	0.042949602
18	0x3ce240a9	0.027618723
19	0xbd1b8893	-0.037972044

convs.1.root f4 [32, 32]
0	0xbde54a13	-0.11195769
1	0x3da369ce	0.07979165
2	0xbd5154d1	-0.051106278
3	0x3ca285eb	0.019839248
4	0x3d5d6062	0.054046996
5	0xbcd05a43	-0.025433665
6	0xbdd1c389	-0.102423735
7	0x3de60f13	0.11233344
8	0xbddc82de	-0.107671484
9	0xbda5feca	-0.08105238
10	0x3dd52f0b	0.10409363
11	0xbd41f804	-0.047355667
12	0xbe1853f7	-0.1487578
13	0xbe15dc67	-0.14634858
14	0xbc550dac	-0.013003748
15	0x3d68838b	0.056766074
16	0x3e1268bd	0.14297767
17	0x3c9bba21	0.019009652
18	0x3c864539	0.01639043
19	0xbddd514d	-0.108065225
20	0x3b837fe9	0.004013051
21	0x3d91d889	0.07121379
22	0x3d6c0701	0.057623867
23	0x3cc70e1a	0.024298716
24	0xbd1fc742	-0.039008386
25	0xbd4a7897	-0.04943141
26	0x3ca5a947	0.02022232
27	0x3e1e39e2	0.15451768
28	0xbce189a2	-0.027531449
29	0xbcfc8a58	-0.030827686
30	0x3d2f2acd	0.042765427
31	0x3da34a7f	0.079731934
32	0xbd43e248	-0.04782322
33	0x3c44c680	0.012010217
34	0x3db6b5ff	0.08921432
35	0xbddb660e	-0.10712825
36	0x3daf18d6	0.08549659
37	0x3d291f1c	0.041289434
38	0x3c0a0a32	0.008425282
39	0x3e0a8ea5	0.13530977
40	0x3d9cc722	0.07655169
41	0xbd2cd337	-0.042193618
42	0x3e06316c	0.1310479
43	0xbd273a8e	-0.040827326
44	0xbe04ba8a	-0.12961784
45	0xbe238de3	-0.15972094
46	0x3d142ffd	0.036178578
47	0xbdfb58eb	-0.12272819
48	0x3ae6db39	0.0017612941
49	0x3d8f1751	0.06986869
50	0x3ccb2c19	0.0248013
51	0xbd746ccf	-0.05967408
52	0x3bf7a53e	0.00755754
53	0x3c6958f7	0.014242402
54	0x3cf9a2db	0.030473163
55	0xbda013d8	-0.07816285
56	0x3dc925a7	0.09821635
57	0x3c0cb06f	0.008586987
58	0x3d9bf295	0.07614628
59	0x3d30caa3	0.043162
60	0xbdb96a51	-0.09053481
61	0x3d6c92bb	0.05775712
62	0xbce1fc88	-0.027586237
63	0x3d8355c2	0.064128414
64	0xbc1b60d7	-0.009483538
65	0xbd832021	-0.064026125
66	0x3d4cabd2	0.049968548
67	0xbd3b9e70	-0.045805395
68	0xbb924564	-0.0044638384
69	0xbdf3b2bf	-0.118993275
70	0x3d81c163	0.06335714
71	0x3dd2528c	0.10269651
72	0x3cd41e97	0.025893493
73	0xbd9fc71d	-0.0780165
74	0x3cfef706	0.03112365
75	0xbda0f54a	-0.07859285
76	0x3c081854	0.0083065815
77	0xbdc1194a	-0.09428652
78	0xbc2021c9	-0.00977368
79	0xbd8d6574	-0.06904116
80	0x3d387248	0.045030862
81	0xbde9e97c	-0.11421487
82	0xbdabfe2b	-0.08398088
83	0x3b969b86	0.0045961766
84	0xbd8fce4a	-0.070217684
85	0xbd4a37f1	-0.049369756
86	0x3d6324d8	0.05545506
87	0x3d8afa0f	0.06785976
88	0xbc1cb88a	-0.009565482
89	0xbbc986c0	-0.0061500967
90	0xbc6b1745	-0.01434881
91	0x3b73a444	0.0037176767
92	0xbc43da83	-0.011953953
93	0x3cb87651	0.022517355
94	0xbc5469c9	-0.012964674
95	0xbd7e6cb8	-0.0621154
96	0x3d3b7978	0.04577014
97	0x3dd36c2a	0.10323365
98	0xbcc49073	-0.02399466
99	0xbd72cd41	-0.059277777
100	0xbccc91f8	-0.024971947
101	0x3d9a6a22	0.075397745
102	0x3d9af6fc	0.0756664
103	0xbd8a2420	-0.067451715
104	0xbda631bb	-0.08114954
105	0x3dbfbece	0.09362565
106	0x3daff18c	0.08590993
107	0x3de4fea2	0.1118138
108	0x3d27bd0e	0.04095178
109	0xbd73f938	-0.059563845
110	0xbd234377	-0.03985926
111	0x3dd09dc8	0.101863444
112	0x3d9b571c	0.07584974
113	0xbdab89a8	-0.08375865
114	0x3ddcc888	0.10780436
115	0xbc55cc28	-0.013049163
116	0x3bdda0ef	0.0067635695
117	0x3dd3a35e	0.10333894
118	0x3d623b3e	0.05523228
119	0x3d17e7ca	0.037086286
120	0x3c795f2e	0.0152204465
121	0xbc62dea4	-0.013847027
122	0x3da3279b	0.079665385
123	0x3db7ea24	0.08980206
124	0x3dd0b12b	0.10190042
125	0xbd9c6d70	-0.07638061
126	0xbc6866c8	-0.014184661
127	0x3da4c466	0.080452725
128	0xb8e5fe60	-0.00010966952
129	0x3db9821e	0.09058021
130	0xbb90a8a3	-0.0044146343
131	0xbda251ad	-0.07925735
132	0x3daeb0a4	0.08529785
133	0xbb99f412	-0.004698285
134	0x3c02160b	0.007939826
135	0xbd30cea9	-0.043165836
136	0xbd04466e	-0.03229373
137	0xbdae89f6	-0.08522408
138	0xbda88844	-0.082291156
139	0xbdadd9cd	-0.08488808
140	0x3de44f05	0.11147884
141	0x3d8257f8	0.06364435
142	0xbb666af2	-0.003515896
143	0x3da6a69a	0.081372455
144	0x3d5b397d	0.053521622
145	0xbd66aa10	-0.056314528
146	0xbc119bd5	-0.008887251
147	0x3ce2cb6c	0.02768489
148	0x3d97d882	0.074143425
149	0x3cc1d7b1	0.02366242
150	0x3db82b9f	0.08992695
151	0xbbf0b58f	-0.007345862
152	0xbb59ff2d	-0.003326367
153	0x3dc685dc	0.096935004
154	0x3d0832b6	0.033251487
155	0xbd0ac31d	-0.03387748
156	0xbdec699e	-0.115435824
157	0xbd236954	-0.03989537
158	0x3db04477	0.08606809
159	0xbdf5af82	-0.11996366
160	0x3db38819	0.08766193
161	0x3c6edae7	0.014578558
162	0x3dcb1cf6	0.09917633
163	0x3e00b959	0.12570705
164	0x3bad3a9e	0.0052865287
165	0x3d4ed6f3	0.05049796
166	0x3ce1fc02	0.027585987
167	0x3cb4a7ee	0.022052731
168	0x3dbc61e0	0.09198356
169	0x3c92adce	0.017905142
170	0x3d0eb2ab	0.03483836
171	0xbd45dd15	-0.048306543
172	0xbd608229	-0.05481163
173	0xbc83139f	-0.016000567
174	0xbc3c1338	-0.0114791915
175	0xbcc5f1a9	-0.024163084
176	0xbe0f9a74	-0.14023763
177	0x3d96442b	0.07337221
178	0xbd8da5e8	-0.0691641
179	0x3a6c2743	0.0009008536
180	0xbd9011df	-0.07034659
181	0x3de02b02	0.10945703
182	0x3d2a5e1b	0.041593652
183	0xbdffb9ee	-0.12486635
184	0xbd6be233	-0.057588767
185	0xbc873128	-0.016502932
186	0x3e05bf7b	0.13061325
187	0x3cfedfeb	0.031112632
188	0xbd1210c6	-0.035660528
189	0xbe166dfa	-0.1469039
190	0xbc771ae7	-0.015082098
191	0x3d694ba4	0.056956902
192	0xbd19751b	-0.037465196
193	0x3cbef551	0.023310335
194	0xbb45fbb6	-0.0030209846
195	0xbdac025d	-0.08398888
196	0x3ca615bb	0.020274034
197	0xbccc29eb	-0.024922332
198	0xbd5c3e3e	-0.053770296
199	0x3d3d36e2	0.04619492
200	0x3d86f906	0.06590466
201	0xbd83b46a	-0.064308956
202	0x3d62b9ba	0.055352904
203	0x3d45c228	0.048280865
204	0xbdcc3bee	-0.09972368
205	0x3b5ea0f5	0.003397045
206	0xbd732620	-0.05936253
207	0x3d8aa4ee	0.06769739
208	0x3ba0f62a	0.0049121575
209	0xbbc42a60	-0.005986497
210	0xbd6497d5	-0.05580886
211	0xbdf2f48a	-0.118630484
212	0x3afdbce9	0.0019358668
213	0x3d123e67	0.035704043
214	0x3d060bb1	0.032725994
215	0xbc2a4308	-0.010391958
216	0x3d0a4bd8	0.033763736
217	0xbd542009	-0.051788364
218	0xbd8dd71f	-0.06925797
219	0x3c6c0ad6	0.01440688
220	0xbd84859f	-0.06470799
221	0x3dfa0f3d	0.12209938
222	0x3d11364f	0.035452183
223	0x3d123df3	0.03570361
224	0xbcaa5c97	-0.020796103
225	0x3daf4a4b	0.08559092
226	0xbd9ed415	-0.07755295
227	0xbcc3707c	-0.023857348
228	0xbc218f25	-0.0098607885
229	0xbd3dc5d1	-0.04633123
230	0xbda0d5a8	-0.07853252
231	0xbdaa2dd6	-0.08309524
232	0xbd5b1389	-0.053485427
233	0x3d61620d	0.05502515
234	0x3d1dccf4	0.038525537
235	0x3cb10c3e	0.021612283
236	0xbd063384	-0.032763973
237	0x3d6bfc07	0.0576134
238	0xbdb610c2	-0.08889915
239	0xbcccecb6	-0.025015216
240	0x3d3e0747	0.04639366
241	0x3cf49250	0.029854923
242	0x3dd57a7b	0.10423752
243	0xbb970f75	-0.004609997
244	0x3da45c62	0.08025433
245	0x3da1cfa9	0.07900936
246	0x3c90adfa	0.017661083
247	0xbcb38cfb	-0.02191781
248	0xbd23fcee	-0.040036134
249	0xbd1e6364	-0.038669005
250	0x3d23e3b9	0.040012095
251	0x3d3ade5c	0.045622215
252	0x3db6a128	0.08917457
253	0x3c15a03f	0.009132444
254	0xbc9c5c45	-0.019086966
255	0x3c98f7d4	0.018672861

convs.1.bias f4 [32]
0	0xbd2642e9	-0.040591154
1	0xbdba4306	-0.09094815
2	0xbd352066	-0.04422035
3	0xbdb8b4ec	-0.09018883
4	0x3d0bd8cf	0.03414231
5	0xbdf57591	-0.11985315
6	0xbdecbe59	-0.115597434
7	0x3cc27508	0.023737445
8	0xbcc7cf09	-0.024390714
9	0xbd9dcd21	-0.07705141
10	0x3dc75a86	0.09734063
11	0xbde32a01	-0.11091996
12	0xbe052124	-0.13000923
13	0xbcaef729	-0.02135809
14	0x3e0b9654	0.13631564
15	0x3cc45f90	0.023971349
16	0x3cda5b4e	0.026654866
17	0x3df88558	0.12134808
18	0x3df0c871	0.11756981
19	0xbb9ac391	-0.0047230204
20	0xbc6e04aa	-0.014527479
21	0xbdab437b	-0.0836248
22	0xbca8a554	-0.020586647
23	0xbc968abd	-0.018376702
24	0xbda17574	-0.078837305
25	0x3d82e89a	0.063920215
26	0xbd583c6c	-0.052791998
27	0x3cb42e9b	0.02199488
28	0xbdfbe6a2	-0.12299849
29	0x3d72bcd8	0.059262127
30	0xbd096156	-0.033540092
31	0xbd3bb90d	-0.045830775

convs.2.basis f4 [4, 32, 32]
0	0x3e00116d	0.12506647
1	0xbd885c5e	-0.06658243
2	0xbccc2189	-0.024918335
3	0x3d2c05ef	0.041997846
4	0xbc1dc3a0	-0.00962916
5	0xbdad2ba1	-0.08455587
6	0x3e0a9cf4	0.13536435
7	0xbcd17d7b	-0.025572529
8	0xbc1e05b1	-0.009644912
9	0x3c6dd478	0.0145159885
10	0xbd904228	-0.07043868
11	0x3badfbdd	0.0053095655
12	0x3cfbb8c9	0.03072776
13	0x3d539047	0.051651265
14	0x3e0a160d	0.13484974
15	0x3bc9d0d3	0.006158927
16	0xba599922	-0.00083007116
17	0x3d9c705e	0.0763862
18	0xbd890dcd	-0.066920854
19	0x3da1bf7c	0.07897851
20	0xbde68d7a	-0.11257453
21	0xbd6821da	-0.05667291
22	0x3d0c06e7	0.03418627
23	0xbd910ec5	-0.07082895
24	0xbd1a6bd7	-0.0377005
25	0xbbfd4a97	-0.007729839
26	0x3c2e55fa	0.010640616
27	0xba7e4072	-0.0009698934
28	0xbcfb91fa	-0.030709255
29	0xbb31e543	-0.0027144707
30	0x3d21ac48	0.03947094
31	0xbdf470f9	-0.1193561
32	0xbda7e737	-0.081983976
33	0xbc824b13	-0.015904939
34	0x3d85e439	0.06537671
35	0xbdb77286	-0.089573905
36	0xbd1bbf5c	-0.03802429
37	0xbaa25b88	-0.0012386898
38	0xbdb60dc2	-0.08889343
39	0x3d50d7a2	0.050986893
40	0x3dd78912	0.10524191
41	0xbd3d07bd	-0.046149958
42	0x3e32d6d8	0.17464769
43	0x3b8e3f4d	0.004341042
44	0x3c7d0d6f	0.015445097
45	0xbd899a58	-0.06718892
46	0xbda27d85	-0.07934097
47	0x3d6af7f6	0.05736538
48	0xbd407a0c	-0.046991393
49	0xbc7a2ed3	-0.015269953
50	0xbdf4536f	-0.11929976
51	0x3cf4bf91	0.029876502
52	0x3db0e8ee	0.08638178
53	0x3dbbe327	0.09174185
54	0x3b85af9f	0.0040797736
55	0xbd5d33fd	-0.054004658
56	0x3d4f245a	0.050571777
57	0xbbcedf99	-0.006313276
58	0x3cd6956a	0.026194293
59	0x3d59d6c8	0.053183347
60	0x3d94e9f8	0.072711885
61	0xbb60f7ae	-0.0034327316
62	0xbd73ab31	-0.059489433
63	0xbd40ab5b	-0.047038417
64	0xbd7de891	-0.06198937
65	0x3c7f0e5c	0.015567388
66	0xbdb859cc	-0.090015024
67	0x3cda6235	0.026658157
68	0xbb23537a	-0.0024921582
69	0xbdb2d2cd	-0.08731613
70	0x3d663860	0.056206107
71	0x3cdce2d1	0.026963623
72	0xbd8caea2	-0.06869246
73	0x3d79bdbd	0.060971964
74	0x3cb7d003	0.022438055
75	0x3d667546	0.056264184
76	0xbda49412	-0.08036055
77	0x3d97c83d	0.07411239
78	0x3dbb12f5	0.09134475
79	0xbdb6c6c1	-0.08924628
80	0xbce443e7	-0.02786441
81	0x3d407102	0.046982773
82	0x3da9acf1	0.08284939
83	0x3c806ec1	0.015677812
84	0x3d8c577b	0.06852623
85	0x3da6981c	0.08134481
86	0x3d10ffdc	0.035400257
87	0x3d0b9adf	0.034083243
88	0x3da4542d	0.08023868
89	0x3d0a9558	0.03383383
90	0xbdc2dcb9	-0.09514756
91	0x3d34f467	0.044178393
92	0x3d7ab892	0.061211176
93	0xbc599a15	-0.013281365
94	0xbcad7109	-0.021172063
95	0xbca24d3e	-0.019812223
96	0x3bc8713f	0.0061170156
97	0xbe0a4497	-0.13502727
98	0x3c8b9f4c	0.017043732
99	0x3d821071	0.06350792
100	0x3df0be06	0.11754994
101	0x3889f19c	6.577672e-05
102	0x3d901a81	0.07036305
103	0x3d635eac	0.055510208
104	0xbdcdbfc3	-0.10046341
105	0xbd8f30a0	-0.06991696
106	0x3cfcd400	0.030862808
107	0x3d86e5b5	0.06586782
108	0x3c19f05b	0.009395684
109	0xbddb32b6	-0.10703032
110	0xbd44f26e	-0.04808276
111	0x3d4731e6	0.04863157
112	0xbd4030e4	-0.046921626
113	0xbb3c7c26	-0.0028760522
114	0x3cb5881f	0.022159634
115	0xbc24d065	-0.010059451
116	0xbd5a23dc	-0.053256854
117	0xbe0c756b	-0.13716666
118	0xbc88290e	-0.016621139
119	0x3d5d4ea7	0.054030087
120	0xbd3d9b97	-0.04629096
121	0xbccc7b31	-0.024961086
122	0xbce2d006	-0.027687084
123	0xbcae7659	-0.021296667
124	0x38e5ab1a	0.00010951441
125	0x3c276236	0.010216286
126	0xbcf916a0	-0.030406296
127	0xbd1d0e4a	-0.038343705
128	0x3d0f9bed	0.03506081
129	0x3d55a899	0.05216274
130	0xbdadcf99	-0.08486862
131	0xbd9ace6a	-0.075589016
132	0xbcb51d8a	-0.022108812
133	0xbd4a7d9c	-0.049436197
134	0xbd755ad7	-0.059901085
135	0x3d8ce087	0.06878763
136	0xbd6ab876	-0.057304822
137	0xbd5b125a	-0.0534843
138	0xbd735ae1	-0.05941284
139	0xbd929357	-0.07157009
140	0x3ce62a98	0.028096482
141	0xbca9e26a	-0.020737845
142	0xbc59e256	-0.013298592
143	0x3d07c644	0.033148065
144	0x3d59398e	0.053033404
145	0xbc47e25c	-0.012199964
146	0xbcf0a7ac	-0.029376827
147	0x3d513095	0.051071722
148	0xbd15bcb1	-0.036556903
149	0x3de8a094	0.11358753
150	0xbcc7f650	-0.024409443
151	0x3ce68bc8	0.028142825
152	0xbd033dec	-0.032041475
153	0xbcd61754	-0.02613417
154	0x3a9aa08a	0.0011797112
155	0xbd843dfb	-0.06457134
156	0x3cec5c3b	0.028852573
157	0xbca3c3a2	-0.019990746
158	0xbd4ab898	-0.04949245
159	0x3c8b8e4c	0.017035626
160	0xbb980208	-0.004638914
161	0xbbbc2ffd	-0.0057430253
162	0x3ad94273	0.001657559
163	0x3c409021	0.011753113
164	0xbd8ed82c	-0.06974825
165	0x3d902cc7	0.070397906
166	0x3d8a2627	0.06745558
167	0xbc8f12bc	-0.017464988
168	0x3d0c1a7a	0.034204938
169	0x3d2437e9	0.040092383
170	0x3ceed5f2	0.029154751
171	0xbb76a89d	-0.0037637122
172	0xbdbb912e	-0.0915855
173	0xbc0ecb22	-0.008715423
174	0x3d8473a0	0.06467366
175	0x3c15420f	0.009109988
176	0x3b8d13d7	0.0043053436
177	0x3cf38ec3	0.02973116
178	0x3dac4f16	0.08413522
179	0x3cab03e6	0.020875882
180	0x3cec418c	0.028839849
181	0x3d066376	0.032809697
182	0x3c91ecc1	0.017813088
183	0x3d6a3101	0.05717564
184	0x3e1d6c06	0.15373239
185	0x3b169df7	0.0022982338
186	0x3d4bb4a7	0.04973283
187	0x3da83644	0.08213475
188	0xbd50c9d3	-0.050973725
189	0x3d4cc23a	0.049989916
190	0x3cafdd16	0.021467727
191	0x3d892c9d	0.066979624
192	0xbcbfe3ff	-0.023424147
193	0xbdb67e36	-0.089107916
194	0xbd889838	-0.066696584
195	0x3d889f4b	0.06671008
196	0x3d651183	0.055924904
197	0xbd277bf0	-0.04088968
198	0x3c88970a	0.016673584
199	0xbd7fc5a1	-0.062444333
200	0xbc91895e	-0.017765697
201	0xbd6fa85c	-0.05851017
202	0xbb4b749d	-0.0031044849
203	0x3dab2a86	0.0835772
204	0xbc099021	-0.008396179
205	0xbd7bf21a	-0.061510183
206	0x3d22691a	0.039651014
207	0x3c913296	0.017724317
208	0x3b90bbc5	0.004416915
209	0x3bbd0d12	0.0057693804
210	0xbd0ff738	-0.035147876
211	0x3c3afdf2	0.011413084
212	0xbcd59d61	-0.02607602
213	0xbbeffa54	-0.0073235426
214	0x3d356a3f	0.044290777
215	0xbc37ded9	-0.011222565
216	0x3d3367a4	0.04380001
217	0x3db85242	0.090000644
218	0xbba39fbc	-0.004993407
219	0xbd06d040	-0.032913446
220	0xbd391b09	-0.0451918
221	0xbd8628bf	-0.065507405
222	0x3d75a1cf	0.059968766
223	0xbdf46b00	-0.11934471
224	0x3d8a039f	0.06738972
225	0x3bfbdd2f	0.0076862792
226	0x3d31c1c6	0.043397687
227	0x3d4836cc	0.048880383
228	0x3ca4c0bc	0.020111434
229	0x3bf21112	0.007387289
230	0x3d8d748f	0.069069974
231	0x3d1076f7	0.035269704
232	0xbce109cc	-0.027470492
233	0x3c206199	0.009788894
234	0x3d1f969e	0.038962
235	0x3d9000b0	0.07031381
236	0x3d9f1147	0.07766967
237	0xbcd31f5c	-0.02577179
238	0xbd2fe117	-0.04293927
239	0x3c0518a2	0.008123549
240	0xbdab86ce	-0.08375321
241	0x3da57a7f	0.08080005
242	0xbd390ac0	-0.045176268
243	0xbd7764d2	-0.060398884
244	0xba31edb5	-0.0006787435
245	0x3d332383	0.04373504
246	0xbd2d690f	-0.04233652
247	0xbd04e2bc	-0.032442793
248	0x3d2d7ee9	0.04235736
249	0x3d162829	0.036659393
250	0xbc8e9016	-0.01740269
251	0x3c867cb7	0.01641689
252	0x3d93396a	0.07188685
253	0x3d47a72d	0.048743416
254	0xbd63d7bd	-0.055625666
255	0xbd9d021b	-0.07666417

convs.2.att f4 [5, 4]
0	0xbcb9f5e1	-0.022700252
1	0x3d5de4b6	0.054173194
2	0x3e17bf7f	0.14819144
3	0x3c8fd7bc	0.017558925
4	0x3d8ad7b0	0.067794204
5	0x3d9e7471	0.07737053
6	0x3de8d772	0.11369218
7	0x3d8aaeb4	0.06771603
8	0x3cafb9dc	0.02145093
9	0xbd505659	-0.050863598
10	0x3d077f71	0.033080522
11	0xbcbe64e0	-0.02324146
12	0x3b4cc675	0.003124622
13	0x3d0742cc	0.033022687
14	0x3c89e23c	0.01683151
15	0x3c65ccad	0.014025849
16	0xbd3d2442	-0.046177156
17	0xbda1736d	-0.07883344
18	0xbd42b979	-0.04754016
19	0xbd8bdddd	-0.068294264

convs.2.root f4 [32, 32]
0	0x3d01ccc2	0.031689413
1	0xbd7a62e8	-0.06112948
2	0x3b9b689f	0.0047426964
3	0x3c6cbaf5	0.014448871
4	0xbda20eb0	-0.07912958
5	0xbcad7a24	-0.021176405
6	0xbd8717f9	-0.06596369
7	0x3bd19d31	0.0063969125
8	0x3dc40bef	0.09572589
9	0xbd7a0851	-0.061043087
10	0x3d44ec08	0.04807666
11	0x3b8cfd92	0.004302689
12	0xbd7d6fa2	-0.06187404
13	0x3dafec03	0.085899375
14	0xbc984f7e	-0.018592592
15	0xbe148578	-0.1450404
16	0x3d968cf3	0.07351103
17	0xbc89f1fa	-0.016839016
18	0xbb35174f	-0.0027632301
19	0x3d21868e	0.039434962
20	0x3cba6a59	0.022755789
21	0x3dd29093	0.102814816
22	0xbc1dee36	-0.009639313
23	0x3d4c0da6	0.049817704
24	0x3d7b90a9	0.061417256
25	0xbd0b44c2	-0.03400112
26	0x3d70d0c8	0.05879286
27	0x3d3c503b	0.04597495
28	0x3bac7b95	0.0052637556
29	0x3d7ceb8b	0.06174807
30	0xbce16e2d	-0.027518356
31	0xbdb252fc	-0.08707234
32	0xbd6ff82d	-0.05858629
33	0x3c845abf	0.016156552
34	0xbbdbe0e0	-0.006710157
35	0x3d54b247	0.05192783
36	0x3d9ba3f9	0.07599635
37	0x3dbfc09d	0.0936291
38	0xbda3ddfa	-0.08001323
39	0xbde63a6a	-0.1124161
40	0x3d069a62	0.032862075
41	0xbca77d8e	-0.020445611
42	0xbdc36bd2	-0.095420495
43	0x3d4082be	0.046999685
44	0x3d906b14	0.070516735
45	0xbc4e25dd	-0.0125822695
46	0x3cf830aa	0.030296642
47	0x3df39e66	0.118954465
48	0x3d2b6166	0.041840933
49	0xbc6d2dac	-0.014476221
50	0xbdbf20a0	-0.093323946
51	0xbdc89d58	-0.09795636
52	0x3d7c7c8f	0.061642226
53	0xbd8f0460	-0.06983256
54	0xbd2bc11f	-0.04193222
55	0xbdc2bb4c	-0.0950838
56	0xbdd8367b	-0.10557266
57	0xbd9b6335	-0.075872816
58	0x3dba7028	0.09103423
59	0xbcbd15dd	-0.023081714
60	0xbd78180a	-0.0605698
61	0x3db6e97e	0.08931254
62	0xbe1304c0	-0.1435728
63	0x3d142f2a	0.03617779
64	0x3d4d74f5	0.050160367
65	0xbdceb576	-0.10093205
66	0x3d28432f	0.041079696
67	0xbd19b007	-0.03752139
68	0xbde16a99	-0.1100666
69	0xbd70cceb	-0.058789175
70	0xbd04ea5f	-0.032450076
71	0x3c356ab6	0.011072805
72	0x3dc0121d	0.09378455
73	0xbd7482bd	-0.059694994
74	0xbd65b0cb	-0.056076806
75	0xbd2f6e4a	-0.04282979
76	0xbc25345e	-0.010083286
77	0xbc896357	-0.016771002
78	0x3c81a6c9	0.0158266
79	0xbd2cbc80	-0.042171955
80	0xbd574642	-0.052557237
81	0x3d8ce69d	0.068799235
82	0xbd4e4810	-0.050361693
83	0xbd1edcb5	-0.0387847
84	0xbe04130b	-0.1289789
85	0x3ce42102	0.02784777
86	0x3d8222b7	0.063542776
87	0x3db595e0	0.08866477
88	0x3d4aee5a	0.049543716
89	0xbce6b6e2	-0.028163377
90	0x3d1e5b3a	0.03866122
91	0x3d3340a1	0.043762807
92	0x3d9f1a98	0.07768744
93	0xbcda0d4d	-0.02661767
94	0x3af8ba4f	0.0018976423
95	0xbd892df8	-0.06698221
96	0x3daedb8c	0.08537969
97	0xbd095c0a	-0.03353504
98	0xbdaaa17f	-0.08331584
99	0x3d7368dc	0.059426174
100	0xbc5c7e0c	-0.013457786
101	0xba2636b8	-0.0006340551
102	0xbdba5124	-0.090975076
103	0x3c875441	0.016519668
104	0x3d802bba	0.0625834
105	0x3d587d35	0.05285378
106	0x3a817fe0	0.0009880029
107	0xbb88ce18	-0.004174959
108	0xbe01399b	-0.12619631
109	0xbdfc578c	-0.12321386
110	0xbd9a5c2a	-0.0753711
111	0xbdde4acb	-0.108541094
112	0xbd88302b	-0.06649812
113	0x3d11e835	0.03562184
114	0xbd1db344	-0.03850104
115	0xbd107f59	-0.0352777
116	0x3e05c222	0.13062337
117	0x3d511e40	0.05105424
118	0xbc60f62c	-0.013730567
119	0xbd1e7129	-0.038682137
120	0x3e54acce	0.20769045
121	0xbd7db5b8	-0.06194088
122	0x3d97309e	0.0738232
123	0xbc89724c	-0.016778134
124	0xbd9a7850	-0.07542479
125	0x3dc12d0f	0.09432422
126	0xbd404b2f	-0.0469467
127	0x3d02df9c	0.03195153
128	0xbc16c1fa	-0.009201521
129	0x3dd7c340	0.10535288
130	0x3d963dc6	0.07336001
131	0x3c9595ec	0.018259965
132	0x3d2a80c4	0.041626707
133	0xbdf64647	-0.12025123
134	0x3d8f55da	0.06998797
135	0x3d118fd1	0.035537545
136	0xbdac7989	-0.084216185
137	0xbd253ca4	-0.040341035
138	0xbd8db7e1	-0.06919838
139	0x3d267a33	0.040643882
140	0x3e109af2	0.14121607
141	0xbb53e16a	-0.0032330402
142	0xbd8db259	-0.06918783
143	0x3de83df0	0.11339939
144	0x3ccecee4	0.025245138
145	0x3d9de414	0.07709518
146	0x3d8d3c90	0.06896317
147	0xbd8c5043	-0.06851246
148	0x3c7d05e0	0.015443295
149	0xbe115750	-0.14193463
150	0x3d7db5d0	0.061940968
151	0xbb154209	-0.0022774956
152	0xbd843600	-0.06455612
153	0xbd4ce963	-0.050027262
154	0xbd23106c	-0.039810583
155	0x3d4ac4bd	0.04950403
156	0xbcdb8d12	-0.026800666
157	0x3b157137	0.0022803077
158	0x3ceac72f	0.028659431
159	0xbd087034	-0.03331013
160	0x3bb245fc	0.0054404717
161	0xbe0a959f	-0.13533638
162	0xbe1ce7ab	-0.1532275
163	0x3d8e25e3	0.0694082
164	0x3ab5784c	0.0013845055
165	0x3da4770c	0.08030519
166	0xbd55e8fe	-0.05222415
167	0xbcc9d2a5	-0.024636576
168	0x3d958bc8	0.07302052
169	0x3d106549	0.035252843
170	0x3d80ec4f	0.06295072
171	0x3c9a6dc7	0.018851174
172	0x3d7c116b	0.06154005
173	0x3ceb7bd5	0.028745571
174	0x3d1b89a1	0.03797305
175	0xbce7dfb1	-0.028304907
176	0x3d27591e	0.040856473
177	0x3d81eb7b	0.063437425
178	0xbd8973e6	-0.06711559
179	0xbd168126	-0.03674426
180	0xbdb18e0b	-0.08669671
181	0xbd214435	-0.039371688
182	0x3dfe3425	0.124122895
183	0x3b831277	0.004000004
184	0xbc9acc94	-0.018896379
185	0xbd4628be	-0.0483787
186	0x3e0625df	0.13100384
187	0xbd0afa15	-0.033929903
188	0x3d1b3b4a	0.03789834
189	0x3d19e5dc	0.037572727
190	0x3e236990	0.15958238
191	0xbe289641	-0.16463567
192	0xbc13328d	-0.00898422
193	0x3d10ac0a	0.03532032
194	0xbd82c401	-0.06385041
195	0x3d02f93d	0.031975973
196	0xbd667a4f	-0.056268986
197	0x3d016a0f	0.031595286
198	0xbd1a0573	-0.037602853
199	0xbd0e5c1e	-0.03475582
200	0x3cbd2968	0.023091033
201	0xbd377c3f	-0.044796225
202	0x3cb4a257	0.022050066
203	0xbda50711	-0.080579884
204	0xbd90c8c9	-0.07069547
205	0x3d3da54a	0.04630021
206	0xbd81ca88	-0.06337458
207	0x3c6d381c	0.01447871
208	0x3dfdffd3	0.1240231
209	0xbdab1fe7	-0.08355694
210	0xbcf4a1c3	-0.02986229
211	0xbdb6ae5b	-0.089199744
212	0x3d85ca87	0.0653277
213	0x3e2e083f	0.16995333
214	0x3a9f5603	0.0012156371
215	0x3d835a40	0.06413698
216	0x3e47f347	0.19526397
217	0x3d242ec8	0.040083677
218	0xbd7b9ac9	-0.06142691
219	0x3d31588e	0.043297343
220	0x3c0fb6bf	0.008771597
221	0x3d14531a	0.036212064
222	0xbdc09184	-0.09402755
223	0x3d0dc915	0.034615595
224	0xbdd431a4	-0.10361031
225	0xbc93e35f	-0.018052755
226	0x3dd0fc75	0.10204402
227	0x3d3c5499	0.045979116
228	0x3de668e8	0.11250478
229	0xbda81573	-0.08207216
230	0xbd84ecb7	-0.06490462
231	0xbd86b6f4	-0.06577864
232	0x3dc2b4aa	0.09507115
233	0x3ce75d58	0.028242752
234	0xbd344830	-0.044014156
235	0xbd180be5	-0.03712072
236	0xbc327bd9	-0.010893785
237	0x3c9a33d4	0.018823542
238	0xbdea4c35	-0.114403166
239	0x3d7bb804	0.061454788
240	0xbd6cbbe3	-0.05779637
241	0x3d34ad6d	0.044110704
242	0x3dbdf4bd	0.09275196
243	0xbc5ce96b	-0.013483386
244	0x3dadaa87	0.08479791
245	0xbde43237	-0.1114239
246	0xbe0d8647	-0.13820754
247	0x3d027ec8	0.03185919
248	0xbd803fb5	-0.06262151
249	0xb9022f8f	-0.00012415483
250	0xbdb86552	-0.090037
251	0xbda041c6	-0.07825045
252	0x3ced5ba2	0.028974358
253	0xbdba5e64	-0.09100035
254	0xbd09b09b	-0.03361569
255	0x3e099b0e	0.13438055

convs.2.bias f4 [32]
0	0xbd88b78c	-0.06675634
1	0x3aca6831	0.0015442428
2	0x3da063b7	0.07831519
3	0xbe00be02	-0.12572482
4	0x3d2c1eb3	0.042021465
5	0xbe12c35e	-0.14332339
6	0x3ccbab6f	0.02486202
7	0xbdb0fe1d	-0.08642218
8	0xbde75907	-0.112962775
9	0xbd9da550	-0.076975465
10	0x3ccf0a62	0.025273506
11	0x3d5ba56a	0.053624548
12	0xbcc7907e	-0.024360891
13	0x3d8cda57	0.068775825
14	0xba058cee	-0.00050945475
15	0x3ddfb503	0.10923197
16	0xbd6c92bd	-0.057757128
17	0xbd6d8d4a	-0.057996072
18	0x3d85512b	0.06509622
19	0xbde14b52	-0.11000694
20	0xbdaaed96	-0.08346097
21	0xbe0dbfb5	-0.13842662
22	0xbdff4c09	-0.124656744
23	0xbde2603b	-0.11053511
24	0xbdf668dd	-0.1203172
25	0x3d52ef32	0.051497646
26	0xbd249b42	-0.040187128
27	0x3d4fcd12	0.05073268
28	0x3d399b25	0.045313973
29	0xbcdcb9bd	-0.026944036
30	0xbdd0c1cf	-0.10193216
31	0x3dadc4fe	0.08484839

convs.3.basis f4 [4, 32, 32]
0	0x3bb11683	0.005404295
1	0x3cca28bd	0.024677629
2	0xbda22b7f	-0.079184525
3	0x3d62710b	0.055283587
4	0x3c71d48f	0.014760151
5	0xbd3f6711	-0.04672915
6	0x3dd9761c	0.10618231
7	0xbd8b6ef1	-0.0680827
8	0x3bfa757e	0.0076434007
9	0x3c8a50ee	0.016884293
10	0xbc7a5a89	-0.015280374
11	0x3e3352ce	0.17512056
12	0xbde39c02	-0.111137405
13	0x3de3d5bc	0.11124751
14	0x3de1daa6	0.11028032
15	0x3cfd5d78	0.030928358
16	0xbd051496	-0.032490335
17	0xbb16a62c	-0.002298723
18	0xbe14dedb	-0.14538138
19	0x3c6d475c	0.014482345
20	0xbd0e1444	-0.034687296
21	0x3d040308	0.032229453
22	0x3db3a0dd	0.087709166
23	0x3d765de5	0.06014814
24	0x3d54ac2a	0.051922
25	0x3d95994a	0.07304628
26	0xbdbb5d7d	-0.09148691
27	0xbdb700eb	-0.08935722
28	0x3d957b1f	0.07298874
29	0xbcad3c61	-0.021146955
30	0x3de9a990	0.114092946
31	0xbcc1444f	-0.023592142
32	0x3d2de76a	0.04245702
33	0xbc7bf9ed	-0.015379411
34	0x3df022a0	0.11725354
35	0x3de960fb	0.11395451
36	0x3db28711	0.08717168
37	0xbc7f8bf8	-0.015597336
38	0xbe10be7c	-0.14135164
39	0x3db01e5f	0.08599543
40	0x3cd5db06	0.026105415
41	0x3ca886ed	0.02057215
42	0xbddfdb0c	-0.10930452
43	0xbddfd55c	-0.10929367
44	0x3d823d4e	0.06359349
45	0x3d24629b	0.0401331
46	0xbde3b713	-0.11118903
47	0x3d025288	0.03181699
48	0xbbbfaa5b	-0.0058491654
49	0x3d3ce9e1	0.04612148
50	0x3e061e31	0.13097455
51	0xbc7c457a	-0.015397424
52	0x3df62d09	0.120203085
53	0xbd75583c	-0.0598986
54	0xbcb27cb3	-0.021787977
55	0xbdcc1358	-0.09964627
56	0x3cc1af27	0.02364309
57	0x3d3ecf00	0.04658413
58	0xbc5ea08d	-0.013588083
59	0x3d51c23d	0.05121063
60	0x3ceb9b6f	0.02876064
61	0xbcba96a0	-0.022776902
62	0xbd8c3da8	-0.068476975
63	0x3d687b71	0.056758348
64	0xbdb995d7	-0.09061783
65	0xbd14299c	-0.036172494
66	0x3da39158	0.079867065
67	0xbd043e8b	-0.032286208
68	0xbda5a9ff	-0.08089065
69	0x3df32261	0.11871792
70	0x3e02b437	0.12764059
71	0xbd2721ac	-0.040803596
72	0xbdc02db7	-0.093837194
73	0xbdbb197e	-0.091357216
74	0xb8835008	-6.261474e-05
75	0x3dae5563	0.0851238
76	0x3cb19c44	0.021680959
77	0xbd701f0a	-0.05862335
78	0x3da337e3	0.07969644
79	0xbc549e2b	-0.012977163
80	0xbc6b83e1	-0.014374704
81	0xbda2e9fc	-0.07954785
82	0x3dbcf381	0.09226132
83	0xbd6123b6	-0.054965697
84	0xbdad436d	-0.08460126
85	0x3d936a40	0.07198
86	0xbc04e10c	-0.008110296
87	0x3d9c0f41	0.07620097
88	0xbd82b849	-0.06382806
89	0x3ce848df	0.02835506
90	0xbd992b57	-0.074789695
91	0x3b8e1a1d	0.004336609
92	0x3b8bf033	0.0042705773
93	0xbe0b1b41	-0.13584615
94	0x3c99930f	0.01874688
95	0xbd89c604	-0.067272216
96	0xbc73ef5b	-0.01488861
97	0x3d3e1e97	0.04641589
98	0x3d877759	0.06614561
99	0x3d45b89d	0.048271764
100	0x3b09b956	0.002101501
101	0x3d52e4f3	0.051487874
102	0xbd8a75bd	-0.06760738
103	0xbd80da87	-0.06291681
104	0xbd888b18	-0.06667155
105	0x3de4a64b	0.1116453
106	0x3c11fc28	0.008910216
107	0x3cd73db7	0.026274545
108	0xbd5ff97b	-0.054681282
109	0x3d7b2b84	0.061320797
110	0x3d33bb0a	0.043879546
111	0xbdf0e8fd	-0.11763189
112	0xbd04835f	-0.032351848
113	0xbb5f47f1	-0.003406998
114	0x3c8d3df2	0.017241452
115	0x3e01873a	0.12649241
116	0xbde0ca8b	-0.10976132
117	0xbd9c51be	-0.076327786
118	0x3d83b045	0.06430105
119	0xbd296b7e	-0.04136228
120	0xbb14d904	-0.002271236
121	0x3c54f16d	0.0129970135
122	0xbcd1876b	-0.025577268
123	0xbbb4bfa9	-0.0055160117
124	0x3d924d6c	0.07143673
125	0x3cc240cc	0.023712538
126	0xbd62f738	-0.055411547
127	0xbdabbd3c	-0.08385703
128	0xbdc3cd19	-0.09560604
129	0xbd65769c	-0.056021318
130	0x3dbea601	0.093090065
131	0xbc7005fb	-0.014649863
132	0xbc62a71b	-0.013833786
133	0x3d17c465	0.03705253
134	0x3cebd22d	0.028786743
135	0xbd3e51c0	-0.04646468
136	0xbbf7dd87	-0.00756425
137	0xbd7f76c9	-0.06236914
138	0x3e114a51	0.14188506
139	0x3d541900	0.051781654
140	0x3cab236c	0.020890914
141	0xbdc75c11	-0.09734357
142	0xbd46cdbb	-0.048536044
143	0xbd82ee1e	-0.063930735
144	0xbd91fa3d	-0.07127807
145	0x3c996620	0.018725455
146	0x3dcf5ca9	0.101250954
147	0xbe003247	-0.1251918
148	0xbd2a00ea	-0.041504778
149	0xbd0d20ab	-0.034454983
150	0x37c7ab2e	2.380236e-05
151	0x3def8e08	0.11697012
152	0xbe1086f4	-0.1411398
153	0xbd870b00	-0.06593895
154	0x3bfd45dc	0.007729275
155	0xbdc45c1c	-0.09587881
156	0xbbca1e4c	-0.0061681625
157	0xbd6c8392	-0.057742663
158	0xbdb1e793	-0.086867474
159	0xbd96b403	-0.07358553
160	0x3da32cb4	0.07967511
161	0xbd994d12	-0.07485403
162	0xbdfaf771	-0.12254227
163	0xbd4f0beb	-0.050548475
164	0x3ce63e90	0.028106004
165	0xbd1fec1b	-0.039043527
166	0x3d36f55f	0.044667598
167	0xbcbb4211	-0.022858651
168	0x3d119673	0.03554387
169	0x3d1a1825	0.037620682
170	0xbbd94bfb	-0.006631372
171	0x3a96a19f	0.0011492259
172	0xbd63f40d	-0.055652667
173	0x3e11d473	0.14241199
174	0x3dc0efb8	0.09420723
175	0x3da99f6d	0.08282361
176	0xbd2df790	-0.042472422
177	0xbba91f48	-0.0051611997
178	0xbe30471a	-0.17214623
179	0x3d7ab308	0.061205894
180	0x3c58b4f9	0.013226741
181	0x3d94a4d4	0.07258001
182	0xbb9aa0cc	-0.0047188755
183	0x3d6bda4c	0.05758123
184	0x3d8d2c9a	0.06893273
185	0xbdb58ce9	-0.08864767
186	0xbdffc190	-0.12488091
187	0x3c103877	0.008802525
188	0xbd3559e0	-0.044275165
189	0x3d0eb691	0.034842078
190	0x3daad485	0.08341316
191	0xbdec8b77	-0.11550038
192	0xbdc72607	-0.0972405
193	0x3d1f5bcb	0.0389059
194	0xbcb55233	-0.022133922
195	0xbd49993a	-0.049218394
196	0x3d76658a	0.06015543
197	0xbc63cf75	-0.013904442
198	0xbd198302	-0.037478454
199	0x3d8cf952	0.068834916
200	0xbc1f58ba	-0.009725744
201	0x3d50a2a3	0.050936352
202	0xbdb491fa	-0.08816905
203	0xbd056937	-0.032571044
204	0xbc830aa1	-0.01599628
205	0x3b4060ed	0.0029354647
206	0x3da63b22	0.081167474
207	0x3defd0e8	0.117097676
208	0x3d6a2ae9	0.05716983
209	0x3d40dde3	0.047086608
210	0xbdd97309	-0.10617644
211	0x3bf84c41	0.0075774495
212	0x3d2b42f3	0.041811895
213	0x3d628cd6	0.055310093
214	0xbc7cb589	-0.015424141
215	0xbdd17078	-0.1022653
216	0xbc998551	-0.018740328
217	0x3d602878	0.054726094
218	0x3c286212	0.010277288
219	0xbdf297ce	-0.11845361
220	0x37b5becc	2.1665728e-05
221	0x3ccf41ae	0.025299873
222	0x3d128e77	0.035780396
223	0x3dc27992	0.09495844
224	0x3df01aa2	0.1172383
225	0xbdbb188d	-0.09135542
226	0xbbee84c6	-0.0072790114
227	0x3c5c8e0c	0.013461601
228	0x3c9079ca	0.017636199
229	0xbd3d00dd	-0.0461434
230	0xb99be552	-0.0002973476
231	0x3cbe0c3a	0.02319919
232	0x3da077a8	0.078353226
233	0xbd124b2d	-0.035716224
234	0xbc2488ff	-0.010042428
235	0x3de08766	0.10963325
236	0xbd9b8944	-0.07594541
237	0x3de6d21d	0.11270545
238	0x3dd5e5f8	0.10444254
239	0x3dd9b63d	0.10630462
240	0xbd465f33	-0.048430633
241	0x3de2d64d	0.11076031
242	0xbde32dcb	-0.11092719
243	0xbd6a8eb3	-0.057264995
244	0x3d062641	0.032751326
245	0x3d5fae46	0.05460956
246	0x3d80c565	0.0628765
247	0x3dd5cc5a	0.104393676
248	0x3d207d55	0.039182026
249	0xbceb0c78	-0.028692469
250	0xbd8dda6b	-0.069264255
251	0xbcacc00e	-0.021087673
252	0x3ccc0fa1	0.024909796
253	0x3ae40bd5	0.0017398546
254	0x3e498319	0.19678916
255	0xbe06ff07	-0.13183223

convs.3.att f4 [5, 4]
0	0xbdebe97d	-0.11519144
1	0x3de95eab	0.113950096
2	0xbda11748	-0.07865769
3	0x3be945cf	0.0071189175
4	0xbdabd089	-0.08389384
5	0x3d6cb1da	0.0577868
6	0x3d487e6e	0.048948698
7	0x3d825574	0.06363955
8	0xbd9c7051	-0.0763861
9	0x3db9f884	0.09080604
10	0x3d5cf3e3	0.053943526
11	0x3d207ebf	0.039183374
12	0x3d9bc511	0.07605947
13	0x3d3f2e08	0.04667476
14	0xbd6e2d79	-0.058148835
15	0x3d5cd005	0.05390932
16	0x3bac4602	0.005257369
17	0xbd614a5f	-0.055002566
18	0x3cf505ae	0.029909935
19	0x3c295282	0.010334613
