results/flixster_testmode/model_checkpoint32.pth (torch_old, 199981 bytes, 19 tensors)

convs.0.basis f4 [4, 4, 32]
0.013676637 -0.004669168 0.039643306 0.044936426 -0.08485976 0.20014198 -0.11479611 -0.11892188
0.09098391 -0.19535868 0.10171748 -0.09013233 -0.20205355 0.08465554 0.14855585 -0.109299645
-0.057853002 -0.08548222 -0.20472316 -0.012326605 0.046354406 0.18801327 0.052400786 -0.08151997
0.06641957 -0.10830038 0.11707241 0.016630104 0.15005417 0.28267828 -0.16558133 0.037321083
-0.17429236 -0.13230376 -0.123329215 0.032526582 0.01657386 0.25293767 -0.00017257614 -0.06371732
-0.22190672 -0.093363255 0.10518324 -0.2093826 -0.007736964 -0.0012796082 0.036775332 -0.08123282
-0.047103964 -0.20572473 0.07561544 -0.1268654 -0.076723844 0.14484993 -0.08657879 -0.075980045
0.01507148 -0.06271524 0.00097343005 0.03901053 0.10436084 0.13842472 -0.24006455 0.0059703677
-0.066791035 -0.099458806 0.027559053 0.010349899 -0.021354992 -0.10374495 0.028984135 -0.32083407
-0.41693652 0.017620651 0.014936352 0.07179707 0.25409514 0.048376918 0.039155383 -0.16459742
0.015019799 -0.06091167 0.06747894 0.07739111 0.061607517 0.092847444 -0.7442543 -0.478844
-0.38558343 0.04682618 -0.062323645 0.041964065 -0.061033387 0.045215607 0.002019462 0.11156792
0.12098424 -0.028864548 0.0012934747 -0.0011145559 -0.13141711 -0.30333808 -0.06494175 0.081326365
0.3849854 0.59751153 0.60079193 0.16086611 0.07540514 0.048310462 -0.034467902 -0.03732773
-0.43538335 -0.033578705 -0.17036316 -0.028679455 -0.07982704 -0.5654366 -0.121398866 0.059563264
-0.044951968 0.26548365 -0.17144586 -0.20977166 -0.00965312 0.080486424 0.167198 0.065702744
0.011065351 0.01772653 0.03336547 0.018350268 -0.08047076 0.09267499 -0.031322397 -0.07933398
-0.0250166 -0.1301663 0.061224207 0.010652681 -0.13668755 0.036057584 0.1356913 -0.17874056
-0.068543665 -0.041186195 -0.093870044 -0.051979803 0.023784589 0.14310697 0.104427435 -0.10271702
0.050489176 -0.051057737 0.10898411 -0.00094316265 0.079868235 0.1934595 -0.08714339 0.03071926
-0.1469677 -0.11340985 -0.13762167 0.12560035 -0.0007874378 0.21028183 -0.04898826 -0.03212654
-0.13900793 -0.11679246 0.092484884 -0.20917842 -0.0061753006 -0.010695943 0.10910061 -0.07859856
-0.04494723 -0.14762297 0.0074363966 -0.09479143 -0.09929391 0.13732906 -0.026681658 -0.051297724
0.025203355 -0.044350114 0.0058714147 0.018585797 0.13760242 0.2246587 -0.21055806 0.031258427
-0.020237619 0.018727275 -0.1018603 0.020375207 0.056853183 0.08794012 0.029969836 -0.21857034
-0.5741941 0.077162825 -0.12060198 -0.107412145 0.27838233 0.0040435595 -0.17015168 -0.2152999
0.15620339 -0.043282878 0.11828671 0.1355438 -0.09747636 -0.044587046 -0.622173 -0.42822582
-0.34341243 0.027596055 0.057392936 -0.04615864 -0.0035563433 -0.06429992 -0.056172915 0.009455053
-0.005764038 0.15929529 0.028547792 -0.0010096323 0.1417161 -0.100459024 0.014507757 -0.09461371
0.25292918 0.44910464 0.39753664 -0.5648429 -0.093629554 -0.027264467 -0.034343943 0.025164908
-0.22534996 -0.117167756 -0.20499937 -0.020004155 0.007605195 -0.37058622 0.19383922 0.011695682
0.06902029 0.14507717 0.09963579 -0.009902661 0.007992084 0.05574401 -0.12011163 -0.14242819
00000000: f913 603c d2ff 98bb 0561 223d 420f 383d
00000010: f4ca adbd 05f2 4c3e 391a ebbd 518d f3bd
00000020: c655 ba3d 1b0c 48be 4151 d03d 4d97 b8bd
00000030: 20e7 4ebe e25f ad3d 061f 183e 7ed8 dfbd
00000040: 45f7 6cbd 4d11 afbd f3a2 51be 87f5 49bc
00000050: 1ede 3d3d 8d86 403e 35a2 563d f1f3 a6bd
00000060: fc06 883d 97cc ddbd a9c3 ef3d db3b 883c
00000070: cda7 193e 35bb 903e 278e 29be fedd 183d
00000080: b279 32be a37a 07be 0794 fcbd 983a 053d
00000090: e7c5 873c 0c81 813e 8ef5 34b9 3a7e 82bd
000000a0: 843b 63be 3c35 bfbd 4f6a d73d 6468 56be
000000b0: 5c86 fdbb 87b8 a7ba bba1 163d 655d a6bd
000000c0: 16f0 40bd 81a9 52be 45dc 9a3d 01e9 01be
000000d0: 6421 9dbd 8a53 143e 3850 b1bd 6d9b 9bbd
000000e0: 5eee 763c d970 80bd c92d 7f3a 81c9 1f3d
000000f0: 23bb d53d 36bf 0d3e 7bd3 75be 13a3 c33b
00000100: bdc9 88bd 0fb1 cbbd 86c3 e13c 9f92 293c
00000110: aaf0 aebc 3b78 d4bd 2370 ed3c 5d44 a4be
00000120: b478 d5be 2f59 903c 9ab7 743c 580a 933d
00000130: c218 823e e026 463d 6561 203d 3a8c 28be
00000140: 9a15 763c 847e 79bd 6632 8a3d 3b7f 9e3d
00000150: 2a58 7c3d cd26 be3d 7387 3ebf 0a2b f5be
00000160: 316b c5be cfcc 3f3d 1447 7fbd 83e2 2b3d
00000170: 25fe 79bd 0034 393d f358 043b b97d e43d
00000180: 96c6 f73d 5875 ecbc cf89 a93a 4a16 92ba
00000190: 3592 06be 214f 9bbe 2e00 85bd 708e a63d
000001a0: ce1c c53e 84f6 183f 80cd 193f 16ba 243e
000001b0: 036e 9a3d 31e1 453d 372e 0dbd f6e4 18bd
000001c0: 91ea debe d389 09bd ae73 2ebe 2df1 eabc
000001d0: 5c7c a3bd 74c0 10bf f89f f8bd 9cf8 733d
000001e0: 8e1f 38bd 79ed 873e 818f 2fbe 62ce 56be
000001f0: 1f28 1ebc 11d6 a43d f435 2b3e 298f 863d
00000200: 724b 353c 3a37 913c 3baa 083d 4d53 963c
00000210: dbcd a4bd 63cc bd3d ea4b 00bd db79 a2bd
00000220: 9def ccbc 514a 05be 3cc6 7a3d 9588 2e3c
00000230: d2f7 0bbe 1eb1 133d a9f2 0a3e c407 37be
00000240: 9f60 8cbd dbb2 28bd f03e c0bd c6e8 54bd
00000250: e6d7 c23c a28a 123e 0dde d53d 4d5d d2bd
00000260: bdcd 4e3d eb21 51bd 1033 df3d 933e 77ba
00000270: f591 a33d 3f1a 463e 3c78 b2bd f5a6 fb3c
00000280: b37e 16be 6c43 e8bd b2ec 0cbe 619d 003e
00000290: 0e6c 4eba 1f54 573e eaa7 48bd 1e97 03bd
000002a0: 1858 0ebe e330 efbd b768 bd3d de32 56be
000002b0: 2d5a cabb 093e 2fbc 2470 df3d 48f8 a0bd
000002c0: 961a 38bd 7a2a 17be 04ad f33b 0222 c2bd
000002d0: 9b5a cbbd fd9f 0c3e 7e93 dabc 901d 52bd
000002e0: 4477 ce3c 77a8 35bd ff64 c03b 3e41 983c
000002f0: a6e7 0c3e ee0c 663e 889c 57be d608 003d
00000300: 5dc9 a5bc f169 993c 229c d0bd e8e9 a63c
00000310: e2de 683d f319 b43d 4d83 f53c e7d0 5fbe
00000320: 62fe 12bf 8b07 9e3d 2cfe f6bd e6fa dbbd
00000330: 2188 8e3e d67f 843b 3e3c 2ebe 9477 5cbe
00000340: c8f3 1f3e 6349 31bd 4d40 f23d fecb 0a3e
00000350: b0a1 c7bd e8a0 36bd bb46 1fbf 6a40 dbbe
00000360: c1d3 afbe 1f11 e23c db14 6b3d d810 3dbd
00000370: 8a11 69bb adaf 83bd 9215 66bd 5ee9 1a3c
00000380: 41e0 bcbb 4e1e 233e 0fdd e93c a355 84ba
00000390: 061e 113e 76bd cdbd f1b1 6d3c d5c4 c1bd
000003a0: ef7f 813e 0bf1 e53e ec89 cb3e 8b99 10bf
000003b0: dac0 bfbd bb59 dfbc 3cac 0cbd a326 ce3c
000003c0: 24c2 66be a6f5 efbd 5beb 51be c1df a3bc
000003d0: 0035 f93b 7abd bdbe ca7d 463e 3f9f 3f3c
000003e0: 835a 8d3d 1c8f 143e d90d cc3d c53e 22bc
000003f0: 3bf1 023c d553 643d 16fd f5bd b2d8 11be

convs.0.att f4 [10, 4]
-0.088891774 -0.18524201 0.2860605 0.1550972 -0.1879698 -0.033436596 0.38682112 0.1322961
-0.23964562 0.12547076 0.37583873 0.1398909 -0.19412817 0.17730114 0.3483172 0.12029429
-0.075937904 0.06808235 0.3253329 0.18792711 -0.04545227 0.17147632 0.27387252 0.15855461
0.002748976 0.22778867 0.19720608 0.087838255 0.10390529 0.21173586 0.15201135 0.04418127
0.18956643 0.18516344 0.07474229 -0.042616323 0.33486813 0.16273622 0.02105948 -0.10838985
00000000: e40c b6bd 15b0 3dbe 8676 923e cdd1 1e3e
00000010: 287b 40be d0f4 08bd 6b0d c63e a178 073e
00000020: a965 75be 687b 003e ef6d c03e 8f3f 0f3e
00000030: 89c9 46be 6e8e 353e a256 b23e da5c f63d
00000040: 5585 9bbd c26e 8b3d 0992 a63e f76f 403e
00000050: 292c 3abd 7d97 2f3e 0539 8c3e 245c 223e
00000060: 2a28 343b 6f41 693e 64f0 493e 8be4 b33d
00000070: 4ccc d43d 49d1 583e dda8 1b3e 6bf7 343d
00000080: b41d 423e 7c9b 3d3e 7c12 993d 748e 2ebd
00000090: d673 ab3e 53a4 263e ee84 ac3c 7ffb ddbd

convs.0.root f4 [4, 32]
-0.11477358 0.022509636 -0.068931945 0.19614847 0.06947875 0.007125209 -0.13428299 -0.1983497
0.2143451 0.38711995 0.33867466 -0.08912343 0.07735099 0.18323134 -0.040892806 -0.074724115
-0.2116744 0.19999506 0.021472933 -0.23422413 -0.010741914 -0.12282138 -0.0011210678 0.17094126
0.0002046591 0.1993653 -0.020094108 -0.23206033 0.039404694 -0.22588788 0.07653421 -0.13488384
0.16183527 0.0962279 -0.1762176 0.20028104 -0.08213533 -0.10817286 -0.10986151 -0.1434441
0.04815865 -0.17092907 -0.002778345 0.14266963 0.2657651 0.15612964 -0.09068614 0.33726773
-0.042814713 0.08723983 0.022577675 -0.01461269 -0.061050132 -0.18237312 -0.18793344 -0.3428747
-0.20933014 0.03385347 0.10868151 -0.007446936 0.023517575 -0.03168213 0.21494018 0.2626692
-0.04318 0.13791405 -0.00032265103 -0.023619257 -0.08226591 -0.18526281 -0.09279672 -0.14946726
-0.08754122 0.045752965 -0.14675663 -0.037078284 0.046789184 0.17546625 -0.010090934 -0.040098514
-0.12318523 -0.12348385 -0.15716647 0.19429937 -0.015931183 0.098354995 -0.1441702 0.04074342
0.03889607 0.0729474 0.10208981 -0.037377622 -0.16156393 -0.10789697 -0.011103515 -0.034412745
-0.117212065 -0.027822992 -0.07546574 0.20614174 -0.04437873 -0.064861566 -0.056576937 -0.15036607
-0.15980914 0.07558625 -0.054288227 -0.13771206 0.14896736 0.14855115 0.07607582 0.009219855
0.014440801 -0.1755567 -0.061876763 0.12220895 -0.06597485 0.1324837 -0.1782172 -0.11019888
-0.046924938 0.11999979 0.01746932 -0.04762648 -0.1589586 -0.03867802 -0.12083372 -0.051481187
00000000: 690e ebbd 2166 b83c 312c 8dbd 25db 483e
00000010: e04a 8e3d 967a e93b 7b81 09be 2f1c 4bbe
00000020: 487d 5b3e 9634 c63e c466 ad3e 5886 b6bd
00000030: 326a 9e3d ffa0 3b3e 377f 27bd f508 99bd
00000040: 2dc1 58be 81cb 4c3e 01e8 af3c 73d8 6fbe
00000050: dafe 2fbc c789 fbbd cbf0 92ba 3a0b 2f3e
00000060: c299 5639 6b26 4c3e 669c a4bc 39a1 6dbe
00000070: d166 213d 274f 67be f8bd 9c3d fd1e 0abe
00000080: 25b8 253e 2213 c53d 6372 34be 7916 4d3e
00000090: 9136 a8bd bc89 ddbd 12ff e0bd 03e3 12be
000000a0: 0142 453d 0808 2fbe e514 36bb fd17 123e
000000b0: 5d12 883e 73e0 1f3e a8b9 b9bd 5bae ac3e
000000c0: 7b5e 2fbd ccaa b23d d1f4 b83c 106a 6fbc
000000d0: b40f 7abd 05c0 3abe a071 40be 468d afbe
000000e0: a45a 56be f0a9 0a3d 6994 de3d 6d05 f4bb
000000f0: eea7 c03c 1fc5 01bd 4719 5c3e 947c 863e
00000100: 83dd 30bd 5739 0d3e 7d29 a9b9 2c7d c1bc
00000110: 087b a8bd 89b5 3dbe 350c bebd f20d 19be
00000120: d048 b3bd 7667 3b3d 5f47 16be 66df 17bd
00000130: 04a6 3f3d 6dad 333e 7254 25bc 573e 24bd
00000140: 8a48 fcbd 1ae5 fcbd 3ff0 20be 6af6 463e
00000150: 1d82 82bc 586e c93d 5aa1 13be 93e2 263d
00000160: 7c51 1f3d 7265 953d 7614 d13d 4719 19bd
00000170: 0471 25be 16f9 dcbd 84eb 35bc 61f4 0cbd
00000180: e10c f0bd 0bed e3bc c88d 9abd d216 533e
00000190: 79c6 35bd 24d6 84bd 38bd 67bd 90f9 19be
000001a0: 02a5 23be f7cc 9a3d 555d 5ebd 6404 0dbe
000001b0: e68a 183e cb1d 183e a4cd 9b3d e00e 173c
000001c0: 1c99 6c3c 23c5 33be 7d72 7dbd b048 fa3d
000001d0: d21d 87bd cfa9 073e 927e 36be f3af e1bd
000001e0: 5d34 40bd 73c2 f53d d21b 8f3c fc13 43bd
000001f0: 0bc6 22be d86c 1ebd ab77 f7bd f0dd 52bd

convs.0.bias f4 [32]
0.12906134 -0.010451959 0.076946124 -0.20344917 0.08143286 0.008887488 0.07964702 0.14999306
0.18056543 -0.015138155 0.028971232 0.1610104 -0.077545345 -0.17107123 -0.15369442 0.05530517
0.059283294 0.19930092 0.14044859 -0.106224425 0.03945564 -0.24438421 0.15875447 0.027319599
0.0107792085 -0.07343681 -0.087196045 0.036175754 0.09182757 -0.106270395 0.16475372 0.028338082
00000000: a828 043e b23e 2bbc ee95 9d3d fb54 50be
00000010: 45c6 a63d d49c 113c fa1d a33d c897 193e
00000020: 25e6 383e 0606 78bc 1455 ed3c e9df 243e
00000030: 18d0 9ebd 4c2d 2fbe 1262 1dbe ad87 623d
00000040: 0ad3 723d 8a15 4c3e c1d1 0f3e 318c d9bd
00000050: 3d9c 213d db3f 7abe 8890 223e 5acd df3c
00000060: 479b 303c 0a66 96bd d793 b2bd 072d 143d
00000070: 1810 bc3d 4ba4 d9bd 33b5 283e 4425 e83c

convs.1.basis f4 [4, 32, 32]
-0.07141538 -0.07605261 -0.08055376 0.0034496405 -0.058817178 -0.036125638 -0.13682635 0.07273491
0.071847774 0.019341832 -0.06467552 0.061422158 -0.07107691 -0.08066401 0.0017635825 -0.0023443021
0.07617735 0.009594527 0.075970076 -0.032419197 0.047195647 -0.1172686 -0.058978822 -0.007548244
-0.010284776 0.08149395 -0.032134604 0.051595945 0.11168606 -0.02584754 -0.022706792 -0.03782483
0.0011532832 0.009852007 -0.0069160005 0.019042984 -0.020303871 -0.025249917 -0.09419672 -0.0044656713
-0.0054082554 0.00068326516 0.01702841 0.034819815 -0.038022175 0.022006534 -0.0012983475 0.06876791
0.016847132 0.020996004 0.0100655705 0.013913837 0.0045948047 -0.0908104 -0.002787056 0.018226938
-0.0034830135 0.015122823 0.019759618 -0.05356416 0.027408822 -0.023878828 -0.010932624 0.007163673
0.008384972 0.018797113 0.032311145 -0.017224558 0.0033984801 0.011018148 0.08282778 -0.068154596
-0.017831 -0.012858302 0.025961082 0.007729769 0.00068949186 0.016982319 0.054530334 -0.07504044
-0.01590984 -0.00040977946 -0.008028389 0.019906064 -0.017043129 0.039206244 0.025664616 0.017042356
-0.016376114 -0.009590729 0.0054329 0.059646662 -0.020397283 0.019515198 0.016043453 -0.018014789
-0.023982305 0.011698475 0.004041311 0.023814326 0.024996592 0.013281305 0.05748101 0.02602117
0.012632939 0.03438075 -0.011360904 -0.040402696 0.06433957 -0.056788437 -0.040841818 0.008475291
-0.02090074 -0.029810134 0.014579137 -0.0005169825 0.009284647 0.047088943 -0.03985057 -0.017605424
0.026408466 -0.014254288 -0.04972563 0.027397946 -0.031305905 0.039008114 -0.00049011654 -0.0037805121
0.003235079 0.012976962 0.05032315 -0.026828976 0.0255638 -0.012345976 0.06478129 0.065324746
-0.0053304727 -0.003910029 -0.0004189778 -0.041754983 0.068196364 0.01957996 0.041953664 -0.05564455
-0.024336249 0.03060454 -0.039631132 -0.002364639 0.01534427 -0.052279446 0.08491433 -0.0049262866
-0.011267828 -0.004899702 0.029744767 0.081162855 -0.0479839 0.050112557 0.0073249326 0.020386377
-0.025405968 0.023917122 -0.0042483145 -0.069698624 -0.0020450028 0.034947004 0.23007458 0.014508117
0.02113463 -0.0005137108 0.0062241857 -0.012441512 0.10062589 -0.02169205 -0.08742767 0.09554181
-0.0157976 -0.033986032 0.0073699006 0.003270411 -0.0012363152 0.036514178 -0.06986108 0.004611445
0.07694255 -0.006836009 -0.01302061 0.054537185 -0.009539758 0.043327797 0.017254738 0.012637861
-0.053330574 0.0313164 0.022455845 -0.012672151 0.00265823 -0.008367313 -0.009534655 0.025720406
-0.01676935 -0.0009887983 0.025653338 -0.034604438 -0.00141497 0.016964005 -0.0029940717 -0.03160124
-0.02839082 0.036413167 -0.0001323176 -0.003932746 -0.022787556 0.010328453 0.01761192 0.028108075
-0.00021349742 -0.018136939 0.018055523 0.017655747 -0.021895897 -0.0020701517 -0.012080119 0.023113962
-0.20878103 -0.056356177 -0.08376807 0.014850845 -0.0786015 -0.13754758 -0.1575002 0.17405757
0.08190906 -0.0053326567 -0.0694709 0.023694662 -0.06282528 -0.10613154 0.013709381 0.18320687
0.07202785 -0.011202367 0.07008766 -0.031154625 0.04483289 -0.2973167 0.0009421386 -0.0066843866
-0.012398371 0.054972187 -0.039540425 -0.094513856 0.114722095 -0.018331392 -0.042253643 -0.02461585
00000000: 3a42 92bd 79c1 9bbd 5ff9 a4bd 5d13 623b
00000010: 48ea 70bd 7af8 13bd 351c 0cbe 0af6 943d
00000020: ed24 933d c372 9e3c 9974 84bd cd95 7b3d
00000030: c590 91bd 2c33 a5bd 0228 e73a dda2 19bb
00000040: df02 9c3d 5d32 1d3c 3396 9b3d fec9 04bd
00000050: 3950 413d 852a f0bd c793 71bd 4357 f7bb
00000060: 7a81 28bc 4de6 a63d 939f 03bd 4556 533d
00000070: a9bb e43d 38be d3bc 9803 babc 35ee 1abd
00000080: c329 973a 506a 213c 9e9f e2bb 0800 9c3c
00000090: 4e54 a6bc ead8 cebc 36ea c0bd c454 92bb
000000a0: bc37 b1bb 261d 333a 2a7f 8b3c 399f 0e3d
000000b0: 24bd 1bbd 0c47 b43c 502d aaba 31d6 8c3d
000000c0: ff02 8a3c d0ff ab3c 10ea 243c ddf6 633c
000000d0: 0490 963b cefa b9bd 0aa7 36bb a950 953c
000000e0: 4543 64bb b8c5 773c ecde a13c 1866 5bbd
000000f0: 7788 e03c 889d c3bc c01e 33bc 3fbd ea3b
00000100: 1f61 093c 67fc 993c b158 043d 841a 8dbc
00000110: 09b9 5e3b 7685 343c 9ca1 a93d a394 8bbd
00000120: 5112 92bc a1ab 52bc 56ac d43c 014a fd3b
00000130: 04bf 343a 811e 8b3c 335b 5f3d cdae 99bd
00000140: 5a55 82bc abd7 d6b9 8189 03bc 0b12 a33c
00000150: 089e 8bbc ba96 203d 9a3e d23c 699c 8b3c
00000160: 3327 86bc 6f22 1dbc 7806 b23b 0f50 743d
00000170: 3418 a7bc 56de 9f3c 8f6d 833c c093 93bc
00000180: 8a76 c4bc f6aa 3f3c f96c 843b 4316 c33c
00000190: a7c5 cc3c d599 593c 3571 6b3d 592a d53c
000001a0: 63fa 4e3c d4d2 0c3d 1623 3abc 4c7d 25bd
000001b0: 77c4 833d fe9a 68bd c049 27bd f2db 0a3c
000001c0: 0738 abbc 6234 f4bc 55dd 6e3c 1c86 07ba
000001d0: a21e 183c 56e0 403d 5a3a 23bd 4039 90bc
000001e0: 9156 d83c d18a 69bc 1aad 4bbd a871 e03c
000001f0: 9f3a 00bd f9c6 1f3d 2a7b 00ba 78c2 77bb
00000200: 9f03 543b 539d 543c a61f 4e3d 71c8 dbbc
00000210: 2d6b d13c c746 4abc 0eac 843d fbc8 853d
00000220: 3fab aebb b31f 80bb 40aa dbb9 4607 2bbd
00000230: 89aa 8b3d 2766 a03c 9bd7 2b3d 8aeb 63bd
00000240: d05c c7bc 5fb6 fa3c 4154 22bd 0ff8 1abb
00000250: 8866 7b3c f922 56bd 90e7 ad3d b06c a1bb
00000260: b29c 38bc ae8d a0bb 4cab f33c b638 a63d
00000270: c48a 44bd d342 4d3d fd05 f03b 5501 a73c
00000280: 2d20 d0bc d7ed c33c 7235 8bbb 27be 8ebd
00000290: 7405 06bb 9724 0f3d ac98 6b3e 74b3 6d3c
000002a0: 8822 ad3c 8caa 06ba 41f4 cb3b 7cd7 4bbc
000002b0: f214 ce3d 87b3 b1bc 470d b3bd 6dab c33d
000002c0: f869 81bc f034 0bbd 357f f13b 6454 563b
000002d0: db0b a2ba e48f 153d 5313 8fbd 9b1b 973b
000002e0: 0e94 9d3d 9a00 e0bb 6654 55bc 6262 5f3d
000002f0: a54c 1cbc 7d78 313d cf59 8d3c 080f 4f3c
00000300: 2971 5abd a045 003d 52f5 b73c db9e 4fbc
00000310: b335 2e3b 0e17 09bc 3e37 1cbc 9ab3 d23c
00000320: e05f 89bc 919a 81ba f326 d23c 62bd 0dbd
00000330: 8476 b9ba 19f8 8a3c 3038 44bb 4d70 01bd
00000340: dd93 e8bc f925 153d bcbe 0ab9 44de 80bb
00000350: f8ac babc ac38 293c e046 903c e842 e63c
00000360: 47de 5fb9 eb93 94bc 2de9 933c c9a2 903c
00000370: 065f b3bc 62ab 07bb b1eb 45bc 7e59 bd3c
00000380: b2ca 55be bcd5 66bd 988e abbd f550 733c
00000390: d3f9 a0bd 46d9 0cbe bc47 21be 263c 323e
000003a0: f0bf a73d 91bd aebb c246 8ebd 4f1b c23c
000003b0: 8aaa 80bd 7e5b d9bd 509d 603c 959a 3b3e
000003c0: 5683 933d 228a 37bc 1e8a 8f3d fc37 ffbc
000003d0: b1a2 373d e539 98be daf9 763a b308 dbbb
000003e0: 8922 4bbc 842a 613d 24f5 21bd 7b90 c1bd
000003f0: 6bf3 ea3d b72b 96bc 2812 2dbd 2ea7 c9bc

convs.1.att f4 [10, 4]
-0.095857404 0.1863647 -0.297238 0.019209791 0.04988153 0.1204433 -0.25422758 -0.007019739
0.12606202 0.08607394 -0.24559101 -0.03909547 0.1046786 0.019109689 -0.21010508 -0.07084306
0.122376785 -0.052658636 -0.15359214 -0.07957752 0.0644861 -0.12068112 -0.12006008 -0.101537585
0.059450008 -0.15706044 -0.07590276 0.030046865 0.032856725 -0.18454613 0.0052836924 0.093518086
-0.044210024 -0.18523037 0.032531757 0.08468818 -0.16642758 -0.18081297 0.07105596 0.050431043
00000000: e350 c4bd 63d6 3e3e 942f 98be da5d 9d3c
00000010: 9350 4c3d faaa f63d 1e2a 82be d705 e6bb
00000020: 6716 013e 8947 b03d 367c 7bbe 9222 20bd
00000030: bc61 d63d ec8b 9c3c c925 57be 2b16 91bd
00000040: aea0 fa3d 95b0 57bd 4247 1dbe 8af9 a2bd
00000050: 4a11 843d aa27 f7bd 0fe2 f5bd f0f2 cfbd
00000060: da81 733d 74d4 20be e872 9bbd d824 f63c
00000070: c694 063d a9f9 3cbe d322 ad3b 6986 bf3d
00000080: 9215 35bd 08ad 3dbe 0540 053d ff70 ad3d
00000090: fe6b 2abe 0927 39be ca85 913d c890 4e3d

convs.1.root f4 [32, 32]
-0.041172877 0.0653257 0.04798846 -0.0020346937 0.014626786 -0.035798818 -0.176783 0.08397054
-0.026148632 -0.026014239 0.025021503 0.0064490917 -0.056762587 -0.04454114 -0.040803757 0.021721065
-0.007840808 -0.08339125 -0.0439312 -0.011211155 -0.014766546 0.032142375 -0.009575181 0.026660522
-0.02614499 -0.03974929 -0.07414147 0.12076971 -0.027403299 -0.084733196 -0.049573906 0.00658834
-0.0069537475 -0.061369773 0.08839192 0.036713827 0.0011689998 -0.023796758 0.11426016 0.06745097
0.027079498 -0.07522321 0.03052133 0.10095103 -0.029197091 -0.08666497 0.008314214 -0.0708372
-0.012603027 -0.09814853 0.11175611 0.05218328 0.008224932 0.0860661 -0.018830907 -0.10051049
0.035417125 0.029808657 -0.04677006 -0.041507542 0.007888306 -0.067967825 0.024372704 -0.11304505
0.021571508 0.022167698 -0.020504626 0.06713101 0.039587934 -0.05754188 0.089855224 0.050761476
-0.0012033808 0.022291813 -0.041905466 0.048752747 0.012722935 -0.024826186 -0.03204116 -0.015871085
0.017233087 -0.06101578 -0.020079013 -0.025868788 -0.017247297 -0.02951499 -0.039349135 -0.0075305263
0.023943385 0.035143398 0.041209985 0.013077702 0.053021386 -0.11370756 -0.015367997 -0.0026036405
0.017410679 0.08081809 0.016639201 -0.09421809 -0.06384413 0.005828236 -0.028792588 -0.009305712
-0.01317978 0.029873312 0.08255183 0.03348735 0.05571927 -0.011046413 0.003941621 0.066705264
-0.030997565 -0.013637285 0.10301837 0.12465306 -0.0420877 -0.0024929382 0.1370825 -0.028144373
-0.05152336 0.015333523 0.053299233 0.124154024 0.016584666 0.019707141 0.03431716 0.07938626
0.03983311 0.089215964 0.0594956 -0.000452531 0.07075945 0.023593068 0.08351447 -0.062849894
-0.02791808 -0.09045907 -0.093165204 0.04900577 0.093753666 -0.018682294 -0.09967344 0.048540123
2.4523153e-05 -0.07085033 -0.03824875 0.042442262 0.09289406 0.15081668 -0.028884131 -0.051124506
-0.01916641 0.056156628 0.00507441 -0.031056734 -0.0068970984 -0.03763021 0.11089403 -0.10144436
0.07993823 0.024588509 0.028458426 0.07142917 0.040532395 0.034347963 -0.02414336 0.07093243
0.05822295 0.012633229 0.121308655 -0.11254237 -0.087426 -0.05175057 0.03447677 -0.018474625
-0.1011655 0.045625582 -0.07023318 0.052120924 -0.03224288 0.048428323 0.07056635 -0.020755947
-0.13614914 -0.048035007 0.009737586 0.16580474 -0.09669556 -0.032682333 0.0040423977 -0.03306277
-0.049438942 -0.04572911 0.12747341 -0.038384676 -0.032329805 -0.035866477 -0.03323975 -0.045899585
-0.004015897 -0.0065824813 -0.060341287 0.017185695 -0.014237998 0.081754014 -0.07275773 -0.013895897
-0.04923373 -0.053402316 -0.14329539 0.0049539036 -0.016346706 0.06926474 0.13553666 0.0019440831
0.0646317 0.023401974 -0.009170641 -0.032050285 -0.13492319 -0.0019957146 0.045502167 0.11392225
-0.013529946 0.05617427 -0.058652848 -0.055859324 -0.047559436 -0.05136645 -0.1784965 -0.036523223
0.0029523666 0.051273823 0.042686686 -0.055623986 -0.03482813 0.07629165 -0.055745542 -0.05334251
0.000848882 0.028180564 0.050816525 0.06813537 0.055703115 -0.040839255 -0.0025050258 -0.003599702
-0.05993792 -0.014212331 0.0071524647 0.04772526 0.004088856 0.07430037 -0.033309422 -0.023970542
00000000: e4a4 28bd 7bc9 853d 8c8f 443d 7f58 05bb
00000010: 30a5 6f3c c8a1 12bd 9a06 35be bff8 ab3d
00000020: a835 d6bc d01b d5bc e5f9 cc3c e752 d33b
00000030: e37f 68bd c570 36bd d721 27bd 60f0 b13c
00000040: bb76 00bc 08c9 aabd 34f1 33bd feae 37bc
00000050: 62ef 71bc b9a7 033d 38e1 1cbc 2b67 da3c
00000060: 052e d6bc 27d0 22bd 7cd7 97bd 1c56 f73d
00000070: e27c e0bc 9988 adbd 020e 4bbd 00e3 d73b
00000080: 43dc e3bb df5e 7bbd d306 b53d 3d61 163d
00000090: 2039 993a 6bf1 c2bc 3b01 ea3d bc23 8a3d
000000a0: d3d5 dd3c a00e 9abd de07 fa3c 6abf ce3d
000000b0: bd2e efbc 677d b1bd 5738 083c 1813 91bd
000000c0: ed7c 4ebc 1902 c9bd 63e0 e43d 23be 553d
000000d0: ddc1 063c 6c43 b03d 4643 9abc 72d8 cdbd
000000e0: 8c11 113d 4931 f43c f691 3fbd d003 2abd
000000f0: f43d 013c b732 8bbd 44a9 c73c 2a84 e7bd
00000100: bbb6 b03c 0899 b53c 51f9 a7bc fc7b 893d
00000110: f526 223d 09b1 6bbd 0406 b83d 44eb 4f3d
00000120: c2ba 9dba 529d b63c 11a5 2bbd f6b0 473d
00000130: db73 503c 4960 cbbc 973d 03bd 1404 82bc
00000140: 672c 8d3c afeb 79bd be7c a4bc c8ea d3bc
00000150: 344a 8dbc 6cc9 f1bc 8f2c 21bd a2c2 f6bb
00000160: eb24 c43c 86f2 0f3d cdcb 283d dc43 563c
00000170: f42c 593d 82df e8bd 0dca 7bbc d7a1 2abb
00000180: d7a0 8e3c f483 a53d ef4e 883c 6af5 c0bd
00000190: b6c0 82bd cafa be3b 6fde ebbc fc76 18bc
000001a0: 01f0 57bc e0b8 f43c ef10 a93d 082a 093d
000001b0: e439 643d 04fc 34bc b728 813b c59c 883d
000001c0: 9bee fdbc eb6e 5fbc 4cfb d23d 1b4a ff3d
000001d0: 2764 2cbd 9060 23bb 5b5f 0c3e 078f e6bc
000001e0: 290a 53bd 7539 7b3c 4c50 5a3d 7744 fe3d
000001f0: 91dc 873c df70 a13c 2690 0c3d 4395 a23d
00000200: 0b28 233d dcb6 b63d a9b1 733d af41 edb9
00000210: 55ea 903d 4046 c13c a209 ab3d 72b7 80bd
00000220: 75b4 e4bc 9b42 b9bd 66cd bebd 46ba 483d
00000230: ec01 c03d 9c0b 99bc 9721 ccbd 02d2 463d
00000240: 12b7 cd37 fa19 91bd b9aa 1cbd f0d7 2d3d
00000250: 3e3f be3d b06f 1a3e 6a9e ecbc ee67 51bd
00000260: e002 9dbc 7e04 663d 3c47 a63b b16a febc
00000270: 0e01 e2bb 2322 1abd 691c e33d 10c2 cfbd
00000280: a8b6 a33d d76d c93c a521 e93c 7549 923d
00000290: 4c05 263d 73b0 0c3d 4cc8 c5bc 0645 913d
000002a0: 307b 6e3d 9afb 4e3c ac70 f83d 9d7c e6bd
000002b0: 670c b3bd 68f8 53bd 8337 0d3d 1958 97bc
000002c0: dc2f cfbd e4e1 3a3d 6ad6 8fbd c07c 553d
000002d0: 1c11 04bd c75c 463d 1785 903d 6008 aabc
000002e0: ae6a 0bbe 5bc0 44bd 658a 1f3c b8c8 293e
000002f0: 5208 c6bd e9dd 05bd 1776 843b d46c 07bd
00000300: 7d80 4abd 724e 3bbd 6488 023e 4039 1dbd
00000310: 426c 04bd bae8 12bd 6726 08bd 3401 3cbd
00000320: c997 83bb dbb1 d7bb 6d28 77bd 04c9 8c3c
00000330: 7e46 69bc a66e a73d 0102 95bd 9eab 63bc
00000340: 4fa9 49bd 63bc 5abd 07bc 12be 5b54 a23b
00000350: 87e9 85bc acda 8d3d 1fca 0a3e 9bd0 fe3a
00000360: a05d 843d 7fb5 bf3c 7540 16bc 2947 03bd
00000370: 4e29 0abe 89ca 02bb 7b60 3a3d 1250 e93d
00000380: b5ac 5dbc fe16 663d f83d 70bd bfcc 64bd
00000390: afcd 42bd a065 52bd c9c7 36be 6099 15bd
000003a0: 7e7c 413b 8004 523d 3cd8 2e3d fad5 63bd
000003b0: f1a7 0ebd cc3e 9c3d 7055 64bd ad7d 5abd
000003c0: 8287 5e3a edda e63c fd24 503d 8f8a 8b3d
000003d0: f328 643d 1047 27bd 5c2b 24bb fae8 6bbb
000003e0: 7781 75bd d6da 68bc 395f ea3b 907b 433d
000003f0: cffb 853b cb2a 983d 766f 08bd df5d c4bc

convs.1.bias f4 [32]
-0.07074275 -0.04078649 -0.028992737 -0.04499906 -0.021823788 -0.13078688 -0.051042944 0.0615639
0.011851842 -0.03593949 0.020401845 -0.03936676 -0.069319315 0.023070183 0.09361509 0.12443646
-0.017843261 0.07167678 0.067622416 0.016542936 -0.014323033 -0.038538404 -0.019555375 -0.06878144
-0.040594522 0.075826935 0.0043200753 -0.112877056 -0.032135613 -0.004704606 -0.05298273 0.038084075
00000000: 93e1 90bd bc0f 27bd 2d82 edbc ef50 38bd
00000010: cdc7 b2bc ffec 05be 6812 51bd 6e2a 7c3d
00000020: 3a2e 423c 4935 13bd c521 a73c 0a3f 21bd
00000030: 49f7 8dbd aefd bc3c 45b9 bf3d 8bd8 fe3d
00000040: 082c 92bc 47cb 923d 9f7d 8a3d 0d85 873c
00000050: 28ab 6abc 72da 1dbd 9832 a0bc 49dd 8cbd
00000060: 7146 26bd 274b 9b3d 6b8f 8d3b 162c e7bd
00000070: a2a0 03bd 1829 9abb 6b04 59bd 0cfe 1b3d

convs.2.basis f4 [4, 32, 32]
0.033982128 -0.05372443 0.006884391 0.058532085 -0.13792592 -0.013907392 0.021649934 0.059523284
-0.0077317655 -0.0014227661 -0.039655693 -0.0061981413 0.03522548 -0.008916561 0.054602142 -0.028776074
0.017164018 0.05930599 -0.059656017 -0.0066965185 -0.019334292 0.035873972 0.047061987 0.0061628674
-0.0527911 0.001629121 0.021043804 -0.0055820295 -0.0038550997 0.03353243 -0.01169897 -0.02938876
0.02130489 0.072204806 -0.008821447 -0.007709898 0.044918258 -0.03886711 0.004535916 0.013369117
0.064241886 0.015587231 0.056516875 0.0017759211 -0.0017200675 -0.05421561 0.044108666 0.06944064
0.038448445 0.0364179 -0.06909634 0.02264071 0.032883644 0.059107494 0.085525095 -0.050227366
0.09155846 -0.15227093 -0.023073709 -0.015591303 0.047270082 -0.10323871 0.008072147 0.055248395
0.026228808 0.06495307 -0.06559372 0.039662786 0.028825393 0.0025654654 -0.022607613 -0.0531223
0.043647755 0.019388448 0.066569775 0.08889485 0.037085425 0.04829724 0.08226824 1.2217749e-05
0.043177553 0.11239341 -0.021481138 -0.011366354 -0.03156185 0.090834394 0.09879074 -0.060101196
0.1410486 -0.17221388 -0.0031677287 -0.004585163 -0.0013172447 -0.036029592 0.034340747 0.09551074
0.014257425 -0.021494772 0.01234249 0.017011376 0.018988598 -0.022547089 0.023101578 0.09414035
-0.016214669 -0.07651881 -0.0071232626 -0.070722625 -0.0040769973 -0.079438776 -0.074134775 0.035112493
0.06292008 -0.09709586 0.03698402 0.027867045 0.077641 -0.116159596 0.030616632 0.039389826
-0.014708243 -0.01259051 -0.020424986 -0.02856886 0.037815996 -0.023741538 -0.11784248 0.06347126
0.050597835 0.105661586 -0.04358337 -0.03258795 0.014553733 -0.04881595 -0.09897356 -0.025329776
-0.016582021 -0.034349944 -0.008805638 -0.022799304 0.043592185 0.03609121 0.05358782 0.064143926
0.020139659 0.04944548 -0.061641015 0.020777168 -0.047462754 0.088436976 0.013760596 -0.019666957
0.02475264 -0.07028879 -0.0038491574 -0.07094357 0.050683144 0.005335146 -0.022665335 0.04594597
0.038929455 -0.0473352 -0.007113389 0.04789884 -0.06663303 0.020091468 0.07160801 0.052187927
0.033795334 0.08021359 0.007343676 0.0038107096 -0.057173736 -0.03384004 0.069316894 0.03631157
-0.002826552 0.05308177 0.038639463 -0.015013902 0.06464247 0.035449274 0.026884684 -0.0085101295
0.012558399 0.008943721 0.039279167 0.010852211 0.013594829 -0.005930713 0.023973003 0.01349988
0.06311317 0.09864344 -0.08350454 0.058891337 0.067321084 0.013131961 -0.15295258 -0.17176445
-0.035508033 -0.03133666 0.004040346 0.12278318 0.039192617 -0.03573425 0.018243076 0.053702988
-0.011530768 0.15934087 -0.055893525 -0.0017497096 -0.10226543 -0.004104428 0.035744008 -0.06804537
0.05257112 -0.07473589 0.10324853 -0.027508477 -0.14019462 0.015826477 0.07937326 0.03548252
0.09732363 0.03206311 -0.020242617 -0.007914965 0.084262654 -0.03225025 0.040215492 -0.0516679
-0.0033143067 0.015144412 -0.020219171 0.0014470761 -0.006768571 -0.01573337 -0.011750784 0.005915315
-0.061322026 0.0044150767 -0.045909856 -0.0044143177 0.0114435125 -0.026950182 0.06498569 -0.1074837
0.10089856 -0.07329939 0.03504357 -0.01093406 0.06831938 -0.041424524 -0.083850905 0.020601679
00000000: d830 0b3d 260e 5cbd 7596 e13b 57bf 6f3d
00000010: 743c 0dbe d4db 63bc 345b b13c b0ce 733d
00000020: c05a fdbb 1c7c baba 026e 22bd c719 cbbb
00000030: 9848 103d c416 12bc 7fa6 5f3d cdbb ebbc
00000040: 8e9b 8c3c d6ea 723d de59 74bd 786e dbbb
00000050: f362 9ebc 96f0 123d 12c4 403d e1f1 c93b
00000060: 7b3b 58bd 3b88 d53a 0e64 ac3c 75e9 b6bb
00000070: d7a5 7cbb 4d59 093d 09ad 3fbc b2c0 f0bc
00000080: 9887 ae3c 1de0 933d d587 10bc 50a3 fcbb
00000090: 35fc 373d 1e33 1fbd 05a2 943b 240a 5b3c
000000a0: 4091 833d 9661 7f3c 3d7e 673d 06c6 e83a
000000b0: e373 e1ba 3011 5ebd 4aab 343d e536 8e3d
000000c0: 1e7c 1d3d f02a 153d 6282 8dbd 0379 b93c
000000d0: 00b1 063d b31a 723d c827 af3d 36bb 4dbd
000000e0: 0083 bb3d e9ec 1bbe 1305 bdbc aa72 7fbc
000000f0: 469e 413d d16e d3bd 0a41 043c 244c 623d
00000100: ccdd d63c 1d06 853d 0056 86bd 7275 223d
00000110: 3b23 ec3c 5e21 283b 9a33 b9bc c596 59bd
00000120: fdc7 323d 86d4 9e3c bc55 883d 810e b63d
00000130: e3e6 173d 54d3 453d 407c a83d d5fa 4c37
00000140: f2da 303d 842e e63d 36f9 afbc f239 3abc
00000150: 0047 01bd 6207 ba3d cd52 ca3d ac2c 76bd
00000160: 0b6f 103e d658 30be ab99 4fbb 233f 96bb
00000170: 66a7 acba c493 13bd e2a8 0c3d 239b c33d
00000180: fa97 693c ce15 b0bc 2838 4a3c 715b 8b3c
00000190: fa8d 9b3c acb4 b8bc 853f bd3c a8cc c03d
000001a0: a0d4 84bc e5b5 9cbd 426a e9bb 06d7 90bd
000001b0: 5598 85bb ccb0 a2bd f9d3 97bd 1ed2 0f3d
000001c0: 3edc 803d 32da c6bd 8e7c 173d 6e49 e43c
000001d0: 3f02 9f3d 15e5 edbd bbcf fa3c 3a57 213d
000001e0: d8fa 70bc 6d48 4ebc 4d52 a7bc 3e09 eabc
000001f0: f2e4 1a3d 9d7d c2bc 6657 f1bd 38fd 813d
00000200: ad3f 4f3d 1a65 d83d 7a84 32bd f17a 05bd
00000210: c872 6e3c 3cf3 47bd a6b2 cabd 6480 cfbc
00000220: 05d7 87bc 87b2 0cbd 8645 10bc 9bc5 babc
00000230: b88d 323d 60d4 133d e77e 5b3d e45d 833d
00000240: edfb a43c 5887 4a3d 4a7b 7cbd e134 aa3c
00000250: 4e68 42bd 721e b53d 1f74 613c 991c a1bc
00000260: 0cc6 ca3c 92f3 8fbd 2542 7cbb dd4a 91bd
00000270: 2199 4f3d 73d2 ae3b a7ac b9bc d731 3c3d
00000280: 7e74 1f3d 8ee2 41bd 6f17 e9bb 9331 443d
00000290: e676 88bd dd96 a43c 38a7 923d 02c3 553d
000002a0: fa6c 0a3d 0647 a43d 38a3 f03b 19bd 793b
000002b0: 022f 6abd db9b 0abd 04f6 8d3d 71bb 143d
000002c0: ac3d 39bb 456c 593d 6a44 1e3d dffc 75bc
000002d0: 4563 843d 4233 113d 453d dc3c 126e 0bbc
000002e0: bec1 4d3c af88 123c 31e3 203d 79cd 313c
000002f0: d8bc 5e3c 6d56 c2bb 0863 c43c 9a2e 5d3c
00000300: 7a41 813d 9205 ca3d 6e04 abbd 0b38 713d
00000310: a3df 893d 7027 573c 9a9f 1cbe 05e3 2fbe
00000320: df70 11bd df5a 00bd e164 843b bf75 fb3d
00000330: 7088 203d 145e 12bd 8172 953c aaf7 5b3d
00000340: 8ceb 3cbc 412a 233e 9cf0 64bd 8356 e5ba
00000350: 8a70 d1bd 707e 86bb 4f68 123d 5f5b 8bbd
00000360: d154 573d 210f 99bd f773 d33d 7559 e1bc
00000370: 2e8f 0fbe 87a6 813c 738e a23d 1e56 113d
00000380: 9c51 c73d 9c54 033d d8d3 a5bc c5ad 01bc
00000390: e691 ac3d d718 04bd 00b9 243d b8a1 53bd
000003a0: d734 59bb 4520 783c ada2 a5bc d1ab bd3a
000003b0: e4ca ddbb 45e3 80bc 5c86 40bc 42d5 c13b
000003c0: ce2c 7bbd 59ac 903b f90b 3cbd fba5 90bb
000003d0: 927d 3b3c a1c6 dcbc 3817 853d 6a20 dcbd
000003e0: e7a3 ce3d fe1d 96bd d989 0f3d c624 33bc
000003f0: 08eb 8b3d c3ac 29bd 06ba abbd dac4 a83c

convs.2.att f4 [10, 4]
0.012282586 0.017342163 -0.0017297852 0.01614264 0.05324785 -0.0008450344 0.03724142 0.059584364
0.042518854 -0.002520566 0.033703074 0.061114848 0.02838411 -0.0025039555 0.014524679 0.021498127
-0.020579822 0.0059666983 -0.0003279421 -0.0015986594 -0.02057242 0.010551679 -0.021337152 -0.015918601
0.0052253623 0.0021701644 0.01678074 0.0072655943 0.01179476 0.005202702 0.0089214 0.012062997
0.031743195 0.00019717883 0.02595861 0.04138548 0.0069536557 0.0053977566 -0.0077691255 0.0051884996
00000000: e63c 493c 2711 8e3c f6b9 e2ba 923d 843c
00000010: 6b1a 5a3d 4c85 5dba 768a 183d bc0e 743d
00000020: 4028 2e3d 1530 25bb 3c0c 0a3d 9053 7a3d
00000030: cb85 e83c 6719 24bb ebf8 6d3c d71c b03c
00000040: 0497 a8bc 4b84 c33b a5ef abb9 1c8a d1ba
00000050: 7e87 a8bc f3e0 2c3c 40cb aebc ba67 82bc
00000060: 8439 ab3b 5139 0e3b c377 893c 3914 ee3b
00000070: cf3e 413c 6d7b aa3b 102b 123c e0a3 453c
00000080: 2705 023d cac1 4e39 27a7 d43c d283 293d
00000090: 7edb e33b aadf b03b 2694 febb 4a04 aa3b

convs.2.root f4 [32, 32]
-0.035150077 -0.08766707 0.10523382 -0.03976897 0.009938012 -0.10252646 -0.06280859 -0.017450444
0.047061216 -0.020009877 0.009197512 -5.2022948e-05 -0.01981963 0.040449187 -0.07367795 -0.06347021
-0.010964169 0.027690636 0.041376557 0.011077196 0.009289909 -0.07274059 -0.05220059 0.034315754
-0.12656325 0.021833936 0.057483286 0.00029841773 0.01675658 0.014459702 -0.042516362 -0.021334175
-0.04958122 -0.008588454 -0.059446827 0.047020838 0.021499274 0.007401301 -0.022624938 -0.08764621
-0.0031767685 0.049320713 -0.044428345 -0.009833074 -0.039902594 -0.013660583 -0.026984112 -0.0015837664
-0.08349868 0.047601026 -0.027563483 -0.07204103 0.045848567 0.015939783 -0.028085327 0.013062034
0.014736839 -0.09519096 -0.04078003 -0.047422614 -0.007022743 -0.034295753 0.051346947 0.054662652
-0.05130557 -0.124669656 0.018137483 -0.032842703 -0.012346875 -0.12678613 0.01033818 0.044828486
0.026690656 0.02721523 0.08276373 -0.076900415 -0.0460524 -0.09783347 0.0072061447 -0.023763828
-0.054327767 0.036772765 0.04337459 -0.024942936 -0.072854005 -0.06926128 -0.011266144 0.0463291
-0.058959704 0.053800408 -0.0019480546 0.02767668 -0.0021292602 0.010102299 -0.015492213 -0.043719936
0.025111765 -0.05715831 0.020179708 -0.055094853 0.0077869324 -0.017179832 -0.03422343 -0.00891238
-0.02827823 0.03214848 0.05691223 0.015224851 0.018005969 -0.028702375 0.017416973 -0.018414866
0.028928488 -0.0019096832 0.0065285875 -0.034783088 -0.03948872 -0.089032106 0.051819373 -0.04790743
-0.029848458 0.013939309 0.049601484 0.010118173 0.0040913243 -0.040133514 -0.027007325 0.0132177025
-0.0047626216 0.047277637 -0.033142623 0.014621809 -0.08352434 0.012274331 0.05129577 -0.0046278136
-0.025148498 0.021900339 0.012654077 -0.0443441 -0.009793363 0.021782413 -0.0060518817 0.042346194
-0.0077586984 -0.02278665 0.04600625 -0.047449417 0.053580582 -0.05046193 0.038235012 0.055999205
0.017291723 0.020122526 -0.067189775 -0.010184764 -0.016573453 0.04333699 0.021422748 -0.0111112045
-0.06906358 -0.09739217 -0.033194136 0.026427662 0.0058011664 0.0066648596 -0.06253059 -0.033367887
0.019726967 0.02641814 0.074459076 0.020470807 -0.013490487 -0.020775123 -0.048596688 -0.04315751
-0.0024520385 0.017665466 0.019668067 -0.055234984 -0.016290078 -0.07632675 -0.019249488 -0.040731363
-0.061826017 0.018741872 0.07374729 -0.021295976 0.031103399 -0.0034108867 0.011876351 -0.016722806
-0.0065875375 0.05853463 -0.08377451 0.09563157 0.020774668 0.055552345 0.010093092 0.006546175
0.0022908456 0.00839947 -0.09444134 -0.050146963 -0.01216962 0.0065917005 -0.02575091 -0.0016013103
0.028476728 -0.007454021 -0.00030327833 0.023297228 0.0647461 0.19318251 -0.003666339 -0.025717773
0.101490065 -0.04889473 -0.0063139023 -0.01870412 0.011634171 0.004740133 0.027339349 0.011309595
0.001542731 -0.050612424 -0.0013773671 0.005692367 0.019013586 -0.038593527 -0.014668108 -0.03814769
0.054669634 -0.020472141 0.022657877 0.049125858 -0.011190031 0.024637753 -0.0044816835 -0.0028981022
-0.028497927 -0.024674205 0.027764412 0.01051581 -0.05961211 -0.027791176 -0.043511707 0.01883165
-0.036146775 -0.017229075 0.0024701233 -0.003941743 0.05127805 -0.022417154 -0.00806143 -0.011927572
00000000: 87f9 0fbd cb8a b3bd d484 d73d cae4 22bd
00000010: 0bd3 223c 65f9 d1bd caa1 80bd 3cf4 8ebc
00000020: 43c3 403d c1eb a3bc 29b1 163c 3733 5ab8
00000030: c75c a2bc 0cae 253d 77e4 96bd abfc 81bd
00000040: 0fa3 33bc 79d7 e23c 777a 293d 217d 353c
00000050: b434 183c 05f9 94bd 49d0 55bd ad8e 0c3d
00000060: cc99 01be 15dd b23c 9873 6b3d f374 9c39
00000070: 1845 893c 63e8 6c3c a325 2ebd 02c5 aebc
00000080: ad15 4bbd 96b6 0cbc 847e 73bd ec98 403d
00000090: 3f1f b03c 9d86 f23b ef57 b9bc db7f b3bd
000000a0: 5531 50bb 8404 4a3d 7ffa 35bd e71a 21bc
000000b0: e770 23bd a3d0 5fbc c90d ddbc 6296 cfba
000000c0: 5b01 abbd 4bf9 423d d0cc e1bc 3f8a 93bd
000000d0: b5cb 3b3d 2694 823c 3313 e6bc 2402 563c
000000e0: c872 713c 7af3 c2bd f608 27bd 373e 42bd
000000f0: 0a1f e6bb b479 0cbd 2d51 523d f2e5 5f3d
00000100: ca25 52bd ce52 ffbd 0f95 943c 1286 06bd
00000110: 8c4a 4abc 39d4 01be 7861 293c 139e 373d
00000120: 5da6 da3c 79f2 de3c 0880 a93d f77d 9dbd
00000130: 71a1 3cbd ea5c c8bd 8621 ec3b 5cac c2bc
00000140: cb86 5ebd 0a9f 163d 8ea9 313d 2155 ccbc
00000150: 7b34 95bd dcd8 8dbd a295 38bc 95c3 3d3d
00000160: bb7f 71bd d15d 5c3d de55 ffba 34ba e23c
00000170: 0f8b 0bbb 1d84 253c 0dd3 7dbc ad13 33bd
00000180: 30b7 cd3c d51e 6abd ea4f a53c 24ab 61bd
00000190: 8629 ff3b b8bc 8cbc de2d 0cbd 3b05 12bc
000001a0: bfa7 e7bc 20ae 033d cc1c 693d a771 793c
000001b0: 4181 933c 3e21 ebbc 0aae 8e3c c6da 96bc
000001c0: 70fb ec3c 564e faba c3ed d53b b678 0ebd
000001d0: edbe 21bd 7756 b6bd 8d40 543d 953a 44bd
000001e0: c184 f4bc b361 643c ed2a 4b3d b2c6 253c
000001f0: 8410 863b 0a63 24bd 773e ddbc 108f 583c
00000200: c40f 9cbb 32a6 413d 8fc0 07bd 5090 6f3c
00000210: cf0e abbd 471a 493c 831b 523d eaa4 97bb
00000220: 3904 cebc 5768 b33c 0c53 4f3c 29a2 35bd
00000230: 5774 20bc 0871 b23c dd4e c6bb 3473 2d3d
00000240: ae3c febb 12ab babc 0d71 3c3d 525a 42bd
00000250: 5077 5b3d 2bb1 4ebd 519c 1c3d 6c5f 653d
00000260: 5fa7 8d3c ffd7 a43c cb9a 89bd ffdd 26bc
00000270: 0dc5 87bc 2182 313d c27e af3c c50b 36bc
00000280: 3571 8dbd 8c75 c7bd 93f6 07bd d37e d83c
00000290: b617 be3b e564 da3b 0a10 80bd c4ac 08bd
000002a0: 739a a13c db6a d83c 007e 983d 65b2 a73c
000002b0: 3407 5dbc 9730 aabc 520d 47bd eec5 30bd
000002c0: 61b2 20bb 2bb7 903c ed1e a13c 143e 62bd
000002d0: c572 85bc 3351 9cbd 1ab1 9dbc eed5 26bd
000002e0: 473d 7dbd 8e88 993c d208 973d e674 aebc
000002f0: 8ecc fe3c 2f89 5fbb 0795 423c 44fe 88bc
00000300: 45dc d7bb 02c2 6f3d f891 abbd 7cda c33d
00000310: a32f aa3c db8a 633d 7f5d 253c 4c81 d63b
00000320: 0322 163b ee9d 093c 766a c1bd e766 4dbd
00000330: 1663 47bc 31ff d73b 93f3 d2bc 0fe3 d1ba
00000340: 0748 e93c dc40 f4bb 5401 9fb9 d4d9 be3c
00000350: 9a99 843d a3d1 453e f646 70bb 14ae d2bc
00000360: 06da cf3d d745 48bd dae4 cebb 6239 99bc
00000370: 409d 3e3c 1e53 9b3b c5f6 df3c e14b 393c
00000380: 7635 ca3a f94e 4fbd c588 b4ba 0987 ba3b
00000390: 61c2 9b3c 3f14 1ebd 8152 70bc c140 1cbd
000003a0: 44ed 5f3d 31b5 a7bc 039d b93c 3238 493d
000003b0: 6456 37bc 1dd5 c93c 16db 92bb 16ee 3dbb
000003c0: 7c74 e9bc 8f21 cabc 3172 e33c 814a 2c3c
000003d0: d42b 74bd 52aa e3bc 5539 32bd d544 9a3c
000003e0: a40e 14bd fd23 8dbc cbe1 213b bd29 81bb
000003f0: ef08 523d 2ea4 b7bc 1714 04bc dd6b 43bc

convs.2.bias f4 [32]
0.007622805 -0.044086482 0.02596252 -0.049109615 -0.007957112 -0.04542164 -0.008078212 -0.029978087
-0.0016446032 0.00026163514 0.048161235 0.03604886 0.0044594584 -0.006255326 0.011948055 0.0092798015
-0.013319309 -0.007148551 0.0013160596 -0.017679794 -0.037537884 -0.09050245 0.0028636816 -0.009413225
-0.036816068 0.008932769 0.022104707 0.0118553005 -0.00086692604 -0.009598308 -0.015225841 0.0028663063
00000000: b9c8 f93b 0794 34bd 5aaf d43c 2a27 49bd
00000010: 8c5e 02bc 0b0c 3abd 7a5a 04bc 9b94 f5bc
00000020: ba8f d7ba 132c 8939 b744 453d f8a7 133d
00000030: a620 923b 7af9 ccbb c6c1 433c 4f0a 183c
00000040: 3b39 5abc 643e eabb a27f ac3a 37d5 90bc
00000050: 53c1 19bd 5959 b9bd 9bac 3b3b ed39 1abc
00000060: 72cc 16bd c05a 123c ee14 b53c bc3c 423c
00000070: 6c42 63ba 3942 1dbc ce75 79bc a4d8 3b3b

convs.3.basis f4 [4, 32, 32]
-0.03278899 -0.04352795 -0.08222931 0.016493373 -0.03690775 -0.029145299 0.042476706 0.05439729
-0.020496363 -0.037645373 -0.050178986 0.07796023 -0.036994003 0.035544243 0.027406882 -0.06617671
0.0020044057 0.02310557 0.036477298 0.06623031 0.011209128 0.006332383 0.06568213 0.046609193
0.088241994 -0.024729563 -0.1114707 -0.06955955 0.018994281 -0.056315906 0.031073852 -0.01575484
0.033118222 -0.05584948 0.03367853 0.07166064 0.0005451475 0.025493575 -0.09405665 0.035627708
0.11730789 -0.00711171 -0.05915631 0.09428932 -0.03519381 0.020835875 -0.011280804 0.054555863
-0.028301382 -0.04408966 0.04553632 -0.0080753565 0.075935885 0.0063157324 0.010372825 -0.022999305
-0.021162061 0.0928356 -0.024799049 0.097535625 -0.062409513 0.026090246 0.081557915 -0.11428394
-0.004561733 -0.028132444 -0.03254518 -0.090482645 -0.01038212 0.07621064 0.011786596 0.022462869
-0.03770514 -0.0760052 0.002995365 0.008693149 0.0046781427 0.01248309 0.043662474 0.04004534
-0.026121827 0.0044831457 0.08756716 -0.026020406 0.003919249 0.06411014 0.03528967 0.079251036
0.017699735 0.023314947 -0.052461047 -0.01709734 0.03756594 -0.081516735 -0.0090439925 -0.007940299
-0.01849178 0.042660337 0.01168403 0.08899965 -0.030254453 0.02475805 -0.04160688 -0.004385749
-0.029791234 0.057338037 -0.058976244 0.01780741 -0.0557338 0.028841259 -0.013467705 -0.06073343
-0.01690552 0.036379024 0.00510938 0.06333099 -0.05669046 -0.006634427 0.0143166 -0.036591806
0.023074416 0.04988623 -0.04617348 0.008324149 0.07116649 0.006683613 -0.022841318 -0.10336393
-0.021343919 0.018111391 -0.040345788 -0.04297277 0.0913264 0.0398957 -0.04287189 -0.059103414
0.038460463 0.027902676 -0.029380586 -0.009889073 -0.018700205 -0.0006466347 -0.014941044 -0.00024235576
0.010365996 0.048589412 -0.06700829 0.01654845 -0.028533403 -0.038455077 -0.014762616 0.059517425
-0.04858619 -0.03728741 -0.032768488 -0.035512306 0.034197073 0.07354278 0.010050897 -0.030353328
-0.0009922251 -0.07171125 -0.051390007 -0.019410362 0.0017014807 0.003620632 0.022597956 0.054062955
0.02271716 -0.019795492 0.020178482 -0.031901546 0.02676565 0.04442093 0.08123915 -0.014032439
0.009181343 -0.015186597 0.0071597365 -0.020521617 0.010402457 0.07719097 0.022746326 -0.005890062
0.028947897 -0.017739821 -0.035238214 0.001865616 -0.00433872 -0.03591102 0.026020434 -0.12507159
-0.0289058 0.081941344 0.016188197 -0.024110068 -0.008080508 0.01979401 -0.062397916 0.019204423
0.0026224903 0.0374509 -0.08153267 0.004833073 0.013216528 -0.06414205 0.038602207 -0.005965218
0.034346186 -0.045002628 0.023011679 0.052742463 -0.016086617 0.06819729 0.022611158 -0.05421121
-0.0057625356 -0.009844028 -0.03256905 -9.481661e-05 -0.035459653 -0.01393387 0.039430615 0.074002475
0.055777665 0.029980017 -0.0029437086 0.026342437 -0.032889795 -0.030562948 -0.016674617 -0.0033313266
0.054573484 -0.0013171049 -0.016767094 0.0574539 0.0071585905 -0.01899365 0.05209711 0.0068427953
0.036073547 0.06670042 0.11482366 0.02076291 0.048450038 0.0829132 0.07665535 0.07111263
-0.034756713 0.08269739 0.043408934 0.015750453 -0.010796879 -0.048729345 0.070000365 -0.046965875
00000000: bf4d 06bd 5d4a 32bd d767 a8bd 1c1d 873c
00000010: 952c 17bd 1fc2 eebc 0efc 2d3d b1cf 5e3d
00000020: fde7 a7bc 0932 1abd 7b88 4dbd 9da9 9f3d
00000030: 0687 17bd d796 113d 6684 e03c a887 87bd
00000040: 595c 033b e447 bd3c 3869 153d c2a3 873d
00000050: 7ea6 373c e17f cf3b 5a84 863d 48e9 3e3d
00000060: 38b8 b43d a795 cabc c04a e4bd 3d75 8ebd
00000070: e599 9b3c 82ab 66bd 978e fe3c 4b10 81bc
00000080: f9a6 073d 6dc2 64bd 80f2 093d d0c2 923d
00000090: 3be8 0e3a e7d7 d03c c6a0 c0bd 5cee 113d
000000a0: 1e3f f03d 5909 e9bb e34d 72bd c21a c13d
000000b0: 6227 10bd ffaf aa3c 1fd3 38bc f875 5f3d
000000c0: 4dd8 e7bc 5c97 34bd 4b84 3a3d 804e 04bc
000000d0: 4684 9b3d 34f4 ce3b c8f2 293c 0a69 bcbc
000000e0: 0f5c adbc 9720 be3d 6027 cbbc c2c0 c73d
000000f0: 1ea1 7fbd 36bb d53c d607 a73d b30d eabd
00000100: 977a 95bb 0376 e6bc 184e 05bd f74e b9bd
00000110: c419 2abc 5314 9c3d 911c 413c 0d04 b83c
00000120: b470 1abd 9da8 9bbd e34d 443b b66d 0e3c
00000130: 1b4b 993b e085 4c3c 6cd7 323d 9506 243d
00000140: 71fd d5bc 5ae7 923b 6956 b33d bf28 d5bc
00000150: 0b6d 803b 2d4c 833d e78b 103d 5e4e a23d
00000160: 09ff 903c fdfe be3c 65e1 56bd b90f 8cbc
00000170: bede 193d 3ff2 a6bd 412d 14bc 0718 02bc
00000180: 137c 97bc 9bbc 2e3d 606e 3f3c 7345 b63d
00000190: 30d8 f7bc 65d1 ca3c fa6b 2abd 54b6 8fbb
000001a0: bf0c f4bc 4adb 6a3d 1391 71bd d8e0 913c
000001b0: 2049 64bd 8144 ec3c a6a7 5cbc 9ec3 78bd
000001c0: 727d 8abc 2c02 153d 966c a73b aeb3 813d
000001d0: 4134 68bd 9b65 d9bb 2c90 6a3c 4ae1 15bd
000001e0: 8f06 bd3c 8155 4c3d 6720 3dbd 0362 083c
000001f0: bdbf 913d 3602 db3b b71d bbbc 78b0 d3bd
00000200: 71d9 aebc 575e 943c a041 25bd 3704 30bd
00000210: 5609 bb3d ac69 233d 6f9a 2fbd 6c16 72bd
00000220: b888 1d3d 2794 e43c 8eaf f0bc c705 22bc
00000230: 2c31 99bc ec82 29ba 48cb 74bc e120 7eb9
00000240: 23d6 293c b105 473d a43b 89bd 9d90 873c
00000250: e2be e9bc 1283 1dbd e6de 71bc 8bc8 733d
00000260: 5002 47bd afba 18bd 4038 06bd 5a75 11bd
00000270: 3b12 0c3d 999d 963d 84ac 243c 8ba7 f8bc
00000280: 8d0d 82ba 59dd 92bd 547e 52bd 7b02 9fbc
00000290: 3804 df3a 2048 6d3b 591f b93c 1e71 5d3d
000002a0: 5619 ba3c 282a a2bc 584d a53c 32ab 02bd
000002b0: a343 db3c b9f2 353d b660 a63d 51e8 65bc
000002c0: 586d 163c 34d1 78bc 399c ea3b f31c a8bc
000002d0: 116f 2a3c 4d16 9e3d 8156 ba3c 6c01 c1bb
000002e0: 2424 ed3c 1a53 91bc f255 10bd af87 f43a
000002f0: d22b 8ebb 6f17 13bd ce28 d53c c412 00be
00000300: dbcb ecbc ddd0 a73d 1c9d 843c 7a82 c5bc
00000310: 1b64 04bc 0c27 a23c f594 7fbd 9852 9d3c
00000320: 16de 2b3b 1d66 193d 9afa a6bd c15e 9e3b
00000330: 238a 583c e85c 83bd 591d 1e3d e077 c3bb
00000340: 96ae 0c3d ad54 38bd fd82 bc3c 7b08 583d
00000350: 15c8 83bc 05ab 8b3d 093b b93c 930c 5ebd
00000360: a7d3 bcbb d948 21bc 2067 05bd 48d8 c6b8
00000370: 243e 11bd e34a 64bc ff81 213d 9c8e 973d
00000380: 1f77 643d a798 f53c 3ceb 40bb 18cc d73c
00000390: 73b7 06bd 265f fabc 3599 88bc 6352 5abb
000003a0: 7288 5f3d b5a2 acba 255b 89bc c854 6b3d
000003b0: 9c92 ea3b 9298 9bbc c763 553d 8739 e03b
000003c0: dbc1 133d 3b9a 883d ab28 eb3d fa16 aa3c
000003d0: 8c73 463d 65ce a93d 7bfd 9c3d 80a3 913d
000003e0: 0e5d 0ebd 405d a93d 91cd 313d 1807 813c
000003f0: 65e5 30bc 6c98 47bd 5a5c 8f3d 4a5f 40bd

convs.3.att f4 [10, 4]
-0.0004705943 0.0053993445 0.0022934554 -0.005598992 -0.0013088714 0.0028613964 -0.002692188 0.003887659
0.0011021973 -0.0003423884 -0.0016526885 0.0077250707 0.0059103095 0.0060437294 -0.00804543 0.0025244951
0.004616963 -0.001253811 0.0062672873 -0.0061545237 -0.008948026 0.00435443 0.011045273 -0.00688957
-0.0075248154 0.0014350063 0.0041380054 -0.0010485468 -0.0022010584 0.00045711373 -0.0017217379 -0.0013749528
0.0009876215 0.0013253321 -0.0050260667 -0.008439011 0.0032604865 -2.7641618e-05 -0.00023814572 -0.0046907547
00000000: 19ba f6b9 fcec b03b cc4d 163b c077 b7bb
00000010: 708e abba 4486 3b3b 6b6f 30bb 18c8 7e3b
00000020: 9b77 903a 9882 b3b9 069f d8ba 9722 fd3b
00000030: 45ab c13b 7a0a c63b fbd0 03bc 0072 253b
00000040: e549 973b ea56 a4ba d15d cd3b e3ab c9bb
00000050: be9a 12bc 9baf 8e3b 3cf7 343c e7c1 e1bb
00000060: ba92 f6bb d216 bc3a 1b98 873b 646f 89ba
00000070: a23f 10bb c4a8 ef39 f0ab e1ba c337 b4ba
00000080: 1473 813a c4b6 ad3a b4b1 a4bb c743 0abc
00000090: e3ad 553b ecdf e7b7 c1b6 79b9 e7b4 99bb
