results/flixster_testmode/model_checkpoint14.pth (torch_old, 199981 bytes, 19 tensors)

convs.0.basis f4 [4, 4, 32]
000000 b9 63 f1 3d 9f 61 67 bd 4e 76 b2 3d f6 f1 8c 3d
       0.11786599 -0.056489583 0.08713971 0.06882088
000010 4f ba 02 bd a9 e3 5a 3e 15 12 bb bd bf 48 0c be
       -0.03191596 0.21375908 -0.09134308 -0.13699625
000020 ef 78 d6 3d 4d 0a 24 be bb 39 16 3e 64 e4 18 be
       0.10472285 -0.16019554 0.1467046 -0.14930874
000030 3e 43 57 be 66 a2 03 3e 34 37 07 3e 48 c5 ca bd
       -0.21021745 0.12854919 0.13204652 -0.0990091
000040 03 12 0d bd 3d 0c c3 bd 7a da 5b be eb 38 60 3c
       -0.034441005 -0.09523819 -0.21470061 0.013685445
000050 59 8a 31 3d 10 f9 28 3e 52 36 41 3d 4f 74 d1 bd
       0.04334483 0.1650126 0.047170945 -0.10227262
000060 91 38 5c 3d bc da 25 be 81 b3 84 3d 21 78 1e 3d
       0.053764883 -0.16196722 0.0647955 0.038688783
000070 a6 15 12 3e ae c5 8f 3e b5 15 80 be 6a 6a 93 3b
       0.1426607 0.28080505 -0.2501656 0.0044987695
000080 c2 a5 32 be a9 94 f7 bd 56 de d6 bd a6 5f 22 bd
       -0.17446044 -0.120889015 -0.10491626 -0.039642
000090 cc af 00 bd 38 4d 89 3e ac c9 e3 bd 15 be b0 bd
       -0.031417653 0.26816726 -0.1112245 -0.08630005
0000a0 e4 18 68 be 66 25 08 be 23 22 04 3e 40 0f 5a be
       -0.22665745 -0.13295516 0.12903647 -0.2129488
0000b0 d5 fc b4 bd 6f e5 e1 3c 7e 3b 3a bb 86 5e 05 be
       -0.088372864 0.027575223 -0.0028416808 -0.13024339
0000c0 57 58 17 be 28 9a 63 be 31 f6 f9 3d b0 43 09 be
       -0.14779793 -0.22226775 0.122051604 -0.13404727
0000d0 d3 2b 58 be a2 1b ff 3d d6 6b bb bd 5f c0 82 bd
       -0.21110468 0.124564424 -0.091514274 -0.06384348
0000e0 e9 33 44 3d 19 13 67 bd 2a 50 41 3b 95 e0 00 3d
       0.047901068 -0.056414697 0.0029497244 0.031464178
0000f0 51 5d 04 3e 1b 38 04 3e 57 fe 42 be 2b 01 f3 3c
       0.12926222 0.12912028 -0.19042335 0.029663643
000100 79 c3 a6 bd 0d f2 e7 bd 38 0b 16 3e 40 6f 16 3e
       -0.08142752 -0.113254644 0.14652717 0.14690876
000110 78 ae 6b 3c a8 80 01 be 38 80 b6 3d 8a 98 62 be
       0.014384858 -0.12646735 0.089111745 -0.22128502
000120 81 31 6f be 8a b4 9b bd 04 88 a3 bd e0 5a 8b 3d
       -0.23358728 -0.076027945 -0.07984927 0.068044424
000130 5b 04 66 3e 73 bc 40 3d 7a 69 3c 3d ce 56 44 be
       0.22462599 0.04705472 0.045999028 -0.19173738
000140 7e 64 6d 3d d3 4f 8c bd dc c5 00 3e 26 a6 23 3e
       0.057957165 -0.06851163 0.12575477 0.1598135
000150 b3 5a 8f 3d d5 ac d4 3d e7 f4 05 bf e0 5d c9 be
       0.069997214 0.103845276 -0.52326816 -0.39329433
000160 a0 2b a1 be 56 18 86 bc da a3 0f be 8b 64 84 bb
       -0.31478596 -0.016369026 -0.14027348 -0.004040306
000170 5f 0a e9 bd d9 d6 53 3d 60 2d 6a 3c 04 d2 a1 3d
       -0.11378931 0.051718567 0.014293045 0.079013854
000180 b8 65 25 3e 0b 22 2b 3c a8 aa 88 bb c4 f1 ed bd
       0.16152084 0.010445128 -0.0041707344 -0.11618379
000190 0d 4a 49 be 3b cb 8c be 01 aa 53 bd 88 99 ff bc
       -0.19657154 -0.27498803 -0.0516758 -0.03120114
0001a0 11 cd b0 3e 42 6d e6 3e 2c 08 f2 3e 9d 9f 1a 3e
       0.34531453 0.45005232 0.4727186 0.1509995
0001b0 b5 51 83 3d 91 17 69 3d c9 c9 a8 bd 82 6a 08 bd
       0.06412069 0.05690724 -0.082416125 -0.0333047
0001c0 15 41 a1 be af de 31 be 71 fb e5 bd d0 e4 1e bc
       -0.31494966 -0.17370103 -0.11229599 -0.009698108
0001d0 cd 14 3f 3c a1 33 d0 be 71 93 12 be d3 1d a4 3d
       0.011662674 -0.4066439 -0.14314057 0.08013501
0001e0 f6 9b e4 bd 4f a0 15 3e ad 84 30 be dd 9b 31 be
       -0.1116256 0.14611934 -0.17238112 -0.17344613
0001f0 00 5b 8c 3b 27 26 42 3e 66 e4 04 3e 55 63 76 3d
       0.004283309 0.18959866 0.12977752 0.060153324
000200 d7 7d c3 3c 59 bc 1f bd 2b 10 7a 3d a6 03 cf 3d
       0.023863716 -0.03899798 0.061050575 0.10108118
000210 5f 35 34 bd bf 76 30 3e 67 16 64 bc 07 9a b5 bd
       -0.04399621 0.17232798 -0.013921357 -0.08867269
000220 0f a4 ae bc 0d d8 dc bd e6 21 4e 3d 2b ab 40 bd
       -0.021318464 -0.10783396 0.050325297 -0.04703824
000230 a6 1b 12 be e5 42 92 3d 80 cb f8 3d 13 cb 33 be
       -0.1426836 0.07141665 0.121481895 -0.17557935
000240 59 5e 5e bd 99 54 ca bd 4d e9 b8 bd c3 25 85 bc
       -0.054289196 -0.09879417 -0.090288736 -0.016253358
000250 f6 9a 2c bb 53 da 0c 3e f6 da db 3d d5 eb 10 be
       -0.002633748 0.13755159 0.10735123 -0.14152463
000260 1a b0 48 3d ec 34 0c be 70 dd 7d 3d e0 ad 74 3c
       0.04899607 -0.13692063 0.061978757 0.014934033
000270 8f c2 02 3d 4c e9 4a 3e 58 bf 40 be 18 d9 9b bc
       0.031923827 0.19815558 -0.18822992 -0.019024417
000280 7a 7a bc bd a5 5b 1f bd ad ea 03 be 01 e4 53 3d
       -0.09203048 -0.03890576 -0.1288249 0.051731113
000290 2e 0f c5 bc 85 58 4a 3e 54 ed c5 bd b3 70 18 bc
       -0.02405509 0.1976033 -0.09664407 -0.009304213
0002a0 2a 01 c2 bd b6 08 c9 bd fc 6a e4 3d 88 56 63 be
       -0.09472878 -0.098161146 0.11153218 -0.22200978
0002b0 c2 04 b8 bd c6 62 fa 3b f8 5b b8 3d 91 a7 56 bd
       -0.089852825 0.0076411692 0.09001917 -0.052405898
0002c0 e7 a8 07 be fb 61 28 be d3 04 4d 3d bb 55 f1 bc
       -0.13248025 -0.16443627 0.05005343 -0.029459825
0002d0 21 01 2c be e1 32 ac 3d a2 32 36 3c 87 f8 f4 bc
       -0.16797306 0.08408142 0.01112047 -0.029903663
0002e0 ff 97 c8 3d b6 35 81 bd 10 8a f0 3c a9 1e f3 3c
       0.09794616 -0.06309073 0.029362708 0.029677706
0002f0 96 fe d1 3d 36 37 3a 3e c3 15 05 be 0a 13 59 3d
       0.102536365 0.18185124 -0.12996583 0.052996673
000300 29 1a 18 bd d8 db 57 bb 72 c7 bf bd de 37 50 3d
       -0.037134323 -0.0032937434 -0.09364213 0.05083453
000310 95 f5 a9 3d 69 e6 10 3e 3a 07 2c 3c 6b 92 18 be
       0.08298794 0.14150394 0.01049977 -0.14899604
000320 b5 a0 d5 be 61 53 ca 3c 30 b1 34 be 8c b2 ae bd
       -0.41724172 0.024697961 -0.17645717 -0.08530149
000330 7f 69 6a 3e 5b 8a 06 bc 13 63 43 be 97 53 85 be
       0.22891806 -0.008211697 -0.19080763 -0.26040336
000340 1d 00 4f 3e 6c 95 7e bd 30 9b 10 3e 62 b9 33 3e
       0.20214887 -0.06215422 0.141217 0.17551187
000350 6b 6c 0f be 93 0e 8b bd e2 eb ea be be cf b8 be
       -0.14006202 -0.06789889 -0.4588309 -0.36095995
000360 05 0c 83 be 0a 42 0d 3d d9 fb 83 3d b9 13 8f bd
       -0.25595108 0.034486808 0.064445205 -0.06986184
000370 31 48 3b bd c4 78 3d bd d9 83 e7 bc cc 31 fb b8
       -0.045723144 -0.04625775 -0.028261112 -0.00011977888
000380 ce a1 cd 3b 02 76 46 3e 48 8d 1e 3b c8 74 4a bc
       0.006275392 0.19380954 0.0024193097 -0.012356944
000390 c9 09 14 3e a3 b6 34 be e1 cf 29 3d c1 f3 59 be
       0.14456858 -0.17647795 0.041458014 -0.21284391
0003a0 56 74 6e 3e bd 57 af 3e db cc b5 3e 70 0e dd be
       0.23286566 0.34246626 0.35507855 -0.43175077
0003b0 fc 0e 19 be 71 4f 43 bd 18 27 e8 bd df d7 25 3d
       -0.14947122 -0.047683183 -0.113355815 0.040489074
0003c0 02 08 59 be 50 c4 37 be e4 cf 31 be 32 14 99 bd
       -0.21194461 -0.17945981 -0.1736446 -0.07474555
0003d0 a1 b8 23 3d 3b a0 be be 2d 1c 5f 3e f7 b1 9b 3d
       0.039970998 -0.3723162 0.21788092 0.076023035
0003e0 21 31 c0 3d 18 fd fa 3d 90 cb 17 3e 4d ab 03 bd
       0.093843706 0.12255305 0.14823747 -0.032145787
0003f0 04 47 91 bb db c3 08 3e 72 52 0e be 60 97 15 be
       -0.0044335146 0.13355963 -0.13898638 -0.14608526

convs.0.att f4 [10, 4]
000000 79 dd c9 bd 9c f8 34 be af 88 6d 3e ad 5c fa 3d
       -0.09856696 -0.17672962 0.23196672 0.12224708
000010 14 34 fb bd 94 25 70 bd 7c 46 5b 3e e8 59 a6 3d
       -0.122657925 -0.058629587 0.21413606 0.08122617
000020 46 08 42 be 86 9e 06 3e 8f f7 7d 3e 28 b7 88 3d
       -0.18948469 0.1314641 0.24801467 0.06675559
000030 b2 c3 40 be da 97 36 3e 42 d4 7d 3e 00 d4 9f 3c
       -0.18824652 0.17831364 0.24788001 0.01951027
000040 55 2b b9 3c 72 d9 45 3a d4 6b 6c 3e 6e 3f d0 3d
       0.02260367 0.00075473555 0.23088008 0.10168348
000050 36 ba 82 bd 78 87 7d 3e 36 52 90 3e 51 c0 26 3e
       -0.06383173 0.24758708 0.28187722 0.162843
000060 b3 a4 24 3c b6 30 62 3e 9d b9 31 3e 76 e7 c5 3d
       0.010049033 0.22088894 0.17355962 0.09663288
000070 e3 cf a4 3d e2 6c 6d 3e 97 3e 39 3e 7d b8 f6 3d
       0.08047464 0.23186067 0.18090282 0.12046907
000080 c7 e4 2a 3e b8 79 30 3e 7f be c2 3d 80 03 17 bc
       0.16688834 0.17233932 0.095089905 -0.009217143
000090 40 1d ad 3e fa 92 1d 3e 83 56 49 3d c4 1f fa bd
       0.33811378 0.15388098 0.04915477 -0.1221309

convs.0.root f4 [4, 32]
000000 eb ae 9e bd cc 96 c5 3c 6c b9 41 3d 77 57 13 3e
       -0.07748207 0.024119757 0.047295973 0.14388834
000010 b4 03 2a 3e 6e 31 fc ba 64 a7 01 be e3 fc 8a be
       0.16602975 -0.0019240805 -0.1266151 -0.27146062
000020 ee 70 62 3e 42 b6 c8 3e 51 2b af 3e 4d 3c 7c bd
       0.22113392 0.39201552 0.34212735 -0.061580945
000030 35 3b f0 3d 32 e8 0b 3e 63 26 e6 bd 2c 07 c6 bd
       0.11730043 0.13662794 -0.112377904 -0.09669337
000040 bd bb 33 be 52 d3 4b 3e 8b 37 66 3d 6d d5 62 be
       -0.17552085 0.19904831 0.056205314 -0.22151728
000050 b7 c8 d6 3d 02 a4 fa bd d9 d3 ba 3d af a8 6d 3e
       0.10487502 -0.12238313 0.09122438 0.23208879
000060 04 64 33 bd 16 9e 5e 3e bd a6 dc bc 80 4f 95 be
       -0.043796554 0.21739992 -0.026934976 -0.29162216
000070 82 89 dc 3d dd fa 6e be 17 98 56 3d d8 88 48 be
       0.10768415 -0.23337884 0.052391138 -0.19583452
000080 50 8c 1c 3e 8e a8 6e 3e 62 57 66 be ef 78 f7 3d
       0.152879 0.23306486 -0.22494271 0.12083613
000090 46 2f 1c be fa dd 42 be 54 5a 77 bd 58 51 86 be
       -0.15252408 -0.1902999 -0.060388878 -0.26233935
0000a0 d4 03 bb 3c ba 4a 75 be 02 ce 35 3e af 45 40 3e
       0.022828974 -0.23954287 0.17754367 0.18776582
0000b0 fd 34 a6 3e bd a1 76 3e 48 a6 1c be 1a 66 92 3e
       0.32462302 0.24085136 -0.15297806 0.28593522
0000c0 23 0d 89 3c 24 09 cb 3d 18 4b b5 3d 44 89 e9 bd
       0.016729897 0.09913853 0.088522136 -0.114031345
0000d0 8b 36 68 bc d4 c7 73 be 21 d1 56 be 1a 93 c1 be
       -0.01417316 -0.23806697 -0.20978214 -0.37807542
0000e0 26 43 86 be cc 25 42 bd 42 a8 62 3e b2 bd cf 3d
       -0.26223105 -0.047399327 0.22134498 0.101436034
0000f0 15 f8 12 3e 91 d8 b2 bd 16 27 87 3e 77 7c 8c 3e
       0.14352448 -0.08732713 0.26397008 0.2743871
000100 7c 86 64 bc 4a 61 07 3e 07 26 97 3d cc 4f 79 bd
       -0.013948079 0.13220707 0.073803 -0.060867116
000110 e3 b9 29 be 70 b8 31 be e0 47 0d be f1 13 b6 bd
       -0.16574816 -0.17355514 -0.1379695 -0.08890522
000120 67 88 bd bd 3a 72 5e bd c7 cc 76 be ef 8c 39 3c
       -0.09254532 -0.054308154 -0.24101554 0.011325105
000130 7c 55 b0 3c 5b d4 56 3e 51 0b 91 bc 29 65 61 bd
       0.021525137 0.20979445 -0.017705591 -0.055028114
000140 83 13 04 be b9 38 b8 bd e1 e1 1d be 39 75 2f 3e
       -0.12898068 -0.08995194 -0.15418197 0.1713456
000150 d4 2b af bc cd 20 0a 3e 03 74 0c be f2 35 ab 3d
       -0.021383204 0.13489075 -0.1371613 0.083598986
000160 1a 4f 4c 3d 49 b0 bf 3d 69 2d 8f 3d bb 26 3d bd
       0.049880125 0.093597956 0.06991083 -0.046179514
000170 89 45 ef bd e8 5d 03 be b0 c2 94 3d 5d 4c ce 3c
       -0.11683185 -0.12828791 0.07263696 0.025182897
000180 ea b5 ca bd af ea 84 bd 9f 6f 23 bd c2 51 61 3e
       -0.098979786 -0.06490075 -0.039901372 0.22003844
000190 e4 4a 5b 3d 0a ce 52 bd c8 0b 2f bc 15 d1 25 be
       0.05353822 -0.051466025 -0.010683961 -0.1619304
0001a0 88 44 24 be 8b 68 2a 3e 8a cb ba bd 7f 0a 2d be
       -0.16041768 0.16641442 -0.09120853 -0.16898535
0001b0 a4 c7 13 3e 2d 8c c3 3d 65 25 01 3d 7a 44 41 3d
       0.14431626 0.09548221 0.031529803 0.047184445
0001c0 74 a6 29 3d b9 34 27 be 78 27 44 bd 3d 3c 1f 3e
       0.041418508 -0.16328706 -0.047889203 0.15550323
0001d0 ca d3 eb bd 77 d5 b9 3d 60 65 44 be 9b 9c 1c be
       -0.11515005 0.09073918 -0.19179296 -0.15294115
0001e0 c7 2b 17 bd fe 4c ea 3d 5a 9b 54 bd 68 bd e9 bb
       -0.036906984 0.11440466 -0.051905967 -0.0071331747
0001f0 46 24 58 be c1 da d1 bd 7e d8 a6 bd 10 56 15 be
       -0.21107587 -0.10246802 -0.08146761 -0.14583611

convs.0.bias f4 [32]
000000 da a4 0e 3e f8 4a 1f 3a e5 8e 16 3e a4 ba 85 be
       0.13930073 0.000607654 0.14702947 -0.26118958
000010 7f 35 21 3e 5e 2b bf bc 48 a1 ff 3d e1 f8 f3 3d
       0.15743063 -0.023336109 0.12481934 0.11912704
000020 c4 c7 37 3e a1 70 b2 bc 27 44 d2 3c 79 d4 67 3e
       0.17947298 -0.021782221 0.025667263 0.22639646
000030 45 45 52 bd f6 9f 3f be 2e 39 6b be be ab 96 3d
       -0.05133559 -0.18713364 -0.22971031 0.07356976
000040 e8 91 01 3e 69 65 65 3e f9 e3 4f 3e b0 38 c5 bd
       0.12653315 0.22401966 0.20301808 -0.09629953
000050 f7 0c d8 3d 50 e8 93 be 49 cd 20 3e 51 b1 f6 3b
       0.10549348 -0.28888178 0.1570331 0.007528462
000060 ac e7 0b bb e9 b6 7a bd d3 d8 01 be 02 e0 83 3c
       -0.0021347804 -0.061209593 -0.12680368 0.016098026
000070 b4 98 da 3d 46 1f 28 be 4f 73 50 3e 09 eb 8b bc
       0.10673657 -0.1641818 0.20356487 -0.017079847

convs.1.basis f4 [4, 32, 32]
000000 4b 22 02 be dc 6e 03 bd f7 c9 11 3d 71 fc 84 bd
       -0.12708394 -0.032088146 0.035593 -0.06493462
000010 24 5c 8a 3d ae af 5f bc e9 30 ae bc 58 b7 e3 3d
       0.06755856 -0.013652725 -0.021263557 0.111189544
000020 6e 70 63 3b ef b3 05 3d b2 9a 0d 3d 6c d1 5a bd
       0.0034704464 0.0326423 0.034571357 -0.053422377
000030 63 2e c9 bc 6f 8d b2 3d 69 38 cf 3d f4 4e f8 bc
       -0.024558252 0.087183826 0.10118181 -0.030311085
000040 a1 9f 5b bd 87 83 0b 3d 27 60 94 bc d0 0b 42 bd
       -0.05361903 0.03406098 -0.018112255 -0.047374547
000050 c5 f6 65 3c e3 4b 97 bc 98 83 9d 3d 4d c6 42 3c
       0.014035885 -0.018468803 0.07691115 0.011888099
000060 f4 65 49 3c e2 b1 1f 3d c9 46 9e 3c 53 a9 8e 3d
       0.012292374 0.038988 0.019320862 0.0696589
000070 4e 0f ee bc 39 c4 4a 3d f8 24 59 bc 2d d4 3e bd
       -0.029060032 0.04950354 -0.013253443 -0.046589065
000080 98 b9 4e bd a6 28 41 3c 9d bd 32 bd e4 8a 92 bc
       -0.050469965 0.0117894765 -0.04363786 -0.017888494
000090 fb 7a 55 bd f1 e0 12 3d 1b ef a4 bd a0 36 01 3c
       -0.052119236 0.035859052 -0.08053418 0.007886559
0000a0 59 c9 12 bd 49 46 70 bd 59 b8 2e 3d 5b ac 28 3c
       -0.03583655 -0.05866078 0.042656276 0.010294999
0000b0 85 37 83 bb 85 cb 83 3d f0 b2 b7 bd 36 fe e4 3d
       -0.004004421 0.06435303 -0.089696765 0.111812994
0000c0 29 a0 c9 ba fd 0e ed 3b 9f af 02 bc 14 c0 6e 3d
       -0.0015382814 0.0072344528 -0.007976442 0.05828865
0000d0 a7 27 04 3d f6 5e a9 bd 22 30 de bc 62 b3 84 3c
       0.032264378 -0.082700655 -0.02712256 0.016198818
0000e0 97 1a ea 3c 2f 80 e7 bc a8 dc 4e bd a0 56 9d bd
       0.028577132 -0.028259365 -0.050503403 -0.07682538
0000f0 63 8a c7 3c 90 d4 72 bd fd fc ae 3c 99 de 21 3d
       0.02435798 -0.059284747 0.021360869 0.039518926
000100 45 e1 18 3e d8 67 2c 3d 0f f9 52 3d e3 a5 8c bd
       0.14929684 0.04209122 0.051507052 -0.06867578
000110 e7 3e a3 3a 05 28 21 bc fa d5 02 3e e8 ac 4d be
       0.001245466 -0.009836202 0.12776938 -0.2008549
000120 19 eb 0f bd 0e cd 00 bd 42 cc 3e 3d b1 e2 d2 3c
       -0.035136316 -0.031445555 0.046581514 0.02574286
000130 9a 86 83 bd bc 59 68 bd 3f c4 53 3d 84 2a 38 be
       -0.064221576 -0.056726202 0.051700827 -0.17984968
000140 8e 88 98 bc cb 87 9d bd bf e1 e6 3c 66 3d 46 bd
       -0.018619802 -0.07691916 0.028183816 -0.048398398
000150 19 a5 88 3c 55 f2 8d 3d da 05 6e bc 55 75 1c 3d
       0.016680287 0.06930987 -0.014527762 0.038197834
000160 b4 cc d5 bd 41 ab 60 bd 04 44 87 3d 3a 62 a2 3d
       -0.10439435 -0.05485082 0.0660477 0.079288915
000170 c2 01 00 bc b5 34 9a 3c 10 f1 2d bd 94 87 93 bd
       -0.007812919 0.01882396 -0.042466223 -0.07203594
000180 8c ed de bc 80 7e 3c bd a0 9e 8d 3d ad 7e a2 3d
       -0.02721288 -0.046019077 0.06915021 0.07934318
000190 0f de c4 3c c6 cf 1b bd 18 e4 d3 bc 41 bc 5b 3c
       0.024031667 -0.038039945 -0.0258656 0.013411582
0001a0 ed 86 7c 3c 3a 7d e7 3c 2f 65 12 3d aa c0 86 bd
       0.015413028 0.028257955 0.035741027 -0.065797165
0001b0 6e 7e c9 3c 56 d6 cd bc 84 4a 15 bd b4 7f 4f 3d
       0.02459642 -0.025126617 -0.036448017 0.050658897
0001c0 f7 c1 58 3c 7f 90 1d bd 6b 4e 4f 3d 7d 9a 3e bc
       0.013229839 -0.03846788 0.050611895 -0.011633513
0001d0 e8 77 2a bd 81 2f 9f 3d 62 6e 29 bd 61 ab 0c 3d
       -0.041618258 0.077727325 -0.041365035 0.034343127
0001e0 46 69 18 3b 9c 56 e1 bc 84 37 3e bc a5 15 a3 bc
       0.0023256107 -0.027507119 -0.011609916 -0.019907782
0001f0 c6 51 28 3d 5e c1 2e bd 0f 5f 92 bc 5c 86 69 3b
       0.04109361 -0.042664878 -0.017867593 0.0035633063
000200 b3 35 23 3e 14 09 d3 39 81 a9 7d 3d 83 42 3c 3d
       0.15938453 0.0004025182 0.06192923 0.045961868
000210 52 db 99 3d b9 7e ef bc 9a e2 a1 3d 44 7e 9a bd
       0.07512535 -0.02923523 0.07904549 -0.075436145
000220 05 1f 0b 3d b0 33 d5 3c 0e a5 af 3d e5 e6 be bd
       0.03396513 0.026025623 0.085764036 -0.093213834
000230 5f c2 8c 3d a5 2b 00 bc 24 b9 c3 3d 5b 7f 52 bd
       0.06873011 -0.007822906 0.09556797 -0.051390987
000240 3d 14 9a bb e9 d7 60 3c e8 e0 91 bd 37 f3 ec 3c
       -0.0047021196 0.013723352 -0.071229756 0.028924568
000250 bc 22 0b 3d 29 3d a2 3c 89 05 c0 3d e9 f6 b3 bc
       0.033968672 0.019804554 0.09376056 -0.021968322
000260 9e c3 5a bc 53 14 66 bc 18 d6 13 bd 40 d5 f0 3d
       -0.013352303 -0.014042932 -0.036092848 0.11759424
000270 70 d2 ba bd 95 f6 d6 3d d1 26 80 bd c4 88 34 bc
       -0.09122169 0.104962505 -0.06257404 -0.011018936
000280 c6 74 cb 3c ed a6 7c bd 80 fe 1d 3c 2b 91 99 3b
       0.024835955 -0.06168263 0.009643197 0.004686495
000290 e3 ba 83 3d 1b 9a 24 bd 83 5f 36 3d 3e 6c 13 3b
       0.0643213 -0.04018603 0.04452468 0.0022494937
0002a0 ad 71 2f 3d 25 b0 2b bd e0 bf 1f bc 1a 8f a7 bc
       0.04283302 -0.04191603 -0.009750336 -0.020453978
0002b0 d7 ff 77 bc 83 d8 47 bc 88 32 a5 bd 2d 4e c5 3d
       -0.015136681 -0.0121976165 -0.08066279 0.096340515
0002c0 37 6c 0c 3d 54 cd 35 bd 38 34 f9 3c 2c f9 f0 bb
       0.03428289 -0.04438527 0.030420408 -0.0073539224
0002d0 66 1d 8e 3c 12 96 6d 3d 0c dc a5 bd b3 55 a1 3d
       0.017348003 0.058004446 -0.08098611 0.07877674
0002e0 84 29 78 3d e5 10 5e 3d 03 b1 70 3a 8d 6e 37 3c
       0.060586467 0.05421533 0.000918165 0.011195791
0002f0 21 71 0d 3e 9c ff 78 bd e8 a7 a1 bc 86 82 55 3c
       0.13812687 -0.060790643 -0.019733384 0.0130316075
000300 af e5 c1 bc d2 75 27 bd 8d 9f 8d bd 25 e3 fa bc
       -0.023669092 -0.040883847 -0.069151975 -0.03062589
000310 44 9a 64 3d af a3 5d 3d 62 ff 6c 3d 04 b4 45 bd
       0.05581118 0.05411118 0.05786074 -0.04826738
000320 67 7b 3b 3a ab 55 9d bb 7d d0 28 3d 3e ad 83 bd
       0.0007151872 -0.004801472 0.041214455 -0.06429528
000330 a5 28 e9 3c ab 06 a0 bc 88 25 8d 3d 60 71 df bd
       0.028461764 -0.01953443 0.06891924 -0.109102964
000340 62 36 a7 bd 31 a3 9b 3d 33 31 08 3d 3e d6 a4 3c
       -0.081646696 0.07599486 0.033250045 0.02012169
000350 61 43 aa 3c 9e fe 6d 3d ad 87 cf 3d d3 0a 2b 3d
       0.020784082 0.05810415 0.101333 0.04175837
000360 65 85 e3 bc 3c ef 9a bd d2 54 c4 bc e0 d4 de 3d
       -0.027773568 -0.075651616 -0.023966227 0.108804464
000370 ff 3c 06 be 48 f7 83 bb d4 87 f3 3a 9c 2b 14 3d
       -0.13109206 -0.004027281 0.0018579909 0.0361744
000380 21 ed 87 be d5 d7 dd 3c a6 a3 0a bc d4 56 3e bd
       -0.26548102 0.027080456 -0.008461868 -0.046469525
000390 b6 71 88 bd b4 10 28 bd 32 b6 1a be 38 20 55 3e
       -0.06662314 -0.041031554 -0.15108564 0.20813072
0003a0 6e 83 33 3c 22 d7 83 3b 58 b2 ad bc 02 9a 70 bd
       0.010956628 0.0040234486 -0.021203205 -0.058740623
0003b0 dd 54 8c bb 33 3d 52 bc d9 00 8e 3d 02 2c 29 3e
       -0.0042825774 -0.012831974 0.069337554 0.16520694
0003c0 ce 7e 34 3c cf 6f 5d 3d 75 c2 83 bd 9a 4d 1c 3d
       0.011016561 0.054061707 -0.06433574 0.038159944
0003d0 9b b7 50 3b b3 4d 82 be 40 ff 17 3d 58 3a bc bc
       0.0031847719 -0.25449905 0.03710866 -0.02297704
0003e0 1d f8 3c bd 2e 6f 6b bc e8 a0 8f 3d e5 54 e9 bd
       -0.046135057 -0.014369769 0.07013112 -0.113931455
0003f0 07 bf 64 3d c0 c7 a0 3c 39 75 95 3b 7d 13 03 3d
       0.05584624 0.019626498 0.004561093 0.032001007

convs.1.att f4 [10, 4]
000000 d3 26 f1 3c af cf 34 3e 58 63 6a be 8d 3a 4c bd
       0.029437458 0.1765735 -0.22889459 -0.049860526
000010 aa 7e f1 3d 29 66 05 3e 32 69 65 be 6d 51 ba bc
       0.117917374 0.13027252 -0.2240341 -0.022743905
000020 8c 7f 0c 3e da 8a 6d 3d b8 de 69 be 04 7b 48 bd
       0.1372053 0.057993747 -0.22838867 -0.04894544
000030 0d 56 e0 3d 9b 0b 15 bb 93 f8 27 be ba 85 d9 bd
       0.10953913 -0.0022742513 -0.16403417 -0.106212094
000040 6d 93 d2 3d d3 13 1c bd dc 3a f8 bd d5 6b b4 bd
       0.102820255 -0.038104843 -0.121206015 -0.0880963
000050 15 0d 69 3b ba 91 31 bd b2 35 a5 bd e1 9f 82 bd
       0.0035560776 -0.043351866 -0.08066882 -0.06378151
000060 c3 14 1b 3c d5 7b be bd 9e 48 78 bd 9d 1f 27 3d
       0.009465399 -0.09300963 -0.06061613 0.040801633
000070 6b 96 d6 3c a6 e7 fc bd f2 cd ff 3c 6e c7 88 3d
       0.026194772 -0.12348871 0.031226132 0.06678663
000080 46 91 7f bd e6 f1 c8 bd ac 7f 2e 3d dd 42 b9 3d
       -0.062394403 -0.098117635 0.042602226 0.09045956
000090 b3 57 06 be d0 74 01 be 3b ac a2 3d bf 9f 21 3d
       -0.13119392 -0.12642217 0.079430066 0.039458986

convs.1.root f4 [32, 32]
000000 48 ef 82 bd 6d 5b 3b 3d 24 24 46 3a 88 55 dd 3c
       -0.063932955 0.045741487 0.0007558486 0.027018324
000010 1a b1 d3 3c 9e 82 a1 bc d8 00 6a be dd a1 b0 3d
       0.025841285 -0.019715603 -0.22851884 0.08624623
000020 a5 ca 91 bc a2 95 08 bd e4 cf 51 3d 33 ed a8 bb
       -0.017796824 -0.033345826 0.05122365 -0.0051552295
000030 f6 4c d3 bd 8d 23 5d bd be 32 80 bb 13 ec 12 3d
       -0.103174135 -0.053988982 -0.003912299 0.03586967
000040 58 26 f0 3c cf eb 3b bd 2e 0e ae bd f6 68 90 bc
       0.029315159 -0.04587918 -0.08498798 -0.017628174
000050 37 30 3a bc df 97 05 3d 4f eb 3b 3d 2a af 27 3d
       -0.011364034 0.03261554 0.045878705 0.040938534
000060 00 6d 5c bd 4c 4b 25 bd d8 ea ba bc 57 5d e9 3d
       -0.053814888 -0.04035501 -0.02281706 0.11394756
000070 1a ec 82 bd 2e 08 e4 bd 7c f3 b3 bc b7 76 41 3d
       -0.06392689 -0.11134373 -0.021966688 0.047232356
000080 bc d6 64 bc 8a a7 60 b9 7a 22 b0 3d 92 af 68 bd
       -0.013967212 -0.00021424718 0.08600326 -0.056808062
000090 78 59 4d 3d 98 ac f1 3b bb 5f ae 3d 4f 6d 50 3d
       0.050134152 0.007375311 0.08514353 0.050885495
0000a0 20 8c be 3c 30 31 43 bd 0a 05 7d 3d 7e cc 87 3c
       0.023260176 -0.04765433 0.061772384 0.016577002
0000b0 c6 19 8b bd 9e 8f d2 bd d1 8c 2d 3c df cb 48 bd
       -0.06792025 -0.10281299 0.010592655 -0.04902255
0000c0 e7 08 41 bc 50 7f 39 bd d1 e5 92 3d 8f 5e c3 ba
       -0.011781908 -0.04528743 0.0717274 -0.00149055
0000d0 73 a0 31 bc ef 25 79 3d 95 0a b6 3c 83 b6 b8 bd
       -0.010841477 0.060827192 0.022221843 -0.09019186
0000e0 be 16 88 3d b1 c4 10 3c 1a 3c 8a 3d 4f 03 e7 bd
       0.06644963 0.008835957 0.06749745 -0.11279928
0000f0 1b f2 02 bd 9a e2 98 bd 0c 40 51 bd 68 6c 41 3d
       -0.03196917 -0.07465096 -0.05108647 0.047222525
000100 d8 c5 ec ba 6d 3c 04 bd 91 25 9b 3d 95 94 e9 3c
       -0.0018064333 -0.03228419 0.075755246 0.028513232
000110 0d c3 0c bd 3c f5 b2 bd c7 c6 08 3e 8d bd e5 3d
       -0.034365702 -0.08738181 0.13357078 0.112177946
000120 85 67 16 3d 97 8c 0f bd 6b ac c8 bc a2 60 43 bd
       0.036719818 -0.035046186 -0.024496278 -0.047699578
000130 e1 29 3b 3d 01 8a 6c bd ae a0 63 bd f7 83 1c bd
       0.045694236 -0.0577488 -0.055573158 -0.03821179
000140 ee 32 bc bc a6 99 ad bd 7c cf 1b bd 59 85 3a bd
       -0.022973504 -0.08476572 -0.03803967 -0.045537326
000150 23 1e b4 bd ad 15 fd 3b c7 7f 5e 3c cf bc 5c 3d
       -0.087948106 0.007723531 0.013580269 0.053891
000160 7f 10 74 3d c7 97 4e bc 4c bd c5 3c f8 5c 37 bd
       0.059586044 -0.012609429 0.024138115 -0.044766396
000170 10 c3 7a 3d b1 15 91 bd 3d a1 2f bd f0 38 cb 3b
       0.061221182 -0.070842154 -0.04287838 0.006201856
000180 ff 85 6f 3d 2c 8b a3 3d 6f 61 10 bd af f9 99 bd
       0.058477398 0.07985529 -0.03524917 -0.075183265
000190 cd 23 91 bd 8a b9 30 3d 26 fb 16 bd 9b 04 13 bd
       -0.070869066 0.043145694 -0.036860608 -0.035893064
0001a0 88 93 2f bd ae 76 94 3d c6 00 b0 3d cf a2 29 3d
       -0.042865306 0.07249199 0.085938975 0.041415032
0001b0 23 2d d1 3c 03 3e 04 bd 9e a4 49 3c 9a c7 83 3d
       0.025534218 -0.0322857 0.012307314 0.06434555
0001c0 38 b3 21 3d 30 ec 36 bd 64 ca 71 3d 55 3a 91 3d
       0.039477557 -0.04465884 0.059030905 0.07091204
0001d0 c2 35 0e bd 20 f0 e9 3b 2c 2d eb 3d 14 ed 90 3c
       -0.034719236 0.007139221 0.11483225 0.017691173
0001e0 47 fa 5c bd cc e7 df 3c 30 ff f4 3d 4f 42 f0 3d
       -0.05394962 0.027332209 0.11962736 0.11731397
0001f0 fa a5 1e 3d 52 29 1e bd 41 53 29 bc 86 57 32 3d
       0.038732506 -0.038613625 -0.010334791 0.0435405
000200 6f 52 73 3d bd fe c7 3d 3a a7 3f 3d f9 35 ad bd
       0.059404787 0.09765384 0.04679034 -0.0845756
000210 b1 a2 b9 3d d0 1c 87 3d 44 aa 5f 3d d6 af 94 bd
       0.09064234 0.065972924 0.054605737 -0.072601005
000220 45 09 39 bd 96 92 49 bd 54 f1 b9 bd 4d df d3 bc
       -0.045174856 -0.04921206 -0.09079233 -0.025863314
000230 4a 8c da 3d e2 ae 9e bc 60 5b a9 bd 8d fe 2d 3c
       0.10671289 -0.0193705 -0.082693815 0.010619772
000240 f3 4c 3c 3d 3d 87 c2 bd 64 bc fb bc 46 d9 90 bc
       0.045971822 -0.09498451 -0.03072948 -0.017681729
000250 b7 b0 02 3e 37 c3 cc 3d ed c0 8b 3c e3 f8 1a bd
       0.12762724 0.09998172 0.017059768 -0.037835013
000260 97 b8 c7 ba ff 4f 8a 3d c1 33 4c 3d 8d eb 7e bd
       -0.0015237507 0.06753539 0.049854044 -0.062236357
000270 55 fe 95 bc 9b c9 99 bc 7b f8 8d 3d f8 2c 02 be
       -0.018309752 -0.01877289 0.069321595 -0.12712467
000280 8e 39 87 3d 93 eb 96 3c 2f aa 50 3d 60 e0 a1 3d
       0.066027746 0.018422877 0.05094355 0.07904124
000290 89 8a 81 3d 75 fe 0a 3d 8a f2 2f bd be 59 d2 3d
       0.063252516 0.033934075 -0.042955913 0.10271023
0002a0 bd d5 a8 3d 4d 53 41 3c a9 37 ad 3d 85 e6 cc bd
       0.08243892 0.011799646 0.08457882 -0.100049056
0002b0 5d c7 86 bd fd 8d 62 bd 15 1f b0 3c 30 ea 3d bd
       -0.06580994 -0.05531119 0.021499196 -0.046365917
0002c0 06 93 c3 bd 5e b5 47 3d d5 b9 a7 bd bf 28 8d 3d
       -0.09549527 0.04875695 -0.081897415 0.06892537
0002d0 46 13 00 bd 1d 5b 19 3b 4e 97 80 3d ec 0d 41 bd
       -0.03126838 0.0023400255 0.06278859 -0.047132418
0002e0 6f 7f be bd 43 c1 54 bd 97 f0 ef 3c d8 6b 1b 3e
       -0.0930165 -0.05194212 0.029289527 0.15177858
0002f0 59 21 ac bd 09 ae 51 bd 01 28 0d 3b bc 62 ca bc
       -0.08404798 -0.051191363 0.0021538737 -0.024705283
000300 47 8d 90 3c 99 69 55 3b be 03 52 3d ab 08 17 bc
       0.017645491 0.0032564162 0.0512731 -0.009218375
000310 65 a6 79 bd 15 84 b5 bc ae bd 93 bd 39 e3 ba bd
       -0.0609497 -0.022157708 -0.07213913 -0.091253705
000320 25 06 94 3d cb 63 78 bd ce 99 90 39 67 66 63 3d
       0.072277345 -0.060642045 0.00027580414 0.05551758
000330 6f aa 9a bd 7c 27 35 3c ba 0a 58 bd 5a 88 dd bc
       -0.07552039 0.011056777 -0.052744605 -0.027042557
000340 01 fb b4 bc f9 86 1c bc 2a e2 95 bd 13 3d 21 3a
       -0.022092344 -0.009553664 -0.07318528 0.00061507634
000350 60 e1 4c bd e0 67 92 3d b3 bf a8 3d b9 f1 7b bd
       -0.05001962 0.07148719 0.08239689 -0.06150982
000360 a0 6a 0d 3a dd 9b 0c 3d 15 71 a6 bc 30 f1 de bc
       0.00053946115 0.03432833 -0.020317594 -0.027214617
000370 71 64 80 bd 01 c9 42 3d 8d d9 05 bc fe 76 65 3d
       -0.06269158 0.047554974 -0.008169544 0.056021683
000380 7d 5c 02 3c 36 a6 5d 3d 2d da 7e bd a1 be e3 bc
       0.007956621 0.05411359 -0.062219787 -0.02780086
000390 ed e6 3f bd 5f 2a 38 bd d0 e5 22 be 3e 99 85 bd
       -0.046851087 -0.044962283 -0.15907979 -0.06523369
0003a0 c1 18 96 3c a6 59 42 3d 99 5c ee 3c da 1c 1e bd
       0.01832235 0.047448777 0.029096888 -0.038601734
0003b0 4f 7a 85 bc 96 ca c1 3d fd a3 75 bd e1 06 be bd
       -0.016293673 0.09462468 -0.059970845 -0.09278656
0003c0 c3 17 5a bb 39 f9 1a 3d 36 7a 62 3d dd df 90 3d
       -0.0033278323 0.037835333 0.05529233 0.070739485
0003d0 83 e7 6e 3d 7d 8e 4d bc 01 12 75 bc 1f fc 83 bc
       0.058326256 -0.012546179 -0.014957906 -0.016111432
0003e0 9f c2 99 bd e6 f9 be 3b 8f 7a 90 3b ee b8 70 3d
       -0.07507824 0.00582813 0.0044091414 0.058770113
0003f0 33 bc 5e 3c 64 9d 45 3d fc 17 d2 bc 4c a8 25 bd
       0.013594675 0.048245803 -0.025646202 -0.040443704

convs.1.bias f4 [32]
000000 28 a3 47 bd cd b5 81 bd 65 68 04 bd 77 8a 59 bd
       -0.048739582 -0.06333504 -0.03232612 -0.053110566
000010 96 c4 16 bd 73 56 e0 bd f5 95 a4 bd 64 d2 d0 3c
       -0.036808573 -0.10953989 -0.080364145 0.025490947
000020 cf 90 74 3b 9e a8 fa bc 22 69 36 3d 10 6d a1 bd
       0.0037317758 -0.030597981 0.044533856 -0.0788213
000030 b6 ca ac bd 57 fd 90 3d 83 c9 e1 3d 47 42 d0 3d
       -0.084371015 0.07079571 0.110247634 0.101688914
000040 10 c3 22 bd de 1d a4 3d 44 40 92 3d 23 79 41 3d
       -0.039736807 0.08013509 0.07141164 0.047234666
000050 a0 3b 18 bd 6c 2a 80 bd b5 4c aa bb a8 28 9c bd
       -0.037166238 -0.06258091 -0.0051971325 -0.07624942
000060 20 d0 80 bd 36 ca 9b 3d 1d 70 14 3c a0 42 d7 bd
       -0.06289697 0.07606928 0.009059933 -0.105107546
000070 1b 10 bb bd 70 59 96 3c 62 d9 67 bd 6c c1 61 3d
       -0.09133931 0.018353194 -0.056603797 0.055116102

convs.2.basis f4 [4, 32, 32]
000000 80 f2 23 3d f3 88 2a bd bc 4a 82 3a 6d bb 0d 3d
       0.040026188 -0.04163451 0.0009940485 0.03460257
000010 ee 3c 81 bd 8f 2d 8c bc de c4 3e 3d 78 90 e2 3b
       -0.063104495 -0.017111568 0.046574466 0.0069141947
000020 b3 7e 2e bc dd bd a7 3c f4 b1 8b bd 77 08 8a bc
       -0.010650325 0.020476276 -0.06821051 -0.01684974
000030 7d 66 0c 3d f0 a6 c9 bb 85 bf 71 3d 70 27 09 bb
       0.034277428 -0.0061539337 0.059020538 -0.0020928048
000040 fb d3 cb ba 1e 83 89 3d 06 a1 8f bd 15 5a 24 3d
       -0.0015550846 0.06714462 -0.07013135 0.04012497
000050 1b ee 8d bc b9 bb 63 bc 45 5e 7d 3d 07 e3 16 bd
       -0.017325452 -0.013899737 0.06185748 -0.036837604
000060 dd 4c c0 bc 4b 04 80 bd bc 0b 5a 3d 91 51 d0 bb
       -0.023474151 -0.06250819 0.053233847 -0.0063573797
000070 ec 58 97 bd bb 4b 33 3c d2 64 27 bb c7 bd ab bd
       -0.073900074 0.0109433485 -0.0025542271 -0.083858065
000080 68 58 94 bc cb 02 dd 3d b5 67 72 3c 61 ec ce bc
       -0.018108562 0.10791548 0.0147952335 -0.025259199
000090 ec 17 bc bc 6b 0a bf bc 6c 95 83 bd bf 20 49 3d
       -0.022960626 -0.023320397 -0.06424984 0.049103495
0000a0 8e 37 a0 3d 97 19 82 bc 2c c8 23 3d 11 b1 39 bd
       0.07823096 -0.015881343 0.03998582 -0.04533488
0000b0 ca bf 79 bb 5f 2f 1e bd 81 95 b8 3a 56 62 34 3d
       -0.00381087 -0.038619395 0.0014082642 0.044039093
0000c0 cc 35 08 bd 8a c5 ca 3b b5 4e 87 bd f4 9f 9a 3d
       -0.03325443 0.0061880993 -0.06606809 0.0755004
0000d0 94 eb 5b 3d 32 cc 3e 3d 9a 77 fa 3b 3c c8 a3 3b
       0.05369146 0.046581455 0.007643652 0.004998235
0000e0 67 28 18 bb 48 0e 1f bc e1 94 45 bd 9b 54 85 3d
       -0.002321744 -0.009707995 -0.048237685 0.06510278
0000f0 25 0b 41 3d a8 d0 bd bc 04 e9 e4 bc e2 f6 b2 3c
       0.04712977 -0.023170784 -0.027943142 0.021846239
000100 d5 34 07 bd dc 12 b0 3b a1 15 a2 bd d1 fb 42 3d
       -0.03300937 0.005373342 -0.07914282 0.047603432
000110 f4 5d 9a bc 35 91 80 bd 6a a0 a6 3c 04 c3 c7 3c
       -0.018843628 -0.06277696 0.020340163 0.024384983
000120 40 e6 31 bd 10 f0 89 3d 97 6e 89 3c 65 27 3e 3d
       -0.043432474 0.067352414 0.016776366 0.04642429
000130 f9 4a fa bc a8 14 4f 3d c2 41 8f 3d 63 99 81 bd
       -0.030553328 0.05055681 0.06994964 -0.06328084
000140 8f f6 12 3b 77 4f 87 3d 6a 7d 34 3d db f3 db bb
       0.0022424792 0.066069536 0.044064917 -0.0067124194
000150 43 b3 4c 3d db 60 bb 3d e2 59 28 3d 77 1b 2a 3c
       0.049975645 0.09149333 0.041101344 0.010382525
000160 17 9b 3b 3d d0 66 d8 3b 33 3a 9f bd 39 30 84 3c
       0.045802202 0.006604053 -0.077747725 0.016136276
000170 4c cc 92 3c 0e 3d d0 3c 87 c2 15 bc 6a 42 4f bb
       0.017919682 0.025419738 -0.009140617 -0.003162528
000180 fc ae 2a bd 92 e5 7d bd 3c f0 52 3d 48 46 4a 3d
       -0.041670784 -0.061986513 0.051498637 0.04938343
000190 87 f7 53 3d b1 7a f3 3b e0 b9 84 3d cc b8 9f 3d
       0.051749732 0.0074303974 0.06480765 0.07798919
0001a0 cc 04 b2 bd 90 3f b2 bd ca 57 57 ba 0c 44 74 3d
       -0.08692321 -0.0870353 -0.0008214681 0.059635207
0001b0 62 53 df 3b ac 38 7c bd 6f 81 5e bd 32 28 b1 3c
       0.00681536 -0.061577484 -0.054322656 0.021625612
0001c0 93 07 dc bc ec 9e 20 bd 00 c6 78 3d eb 00 c7 bc
       -0.02685908 -0.03921406 0.060735703 -0.02429243
0001d0 c4 59 96 bc 2e 7f a8 bd 67 31 36 bd f1 ae 08 3d
       -0.01835335 -0.082273826 -0.044480707 0.033369962
0001e0 d6 59 42 bd 1a c5 ff bc 8b 48 33 bd 88 7d 80 ba
       -0.047448955 -0.031221915 -0.043770354 -0.0009803036
0001f0 eb c7 2b bc 41 7e 9c bb 5e 3b 7c bd af 23 9c 3c
       -0.010484676 -0.004775793 -0.061580054 0.019059984
000200 70 d8 83 3d f8 a7 38 3d e0 f6 89 bd 18 20 18 bd
       0.064377666 0.045082062 -0.06736541 -0.037139982
000210 65 63 d6 3c a2 b7 86 bd 40 5f 88 bd eb 2a 74 3d
       0.026170442 -0.06577994 -0.066587925 0.059611242
000220 e3 ab 82 bd c7 5c 4e bd 05 64 75 bd b1 82 84 bd
       -0.06380441 -0.050381448 -0.05990984 -0.0647024
000230 e0 6c 31 bb f3 85 26 bd 76 77 48 3c d4 7a 8d 3c
       -0.0027072951 -0.040655088 0.012235513 0.017270483
000240 69 31 17 3d 6f a7 ad 3c b0 31 88 bd 5d ed 83 3d
       0.036912356 0.021198003 -0.06650102 0.06441758
000250 b8 5c 25 bb f1 07 be 3d d9 96 7c bc f0 b8 03 bc
       -0.0025232267 0.092788585 -0.015416824 -0.008039698
000260 2f 13 18 bd e0 7f e8 ba cf 43 c7 bb d1 ef 6c bd
       -0.03712767 -0.0017738305 -0.0060810815 -0.057845894
000270 84 4f 66 3c 00 cc 1e bc 45 b0 fb bc 5a b9 2a bd
       0.014057044 -0.009692192 -0.0307237 -0.04168067
000280 a5 09 34 3c 4f 55 c1 ba fc fb cf 3b 65 b6 ef 3b
       0.010988628 -0.0014750155 0.0063471776 0.0073154443
000290 ff 79 36 bd 41 5d 43 3d 74 c6 59 3d 4d 03 87 bc
       -0.04454994 0.047696356 0.053167775 -0.016481066
0002a0 0c 09 19 3c 24 aa 63 3d 23 41 06 3a 45 ec 38 bc
       0.009340536 0.05558218 0.00051214005 -0.0112868
0002b0 3e 4a 5b bd 3c 1d ae bb 30 ca b8 3d 69 83 87 3d
       -0.0535376 -0.0053135436 0.09022939 0.066168614
0002c0 34 39 d4 bc 1f 07 9a 3d 50 e4 8f 3d cf 93 9d 3c
       -0.025906183 0.075208895 0.07025969 0.01923552
0002d0 0f 2f be 3c 5b b1 d7 bc bf 2f c7 bc 3b 6f 0a 3d
       0.023215799 -0.026329687 -0.02431476 0.033797484
0002e0 5f 5c 42 3d 19 22 7d 3c 86 05 14 3d 04 ac 86 3d
       0.047451373 0.015450024 0.03613808 0.06575778
0002f0 e2 7d 83 bd 2f 7e 6d 3d f2 7f 0d 3d 4f 60 0d 3b
       -0.064204946 0.057981666 0.034545846 0.0021572297
000300 a1 4b 13 bd b7 fa 0d 3c cc 23 9d bd cc 09 9c 3d
       -0.035960797 0.008665732 -0.07672843 0.07619056
000310 d4 4e ad 3d 97 7f 1e bc e7 ba 69 bb a4 26 32 bd
       0.08462301 -0.0096739745 -0.003566438 -0.04349388
000320 83 02 02 bc ac 66 bc bc 91 12 5e bd 63 ab 3b 3d
       -0.007935169 -0.022998177 -0.054216925 0.045817744
000330 bf 0d 83 bc 81 25 bb bd 9f aa 8b 3b 01 98 33 3c
       -0.015997766 -0.09138013 0.004262283 0.0109615335
000340 22 33 39 3d 8f 6a 34 3d 5a 48 9f bc 8b 55 8e 3c
       0.04521478 0.044046935 -0.01944368 0.017374774
000350 92 6b 84 3c 96 c0 f1 bb 3c f5 9c 3d 66 7c 07 bd
       0.016164575 -0.0073776944 0.07663962 -0.03307762
000360 67 14 67 3d 28 b6 75 3d 55 24 9c bc 3c e8 29 bd
       0.05641594 0.05998817 -0.019060293 -0.04148124
000370 9f 64 9b bd 4f 61 84 bd af e7 47 3d 74 61 74 bd
       -0.07587551 -0.06463873 0.048804935 -0.05966325
000380 b8 2f 26 3d b4 a8 20 3d 0e 79 c0 3c 8b c2 f7 3c
       0.040572852 0.039223388 0.023495223 0.030244133
000390 b9 f5 85 3c 38 1b b3 bb 94 b2 72 3d de 7d 54 3a
       0.016352521 -0.005465891 0.059252337 0.0008105914
0003a0 80 80 1c bd 46 6f 43 bc 95 67 8e 3b ce 68 ad 3d
       -0.038208485 -0.011928385 0.004345844 0.084672555
0003b0 e9 09 5e 3c ba bd 5a 3c a7 74 81 bc df 52 12 bd
       0.013552167 0.013350898 -0.015802694 -0.035723563
0003c0 ed 90 b9 bd dd 68 5d 3d 56 37 cf bc d7 7b 60 bd
       -0.090608455 0.054055084 -0.02529494 -0.054805603
0003d0 8f 5e d8 bc aa 62 09 3d a9 6b ac bc de 4d 70 bd
       -0.026412277 0.03354136 -0.02104743 -0.05866801
0003e0 e8 0c 0e 3d e1 94 f5 3c eb 8e 28 bd 9f e2 e1 3c
       0.034680277 0.029978218 -0.041151922 0.027573882
0003f0 a2 e8 e3 3d 6b 72 ed 3c c9 5e 7d bd 21 f6 a3 bb
       0.111283556 0.028985223 -0.061857972 -0.005003706

convs.2.att f4 [10, 4]
000000 6d 33 bb 3c 9e f2 62 bb 76 ce 9a 3c b8 86 97 3b
       0.02285167 -0.0034629474 0.018897276 0.004624214
000010 24 00 96 3c 30 c1 55 bc 58 12 70 3c 49 f4 44 3c
       0.018310614 -0.013046548 0.014652811 0.012021133
000020 04 84 1e 3c 60 0a b3 b9 e8 31 a3 3b b9 bb 76 3c
       0.00967503 -0.0003414927 0.0049803145 0.015059405
000030 fe 2f 9b bb 37 3d 4b 3b 8d 50 22 ba 2d f0 41 3b
       -0.0047359457 0.0031011829 -0.00061918126 0.0029592619
000040 b8 19 4f bc 05 b7 ec bb 24 1f fc bb 2b b3 8a bc
       -0.012640409 -0.007223966 -0.007694142 -0.016931137
000050 8e 25 70 bb ea d5 c5 bb b9 de 3f bc 66 6e 33 bc
       -0.0036643478 -0.0060374634 -0.011710816 -0.010951614
000060 21 c6 fa 3b 34 cb 2c 3b 0f 68 0f bb 28 5b 30 3c
       0.0076530133 0.0026366236 -0.0021882092 0.010763921
000070 9b 7f 01 bc 75 77 d7 3b e9 91 fe 39 a4 2a 59 3b
       -0.007903959 0.0065755197 0.00048555367 0.0033136988
000080 51 a5 23 bb fc 52 62 bb 18 cc b1 bb 36 89 84 ba
       -0.0024970362 -0.0034534326 -0.005425941 -0.0010111693
000090 83 29 63 ba 17 3b 15 3b 85 6e dc 3b 2d 23 f2 bb
       -0.00086655485 0.0022770816 0.006727042 -0.007389447

convs.2.root f4 [32, 32]
000000 42 d5 4f bd 9d de 12 bd 24 ed 83 3d 48 57 f5 bc
       -0.050740488 -0.03585683 0.06441715 -0.029948846
000010 6d db 97 ba c2 39 9a bd 17 fb 73 bd ab a5 d7 bc
       -0.001158578 -0.07530548 -0.05956563 -0.026324114
000020 28 ac 1f 3d 2b cd 3d bd 32 36 0d 3c f1 3e 55 3c
       0.03898254 -0.04633824 0.008618878 0.013015495
000030 9d 85 4a bd 0b a3 94 3d 06 b8 b9 bd 5f 64 60 bd
       -0.04944383 0.072576605 -0.09068303 -0.05478322
000040 64 38 9c ba c2 94 d1 bc 6e 11 f6 3c ee 96 2b 3c
       -0.0011918661 -0.025583629 0.030037608 0.010472996
000050 52 31 d8 38 e5 ef 4b bc 95 27 7c bd dc c8 37 3d
       0.00010308869 -0.012447332 -0.061561186 0.04486929
000060 2f 04 89 bd 9b 70 92 bc 05 ba ab 3c 2a 70 ca 3c
       -0.06690251 -0.01787596 0.020962724 0.024711687
000070 29 a0 1d 3d 37 87 ea 3c 64 7e 3b bd 87 e7 63 bc
       0.03848282 0.028628929 -0.045774832 -0.013910181
000080 f4 c4 8f bc 06 40 14 bb 7b 06 9b bd 0c 41 52 3d
       -0.01754997 -0.0022621169 -0.075695954 0.051331565
000090 75 99 a6 bb 8f cb be 3d 16 e0 f8 bc 20 55 a6 bd
       -0.0050842115 0.093161695 -0.03038029 -0.08121705
0000a0 16 1e 5b 3c 30 ef c2 bb 44 53 b8 bd 21 1a 48 3d
       0.013373872 -0.0059489235 -0.09000257 0.048853043
0000b0 b0 8b 6c 3d 6a 5c 09 3d 14 ef a4 3c 56 99 2f 3d
       0.057750404 0.0335354 0.020133533 0.042870842
0000c0 85 7c 95 3d 0f d6 15 3c c5 e7 18 bd 7f d3 61 bd
       0.07299141 0.009145274 -0.037330408 -0.05513334
0000d0 63 09 20 bd 85 a3 21 bd 2b 69 09 bd 9d 1a dd bc
       -0.039071452 -0.039462585 -0.03354756 -0.02699023
0000e0 15 1b ca bd 83 8c 46 bd fb 1a 96 3d e3 9c 91 3b
       -0.09868447 -0.048473846 0.07329365 0.004443751
0000f0 6c 45 ae bd 89 df 1c bb 6a f2 89 bd 48 99 fc bc
       -0.08509335 -0.0023936948 -0.0673569 -0.030834809
000100 40 87 00 bd 69 d3 0d be 68 94 db 3d d0 c2 aa bd
       -0.031378984 -0.13850178 0.107216656 -0.08337939
000110 1f cd ba bd cc 6a f4 bd dc 20 5d bc cd b9 d2 bc
       -0.09121155 -0.119344324 -0.013496604 -0.025723362
000120 19 fe f8 3c 34 e5 8f bd 50 86 9d 3b 93 25 58 bc
       0.0303946 -0.07026139 0.004807271 -0.013192552
000130 3d 8a 78 bd 3e 4c b8 bd 7b bd 03 3d 3c 4f 97 3c
       -0.06067871 -0.08998917 0.032163125 0.0184704
000140 80 86 41 bd d0 00 19 3c 23 b0 b3 3c 88 01 87 bd
       -0.04724741 0.009338573 0.021934574 -0.06592089
000150 81 e4 03 be a1 26 f8 bc e0 c5 22 bd 56 bd 3f bc
       -0.12880136 -0.030291857 -0.03973949 -0.011702856
000160 e6 47 a4 bc 2d 9b fa 3c 6f 83 76 3d f9 85 aa 3c
       -0.020053815 0.030591572 0.06018394 0.020815836
000170 21 e7 0d 3b 9e b3 a6 3c fb ae d0 bd c1 7e 85 bd
       0.0021652656 0.02034932 -0.10189625 -0.06518317
000180 87 dc a6 3c 15 62 4f bd 8f ce b4 bc 86 b0 14 bd
       0.020368828 -0.050630648 -0.022071151 -0.03630116
000190 10 bf 48 3d a1 72 dc bd 09 91 4a bc 2d b5 45 bd
       0.049010336 -0.10764051 -0.012363681 -0.048268486
0001a0 68 0d 02 bd 59 84 98 bc ea 5c 45 3d 87 92 29 3d
       -0.031751066 -0.018617796 0.048184313 0.041399505
0001b0 f6 7f c9 bd 5e f8 0d bd e3 e0 8a bc 43 e1 01 bc
       -0.0983886 -0.03466069 -0.016952937 -0.007927242
0001c0 26 bf dd bd d7 70 8f 3c ac 63 64 3c 28 98 41 bd
       -0.10827474 0.01750986 0.013939779 -0.047264248
0001d0 95 b2 8c 3c 13 ae bc bd 98 d8 aa bd 42 57 77 bd
       0.017174998 -0.092128895 -0.08342093 -0.06038595
0001e0 36 d0 5d 3c 2c 1a 01 3d cf 14 fe 3c 40 f2 78 bc
       0.013538411 0.0315191 0.031015782 -0.015194476
0001f0 e6 4e af bb 05 c5 8f 3d 0d 64 7b bd de d1 7a 3d
       -0.0053499816 0.0702 -0.061374713 0.0612353
000200 4d 95 bf 3c 34 69 87 3d 0f f6 96 3d 26 41 38 3d
       0.023386622 0.06611863 0.07371151 0.044984005
000210 33 73 35 bb a5 23 70 bd b0 a1 ae 3d 39 93 76 3d
       -0.0027687072 -0.058627743 0.08526933 0.060198996
000220 aa 0e 75 bd f2 1b b7 3b 7e b0 00 bd f8 24 46 3d
       -0.059828438 0.005588048 -0.031418316 0.0483751
000230 c2 ba 85 3d d8 a7 4e bd d7 bd ce bc 40 0e e6 3c
       0.06529762 -0.050453037 -0.025237007 0.028082967
000240 ff 58 18 3c 74 04 e8 3d 68 fd 74 3d 90 bf 44 bd
       0.009298562 0.11328974 0.05981198 -0.04803425
000250 40 54 49 3d 2d b2 64 bd f8 c3 81 3d a2 4c b2 bb
       0.049152613 -0.055833984 0.06336206 -0.0054412642
000260 44 56 89 bc d5 d5 62 bd 1c 84 03 bb c1 41 23 3d
       -0.016764767 -0.055379707 -0.0020067757 0.03985763
000270 d3 87 33 bd ae 24 ed 3b a0 5f 0f 3d 20 2f 5a bd
       -0.043830704 0.0072370386 0.035003304 -0.0532676
000280 c9 1a 4e bd 19 a4 d5 bd 67 76 5a bd bd 1f 09 3d
       -0.050318513 -0.1043169 -0.053335574 0.033477534
000290 72 26 83 3c 15 26 8a 3c a8 01 a1 bd 17 3d 40 bd
       0.016009543 0.016863862 -0.07861644 -0.04693326
0002a0 31 91 d4 3c 39 bb 2e 3d a5 5a 6e 3d 0a 58 50 bb
       0.025948139 0.04265902 0.058191914 -0.0031790757
0002b0 be cf 1c 3c da eb 0c bd 21 d3 17 bd 0b 54 a5 bc
       0.009571014 -0.034404613 -0.037066583 -0.020181676
0002c0 1a a9 89 3c 20 95 14 3d 5f 00 ab 3c 2a 31 7e bd
       0.016804267 0.03627503 0.0208742 -0.062058605
0002d0 4a 8b 23 bd 02 ab 9d bd 2e 4d cd 3b e7 46 7f bd
       -0.03992776 -0.07698633 0.006265304 -0.062323477
0002e0 8b 9f 1b bd ea 0d 3f bc f0 3b bd 3d 66 4f 20 bd
       -0.03799395 -0.011661032 0.09239948 -0.03913822
0002f0 cc 14 f0 3b 74 41 a2 bc 32 e7 30 3d e2 7c 08 bc
       0.007326698 -0.019806601 0.043189235 -0.008330556
000300 8b 7f 86 3c 02 95 13 3e 38 d9 fb bd a7 0c 09 3e
       0.01641824 0.1441231 -0.122972906 0.13383733
000310 d1 e0 3e 3d eb a5 e5 3d 4d 8a 10 bb 2b 1a 0d 3d
       0.04660112 0.11213287 -0.002205509 0.034448784
000320 2a 47 73 3d 85 60 39 3d e7 62 26 be c0 f7 0c be
       0.05939404 0.045258064 -0.16248666 -0.13766384
000330 43 b4 d9 3c af f2 80 bc ba a8 0f bd 09 99 32 bd
       0.026575213 -0.01574072 -0.03507302 -0.043602977
000340 39 91 d8 3d 6a 83 41 3d 64 b2 59 bd 96 db 60 3d
       0.10574574 0.047244467 -0.053148642 0.054896913
000350 3d 91 c9 3d 06 ed 50 3e 2b fb 09 3d 0f ba e6 3c
       0.09842155 0.20402917 0.033686798 0.028164892
000360 8e 23 3e 3e a2 68 85 bd 08 98 6d bd a6 93 5e bd
       0.1856825 -0.06514098 -0.058006316 -0.054340027
000370 c6 bc b4 bc 10 4d d3 3b cf 0b b6 3d fa c9 96 3d
       -0.02206267 0.0064483956 0.08888971 0.07362743
000380 12 e2 0d 39 0f c3 5a bd 17 4c b5 3c 7d 0f 04 3d
       0.00013531026 -0.05340868 0.022131009 0.032241333
000390 b1 de 29 3d 05 5b 9e bd db ff 9b bc 18 ad 1b bd
       0.04147214 -0.07732204 -0.0190429 -0.038006872
0003a0 a8 2e bd 3d 42 8e 75 bb fb a4 b2 bb 45 7f 3a 3b
       0.092374146 -0.0037468825 -0.005451796 0.0028457206
0003b0 e6 e2 3c 3c 7e f3 4b 3c d8 3d c4 bc da 80 0f bd
       0.011528706 0.01244819 -0.02395527 -0.03503499
0003c0 ed 8a 1b bd 20 eb ba 3c 6b 8c 03 3d 83 9a 02 3d
       -0.037974287 0.022817194 0.032116335 0.031885635
0003d0 8c 76 f5 3a 99 18 be bd 67 58 2c bd 53 c3 18 3d
       0.0018727346 -0.092820354 -0.042076495 0.03729565
0003e0 74 a1 81 bd 71 5f 99 3c 9b bc 30 bc 43 43 35 bd
       -0.06329623 0.018722268 -0.010787155 -0.0442536
0003f0 31 d0 ef 3b 3e de b0 3a 36 a4 53 bc 6a d5 54 bb
       0.0073185195 0.0013493968 -0.012917569 -0.0032475838

convs.2.bias f4 [32]
000000 91 27 28 3c 0f 68 53 bd 61 0c 5d 3d 99 e9 c3 bd
       0.01026334 -0.05161291 0.053966884 -0.095660396
000010 45 aa 1a bd af 44 c8 bd a2 cb 10 3c f7 68 8f bd
       -0.037760038 -0.09778725 0.008837612 -0.07002442
000020 61 ce 8e bd 02 c5 06 bd ad b5 af 3d 9f 56 aa 3d
       -0.069729574 -0.032902725 0.08579574 0.08317303
000030 c2 70 60 bd 26 d9 e1 3c 03 88 c6 3c 57 5e 73 3d
       -0.054795034 0.027569365 0.024234777 0.05941614
000040 4b 60 91 bd 76 0f 6a bd 35 83 39 3d 51 9b a4 bd
       -0.070984446 -0.05714365 0.045291144 -0.08037437
000050 f2 b7 9d bd f1 09 d5 bd 87 53 40 bd 09 f5 07 bd
       -0.077011004 -0.10402287 -0.046954658 -0.033192668
000060 01 48 7b bd 94 04 6e 3d cc 79 eb 3c bf 20 3e 3d
       -0.061347965 0.058109835 0.0287446 0.046417948
000070 c4 6a b3 3c 21 4d 03 3d 4a b9 67 bd ea cf a1 3b
       0.021901496 0.032055978 -0.05657319 0.0049381154
