results/flixster_testmode/model_checkpoint28.pth (torch_old, 199981 bytes, 19 tensors)

convs.0.basis f4 [4, 4, 32]
0.03653965 0.0057010325 0.0410609 0.048141252 -0.090611786 0.20728941 -0.13418938 -0.11291209
0.10326771 -0.21057285 0.10936847 -0.122278444 -0.21571346 0.09679291 0.15258081 -0.0951193
-0.062057298 -0.07439474 -0.21512823 -0.0152047025 0.05323149 0.19281185 0.063492395 -0.07575342
0.0786249 -0.12859628 0.12828954 0.026579058 0.1553016 0.27736837 -0.1987809 0.042621136
-0.18758878 -0.13970265 -0.12713999 0.030999219 -0.0031160538 0.26240063 -0.013480436 -0.07629987
-0.24161935 -0.09287256 0.13021001 -0.2055319 0.00068187877 -0.0011002603 0.032387417 -0.11687023
-0.060013708 -0.21532491 0.070851155 -0.13122922 -0.10252855 0.14286198 -0.11283453 -0.090615846
0.0038449569 -0.052423507 0.010690733 0.021832002 0.11218669 0.15071529 -0.24708852 0.018057909
-0.07641007 -0.08758334 0.013512714 0.021226099 -0.026727168 -0.06987024 0.013338025 -0.27689925
-0.37083197 -0.009840936 0.01776561 0.06848139 0.23488778 0.061689124 0.04449215 -0.159389
0.020564388 -0.06913864 0.06995602 0.0743943 0.03870744 0.09636933 -0.6995041 -0.45324913
-0.35776925 0.042919654 -0.07945492 0.050668634 -0.07149073 0.041794036 0.004725025 0.101688825
0.12649785 -0.06637068 -0.006385042 -0.012922515 -0.1479816 -0.31172156 -0.043138634 0.08060639
0.37858322 0.5656527 0.56479156 0.16085805 0.096016064 0.032235306 -0.0674135 -0.044152673
-0.4328008 -0.06433776 -0.13990065 -0.020349098 -0.06949549 -0.5251712 -0.1423545 0.08742538
-0.059473153 0.2464451 -0.17128737 -0.20711441 -0.028972913 0.09650449 0.15785903 0.070421435
0.0104334 0.025611993 0.031095581 0.041404236 -0.091678314 0.12714916 -0.054730307 -0.07758187
-0.022510257 -0.15289538 0.060767215 -0.016691808 -0.1527551 0.05930959 0.14388038 -0.17782062
-0.06929742 -0.04523486 -0.10751785 -0.053891283 0.03646815 0.16131793 0.10836607 -0.1025439
0.061858144 -0.084221266 0.11957283 0.016870985 0.07921221 0.20602407 -0.127164 0.030448161
-0.14116366 -0.10735968 -0.1325599 0.11678965 -0.016161248 0.21857725 -0.047771834 -0.031759925
-0.13842894 -0.104311205 0.122577704 -0.20752726 -0.019826788 -0.004991193 0.10907802 -0.086083405
-0.06577011 -0.14843403 -0.0008568332 -0.09307265 -0.10369252 0.1321524 -0.024900516 -0.050702814
0.0378617 -0.039377593 0.019060718 -0.0016060564 0.13152301 0.22505276 -0.20120664 0.026270531
-0.031575777 -0.010329314 -0.11461854 0.01942902 0.05997275 0.12962018 0.011187544 -0.199021
-0.5723222 0.074716516 -0.13482684 -0.10117977 0.26448643 0.0070505408 -0.17509267 -0.23267394
0.15337494 -0.060970433 0.1207981 0.15206274 -0.11207657 -0.052622832 -0.6280623 -0.4151004
-0.3194514 0.037470747 0.04603802 -0.060048975 -0.014173224 -0.05326099 -0.05011611 0.00640764
-0.0047581405 0.1567806 0.01172804 0.02144284 0.14300962 -0.12259803 0.029165512 -0.08857335
0.24711563 0.41775107 0.38466123 -0.54048496 -0.09568944 -0.034780383 -0.06101703 0.034411673
-0.21137731 -0.13538563 -0.1934623 -0.03163296 0.0057745697 -0.37893915 0.19382352 0.028236473
0.07880923 0.14599368 0.09963312 -0.023943275 0.0079855295 0.06091413 -0.123628095 -0.15181135
00000000: 9aaa 153d bacf ba3b 792f 283d c32f 453d
00000010: ac92 b9bd ad43 543e f168 09be 743e e7bd
00000020: 057e d33d 69a0 57be 94fc df3d 1f6d fabd
00000030: fde3 5cbe 5c3b c63d 253e 1c3e e8cd c2bd
00000040: cb2f 7ebd 455c 98bd 934a 5cbe 251d 79bc
00000050: 4309 5a3d 7870 453e 4d08 823d 9c24 9bbd
00000060: 1706 a13d beae 03be 555e 033e 53bc d93c
00000070: 6207 1f3e 3a03 8e3e 388d 4bbe 8093 2e3d
00000080: 4617 40be 360e 0fbe fc30 02be 13f2 fd3c
00000090: b536 4cbb 6059 863e 0cdd 5cbc 1b43 9cbd
000000a0: 106b 77be f833 bebd c655 053e f476 52be
000000b0: 1cc0 323a 9c36 90ba aba8 043d a959 efbd
000000c0: efd0 75bd 227e 5cbe 691a 913d f460 06be
000000d0: 7dfa d1bd 694a 123e ca15 e7bd cd94 b9bd
000000e0: acfb 7b3b 08ba 56bd 2f28 2f3c 07d9 b23c
000000f0: 23c2 e53d 1c55 1a3e c604 7dbe 2eee 933c
00000100: e27c 9cbd e55e b3bd 6e64 5d3c 5be2 ad3c
00000110: eff2 dabc 2118 8fbd bb87 5a3c bdc5 8dbe
00000120: b0dd bdbe e13b 21bc 2f89 913c f93f 8c3d
00000130: 6c86 703e bcad 7c3d 673d 363d df36 23be
00000140: a676 a83c 8f98 8dbd 1a45 8f3d 0a5c 983d
00000150: b18b 1e3d 495d c53d b312 33bf 4510 e8be
00000160: 882d b7be 85cc 2f3d 43b9 a2bd ea89 4f3d
00000170: bb69 92bd 3930 2b3d 62d4 9a3b 3b42 d03d
00000180: a788 013e 5aed 87bd 9d39 d1bb f5b8 53bc
00000190: 7d88 17be f899 9fbe 23b2 30bd f714 a53d
000001a0: a9d5 c13e 9ece 103f 2e96 103f f9b7 243e
000001b0: 12a4 c43d 2b09 043d 1710 8abd 6fd9 34bd
000001c0: 1198 ddbe 84c3 83bd 1e42 0fbe 27b3 a6bc
000001d0: a753 8ebd 9f71 06bf 61c5 11be 140c b33d
000001e0: 1f9a 73bd 1b5c 7c3e f565 2fbe cd15 54be
000001f0: 9a58 edbc 25a4 c53d cca5 213e 1d39 903d
00000200: daf0 2a3c 3ed0 d13c 29bc fe3c 7d97 293d
00000210: d7c1 bbbd 6433 023e e32c 60bd 3ee3 9ebd
00000220: 6e67 b8bc 9b90 1cbe 0be7 783d 42bd 88bc
00000230: d56b 1cbe 9dee 723d 6155 133e 9c16 36be
00000240: ceeb 8dbd 3048 39bd 5232 dcbd 1bbd 5cbd
00000250: a05f 153d 8730 253e 08ef dd3d 8902 d2bd
00000260: f75e 7d3d 337c acbd 9ae2 f43d 0535 8a3c
00000270: 033a a23d f9f7 523e 4837 02be 6c6e f93c
00000280: 358d 10be 64df dbbd c8bd 07be 692f ef3d
00000290: 9864 84bc b7d2 5f3e 66ac 43bd b216 02bd
000002a0: 51c0 0dbe 1da1 d5bd 050a fb3d 0782 54be
000002b0: ca6b a2bc 298d a3bb 4c64 df3d 7f4c b0bd
000002c0: 7bb2 86bd 17ff 17be 1a9d 60ba e09c bebd
000002d0: be5c d4bd f552 073e 2bfc cbbc c1ad 4fbd
000002e0: df14 1b3d 664a 21bd 3925 9c3c 4f82 d2ba
000002f0: f8ad 063e 3b74 663e 1d09 4ebe 4c35 d73c
00000300: 9a55 01bd 483c 29bc 20bd eabd 9c29 9f3c
00000310: fca5 753d 27bb 043e f64b 373c 29cc 4bbe
00000320: b583 12bf f904 993d 0c10 0abe 5737 cfbd
00000330: c46a 873e 3908 e73b 7e4b 33be 1442 6ebe
00000340: 520e 1d3e 22bc 79bd ff64 f73d 56b6 1b3e
00000350: 6788 e5bd 0a8b 57bd b1c8 20bf 0a88 d4be
00000360: 228f a3be ed7a 193d 5d92 3c3d eaf5 75bd
00000370: cf36 68bc 3228 5abd 8d46 4dbd 2ef7 d13b
00000380: 2dea 9bbb 188b 203e f726 403c e5a8 af3c
00000390: 1d71 123e ad14 fbbd 83ec ee3c f265 b5bd
000003a0: e10b 7d3e 78e3 d53e 51f2 c43e 395d 0abf
000003b0: d3f8 c3bd e075 0ebd feec 79bd 41f3 0c3d
000003c0: 4b73 58be 88a2 0abe fb1a 46be 9091 01bd
000003d0: 9a38 bd3b 5004 c2be ac79 463e 2d50 e73c
000003e0: bc66 a13d 5e7f 153e 730c cc3d b024 c4bc
000003f0: bdd5 023c 1881 793d ba30 fdbd 6f74 1bbe

convs.0.att f4 [10, 4]
-0.09509713 -0.17661715 0.29467022 0.13719805 -0.17076282 -0.042819418 0.34498283 0.124530524
-0.22646153 0.12771691 0.3569732 0.13430558 -0.19527704 0.1836496 0.33817485 0.12222407
-0.06102624 0.06830565 0.31452093 0.17668577 -0.038339555 0.19866991 0.26275897 0.1441755
4.2846605e-05 0.22831522 0.2102272 0.093651935 0.112139024 0.22039321 0.1631911 0.048136357
0.17570002 0.1687377 0.06925624 -0.029738093 0.33296484 0.15348335 0.028982636 -0.11346239
00000000: 49c2 c2bd 20db 34be 04df 963e a57d 0c3e
00000010: 73dc 2ebe 6a63 2fbd 97a1 b03e dc09 ff3d
00000020: 88e5 67be 39c8 023e 31c5 b63e 6787 093e
00000030: b4f6 47be a40e 3c3e 4125 ad3e 9d50 fa3d
00000040: a7f6 79bd d5e3 8b3d e308 a13e 1ded 343e
00000050: f009 1dbd 2070 4b3e 5888 863e bea2 133e
00000060: 31b6 3338 77cb 693e cd45 573e 96cc bf3d
00000070: 25a9 e53d c2ae 613e 911b 273e a12a 453d
00000080: b5ea 333e 93c9 2c3e 37d6 8d3d 4d9d f3bc
00000090: 5e7a aa3e bd2a 1d3e fe6c ed3c f85e e8bd

convs.0.root f4 [4, 32]
-0.0939494 0.009658009 -0.058240302 0.19667642 0.079249896 -0.0032783626 -0.101843834 -0.20540391
0.22256956 0.40404606 0.3544968 -0.0823027 0.06529341 0.17590232 -0.078887135 -0.058133617
-0.22173415 0.19937359 0.018552823 -0.2408079 -0.0021426843 -0.1228906 0.01880818 0.1944416
-0.0010760338 0.2155142 -0.02600927 -0.24487634 0.061817665 -0.2340224 0.07520946 -0.16142407
0.15952542 0.12337096 -0.19360666 0.1755917 -0.09329071 -0.13029708 -0.095729955 -0.17966741
0.06564082 -0.18518716 0.034055848 0.15923801 0.2887887 0.16547032 -0.11336267 0.32758588
-0.03383781 0.08754293 0.048989784 -0.016629493 -0.07158929 -0.20644556 -0.23468053 -0.37022027
-0.23017196 0.015898658 0.16163616 0.021158688 0.053327005 -0.055481438 0.23261836 0.26805577
-0.05233821 0.1238732 0.0035625924 -0.016175091 -0.10353358 -0.16308437 -0.08757085 -0.13428289
-0.09869716 0.031954642 -0.13874112 -0.025196696 0.045267403 0.16850376 0.006120394 -0.043970484
-0.11906586 -0.118755616 -0.16860461 0.17952242 -0.002890934 0.12180261 -0.1487393 0.039247707
0.036878217 0.08080934 0.10100549 -0.051464155 -0.15403467 -0.10332628 -0.00678533 -0.024528876
-0.117967285 -0.01784153 -0.07025109 0.20999381 -0.03101018 -0.051038835 -0.06289032 -0.15092453
-0.15673074 0.07378663 -0.06324995 -0.14949916 0.13477789 0.14473827 0.07424088 0.011739444
0.016587066 -0.1573822 -0.06820707 0.123719536 -0.063695796 0.13590893 -0.17582121 -0.11099067
-0.032977585 0.104360275 0.013232912 -0.029824587 -0.16735622 -0.04221976 -0.12334732 -0.06731818
00000000: 8b68 c0bd a03c 1e3c 628d 6ebd 8b65 493e
00000010: c54d a23d ccd9 56bb 8093 d0bd 6755 52be
00000020: 46e9 633e 20df ce3e 9b80 b53e 518e a8bd
00000030: 8db8 853d bd1f 343e 948f a1bd 841d 6ebd
00000040: 470e 63be 9728 4c3e 17fc 973c 5996 76be
00000050: 476c 0cbb 11ae fbbd 9d13 9a3c b31b 473e
00000060: b409 8dba c1af 5c3e 6511 d5bc ddc0 7abe
00000070: 8534 7d3d 91a3 6fbe 6b07 9a3d 5a4c 25be
00000080: a25a 233e eaa9 fc3d d340 46be 50ce 333e
00000090: 330f bfbd 996c 05be 110e c4bd bcfa 37be
000000a0: b26e 863d b4a1 3dbe 257e 0b3d 4a0f 233e
000000b0: 1ddc 933e 0d71 293e b02a e8bd 56b9 a73e
000000c0: 8499 0abd b549 b33d 83a9 483d 933a 88bc
000000d0: 689d 92bd 7766 53be 1850 70be 838d bdbe
000000e0: 33b2 6bbe e73d 823c f383 253e fc54 ad3c
000000f0: 6b6d 5a3d 8140 63bd 8233 6e3e 9b3e 893e
00000100: 9760 56bd 3bb1 fd3d 627a 693b a081 84bc
00000110: 6a09 d4bd 97ff 26be 5958 b3bd 7481 09be
00000120: bd21 cabd dfe2 023d 2712 0ebe 4d69 cebc
00000130: 506a 393d 408c 2c3e 968d c83b 651a 34bd
00000140: cdd8 f3bd 2536 f3bd b0a6 2cbe bad4 373e
00000150: d375 3dbb a673 f93d 1d4f 18be 34c2 203d
00000160: 9d0d 173d 5e7f a53d f7db ce3d 14cc 52bd
00000170: 44bb 1dbe bb9c d3bd 7957 debb c8f0 c8bc
00000180: d598 f1bd 6628 92bc cedf 8fbd 9e08 573e
00000190: 1009 febc 190e 51bd a4cc 80bd f68b 1abe
000001a0: 067e 20be 721d 973d 3189 81bd 4f16 19be
000001b0: 3703 0a3e 4536 143e 9a0b 983d cc56 403c
000001c0: 99e1 873c cd28 21be 26b0 8bbd ab60 fd3d
000001d0: f172 82bd b62b 0b3e 7a0a 34be 144f e3bd
000001e0: 8113 07bd d7ba d53d dbce 583c b152 f4bc
000001f0: 6e5f 2bbe a1ee 2cbd 859d fcbd 1dde 89bd

convs.0.bias f4 [32]
0.1296529 -0.008770654 0.07983122 -0.20521279 0.088050805 0.012946774 0.09531369 0.14485921
0.18498544 -0.010831059 0.04244755 0.18377355 -0.08080788 -0.17543964 -0.17317513 0.056534346
0.063286096 0.21341112 0.14810528 -0.11887917 0.041135937 -0.2498763 0.16005383 0.024660096
0.014137433 -0.06432743 -0.081090905 0.03434536 0.10099375 -0.11740552 0.17637235 0.01453926
00000000: bbc3 043e cab2 0fbc 8d7e a33d 4d23 52be
00000010: fb53 b43d b51e 543c d333 c33d f955 143e
00000020: d36c 3d3e c174 31bc 7bdd 2d3d 222f 3c3e
00000030: 9a7e a5bd 73a6 33be d254 31be 8f90 673d
00000040: 249c 813d 7288 5a3e e9a8 173e ec76 f3bd
00000050: 287e 283d 93df 7fbe 27e5 233e f803 ca3c
00000060: b1a0 673c 1abe 83bd fd12 a6bd b8ad 0c3d
00000070: d0d5 ce3d 4e72 f0bd f49a 343e 1436 6e3c

convs.1.basis f4 [4, 32, 32]
-0.12023404 -0.06637619 -0.06193562 -0.03364012 -0.053349473 -0.052642245 -0.115090646 0.10405495
0.062859744 -0.014005138 -0.019344192 0.08039252 -0.042451262 -0.06683545 0.047936667 0.006979299
0.042965565 -0.0029253257 0.062181894 -0.038316216 0.048459947 -0.13192503 0.010422489 -0.008695736
-0.011115208 0.062633194 -0.034062393 0.048338007 0.070851855 -0.011906632 0.011286996 -0.07883063
-0.0041684504 -0.012553128 -0.047573593 0.021867251 -0.031844098 -0.004846133 -0.09337967 -0.004978236
0.008336498 -0.006681847 0.027594278 0.038029447 -0.026252104 -0.03083231 -0.035173852 0.06232237
0.04942152 0.0055168355 9.523793e-05 -0.0006869177 0.03182931 -0.095663734 -0.028540123 -0.038487934
-0.023983711 0.023476958 0.0021053255 -0.061439034 0.057324212 -0.018095108 0.022534294 -0.0025806047
0.021322794 0.016463093 0.032994337 -0.03621863 -0.006285984 -0.004368519 0.1034161 -0.0933421
-0.014512829 -0.014459295 0.03054835 -0.014619826 0.0055991034 0.0074628443 0.051102318 -0.09604404
-0.027472647 -0.0025375015 -0.031142706 0.019680398 -0.005525387 0.046694722 0.020418061 0.018101268
-0.055195753 -0.014130971 0.016589137 0.06377324 -0.013762136 0.034198944 0.018301737 -0.014012667
-0.025980722 0.007486987 0.019807879 0.03626854 0.039543934 0.005313712 0.04580426 0.031435896
0.0016442492 0.039194807 -0.021080442 -0.026469253 0.041817613 -0.032296337 -0.03494512 0.027804162
-0.015288862 -0.03084839 0.060856782 -0.008826975 -0.008039788 0.043751586 -0.04449252 0.031827983
0.05591244 -0.001679793 -0.03238744 0.043394774 -0.032178003 0.022212245 -0.03663941 0.013025121
0.038935926 0.0072422903 0.037642203 -0.03132879 0.0028527349 -0.010298223 0.07759011 0.039887846
0.007585886 0.013595861 0.0133416485 -0.023652518 0.079156555 0.0043753567 0.06995557 -0.063569665
-0.033199087 -0.011576838 -0.035277203 0.016431347 0.035219505 -0.04170412 0.09986067 0.016593134
0.012895824 0.00840949 -0.017650476 0.11932951 -0.07444216 0.085908994 -0.029329283 0.0056606457
-0.008527013 0.0018246203 -0.013206251 -0.057565406 0.012848898 0.008316801 0.2140301 0.0059343334
-0.0029048428 0.008393366 -0.033707812 -0.022892836 0.069546536 -0.014461847 -0.09753993 0.10431354
-0.0031882254 -0.046416245 0.025978073 -0.032238968 0.0051364563 0.04363427 -0.087791875 0.030020354
0.09843065 0.022564346 -0.0031383852 0.05513633 0.005577844 0.022631096 -0.017992223 0.058708765
-0.05132423 -0.0035160526 -0.0118599925 -0.015806513 -0.00701655 0.021481551 -0.016229784 0.023070576
0.01638585 0.013312704 -0.012158779 -0.011055433 -0.012033893 -3.548576e-05 0.025185857 -0.06641985
-0.02059584 0.015757658 0.015006866 0.040339574 0.0072204475 0.0116119785 0.039752692 0.027895141
-0.0007684703 0.004353972 -0.017398886 0.07067376 -0.025464505 -0.008818986 -0.013416419 -0.0022755896
-0.20374545 -0.045002714 -0.08316473 -0.028654175 -0.076022536 -0.115722656 -0.16068429 0.16440576
0.060497854 -0.016599294 -0.02141991 0.05957879 -0.070480265 -0.10884354 0.046941176 0.1715965
0.070110545 -0.035023272 0.071720794 -0.032603607 0.028182685 -0.28249472 0.018605763 -0.035388865
-0.029590948 0.041648146 -0.024507992 -0.09148309 0.07111382 -0.018105894 -0.01535113 -0.061710253
00000000: 443d f6bd 3df0 87bd 34b0 7dbd 39ca 09bd
00000010: fa84 5abd 659f 57bd a5b4 ebbd c31a d53d
00000020: 9cbc 803d ce75 65bc b677 9ebc d5a4 a43d
00000030: 60e1 2dbd 06e1 88bd 3d59 443d 9ab2 e43b
00000040: a9fc 2f3d d2b6 3fbb 71b2 7e3d 77f1 1cbd
00000050: f07d 463d 5b17 07be 16c3 2a3c 8f78 0ebc
00000060: 901c 36bc d545 803d 0285 0bbd 13fe 453d
00000070: c71a 913d 0914 43bc 18ed 383c f471 a1bd
00000080: 7f97 88bb a3ab 4dbc 87dc 42bd f322 b33c
00000090: f56e 02bd 4fcc 9ebb d73d bfbd 7820 a3bb
000000a0: cf95 083c 65f3 dabb 650d e23c c4c4 1b3d
000000b0: a70e d7bc 0a94 fcbc 7512 10bd be45 7f3d
000000c0: 386e 4a3d 92c6 b43b 79ba c738 4412 34ba
000000d0: 735f 023d 59eb c3bd facc e9bc 86a5 1dbd
000000e0: 7d79 c4bc c052 c03c 80f9 093b 7fa7 7bbd
000000f0: cbcc 6a3d 313c 94bc d799 b83c 5d1f 29bb
00000100: 24ad ae3c 9cdd 863c 1225 073d fc59 14bd
00000110: a8fa cdbb cb25 8fbb d2cb d33d 252a bfbd
00000120: 37c7 6dbc aee6 6cbc 8940 fa3c ff87 6fbc
00000130: af78 b73b e08a f43b aa50 513d bdb2 c4bd
00000140: 510e e1bc 364c 26bb fd1e ffbc c938 a13c
00000150: 4e0e b5bb f742 3f3d c743 a73c 1c49 943c
00000160: f114 62bd 9785 67bc f1e5 873c 8b9b 823d
00000170: 957a 61bc 3114 0c3d 86ed 953c 6395 65bc
00000180: 86d5 d4bc 6655 f53b 2244 a23c 528e 143d
00000190: d2f8 213d a61e ae3b 3f9d 3b3d edc2 003d
000001a0: d983 d73a bc8a 203d e4b0 acbc 0cd6 d8bc
000001b0: f248 2b3d 2a49 04bd 9d22 0fbd 8ec5 e33c
000001c0: 237e 7abc c3b5 fcbc f644 793d 049f 10bc
000001d0: 51b9 03bc dd34 333d ca3d 36bd 0f5e 023d
000001e0: 7104 653d 802c dcba b1a8 04bd b8be 313d
000001f0: 15cd 03bd 74f6 b53c 3513 16bd 5167 553c
00000200: 477b 1f3d bc50 ed3b b62e 1a3d 9e52 00bd
00000210: f3f4 3a3b e1b9 28bc 90e7 9e3d 7061 233d
00000220: 0693 f83b 2dc1 5e3c ee96 5a3c edc2 c1bc
00000230: d51c a23d 275f 8f3b de44 8f3d d030 82bd
00000240: c4fb 07bd c7ac 3dbc d47e 10bd 089b 863c
00000250: 5442 103d f0d1 2abd c083 cc3d 53ee 873c
00000260: 0249 533c f5c7 093c bb97 90bc 0863 f43d
00000270: 2275 98bd 0ef1 af3d f743 f0bc f07c b93b
00000280: e2b4 0bbc 1928 ef3a 085f 58bc b4c9 6bbd
00000290: 2f84 523c 3143 083c b52a 5b3e cc74 c23b
000002a0: 2d5f 3ebb 5484 093c 3411 0abd c289 bbbc
000002b0: 6a6e 8e3d 62f1 6cbc 04c3 c7bd 56a2 d53d
000002c0: 8cf1 50bb f61e 3ebd f8cf d43c 020d 04bd
000002d0: b84f a83b d9b9 323d 3acc b3bd 3fed f53c
000002e0: 0296 c93d ddd8 b83c 5ead 4dbb a2d6 613d
000002f0: 59c6 b63b d964 b93c 6d64 93bc 9a78 703d
00000300: 5b39 52bd 936d 66bb 6a50 42bc a97c 81bc
00000310: 16eb e5bb 14fa af3c 53f4 84bc 81fe bc3c
00000320: 9e3b 863c 871d 5a3c 9e35 47bc d921 35bc
00000330: ce29 45bc 8bd6 14b8 9252 ce3c 2107 88bd
00000340: 9bb8 a8bc 3416 813c 5cdf 753c 1c3b 253d
00000350: 8199 ec3b 2b40 3e3c b8d3 223d 5a84 e43c
00000360: 2b73 49ba c4ab 8e3b 1c88 8ebc 67bd 903d
00000370: f09a d0bc 827d 10bc 8ad0 5bbc 0f22 15bb
00000380: a6a2 50be c454 38bd 4552 aabd 29bc eabc
00000390: b4b1 9bbd 0000 edbd 6c8a 24be fc59 283e
000003a0: 99cc 773d 3efb 87bc cf78 afbc e408 743d
000003b0: f557 90bd 5de9 debd 6445 403d feb6 2f3e
000003c0: 1e96 8f3d 9074 0fbd 5ae2 923d 5c8b 05bd
000003d0: 60df e63c 26a3 90be 1d6b 983c eaf3 10bd
000003e0: b768 f2bc 3f97 2a3d fcc4 c8bc 7c5b bbbd
000003f0: 1fa4 913d d052 94bc 4e83 7bbc e4c3 7cbd

convs.1.att f4 [10, 4]
-0.07486009 0.17695755 -0.28970397 0.018465325 0.043846894 0.1408353 -0.2507505 -0.006981342
0.11185948 0.08937012 -0.23417914 -0.041042265 0.114079565 0.015050299 -0.19565229 -0.07916925
0.119500265 -0.060432192 -0.14416029 -0.095306374 0.049954787 -0.10722797 -0.11912465 -0.08366122
0.05069377 -0.13793838 -0.077575594 0.027909756 0.033165634 -0.17225419 0.0047750208 0.094086595
-0.033830844 -0.1755282 0.025353992 0.090634994 -0.17234369 -0.18569495 0.07722356 0.0432402
00000000: 3f50 99bd 5c34 353e 1454 94be 9844 973c
00000010: cd98 333d 2137 103e 5f62 80be bec3 e4bb
00000020: 9516 e53d ae07 b73d a8cc 6fbe ef1b 28bd
00000030: 8ca2 e93d 8895 763c 1359 48be 7d23 a2bd
00000040: 8ebc f43d bf87 77bd c19e 13be fd2f c3bd
00000050: 649d 4c3d 579a dbbd a0f7 f3bd 9356 abbd
00000060: 45a4 4f3d b83f 0dbe f4df 9ebd 00a3 e43c
00000070: b0d8 073d 6763 30be c777 9c3b 79b0 c03d
00000080: 3692 0abd aabd 33be 2db3 cf3c d79e b93d
00000090: dd7a 30be d126 3ebe 6327 9e3d a31c 313d

convs.1.root f4 [32, 32]
-0.037583575 0.07860633 0.042986747 0.014237827 0.036913678 -0.047155906 -0.18634143 0.08984644
8.4709616e-05 -0.019472478 8.666166e-05 -0.024141973 -0.076924905 -0.02839317 -0.013523188 0.043878216
-0.003981041 -0.046130627 -0.04842636 -0.01145318 -0.009581588 0.05288248 0.00059781026 0.05166107
-0.015422816 -0.0446913 -0.059268963 0.10054875 -0.03304582 -0.119693264 -0.052081276 0.039867923
-0.002063626 -0.021412319 0.09016721 0.01687567 0.0062220255 -0.03414404 0.10901746 0.058508202
0.054367065 -0.06831399 0.01596756 0.0641099 -0.025130607 -0.0843518 0.004202059 -0.05241943
-0.027881134 -0.053658355 0.1130416 0.027327206 0.02700255 0.10285656 -0.02070503 -0.057028804
0.052388072 0.034167897 -0.023221474 -0.08317845 0.014217303 -0.08109657 -0.014478137 -0.045193102
0.003327405 0.019479075 -0.00011299029 0.05520011 0.044499885 -0.060404807 0.105724156 0.06776682
0.024880163 -0.027786681 0.0034374357 0.017641488 0.022877611 -0.007015169 -0.06167029 -0.007898363
0.012646679 -0.0641498 -0.042061944 0.0087860245 -0.04135384 -0.013799853 -0.013528928 0.011766475
0.021562014 0.002419327 0.05668488 0.0037277748 0.05476113 -0.10162226 -0.014523287 0.006870541
0.02276852 0.08664906 -0.00848464 -0.11827583 -0.076298416 0.0037972727 -0.041421086 -0.01739603
-0.029405529 0.053466544 0.06406226 0.033432964 0.024276292 -0.021531044 0.02479982 0.07029108
-0.011394873 -0.027588757 0.10200944 0.08408644 -0.02463494 -0.0035661976 0.1266193 0.016461382
-0.029041959 0.030278733 0.069898725 0.1055565 0.018758912 0.010009277 -0.018222913 0.07173634
0.045484547 0.06962308 0.04964357 -0.008313114 0.058312073 0.028492961 0.07352551 -0.067851916
-0.004283999 -0.06269984 -0.113255456 0.046325516 0.060250465 -0.023951374 -0.1199055 0.045189653
0.015911853 -0.094568215 -0.035003632 0.0020167783 0.118232444 0.15141043 -0.03463108 -0.0064862217
-0.037839964 0.05626001 -0.0029039104 -0.0424035 0.028888991 -0.035746478 0.07834243 -0.08185885
0.07491118 0.013264954 0.00074782775 0.06928956 0.040058102 0.03780411 -0.033313226 0.081891514
0.06649581 0.012426535 0.1219514 -0.10798063 -0.08368603 -0.06841074 0.027006729 -0.035384167
-0.07642827 0.060506377 -0.07609037 0.05437236 -0.03807969 0.030049011 0.06758935 -0.04151155
-0.13629021 -0.048037935 0.018428084 0.14889066 -0.089330405 -0.035510678 -0.0014891734 -0.026768558
-0.038318895 -0.06961908 0.09062181 -0.048509676 -0.07440237 -0.023549741 -0.049427778 -0.04357728
-0.0094745755 0.055307966 -0.04920695 0.04764974 -0.062184356 0.04511632 -0.065616034 -0.02135514
-0.010614982 -0.044189505 -0.11983431 -0.0035645799 0.0007654263 0.029764893 0.09330054 -0.010493945
0.03862804 0.028491784 0.017753491 -0.018802965 -0.10428903 0.028934438 0.032594226 0.08706708
-0.004412041 0.051910356 -0.058611255 -0.052797057 -0.037187185 -0.04658053 -0.1833933 -0.0413936
0.0016940819 0.05105151 0.03838488 -0.054917872 -0.03883666 0.08578746 -0.05130611 -0.068750955
-0.0023304974 0.0318101 0.051209684 0.083151124 0.0459441 -0.03633668 0.00049945316 -0.017759716
-0.074046254 -0.011436143 0.019589892 0.052165568 -0.007178976 0.06697415 -0.032439757 -0.026638644
00000000: 3cf1 19bd 5bfc a03d df12 303d c645 693c
00000010: cc32 173d 8d26 41bd 4ad0 3ebe 6901 b83d
00000020: 21a6 b138 bf84 9fbc 20be b538 63c5 c5bc
00000030: ce8a 9dbd cb98 e8bc 5d90 5dbc a5b9 333d
00000040: 6473 82bb 78f3 3cbd b85a 46bd 1ea6 3bbc
00000050: 18fc 1cbc 4d9b 583d 5eb6 1c3a 8f9a 533d
00000060: fbaf 7cbc 390e 37bd 03c4 72bd 81ec cd3d
00000070: 0e5b 07bd be21 f5bd 2d53 55bd 8c4c 233d
00000080: e63d 07bb e368 afbc 96a9 b83d d83e 8a3c
00000090: 22e2 cb3b 9fda 0bbd 8c44 df3d 4ca6 6f3d
000000a0: 00b0 5e3d 35e8 8bbd 66ce 823c 0d4c 833d
000000b0: b4de cdbc a3c0 acbd 6db1 893b c2b5 56bd
000000c0: fa66 e4bc ddc8 5bbd 5b82 e73d 4edd df3c
000000d0: 7434 dd3c 76a6 d23d 989d a9bc 0997 69bd
000000e0: e094 563d a3f3 0b3d f63a bebc 7759 aabd
000000f0: b1ef 683c f515 a6bd b535 6dbc 671c 39bd
00000100: 9810 5a3b 9592 9f3c 33f5 ecb8 8319 623d
00000110: 8345 363d 086b 77bd e885 d83d 55c9 8a3d
00000120: 7cd1 cb3c e5a0 e3bc 9a46 613b e284 903c
00000130: d469 bb3c 81df e5bb fc99 7cbd 2368 01bc
00000140: 0434 4f3c f860 83bd 2549 2cbd 42f3 0f3c
00000150: a562 29bd c718 62bc 70a8 5dbc 2cc8 403c
00000160: d2a2 b03c 928d 1e3b 682e 683d af4d 743b
00000170: 354d 603d 551f d0bd 15f3 6dbc 4622 e13b
00000180: 0c85 ba3c 1075 b13d 2903 0bbc 993a f2bd
00000190: 5842 9cbd aadb 783b 28a9 29bd 1e82 8ebc
000001a0: dde3 f0bc bcff 5a3d 1333 833d 01f1 083d
000001b0: 13df c63c df61 b0bc fe28 cb3c c5f4 8f3d
000001c0: 90b1 3abc d101 e2bc 53ea d03d 8335 ac3d
000001d0: 37cf c9bc deb6 69bb 7da8 013e 05da 863c
000001e0: 67e9 edbc 1b0b f83c 1027 8f3d 022e d83d
000001f0: 4aac 993c f3fd 233c 3848 95bc 81ea 923d
00000200: 014e 3a3d 8c96 8e3d 0e57 4b3d ba33 08bc
00000210: a4d8 6e3d 126a e93c 8b94 963d f2f5 8abd
00000220: ca60 8cbb c668 80bd 7af2 e7bd d3bf 3d3d
00000230: 31c9 763d ac35 c4bc 0491 f5bd c918 393d
00000240: 9359 823c fbac c1bd f85f 0fbd ed2b 043b
00000250: da23 f23d 560b 1b3e 52d9 0dbd 5f8a d4bb
00000260: 14fe 1abd e570 663d 884f 3ebb 4baf 2dbd
00000270: 9ba8 ec3c e66a 12bd ff71 a03d 9da5 a7bd
00000280: 086b 993d 4055 593c df09 443a afe7 8d3d
00000290: f713 243d 7cd8 1a3d 7373 08bd bdb6 a73d
000002a0: f52e 883d aa98 4b3c a8c1 f93d f324 ddbd
000002b0: 9563 abbd ee1a 8cbd 373d dd3c fdee 10bd
000002c0: 6d86 9cbd 89d5 773d 45d5 9bbd 8db5 5e3d
000002d0: 73f9 1bbd 5829 f63c 496c 8a3d 0408 2abd
000002e0: a98f 0bbe 6dc3 44bd 7ef6 963c cb76 183e
000002f0: dcf2 b6bd a573 11bd 5e30 c3ba bc49 dbbc
00000300: 46f4 1cbd 7394 8ebd ed97 b93d 15b2 46bd
00000310: 4560 98bd 63eb c0bc c874 4abd 177e 32bd
00000320: 403b 1bbc 9b8a 623d 3a8d 49bd 602c 433d
00000330: 06b5 7ebd e4cb 383d b361 86bd f9f0 aebc
00000340: 76ea 2dbc 0e00 35bd b16b f5bd ba9b 69bb
00000350: e4a6 483a 81d5 f33c 5a14 bf3d ccee 2bbc
00000360: 7038 1e3d 9a67 e93c c56f 913c ad08 9abc
00000370: 7d95 d5bd ea07 ed3c 8681 053d 3a50 b23d
00000380: e292 90bb f49f 543d 5b12 70bd ba41 58bd
00000390: 9751 18bd 3acb 3ebd 74cb 3bbe 568c 29bd
000003a0: f50b de3a 631b 513d 7739 1d3d 90f1 60bd
000003b0: 3113 1fbd 56b1 af3d 5b26 52bd 4dcd 8cbd
000003c0: 42bb 18bb 4f4b 023d 3fc1 513d 234b aa3d
000003d0: e12f 3c3d c5d5 14bd bced 023a d37c 91bc
000003e0: 90a5 97bd a95e 3bbc fb7a a03c 90ab 553d
000003f0: 9e3d ebbb be29 893d 8ddf 04bd 4939 dabc

convs.1.bias f4 [32]
-0.06724919 -0.047238447 -0.02103851 -0.0430688 -0.026252858 -0.13613676 -0.059153743 0.056781042
0.022047898 -0.02923964 0.020127332 -0.05678155 -0.079176724 0.038461693 0.10110897 0.12680642
-0.03219217 0.06968204 0.06303393 0.024090793 -0.017476127 -0.043149702 -0.013327013 -0.06532457
-0.045334876 0.06148146 -0.011185033 -0.11594141 -0.05351572 0.0035361184 -0.044433206 0.04066577
00000000: f1b9 89bd 1a7d 41bd f458 acbc e968 30bd
00000010: 3c10 d7bc 6f67 0bbe 324b 72bd 3d93 683d
00000020: cb9d b43c f887 efbc 13e2 a43c c593 68bd
00000030: 6827 a2bd 028a 1d3d 3812 cf3d 8bd9 013e
00000040: f0db 03bd 75b5 8e3d ef17 813d 0e5a c53c
00000050: 182a 8fbc bebd 30bd 8b59 5abc e3c8 85bd
00000060: 10b1 39bd fcd3 7b3d 6e41 37bc b172 edbd
00000070: 4d33 5bbd 39be 673b 98ff 35bd 2791 263d

convs.2.basis f4 [4, 32, 32]
-0.013867343 -0.050874867 0.0009190288 0.0542326 -0.08039631 -0.015178549 0.013266573 0.006394279
-0.034088135 -0.010081152 -0.016198408 0.013069766 0.0072599794 0.027694713 0.035667624 -0.031943213
0.0036259762 0.026891315 -0.04932044 -0.019243114 0.011438187 0.0034085293 0.029881516 -0.00022503518
-0.047030956 -0.008071683 0.055725224 0.015235476 0.028634287 -0.010522901 -0.046261065 -0.078871466
-0.022908349 0.08988565 -0.01385666 -0.041549075 0.006017429 -0.03910902 -0.025869852 -0.002454622
0.05180457 0.05245874 0.049440272 -0.015228708 -0.029216796 -0.040690154 0.054704096 0.0804001
-0.012778514 0.039679542 -0.046929114 0.0048649637 0.023749426 0.05253223 0.051259592 -0.051281136
0.0385455 -0.10470154 -0.049692865 -0.0299078 0.036569905 -0.07513367 0.036277954 0.067677885
-0.00711557 0.036526598 -0.06935202 0.0062248204 0.019775765 -0.015117618 -0.024671812 -0.036522966
0.031628538 0.0674831 0.0543175 0.0475259 0.026044335 0.026183072 0.091162845 -0.030001447
0.024684953 0.08440687 -0.016340505 -0.011180727 0.006883919 0.06266181 0.08632414 -0.053708624
0.087972924 -0.10546651 -0.018237896 -0.015567313 -0.003921943 -0.009096438 0.04062039 0.10243244
-0.0023856931 0.0033231925 -0.0045495415 -0.0069715353 0.032999195 0.012174681 0.026898466 0.07903404
-0.044656698 -0.0795617 0.004407761 0.017941656 -0.004079995 -0.022744706 -0.035358477 0.041319963
0.003197935 -0.071068205 0.08798271 0.010297488 0.012575363 -0.07465788 -0.07437783 0.024192125
-0.006298756 -0.011068962 -0.031439528 0.026650615 0.055744484 0.0048323935 -0.042762127 0.04841029
0.017009579 0.059346873 -0.0650426 -0.067938864 0.04317224 -0.049259454 -0.096439205 0.005761433
-0.016639657 -0.04274309 0.00663926 -0.025304213 0.021193082 0.01661834 0.05763837 0.0411648
0.02232889 -0.0019256829 -0.03855529 0.022183174 -0.009444977 0.06841536 -0.013215921 0.0013215183
-0.014195915 -0.026088405 0.006006883 -0.049494512 0.09891782 -0.027937604 -0.032248594 0.0059650163
-0.024674814 -0.014757906 -0.0069811665 0.029872848 -0.038080912 0.03584337 0.07350074 -0.0152814705
0.025983008 0.072087385 0.031048506 -0.0008231417 -0.07850735 0.0016310212 0.05659564 0.038488783
-0.019134058 0.05378368 0.025444219 0.00031789034 0.03740633 -0.0037300535 -0.014033879 -0.0041221124
0.032338426 0.016676728 0.062716044 0.037540358 0.02516934 -0.01484027 0.022629563 -0.010098065
0.08196458 0.021453058 -0.111043595 0.065551884 0.06063828 -0.008438722 -0.10229401 -0.11431185
-0.010529092 -0.034459412 0.0013419506 0.09351155 0.04233373 -0.07482065 0.024631836 0.028729985
0.024553237 0.034406513 -0.019800168 -0.027203953 -0.0010195877 -0.016869891 0.049922563 -0.037569605
0.035234563 -0.0022077751 0.069975644 0.006010525 -0.091792725 -0.008522717 0.043592848 0.024435425
0.115026094 0.06252279 -0.026158605 -0.008132413 0.041962508 -0.010755479 0.05725282 -0.020412691
0.0006502842 0.030265197 -0.03198426 0.03509723 0.006036856 0.0061068963 0.022749994 0.016523315
-0.08782038 0.053935036 -0.025496205 -0.0012979324 -0.04543618 0.02977549 -0.0004988792 -0.09937577
0.100100435 -0.049049027 -0.016467083 0.01840526 0.058594044 0.019954551 -0.008826982 0.04170557
00000000: da33 63bc 2a62 50bd fbea 703a 0123 5e3d
00000010: d2a6 a4bd 73af 78bc 0a5c 593c 1a87 d13b
00000020: 00a0 0bbd 6b2b 25bc 86b2 84bc 9222 563c
00000030: 1fe5 ed3b 06e0 e23c 3718 123d e3d6 02bd
00000040: c9a1 6d3b 2d4b dc3c 3b04 4abd bca3 9dbc
00000050: 3c67 3b3c a261 5f3b 15ca f43c 6cf7 6bb9
00000060: 88a3 40bd 183f 04bc 2240 643d 389e 793c
00000070: 7492 ea3c 3f68 2cbc 3e7c 3dbd 5d87 a1bd
00000080: 4aaa bbbc f815 b83d 0b07 63bc 5d2f 2abd
00000090: da2d c53b c830 20bd 03ed d3bc b9dd 20bb
000000a0: 0731 543d fade 563d e281 4a3d d581 79bc
000000b0: 1058 efbc b8aa 26bd 6711 603d cfa8 a43d
000000c0: f95c 51bc 0487 223d be38 40bd 466a 9f3b
000000d0: 288e c23c 092c 573d 94f5 513d 2b0c 52bd
000000e0: e3e1 1d3d c36d d6bd bf8a 4bbd 3401 f5bc
000000f0: 53ca 153d aedf 99bd 3198 143d b49a 8a3d
00000100: ba29 e9bb ea9c 153d 6f08 8ebd 94f9 cb3b
00000110: c900 a23c e3af 77bc 8a1c cabc 1b99 15bd
00000120: ed8c 013d 9434 8a3d 077c 5e3d 85aa 423d
00000130: ee5a d53c e27d d63c 96b3 ba3d 98c5 f5bc
00000140: 1938 ca3c 82dd ac3d 86dc 85bc 5e2f 37bc
00000150: 7f92 e13b d654 803d b6ca b03d 93fd 5bbd
00000160: 262b b43d d3fe d7bd a467 95bc 0b0e 7fbc
00000170: a483 80bb 3a09 15bc 9161 263d 19c8 d13d
00000180: 4a59 1cbb ebc9 593b 5214 95bb 7a71 e4bb
00000190: 2a2a 073d 5078 473c 2c5a dc3c 99dc a13d
000001a0: f1e9 36bd 3ff1 a2bd fb6e 903b 61fa 923c
000001b0: 7bb1 85bb 1b53 babc 0dd4 10bd 1f3f 293d
000001c0: 7294 513b 358c 91bd 4730 b43d ccb6 283c
000001d0: e508 4e3c 3be6 98bd 6753 98bd 902e c63c
000001e0: cc65 cebb 975a 35bc bcc6 00bd 6452 da3c
000001f0: 5454 643d 0e59 9e3b 5727 2fbd de49 463d
00000200: ac57 8b3c b515 733d 0e35 85bd 8823 8bbd
00000210: 60d5 303d 48c4 49bd eb81 c5bd 67ca bc3b
00000220: e44f 88bc 6113 2fbd 268e d93b c84a cfbc
00000230: 1d9d ad3c 2f23 883c 3616 6c3d 6c9c 283d
00000240: 14eb b63c 3267 fcba 27ec 1dbd 7db9 b53c
00000250: 1bbf 1abc 5a1d 8c3d 9787 58bc cc36 ad3a
00000260: fc95 68bc 5ab7 d5bc 63d5 c43b c2ba 4abd
00000270: 6d95 ca3d 67dd e4bc 1a17 04bd 2f76 c33b
00000280: d622 cabc 25cb 71bc 45c2 e4bb e7b7 f43c
00000290: bbfa 1bbd 7fd0 123d 8e87 963d 225f 7abc
000002a0: 51da d43c 8da2 933d 7059 fe3c 1bc8 57ba
000002b0: 76c8 a0bd fdc7 d53a d4d0 673d 6aa6 1d3d
000002c0: 07bf 9cbc 474c 5c3d 6570 d03c 85aa a639
000002d0: 6137 193d ea73 74bb 5bee 65bc c912 87bb
000002e0: 4c75 043d a29d 883c 4571 803d ebc3 193d
000002f0: ef2f ce3c 9b24 73bc a261 b93c 5b72 25bc
00000300: 0cdd a73d 53be af3c d36a e3bd 1140 863d
00000310: d85f 783d 9142 0abc 867f d1bd 551c eabd
00000320: 3682 2cbc 5025 0dbd 64e4 af3a fc82 bf3d
00000330: 2266 2d3d 923b 99bd b4c8 c93c 255b eb3c
00000340: df23 c93c d8ed 0c3d f633 a2bc d3da debc
00000350: b0a3 85ba ba32 8abc 9a7b 4c3d 96e2 19bd
00000360: 1e52 103d 52b0 10bb 644f 8f3d f0f3 c43b
00000370: d3fd bbbd dea2 0bbc 6a8e 323d cd2c c83c
00000380: cd92 eb3d f30b 803d 924a d6bc d03d 05bc
00000390: e1e0 2b3d c037 30bc ef81 6a3d 8438 a7bc
000003a0: d577 2a3a b8ee f73c ed01 03bd 1dc2 0f3d
000003b0: d2d0 c53b 5c1c c83b 325e ba3c e75b 873c
000003c0: 2cdb b3bd fcea 5c3d 6bdd d0bc 621f aaba
000003d0: 4a1b 3abd baeb f33c 37c7 02ba 8685 cbbd
000003e0: 7501 cd3d a2e7 48bd fae5 86bc a1c6 963c
000003f0: 4f00 703d ba77 a33c 0c9f 10bc 76d3 2a3d

convs.2.att f4 [10, 4]
0.052614152 0.024446217 0.048792105 0.065993346 0.013433321 0.005062497 0.032385867 0.044922333
0.006716724 0.0036127795 0.023421993 0.032038726 0.013388455 -0.011341053 0.004357489 0.022886215
-0.018228294 -0.0016176187 0.015134608 0.016230853 -0.0072170612 0.002339946 0.0053085126 0.010844579
0.0058229933 0.008653156 -0.010191578 0.0014929441 0.0016023527 -0.0015461716 0.0019031679 0.0008719049
-0.010689806 -0.012784417 0.022020247 0.020044588 0.008393592 0.0017599221 0.0036051238 0.011970895
00000000: f081 573d 6f43 c83c 3bda 473d 8527 873d
00000010: 6f17 5c3c 4ee3 a53b 0ba7 043d 7b00 383d
00000020: f717 dc3b 62c4 6c3b 7bdf bf3c 0a3b 033d
00000030: 405b 5b3c d3cf 39bc 44c9 8e3b df7b bb3c
00000040: 8153 95bc 4706 d4ba 26f7 773c 91f6 843c
00000050: 197d ecbb c859 193b 08f3 ad3b 76ad 313c
00000060: cfce be3b f8c5 0d3c 94fa 26bc e4ae c33a
00000070: 0906 d23a e9a8 caba b873 f93a 8c90 643a
00000080: 4c24 2fbc bb75 51bc ce63 b43c 8c34 a43c
00000090: 4785 093c 30ad e63a f143 6c3b 9321 443c

convs.2.root f4 [32, 32]
-0.03045497 -0.087315165 0.09289287 -0.048899252 0.008055858 -0.10632603 -0.075603284 -0.048316754
0.039853036 -0.044071637 0.028731674 0.026676966 -0.010683892 0.03777972 -0.055484995 -0.06728236
0.002745018 0.002050482 0.03144 0.0063659986 0.0032682265 -0.056737643 -0.06789074 0.029342907
-0.11197132 0.024288567 0.061921284 -0.0021320637 0.015740957 0.021342581 -0.04760753 -0.029945161
-0.021647729 -0.040669464 -0.061349623 0.03758185 0.012656708 -0.0036598258 -0.024448534 -0.07209957
-0.02152106 0.047306728 -0.042996217 -0.0044240756 -0.035262633 0.05267033 -0.025038518 0.041056298
-0.0376597 0.060538974 -0.0019580235 -0.03532569 0.012014208 -0.023637282 -0.0059773424 0.030707832
-0.04395821 -0.06905892 -0.030530237 -0.065145716 0.011391918 -0.041169718 -0.026123686 0.023381082
-0.012043234 -0.1238863 0.022819603 -0.05536202 -0.023935322 -0.11435797 -0.010186609 0.08266709
0.039384656 0.024536334 0.05403918 -0.055274956 -0.040256463 -0.12126695 0.010573367 -0.0131154815
0.008456665 0.053170096 0.023888214 -0.0016282526 -0.07792397 -0.07129431 0.012027803 0.058487415
-0.0721138 0.051229056 -0.006205436 -0.03153339 -0.015135373 -0.041728053 -0.04746506 -0.058187667
-0.00706961 0.017460477 -0.006008905 -0.041318614 0.0058886544 -0.05914011 0.0070685046 -0.033872005
-0.049698416 -0.008323003 0.06003203 0.024233058 -0.042626847 -0.024655566 0.0050206957 0.029610274
-0.036924697 -0.02131778 0.018839128 -0.06714302 0.018207055 -0.08156242 -0.00044514035 -0.04955566
0.018949889 0.03566633 0.030495133 0.02828482 0.036437713 -0.0071260156 -0.032223262 0.011123314
0.032442745 0.07107118 -0.025859574 0.015650338 -0.075058214 -0.01224894 0.025612142 0.026537796
-0.037445817 -0.0054716235 -0.03113269 -0.040529132 0.026950538 0.015340371 0.0127821425 0.049357895
0.061345804 -0.061964907 0.028266614 -0.042239033 0.06669711 -0.060122333 0.036218584 0.04515707
-0.0038538123 0.023677595 -0.07700317 -0.0119331535 -0.014289364 0.058212012 0.008895391 -0.034131326
-0.063651055 -0.098081134 -0.03702067 0.025667278 0.0060740784 0.006396954 -0.06970477 -0.036829676
0.014056221 0.023138769 0.085435405 0.025177263 -0.0014219504 -0.012434745 -0.039098687 -0.033436093
0.0038748311 0.02023663 0.014789508 -0.051218748 -0.029476408 -0.076608956 -0.0126142735 -0.0453838
-0.043406405 0.015967622 0.06746988 -0.01653466 0.038098317 -0.0043907505 0.012846469 -0.020209176
0.004618913 0.08724468 -0.089966536 0.12589987 0.029613705 0.07340003 0.03261802 0.017852172
0.035294153 0.017891597 -0.114940576 -0.07910044 -0.016741619 -0.0015191229 -0.03953215 0.0061424305
0.024291223 0.027130784 -0.020493677 0.042000595 0.10865963 0.20998703 -0.007298395 -0.007128234
0.1255774 -0.046070203 -0.041412544 -0.029900871 0.0026275015 0.0044996035 0.047756206 0.04649069
-0.012072978 -0.015454552 0.0073980973 0.02583011 0.014936494 -0.035313275 -0.003923121 -0.011328298
0.059239563 -0.02645755 -0.0016658264 0.026340192 -0.023421777 0.038642153 -0.016439103 0.00048831914
-0.045958534 -0.0062759793 0.03417429 0.013098938 -0.03409006 -0.0474496 -0.034836262 0.02378442
-0.03586934 -0.015449555 -0.011094178 0.0064181113 0.0559852 -0.0063367113 -0.0066963434 -0.0060213627
00000000: b47c f9bc 4bd2 b2bd 9e3e be3d 954a 48bd
00000010: b8fc 033c 76c1 d9bd e5d5 9abd cae7 45bd
00000020: f03c 233d 7684 34bd b05e eb3c a789 da3c
00000030: 7e0b 2fbc e8be 1a3d 3c44 63bd 55cb 89bd
00000040: c3e5 333b 6161 063b 3bc7 003d de99 d03b
00000050: be2f 563b bb65 68bd 4d0a 8bbd 8960 f03c
00000060: 3851 e5bd d1f8 c63c 2ca1 7d3d 18ba 0bbb
00000070: 2ef3 803c a3d6 ae3c 1d00 43bd 8e4f f5bc
00000080: 9456 b1bc 0695 26bd be49 7bbd 6def 193d
00000090: 155e 4f3c b0d9 6fbb 4b48 c8bc f0a8 93bd
000000a0: ef4c b0bc b3c4 413d cd1c 30bd d6f7 90bb
000000b0: 8d6f 10bd d8bc 573d 941d cdbc a62a 283d
000000c0: 0f41 1abd b7f7 773d 2f52 00bb acb1 10bd
000000d0: 3ed7 443c f9a2 c1bc 95dd c3bb fe8e fb3c
000000e0: 860d 34bd c36e 8dbd 8c1a fabc 1e6b 85bd
000000f0: 2ba5 3a3c 94a1 28bd 5701 d6bc af89 bf3c
00000100: fc50 45bc 1ab8 fdbd 2df0 ba3c 49c3 62bd
00000110: 0214 c4bc 8334 eabd bce5 26bc 5d4d a93d
00000120: ce51 213d 6c00 c93c 3058 5d3d fe67 62bd
00000130: f6e3 24bd cf5a f8bd ea3b 2d3c 51e2 56bc
00000140: d38d 0a3c e3c8 593d 37b1 c33c 176b d5ba
00000150: 9a96 9fbd c002 92bd 4310 453c 8090 6f3d
00000160: 66b0 93bd 8fd5 513d f856 cbbb 2829 01bd
00000170: 5bfa 77bc 09eb 2abd b96a 42bd 3156 6ebd
00000180: 30a8 e7bb 4609 8f3c 59e6 c4bb b53d 29bd
00000190: 9df5 c03b e63c 72bd ea9e e73b 5fbd 0abd
000001a0: 9190 4bbd 345d 08bc 25e4 753d 6884 c63c
000001b0: 7d99 2ebd 78fa c9bc a684 a43b 3f91 f23c
000001c0: 5a3e 17bd a0a2 aebc 8454 9a3c 4882 89bd
000001d0: f626 953c 330a a7bd ba61 e9b9 e0fa 4abd
000001e0: cc3c 9b3c dc16 123d eed0 f93c 91b5 e73c
000001f0: b63f 153d 5a81 e9bb 8afc 03bd 8f3e 363c
00000200: afe2 043d c48d 913d 75d7 d3bc 2335 803c
00000210: 1fb8 99bd c7af 48bc 8ed0 d13c cb65 d93c
00000220: c960 19bd 4e4b b3bb fc09 ffbc e001 26bd
00000230: 60c7 dc3c 2e56 7b3c 316c 513c 812b 4a3d
00000240: bd45 7b3d eace 7dbd 638f e73c d602 2dbd
00000250: 7f98 883d d642 76bd f059 143d 9ff6 383d
00000260: 3e90 7cbb 84f7 c13c d7b3 9dbd 4683 43bc
00000270: f01d 6abc b86f 6e3d f9bd 113c 4acd 0bbd
00000280: 7c5b 82bd c3de c8bd fca2 17bd 2f44 d23c
00000290: 1009 c73b 8a9d d13b 60c1 8ebd b7da 16bd
000002a0: 104c 663c 848d bd3c c2f8 ae3d 8c40 ce3c
000002b0: bd60 baba 1abb 4bbc f225 20bd 49f4 08bd
000002c0: e1f0 7d3b 4ac7 a53c b14f 723c c0ca 51bd
000002d0: 8278 f1bc 28e5 9cbd 19ac 4ebc 5de4 39bd
000002e0: eaca 31bd 88ce 823c a62d 8a3d b273 87bc
000002f0: fb0c 1c3d 49e0 8fbb ff79 523c b78d a5bc
00000300: 405a 973b 57ad b23d 6040 b8bd e5eb 003e
00000310: 7198 f23c c152 963d 799a 053d b83e 923c
00000320: 9a90 103d 6691 923c f765 ebbd 69ff a1bd
00000330: b825 89bc 4e1d c7ba 77ec 21bd 7146 c93b
00000340: 63fe c63c 6141 de3c 5be2 a7bc d108 2c3d
00000350: f188 de3d d706 573e 6027 efbb f693 e9bb
00000360: 5d97 003e 1cb4 3cbd 33a0 29bd acf2 f4bc
00000370: 2932 2c3b 6971 933b 039c 433d 066d 3e3d
00000380: bdcd 45bc 1735 7dbc bd6b f23b ab99 d33c
00000390: 32b8 743c a7a4 10bd 868d 80bb 539a 39bc
000003a0: 2fa5 723d 81bd d8bc dc57 daba 63c7 d73c
000003b0: 07df bfbc 3c47 1e3d 4cab 86bc 8b02 003a
000003c0: 043f 3cbd bba6 cdbb 57fa 0b3d ee9c 563c
000003d0: 05a2 0bbd 835a 42bd 78b0 0ebd 8bd7 c23c
000003e0: bbeb 12bd 2120 7dbc 5bc4 35bc 054f d23b
000003f0: bd50 653d 30a4 cfbb 006d dbbb da4e c5bb

convs.2.bias f4 [32]
0.00012053708 -0.039238967 0.031072037 -0.05063069 -0.008237089 -0.053864628 -0.0020428866 -0.0379599
-0.007392881 -0.003525659 0.056392338 0.04395384 -0.0027100923 0.008038089 0.012259891 0.0023913244
-0.028170425 -0.009739421 0.0012611654 -0.022534914 -0.038123623 -0.09322986 -0.01514902 -0.015666872
-0.0567006 0.026979845 0.015093111 0.014775872 0.014929352 -0.0010975709 -0.0107828835 0.0060495795
00000000: dac8 fc38 0ab9 20bd c98a fe3c 2062 4fbd
00000010: dbf4 06bc 28a1 5cbd f3e1 05bb d77b 1bbd
00000020: fb3f f2bb be0e 67bb a7fb 663d f108 343d
00000030: ce9b 31bb 30b2 033c b6dd 483c c4b7 1c3b
00000040: aac5 e6bc 1892 1fbc b04d a53a 249b b8bc
00000050: 8427 1cbd 4cef bebd 9833 78bc d057 80bc
00000060: e33e 68bd d604 dd3c 1949 773c 8016 723c
00000070: 3e9a 743c 5edc 8fba b1aa 30bc 8d3b c63b

convs.3.basis f4 [4, 32, 32]
-0.031704403 0.021247786 -0.032132626 0.041009735 -0.0024048316 0.009474818 0.06233122 0.0465011
-0.015647845 -0.032012314 -0.04164164 0.08955412 -0.051220544 0.04195937 -0.00023657802 -0.028311
0.0016620808 0.020208858 0.03160711 0.028487653 0.068679795 0.026917294 0.056584835 0.053339206
0.08514886 -0.013380288 -0.08844394 -0.07219147 0.022823738 -0.0669237 0.007912617 0.0050673564
0.051903844 -0.121113 0.068174 0.06363648 0.043813623 0.026949236 -0.059537526 0.023636023
0.11422758 0.0042164535 -0.02157391 0.064756475 -0.03901321 0.058264904 -0.06615212 0.08258404
-0.030144725 -0.02134342 0.02299819 0.02786057 0.088208884 -0.05805525 -0.021244673 -0.047215134
-0.031953964 0.083702885 -0.030787112 0.06453441 -0.014300819 0.0741076 0.049803983 -0.100166984
-0.023824226 0.016749091 0.012715481 -0.03445241 -0.026626848 0.0484407 0.05850313 -0.016812181
-0.051373243 -0.053751435 -0.05655094 0.004656243 0.038387362 0.01901362 0.111619055 0.041764986
-0.021187268 0.020727938 0.015789941 -0.064763315 -0.04115911 0.065619364 0.024582697 0.09666213
-0.022282913 0.071503356 -0.041990303 -0.03143137 0.060491774 -0.08786797 0.065075606 0.0152779585
-0.0088806655 0.032697786 0.03313512 0.07164768 0.024004351 0.018727815 -0.022477137 0.004232353
-0.0346133 0.056739293 -0.016164087 -0.009971422 -0.07182814 0.04771321 -0.051975884 -0.042950783
-0.012912658 0.043570414 -0.015254822 0.09604423 -0.03807913 -0.05750197 0.0068585235 -0.057118375
0.022740807 0.023793433 -0.034065638 -0.034306683 0.08789229 0.031857904 -0.04313493 -0.105820164
0.021527898 0.014461964 0.015346896 -0.02486986 0.07671276 -0.030816495 -0.019960687 -0.05054747
0.05772749 0.021666614 0.038429648 0.0042621125 -0.027265675 -0.026769567 -0.07583579 -0.013262491
-0.006504175 0.05143308 -0.03772749 0.019368475 0.029510465 -0.028422927 -0.044613983 0.03588181
-0.061786808 -0.060659755 -0.016502343 0.0192083 0.015587569 0.04359743 -0.02706889 -0.060073692
0.0135593 -0.07518386 -0.056991186 -0.03299054 0.035311274 0.011978677 0.020236062 0.055512995
0.04999071 -0.035218958 0.056333195 -0.04628529 0.007714894 0.05066166 0.04484149 0.0012637196
-0.0014446143 -0.037097566 0.012146421 0.0013021505 0.028198771 0.05513904 0.013025685 -0.007432467
0.039563376 -0.047894813 -0.0022153165 -0.036741372 0.0024406847 -0.017935688 0.010822313 -0.13110898
-0.02889791 0.01949808 0.014711529 -0.098557025 0.013477771 0.0303668 -0.093676604 0.08506944
-0.06781222 0.020574536 -0.02735572 0.03568055 -0.0025619932 -0.08190108 0.016785072 -0.014889115
0.03423215 -0.05424594 0.03918222 0.08275211 -0.03451959 0.062118772 0.051828224 -0.06507123
0.010618198 -0.033872794 -0.010958944 -0.045031827 -0.061755754 -0.059193905 -0.021726996 0.06390473
0.03209815 -0.0055905576 -0.006420245 0.012552907 0.008773035 0.019182874 -0.01097354 -0.009082353
0.06069598 -0.021153701 -0.00015255997 0.045475926 -0.005082761 0.0002760202 0.020477455 0.022957973
0.041331336 0.051707942 0.09822161 0.0454176 0.055684917 0.06703066 0.0713297 0.06533772
-0.019136356 0.074683994 0.0401627 -0.043325264 0.029229363 -0.017063256 0.061457757 -0.06699832
00000000: 7adc 01bd d60f ae3c 809d 03bd d3f9 273d
00000010: 619a 1dbb 443c 1b3c 054f 7f3d f077 3e3d
00000020: e92f 80bc 581f 03bd 6d90 2abd 2768 b73d
00000030: a2cc 51bd 97dd 2b3d ee11 78b9 78ec e7bc
00000040: 2dda d93a 0c8d a53c 7576 013d f05e e93c
00000050: fea7 8c3d a881 dc3c 80c5 673d 367a 5a3d
00000060: 8762 ae3d ff38 5bbc 1922 b5bd 1fd9 93bd
00000070: d9f8 ba3c 4b0f 89bd eca3 013c 110c a63b
00000080: 2099 543d 180a f8bd cf9e 8b3d d853 823d
00000090: ea75 333d a5c4 dc3c 9fdd 73bd 55a0 c13c
000000a0: 26f0 e93d 2d2a 8a3b c5bb b0bc 0b9f 843d
000000b0: 51cc 1fbd 2ea7 6e3d c37a 87bd d221 a93d
000000c0: 12f2 f6bc 65d8 aebc b366 bc3c da3b e43c
000000d0: dca6 b43d 58cb 6dbd 4f09 aebc a864 41bd
000000e0: 29e2 02bd 6b6c ab3d 4135 fcbc 9e2a 843d
000000f0: fb4d 6abc bac5 973d 43ff 4b3d 5924 cdbd
00000100: 062b c3bc 6435 893c 9854 503c f81d 0dbd
00000110: 8c20 dabc c169 463d faa0 6f3d b3b9 89bc
00000120: c06c 52bd 772a 5cbd f5a1 67bd 6693 983b
00000130: 113c 1d3d 74c2 9b3c 8898 e43d c311 2b3d
00000140: ec90 adbc a3cd a93c e859 813c a1a2 84bd
00000150: 7496 28bd 7263 863d a761 c93c cbf6 c53d
00000160: a88a b6bc 5a70 923d 06fe 2bbd 2ebe 00bd
00000170: 39c6 773d 1ff4 b3bd 5c46 853d 6750 7a3c
00000180: 3680 11bc 1dee 053d b1b8 073d 05bc 923d
00000190: c6a4 c43c 136b 993c f921 b8bc 8daf 8a3b
000001a0: adc6 0dbd 7667 683d 8c6a 84bc 2d5f 23bc
000001b0: a21a 93bd ed6e 433d aae4 54bd 29ed 2fbd
000001c0: 9d8f 53bc e476 323d 5cef 79bc d6b2 c43d
000001d0: ddf8 1bbd 3087 6bbd 77bd e03b f5f4 69bd
000001e0: ee4a ba3c 72ea c23c 6988 0bbd 2a85 0cbd
000001f0: df00 b43d 6f7d 023d 41ae 30bd 3eb8 d8bd
00000200: 465b b03c e0f1 6c3c 8c71 7b3c e0bb cbbc
00000210: 941b 9d3d e072 fcbc 9884 a3bc dd0a 4fbd
00000220: a973 6c3d 2f7e b13c 6868 1d3d 31a9 8b3b
00000230: 445c dfbc da4b dbbc cb4f 9bbd eb4a 59bc
00000240: f920 d5bb 7eab 523d 2488 1abd a3aa 9e3c
00000250: eebf f13c 33d7 e8bc 27bd 36bd cef8 123d
00000260: 2a14 7dbd 5d76 78bd ec2f 87bc ba5a 9d3c
00000270: 0163 7f3c 3893 323d 94bf ddbc d50f 76bd
00000280: d427 5e3c fff9 99bd 976f 69bd 1721 07bd
00000290: 8ea2 103d 3642 443c 19c6 a53c 9861 633d
000002a0: 0fc3 4c3d c141 10bd a3bd 663d a595 3dbd
000002b0: 39cd fc3b 9a82 4f3d b6ab 373d 65a3 a53a
000002c0: 3659 bdba 9ef3 17bd c801 473c ecac aa3a
000002d0: 1c01 e73c 79d9 613d af69 553c 0d8c f3bb
000002e0: 350d 223d 5a2d 44bd d82e 11bb 1f7e 16bd
000002f0: e5f3 1f3b dded 92bc 1250 313c 6f41 06be
00000300: 4fbb ecbc 70ba 9f3c a008 713c 44d8 c9bd
00000310: ded1 5c3c ccc3 f83c 85d9 bfbd e338 ae3d
00000320: 22e1 8abd ee8b a83c 1a19 e0bc c525 123d
00000330: 1de7 27bb c1bb a7bd d980 893c 79f1 73bc
00000340: 0337 0c3d fe30 5ebd 897d 203d f079 a93d
00000350: 6a64 0dbd 4170 7e3d d549 543d 1144 85bd
00000360: f3f7 2d3c 33be 0abd 258d 33bc 4b73 38bd
00000370: 9af3 7cbd 4f75 72bd d0fc b1bc 7ce0 823d
00000380: 5a79 033d ff30 b7bb eb60 d2bb b5aa 4d3c
00000390: c7bc 0f3c 6725 9d3c 5dca 33bc 26ce 14bc
000003a0: 599c 783d 874a adbc 81f8 1fb9 f744 3a3d
000003b0: 4a8d a6bb ceb6 9039 56c0 a73c 5c12 bc3c
000003c0: 0c4b 293d b5cb 533d 6928 c93d ce07 3a3d
000003d0: de15 643d 5f47 893d 4e15 923d c8cf 853d
000003e0: d9c3 9cbc ecf3 983d a581 243d d575 31bd
000003f0: 6b72 ef3c 3ec8 8bbc 21bb 7b3d 6a36 89bd

convs.3.att f4 [10, 4]
-0.0028256879 0.006100787 0.0008451545 -0.0064920974 0.0001938508 0.010852572 -0.0021224667 -0.0062378254
-0.0049955156 0.006585344 0.009120747 0.0041854433 -0.0069051026 0.005847808 -0.005910297 0.0013542185
-0.0006272191 0.0056017046 0.0068530003 0.0052453144 0.010070347 0.008932671 -0.002175403 -0.0037078268
0.0036093157 0.0064024366 0.007403563 -0.000747737 -0.00051206345 0.0008022048 0.0063395347 0.0008517262
-0.007879099 -0.0006220498 -0.0047512236 0.0013986509 -0.0047964365 0.0020703257 0.0016203506 -0.0017265714
00000000: 2d2f 39bb 1ce9 c73b 5c8d 5d3a a9bb d4bb
00000010: 6e44 4b39 fcce 313c 1519 0bbb ac66 ccbb
00000020: 6cb1 a3bb dfc9 d73b 306f 153c 0b26 893b
00000030: 3344 e2bb f89e bf3b 2aab c1bb 0880 b13a
00000040: f66b 24ba 818e b73b 228f e03b e3e0 ab3b
00000050: 19fe 243c 565a 123c 3591 0ebb 03ff 72bb
00000060: 458a 6c3b 88cb d13b 9699 f23b c803 44ba
00000070: ff3b 06ba 0e4b 523a dfbb cf3b 6146 5f3a
00000080: 5617 01bc 0e11 23ba 27b0 9bbb f052 b73a
00000090: 6d2b 9dbb 4dae 073b f261 d43a 1f4e e2ba
