results/flixster_testmode/model_checkpoint2.pth (torch_old, 199981 bytes, 19 tensors)

convs.0.basis f4 [4, 4, 32]
000000 32 3a 36 3e 86 b6 66 be 80 9d 3a 3e f9 b9 1b 3d
       0.17795637 -0.22530565 0.18224144 0.038019154
000010 1d 98 dc 3d 84 d0 7c 3e 02 de 9b bd 7b 27 51 be
       0.10771201 0.24688917 -0.07610704 -0.20425217
000020 15 4e 82 3d 9a 6e 33 be 76 b3 36 3e af 13 2b 3c
       0.06362549 -0.1752266 0.17841896 0.010441705
000030 22 e1 30 be dd 5b 17 3d 96 c8 93 3d 1f 3a fe bd
       -0.17273381 0.036952842 0.07215993 -0.124134295
000040 fa 6d be 3d 25 96 33 3c f0 4f 44 be 95 50 92 3d
       0.0929832 0.01096109 -0.19171119 0.07144276
000050 7e 55 83 3d 60 b1 e2 3d 34 e2 df bc 0f 1a 43 be
       0.06412791 0.11068988 -0.027329542 -0.1905291
000060 39 f7 12 bd ef 52 70 bd 18 c8 48 be 70 ff 8b bd
       -0.0358803 -0.05867284 -0.1960758 -0.0683583
000070 88 b5 fe 3d bb 2e 74 3e 4d fd 44 be 43 4b 8c bd
       0.12436968 0.23845951 -0.19237252 -0.068502925
000080 5a fb c9 bd d5 52 a9 bd 4d ea aa bd 75 d9 42 be
       -0.09862395 -0.08267752 -0.083454706 -0.19028266
000090 52 9b b2 bc e8 4c 60 3e f1 6f ea bd 39 79 fc bd
       -0.021802578 0.21904337 -0.114471324 -0.12327809
0000a0 f6 89 2c be 75 f9 f4 bd 64 e8 27 3e 3d 90 41 be
       -0.16849503 -0.11961643 0.16397244 -0.18902679
0000b0 d1 c5 1e be 71 54 85 3d 93 46 c0 bd dc 87 79 bd
       -0.15505148 0.065102465 -0.09388461 -0.06092058
0000c0 5b cb 57 be ac ca 51 be ed 67 38 3e 2a 7f 17 be
       -0.21073668 -0.2048747 0.18008395 -0.14794603
0000d0 b8 17 32 be 98 19 df 3d 13 3f 10 3c 4c b5 cc bc
       -0.1739186 0.108935535 0.008804101 -0.024988793
0000e0 f0 3d 50 3e bf 0b 2b 3d 3a 3b 1b 3a 91 b9 09 be
       0.20336127 0.04175925 0.0005921606 -0.13449694
0000f0 7e dc 03 3e db 26 a5 3c 5d ba ee bd 03 d5 db bc
       0.1287708 0.02016013 -0.1165664 -0.02683497
000100 48 16 af bd 7d 29 e0 bd 3d c8 7d 3e 4f c0 43 3e
       -0.08549172 -0.10945413 0.24783416 0.19116329
000110 f1 23 f4 bd 25 d9 11 be 86 30 32 3d fb 88 22 be
       -0.11920918 -0.1424299 0.043503307 -0.15872566
000120 69 3d d8 bd 4a 8a 11 be 86 90 a8 bd c3 da 38 3d
       -0.10558588 -0.1421291 -0.08230691 0.045130502
000130 d5 92 47 3e e0 7a 01 3e cc d8 b2 3d 6f 3d 71 be
       0.19489606 0.1264453 0.08732757 -0.23558591
000140 01 08 8c 3d 74 e1 8a bd ef c2 11 3e 8f a6 44 3e
       0.06837464 -0.06781283 0.14234518 0.19204162
000150 b2 67 8b 3d 53 2f 13 3e 0e ba 85 be 98 28 51 be
       0.06806888 0.14373522 -0.2611851 -0.20425642
000160 0e b2 82 be 18 e0 1f be 9b 32 0b be 2a ee 13 3b
       -0.2552647 -0.15612829 -0.13593523 0.0022572377
000170 64 6b 04 be ee af 8a 3d 6b 34 8c bc fe 17 a7 3d
       -0.12931591 0.06771837 -0.017114839 0.08158873
000180 ca 79 33 3e b4 c1 17 3e 0d 3b b2 3d 71 26 13 be
       0.17526928 0.14819986 0.08702669 -0.14370133
000190 40 ae 5a be f0 db 89 be 37 09 1e be 44 78 c5 bd
       -0.21355534 -0.26925611 -0.15433203 -0.096420795
0001a0 15 dd 6b 3e c9 98 a3 3e 42 74 a1 3e 41 07 39 3e
       0.23033555 0.31952503 0.3153401 0.18069173
0001b0 28 5d 41 bd 6f 29 52 bd 0b d6 a5 bd 63 5a ec 3c
       -0.04720798 -0.051309045 -0.08097466 0.028851693
0001c0 51 c0 8c be 93 85 1b be db 27 f7 bd b7 44 f3 bc
       -0.27490476 -0.15187673 -0.12068149 -0.029695852
0001d0 1d dd 76 3d 13 d6 8f be a2 af 38 be 73 b0 ca 3d
       0.060269464 -0.28093013 -0.18035749 0.09896936
0001e0 53 03 4c be dc 89 17 3e 8b c4 f3 bd c6 a0 14 be
       -0.19923143 0.14798683 -0.11902722 -0.14514455
0001f0 38 6e aa bd 57 01 4f 3e 20 de ad 3d 6e c8 be bc
       -0.08321804 0.20215355 0.084896326 -0.023288932
000200 75 9d 4b 3d 38 b9 53 bd c4 40 dd 3c ed 94 9b 3d
       0.04971071 -0.05169031 0.027008422 0.07596765
000210 79 15 f9 3d 0e cc 67 3e ac 93 dd 3d 5e fe c0 bd
       0.12162299 0.22636434 0.10819182 -0.09423517
000220 b2 05 d9 3b 7c 15 23 3c 51 7c a2 bd 7e 2c 7f 3b
       0.0066229934 0.009953853 -0.07933868 0.0038936432
000230 0d 0b 19 be 61 ce 5c bb fb ee c4 3d 65 fc 17 be
       -0.14945622 -0.0033692347 0.096158944 -0.14842375
000240 65 28 c5 bd 9c 0f a5 bd 4e f4 44 3c b5 08 9c 3b
       -0.09626845 -0.08059618 0.012021137 0.00476178
000250 5a f6 6e 3d 5d c7 de 3d 54 13 27 3e 3e fb 3b be
       0.058340408 0.10877869 0.16315967 -0.1835756
000260 69 44 84 3d 4c 5c 22 be 57 5d 24 3e a5 1c 73 3d
       0.06458361 -0.15855521 0.16051231 0.05935349
000270 47 28 87 bc 70 91 14 3e 7c 39 05 be e8 f3 33 be
       -0.016498698 0.14508605 -0.1301021 -0.17573512
000280 95 fc 12 3d bb f2 92 3d f8 6d b8 bd 11 d5 c5 3d
       0.035885412 0.071752034 -0.0900535 0.0965978
000290 ed 1e c0 3d 82 9b 5c 3e d9 ef a6 bd b7 aa f8 bb
       0.093808986 0.21543697 -0.08151216 -0.00758871
0002a0 e5 67 d3 3d 41 69 f1 bc 1d 56 3c 3d fc 29 7e be
       0.10322551 -0.029469134 0.04598056 -0.24820703
0002b0 0a 0a 20 be c2 61 32 bd 73 ea d7 3d 14 1c 93 3c
       -0.1562883 -0.04355026 0.105427645 0.017957725
0002c0 aa bf 20 be 1c b0 54 be d5 d4 0f 3e ad b0 d0 3d
       -0.15698114 -0.20770305 0.14046033 0.10189948
0002d0 2f 00 1a be 57 30 90 bd 28 d9 83 3d 06 3c b1 bd
       -0.15039133 -0.0704047 0.06437904 -0.08654027
0002e0 37 cf 55 3e 59 7e d0 bd 1d af 13 3b 40 f2 a0 bd
       0.20879827 -0.10180349 0.0022534796 -0.078587055
0002f0 a3 9e 74 3d 38 6f 3b 3e c4 93 82 3d ae f4 49 3e
       0.0597216 0.18304145 0.0637584 0.19722244
000300 fc 37 74 bc b4 9d f0 3c da b9 6e bd 5d fd 21 3d
       -0.014905926 0.029372074 -0.05828271 0.039548267
000310 43 e8 58 3d b6 bd 14 3e 0f 5b bb bd 1f 27 cf bd
       0.052955877 0.14525494 -0.091482274 -0.10114884
000320 fb 7e 4a be 22 a6 0a bd 33 3a 18 be e3 11 89 bd
       -0.19775002 -0.033849843 -0.14865951 -0.06692865
000330 e3 0a 49 3e 8b 16 40 bd c8 a7 56 be bc 0e 76 be
       0.19633059 -0.0468965 -0.20962441 -0.24029058
000340 52 12 78 3e 46 8f 57 bd 0f 40 03 3e b4 85 3e 3e
       0.24225739 -0.05262687 0.12817405 0.18605691
000350 9f c8 19 be c1 7d 88 bd ff dc d7 bd 5b f6 7d be
       -0.15017937 -0.06664611 -0.105401985 -0.24801008
000360 eb f5 5f be dd 85 4d bd ea 29 c9 3d 83 f0 25 bd
       -0.21871154 -0.05017649 0.098224476 -0.040512573
000370 00 40 45 bd 7b 71 2d bd 54 2b 09 bd 85 c2 81 3c
       -0.04815674 -0.04234455 -0.033488587 0.015839824
000380 7d e9 39 bd 90 38 82 3e c9 e8 af 3c 8a 82 87 bd
       -0.045388687 0.2543378 0.021473305 -0.06616695
000390 1e da 16 3e 9a 26 02 be 71 41 8d 3d d8 52 59 be
       0.14731643 -0.12710038 0.068972476 -0.21223009
0003a0 a3 ee 4c 3e b4 7f 66 3e 07 17 7a 3e 05 cc 98 be
       0.20012908 0.22509652 0.24422847 -0.29843155
0003b0 fc f5 27 be 1e c2 a3 bd b9 ad 06 be e0 1b 55 3d
       -0.1640243 -0.07996009 -0.13152207 0.052028537
0003c0 f5 9f 03 be 1d d8 1a be 5f c6 2c be 19 62 04 be
       -0.12853988 -0.15121503 -0.16872548 -0.12928046
0003d0 b9 f9 85 3d ba 85 8d be 43 c6 4d 3e 82 44 bc 3d
       0.065417714 -0.27641088 0.20095162 0.09192754
0003e0 7a ba 6f 3d 15 34 18 3e ea f0 7b 3e 02 0e 7a bd
       0.058527447 0.14863618 0.2460362 -0.061048515
0003f0 44 26 6b bd f3 90 1e 3e dd 73 3f be 6a 09 33 be
       -0.05740954 0.15484981 -0.18696542 -0.1748406

convs.0.att f4 [10, 4]
000000 b8 c2 0e bc ad f5 1c be 75 e0 4e 3e f1 18 d2 3c
       -0.008713417 -0.15328093 0.20202811 0.025646659
000010 e3 1f 82 3c 78 e3 65 bc ca d8 7e 3b dd 17 f9 3c
       0.015884345 -0.014031284 0.003888654 0.030406887
000020 fa d5 c5 bd 84 27 2b 3e 6e 9d 70 3e 5e c3 79 bd
       -0.096599534 0.16714293 0.23497555 -0.060977332
000030 9c e8 52 be 53 bf 22 3e 20 59 65 3d ab 3f e4 bd
       -0.20596546 0.15893297 0.0559932 -0.11144956
000040 02 0b e1 3d 91 e4 ec bd 15 66 1f 3d 0e 49 51 3d
       0.10988428 -0.11567033 0.038915712 0.05109506
000050 c1 d2 0d be 11 34 75 3e ff cd 91 3e 8e ea 52 3e
       -0.13849927 0.23945643 0.28477475 0.20597288
000060 e1 af 9f bc 5a 2c fe 3d 8d 55 6a 3d bb 95 a0 3d
       -0.019493045 0.12410803 0.057210494 0.07841059
000070 fd 37 e5 3d 4f 9a 66 3e fe f2 56 3e 3b fb 06 3e
       0.111923195 0.22519802 0.20991132 0.13181774
000080 a7 48 51 3e cc 01 53 3e d2 bf eb 3d 32 6c 10 bc
       0.20437871 0.20606154 0.11511196 -0.008814858
000090 3b 05 94 3e 3c 62 b5 3d c7 2c 86 3c c1 b2 4e be
       0.2891024 0.08856627 0.016378773 -0.20185377

convs.0.root f4 [4, 32]
000000 1e b7 ff bd 3d c3 54 3d f4 41 94 3d 2a 97 26 3e
       -0.12486099 0.051944006 0.07239142 0.16268602
000010 c8 f3 24 3e 28 1e 95 3d 11 08 c5 bd 5a b8 5d be
       0.1610862 0.072811425 -0.09620679 -0.21652356
000020 57 de 16 3e cd dd 9a 3e cb 4e 88 3e e4 54 30 bc
       0.14733253 0.30247346 0.26622614 -0.010762427
000030 cd 6a 1a 3e 97 94 cb 3d 74 42 8c bd 5e f7 39 be
       0.15079804 0.09940451 -0.068486124 -0.1816077
000040 2f 24 b1 bd 1c 66 54 3e f8 d1 48 3d 11 18 51 be
       -0.086494796 0.20742077 0.049028367 -0.20419337
000050 d7 54 d4 3d 92 aa 45 bd cc 4d bc 3d ea 37 36 3e
       0.103677444 -0.04825837 0.09194526 0.17794767
000060 7c 57 7c bd 29 df 40 3e 23 3d d1 3c 71 05 8f be
       -0.06160687 0.18835129 0.025541848 -0.2793384
000070 4d ca 51 3d 31 87 3f be 47 41 5e 3c 2f 93 5e be
       0.05121832 -0.18703915 0.013565368 -0.21735834
000080 96 f6 04 3e 81 89 86 3e 2a 49 0a be 62 d1 bc 3d
       0.1298469 0.26276782 -0.13504472 0.09219624
000090 ca ae aa bd 81 43 45 be 02 25 c4 bd 7f a1 88 be
       -0.083341196 -0.19264032 -0.09577371 -0.26685712
0000a0 e2 86 13 bd 8f ac 63 be 38 a8 5d 3e 10 4b 34 3e
       -0.036017306 -0.22233795 0.21646202 0.17606759
0000b0 15 94 99 3e 79 ec 4a 3e f6 4c 0d be 8d d0 4a 3e
       0.2999579 0.1981677 -0.1379889 0.19806118
0000c0 50 06 7b 3b 57 1e ba 3d 1d b4 af 3d 91 78 e8 bd
       0.0038303323 0.09087818 0.08579276 -0.11351121
0000d0 cf 26 d4 3c 7b 0a 67 be ab dc 49 be 58 3f a0 be
       0.025897412 -0.22562592 -0.19713084 -0.31298327
0000e0 7d 44 75 be a5 da be bd a4 37 88 3e de 2b fd 3d
       -0.23951907 -0.09319047 0.2660495 0.123618826
0000f0 84 90 16 3d 12 e5 ab bd 71 ad 7f 3e b1 8e 84 3e
       0.036758915 -0.08393301 0.24968506 0.25890115
000100 55 03 2a 3e 33 47 16 3e fc 43 cf 3d 89 90 c1 bd
       0.16602834 0.14675598 0.10120389 -0.09451396
000110 dc 25 3a be dc 33 30 be fe e8 0a be 00 c2 32 bd
       -0.18178505 -0.17207283 -0.13565442 -0.043642044
000120 f2 bd 4e 3d 0f b7 0c bd 91 31 75 be 7a ce c8 3d
       0.050474115 -0.034354266 -0.2394469 0.09805007
000130 ea e0 b6 bd f1 4e 59 3e bf 17 1c bd 75 65 6c 3d
       -0.08929618 0.2122152 -0.038108584 0.057713944
000140 9c ca 36 be d1 43 1d bd f8 f4 46 be a4 05 0b 3e
       -0.17850727 -0.038394753 -0.19429386 0.1357637
000150 c9 e1 96 3d ca d5 04 3e 27 b8 3a bd f6 ab 4c 3e
       0.07367284 0.12972179 -0.045585778 0.19987473
000160 21 68 d8 3d 8b 7a 34 3e 38 bb 93 3c a6 2d 56 be
       0.10566736 0.17624871 0.018033609 -0.20915851
000170 64 52 82 bd e5 5a 1b be cb 32 0f 3e 91 a7 84 3d
       -0.06363371 -0.15171392 0.1398422 0.06477273
000180 b9 02 9b bc 9a e1 03 be ee cf 9e b9 fb e7 3d 3e
       -0.018922197 -0.12879029 -0.00030291028 0.18545525
000190 04 40 33 3e dc cb ed bd ae d9 1e 3d f2 81 3d be
       0.17504889 -0.11611149 0.038781814 -0.18506601
0001a0 98 7d 21 be d2 35 84 3e 9b 21 f8 bd 7f a7 83 bd
       -0.15770566 0.25822312 -0.12115785 -0.06428432
0001b0 8b 87 39 3e 8b bd c5 bc 4c 81 15 bd 0a 56 b4 3d
       0.18118112 -0.024138233 -0.03650026 0.08805473
0001c0 09 ac e8 3d 49 be aa bd 78 ae 62 bc d6 ba 3c 3e
       0.11360938 -0.08337075 -0.013835542 0.18430647
0001d0 90 57 f2 bd f4 0e d9 3c 7f 4f 59 be 35 27 55 be
       -0.118331075 0.026496388 -0.21221732 -0.20815738
0001e0 69 a4 b4 bd 58 f8 58 3e bf 71 2d be b4 02 8a bd
       -0.08820421 0.21188486 -0.16937922 -0.06738797
0001f0 c5 73 74 be 3d 44 3f be 0b b2 0f 3d 8e 65 77 be
       -0.23872288 -0.18678375 0.035081904 -0.24159834

convs.0.bias f4 [32]
000000 ef 92 0a 3e dd 5c ff 3a c4 0b 5f 3e c6 b7 8f be
       0.13532613 0.0019482631 0.21781832 -0.28069896
000010 4b 41 44 3e a2 df 93 bc c5 22 15 3e 83 9a 01 3e
       0.19165532 -0.018050972 0.14564045 0.12656598
000020 2b 5c 1c 3e 79 7f 37 bd e8 49 4e bc 3d 6e 86 3e
       0.15269534 -0.0447993 -0.012590863 0.2625598
000030 f0 f6 73 bd 67 f1 82 be af 3f 70 be 23 9e 80 3d
       -0.05956167 -0.255748 -0.23461793 0.06280162
000040 e3 71 27 3e 21 1b 72 3e d7 c0 4f 3e ef 7a 96 bd
       0.16352038 0.23643161 0.20288406 -0.073476665
000050 54 01 0e 3e 00 22 89 be 1b e5 17 3e 58 9a fb 3a
       0.13867694 -0.26783752 0.1483349 0.0019195778
000060 6c 64 e0 bb 9c df 37 bd b2 d4 08 be 24 7d a2 ba
       -0.0068479087 -0.044890985 -0.13362387 -0.0012396914
000070 ee 41 85 3d 3c 6c 29 be 79 2d 49 3e 48 6e 83 bd
       0.06506716 -0.16545194 0.19646253 -0.06417519

convs.1.basis f4 [4, 32, 32]
000000 44 1c 89 bc 00 10 43 bd f2 b5 69 3d b4 f4 d9 bc
       -0.01673711 -0.04762268 0.057058282 -0.026605941
000010 f3 ce 93 3d 85 d2 0f bd a5 20 d3 bc 0c 13 29 bd
       0.07217207 -0.035112876 -0.025772402 -0.04127793
000020 c4 ce 27 3d f2 35 4d 3b 2b 5c a6 3d dd fd 04 bd
       0.04096867 0.0031312671 0.081230484 -0.032468665
000030 91 95 63 bd 9a 05 e6 3d b1 70 a7 3d 7e d6 cd bd
       -0.05556256 0.11231537 0.08175791 -0.10050677
000040 15 08 a5 bd c0 f1 01 3d 45 15 fc 3b fd 4d dd bc
       -0.08058182 0.03172469 0.007692965 -0.027014727
000050 4f 19 ae ba 26 be 8f 3d ba ac 33 3d fe b9 59 3d
       -0.0013282689 0.0701869 0.043865897 0.05315589
000060 d0 9a 33 3d 78 93 95 3d d8 ca 94 3b de 76 f5 3c
       0.043848813 0.07303518 0.0045407824 0.029963907
000070 c9 59 bd bb 43 4b 75 bc bb a8 b6 3c 86 c9 65 bd
       -0.0057785255 -0.014971557 0.022297254 -0.05610039
000080 a3 cb 0f bd 39 dc ae 3c dd 93 2a bd 79 c5 bd bd
       -0.035106312 0.021345245 -0.04164492 -0.092661805
000090 77 c0 35 bd d8 56 f2 3c 3d ec a0 bd a7 a7 d6 bb
       -0.044373002 0.029582426 -0.07857559 -0.0065507474
0000a0 2e 55 4a bd 54 f7 85 bd 7e 1b 6f 3d 67 c2 c2 bd
       -0.04939764 -0.06541315 0.058375828 -0.095097356
0000b0 83 8b d2 3c 7b 5e b3 3d 85 d4 9e bd 39 a3 0b 3e
       0.02570129 0.08758255 -0.07755379 0.13636483
0000c0 20 8f 5e bd 24 1e e9 3c 34 b1 89 bc 89 db 8c 3d
       -0.054335713 0.028456755 -0.01680813 0.068778105
0000d0 a1 b8 e5 3a 61 25 06 bd b7 e3 62 3c 70 56 9e 3d
       0.0017526337 -0.03275049 0.013848237 0.077313304
0000e0 69 b4 8d 3d df cc 35 bd a9 72 6e bd de 41 c0 bd
       0.06919176 -0.044384833 -0.058214817 -0.09387563
0000f0 ed 63 52 bb 80 b7 37 bd 57 34 10 3c 41 af 8c 3d
       -0.0032103017 -0.044852734 0.008801541 0.068693645
000100 b5 eb 02 3e ee 3a 5d 3d 14 91 a4 3d c9 fc c7 bc
       0.12785228 0.054011278 0.08035484 -0.02441253
000110 84 50 0b bd 63 5f 85 bd a8 77 f3 3d ee 20 1d be
       -0.034012333 -0.06512334 0.11888057 -0.15344593
000120 e7 f1 af ba 4c 87 87 bd 84 8b a1 3d 3e 6c 3c 3d
       -0.0013423533 -0.06617603 0.078879386 0.046001665
000130 a2 2b 86 bd 75 70 8e bd d4 af c1 3c 14 19 17 be
       -0.06551291 -0.06955043 0.023643412 -0.1475566
000140 63 d7 20 bd 73 70 be bd ae 6b 73 3d d4 97 d8 bc
       -0.03926791 -0.09298792 0.059428863 -0.026439585
000150 4d 7c 95 bc 2f b6 29 3c c1 b0 92 bd 9f 43 9c 3d
       -0.018247748 0.010358377 -0.071626194 0.07630085
000160 31 f3 a1 bd cd f6 81 bd e2 55 8f 3d 72 fa 2e 3d
       -0.07907713 -0.06345902 0.06998803 0.042719312
000170 16 0e 60 3c 30 55 b3 bc 00 be 18 bd 9a f6 9d bd
       0.013675233 -0.021891207 -0.037290573 -0.07713051
000180 88 bc ab bd 4b fe a8 bd bb d2 54 3d 35 b2 70 3d
       -0.08385569 -0.082516275 0.05195878 0.0587637
000190 a3 bc 38 3d f7 33 6b 3c 4e b5 2f bc f3 2c 32 3c
       0.045101773 0.014355651 -0.010724379 0.010874975
0001a0 16 ce ce ba 13 6b 1b 3b f5 5c 59 bc 5c 8b c3 bb
       -0.0015777971 0.0023714944 -0.013266792 -0.0059675407
0001b0 72 5f 15 bc 8b 5d 0d bd 7c ac 14 bd b6 bf 88 3d
       -0.009116994 -0.034513038 -0.036297306 0.06677191
0001c0 78 c9 98 3d cd 1f 93 bd f1 a4 36 3c f9 7a 58 bd
       0.07460302 -0.071838 0.0111477235 -0.05285165
0001d0 6e 13 98 3d 0a 7e 4f 3d 9c 8b 8f bc ef 64 74 bc
       0.07425581 0.05065731 -0.017522626 -0.014916643
0001e0 a4 70 72 bd 57 cb 6b bc e2 13 43 3c 9e 57 ab 3c
       -0.059189454 -0.014391742 0.011906596 0.020915803
0001f0 08 aa 6b 3d 6a 8a 95 bb c5 44 af 3a de 55 35 bc
       0.0575352 -0.0045636194 0.0013371935 -0.011067836
000200 0f 03 0b 3e 76 89 81 bc 9a 2d 17 3d 9a 11 cc 3d
       0.13575386 -0.015812617 0.036908723 0.09964295
000210 a7 c9 94 bb 4c 3e 56 bd 81 48 c8 3b 5c 67 d3 bd
       -0.0045406404 -0.052305505 0.0061121588 -0.103224486
000220 2f 8d 75 3d a4 da a9 3c 94 72 f6 3d 2d 76 3c bd
       0.059949096 0.020734139 0.12033573 -0.04601114
000230 0e 20 20 3c 6e 5b 90 bb 9e ab cb 3d 50 46 fe bc
       0.009773267 -0.0044054305 0.09944843 -0.031039387
000240 35 88 ff 3c a3 51 54 3c 21 f0 4f bd 32 28 3e 3d
       0.031192878 0.012958917 -0.050766114 0.046425052
000250 af 5c 57 3d 43 ec e9 bc c2 82 a0 3d 1d e5 b7 bd
       0.052578624 -0.028555041 0.0783744 -0.08979247
000260 ad 8b 92 bd 40 69 d1 3b 99 a2 bc bc 44 a9 aa 3d
       -0.07155547 0.0063907206 -0.023026751 0.08333066
000270 d7 83 9c bd c7 95 98 3d 18 7a 81 bd e5 25 2b 3a
       -0.07642334 0.07450443 -0.06322116 0.0006528779
000280 6d eb 7d 3c d6 0c 88 bd 50 b9 29 bd 7f ac e9 bc
       0.015498024 -0.06643073 -0.041436493 -0.028524635
000290 d8 e8 a2 3d 1a af 13 bd 76 b4 64 3c 6c 59 03 bd
       0.07954568 -0.03605566 0.013959041 -0.0320677
0002a0 97 c6 a2 3d 82 f3 8b bd d5 43 3c bb 6f 43 19 bc
       0.07948034 -0.06833555 -0.0028726954 -0.009354456
0002b0 bd a4 f6 bc 6b 1d 75 3d ff 08 68 3b 1b dc d7 3d
       -0.03010785 0.05984251 0.0035405753 0.10540029
0002c0 c9 e3 8d 3d 03 27 52 3b a0 eb 18 bd 19 fd f8 3c
       0.06928212 0.003206671 -0.037334085 0.030394124
0002d0 88 8d d4 3d 75 85 2f bd 1a 8e d5 3c 53 2c 12 3d
       0.103785574 -0.042851884 0.026068736 0.035686802
0002e0 f1 c3 16 bb eb c7 a3 3d c7 59 09 3d ae ee 00 3d
       -0.0023004974 0.07997116 0.033532884 0.031477623
0002f0 ff 67 b7 3d 13 f1 ad bc 46 19 1d bc fd c0 95 3c
       0.089553826 -0.021233117 -0.009588545 0.0182805
000300 1c f9 e7 bc 75 1d ac bd 2a a2 e7 bd c3 de 24 3d
       -0.028317027 -0.08404056 -0.11310227 0.040251505
000310 0a 90 2f 3d 1c 4b 6b 3d cc 07 ec 3c 2f b2 d0 bd
       0.042861976 0.057444677 0.028812312 -0.10190236
000320 8b bf 21 bc a2 83 32 bd ae 8f 90 3d 87 36 e5 bb
       -0.009872328 -0.043582566 0.07058655 -0.0069950256
000330 bc f5 68 bc f4 e0 2a bd a8 53 d9 3c 46 ea 05 be
       -0.014218744 -0.04171844 0.026529148 -0.1307765
000340 70 36 93 bd b7 1f 90 3d d3 bd a1 3d ea eb 08 3d
       -0.071881175 0.07037299 0.07897534 0.03342811
000350 6c ea 2a 3d b7 8e 96 3d 23 3a 48 3d be 83 8b 3c
       0.04172747 0.073514394 0.04888357 0.017030593
000360 a1 37 7c bd 1c d6 c3 bd 03 82 b7 bc c0 37 d8 3d
       -0.06157649 -0.095623225 -0.022400862 0.105575085
000370 1b 1c cf bd 69 a5 79 bd 47 f3 69 3c 0c 54 73 3d
       -0.101127826 -0.060948763 0.014279193 0.059406325
000380 f5 aa bc bd 1a 60 dc 3d 18 a7 47 3c 7a f8 17 bd
       -0.09212295 0.107605174 0.012185834 -0.0371022
000390 3a 73 e2 bc 58 f8 f2 3c 84 c4 08 be 28 9a 98 3c
       -0.027642835 0.029659435 -0.13356215 0.018628195
0003a0 ce 84 9a bd 4f f1 83 3d 5a e4 04 bd 22 c5 e5 bd
       -0.07544862 0.0644251 -0.032444336 -0.11219241
0003b0 81 37 5b 3d 8e 6b 39 bd 03 9e 9f 3d b7 c4 a1 3b
       0.05351973 -0.045268588 0.0779381 0.0049367803
0003c0 4a 89 2d bd 5c a7 c6 3d df da f2 bd 37 4f 24 3d
       -0.042367257 0.0969989 -0.118581526 0.040114608
0003d0 a8 9a 1e 3d ac d9 a7 bd 46 5d 87 3d 73 a5 8e 3a
       0.03872171 -0.081958145 0.06609587 0.0010883048
0003e0 a6 30 26 bd df 65 3c bd bc 47 b1 3d 1a 0f 3d bd
       -0.04057374 -0.04599559 0.0865626 -0.04615698
0003f0 e6 82 63 3d 52 f2 58 3c ed 79 cc 3b 85 9f c4 3c
       0.055544756 0.013241367 0.0062401206 0.024001846

convs.1.att f4 [10, 4]
000000 cc 13 2b 3d f1 21 9f 3b 87 11 20 be b7 c1 69 bd
       0.041766927 0.004856341 -0.15631686 -0.057069506
000010 b5 cd 9d 3d e8 7f 4c 3d 31 a3 39 be 64 3c 67 bb
       0.07705251 0.04992667 -0.18128659 -0.0035283798
000020 1c e4 ea 3d a1 8a 91 3d bc 28 20 be 95 bd 29 bb
       0.1146929 0.071065195 -0.15640539 -0.0025900353
000030 dc 35 de 3d 6f bf 16 3d e4 fe df bd a9 e8 dd bd
       0.108501166 0.03680366 -0.109372884 -0.10835392
000040 0f c3 f1 3d e2 8a b6 3b 97 69 38 bd 9f b6 79 bd
       0.118047826 0.0055707553 -0.045022573 -0.060965177
000050 c5 89 14 bd 43 53 3b 3d 88 26 18 bd c2 cc 9e bd
       -0.0362642 0.0457337 -0.03714612 -0.07753898
000060 93 dd 08 3c e8 0d a5 bd 86 76 42 bd a0 07 f3 3c
       0.008353609 -0.08059293 -0.047476314 0.029666722
000070 26 9e a7 3c 55 76 7f bd c2 f5 24 3d 72 55 06 3d
       0.020461153 -0.06236871 0.040273435 0.03279633
000080 4e e5 40 bd 3b f7 1f 3d 77 02 a9 3c 50 d0 79 3d
       -0.047093682 0.039054137 0.020631058 0.060989678
000090 42 f6 5b bd 4d 40 8b bd 9b 24 35 3d 8d 74 ad b9
       -0.053701647 -0.06799374 0.044224363 -0.00033083968

convs.1.root f4 [32, 32]
000000 8c 4c 5a bd 37 97 92 3c fb 72 d3 bc 22 a3 b2 3c
       -0.053295657 0.01789437 -0.025811663 0.021806303
000010 25 4b df bc c2 43 12 bd 74 96 16 be ac 37 50 3d
       -0.027257511 -0.03570915 -0.14705831 0.050834343
000020 3c 3f 6a 3a e7 d1 24 bd ea d4 7e 3d c3 03 2f bd
       0.0008935814 -0.04023924 0.06221477 -0.042728197
000030 90 73 b3 bd 92 c7 07 bb ed dd 56 bb fa a4 78 3d
       -0.08762276 -0.0020718318 -0.0032786087 0.06070421
000040 7f c4 71 3d cd 4d 21 bd bd 9f ec bd 34 df 49 b9
       0.059025284 -0.039380837 -0.11553905 -0.00019252003
000050 3b 25 d0 3c f1 12 0d 3c 11 f4 48 3d 08 59 67 3c
       0.025408378 0.008610473 0.049060885 0.014120348
000060 4b 47 af bd 2d 3d bb bc f7 cb 08 bc 54 1d 71 3d
       -0.0855852 -0.02285632 -0.00834941 0.05886586
000070 e5 d9 98 bd ee cd 77 bd cd af 52 3c a6 e0 a7 3d
       -0.07463435 -0.060499124 0.012859297 0.08197145
000080 0f 1d 23 bd 46 63 6b 3c e3 4b 80 3d e6 19 90 bd
       -0.039822634 0.01436693 0.06264474 -0.0703619
000090 6f 76 06 3d 40 6e 5b 3b 27 76 34 3d 5b 52 9f 3d
       0.03282779 0.0033482462 0.04405799 0.0777938
0000a0 b5 2d ad 3d 09 e8 93 bd 39 0c f0 3c 77 d9 13 bc
       0.084559835 -0.072219916 0.029302703 -0.009024016
0000b0 bb bd 06 be 81 3f af bd a6 53 19 3d e4 96 0c bd
       -0.13158314 -0.08557034 0.03743329 -0.034323588
0000c0 92 52 06 3c 82 e3 d2 3b 0c c2 e3 3c 65 74 65 3d
       0.008198397 0.0064358125 0.02780249 0.056019206
0000d0 94 fb b9 bc db 0e 02 3d 4a 2a 39 3d eb 29 ed bd
       -0.02270297 0.03175245 0.045206346 -0.11580261
0000e0 93 3e c9 3c b9 fa 25 3c ac 82 cd 3d 5c 0e 68 bd
       0.02456597 0.010130578 0.10034689 -0.05665432
0000f0 1d af 69 bd 23 2e bb bc 7a 8f 05 bc 7c a3 58 3d
       -0.057051767 -0.022849148 -0.008151883 0.052890286
000100 2e be bf bc d5 17 6e bc d6 1c 7d 3d 8c 29 1c bc
       -0.023406114 -0.014532049 0.06179508 -0.00953139
000110 a5 12 d8 bc de 93 b9 bd af 08 bd 3d 79 76 c7 3d
       -0.026376078 -0.090614066 0.09230172 0.09739394
000120 cf 4b 28 3c 68 ee f9 bc 78 fa 65 3c a0 92 84 bd
       0.01027198 -0.030509189 0.014036767 -0.06473279
000130 bc 81 1b 3c a1 f7 43 bd c2 07 3c bc 9d 8b 4f bd
       0.00949138 -0.04784358 -0.011476459 -0.050670255
000140 ea 9b 05 bb 1e 70 8b bd a9 2e ad bd ad 36 7c bd
       -0.0020387121 -0.06808494 -0.08456165 -0.06157558
000150 3c 25 9f bd ad 0e 4c bb de fb 70 3d 3e e7 26 3d
       -0.07770774 -0.0031136677 0.05883395 0.040747873
000160 96 06 0a 3d 7f ef 78 bc 5d 3b 81 3d b0 f4 e0 bc
       0.033697687 -0.015193819 0.06310151 -0.027460426
000170 b2 99 e2 3c 0b 26 be bc 49 08 3f bd 11 77 d2 3b
       0.027661178 -0.0232115 -0.04663876 0.006422885
000180 b3 b2 b7 3d e9 71 83 3d 51 8b 81 bc e3 33 59 bd
       0.08969631 0.06418211 -0.015813502 -0.053028
000190 95 f7 83 bd 58 ff 85 3d 86 aa a5 3c 2e 58 80 bd
       -0.06443707 0.065428436 0.020222913 -0.06266819
0001a0 69 fc 7c bd bb a2 2f 3d bc 69 b9 3d 9f 08 a3 3d
       -0.061764155 0.0428798 0.0905337 0.07960629
0001b0 06 ca 82 3d 70 c2 48 bd c1 3c f4 bc b1 c8 4e 3d
       0.06386189 -0.049013555 -0.029814126 0.050484363
0001c0 4b 25 32 3d fb dc aa bd 07 c5 bb 3d d3 74 14 3d
       0.043492597 -0.0834293 0.09168439 0.036244225
0001d0 41 06 9d bc bb b1 14 3d 40 66 9d 3d 26 09 8d 3c
       -0.019168021 0.03630231 0.07685518 0.017216276
0001e0 d7 27 f1 bc 11 c9 23 3d 2d 34 b1 3d d3 b0 bf 3d
       -0.029437942 0.039986674 0.0865253 0.093598984
0001f0 6f 73 8d 3d 32 47 a6 bd fe 47 85 bc c8 ed 61 3d
       0.06906783 -0.08119048 -0.01626968 0.055158406
000200 8c 58 a6 3c 11 fe d9 3d b5 5b cf 3b 58 f6 c4 bd
       0.020305894 0.106441624 0.006328071 -0.09617299
000210 26 da 83 3d 24 6c 60 3d 3a a7 33 3c 82 94 59 bd
       0.06438093 0.05479063 0.010965163 -0.053120144
000220 dd 2b d6 bc dd 5d 38 bd 57 34 42 bd ac 2f 35 bd
       -0.026143963 -0.04501139 -0.047413196 -0.044234917
000230 81 1b f0 3d 8d 10 4e 3d dd bb 04 bd f6 5d ae 3c
       0.11723996 0.050308753 -0.032405723 0.021285038
000240 dd d4 f4 3c b7 c5 27 bd 78 96 92 bd 96 63 d3 3c
       0.029886657 -0.04096004 -0.07157606 0.025804322
000250 6c 89 9d 3d be 71 bf 3c 6c d2 57 3d 3f aa ae bc
       0.07692227 0.023369666 0.05269091 -0.021321414
000260 5e 92 b6 3c dd 65 57 3d 28 ae 5d 3d 01 b5 d8 bc
       0.02228659 0.05258738 0.054121166 -0.026453497
000270 3d 5a 9e bd d6 e1 80 3b 5f 82 a7 3d 7e 86 9e bd
       -0.07732055 0.0039331717 0.08179163 -0.07740496
000280 ce 4b bc 3d ea 45 38 3c 1f f6 9f 3d 20 63 a6 3d
       0.09194146 0.011247138 0.07810616 0.08124375
000290 48 e2 aa 3d f2 14 93 3c 02 45 1a bc c0 ce 9e 3d
       0.08343941 0.017954323 -0.009415867 0.07754278
0002a0 4f 0f 9f 3d ec ea 40 bb f8 fc bc 3d e5 b5 a9 bd
       0.07766592 -0.00294369 0.092279375 -0.08286647
0002b0 e2 ed 3d bd e4 a9 8a bd 5a dc 5e bb 38 5c 36 bd
       -0.04636944 -0.06770685 -0.0034005851 -0.04452154
0002c0 05 e4 f7 bd e7 9a 10 3d a8 2e 42 bd ba 72 5d 3d
       -0.12104038 0.035303976 -0.047407776 0.05406449
0002d0 26 2a 7d bd da 47 a3 3c f7 17 1b 3d 4f d8 7b bd
       -0.061807774 0.019931722 0.03786465 -0.061485585
0002e0 e3 1f 8a bd fe 0c 60 bd 6c db 07 3d b7 f9 c3 3d
       -0.06744363 -0.05469989 0.03316824 0.09569114
0002f0 ad f4 86 bd 6c d8 be bd 9a 10 c2 bb cf 0b 0c bd
       -0.06589637 -0.09318623 -0.005922389 -0.03419095
000300 69 6e 04 bc 0d e9 8d 3b b9 19 31 3d 00 b1 a3 bb
       -0.008082964 0.0043307603 0.04323742 -0.0049954653
000310 62 ae aa bd 01 f4 98 bc da e4 02 bd 1d 53 5a bd
       -0.08334042 -0.018671038 -0.03195653 -0.05330192
000320 74 66 a0 3d 34 10 41 bd 1c 00 88 3c c3 18 6b 3d
       0.078320414 -0.047134593 0.016601615 0.05739666
000330 48 2f 3b bd 2f 4e 01 3d 09 22 83 bd 0d 48 05 3d
       -0.045699388 0.031568702 -0.06402976 0.032539416
000340 86 dc 88 bc 13 20 51 bd e1 64 c7 bd de 82 2d bd
       -0.016706716 -0.05105598 -0.09736038 -0.042361133
000350 1f ed ed bc 42 a7 bb 3d ac f7 96 3d 30 b9 8e bd
       -0.029043732 0.09162761 0.073714584 -0.069689155
000360 54 6e 15 39 50 1e d0 3c 09 54 4b bd 3a 37 49 bd
       0.00014250848 0.02540508 -0.04964069 -0.049124934
000370 e1 c0 fb bc 66 dd ad 3d 1f 21 17 3c 09 71 9f 3d
       -0.03073162 0.08489494 0.009224205 0.077852316
000380 1f b8 10 3d 83 3b 34 3d bf f8 57 bd 32 bf 08 bc
       0.03533184 0.044002067 -0.052727457 -0.008346366
000390 67 f7 68 bd 9e 4e 56 bd 31 fd d5 bd 84 d6 be bd
       -0.056876566 -0.05232107 -0.10448683 -0.09318259
0003a0 0c e0 ea ba 33 f5 6b 3d 54 4e e5 3c 0d eb ed bc
       -0.0017919554 0.057606887 0.027991451 -0.029042745
0003b0 df 2c f1 3c 20 33 c8 3d f0 1b b3 bd 4e 1f a8 bd
       0.029440342 0.09775376 -0.08745563 -0.08209096
0003c0 ba 52 da bc 50 82 cd 3b ca 44 9f 3d ab 26 47 3d
       -0.026650775 0.006271638 0.07776792 0.04862086
0003d0 d3 68 60 3d d6 5f 3c 3c 51 16 2a bd 4e b5 1c 3b
       0.05478747 0.011497458 -0.04152519 0.0023911777
0003e0 bd c2 55 bd 88 79 c6 bb 8d d1 ad bc ca 98 f2 3b
       -0.05218767 -0.006056968 -0.021218086 0.007403468
0003f0 95 eb 20 3d 02 4f a4 3c 14 5c 2c bd 80 65 1c bd
       0.03928717 0.020057205 -0.04208 -0.038182735

convs.1.bias f4 [32]
000000 1b 84 1b bd 8d c6 92 bd 2c 7a f4 bc fe 3c 52 bd
       -0.037967782 -0.07166777 -0.029843412 -0.051327698
000010 57 2c 1f bd 09 9b b5 bd ea 5d b1 bd 25 33 1a 3b
       -0.038860645 -0.08867461 -0.08660491 0.002352902
000020 de 62 34 3a 27 07 b6 bc 2f eb 66 3d 44 fb ba bd
       0.00068811874 -0.022220207 0.056376632 -0.09129956
000030 25 b3 ad bd d4 81 b0 3d 16 b0 d9 3d 01 8d 96 3d
       -0.08481435 0.08618513 0.10629289 0.07351113
000040 0d 88 d0 bc 90 cc bb 3d e6 94 33 3d af 2a 86 3d
       -0.025455499 0.091698766 0.043843172 0.0655111
000050 ff e5 17 bd 87 16 6a bd f1 8d 38 bc 18 03 a8 bd
       -0.037084576 -0.05715039 -0.01126431 -0.08203715
000060 9e ad 71 bd 6a 57 88 3d d6 02 af 3c eb b4 86 bd
       -0.059003465 0.06657298 0.021363657 -0.06577476
000070 84 fa bf bd 8c 9a 1e 3d c6 ed 4e bd 00 9c 60 3d
       -0.09373954 0.038721606 -0.050519727 0.054836273

convs.2.basis f4 [4, 32, 32]
000000 27 b5 37 3d e1 14 44 bd 49 59 c3 3c 14 dd dc 3c
       0.044850495 -0.047871474 0.023846285 0.026960887
000010 42 d7 87 bd 59 01 f5 bc 82 15 39 3d a4 f1 ae bb
       -0.06632854 -0.02990787 0.045186527 -0.0053388644
000020 61 e2 a0 3c 8d 75 bf 3c 81 94 9c bd 40 f2 c7 ba
       0.019639196 0.023371482 -0.07645512 -0.0015254691
000030 8a 44 39 3d 19 db 15 3c 3c 01 47 3d 5f f2 08 3c
       0.04523138 0.009146475 0.04858516 0.008358567
000040 a1 7f c3 bb a5 ce 85 3d 3a 40 82 bd 5c 75 0b 3d
       -0.0059661423 0.06533555 -0.063599065 0.03404747
000050 c4 a3 0c bd 84 3a b0 bc 1b 5d 8c 3d 0d 57 aa bd
       -0.034335867 -0.021512277 0.06853696 -0.08317385
000060 2a 1e 0b bd 80 15 87 bd 86 3a 17 3d ce 7a 9e bc
       -0.033964314 -0.06595898 0.036921047 -0.019345667
000070 a6 dd 42 bd 74 00 74 bc 1f ca 4b bc da 8d 8b bd
       -0.04757466 -0.014892686 -0.012438326 -0.068141654
000080 59 d2 24 bd 77 1d d1 3d bd 2c 9a 3d 06 e1 91 bd
       -0.040239666 0.10210698 0.075280644 -0.07122998
000090 2d 8e 0f bd 32 67 6d bd a9 99 5d bd b3 5b 8e 3d
       -0.0350477 -0.057959743 -0.05410162 0.06951084
0000a0 b8 c3 89 3d 56 8d 09 bd e1 25 71 3d 4f 96 4a bc
       0.067267835 -0.033582054 0.058874015 -0.012364938
0000b0 76 c9 d4 ba ab eb 5d bd 12 a3 5c bd e1 1f a4 3d
       -0.0016234356 -0.05417983 -0.053866453 0.08013893
0000c0 c9 7a 73 bd 39 c5 1f bb f0 49 83 bd a9 d1 a7 3d
       -0.05944327 -0.0024379028 -0.06410587 0.081942864
0000d0 0e 9f 62 3d 7e d3 7d 3c d0 6d c3 bc 0f 40 35 bb
       0.055327468 0.015492318 -0.023856074 -0.002765659
0000e0 b1 00 01 bd 48 cf 26 3c cf 3f d7 bc 36 de 63 3d
       -0.0314948 0.010181256 -0.026275543 0.05563184
0000f0 fb 5f 79 3d 28 b2 db bc 18 13 84 bd c1 02 6f 3b
       0.06088255 -0.02681835 -0.06448954 0.0036470147
000100 16 7f 4e bd 52 4f fe 3a f8 34 8a bd 22 f8 0e 3d
       -0.050414167 0.0019402301 -0.06748384 0.034904607
000110 3c 50 07 bc 21 54 9e bd 74 d0 7d 3c fc e5 0f 3d
       -0.008258875 -0.0773089 0.015491594 0.03513144
000120 73 f3 57 bd e5 4e ae 3d e7 dd 80 3c 45 a2 7c 3d
       -0.052722406 0.08511142 0.015730811 0.06167819
000130 c4 05 c3 bc f7 18 58 3d 98 48 9b 3d 08 c7 58 bd
       -0.02380646 0.052758183 0.075822055 -0.052924186
000140 29 ff 2f 3c 98 80 8d 3d ff a7 72 3d 36 e7 04 3b
       0.010741987 0.06909293 0.059242245 0.0020279414
000150 e3 89 72 3d c2 34 a7 3d 93 a4 0e 3d f8 aa 0b 3d
       0.05921353 0.0816436 0.03482492 0.034098595
000160 53 e2 b8 3c cb ee a7 3c 93 1d b3 bd eb 70 eb 3b
       0.022568857 0.020499608 -0.08745875 0.0071850917
000170 09 d1 d3 3c 34 83 af 3c 1d 67 b7 bc 65 bb bf bc
       0.025856512 0.021424867 -0.022388035 -0.023404786
000180 22 66 27 bd e1 64 62 bd ce 3a 46 3d b5 cb 58 3d
       -0.040868886 -0.055271987 0.048395924 0.052928645
000190 c0 da 79 3d 8d 86 c0 3b 00 f9 82 3d c1 f9 9c 3d
       0.060999632 0.0058754147 0.06395149 0.07664824
0001a0 9d c0 ab bd a7 a5 96 bd 66 73 55 bc d6 ac 83 3d
       -0.083863474 -0.073558144 -0.013028001 0.0642945
0001b0 0b b7 00 3c e0 83 a0 bd 3c 21 9c bd 82 c7 ba 3c
       0.007856141 -0.07837653 -0.076235265 0.02280021
0001c0 2f 60 fc bc 6a 6a 25 bd 64 2c a2 3d 99 ff dd bc
       -0.030807583 -0.040384687 0.07918623 -0.027099418
0001d0 81 63 4a bc f1 c8 a8 bd 0a 32 20 bd a0 95 2b 3d
       -0.012352825 -0.082414515 -0.03911022 0.04189074
0001e0 77 8a 41 bd 31 90 16 bd 76 1c 4b bd 68 d4 c4 bb
       -0.04725119 -0.036758605 -0.04958769 -0.006006766
0001f0 08 6c bf 3a b5 72 e3 bc d1 0e 6e bd 12 13 df 3c
       0.0014604339 -0.027764658 -0.0581196 0.027230773
000200 02 39 89 3d 15 1e 53 3d fe b7 7a bd f4 11 39 bd
       0.067003265 0.05154236 -0.061210625 -0.045183137
000210 da d8 0e 3d d8 94 9c bd 86 c6 99 bd ad fd 7a 3d
       0.034874775 -0.07645577 -0.075085685 0.06127708
000220 d8 06 82 bd d1 0b 4a bd 54 7b 8c bd 6b 11 69 bd
       -0.063489616 -0.049327675 -0.068594605 -0.056901377
000230 ca d9 44 bc 9b ab 7e bd c0 fb 61 bc 93 5b d5 3c
       -0.012014816 -0.062175374 -0.013792932 0.026044643
000240 e1 3d 32 3d de d2 72 3c 46 4b 77 bd 22 91 8e 3d
       0.043516044 0.0148207825 -0.06037452 0.06961276
000250 fa b6 83 3c b2 81 bb 3d 1d eb dd bc 22 d8 c1 3c
       0.016078461 0.09155597 -0.02708965 0.02366263
000260 ff d7 4c bd 23 4b b2 ba 89 05 86 bb 17 56 77 bd
       -0.050010677 -0.0013602715 -0.0040900153 -0.060384836
000270 49 38 bb 3c 81 75 e2 bc 3e e6 14 bd 8b 7f 65 bd
       0.022853987 -0.02764392 -0.03635239 -0.056029838
000280 65 49 79 3c 17 b3 dd bb 7f 08 2f 3d b6 12 bc bb
       0.0152152525 -0.006765734 0.042732712 -0.005739535
000290 44 3c 32 bd c5 33 2a 3d a9 33 6e 3d c1 e5 b0 bc
       -0.043514505 0.041553278 0.058154736 -0.02159393
0002a0 a2 5d ab 3c 5e 4a 83 3d c5 c0 63 bb 40 73 36 3b
       0.020918671 0.06410669 -0.003475235 0.002783969
0002b0 64 26 2c bd dd b4 20 3b 37 c3 9a 3d f0 2e a0 3d
       -0.0420288 0.0024521865 0.075567655 0.078214526
0002c0 5c 32 d6 bc d3 67 93 3d fd a5 ae 3d f5 64 56 3c
       -0.02614706 0.07197537 0.085277535 0.0130855935
0002d0 e4 87 0f 3c 09 16 2c bd a9 5c f0 bc 18 30 bb 3c
       0.008760426 -0.0420132 -0.029341059 0.022850081
0002e0 6d 09 14 3d 8e 84 91 3c b7 17 02 3d 21 33 6b 3d
       0.0361418 0.017763402 0.031760897 0.057421807
0002f0 28 c1 89 bd 67 63 3f 3d 8e 13 e9 3c 4e 32 a1 3c
       -0.06726295 0.046725657 0.028451707 0.019677307
000300 6a c4 5a bd de a1 68 bb b8 ba 76 bd ab 37 77 3d
       -0.05340997 -0.003549687 -0.060236663 0.060355823
000310 8b 46 b5 3d d3 56 f1 bc 94 b6 47 bc 23 d5 74 bd
       0.08851346 -0.029460346 -0.012189526 -0.059773576
000320 5c e3 64 bc a3 7e 8e bc ab f5 4d bd 9d fe 8f 3d
       -0.013970222 -0.01739437 -0.050283115 0.070309855
000330 5c c5 88 bc ea a2 c3 bd 45 2d 72 bc c3 b5 fa 3c
       -0.01669567 -0.09552558 -0.014781301 0.030604249
000340 85 92 02 3d 1b 4d f8 3c cb 3d 4a bb f3 aa 06 3c
       0.031878013 0.030310204 -0.0030859585 0.008219468
000350 2e 4e a4 3b 98 98 ea bc fe db 92 3d da 98 24 bd
       0.0050142026 -0.028637215 0.071708664 -0.040184833
000360 51 ad 12 3d 28 a8 a7 3d 35 db d8 bc 4a d8 4f bd
       0.03580982 0.0818637 -0.026471714 -0.05074338
000370 b7 eb 66 bd bc fc 97 bd 00 70 18 3d f5 2a 8b bd
       -0.05637714 -0.07421252 0.037216187 -0.06795303
000380 c2 9d 18 3d 64 72 4a 3d ef cc fa 3c 5b 15 29 3d
       0.037259825 0.049425498 0.030615298 0.04128013
000390 f9 81 95 3c c4 a9 0a 37 9a 65 9d 3d 28 23 ab 3c
       0.018250452 8.264968e-06 0.076853946 0.020890787
0003a0 54 7e af bd cc 60 28 3c 4f ae 8e 3c 94 1f a9 3d
       -0.08569017 0.010276984 0.017417101 0.08257976
0003b0 9d c0 ca b8 dc 1d a8 bc 37 d8 48 bd b9 ff 3f bd
       -9.6679876e-05 -0.02052205 -0.049034324 -0.046874736
0003c0 ea af d1 bd 45 fb 75 3d bf 36 d8 bc 9f 88 2b bd
       -0.10238631 0.060054082 -0.026393292 -0.04187834
0003d0 96 43 b5 3b 7e 1f 02 3d e2 42 0d bd 4e 37 a0 bc
       0.0055317385 0.031768315 -0.034487613 -0.019557621
0003e0 f2 72 11 3d 5d 28 50 3d 23 49 bb bc 7c d8 3c 3d
       0.03551001 0.050819743 -0.022862023 0.046104893
0003f0 3d 67 c1 3d d1 98 20 3d fe 7c 58 bd 18 f3 4c bd
       0.09443519 0.039208237 -0.052853577 -0.05003652

convs.2.att f4 [10, 4]
000000 36 9b 9e ba a8 83 b1 bc ee 78 57 3d 40 48 18 bd
       -0.00121007 -0.021669224 0.052605562 -0.037178278
000010 95 d7 51 3d 5d 2a 62 3d 98 e5 9e 3d 0c 7c 5b 3d
       0.051230986 0.055216182 0.07758635 0.053585097
000020 e9 a2 14 3d 58 f2 05 bd c6 a6 5b 3d b8 58 b4 bc
       0.036288176 -0.03270182 0.053625844 -0.02201496
000030 a9 90 1a 3d 74 d5 26 3d be 82 9d 3c 4e 81 03 3c
       0.037735615 0.04073091 0.019227382 0.008026434
000040 8d 61 60 bd d8 b9 92 bd 82 5d 36 bd c2 26 a0 bd
       -0.05478053 -0.07164353 -0.04452277 -0.078198925
000050 ce bb 57 bc be 94 3e 3b d2 b6 7b bd 81 26 5a bd
       -0.013167335 0.0029080356 -0.061453648 -0.053259376
000060 48 bd ea 3c 37 a8 3d 3b d1 de 89 3c b9 14 35 3d
       0.02865471 0.0028939375 0.01682988 0.044209216
000070 06 d9 56 bd a5 e7 14 3d c4 fc 2e 3c 0c 45 56 bd
       -0.052453063 0.036353726 0.010680381 -0.052311942
000080 9a f1 86 3d 23 38 20 bd 51 99 db bc bc a9 3c bd
       0.065890506 -0.039116036 -0.026806505 -0.04606031
000090 98 2b 4d bd 92 3a 17 3d 55 0c 1c 3d fe 07 90 bd
       -0.050090402 0.03692109 0.0380977 -0.070327744

convs.2.root f4 [32, 32]
000000 2b 5b c3 bc 8c 54 f0 ba 53 44 49 3c 38 f7 66 3b
       -0.023847183 -0.0018335744 0.012284356 0.0035242569
000010 7b e8 bd 3c 77 69 3b bd 09 4c 88 bd fe b0 03 3c
       0.023182144 -0.045754876 -0.066551276 0.008037804
000020 2e 24 8d 3d 40 be 71 bd 0e 56 98 bc 90 c7 3b bc
       0.06891666 -0.059019327 -0.018595722 -0.011461154
000030 df 72 17 bc 70 21 a3 3d d7 0f 7c bd 2d 95 bf bd
       -0.009243696 0.07965362 -0.061538544 -0.09354625
000040 7d 0f 16 3d cc 6d c7 b6 d1 77 c4 bc 58 b4 03 3d
       0.036635865 -5.943444e-06 -0.023982914 0.03215441
000050 a6 4a 86 3c f6 14 d8 3c a8 ad 20 bc ce e2 68 3d
       0.016393017 0.026377182 -0.009807028 0.056856923
000060 12 9c 1a bd e7 64 8c bd 4c bc cb 3c 66 12 95 3c
       -0.037746496 -0.06855183 0.02487006 0.01819725
000070 b2 3f 12 3b 3f a8 ee 3c 57 70 d2 bc d4 2b f3 bc
       0.0022315797 0.02913296 -0.025688333 -0.029683985
000080 cb 57 cd bc 3c fd 6f 3c f5 75 66 bd a3 fc 79 3d
       -0.025066277 0.014647778 -0.056264836 0.06103195
000090 36 a5 e3 3c 1e ae 9a 3d c7 7b 73 bc 69 07 4d bd
       0.02778874 0.075527415 -0.014861054 -0.050055895
0000a0 bb da 01 3d da 47 7d bd a5 f4 bf bd 53 1c ab 3d
       0.03170274 -0.0618361 -0.09372834 0.08355012
0000b0 7b 31 a6 3d 1d 6f 5a 3d d8 55 8b 3d 63 ff 4a 3d
       0.081149064 0.053328622 0.06803483 0.049559962
0000c0 cf 97 69 3d 72 40 a8 bc b4 ad 78 bd c2 92 85 bd
       0.05702954 -0.020538542 -0.06071253 -0.065221325
0000d0 5c 21 3f bc b4 4c 18 bd c5 ab 57 bd 6a bd 9b bd
       -0.011665668 -0.037182525 -0.052654047 -0.07604487
0000e0 98 aa ce bd a1 4c 52 bd 3a b9 79 3d 72 6c 16 3c
       -0.10091132 -0.05134261 0.06096766 0.009181129
0000f0 6e cb 54 bd b0 25 f3 3c 8a 0f 9f bd 74 5e fe bc
       -0.05195182 0.029681057 -0.07766636 -0.031050898
000100 88 3f 8b 3c bd 28 71 bd fb 92 8b 3d ea d0 d8 3a
       0.016998067 -0.05887674 0.06815144 0.0016541753
000110 19 b9 70 bd e7 a1 89 bd 0a 10 38 bd ab b1 4e bc
       -0.058770273 -0.067203335 -0.04493717 -0.0126156015
000120 e4 0f b9 3d 56 60 58 bd c8 4f ac bd 61 a6 a8 bd
       0.09036234 -0.052826248 -0.084136546 -0.08234859
000130 22 29 97 bc 21 23 2c bd dd d2 32 bd 03 c8 64 bd
       -0.01845223 -0.04202569 -0.043658126 -0.05585481
000140 3f f3 31 3c a7 c1 b0 3d 23 b4 7b bc 2c cd 85 bd
       0.010861217 0.08630686 -0.015362772 -0.06533274
000150 db a9 9c bd a6 59 3f 3d 0b 40 a7 3c 74 75 8a 3d
       -0.07649585 0.046716355 0.02041628 0.06760684
000160 11 02 77 3d 27 bc 11 bd 83 8d 9d 3c e1 ff a8 3c
       0.060304705 -0.035579827 0.019232517 0.020629825
000170 09 19 85 3d 09 64 e3 bc 7e 71 1d bd 8c 4a 59 38
       0.06498916 -0.027757661 -0.038438313 5.180626e-05
000180 66 88 63 3d f6 a2 02 3d fd 05 b3 bd 80 09 96 3c
       0.05555 0.031893693 -0.087413765 0.018315077
000190 74 6b b4 3d 80 d5 40 bd 63 fa 5e bd bc 67 f0 3c
       0.088095576 -0.04707861 -0.054438006 0.02934634
0001a0 19 1a 93 3c fa 08 b7 3c be fb d6 bc a8 12 37 bc
       0.01795678 0.022343148 -0.026243087 -0.011173882
0001b0 5e 52 31 bd 56 c8 98 bd 45 a4 a3 bd e9 99 7c bd
       -0.043291442 -0.07460086 -0.07990316 -0.061670218
0001c0 f7 3c 81 bd 26 a4 9f 3d ba 5c 97 bd e0 cb 14 3c
       -0.06310456 0.07794981 -0.07390733 0.009081811
0001d0 db f9 b1 3d b5 12 00 bd ab 0c d1 bc 0e 78 94 bd
       0.08690234 -0.03126784 -0.025518736 -0.07249461
0001e0 0e 4f b2 3d 19 01 88 bd 8f ee 23 3d f4 6c 8f bd
       0.08706485 -0.06640834 0.04002243 -0.07003203
0001f0 c4 33 ad bd 59 3d 44 3d e1 e3 e9 bc 2e b6 fe 3d
       -0.08457139 0.04791007 -0.028551044 0.12437092
000200 be b2 09 3d 22 3d 9a 3d 0c 38 af 3d 4f 55 7b 3d
       0.033617727 0.075311914 0.08555612 0.061360653
000210 da f0 d3 3c 84 0b 8b bd 04 45 79 3d 2b df 7a 3d
       0.025871683 -0.06789306 0.060856834 0.061247986
000220 07 61 57 bd 92 d9 9b bb 70 06 60 bd e9 7d 4c 3d
       -0.052582767 -0.004756161 -0.05469364 0.049924765
000230 c8 4c ab 3d f6 27 db bc 53 26 5f bd fd 53 da 3c
       0.08364254 -0.026752453 -0.05447991 0.026651377
000240 66 b6 e4 3c 0a 56 c2 3d e0 bd ba 3d 15 d7 a4 bd
       0.027919006 0.09489067 0.09118247 -0.08048836
000250 83 9a 63 3d 96 fe 47 bd 85 90 84 3d ea 9e 7b bc
       0.055567276 -0.048826776 0.064728774 -0.015357712
000260 73 3b 18 bc be db 68 bd a3 a0 da bc 3f 48 59 3d
       -0.009291518 -0.056850187 -0.026687926 0.053047415
000270 58 90 92 bc 70 1a 8c bb 0f d2 11 3d 3a f7 94 bd
       -0.017891094 -0.0042756125 0.035600718 -0.07273717
000280 48 59 1c bd 36 f6 c1 bd f6 6c b2 bd 15 ea a8 3d
       -0.038171083 -0.09470789 -0.08712189 0.082477726
000290 5c 04 85 3d 8d 43 60 3d 4f 6c a5 bd 35 3c 3f bd
       0.06494972 0.05475192 -0.08077299 -0.046688277
0002a0 8e dd a3 3d 82 3f b1 3c dc c4 e8 3c e1 f5 6c bc
       0.080012426 0.021636728 0.028414182 -0.014462919
0002b0 2e 41 0f 3d fe a3 d3 bc 8d 76 89 bc 8b 65 00 bd
       0.03497427 -0.025835034 -0.016780162 -0.03134684
0002c0 bc 04 6b 3d 9b 1c 94 3d 85 e1 32 3c e7 89 37 bd
       0.057377562 0.072320186 0.010918026 -0.04480925
0002d0 5b 94 05 bd 4f ff 11 bd d6 da 0c 3d ea 6e 41 bd
       -0.032612186 -0.035643872 0.034388386 -0.047224917
0002e0 e4 89 9f bc 99 a1 4e bd 39 e6 aa 3d b8 bd 70 bd
       -0.019474931 -0.05044708 0.08344693 -0.05877468
0002f0 74 52 1d 3d 6f a5 e8 3b e5 e2 bf 3d f3 3a 21 bd
       0.03840871 0.0070997993 0.093694486 -0.03936286
000300 4b 32 38 3c 75 9c 04 3e 76 c7 ba bd 55 8e ae 3d
       0.0112424595 0.12950309 -0.091200754 0.085232414
000310 21 62 f0 3c ce b8 71 3d 41 4a 9d bd 7b 66 05 bc
       0.029343667 0.059014134 -0.076801784 -0.008142109
000320 1e 0a a7 3c ba b3 b7 bb 62 db fa bd a0 cc fc bd
       0.020390566 -0.005606142 -0.12248875 -0.123437166
000330 29 7d dd 3c 5d 01 8c 3c cd a5 d0 bd 5b 3f 80 bc
       0.02703722 0.017090494 -0.10187874 -0.01565521
000340 1b f8 f9 3d d3 53 fa bb 19 1a 8a bd 7e aa 83 bc
       0.122055255 -0.007639387 -0.06743259 -0.016072508
000350 18 aa 6e 3d 3c 43 1b 3e 1c 29 42 3d b9 cc 26 3d
       0.058267683 0.15162367 0.047402486 0.040722582
000360 1a 01 1e 3e a3 78 20 bd a2 c8 af bd 62 54 7b 3c
       0.15430108 -0.03917755 -0.085831895 0.015339943
000370 85 7f 42 bd 2c 4c fd 3a 60 89 28 bb ab d7 c0 3d
       -0.047484893 0.0019325069 -0.0025716648 0.094161354
000380 76 82 b5 bc 97 16 58 bd 1d 03 8a 3d a5 aa 19 3d
       -0.022156935 -0.05275592 0.06738875 0.037516255
000390 c2 66 0a 3d b4 af a9 bd 62 e4 ba bc 06 20 42 bd
       0.033789404 -0.08285466 -0.02281398 -0.04739382
0003a0 17 b6 ac 3d d2 e8 ba 3c 62 99 4b bc 8e f6 0d bc
       0.084331684 0.022816096 -0.012426706 -0.00866474
0003b0 28 e2 09 bc 35 09 ee 3c 34 35 70 bd e1 5d 07 bd
       -0.008415736 0.029057125 -0.05864449 -0.033048514
0003c0 8a 53 6a bd 4f 55 f1 3c 97 9c 90 3d 97 db c5 3c
       -0.057208575 0.029459624 0.07061117 0.02415256
0003d0 82 b1 05 3d 53 60 d2 bd 39 a3 b6 bd ea 4f 7e 3d
       0.032639988 -0.10272279 -0.08917851 0.06208793
0003e0 45 51 82 bd 63 5f 49 3d 71 ee 8c bd bd d4 76 bd
       -0.06363157 0.049163233 -0.068814166 -0.060261477
0003f0 8c 54 f5 3c 9a ad 12 bd a2 53 35 3a ca b7 48 3d
       0.029947542 -0.03581009 0.00069170643 0.0490034

convs.2.bias f4 [32]
000000 c8 41 dd bc ee a7 80 bd f7 30 5d 3d b9 4f ec bd
       -0.027008906 -0.0628203 0.054001775 -0.115386434
000010 e0 05 7c bd 16 31 e3 bd 47 9b 8a 3c f7 23 df bd
       -0.06152904 -0.11093347 0.016919745 -0.108955316
000020 cd d0 c9 bd 0b 95 7f bd 70 31 c8 3d ff b2 b6 3d
       -0.09854279 -0.062397998 0.097750545 0.089208595
000030 0e 71 a6 bd 78 d4 53 3d c3 49 ea 3c 0f bb a2 3d
       -0.08127032 0.051716298 0.028599625 0.07945835
000040 e3 c0 8f bd b8 2d be bd e1 a0 75 3d ec 7a d3 bd
       -0.07019212 -0.09286064 0.05996788 -0.1032618
000050 7d 46 c6 bd 9b 5d d5 bd 90 cd 7d bd d6 a1 83 bd
       -0.09681413 -0.104182445 -0.061963618 -0.06427352
000060 a8 13 85 bd 7b 6e af 3d 96 de b2 3c aa a4 c1 3d
       -0.0649789 0.08565994 0.021834653 0.09455235
000070 d9 cb 4a 3d 59 aa 57 3d ca 84 bb bd dc 56 71 bc
       0.04951081 0.05265269 -0.09156187 -0.014730182
