results/flixster_testmode/model_checkpoint30.pth (torch_old, 199981 bytes, 19 tensors)

convs.0.basis f4 [4, 4, 32]
00000000: dbee fc3c 4377 443b 3809 163d 9eb1 4d3d
00000010: 4f0b b4bd a30d 513e deec f5bd 7e76 e7bd
00000020: f67f cc3d 9f0d 55be a79c d53d 67ca ecbd
00000030: b335 57be d757 b23d c51f 1b3e 4194 c8bd
00000040: bd46 77bd a661 a1bd 9e29 56be ef0b 5ebc
00000050: be62 4b3d 25aa 433e ce7d 773d 0ebc 9dbd
00000060: 8753 993d 4f81 f6bd 4f15 fe3d 9fe6 af3c
00000070: 2273 1e3e d280 8d3e 0908 3cbe 8751 353d
00000080: fcb8 41be 07a8 11be 3832 0bbe 5c9a 263d
00000090: 9327 3d3c 395a 8a3e cba3 85ba b61d 8ebd
000000a0: ccf6 76be 066c dabd dfdb c23d 476b 55be
000000b0: 823f 923b 8dfe 57bc 786a 293d 87e0 cbbd
000000c0: 3918 20bd a62b 56be 9d4f a73d 2dcd 04be
000000d0: 53fb d5bd 3567 1e3e c939 d1bd 78a8 b8bd
000000e0: 0b74 ad3b c79e 88bd 00cf 0e3c 07c2 543d
000000f0: da48 e43d f081 163e c4e9 86be 1e9f 623c
00000100: 91fc 8cbd 2591 aebd 41be 893b d2ea 053d
00000110: 9052 97bb 9742 b5bd d6fb fe3c 45c6 94be
00000120: 9ef8 c3be 3626 9fba 334e 6d3c 04a7 8f3d
00000130: 2d1d 7d3e 0760 6a3d 3f4d 2d3d f807 15be
00000140: 03f5 663c 2c46 87bd 18f5 833d 2358 893d
00000150: 1428 283d b504 c93d 8690 35bf b979 ebbe
00000160: d9a9 bebe d3b8 cd3c 9951 59bd 0d67 373d
00000170: 09d9 1abd e115 243d ce01 133b 51d3 dc3d
00000180: 98b1 013e c0d0 3ebd be92 873a 3aad dc3a
00000190: 636d 1abe bec5 99be 501c 72bd b62e b33d
000001a0: 16f2 bd3e 3a97 133f 1431 123f 2ffc 233e
000001b0: 33ae bb3d cb71 483d 1f12 37bd 7814 56bd
000001c0: 19a7 dbbe 0991 6fbd 2769 1abe bce8 a9bc
000001d0: a2f9 98bd 3a46 09bf 03c2 0dbe 05ca 8e3d
000001e0: e55c 68bd 69ec 793e 82ed 2bbe 5ee1 4ebe
000001f0: 5b7c bdbc 9c38 be3d 626c 283e 5bad a63d
00000200: 629f 6f3c 6530 af3c 18cf 103d 29d9 713c
00000210: f963 afbd d3f9 d23d e4ad f6bc e721 a0bd
00000220: 0230 c5bc 8933 0dbe 6c02 693d b1b9 44bc
00000230: e45a 12be 27f8 103d c240 0b3e 5760 37be
00000240: e2b6 92bd 0b02 37bd 661f c1bd ed4d 3cbd
00000250: 3586 943c 6771 1d3e 9599 d73d be32 d1bd
00000260: 19b1 693d 795b 8dbd c5c1 e93d 0d01 6d3b
00000270: ea42 9f3d ec95 483e 12e5 d5bd 3eb9 fc3c
00000280: cabd 04be b7ab d9bd fcf4 0abe da3a ef3d
00000290: cfce 70bb 30e7 573e 55ff 41bd bf44 f9bc
000002a0: c52a 05be 93e1 e3bd c6d4 c83d 0823 57be
000002b0: 96a9 93bc f720 30bc 6f2f de3d e30b 9bbd
000002c0: 9f17 6abd 2469 14be 3287 ff3b 3ae7 b9bd
000002d0: 93ea dbbd 4af6 053e e62e 79bc b5c9 39bd
000002e0: e543 1f3d 8fe1 36bd 032d 903c a50b 663c
000002f0: 463a 083e 93a3 5d3e fa91 4fbe 7d69 c83c
00000300: 4a80 d7bc a163 a13c e0f9 debd 3137 d93c
00000310: 77d7 703d 2db1 eb3d 38ae f53c 3638 52be
00000320: 9855 15bf 767e 903d 979d f4bd 70bb d7bd
00000330: 2dc8 893e 1590 de3b 8662 2fbe 2dda 62be
00000340: 4d22 1e3e 0541 69bd 6ecb eb3d e705 053e
00000350: cb69 d3bd d109 3dbd 3392 24bf 420d d8be
00000360: 408a a7be 5207 9c3c e216 813d 2f3b 54bd
00000370: 4f18 363c 053b 76bd acde 60bd 6bc8 983b
00000380: ef6d 123c 2085 223e fa3c 763c d5b0 a93c
00000390: 3944 133e 5016 f6bd 4862 0a3d 8164 b6bd
000003a0: c2be 823e 938f dd3e 5cd7 c73e 6820 0ebf
000003b0: 5ce6 c3bd 12c0 4abd fdb8 5bbd 6fc9 e53c
000003c0: 9b85 5fbe 31a4 07be f675 49be 1e3f c5bc
000003d0: 47c6 be3b 96cb c1be 9e46 3e3e 117a 8d3c
000003e0: 94ce 9f3d 2fef 0e3e 772a d63d 75f1 acbc
000003f0: 82fd 1f3c d0af 463d eb0a f6bd 7bab 17be
0.030875614 0.0029978312 0.036629885 0.050218217 -0.087912194 0.20415358 -0.120080695 -0.113018975
0.09985344 -0.20805977 0.1043027 -0.11562043 -0.21016578 0.0870816 0.15148838 -0.09793902
-0.060370196 -0.07879953 -0.20914313 -0.01355265 0.049654715 0.19107874 0.06042271 -0.07701884
0.07486635 -0.120363824 0.12406408 0.021472273 0.15473607 0.27637345 -0.1836244 0.044267204
-0.18918222 -0.14224254 -0.13593376 0.040674552 0.01154508 0.2702196 -0.0010195909 -0.06939261
-0.24117583 -0.10665135 0.09514593 -0.20841704 0.004463137 -0.013183248 0.041361302 -0.099549346
-0.0390856 -0.20915088 0.08169482 -0.12968893 -0.10448327 0.15469058 -0.102161 -0.09016508
0.0052933744 -0.066709094 0.008716345 0.05194285 0.11146708 0.14698005 -0.26350224 0.013831882
-0.06884111 -0.08523778 0.0042035882 0.032694645 -0.0046179965 -0.08850592 0.031125944 -0.29057518
-0.38275617 -0.0012142125 0.014483976 0.070142776 0.24718161 0.057220485 0.042309996 -0.14553821
0.014096501 -0.06605181 0.06443232 0.06706264 0.041053846 0.09815351 -0.7092365 -0.45991305
-0.37238958 0.025112545 -0.053056333 0.04477601 -0.037804637 0.040059928 0.0022431496 0.10782493
0.12665403 -0.0465858 0.0010343415 0.0016836294 -0.1508079 -0.30033678 -0.059109032 0.08749144
0.3709876 0.5765263 0.5710614 0.16014169 0.09164085 0.048936646 -0.044695016 -0.052265614
-0.42900923 -0.058487926 -0.15079175 -0.02074086 -0.07469489 -0.5362278 -0.13843541 0.06972126
-0.056729216 0.2440659 -0.16789821 -0.20203158 -0.023130586 0.09288141 0.16447595 0.08138534
0.014625402 0.021385381 0.03535375 0.014761248 -0.0856399 0.103015564 -0.030112214 -0.07818966
-0.024070743 -0.1378919 0.056887075 -0.012007163 -0.14292485 0.035392907 0.13598922 -0.17907844
-0.071637884 -0.044679683 -0.09429817 -0.045972753 0.018130401 0.15375291 0.1052734 -0.102147564
0.05705366 -0.06902213 0.11413912 0.0036163956 0.07776435 0.1958844 -0.10444082 0.03085005
-0.12963024 -0.10628455 -0.13570017 0.11681147 -0.0036744361 0.21084285 -0.047362644 -0.030428289
-0.13004597 -0.11127009 0.09806208 -0.21009457 -0.0180252 -0.010750047 0.10848891 -0.075706266
-0.057151433 -0.14493233 0.007798099 -0.09077306 -0.10738101 0.13082233 -0.015208935 -0.04535838
0.03888311 -0.044648703 0.017599588 0.014040862 0.1330348 0.2164443 -0.2027053 0.024464363
-0.02630629 0.019700827 -0.108875036 0.026515575 0.058799233 0.11508403 0.0299903 -0.20529255
-0.5833373 0.070553705 -0.119441204 -0.10533798 0.26910535 0.0067920783 -0.17127427 -0.2215354
0.15442772 -0.056946773 0.115134105 0.12990533 -0.10322913 -0.04615194 -0.6428558 -0.42197615
-0.32722664 0.01904646 0.06303193 -0.051814254 0.011114194 -0.06011488 -0.054899856 0.0046625636
0.008937343 0.15871096 0.015029186 0.020714203 0.14381494 -0.120159745 0.033785135 -0.08905888
0.25536162 0.432736 0.39031494 -0.555182 -0.09565422 -0.04949958 -0.053643215 0.028050153
-0.2182831 -0.13246228 -0.19673905 -0.024077948 0.0058219763 -0.37850636 0.18581626 0.01727012
0.078030735 0.13958429 0.10457318 -0.02111123 0.009765031 0.04850751 -0.12013801 -0.14811508

convs.0.att f4 [10, 4]
00000000: 9d76 94bd 03ca 21be ff8a a03e 6749 123e
00000010: df7d 42be 9e24 45bd 7b31 c23e 977b 183e
00000020: 4c4a 65be 3f88 0c3e ce07 c13e c19a 193e
00000030: 96d6 4abe 6239 3b3e f4aa b63e 949d 003e
00000040: b3e4 89bd a978 9d3d 0f78 a13e 880b 2a3e
00000050: c7ba 21bd 0a00 413e 70eb 8e3e 7bbb 1c3e
00000060: b4d6 633c 3665 763e f98e 4f3e 445f bb3d
00000070: cb6d d13d d45a 583e 77c4 233e 2f25 4f3d
00000080: d576 3b3e 6eb3 333e 575f 9f3d cbb6 08bd
00000090: a988 a63e dc40 1c3e eaf1 de3c af3e d6bd
-0.07249186 -0.15799718 0.31356046 0.14285813 -0.18993329 -0.048130624 0.37928376 0.14890896
-0.22391623 0.13723849 0.37701267 0.1500044 -0.1980842 0.18283609 0.35677302 0.12560111
-0.06733074 0.0768903 0.3153691 0.16605961 -0.039484765 0.18847671 0.27914 0.15305893
0.01390617 0.24062046 0.20269383 0.0914903 0.102260195 0.21128398 0.15992914 0.05057257
0.1830705 0.17548916 0.077818565 -0.03337745 0.32526138 0.15259117 0.027214963 -0.10461175

convs.0.root f4 [4, 32]
00000000: db55 e2bd cb3d d53c b872 79bd 5ad4 603e
00000010: 5d4a bc3d 6126 873a 8f9b eabd d9c1 56be
00000020: 833f 5e3e d64f cb3e 87f7 b13e 666f b5bd
00000030: 5ea7 9b3d d04e 373e 098b 8dbd b1d4 90bd
00000040: ed73 65be d181 463e 0049 dd3c 3fb8 6ebe
00000050: 5f1e 833a d0fa fbbd 9900 73bb ae34 373e
00000060: df2d 1c3c 4e21 513e ea43 23bc 7377 6dbe
00000070: bf91 1e3d 52cf 6fbe fddd 8f3d 6b66 12be
00000080: 7c1f 273e 97cf 003e 48a9 3cbe 86ad 433e
00000090: 1596 c8bd 5736 eebd 4fab cabd e0ec 21be
000000a0: b395 783d 45b9 33be 6826 da3c ca08 1c3e
000000b0: e32e 8e3e 8d6b 2f3e 1e6f d2bd aa41 ac3e
000000c0: fa31 26bd b851 b53d 892e 003d aab4 0dbd
000000d0: 58a9 70bd 7fe2 47be 2e72 55be f1f0 b4be
000000e0: d10c 5ebe 5a0c 9c3c a47b 0f3e bf39 173c
000000f0: ead7 223d 647c 35bd 4d20 653e 4d0d 873e
00000100: 7467 16bd 5bde 093e 624b faba b13b bcbc
00000110: 4d39 bcbd 442b 33be b666 bcbd 04c1 10be
00000120: 4acc b2bd 318e 1c3d 5c33 17be 87b6 0bbd
00000130: 1499 2c3d 0a31 303e 9cc0 0dbb 78ba 1ebd
00000140: 47db febd 47ba f7bd 7d42 25be 8f92 433e
00000150: 5cf5 9bbc 84b4 de3d 3d9c 10be 3a7b 2c3d
00000160: f959 303d 2984 953d b516 e33d fe05 2ebd
00000170: c5e9 21be db57 e1bd 2ef2 11bc 3f95 f2bc
00000180: aa0a f5bd 3189 d7bc d917 8fbd 7535 4e3e
00000190: a3d6 30bd 73e5 75bd 7409 47bd ba0a 1cbe
000001a0: de5c 23be 7411 9b3d 894d 7dbd e064 14be
000001b0: 05b7 113e b82b 0e3e adbc 973d d781 ca3b
000001c0: 402d 2f3c 748f 31be 9d5e 87bd 60a2 ff3d
000001d0: 34a3 9abd c954 0d3e ab9a 36be 1d9e e2bd
000001e0: 904d 25bd a1dd e43d 058c a43c acf5 37bd
000001f0: ab51 27be 9dc6 13bd d403 fdbd d733 6cbd
-0.11051532 0.026030442 -0.06090042 0.21956006 0.09193871 0.001031112 -0.11455452 -0.20972385
0.21703915 0.39709347 0.3475916 -0.08859138 0.07600282 0.17901158 -0.069112845 -0.07071818
-0.22407503 0.19385459 0.027012348 -0.23312472 0.0010003558 -0.12303698 -0.0037079214 0.1789119
0.009532421 0.20422861 -0.009964922 -0.23190098 0.038713213 -0.2341893 0.07024763 -0.14296882
0.16320604 0.12579189 -0.1842395 0.19109163 -0.09794251 -0.11631458 -0.09895956 -0.15813017
0.06068964 -0.17551143 0.026629642 0.15237728 0.27770147 0.17130871 -0.102751 0.33643848
-0.040575005 0.08853477 0.03129438 -0.034596123 -0.05875525 -0.19519995 -0.20844337 -0.35340074
-0.21684577 0.019048858 0.14012009 0.009230076 0.039756693 -0.04430808 0.22375603 0.26377335
-0.036719754 0.13463728 -0.0019095952 -0.022977682 -0.09190617 -0.17496973 -0.09199278 -0.1413613
-0.08730371 0.03822154 -0.14765686 -0.03410962 0.042138174 0.17206207 -0.0021629697 -0.03875205
-0.124441676 -0.120960765 -0.16138645 0.19098876 -0.019037895 0.108742744 -0.141221 0.042109706
0.043054555 0.07300598 0.110883154 -0.042486183 -0.15811832 -0.11003085 -0.008907838 -0.029612182
-0.11964925 -0.026310535 -0.069869705 0.2013758 -0.043173444 -0.060033273 -0.048593 -0.15238467
-0.15953395 0.07571688 -0.06184152 -0.14491606 0.14229973 0.13883865 0.07409034 0.006180029
0.010691941 -0.1733988 -0.06609843 0.124821424 -0.0755066 0.13801874 -0.17832439 -0.11065314
-0.040357172 0.11175085 0.020086298 -0.044912025 -0.16339748 -0.036078084 -0.12354246 -0.057666626

convs.0.bias f4 [32]
00000000: 5fa4 053e aa72 60bb b396 a53d 837f 50be
00000010: c51a b03d 566f 123c a362 c93d 60aa 143e
00000020: 7ec4 3a3e 19d7 30bc ab3d 113d d85d 2b3e
00000030: 1ae0 a2bd 4827 34be bc03 2bbe 950e 573d
00000040: c49a 583d f5ea 4b3e 2fb6 133e aecd ddbd
00000050: f443 223d a604 7bbe f342 223e 2987 d63c
00000060: c39f 843c 64c6 9cbd 0609 8cbd 35c7 223d
00000070: 608f bd3d a1c2 e2bd 9339 2a3e 7f13 b93c
0.13050984 -0.0034248033 0.08085384 -0.20361142 0.08598856 0.008937677 0.098332666 0.14518118
0.18239018 -0.010793471 0.0354592 0.16735017 -0.079529 -0.1759311 -0.16700643 0.05250414
0.05288197 0.19913848 0.14424966 -0.10830246 0.039615586 -0.24513492 0.15845852 0.026187496
0.016189462 -0.076550275 -0.068376586 0.03974076 0.09255862 -0.11072279 0.16623525 0.022592304

convs.1.basis f4 [4, 32, 32]
00000000: 35e9 c8bd d78d 58bd d3f1 50bd 1e04 63bc
00000010: ec99 1bbd 613e 5cbd e41b 0dbe a0e5 c53d
00000020: 3c9d 493d 11a7 e63a 1c6d b6bc 9afe 283d
00000030: 0900 64bd a9f2 52bd 34e2 df3c fe53 e93b
00000040: c770 6e3d 25d1 e43b 6770 973d 2e8f 3ebd
00000050: 4538 d53c 7f6e 0abe 6fdb adbc c88c 383b
00000060: aa26 ebbc 81a8 3a3d 6471 2dbc 349f 023d
00000070: b95b a73d 6a5e b3bc acde f6bc 4710 14bd
00000080: 05b9 bc3c 4bab ce3a ca68 9fbc 4fed ac3c
00000090: 99cd debc 4cd4 a8ba ee3e bfbd 0a8c 74bb
000000a0: bb0b 973b 6f47 e7bb a516 3c3c 4a74 8b3c
000000b0: 11f8 babc a7d0 85bc 7b64 cdbc f862 563d
000000c0: 8bab e93c cc13 193d 9d5b bb3c 6fba 04bb
000000d0: 98df 883c 020f b3bd 959f d9bc 119f a93b
000000e0: dbed 14bb 5864 f83a deb0 c83c 90ba 4bbd
000000f0: af61 263d 122f e6bb 17d3 82bc ea88 393d
00000100: ab1a 913c 969e ab3c 18d4 c33c ae1b acbc
00000110: 9746 a4bb 86df bbba 65dc c33d 19e2 9fbd
00000120: 80e1 a4bc 08ab d63a 134e 403d 9575 e63a
00000130: 74c5 2dbc 13a0 723c 9013 5d3d 2422 b0bd
00000140: c6d6 1fbc f12c 37bc b103 cabc b043 203b
00000150: 1a72 09bc ec4f 423d 56af a43c b55e 933c
00000160: e203 0fbd 0393 8bbc 5e03 433c 54d2 3b3d
00000170: b99a 3fbc 2183 1b3d d9d8 363c cb7d 7abc
00000180: d8df 21bd 076c c2bb 349d b73a 88da da3c
00000190: ee01 073d 6166 e23b d161 463d 4d65 813c
000001a0: cf44 6bbb d9a2 f83c ed36 57bc b359 7dbc
000001b0: 1d17 2d3d a304 95bc 0eb0 1ebd 66d6 d93c
000001c0: 6898 25bc 28dc 17bd 4cb4 923c 0d69 7a3c
000001d0: 001e 413b 31ee 233d 7534 00bd c2f0 2abc
000001e0: e81d 9d3c ed34 a53b 16a2 1dbd 13ae 433d
000001f0: 6cbe f8bc 790f 903b 89bd 31bb 99b4 04bd
00000200: 399b a43c 7026 0cbc fef0 ff3c 665d ffbc
00000210: 4c0b 0e3c 4c99 3bbc c574 9f3d dfe2 5e3d
00000220: 6342 303c 5fb2 aa3a 6ab3 773c 1830 6fbb
00000230: 1abe 553d 2720 e93a 4094 463d 4d78 75bd
00000240: 4c39 92bc 1332 a4bc 4eb4 11bd e155 2e3c
00000250: 8765 113d 7bd5 2dbd cd1e b83d 0ca8 1d3b
00000260: 722d b2bc cf0d 0a3c da51 45bc d5d5 d43d
00000270: 6f78 34bd 555b 6f3d b931 3e3c 4092 3ebc
00000280: 7e36 5bbc d79c 82bb 4ba1 d6bc 1366 96bd
00000290: e63e ae3c fb4f a53c 6a89 653e caf5 2abc
000002a0: ae47 e2bc 627a 813c 81a2 f43b 91ba 6e3a
000002b0: cb03 a63d 01e7 b83b 8332 c0bd 221d c73d
000002c0: 6dc3 6dbc e5ed e5bc 172c 9abc 45f1 a13c
000002d0: 0597 65bb f544 2f3d 24e0 a0bd acf9 063d
000002e0: 8263 aa3d e9bf 203c e43a 3a3b 9bdd 963d
000002f0: 26af e53b 8e2d 0d3d 9733 ec3c a0b7 dd3c
00000300: c5e4 a3bd 77f2 a7bc 1bf1 2fbb a62e 07bc
00000310: d271 21bc d0d1 0f3b 4e1f bbbc 8e6d 633d
00000320: a689 fc3c d35a 05bc acf9 04bd 1ead 233c
00000330: a28b 72bc a68a 79bc 14ad 4d3c 0a78 16bd
00000340: f969 32bc 31af 6fbc 76d2 b93c c173 043c
00000350: 9c5e 973c f8e5 35bc 55fe 043d b2f9 373c
00000360: d28c 0dbb f8ab c43c 612e ddbc 61d2 1f3d
00000370: 8434 e8bb 5737 83bc b82b ca3b cfed 98bc
00000380: e5f9 44be a8ca 1ebd 63e5 8abd 395c 9cbc
00000390: ae96 79bd a26b e3bd b9f4 23be 9ce8 213e
000003a0: d840 8c3d 73ed c5bc 7a90 4fbd 618c 843c
000003b0: 9f63 81bd db23 dabd 0851 e23c 1f2e 2b3e
000003c0: 9dd3 9d3d 803b 13bc 147c b03d 3010 1cbd
000003d0: 8d0a 4f3c 3fea 92be f9bd 513c cbfa b6bc
000003e0: 8037 35bd 93d5 083d 5e0e 94bc fa8c 9cbd
000003f0: f425 a83d e5d2 55bd b39e 39bd cb4c cbbc
-0.09810106 -0.052869644 -0.05101187 -0.013855962 -0.03798859 -0.053770427 -0.1378017 0.09662938
0.049222216 0.0017597397 -0.022268824 0.041258432 -0.055664096 -0.05150095 0.027329542 0.0071206084
0.05821302 0.00698294 0.07394486 -0.046523266 0.026027808 -0.13518713 -0.021222798 0.0028160084
-0.02870496 0.045570854 -0.010586116 0.03189011 0.081717916 -0.021895606 -0.030135475 -0.036148336
0.023037443 0.0015767602 -0.019459147 0.021109251 -0.027197646 -0.0012880652 -0.09338175 -0.0037314915
0.0046095527 -0.007058076 0.011480008 0.017023224 -0.022823365 -0.016334845 -0.025072327 0.052340478
0.02852418 0.037372395 0.022870833 -0.0020252725 0.01670818 -0.08743097 -0.026565352 0.005176433
-0.002272478 0.0018950803 0.0244984 -0.049738467 0.040620502 -0.007024654 -0.015969796 0.045296587
0.017712912 0.020949643 0.023904845 -0.021009292 -0.005013298 -0.0014333583 0.09563521 -0.078067966
-0.020127058 0.0016377876 0.046949457 0.001758265 -0.0106061585 0.0148086725 0.053973734 -0.08600262
-0.009755796 -0.011180148 -0.024659963 0.0024454407 -0.00838902 0.0474395 0.020103138 0.017989496
-0.034915812 -0.017037874 0.011902658 0.04585488 -0.011694604 0.03796685 0.011160099 -0.01528878
-0.039520115 -0.005933288 0.0014008642 0.026715532 0.032960825 0.006909177 0.04843313 0.015795374
-0.0035899167 0.03035109 -0.013135654 -0.0154632805 0.04225837 -0.018190688 -0.038742118 0.026591491
-0.010107137 -0.03707519 0.017908238 0.015283835 0.0029467344 0.04002208 -0.031300027 -0.010433378
0.0191793 0.0050417096 -0.038484655 0.047773432 -0.030364238 0.0043963757 -0.0027121028 -0.032398794
0.020093547 -0.008554086 0.031242844 -0.031172466 0.008669686 -0.011450123 0.07785944 0.05441558
0.010758015 0.001302313 0.015118459 -0.0036497172 0.052183248 0.0017786071 0.048481226 -0.05992918
-0.017849587 -0.020043408 -0.035572343 0.010640592 0.035497215 -0.04243992 0.0899025 0.0024056463
-0.021750186 0.008426144 -0.012043441 0.10392348 -0.044060167 0.05843671 0.0116085345 -0.011631548
-0.013379691 -0.003985982 -0.026199957 -0.07343688 0.021270227 0.02017974 0.224157 -0.010434577
-0.02762207 0.015805427 0.007465661 0.000910678 0.08106192 0.005642772 -0.09384634 0.097223535
-0.014511925 -0.028067539 -0.018819852 0.019768367 -0.0035032642 0.042790372 -0.078552514 0.03295295
0.08319761 0.00981138 0.002841645 0.07366487 0.0070094047 0.034467272 0.028833194 0.027065098
-0.08002619 -0.020501358 -0.002684659 -0.008250868 -0.009853797 0.0021945126 -0.022842076 0.0555244
0.030827355 -0.00813933 -0.03246467 0.009990005 -0.014803799 -0.01523081 0.012553472 -0.036735572
-0.010889524 -0.014629171 0.022683363 0.0080842385 0.01847773 -0.011102192 0.032469112 0.011228966
-0.0021598828 0.024007782 -0.026999654 0.039018992 -0.0070863385 -0.016017599 0.0061697625 -0.018668083
-0.19235952 -0.038767487 -0.06782033 -0.019086944 -0.060934715 -0.11104514 -0.16011323 0.1581139
0.068483055 -0.024161076 -0.050674893 0.01618022 -0.06317829 -0.1065137 0.02762653 0.16716813
0.07706378 -0.008986354 0.08617416 -0.038101375 0.012636793 -0.2869434 0.012801641 -0.022336384
-0.044242382 0.033406805 -0.018073257 -0.07644077 0.08210364 -0.052203078 -0.045317363 -0.024816891

convs.1.att f4 [10, 4]
00000000: a8b1 9ebd 1e28 263e 6900 96be e628 0b3b
00000010: 7715 e33c c07f 1a3e deb4 8abe 5c02 d23b
00000020: 1493 003e 7d43 ab3d 4414 75be d88f 6dbd
00000030: 743a e13d 6cb8 4c3c f2bc 51be 7d4c 92bd
00000040: 2a56 ec3d 4965 9dbd a9cb 0fbe d35b 9bbd
00000050: e0dd 7a3d 496f eebd e170 00be 2151 c1bd
00000060: dee7 1c3d b29c 20be 804b 89bd adfe 1d3d
00000070: 5dbb 203d cd36 36be 4e56 3dba 92ec bf3d
00000080: d92b 65bd 9883 33be 5e93 153d cdce c03d
00000090: dfbf 23be dea1 3bbe 4b80 933d 236e 1a3d
-0.07748729 0.16226241 -0.29297188 0.0021234094 0.027720196 0.15087795 -0.27091116 0.0064089727
0.12556106 0.08362482 -0.23933512 -0.05799851 0.10997477 0.0124951415 -0.20482233 -0.07143495
0.11539872 -0.07685334 -0.14042534 -0.075858735 0.061246753 -0.1164232 -0.1254306 -0.09439302
0.038307063 -0.15684775 -0.067038536 0.038572956 0.039241184 -0.17794342 -0.0007222638 0.09371294
-0.05595002 -0.17530668 0.036517493 0.09414444 -0.15991162 -0.18323466 0.07202204 0.03770269

convs.1.root f4 [32, 32]
00000000: 3af7 53bd 6dab 8e3d 908a 243d 3908 98ba
00000010: 1f99 d33c 7f9e 4bbd 14ec 3bbe c900 ad3d
00000020: 5fc5 b8bc bcf6 94bc f8c6 b83b 9140 d4bc
00000030: 8ace 7fbd c872 e8bc ef02 b4bc 4088 073d
00000040: 03c3 aabc ab31 87bd 5e4b 6cbd 5811 d7bb
00000050: 55c7 83bc 67f7 673d bbaf a7b9 7fdb 223d
00000060: decd 97bc 2bbc 2abd e8e3 acbd f86e de3d
00000070: 4df2 efbc 7501 dabd 0011 40bd 040e 6c3c
00000080: 8144 1bbc 27c8 3cbd 3910 b83d 584d c83c
00000090: 02f8 7cbc bda2 0dbd 7e4a e03d 1bf3 8f3d
000000a0: 00b9 fc3c 08d7 57bd cb80 033d 1a96 9b3d
000000b0: 6850 10bd 2b26 a6bd 0990 543b 4763 79bd
000000c0: aa98 04bd 4f80 c2bd 6d4a e23d fd4f 5d3c
000000d0: 0ec8 f43c 2e95 bd3d 40b2 d6bc 3cb5 94bd
000000e0: 6a41 343d b24f 283d 7513 51bd 8716 9cbd
000000f0: 78e9 6b3c e8eb 76bd 0855 153c 16fe 9ebd
00000100: 465b 3b3c a209 193d 3d3b d93c 792a 8b3d
00000110: 668d 7f3d 427f 4bbd 5b4c d03d 1bfa 843d
00000120: 1806 0e3b 9f19 c9bc 5385 12bc ea7e 253d
00000130: b75c a33c c322 153b 3835 69bd f1d7 8ebb
00000140: f201 873b 4908 96bd 6ad3 febc 985e b73b
00000150: b371 f6bc d9d5 87bc 3b20 2dbc 3fe4 a3bc
00000160: 06df e13c 4937 12bb f46e b13d 84ba d63c
00000170: da74 da3c 462e fdbd 9882 c4bc 64c6 3d3b
00000180: b85b 463c 8a6d 893d 9b43 22bc 1c20 ecbd
00000190: 6eb6 99bd a1d6 103c e614 1dbd c419 8cbc
000001a0: 1272 01bd 967f 8e3d 8f46 813d 1c9f 5f3d
000001b0: 58eb d13c 7eea efbc 865a 483c 1e09 7f3d
000001c0: 0e6e 2dbc ca67 30bd 827d c73d b798 a63d
000001d0: 52b6 97bc c265 9fbb 3ad0 fc3d 766b 2bbc
000001e0: 5f20 3abd caca 633d 1f25 3c3d 7727 e93d
000001f0: 5bb1 0f3d c9eb a13c 5011 a23c 8921 4b3d
00000200: 2c46 0f3d 37e5 813d 7423 a93c 1eec 49bb
00000210: 08fd 363d 65f0 973c 5dd8 a33d 664c 78bd
00000220: 3ca6 69bc 83bb 7ebd fd98 b6bd dd5e 813d
00000230: 36af 833d dfd3 e4bc 24b3 d3bd 3ce8 673d
00000240: 2688 a93c 8d95 c4bd 881a 36bd e866 90ba
00000250: 1e83 043e cd08 1e3e b8b1 33bd 4838 48bc
00000260: c6b5 c4bb 54cf 993d e430 27bc a086 16bd
00000270: 4a6f 843c d840 90bc ee38 cb3d 9c68 e4bd
00000280: f46a 9a3d d8d4 1b3c 54a1 943b e2d3 963d
00000290: 798e 353d f085 033d e136 07bd c050 a03d
000002a0: 10b1 8f3d dbf0 a93c f1dd e93d 321b ebbd
000002b0: b092 b4bd 5fa1 88bd a7e1 d43c f77b c3bc
000002c0: 932d 9dbd 0512 803d 8345 93bd 5c50 553d
000002d0: 9efd 04bd 0403 1a3d 2b09 7e3d 0f13 dcbc
000002e0: 8765 edbd 708f 2bbd 97f7 e43c dad4 1e3e
000002f0: 1722 acbd b7df 0abd e6a0 30bc d25e e3bc
00000300: 83f0 7dbd 5076 9fbd 64b1 9f3d 9474 4ebd
00000310: 90c5 8bbd a73b 15bd a6ff 4cbd a441 0bbd
00000320: c859 86bb ba89 e13c d2c0 85bd bb74 7d3d
00000330: 016a 19bd 2968 5a3d cab2 8dbd 68c7 f7bb
00000340: 7ef2 6dbc f789 76bd 6434 07be ad06 fdbc
00000350: fd79 473c d089 023d 5dfd cf3d e9c2 babb
00000360: 46d9 4c3d 22db 723d aff0 47bd 0d01 a2bc
00000370: 96dd e9bd 09a4 9a3c 269c 793d 6136 473d
00000380: 51b6 37bc 8693 4c3d e296 5fbd 4ba6 6dbd
00000390: f6b9 09bd 912e 29bd d6f2 36be 8266 27bd
000003a0: 2fa2 2d3b 51c4 393d 16bb 153d 3f3d 4dbd
000003b0: f6fc cebc 42ae 8e3d f34e 5abd b7a6 89bd
000003c0: 9cfa 9fbb 22e1 2c3d 17dc 4f3d ebec aa3d
000003d0: 1a14 213d c2fa 17bd 37a8 61bb fb17 23bc
000003e0: c057 65bd 4a46 4cbc 9ff3 253c 88ec 7d3d
000003f0: 11b6 45bb 1edf 8e3d 7962 00bd 31f7 d3bc
-0.051749445 0.069662906 0.040171206 -0.001159913 0.02582985 -0.0497117 -0.18351775 0.084474154
-0.022555051 -0.018184058 0.0056389533 -0.025909694 -0.06245283 -0.028375044 -0.021974055 0.033088923
-0.020844942 -0.0660127 -0.057689063 -0.006563347 -0.01608626 0.056632426 -0.00031983652 0.03976011
-0.018530782 -0.041683357 -0.08441907 0.10861009 -0.029290343 -0.10644809 -0.046891212 0.014407638
-0.009476782 -0.046089318 0.08987469 0.024450943 -0.015439989 -0.034579027 0.10951708 0.070287906
0.030849934 -0.052695304 0.03210525 0.07596989 -0.03523293 -0.08112749 0.0032434484 -0.060885694
-0.032372154 -0.09497129 0.11049352 0.01350784 0.02988055 0.092569694 -0.026208043 -0.0726113
0.044007696 0.04109163 -0.051043946 -0.07621484 0.014398925 -0.06028357 0.009114511 -0.07763307
0.0114353355 0.037362702 0.026517505 0.067952104 0.062390707 -0.04968191 0.10170814 0.06493016
0.0021671113 -0.02454835 -0.00894292 0.040404238 0.01994167 0.0022756315 -0.05693552 -0.0043592383
0.004120105 -0.07325799 -0.03110667 0.0055959933 -0.030083513 -0.016581463 -0.010566766 -0.020006297
0.027572166 -0.0022310785 0.08663741 0.026211984 0.026667047 -0.123623416 -0.023988053 0.0028957361
0.012106828 0.06710346 -0.009903814 -0.11529562 -0.07505499 0.008840234 -0.03835001 -0.01710213
-0.031602927 0.06957929 0.06312286 0.054595098 0.025624916 -0.02928662 0.012228614 0.062264554
-0.010585321 -0.04306773 0.097407356 0.08134597 -0.018519554 -0.0048644254 0.123444036 -0.010462632
-0.045441028 0.055613317 0.04593384 0.113844804 0.03508125 0.019765751 0.019783646 0.04959253
0.03497903 0.063425474 0.020646788 -0.0030810903 0.044674903 0.018547246 0.080002524 -0.060619734
-0.014260825 -0.062190544 -0.08915899 0.06316922 0.06429903 -0.02793306 -0.10336903 0.05661796
0.020694803 -0.09598837 -0.044458896 -0.0011016997 0.12940642 0.15433045 -0.043870658 -0.01222045
-0.0060031144 0.07510248 -0.0102045275 -0.036749482 0.016166348 -0.017609045 0.09922968 -0.11152765
0.07539931 0.009511195 0.0045358334 0.07364632 0.044325326 0.032110155 -0.03301132 0.07827902
0.07016194 0.020744732 0.11419285 -0.114797965 -0.08817041 -0.06671404 0.025986506 -0.023862822
-0.07674708 0.06253437 -0.07190993 0.05207859 -0.03246843 0.037600532 0.062020462 -0.026864557
-0.115916304 -0.04188484 0.027950091 0.15510884 -0.084049396 -0.033904757 -0.010780549 -0.027755175
-0.061996948 -0.07786238 0.077975065 -0.050404146 -0.068247914 -0.036433842 -0.050048493 -0.033998147
-0.004100058 0.027531493 -0.06530918 0.0618789 -0.03745461 0.05332199 -0.06918867 -0.007561613
-0.014523147 -0.060190167 -0.13203579 -0.030886972 0.01217508 0.03186971 0.10155747 -0.0056995046
0.050011896 0.059291013 -0.048813518 -0.019775892 -0.11419217 0.018877046 0.06093993 0.048635844
-0.011212901 0.049945377 -0.054587252 -0.058019917 -0.03362461 -0.041304175 -0.17866072 -0.040869243
0.0026494374 0.045353238 0.036555372 -0.050107237 -0.025267106 0.06966831 -0.053297948 -0.067212515
-0.00488217 0.04220689 0.050747003 0.0834597 0.03932581 -0.037104376 -0.003443254 -0.009954448
-0.055991888 -0.01246793 0.010128885 0.061993152 -0.0030168334 0.0697615 -0.03134391 -0.025874706

convs.1.bias f4 [32]
00000000: 2a3e 81bd 77ff 2cbd 4d5b c6bc 8380 26bd
00000010: 74d3 cbbc 5e21 0abe c946 5bbd 335d 673d
00000020: 4709 e03b 505d debc 8c8f 213c c3c2 6fbd
00000030: 76d5 9bbd 764f 1d3d 24d8 c43d c35f 003e
00000040: 185b 0cbd a79a 803d 63a7 813d bf46 963c
00000050: 6d68 f8ba 2db2 12bd 8774 10bc 3713 6fbd
00000060: 47fb 49bd 726a 8a3d 948d 9cbb 0740 f4bd
00000070: dc95 35bd 3a8d f8ba e3f3 67bd 0037 5c3d
-0.06310685 -0.042235818 -0.024213457 -0.040649902 -0.024881102 -0.13489291 -0.053534303 0.056485366
0.0068370434 -0.027144104 0.009860884 -0.05853535 -0.07609074 0.038405858 0.09611538 0.1253653
-0.03426656 0.062794976 0.063307546 0.018344281 -0.001895202 -0.035814453 -0.008816845 -0.058367934
-0.049311902 0.06758584 -0.0047776196 -0.11926275 -0.04433237 -0.0018962987 -0.056629073 0.05376339

convs.2.basis f4 [4, 32, 32]
00000000: 891c 6e3c aef2 2abd f194 08bc f9c8 113d
00000010: 5eaf ddbd ad92 06bd d6b5 5dbb d1ad e63c
00000020: 685e aebb a5ea f7bc 5d85 c8bc 91ce 9e3b
00000030: 9f6a 253c 3209 89bc f2a4 0e3d ddd9 32bd
00000040: 392e b03c 7611 143d 2625 5ebd 5ffc 00bd
00000050: efa2 aabc b715 c93b 5057 603d d1b2 52bc
00000060: dfe3 f4bc 960f 20bc d642 543d 7577 dcbc
00000070: 66fe 1d3d 79a5 5f3c 52a3 23bd f6f7 42bd
00000080: 941b 7fbc 3324 cf3d 8205 0dbc afa8 31bc
00000090: ffff 383c a699 7dbd f8d9 90bc b683 92bb
000000a0: d2bd e43b 2c74 9e3c 48f6 223d ae5d 483b
000000b0: 38d5 44bd 3c74 98bb 1e5e 633d f63f f63d
000000c0: 6373 bbbc c5a9 7a3d 302d d9bc 03b4 9dbc
000000d0: 4352 d53c c9d5 3f3d f182 253d 70ea edbc
000000e0: c0ef 073d 60c5 ecbd 4596 56bd 22b5 b2bc
000000f0: db47 d83c 8202 b4bd c66a a43c 27a3 fc3c
00000100: cc15 44bc e72f 9f3d 7427 7ebd 56ad ea3c
00000110: 0980 db3b 8d37 edbc 8c27 78bc 775c 2ebd
00000120: cbe3 90bc 1229 2c3d e61b 813d 789d 9f3d
00000130: b54d d9bb 3c36 bd3d 29fe b43d a83a f23c
00000140: f111 96bb 3cc3 e43d 0d9d 483c 45f1 2dbd
00000150: af5e 153c af3a 7e3d a9ff 523d e583 bdbc
00000160: 9f76 973d 1cd2 d8bd c0c6 f3bc 087d 973c
00000170: 60a2 263b 5ac8 d5bb b787 003d 76f8 923d
00000180: fd07 19bc ebfd 603c af93 b2bc 17b4 023d
00000190: ca0b 4f3d 0cec 203b 4d69 aa3c 6158 a43d
000001a0: 65f5 64bd 8e58 b4bd bde2 c3bc 5516 433c
000001b0: 7783 d3bc 901b 09bd 8142 00bd a850 863d
000001c0: 43a0 ab3c 8804 65bd b956 803d b221 633c
000001d0: 5b1f c23c 8f81 87bd 5c29 1bbd 475c 2c3d
000001e0: ae97 853b 5512 f3bc a0c6 6cbd f021 e6bc
000001f0: 9970 0e3d 07ea 0dbd 0a80 a9bd af81 203d
00000200: 5e5d 643c 67f1 d43d 7d14 88bd d58d 32bd
00000210: ba22 0c3d a082 88bd be22 b8bd 442d 5dbc
00000220: a77c 48bd 9d52 69bd e9d8 823b b6b0 32bc
00000230: 5b1c a5bb 7205 6c3d 8f10 553d 79c1 b13d
00000240: 2e94 9e3a bb3f cb3c 27ea c9bc a835 2dbb
00000250: 2cd0 ebbb 7b40 953d 4846 31bc e307 623c
00000260: 3915 0ebc 400a 19bd 4a25 24bc 04e4 80bd
00000270: 3b2f a03d 121e 86bb ea30 5cbd 90b9 07bb
00000280: aa80 ec3b 5a38 27bc 286e 363b 33ee a13b
00000290: 1a57 67bd bd10 923c b937 203d a5bd 5c3c
000002a0: bdf7 213d 5615 263d d234 cb3c 9bcc 5c3c
000002b0: f2ce 88bd 9586 11bd 1ad1 553d 464f f43c
000002c0: accd 72ba 16fa 8f3d 9725 923c e050 93bc
000002d0: 5c84 e13c 1b91 053b 295b c83c 3081 bdbc
000002e0: e18e 233d 0ef3 c73b 7169 4d3d 8d5a 243b
000002f0: 4e3d ee3c 5c74 4abb e583 fe3b daef 2c3a
00000300: f3d5 4d3d 8446 a43d 373a 00be d345 b43d
00000310: fbff 803d c551 0abb 6e16 b2bd 2c59 01be
00000320: 31d5 42bd 2a7d aabc a197 763c d964 e03d
00000330: 2610 d1bb 4e72 7cbb 6595 853c b14b b33d
00000340: f204 ee3b b1c5 893d f0e5 2a3c 0a58 c8bc
00000350: b411 623c e7fd 7cbc bffa 5c3c b61a f53b
00000360: 5a33 0f3d ab22 24bb c7c3 6c3d b202 163c
00000370: 393e b6bd 738c 803b 111c fe3c be7d 323c
00000380: f502 be3d b1db 643d a3b2 b6bc 867c d93c
00000390: bfa7 9e3d efdc a8ba 0ce8 773d d0d2 f6bc
000003a0: e59a debc 7778 163d 10a3 2fbd 785d 273d
000003b0: 4a18 47bb 26dc c23c eef4 cb3c e42f 1f3d
000003c0: f497 aebd c7a9 6a3d 3b28 19bd 56f3 313c
000003d0: 90e3 84bc 872d ef3c c083 543c 8bb1 a9bd
000003e0: ff2a bc3d 179c 83bd 352e d1bc 6780 2f3c
000003f0: ff8c fe3c 8cfe e1bc d1dc 1dbd 96f1 773c
0.0145331705 -0.041735344 -0.008336292 0.035592053 -0.10824464 -0.032854725 -0.0033830306 0.028159054
-0.0053213127 -0.030263254 -0.024477655 0.004846402 0.010096221 -0.016728017 0.034825273 -0.043664802
0.021506416 0.036149465 -0.054234646 -0.03149068 -0.020829646 0.006136622 0.054770768 -0.012860016
-0.029893814 -0.009769341 0.051821552 -0.02691243 0.03857269 0.013650292 -0.039950676 -0.047599755
-0.01557054 0.10114326 -0.00860727 -0.01084344 0.011291503 -0.06191411 -0.01768206 -0.0044712676
0.006980636 0.019342504 0.039785653 0.0030573416 -0.048054904 -0.004652528 0.05550968 0.12023918
-0.02288217 0.06119706 -0.026510805 -0.019250875 0.026040202 0.04683474 0.04040808 -0.029042453
0.033187628 -0.11561084 -0.052389402 -0.021814886 0.02640145 -0.08789541 0.020070445 0.030839516
-0.011968087 0.077728085 -0.062049344 0.028647106 0.0066986126 -0.028957153 -0.015146147 -0.04256865
-0.017686745 0.042031355 0.06304149 0.07793707 -0.006631578 0.0923886 0.0883754 0.029568985
-0.0045797755 0.111700505 0.012244475 -0.04246642 0.009116813 0.062067684 0.051513348 -0.023134181
0.07395672 -0.1058695 -0.029757857 0.018492237 0.0025426373 -0.006524128 0.031379428 0.071762964
-0.009340283 0.013732414 -0.021798937 0.03191003 0.050548352 0.0024554757 0.020802164 0.080246694
-0.05589809 -0.08805953 -0.023911828 0.01190718 -0.025819523 -0.03347355 -0.031313423 0.06558353
0.020950442 -0.055912524 0.06266541 0.013863014 0.023696592 -0.06616508 -0.03788124 0.04208019
0.0040769195 -0.029671827 -0.05780661 -0.028092355 0.03477535 -0.034647014 -0.08276375 0.039186176
0.013938276 0.10397606 -0.06644533 -0.043592293 0.034212805 -0.0666554 -0.089910015 -0.013499562
-0.048947003 -0.05696355 0.003993143 -0.010906389 -0.0050387806 0.05762238 0.052017745 0.0867948
0.0012098604 0.024810662 -0.024647785 -0.0026429687 -0.007196447 0.07287689 -0.010819979 0.013795826
-0.008672052 -0.03736329 -0.010018656 -0.062934905 0.078215085 -0.00409294 -0.053757586 -0.002070997
0.0072174864 -0.010206306 0.0027836654 0.0049417256 -0.05647955 0.017830247 0.03911564 0.013472949
0.039542902 0.04054769 0.02480546 0.013476516 -0.06680097 -0.035528738 0.052201368 0.029822957
-0.0009262215 0.07030122 0.01784019 -0.0179829 0.027528934 0.002038068 0.024457531 -0.02313289
0.03993118 0.0061019724 0.050149385 0.0025078387 0.029081967 -0.003089211 0.007767188 0.000659702
0.050252866 0.08021262 -0.12522207 0.088023804 0.062988244 -0.0021105867 -0.086956844 -0.12631673
-0.047566596 -0.020811636 0.0150508 0.10956735 -0.006380099 -0.003852028 0.016306588 0.08754671
0.007263773 0.0672716 0.010430798 -0.024456043 0.013798166 -0.015441394 0.013487517 0.007479991
0.034961082 -0.0025045078 0.057803895 0.009155916 -0.08898587 0.003922993 0.031019242 0.010894237
0.09277908 0.055873577 -0.022301978 0.026548635 0.07746839 -0.0012883226 0.06052403 -0.03012982
-0.027173469 0.036735978 -0.042880118 0.040860623 -0.0030379468 0.023786616 0.024897065 0.03886403
-0.085250765 0.05729082 -0.037391882 0.010861238 -0.016221792 0.029196514 0.012970865 -0.08285817
0.09187888 -0.06426256 -0.025534729 0.010711766 0.031073092 -0.027587198 -0.038540665 0.015133282

convs.2.att f4 [10, 4]
00000000: b7bf 073d 6a9d 573c 58d7 b93c 18ed 0e3d
00000010: 5107 c53c 15f2 7a3c 3b2e 6d3c 35eb 063d
00000020: 7061 653c fa5b a6bb 32b3 683c 5053 fb3c
00000030: 03da 5f3c 4e1a d0bb 064c 09bc 5c40 cfba
00000040: 2ae3 b7bb bf4f 903b d919 303a 6191 ba3a
00000050: b7e2 c63b b073 023c 9985 a4bb 2e81 db3a
00000060: 6eaf c13b 5d2a 87bc 6065 91bb 6cf8 053c
00000070: 2486 35bc 4a84 e4bb 52d1 aaba 7b48 01bb
00000080: c501 4abb 9336 d1bb 737d 633b 5a90 433c
00000090: e00f 413c 5aad 8e3c a047 b0b8 2e18 c33a
0.033141818 0.013160089 0.022685692 0.03489408 0.02405134 0.015316506 0.014476354 0.032939155
0.014000282 -0.0050768824 0.01420288 0.030679375 0.013662818 -0.006350792 -0.008379942 -0.0015812027
-0.005611797 0.0044040377 0.0006717719 0.0014234 0.006069507 0.007962152 -0.005020809 0.0016746873
0.0059108054 -0.016499693 -0.0044371337 0.008176904 -0.011079345 -0.006973778 -0.0013032353 -0.001972704
-0.0030823809 -0.0063846796 0.0034712225 0.011936272 0.01178357 0.017416645 -8.405675e-05 0.0014884525

convs.2.root f4 [32, 32]
00000000: 94b8 19bd bc37 a3bd 9b29 d53d 5de5 b6bc
00000010: 4fbe b63c 1791 c5bd 240b 84bd 3403 adbc
00000020: dbe8 613d 210f f6bc 48b4 533c c36c 8c3c
00000030: e52d b8bc 5922 483d f316 81bd 6950 65bd
00000040: be72 dcbb 3afd 0e3d 76d2 633d f93f 303c
00000050: 11b0 3ebb 1bf3 6fbd 8133 80bd 536e 2a3d
00000060: 31e6 00be 9fe7 da3c 3034 413d 762f 7bbc
00000070: 0e01 9c3c 03aa 343b b5ad 10bd 345f 12bd
00000080: 6bb4 1fbd 4c0a 03bd 3a3f 97bd 372d 333d
00000090: 0c0d 16bb ec08 08bc e903 aabc a7c8 95bd
000000a0: 10f3 86bb 0ab9 313d 712e 79bd b6a2 07bd
000000b0: 6fd8 18bd 6acf 5cbb 97c4 e2bc ec7c 5a3b
000000c0: 1109 61bd 7809 193d 2797 263c bfea 56bd
000000d0: aac8 513d 13ad f4bb ab49 63bb 9ea2 033d
000000e0: 7719 77bc 0244 a9bd 6bd6 0bbd 9564 8fbd
000000f0: 52c5 eebc 2fca b7bc 50d6 9a3c 71d5 0b3d
00000100: 56b3 83bc 0884 08be 34a4 183c 4cc5 32bd
00000110: 9831 a6bc b4fa e3bd 6e0d 97bc e170 623d
00000120: 850a 363d e6cb 9d3c 95e8 8c3d 65bc 8bbd
00000130: 611d 78bd 18ac e1bd 821e 673c 802b bfbc
00000140: 684f 11bd 709c 833c 49d3 7a3d 4b9b 22bd
00000150: e211 43bd 91e2 aabd e512 2abb ffa1 6a3d
00000160: 1467 72bd a37b 633d e36f f7b8 6181 4f3b
00000170: 71dd 03bb 9875 0ebd 89f9 fdbc 2c4a 44bd
00000180: 0f45 8c3c f142 71bd b4b7 a9bb 2109 95bd
00000190: f7c7 debc de08 5cbc 9a4f 0bbd 7355 84bc
000001a0: 78b8 13bd bd56 86bc 5ca9 6f3d 45be 323d
000001b0: a575 123d 7364 33bd fa26 e13c bbaa 4ebd
000001c0: 8b9e af3c 6ffb 663c e638 643b 6149 1abd
000001d0: 013d b0bc 7d6d a8bd 80b6 6f3d f0d2 76bd
000001e0: 93bc 973c 1fe2 153c 78de a83d ce39 cabb
000001f0: 12ec bf3b a23b f5bc 0f39 34bd 0436 2aba
00000200: 7c9c a83c 9170 2d3d 3872 ddbb 7aa3 c13c
00000210: c002 74bd 2544 553c b5a1 ee3c 4b5b 243c
00000220: 9736 c8bc 40e9 c53c 50e5 50bc 750b 13bd
00000230: aed7 573b 120b 8c3c 8ad0 d5ba 3936 d13c
00000240: e5a3 983c 26cf 5fbd 375f 393d a959 4fbd
00000250: b272 223d f1cb 88bd 7890 0d3d 11b6 243d
00000260: b166 14bb c1ca 013d 66b2 93bd c21a a93c
00000270: fbf9 50bc f436 433c f08b 4d3c 1a46 04bd
00000280: fc34 69bd ca12 e7bd cb52 22bd d261 b33c
00000290: 6a2d 5c3c e784 cd3a 6745 82bd 1527 06bd
000002a0: 8766 ae3c 490b da3c 749b a03d cec2 b23c
000002b0: 682e 3eba b052 b5bc f312 17bd f925 1cbd
000002c0: 8f40 c03b 9a59 f03c bf58 263c 75f8 35bd
000002d0: 317a aebc 4e6b 98bd 8563 28bc 8ffa 57bd
000002e0: 1062 4abd e652 eb3b 51c1 ab3d 9619 23bd
000002f0: b013 0e3d 2aff 3f3b 1cad 663c 35be 5dbc
00000300: 7815 3c3c 458c 723d bb66 9cbd ae4f de3d
00000310: a1c6 a63c 12bd 953d 95f2 a63c 657e a43c
00000320: 9380 b83c ea2b e33b 054e b7bd 3f3a 47bd
00000330: 8ab3 3dbc c914 583c 17af e3bc e8cb 9c3a
00000340: 49b3 063d 275e a23b dffa aabb 7fa9 143d
00000350: 4209 993d 7515 4d3e cf9f 9cbb 6f88 e4bb
00000360: 7d8d e13d 88f2 28bd fafc cabc 6dbb a3bc
00000370: 4bbf e33c f346 37bc 2dea 933c 5fb4 943c
00000380: 2556 143b b351 71bd b43d 25bb d53f a8bc
00000390: f9f8 a3bb 0c1f 2fbd f138 bbbc 68f7 0cbd
000003a0: 7d61 383d 223a 09bd b901 8c3c fbc4 273d
000003b0: 56c9 203b 4d36 083c c856 e8bb 8dae ecbc
000003c0: b401 e3bc b645 d7bc 5a43 1a3c ba8a 483c
000003d0: 16b5 1cbd c188 3ebd 4b58 dcbc 6579 0f3c
000003e0: 2bec d3bc 6744 a8bc 3a8d c13c 7421 d33b
000003f0: 9e19 1f3d 98a6 d6ba f488 abbc 5a56 dcbb
-0.037529543 -0.07969615 0.10408326 -0.022326166 0.022307543 -0.09646814 -0.064474374 -0.021119691
0.05515371 -0.03003651 0.0129214 0.017141705 -0.022482822 0.04886088 -0.06303205 -0.05598489
-0.0067275455 0.034909464 0.055620633 0.01075744 -0.0029096643 -0.058581453 -0.062598236 0.04160912
-0.12587811 0.026721774 0.04716891 -0.01533114 0.019043472 0.0027567155 -0.03532191 -0.035735324
-0.03899042 -0.03199224 -0.073851064 0.043744292 -0.002289596 -0.008302908 -0.020753818 -0.07313662
-0.004118331 0.043389358 -0.060835306 -0.033114158 -0.037315782 -0.0033692964 -0.027681632 0.003333862
-0.054940287 0.037362546 0.010167873 -0.052469965 0.05121676 -0.007466921 -0.003468136 0.032137506
-0.015081755 -0.082649246 -0.03414003 -0.070016064 -0.029146824 -0.022435276 0.01890102 0.0341391
-0.016076725 -0.13331616 0.009316493 -0.04364519 -0.02028732 -0.11131802 -0.018439021 0.05528343
0.044443626 0.019262265 0.06880299 -0.06823043 -0.060574893 -0.110191524 0.014106395 -0.023336172
-0.03547612 0.016065806 0.061236653 -0.03969888 -0.047624476 -0.08343995 -0.0025951203 0.057283398
-0.059180334 0.05553783 -0.00011798718 0.003166281 -0.0020121003 -0.034780115 -0.031002777 -0.0479223
0.017122773 -0.05890173 -0.00517937 -0.07277132 -0.02719496 -0.0134298485 -0.03401146 -0.016154027
-0.036064595 -0.016398782 0.058511123 0.043638486 0.035756726 -0.043796968 0.027484406 -0.05045579
0.021437904 0.014098032 0.0034823953 -0.037667636 -0.021513464 -0.08224008 0.058523655 -0.06025976
0.018522536 0.00914815 0.082455575 -0.0061714416 0.005856999 -0.029935662 -0.043999728 -0.00064930343
0.02058243 0.04234368 -0.0067580007 0.023637522 -0.059572935 0.013016735 0.029129842 0.010031532
-0.024440093 0.024159074 -0.012749985 -0.0358996 0.0032934952 0.017095122 -0.001631276 0.02553855
0.018632839 -0.05464091 0.04525682 -0.050622616 0.039660163 -0.06679524 0.034561604 0.040212695
-0.0022644217 0.0316875 -0.07211761 0.020642642 -0.0127549125 0.011914957 0.012545571 -0.032293417
-0.056935295 -0.112828806 -0.03962974 0.02189723 0.013438562 0.0015679867 -0.06360894 -0.032752115
0.021289123 0.02661671 0.0784215 0.021821406 -0.000725484 -0.022134155 -0.036883306 -0.03812215
0.005867071 0.0293396 0.010152995 -0.0444264 -0.0212985 -0.07442342 -0.010277634 -0.052729186
-0.049409926 0.007181513 0.083864816 -0.039819323 0.034686744 0.0029296377 0.014079358 -0.013534118
0.011479728 0.059215803 -0.07636782 0.108550414 0.020358386 0.07311453 0.020379344 0.0200798
0.022522246 0.006932725 -0.08950428 -0.048639532 -0.01157845 0.013188549 -0.02779345 0.0011962624
0.032885823 0.0049550715 -0.0052178944 0.036294457 0.07472469 0.20027716 -0.004779793 -0.006974272
0.11013315 -0.04124692 -0.024778832 -0.019986833 0.027801177 -0.011186349 0.018056 0.018152414
0.0022634354 -0.058915805 -0.002521378 -0.02053825 -0.005004045 -0.042754218 -0.0228543 -0.034415632
0.045014847 -0.033502705 0.017090665 0.04095934 0.0024534068 0.008313728 -0.0070904233 -0.028891826
-0.027710773 -0.026278358 0.009415472 0.012240106 -0.038258635 -0.046517137 -0.02689757 0.00875697
-0.02586945 -0.02054043 0.023626912 0.006443197 0.03884279 -0.0016376553 -0.020939328 -0.006724161

convs.2.bias f4 [32]
00000000: d720 053c 5044 31bd 7df0 0b3d 6a3a 66bd
00000010: adbf f9bb be2d 7dbd c2b2 243a 5853 a8bc
00000020: dcf4 9fbc da94 3abc 8775 7e3d 27da 4a3d
00000030: 9005 05bb 03ce 97bb b31a ab3c cd84 053c
00000040: 31c0 e3bc 3314 81bc 86fe 30ba ab62 8cbc
00000050: 469e 5cbd e752 bebd 6901 6dbc 063a b7bc
00000060: 6bee 5bbd 4ce4 e83c 7a95 be3c c52d cb3c
00000070: 231b 4d3c 8164 33bc 22ef f3bc b929 60bc
0.008125505 -0.04327804 0.034164894 -0.05620805 -0.0076217265 -0.0618112 0.00062827405 -0.020547554
-0.019525938 -0.011388028 0.0621238 0.049524453 -0.0020297505 -0.004632713 0.020886755 0.008149338
-0.027801605 -0.015756702 -0.0006751794 -0.017136892 -0.05386188 -0.09293156 -0.014465668 -0.022366535
-0.05369417 0.028429173 0.023264635 0.024802098 0.012518677 -0.010949255 -0.029777113 -0.013681822

convs.3.basis f4 [4, 32, 32]
00000000: 2122 4bbd 6648 e8bc fc4e 92bd 8b28 143d
00000010: 0917 18bd edfb f8ba 1cd3 1d3d aad6 603d
00000020: f14d 88bc 9125 23bd 340f 41bd ba5d bf3d
00000030: 18b6 50bd e82e a43c 5d0b de3c c837 86bd
00000040: 92b4 4bbc afc4 7b3c 5d60 643d e45f 823d
00000050: 4b6c e83c bbc1 ee3c 7c27 663d 64d4 553d
00000060: 743e ae3d e1d0 d9bc 69ad edbd 250b 37bd
00000070: dd07 ec3a 96b8 aabd 4063 bc3c 3b79 0cbc
00000080: d3a3 0f3d d893 32bd bacd b93c 4173 833d
00000090: ad7d 443d b6a0 973b 73c4 47bd 7184 083d
000000a0: 3d7e 163e 6b08 40bc f055 73bd 489d c23d
000000b0: 05d5 46bd fd34 113c 3ddf 05bb f47a 893d
000000c0: ad3a 38bd 56d5 3bbd a2e7 d33c 7c49 d23b
000000d0: cb29 973d 6741 abbb c1bb 8ab9 a28b 5fbd
000000e0: 92ef 81bc 493c 9e3d 62e6 15bd 1da4 8d3d
000000f0: 7936 16bd 32c5 5a3d d09e dd3d 5397 03be
00000100: 2819 8cbc a5d5 16bd ae8f 1d3c 59e6 90bd
00000110: 47a5 0ebd 4271 933d f427 86ba 51e8 9a3c
00000120: e1fe 8ebd 261c 71bd cb78 debc 2c8d 133c
00000130: a549 073d 3567 0d3d 0b9d 3b3d 82d3 363d
00000140: 4378 eebb 2124 db3c 834d 503d 3feb 32bc
00000150: b9bc dbbc 84a0 783d 2fe6 ac3c 4deb 003e
00000160: 0741 a5bb abee 4f3d b5cf 11bd 38d1 1bbd
00000170: feb8 3f3d dcdd a1bd 663d 76bb df6e bf3c
00000180: 06b7 a6bc bfa5 9b3d dbb5 3dbc c5a5 933d
00000190: 9230 9d3c 6806 743b 8d0d 8ebb 69f5 843b
000001a0: a78e 6abc b635 2d3d 865e 57bd 5b40 cd3c
000001b0: 4509 a2bd 2f7b e43b e1eb 573c b926 72bd
000001c0: 6fcf f9bc 07b4 dc3c 2f40 81bb 9aa0 903d
000001d0: 12ee 5bbd da39 72bc e05e 2f3c adc8 92bd
000001e0: 8da8 0d3d 26a2 b33c 03e9 95bd d486 64bc
000001f0: fedf 9a3d c9ef 923c 284a 3c3c 2460 0abe
00000200: c22f 0abb 751d be3c 0847 0ebc 2e67 0abd
00000210: e2d8 913d 0bc2 6ebc a97f 00bc 54f5 a0bd
00000220: c66c 8c3d 3077 2f3d 11d7 c33b ecb2 aebc
00000230: f99d 98bb 9c3f 893b b828 a8bc 6c44 873c
00000240: 3e55 a63c 70ab 893d 6663 8bbd 5bb9 bbbc
00000250: e43f e3ba 5730 34bd d850 3ebd ec84 e63c
00000260: 441e aebd c90f fdbc 5ccc e23a 04ed 94bb
00000270: b3a8 f33c 6daa 863d fa73 77bb ce8b cabc
00000280: 083d 61bb 18b9 3ebd a4fd b1bd 6397 04bd
00000290: a5ae 103d 28be 423b 6930 463d 7fd1 5e3d
000002a0: ad5d 5d3d cd21 1abd 489c a13c e64d b9bc
000002b0: 23bb 293c 9fa4 ad3c 01a5 cf3d 25a7 a9bc
000002c0: f814 0bbc 753e 16bd f02d 183c 709b 87bc
000002d0: 47f1 753b 3baa a43d 380f b03c c04f ffbc
000002e0: e788 343d 6f1b 31bd f893 5abd d786 55bc
000002f0: e551 b3ba 362a f6bc 3115 603d 9d16 25be
00000300: 05f7 c4bc 5ed3 b43d 6d70 0b3c 34b1 89bd
00000310: 2fe8 ddba c12c 4abc 4905 56bd 3913 803d
00000320: f44d f0bc 9844 143d 06a6 6bbd 2582 493c
00000330: 02ee 2f3b ff8f 8fbd 7f76 193d 9725 db3a
00000340: bbea 073d b047 48bd cec7 fe3c a8ee bd3c
00000350: 13b6 bb3c f307 6a3d 1c4a d43c 19d9 7fbd
00000360: 0b70 f93a b784 adbc 1c13 68bc f7c8 cfbb
00000370: c5d7 73bd b3b1 cebc 2044 123d f452 853d
00000380: 0b66 3c3d 75c1 323d b9e3 dfbc e115 eb3c
00000390: b299 26bc 94a4 c8bc 7ff6 773c d750 91bb
000003a0: 9fa2 9b3d 58d4 47bc 9020 24bd a7cb 863d
000003b0: 7363 ccba 0345 e0bc 91ef 9d3d d03e 0ebb
000003c0: 0569 f53c 4442 6b3d f368 dd3d 7dd1 c83c
000003d0: 6f90 463d 6750 c53d 6642 a73d 06f1 483d
000003e0: a43d 3ebc e8bb 8b3d 8d56 b73b ebfe afbb
000003f0: e782 c9bb 8469 4dbd baae b03d 5501 b0bd
-0.049593095 -0.028354835 -0.07143971 0.036171477 -0.037131343 -0.0018995978 0.038531408 0.05489222
-0.016638728 -0.039830748 -0.04713364 0.09344049 -0.050954908 0.020041898 0.027105028 -0.06553608
-0.012433188 0.015366717 0.05575596 0.06365946 0.02837195 0.029145112 0.05619 0.052204505
0.08508006 -0.026588859 -0.11605341 -0.044688363 0.0018007715 -0.08335988 0.022996545 -0.0085738255
0.035068344 -0.043598026 0.022681106 0.06418467 0.047971416 0.0046273125 -0.048771333 0.03332943
0.14696594 -0.011720757 -0.05940813 0.09502655 -0.048542995 0.008862731 -0.002042725 0.067129046
-0.044977833 -0.04585775 0.025867287 0.0064174514 0.07381018 -0.0052263024 -0.000264613 -0.054576524
-0.015861306 0.07726342 -0.036596663 0.06916068 -0.036673043 0.053410716 0.10821307 -0.12850694
-0.01710184 -0.03682484 0.009616775 -0.07075185 -0.03482559 0.071993366 -0.0010235296 0.018909605
-0.06982208 -0.058864735 -0.027157208 0.009005826 0.033029217 0.034522254 0.045804065 0.044635303
-0.00727752 0.026750626 0.05085517 -0.010920345 -0.026823388 0.060699955 0.021105854 0.1258976
-0.0050431523 0.05076472 -0.035598475 -0.038041323 0.04680728 -0.079036444 -0.0037573217 0.023368297
-0.020350944 0.07599973 -0.011579002 0.072093524 0.0191882 0.0037235264 -0.0043351115 0.0040575755
-0.0143162375 0.04228755 -0.05258038 0.025055101 -0.07911924 0.0069726924 0.0131787965 -0.05911896
-0.03049442 0.026941312 -0.003944419 0.07061882 -0.05369384 -0.014784301 0.010703772 -0.07167182
0.03458457 0.021927904 -0.07319834 -0.013948161 0.07562254 0.017936604 0.01149229 -0.13513237
-0.0021085595 0.023207406 -0.008683927 -0.033789806 0.07121445 -0.014572631 -0.007842937 -0.078592926
0.068566844 0.042838275 0.0059765656 -0.021325551 -0.0046575037 0.004188491 -0.020527229 0.016512118
0.020304319 0.06722152 -0.06806068 -0.022915533 -0.0017337766 -0.043991413 -0.046463817 0.028139554
-0.085018665 -0.030891316 0.0017303335 -0.004544856 0.029743528 0.06575475 -0.0037758336 -0.024724867
-0.0034368653 -0.046563238 -0.08690956 -0.032370936 0.035322804 0.0029715393 0.04838601 0.05439901
0.054044414 -0.03762989 0.019727841 -0.022620153 0.010359558 0.021196662 0.10138894 -0.020709584
-0.008488886 -0.036680657 0.009288296 -0.01655361 0.0037527846 0.080402814 0.021491632 -0.031165957
0.044075873 -0.043239053 -0.05336377 -0.013032637 -0.0013681023 -0.030049425 0.05470771 -0.16121908
-0.02404357 0.088293776 0.008510691 -0.06723252 -0.0016930158 -0.012339772 -0.052251134 0.062536664
-0.029334046 0.03619823 -0.05753138 0.012299095 0.0026844745 -0.07009887 0.037466522 0.0016719577
0.03318284 -0.04889649 0.031101134 0.02318509 0.022913968 0.057136487 0.025914244 -0.0624629
0.0019030584 -0.021181447 -0.014164712 -0.0063410955 -0.059531946 -0.025231218 0.0357095 0.06509963
0.045995753 0.043641526 -0.027330266 0.028696956 -0.01016848 -0.02449254 0.015134453 -0.0044346857
0.07599377 -0.012196623 -0.040070117 0.06581812 -0.0015593603 -0.027376657 0.07711709 -0.002170492
0.029957304 0.057436243 0.10811033 0.024513954 0.048477586 0.09634476 0.08166961 0.049057983
-0.011611376 0.0682295 0.0055950345 -0.0053709648 -0.006149638 -0.050149456 0.086270764 -0.08594004

convs.3.att f4 [10, 4]
00000000: a9c9 00bc 2ed9 913a da13 2b3c 6f9e 173b
00000010: 4f16 a5bc 9ff4 803a 711e ec3b d28f bc39
00000020: a1d7 8ebc 8966 953b b046 cb3b cf03 a63b
00000030: 686e 61ba 6906 9aba 4af8 0abc 6aaa 153a
00000040: b8b2 86bc 846c b43a e70e 363c 45d7 0a3b
00000050: 9dc4 39bc 2025 893b 958b c43b 10cd 15bb
00000060: ab5a 0cbc f20e 563c ddcd 633c a018 a83b
00000070: 7656 99bb e6cc de3b eee4 b33b 8116 e03a
00000080: e4c5 7b3b 3d27 343b 342e c93a b394 41bb
00000090: 6466 f4ba 322c a03c 68aa c0ba 01ab b0bb
-0.0078605795 0.0011127347 0.010441745 0.0023135205 -0.02015224 0.0009838528 0.0072057773 0.0003596531
-0.017436804 0.0045593423 0.006203495 0.005066372 -0.00085995207 -0.0011751178 -0.008482048 0.00057092926
-0.016442642 0.001376525 0.011111951 0.002118544 -0.01133838 0.004185334 0.005998085 -0.0022857822
-0.008566539 0.013065087 0.013904062 0.0051298887 -0.0046794964 0.006799328 0.005489937 0.001709655
0.0038417513 0.0027489208 0.0015348853 -0.0029538095 -0.0018646237 0.019552324 -0.0014699223 -0.005391479
