results/flixster_testmode/model_checkpoint23.pth (torch_old, 199981 bytes, 19 tensors)

convs.0.basis f4 [4, 4, 32]
0	0x3d57e5bb	0.052709322
1	0xbc05553d	-0.008137998
2	0x3d81f4d0	0.063455224
3	0x3d87d609	0.06632621
4	0xbd919b02	-0.071096435
5	0x3e57d492	0.21077183
6	0xbe0ae828	-0.13565123
7	0xbe01024b	-0.12598531
8	0x3dcec0a5	0.10095338
9	0xbe4ddd5c	-0.20103973
10	0x3df96320	0.1217711
11	0xbe099ffc	-0.13439935
12	0xbe54f16c	-0.2079522
13	0x3de291dd	0.110629775
14	0x3e10426f	0.14087842
15	0xbdcda995	-0.10042111
16	0xbd44104a	-0.047867097
17	0xbda6297d	-0.08113382
18	0xbe53b8a9	-0.20675911
19	0xbaa37825	-0.0012471719
20	0x3d0c7765	0.03429355
21	0x3e35f82e	0.17770454
22	0x3d60a858	0.054848045
23	0xbdb638c5	-0.08897547
24	0x3d896d0f	0.067102544
25	0xbdfdb903	-0.12388804
26	0x3dde006e	0.10839926
27	0x3cd530c9	0.02602424
28	0x3e13388b	0.14377038
29	0x3e8af18f	0.2713742
30	0xbe609d8f	-0.21935104
31	0x3ced9a4c	0.029004239
32	0xbe459e8d	-0.19298764
33	0xbe0b4691	-0.13601138
34	0xbe1186aa	-0.14211527
35	0x3c96cbd7	0.018407745
36	0xbcba00a9	-0.022705393
37	0x3e8c8c70	0.27450895
38	0xbd6b9f65	-0.057525057
39	0xbd8c2796	-0.06843488
40	0xbe6c7b95	-0.23094018
41	0xbddecb40	-0.108786106
42	0x3e0c701f	0.13714646
43	0xbe527da6	-0.20555744
44	0xbd10175e	-0.035178535
45	0x3bbe9634	0.0058162455
46	0x3d0f3c8f	0.034969863
47	0xbde63cf5	-0.112420954
48	0xbdbb647d	-0.09150026
49	0xbe5cc87d	-0.21560855
50	0x3d90fe7d	0.0707979
51	0xbe0df69e	-0.13863608
52	0xbe09ae98	-0.13445508
53	0x3e1d8e8c	0.15386409
54	0xbdcd4caf	-0.10024392
55	0xbd88b79c	-0.06675646
56	0x3cb02074	0.02149985
57	0xbd6bdc28	-0.057583004
58	0x3cb7a459	0.022417234
59	0x3d04187b	0.03224991
60	0x3e01a4b4	0.12660486
61	0x3e1bf744	0.15231043
62	0xbe80a250	-0.25123835
63	0x3d13761b	0.036001306
64	0xbd9b0789	-0.075697966
65	0xbda23d2e	-0.07921825
66	0x3cb86a73	0.022511696
67	0x3d959a9f	0.07304882
68	0x3ae7e338	0.0017691618
69	0xbde90d6e	-0.11379515
70	0x3d0a91da	0.0338305
71	0xbe8773f4	-0.26455653
72	0xbea8f73f	-0.33001134
73	0xbce10415	-0.027467767
74	0xbc864fcd	-0.016395474
75	0x3d8bea21	0.06831766
76	0x3e7dcdba	0.2478551
77	0x3d6ade62	0.057340987
78	0x3d330b48	0.04371193
79	0xbe14878a	-0.14504829
80	0x3d1e987f	0.03871965
81	0xbd87e655	-0.06635729
82	0x3dcea2c8	0.10089642
83	0x3db6d6b5	0.08927671
84	0x3d6db1ef	0.05803102
85	0x3dcab9b1	0.09898699
86	0xbf232a21	-0.6373616
87	0xbee67f54	-0.4501902
88	0xbeb7d6ee	-0.35906166
89	0x3c0d8c5f	0.008639424
90	0xbd932ff9	-0.071868844
91	0x3d3d0a4e	0.046152405
92	0xbd722aa3	-0.059122693
93	0x3d4896ae	0.048971824
94	0x3c3f696e	0.011682851
95	0x3dc00661	0.09376217
96	0x3e06ab79	0.13151349
97	0xbd32d9ed	-0.04366486
98	0xbc79dc3f	-0.015250265
99	0xbd5deeaa	-0.054182686
100	0xbe3df33b	-0.18549816
101	0xbe976a86	-0.29573458
102	0xbd9004a4	-0.07032135
103	0x3d3e6395	0.046481688
104	0x3eb89f35	0.36058965
105	0x3f030935	0.51185924
106	0x3f02d4ab	0.51105756
107	0x3e1bea2d	0.1522605
108	0x3dd4ea5d	0.10396264
109	0x3d290c5c	0.041271552
110	0xbdc1a37a	-0.09455009
111	0xbd2d6596	-0.042333208
112	0xbec5d37b	-0.3863791
113	0xbddd96d1	-0.108197816
114	0xbdef2116	-0.116762325
115	0xbc6d4f06	-0.014484173
116	0xbd410a4a	-0.047128953
117	0xbefe0058	-0.49609637
118	0xbe06ca3c	-0.13163084
119	0x3d9b2365	0.0757511
120	0xbd992f0e	-0.07479678
121	0x3e515466	0.20442352
122	0xbe359c54	-0.17735416
123	0xbe3f7a00	-0.18698883
124	0x3b9043a9	0.004402597
125	0x3ded5b35	0.11589662
126	0x3e17c167	0.14819871
127	0x3d73ff64	0.05956973
128	0x3be2d180	0.006921947
129	0xbabaf4fe	-0.0014263687
130	0x3d4cdc0d	0.050014544
131	0x3d7f310e	0.06230264
132	0xbda69487	-0.08133798
133	0x3e0f052d	0.13966818
134	0xbd3d543a	-0.046222903
135	0xbdb32a8a	-0.08748348
136	0xbce4c523	-0.027926033
137	0xbe194358	-0.14967096
138	0x3d61502a	0.05500809
139	0xbd154f82	-0.036452778
140	0xbe0a4f85	-0.13506897
141	0x3da07463	0.07834699
142	0x3e06a771	0.13149811
143	0xbe42a172	-0.19006899
144	0xbd7e1322	-0.062029965
145	0xbd9a6657	-0.07539051
146	0xbdbbea3f	-0.09175538
147	0xbcfbc751	-0.03073469
148	0x3d093d0e	0.033505492
149	0x3e1af137	0.15131079
150	0x3dcbe3b9	0.09955544
151	0xbdf6e671	-0.12055672
152	0x3d3b4f9a	0.04573021
153	0xbda9a5b3	-0.08283558
154	0x3dd2ae69	0.10287172
155	0x3bce9f5b	0.0063056177
156	0x3d53b978	0.05169055
157	0x3e570694	0.20998603
158	0xbe1f59eb	-0.15561645
159	0x3cb8ce90	0.022559434
160	0xbe027c79	-0.12742795
161	0xbd9de602	-0.07709886
162	0xbe10e074	-0.14148122
163	0x3db569f6	0.08858101
164	0xbcd76f99	-0.026298331
165	0x3e572ad3	0.2101243
166	0xbd8780ed	-0.066163875
167	0xbc754ddc	-0.014972176
168	0xbdf36054	-0.118836075
169	0xbdd64e3a	-0.10464139
170	0x3e008726	0.12551555
171	0xbe5e5bc7	-0.21714698
172	0xbd488175	-0.048951585
173	0xbc053177	-0.008129469
174	0x3ddcaf1f	0.10775589
175	0xbd837f72	-0.06420793
176	0xbdc259d4	-0.094897896
177	0xbe21dae8	-0.15806162
178	0x39ff29bb	0.00048668482
179	0xbda55921	-0.080736406
180	0xbdfd7289	-0.123753615
181	0x3e072afa	0.13199988
182	0xbc0754d6	-0.008259973
183	0xbced2137	-0.028946502
184	0x3d84fcd8	0.064935386
185	0xbd608024	-0.054809704
186	0x3d00eeed	0.031477857
187	0x3c8150df	0.015785633
188	0x3dfdb835	0.1238865
189	0x3e55e732	0.20888975
190	0xbe3a14c8	-0.1817199
191	0x3d0b0532	0.0339405
192	0xbd1330d9	-0.035935257
193	0x3c17839f	0.0092476895
194	0xbdd33393	-0.103125714
195	0x3d36ef6e	0.04466193
196	0x3da93f1f	0.082639925
197	0x3df45bb5	0.11931554
198	0x3d048a1a	0.032358266
199	0xbe41fef1	-0.18944909
200	0xbf155b36	-0.583423
201	0x3d87c204	0.066288024
202	0xbe245908	-0.16049588
203	0xbdbc4513	-0.09192862
204	0x3e82114a	0.25403816
205	0xb9dd8f9d	-0.00042259405
206	0xbe3a5e2f	-0.1819999
207	0xbe7bfd45	-0.24608333
208	0x3e388ff6	0.18023667
209	0xbd70921e	-0.0587331
210	0x3e0d4d77	0.13799082
211	0x3e2b0ba9	0.16703667
212	0xbde9562f	-0.11393391
213	0xbd743aeb	-0.0596265
214	0xbf231b72	-0.63713753
215	0xbecf02f2	-0.40431935
216	0xbe98672c	-0.29766214
217	0x3caed3bc	0.021341197
218	0x3d8adea1	0.06780744
219	0xbd48e848	-0.049049646
220	0xbcbb8aaf	-0.022893278
221	0xbd3d90b8	-0.046280593
222	0xbd1693ce	-0.03676205
223	0x3b760dd8	0.0037544873
224	0x3a2b3fec	0.00065326574
225	0x3e2f1264	0.17096859
226	0x3c81a65c	0.015826397
227	0x3d06add8	0.032880634
228	0x3e0c2884	0.1368733
229	0xbe170e25	-0.1475149
230	0x3c81137c	0.015756361
231	0xbe041359	-0.12898006
232	0x3e761cf5	0.24034484
233	0x3ec053ef	0.37564036
234	0x3ebc3d2b	0.36765417
235	0xbf02ada2	-0.5104619
236	0xbdf34317	-0.11878031
237	0xbd19d8f7	-0.03756043
238	0xbdb5aea8	-0.08871204
239	0x3d1c2ce2	0.03812874
240	0xbe4c964f	-0.19979213
241	0xbe2b6759	-0.16738643
242	0xbe4d7d37	-0.20067297
243	0xbd322ea7	-0.043501522
244	0x3b876095	0.0041313865
245	0xbebad39f	-0.3648958
246	0x3e49c065	0.19702299
247	0x3d4c6c2b	0.049907845
248	0x3db0e511	0.08637441
249	0x3e02b03a	0.12762538
250	0x3de0f047	0.10983329
251	0xbcb9b025	-0.022667
252	0x3c878187	0.016541256
253	0x3db0cbde	0.086326346
254	0xbe0189d9	-0.12650241
255	0xbe149031	-0.1450813

convs.0.att f4 [10, 4]
0	0xbdb93d92	-0.09044947
1	0xbe33edf4	-0.1757124
2	0x3e8b81fe	0.27247614
3	0x3ddf10b6	0.10891859
4	0xbe1fcc89	-0.15605368
5	0xbd49cdc5	-0.049268503
6	0x3e9f4f71	0.31115296
7	0x3e010397	0.12599026
8	0xbe617ae7	-0.2201954
9	0x3df4751f	0.119364016
10	0x3ea33c23	0.31881818
11	0x3ddd77dc	0.10813877
12	0xbe41c329	-0.18922104
13	0x3e432831	0.190583
14	0x3ea611f7	0.3243558
15	0x3dbe9701	0.093061455
16	0xbcdb2878	-0.026752695
17	0x3d672cf7	0.056439366
18	0x3e9b6fa0	0.303586
19	0x3e167ed7	0.14696823
20	0xbd27273f	-0.040808912
21	0x3e5fc9ea	0.21854368
22	0x3e91974a	0.28435737
23	0x3e16865a	0.14699689
24	0x3ba96b94	0.005170295
25	0x3e75279d	0.23940893
26	0x3e5edceb	0.21763961
27	0x3ddf3590	0.10898888
28	0x3dbf5019	0.09341449
29	0x3e5e15ac	0.21687955
30	0x3e2faa3a	0.1715478
31	0x3daba8a9	0.08381779
32	0x3e3841a0	0.17993784
33	0x3e37cc99	0.17949142
34	0x3d944dc6	0.072413966
35	0xbc41e8cb	-0.011835287
36	0x3ea49932	0.3214813
37	0x3e1aed8c	0.1512968
38	0x3d20b4fd	0.039235104
39	0xbdf0db14	-0.11760536

convs.0.root f4 [4, 32]
0	0xbdb3aba2	-0.08772971
1	0x3c8c5956	0.017132442
2	0xbcd14a4a	-0.02554812
3	0x3e4b8b1a	0.19877282
4	0x3ddd2db9	0.107997365
5	0xba5aecce	-0.00083513267
6	0xbdf3d529	-0.119058914
7	0xbe63fc75	-0.22264273
8	0x3e6105cb	0.21974866
9	0x3ecd03ac	0.40041864
10	0x3eb2e267	0.34938356
11	0xbd97e9c6	-0.074176356
12	0x3d71437c	0.05890225
13	0x3e344708	0.17605221
14	0xbdd16586	-0.10224442
15	0xbd9a8a65	-0.07545928
16	0xbe574bcc	-0.21025008
17	0x3e4470b8	0.19183624
18	0x3cb5a9e1	0.022175731
19	0xbe6e48d6	-0.23269972
20	0x3d16215d	0.03665291
21	0xbdf63253	-0.12021317
22	0x3d53ac98	0.05167827
23	0x3e5dc154	0.2165578
24	0xbb0eff17	-0.0021819526
25	0x3e5c2095	0.21496804
26	0xbd323114	-0.043503836
27	0xbe84bddb	-0.25926098
28	0x3dc164c0	0.09443045
29	0xbe8336f4	-0.25627863
30	0x3d89fc43	0.06737568
31	0xbe2e4a0a	-0.17020431
32	0x3e212af7	0.15739046
33	0x3e3cd545	0.18440731
34	0xbe778085	-0.2417012
35	0x3e2a02e3	0.16602664
36	0xbdc8f4c4	-0.0981231
37	0xbe289a19	-0.16465034
38	0xbdd69252	-0.10477127
39	0xbe61d5c4	-0.22054201
40	0x3d54db21	0.05196679
41	0xbe4cb9a6	-0.19992694
42	0x3dac5b45	0.08415846
43	0x3e31e7f5	0.17373641
44	0x3e9dcf0f	0.30822036
45	0x3e4a8855	0.19778569
46	0xbe07f9df	-0.13278912
47	0x3e9fca42	0.31208998
48	0xbc32d13a	-0.010914141
49	0x3dc34778	0.09535116
50	0x3d86f713	0.065900944
51	0xbd620615	-0.05518158
52	0xbd8d0dcf	-0.068873994
53	0xbe6550d7	-0.22394119
54	0xbe7895d9	-0.24275912
55	0xbebfe547	-0.37479612
56	0xbe7914ba	-0.24324313
57	0xbc78c06d	-0.015182597
58	0x3e3e4a53	0.1858304
59	0x3d985ab2	0.07439174
60	0x3de8e5b4	0.113719374
61	0xbd91ba27	-0.07115584
62	0x3e7e5154	0.24835712
63	0x3e8ab4ac	0.27090967
64	0xbd45fa5e	-0.048334472
65	0x3e03f7c6	0.12887487
66	0x3cc2887d	0.023746723
67	0xbcfb8e61	-0.03070754
68	0xbdf756b0	-0.12077081
69	0xbe2719b5	-0.163184
70	0xbdca3a23	-0.0987437
71	0xbde3f702	-0.111310974
72	0xbdd0d9dc	-0.101978034
73	0x3b92f346	0.004484567
74	0xbe3446d1	-0.1760514
75	0xbc883f6f	-0.01663181
76	0x3d21d68f	0.03951126
77	0x3e2cf47d	0.1689014
78	0x390f2d05	0.00013654314
79	0xbd19bea6	-0.037535332
80	0xbdee0fc7	-0.11624103
81	0xbde77266	-0.11301117
82	0xbe2a105a	-0.166078
83	0x3e31dafa	0.17368689
84	0xbc45faa5	-0.012083684
85	0x3e0deb41	0.13859273
86	0xbe182264	-0.14856869
87	0x3d645661	0.05574644
88	0x3d194669	0.037420664
89	0x3da64a47	0.08119636
90	0x3dc0354f	0.09385168
91	0xbd2dc185	-0.042420883
92	0xbe161a06	-0.14658365
93	0xbde77b78	-0.11302847
94	0x3cae032b	0.021241745
95	0xbbdb5c52	-0.006694355
96	0xbdf90e5d	-0.12160943
97	0xbd01b3c3	-0.031665575
98	0xbd4e37e5	-0.050346274
99	0x3e517c6a	0.20457616
100	0xbc8c60c6	-0.017135989
101	0xbd656ffa	-0.056014992
102	0xbd4c4166	-0.049867056
103	0xbe224cc7	-0.158496
104	0xbe2622f0	-0.16224265
105	0x3dceaa38	0.100910604
106	0xbd989dbc	-0.074519604
107	0xbe2c7cec	-0.16844529
108	0x3e16decb	0.14733426
109	0x3e0cf56c	0.13765496
110	0x3d656115	0.056000788
111	0x3bff2c3e	0.0077872565
112	0x3c9c4244	0.019074567
113	0xbe395e14	-0.18102294
114	0xbd6ba358	-0.057528824
115	0x3e16a59f	0.14711617
116	0xbd956f82	-0.07296659
117	0x3df628cd	0.12019501
118	0xbe3f1335	-0.1865967
119	0xbe014cfa	-0.1262702
120	0xbd2f2e0f	-0.042768534
121	0x3de4a9ba	0.11165185
122	0xbb063ed8	-0.0020484235
123	0xbd155e02	-0.036466606
124	0xbe456216	-0.19275698
125	0xbd723ba4	-0.05913891
126	0xbdff4d2d	-0.12465892
127	0xbdad644c	-0.08466396

convs.0.bias f4 [32]
0	0x3e023529	0.12715591
1	0xb9c284ca	-0.000371015
2	0x3dccdc98	0.100030124
3	0xbe60d291	-0.21955325
4	0x3ddcd582	0.10782911
5	0xbba49fe2	-0.0050239423
6	0x3dc3368d	0.09531889
7	0x3e076a6d	0.13224192
8	0x3e355f45	0.17712124
9	0xbc80ed7c	-0.015738241
10	0x3d08e327	0.033419754
11	0x3e4b4a7d	0.19852634
12	0xbd72e428	-0.059299618
13	0xbe2edb33	-0.17075805
14	0xbe4eb45e	-0.20185992
15	0x3d3e7a41	0.04650331
16	0x3dad0230	0.08447683
17	0x3e54d32e	0.20783684
18	0x3e31e414	0.17372161
19	0xbdd53702	-0.104108825
20	0x3d6e2fcd	0.058151055
21	0xbe87b688	-0.26506448
22	0x3e1b8fd9	0.15191592
23	0x3c9fa6b7	0.019488676
24	0xb9acd88f	-0.00032967745
25	0xbd874671	-0.066052325
26	0xbdd1e804	-0.102493316
27	0x3d0364d1	0.032078568
28	0x3dd3bfa2	0.103392854
29	0xbe1139cd	-0.14182205
30	0x3e40346c	0.18769997
31	0x3bf54b80	0.007485807

convs.1.basis f4 [4, 32, 32]
0	0xbe003045	-0.12518413
1	0xbdb7b263	-0.089695714
2	0xbc89d61a	-0.016825724
3	0xbd0f6911	-0.03501231
4	0xbcf9a946	-0.030476224
5	0xbd518663	-0.05115355
6	0xbd8b4350	-0.06799948
7	0x3de7e89b	0.11323663
8	0x3c492260	0.012276262
9	0x3c9d4f73	0.019202923
10	0x3c6c18d3	0.014410215
11	0x3d5b562c	0.053548977
12	0xbcfb28de	-0.030659135
13	0x3a91dea9	0.001112898
14	0x3d87231e	0.06598495
15	0x3b01fd9b	0.0019834999
16	0xbb99a31f	-0.004688635
17	0xbcc2fd86	-0.02380253
18	0x3ce411ab	0.027840456
19	0xbda81599	-0.082072444
20	0x3d57bd43	0.05267073
21	0xbdb7dee2	-0.089780584
22	0x3d49b10e	0.049241118
23	0xbcae8a4f	-0.021306185
24	0xbcdc5014	-0.026893653
25	0x3d814db0	0.06313646
26	0x399ecb3d	0.00030287533
27	0x3d8a1c9b	0.06743737
28	0x3bf27d8e	0.007400221
29	0x3cbc3478	0.022974238
30	0xbc8135f3	-0.015772795
31	0xbc82bf46	-0.015960347
32	0xbc90416f	-0.017609326
33	0xbd04c4b6	-0.03241416
34	0xbd96575c	-0.07340881
35	0xbba343a8	-0.0049824305
36	0xbd4e6d8a	-0.050397433
37	0xbd097d0d	-0.033566523
38	0xbda860c9	-0.08221585
39	0xbb24f506	-0.002517046
40	0x3c7b0268	0.015320398
41	0xbb2ed89b	-0.00266794
42	0x3c22d6ba	0.00993889
43	0x3c8ad85d	0.016948873
44	0xbc468653	-0.012116986
45	0x3b2bd102	0.0026217108
46	0xbd3adc33	-0.045620155
47	0x3ddb90c6	0.10720973
48	0x3d6afa23	0.057367455
49	0x3b4e6934	0.0031495811
50	0x3c88c07b	0.016693344
51	0xbbc85445	-0.0061135613
52	0x3d2b9658	0.041891426
53	0xbdbcae3d	-0.09212921
54	0xbcb82eaf	-0.022483198
55	0xbc3cc4c5	-0.011521523
56	0xbca7268d	-0.020404125
57	0x3d18a27d	0.037264336
58	0xbb63d67e	-0.0034765298
59	0xbdbe05ad	-0.09278426
60	0x3cc763fe	0.024339672
61	0xbd286729	-0.041114006
62	0x3cd3a60d	0.025836015
63	0x3c1ac445	0.009446208
64	0x3db1dd33	0.086847685
65	0x3cf34068	0.029693797
66	0x3cd75c3e	0.026289102
67	0xbd7f2656	-0.06229242
68	0xbd294845	-0.041328687
69	0xbc16b058	-0.009197317
70	0x3dea579f	0.11442494
71	0xbe17dc4a	-0.14830127
72	0xbd0ea6d4	-0.03482707
73	0xbba540e0	-0.005043134
74	0x3d37a8f3	0.044838857
75	0xbbf6161f	-0.0075099613
76	0xbd63bd81	-0.055600647
77	0x3c9b51bd	0.018959874
78	0x3d544a07	0.05182841
79	0xbe099754	-0.13436633
80	0xbd184059	-0.03717074
81	0xbcc29c87	-0.023756279
82	0xbb24d06d	-0.0025148646
83	0xbb2f87bd	-0.0026783787
84	0x3c95d94b	0.01829209
85	0x3d86cafb	0.06581684
86	0x3c3a57d2	0.011373477
87	0x3d81f1f8	0.0634498
88	0xbdcdc063	-0.100464605
89	0xbc9cab73	-0.019124722
90	0x3d82f420	0.063942194
91	0x3d946b6d	0.07247052
92	0xbc0a3740	-0.008436024
93	0x3ce3cb3e	0.027806874
94	0xbd010334	-0.031497195
95	0xbd0807eb	-0.033210676
96	0xbd0d4b38	-0.034495562
97	0xbc0ce04d	-0.008598399
98	0x3d8b57c6	0.06803851
99	0x3d97b959	0.07408399
100	0x3da2bb1f	0.07945847
101	0x3cdea083	0.027176147
102	0x3cd38fcd	0.025825405
103	0x3cbdd0d8	0.023170874
104	0xbd135688	-0.035971195
105	0x3d09a3ac	0.033603355
106	0x3bb92535	0.0056501874
107	0xbc739aba	-0.014868433
108	0x3d67d75f	0.05660188
109	0xbcfc98f5	-0.030834654
110	0xbd60a313	-0.05484302
111	0x3d05caf2	0.032664247
112	0xbd2d2958	-0.042275757
113	0xbd5f2826	-0.054481648
114	0x3cf5f083	0.030021911
115	0x3b4d7bf5	0.0031354402
116	0xbd3ae955	-0.04563268
117	0x3d889078	0.0666818
118	0xbd64f395	-0.05589636
119	0x3bfcf984	0.0077201743
120	0x3d78e226	0.060762547
121	0xbc8f49e6	-0.017491292
122	0xbcef3439	-0.029199706
123	0x3d32b31d	0.043627847
124	0x3bdeaba1	0.006795362
125	0x3b8192ea	0.003954281
126	0xbd03c419	-0.032169435
127	0x3c9d65ca	0.019213576
128	0x3db46726	0.088087365
129	0x3a704a9a	0.000916639
130	0x3d7e142b	0.062030952
131	0x3c805af0	0.015668362
132	0x3d030ecc	0.031996533
133	0xbc34b311	-0.011029021
134	0x3dc6c555	0.09705607
135	0xbbc35c75	-0.0059619495
136	0x3b14a52d	0.002268146
137	0x3ca1c5d9	0.019747661
138	0x3d2ae4d0	0.04172212
139	0xbd649338	-0.05580446
140	0x3d8b5654	0.06803575
141	0x3c7bed93	0.015376466
142	0x3d9d2851	0.07673705
143	0xbd8c2adc	-0.06844112
144	0xbd21ce41	-0.03950334
145	0x3abd6d04	0.0014452045
146	0xbd86d612	-0.065837994
147	0x3cea4f58	0.028602287
148	0x3c81e971	0.015858384
149	0xbbd69e92	-0.006549665
150	0x3de90411	0.11377729
151	0x3c4c7d7e	0.012481092
152	0x3c7122a2	0.01471773
153	0x3c0c803b	0.008575494
154	0xbc5c70ad	-0.013454598
155	0x3e04ade8	0.12956965
156	0xbdbcefbc	-0.09225413
157	0x3dd764ad	0.10517249
158	0xbd2b971c	-0.041892156
159	0x3bb2cbd4	0.005456427
160	0x3bc0785f	0.0058737244
161	0x3cbeb73c	0.023280732
162	0x39749f7a	0.00023329063
163	0xbca2403a	-0.019806016
164	0x3d816892	0.06318773
165	0xbc204bf4	-0.009783734
166	0x3e2dcfe8	0.16973841
167	0xbc507f90	-0.012725726
168	0xb9ac1eb0	-0.0003282926
169	0xbc12b356	-0.00895389
170	0xbcb1ff5c	-0.02172821
171	0x3b501d9a	0.0031755925
172	0x3d58e14e	0.052949242
173	0xbd1adc2c	-0.03780763
174	0xbdd4cb7f	-0.10390376
175	0x3e01ff54	0.12695056
176	0xbbfc7913	-0.007704863
177	0xbd770b68	-0.060313612
178	0x3b849dd6	0.004047136
179	0xb8f0c0fd	-0.00011480039
180	0xbcd6e3cd	-0.02623167
181	0x3d9913de	0.074744925
182	0xbdd4a370	-0.10382736
183	0x3d0d627a	0.034517743
184	0x3dd7c70f	0.10536014
185	0x3c9fab6d	0.019490922
186	0xbcc1454e	-0.023592617
187	0x3d2a81e4	0.04162778
188	0x3d845355	0.06461207
189	0xbd12267b	-0.03568123
190	0xbbbe094c	-0.005799448
191	0x3c7c35bf	0.015393673
192	0xbd4cc57b	-0.04999302
193	0xbcf5c01a	-0.029998828
194	0xbc1416b9	-0.009038621
195	0xbc9a5722	-0.018840376
196	0x3bcd7e57	0.0062711644
197	0x3d37c7aa	0.04486815
198	0x3d02a334	0.031893924
199	0x3beccf49	0.0072268588
200	0xbbc856a2	-0.006113843
201	0x3c48195b	0.012213076
202	0xba03b1f7	-0.0005023772
203	0xbceacaab	-0.028661093
204	0xbaa0dee4	-0.0012273458
205	0x3be9b64d	0.0071323276
206	0x3d3b50fe	0.045731537
207	0xbdceb0a6	-0.10092287
208	0xbd7d936f	-0.06190818
209	0x3c5b25f0	0.013375744
210	0x3c776e31	0.015101955
211	0x3ac2785c	0.0014836895
212	0x3c698ca5	0.014254724
213	0x3ce164c7	0.027513875
214	0x3dbb2dd6	0.09139602
215	0x3cf039d6	0.029324453
216	0x3aa10f4a	0.0012287882
217	0xba81dbe0	-0.0009907447
218	0xbcae320d	-0.0212641
219	0x3dd68b7f	0.104758255
220	0xbdbbde6c	-0.09173283
221	0x3c25fc9d	0.0101310285
222	0xbc4fabe5	-0.01267526
223	0x3c9346fd	0.017978186
224	0xbe733268	-0.23749697
225	0xbd49165d	-0.049093593
226	0xbd1b2fef	-0.03788751
227	0xbd2e3ab9	-0.04253647
228	0xbd358225	-0.04431357
229	0xbdcec519	-0.10096187
230	0xbe20d708	-0.15707028
231	0x3e431a06	0.19052896
232	0x3d33ce87	0.04389813
233	0xbb3ff843	-0.0029292263
234	0xbca0418e	-0.019562509
235	0x3c91e1ee	0.017807927
236	0x3bd65014	0.006540308
237	0xbdafefc8	-0.085906565
238	0x3d4bbd5d	0.049741138
239	0x3e2a37ab	0.16622798
240	0x3d866689	0.06562526
241	0xbce45ea2	-0.027877156
242	0x3c607f3a	0.013702208
243	0xbce8c11c	-0.028412394
244	0x3c8e2ccb	0.017355343
245	0xbe8e6e9d	-0.27818766
246	0x3cc2b606	0.023768436
247	0xbd96c162	-0.073611036
248	0xbcb12491	-0.021623882
249	0xbb6dbe2e	-0.0036276686
250	0xbd002924	-0.031289235
251	0xbdc6dd0b	-0.09710129
252	0x3d449ade	0.047999255
253	0xbc1948a4	-0.009355698
254	0x3cc196a1	0.023631396
255	0xbce5fc55	-0.028074423

convs.1.att f4 [10, 4]
0	0xbd290ea5	-0.04127373
1	0x3e3bb428	0.18330443
2	0xbe8c6a97	-0.27425072
3	0x3bbe9317	0.0058158743
4	0x3d80b771	0.06284989
5	0x3e0fb449	0.14033617
6	0xbe79b421	-0.2438512
7	0xbb3d159c	-0.0028851992
8	0x3e000288	0.12500966
9	0x3db722db	0.08942195
10	0xbe6300e5	-0.2216831
11	0xbd2ff1a5	-0.04295506
12	0x3dcfc713	0.10145392
13	0xbc988d26	-0.018621992
14	0xbe400cf5	-0.18754943
15	0xbdacd7ed	-0.08439622
16	0x3ddcff33	0.10790863
17	0xbd4ea399	-0.050448988
18	0xbe128da2	-0.14311841
19	0xbd9ff002	-0.0780945
20	0x3d0e284d	0.034706403
21	0xbdc92a28	-0.09822494
22	0xbe005def	-0.12535833
23	0xbd94850a	-0.07251938
24	0x3d120d49	0.0356572
25	0xbe080124	-0.13281685
26	0xbd92124f	-0.07132398
27	0x3d4cf304	0.050036445
28	0x3d2ce7e5	0.04221334
29	0xbe30e7fb	-0.17275994
30	0x3b7fcbe1	0.0039031433
31	0x3db437ab	0.0879968
32	0xbd337f2f	-0.043822464
33	0xbe349f0e	-0.176388
34	0x3cff50b2	0.031166408
35	0x3dc80fe0	0.09768653
36	0xbe272f9d	-0.16326757
37	0xbe343d03	-0.17601399
38	0x3d9f377a	0.07774253
39	0x3d364dce	0.044507794

convs.1.root f4 [32, 32]
0	0xbd2f8adb	-0.042857032
1	0x3dd46f16	0.103727505
2	0x3c9a12c6	0.01880778
3	0x3cab675b	0.020923307
4	0x3ce0ea77	0.027455552
5	0xbd141c15	-0.036159594
6	0xbe544875	-0.20730765
7	0x3da8aabb	0.08235689
8	0xbc4d1e1d	-0.012519387
9	0xbd0194cf	-0.031636056
10	0x3d29b3c5	0.041431207
11	0x3bf1b38e	0.007376141
12	0xbdcc4d9a	-0.09975739
13	0xbc923705	-0.017848501
14	0xbb736d59	-0.0037144034
15	0x3d255a0d	0.040369082
16	0xbab40c01	-0.0013736488
17	0xbc8ce7b0	-0.017200321
18	0xbd9b5da9	-0.07586224
19	0x3b9842ee	0.0046466505
20	0xbcbf82ac	-0.023377739
21	0x3d1a119a	0.037614442
22	0x3cb698eb	0.022289714
23	0x3d0b1650	0.033956826
24	0xbd49bd6e	-0.04925292
25	0xbd2f54b2	-0.04280538
26	0xbce9b14b	-0.028526923
27	0x3dbf98a9	0.093552895
28	0xbd5b94e5	-0.053608794
29	0xbdf2113c	-0.118196934
30	0xbd11c19e	-0.03558504
31	0x3cee9657	0.029124422
32	0x3bef133d	0.0072959946
33	0x3caf7ce1	0.021421852
34	0x3db7d728	0.08976585
35	0x3c0be270	0.008537874
36	0x3d539336	0.051654063
37	0xbc3dc0f5	-0.011581649
38	0x3ddc7644	0.10764745
39	0x3d0dca0d	0.03461652
40	0x3b44822c	0.0029984815
41	0xbd32b10c	-0.043625876
42	0x3d60643a	0.054783083
43	0x3da3bc31	0.07994879
44	0xbd704e21	-0.05866826
45	0xbd9f9aef	-0.07793223
46	0xbbbe4947	-0.005807075
47	0xbd4210c0	-0.047379255
48	0xbd65c92c	-0.056100056
49	0xbcc8b218	-0.024498984
50	0x3dc3ea42	0.095661655
51	0x3c1fe077	0.009758106
52	0xbb9184cc	-0.0044408794
53	0x3dcd39a8	0.10020763
54	0xbb59ee38	-0.0033253562
55	0xbd1b8ea5	-0.037977833
56	0x3d4f072b	0.050543945
57	0x3caaa855	0.02083222
58	0x3c8e9e27	0.017409397
59	0xbde64fac	-0.11245665
60	0xbc0b1f34	-0.008491326
61	0xbdb4481d	-0.08802817
62	0xbd13415e	-0.03595101
63	0xbd0907ca	-0.033454694
64	0x3c8c7d9a	0.017149735
65	0xbcad7684	-0.021174677
66	0x3d4c9d21	0.049954537
67	0x3cf49c08	0.029859558
68	0x3bab8613	0.0052344888
69	0xbd9f3133	-0.07773056
70	0x3e03b34a	0.12861362
71	0x3d895dcb	0.06707343
72	0x3cab7181	0.020928146
73	0x39c7b388	0.0003809
74	0xbcc5ac35	-0.024129966
75	0xbb434b82	-0.0029799645
76	0x3d27d7c3	0.04097725
77	0xbd29712b	-0.04136769
78	0xbd793af0	-0.060847223
79	0xbd053ce1	-0.03252876
80	0xbd363451	-0.044483487
81	0xbdccb43f	-0.09995317
82	0xbc10d31d	-0.008839396
83	0xbd4869c5	-0.048928995
84	0xbd23913c	-0.03993343
85	0x3c0f0cd2	0.008731084
86	0xbc34441a	-0.011002565
87	0x3d1e0bdb	0.038585525
88	0x3d727255	0.059191067
89	0xbc202623	-0.0097747175
90	0x3d5fb8c8	0.05461958
91	0xbc9b26ca	-0.018939395
92	0x3d9267f3	0.07148733
93	0xbdb990cc	-0.09060821
94	0xbd94f936	-0.07274096
95	0x3d08e488	0.03342107
96	0x3d206886	0.03916218
97	0x3da9ace0	0.082849264
98	0xbc053b9d	-0.008131889
99	0xbddb108a	-0.10696514
100	0xbd20f65e	-0.039297454
101	0x3cd84d83	0.026404148
102	0xbd390f2b	-0.04518048
103	0xbd1c13d2	-0.03810484
104	0xbd81ffdc	-0.063476294
105	0x3da3b603	0.079937
106	0x3dc1685a	0.094437316
107	0x3d321d5f	0.04348504
108	0x3c46e2ad	0.012139005
109	0xbc4a98d5	-0.01236554
110	0x3cf8ef86	0.030387651
111	0x3dad8b63	0.084738515
112	0xbc915412	-0.017740283
113	0xbd508c01	-0.050914768
114	0x3d6c0862	0.057625182
115	0x3db569f3	0.08858099
116	0xbd41d879	-0.047325585
117	0x3c1bd7af	0.009511872
118	0x3e05d7f7	0.13070665
119	0x3b9e1e68	0.004825402
120	0xbd07993d	-0.033105124
121	0x3cab3fd9	0.020904468
122	0x3ddfd1b7	0.10928672
123	0x3e02cdda	0.12773839
124	0x3cb2cbd9	0.021825718
125	0x3bec530d	0.007212049
126	0xbcada1dd	-0.021195346
127	0x3d58d9f3	0.052942228
128	0x3d8bfbad	0.06835113
129	0x3df257a6	0.11833124
130	0x3d8dc6a9	0.06922657
131	0xbcde0607	-0.027102483
132	0x3dc2a0b2	0.095033064
133	0x3d4fb5fb	0.05071066
134	0x3d987a62	0.07445218
135	0xbdc3c44d	-0.09558926
136	0xbd80f5db	-0.06296893
137	0xbd1cae2f	-0.038252052
138	0xbd5a9feb	-0.053375166
139	0x3cc2bb30	0.023770899
140	0x3d3fa9df	0.04679286
141	0xbb26645e	-0.0025389413
142	0xbe012fb8	-0.1261586
143	0x3cf7457c	0.0301845
144	0xbc820ad3	-0.015874302
145	0xbda6344f	-0.08115446
146	0xbc768248	-0.01504571
147	0xbc9b2233	-0.018937206
148	0x3dec9c54	0.11553255
149	0x3e206100	0.15662003
150	0xbc7e009d	-0.015503076
151	0xbca709e1	-0.020390453
152	0xbd20e186	-0.039277576
153	0x3d76a40a	0.060215034
154	0x3d9bc495	0.076058544
155	0xbd335ef8	-0.04379174
156	0x3d03dfba	0.032195784
157	0xbc868373	-0.016420102
158	0x3d10b5a6	0.035329483
159	0xbdc3fc7a	-0.095696405
160	0x3d95ba07	0.073108725
161	0xbb088838	-0.0020833146
162	0xbca38901	-0.01996279
163	0x3d7e0ba1	0.06202281
164	0x3cd3bea3	0.025847739
165	0x3d12e3fb	0.03586195
166	0xbd2df432	-0.04246921
167	0x3db95a30	0.09050405
168	0x3da66613	0.08124938
169	0x3c276aba	0.010218317
170	0x3ddd80a7	0.10815554
171	0xbdd6d064	-0.10488966
172	0xbde0de0a	-0.109798506
173	0xbda0f4cf	-0.078591935
174	0x3ce4e3fb	0.02794074
175	0xbd31ddaf	-0.043424305
176	0xbd3a92bc	-0.045550093
177	0x3d61e19a	0.05514679
178	0xbd889307	-0.06668668
179	0x3d860bef	0.06545245
180	0xbcab638e	-0.020921495
181	0x3caa7706	0.020808708
182	0x3d7de184	0.061982647
183	0xbd37c877	-0.044868913
184	0xbe0fbfd3	-0.14038019
185	0xbd3fd3a5	-0.0468327
186	0x3ce7e85d	0.028309042
187	0x3e0f6e8c	0.14007014
188	0xbdad5db8	-0.08465141
189	0xbd0c13d7	-0.03419861
190	0xbc1ed9c3	-0.009695473
191	0xbcde804c	-0.027160786
192	0xbcf69204	-0.030098923
193	0xbd30026c	-0.04297106
194	0x3dacb9c1	0.08433867
195	0xbd53369e	-0.05156576
196	0xbc6f13d8	-0.014592133
197	0xbc9c2828	-0.019062117
198	0xbd77c480	-0.06049013
199	0xbd82edce	-0.06393014
200	0x3d195bde	0.037441127
201	0xbb96e3b8	-0.004604783
202	0xbd525ea4	-0.051359788
203	0x3d6dabac	0.058025047
204	0xbd8e9da1	-0.06963659
205	0x3ce2af5d	0.02767151
206	0xbd2a414a	-0.04156617
207	0xbc45b58f	-0.012067213
208	0xba1701d9	-0.0005760468
209	0xbd667557	-0.056264248
210	0xbdb710dd	-0.08938763
211	0x3bd77ebf	0.0065763886
212	0xbc584d5e	-0.0132020395
213	0x3d85facc	0.06541976
214	0x3dd000bf	0.10156392
215	0xbd92582c	-0.07145724
216	0x3ce7b872	0.028286193
217	0x3d9ee586	0.07758622
218	0xbbb5a5f2	-0.005543464
219	0xbc81a1dc	-0.01582425
220	0xbdca94ee	-0.09891687
221	0x3d48f2f5	0.049059827
222	0x3c563d54	0.013076145
223	0x3d8935ac	0.0669969
224	0xbb9f176b	-0.0048550866
225	0x3d606d12	0.054791518
226	0xbd91a812	-0.07112135
227	0xbd46a9a2	-0.04850162
228	0xbd79f7b3	-0.06102724
229	0xbd3edc1e	-0.04659664
230	0xbe360846	-0.17776594
231	0xbd1863f3	-0.037204694
232	0x3c3e2c84	0.011607293
233	0x3d1f9ece	0.038969807
234	0x3d2375bf	0.039907213
235	0xbd5ed363	-0.054400813
236	0xbd01d7d1	-0.03169996
237	0x3da0b39d	0.078467585
238	0xbd415d7f	-0.047208305
239	0xbdae2141	-0.085024364
240	0x3bfb05e1	0.007660613
241	0x3d077bca	0.03307704
242	0x3d69816b	0.05700819
243	0x3da6d145	0.08145384
244	0x3d617632	0.05504436
245	0xbce2926b	-0.027657708
246	0xbbe0a774	-0.0068558995
247	0xbcc1d949	-0.02366318
248	0xbda475d9	-0.0803029
249	0xbc14aff2	-0.009075152
250	0xba97ec1e	-0.0011590754
251	0x3d5a73cc	0.05333309
252	0xbb53a002	-0.0032291417
253	0x3d9aaf8a	0.07553013
254	0xbccd6487	-0.02507235
255	0xbd1c0778	-0.03809306

convs.1.bias f4 [32]
0	0xbd75bb74	-0.059993222
1	0xbd2c97e9	-0.04213706
2	0xbc853b87	-0.016263736
3	0xbd2e04f0	-0.042485178
4	0xbcb7dfe0	-0.02244562
5	0xbe034a6d	-0.1282136
6	0xbd880173	-0.066409014
7	0x3d3dfdbb	0.046384554
8	0x3c353065	0.011058901
9	0xbcbcfcbc	-0.023069732
10	0x3d2b1cea	0.04177562
11	0xbd843d95	-0.06457058
12	0xbda166f7	-0.07880967
13	0x3db02a92	0.0860187
14	0x3dc8dcbe	0.09807728
15	0x3df6f2dc	0.120580405
16	0xbd1aa56e	-0.037755422
17	0x3da8ba38	0.082386434
18	0x3d9215e9	0.07133085
19	0x3d29ac3d	0.041424025
20	0xbcb5d436	-0.022195917
21	0xbd51e7e2	-0.05124653
22	0xbc10a978	-0.008829467
23	0xbd93983a	-0.07206769
24	0xbd830e39	-0.06399197
25	0x3d8d4823	0.068985246
26	0x3cbe1a6f	0.023205964
27	0xbddd0a03	-0.10792925
28	0xbd85836e	-0.06519209
29	0x3b5dde05	0.0033854258
30	0xbd2c9a64	-0.042139426
31	0x3d53b66e	0.05168765

convs.2.basis f4 [4, 32, 32]
0	0x3b0a4bf1	0.0021102394
1	0xbd04ba91	-0.032404486
2	0x3cc4ea52	0.024037514
3	0x3d312673	0.04324956
4	0xbde372b0	-0.11105859
5	0xbb909be3	-0.0044131144
6	0x3d20e641	0.039282087
7	0x3cf18156	0.029480617
8	0xbd1d33fd	-0.038379658
9	0xbc4198b6	-0.011816194
10	0xbd8058e8	-0.062669575
11	0x3bfb319a	0.007665825
12	0x3d52a87f	0.05143022
13	0xbccc42fe	-0.024934288
14	0x3c3d3e55	0.011550506
15	0xbc5649dd	-0.013079134
16	0x3943bc9d	0.00018666913
17	0x3d684e69	0.056715403
18	0xbd429127	-0.04750171
19	0x3c2502ae	0.01007144
20	0xbc3d2a3f	-0.011545717
21	0x3b6da922	0.003626414
22	0x3d4a0336	0.04931947
23	0xbd2e6040	-0.04257226
24	0xbd730827	-0.059333947
25	0xbce92833	-0.028461551
26	0x3d21f7e5	0.03954305
27	0xbb9eeae6	-0.0048497794
28	0x3b42c0aa	0.0029716888
29	0x3c8cac17	0.017171903
30	0xbcff7665	-0.031184385
31	0xbdb87aa6	-0.09007768
32	0x3c8fd093	0.01755551
33	0x3dde24ac	0.10846838
34	0xbc3528ca	-0.011057088
35	0xbcf757e0	-0.03019327
36	0x3c3dff92	0.011596577
37	0xbca9a09e	-0.020706471
38	0xbd372037	-0.044708457
39	0x3c562098	0.013069294
40	0x3d3e1975	0.046410996
41	0x3d5fccdf	0.05463874
42	0x3d50ca18	0.05097398
43	0xbd079596	-0.03310164
44	0xbd8ff0e1	-0.07028366
45	0xbc9d21a4	-0.01918108
46	0x3dc651e9	0.09683592
47	0x3d70d598	0.05879745
48	0x3c4099e0	0.011755437
49	0xbc8ea9d8	-0.017414972
50	0xbc708850	-0.014680937
51	0x3c6c5277	0.014423958
52	0x3bf03201	0.0073301797
53	0x3d40f767	0.04711094
54	0x3c962fdc	0.018333368
55	0xbda9419b	-0.082644664
56	0x3cb2629b	0.021775534
57	0xbd9b7b0c	-0.07591829
58	0xbc134413	-0.008988398
59	0x3d254f20	0.040358663
60	0x3dd02f10	0.101652265
61	0xbd970841	-0.07374621
62	0xbb47826b	-0.0030442725
63	0x3da56b6f	0.08077132
64	0x3c854b9d	0.016271407
65	0x3c9bb7ce	0.019008543
66	0xbdbe9f58	-0.09307736
67	0x3ccf8c4e	0.025335457
68	0x3c928a80	0.017888308
69	0xbd76bb06	-0.060236953
70	0xbd1f0fd2	-0.038833447
71	0xbce0130f	-0.027352838
72	0xbca2da0c	-0.019879363
73	0x3dc756fd	0.097333886
74	0x3ce3df72	0.027816508
75	0x3d63b02a	0.055587925
76	0xbccbdc65	-0.024885366
77	0x3cb10a4f	0.02161136
78	0x3df3146f	0.11869132
79	0xbd19cd8f	-0.03754955
80	0x3cbae7ca	0.022815604
81	0x3d7436ce	0.05962258
82	0x3ce180fa	0.027527321
83	0xbd11df5d	-0.035613406
84	0x3aa560bd	0.0012617331
85	0x3d89ff98	0.06738204
86	0x3d81886c	0.063248485
87	0xbd9fb18e	-0.07797538
88	0x3db32c41	0.08748675
89	0xbd853bca	-0.065055445
90	0xbbeebf56	-0.0072859926
91	0xbb8de0ed	-0.0043297918
92	0xbbbaae3f	-0.0056970413
93	0x3c7ad33a	0.015309149
94	0x3d413e68	0.047178656
95	0x3dda4d34	0.106592566
96	0xbd4a4a10	-0.049387038
97	0xbd54c7b7	-0.051948275
98	0x3ba23f9c	0.0049514305
99	0x3b8a5283	0.004221262
100	0x3d0e2eeb	0.034712713
101	0x3d1088b7	0.03528663
102	0x3d3dced1	0.046339814
103	0x3decce3a	0.11562772
104	0xbd901cc9	-0.0703674
105	0xbdd43457	-0.103615455
106	0xbbbab325	-0.005697625
107	0x3d84633d	0.06464241
108	0x3cb8f917	0.022579713
109	0xbd8d3b99	-0.06896133
110	0xb99ca1ea	-0.00029875274
111	0xbb7a2e05	-0.0038174402
112	0x3baef532	0.005339288
113	0xbd7b490b	-0.061348956
114	0x3d7229e0	0.059121966
115	0x3d12babb	0.03582261
116	0xbc5e22cb	-0.0135581
117	0xbda1ff39	-0.07910008
118	0xbcb05e9b	-0.021529486
119	0x3d8e7c11	0.069572575
120	0xbcdfa7f8	-0.027301773
121	0xbc55b7ca	-0.013044307
122	0xbdaad1e7	-0.08340817
123	0xbc6c1ec9	-0.014411637
124	0xbbe6581e	-0.0070295474
125	0xbc5ee6da	-0.013604844
126	0xbd81cd29	-0.06337959
127	0x3d2ff67b	0.04295967
128	0x3d353b8a	0.044246234
129	0x3cf09958	0.029369995
130	0xbdc048d7	-0.09388893
131	0xbd82a29c	-0.063786715
132	0x3d166079	0.036713097
133	0xbd49d8d4	-0.04927905
134	0xbdb78303	-0.089605354
135	0x3d761f92	0.0600887
136	0xbd88fa6f	-0.066883914
137	0xbd324b07	-0.043528583
138	0xbd58e81f	-0.052955743
139	0xbca9b44c	-0.020715855
140	0xb98bc256	-0.00026656938
141	0xbccf5182	-0.02530742
142	0x3da17285	0.07883171
143	0x3ca5026e	0.02014276
144	0x3d2ad188	0.04170373
145	0x3b069661	0.002053641
146	0xbd33980a	-0.043846168
147	0x3d7ac275	0.061220605
148	0xbca67f89	-0.020324485
149	0x3dbe1820	0.09281945
150	0xbca74222	-0.020417277
151	0xbaa6a948	-0.0012715245
152	0xbcd3f6d1	-0.025874527
153	0xbb167929	-0.00229604
154	0x3c81d84a	0.015850205
155	0xbd84f3a6	-0.06491785
156	0x3d55056b	0.05200712
157	0xbc975499	-0.018472956
158	0xbcb36161	-0.02189702
159	0x3c0d2663	0.008615109
160	0xbb46db9f	-0.0030343307
161	0x3cae524f	0.021279482
162	0x3b407d1d	0.0029371448
163	0x3cdccdb5	0.026953558
164	0xbd8b948e	-0.06815444
165	0x3d44faa6	0.0480906
166	0x3d0c11a8	0.034196526
167	0x3c5220d2	0.012825208
168	0x3c948e6f	0.018134324
169	0x3d4b1650	0.049581826
170	0xbc879a59	-0.01655309
171	0xbc0f0195	-0.0087284045
172	0xbd072a3f	-0.032999273
173	0xbd3f1f20	-0.046660542
174	0x3d71b2e9	0.059008513
175	0x3d398d5e	0.045300834
176	0x3b65ebd6	0.0035083196
177	0x3d985381	0.07437802
178	0x3d2de066	0.04245033
179	0x3c7350f6	0.014850846
180	0x3cfd8a50	0.030949742
181	0xbb700fb7	-0.003663046
182	0x3bf3d629	0.0074413014
183	0xbc5ebb67	-0.013594485
184	0x3cf89687	0.030345215
185	0x3c1fc677	0.009751908
186	0x3cf85b64	0.030317016
187	0x3c95f7af	0.018306581
188	0x3ca02e40	0.019553304
189	0x3d15dfc4	0.036590353
190	0x3cf3b379	0.029748665
191	0xbc77902e	-0.015110059
192	0x3ce140fb	0.027496805
193	0x3c29ec01	0.010371209
194	0xbdd9a0cc	-0.10626373
195	0x3d77d2de	0.060503833
196	0x3d963c84	0.07335761
197	0xbca5a66a	-0.020220954
198	0xbd3709e0	-0.044687152
199	0xbdb9e646	-0.09077124
200	0xbd047ea7	-0.032347348
201	0xbc835520	-0.016031802
202	0xbd0cf8b8	-0.034416884
203	0x3db59b64	0.08867529
204	0x3cd93853	0.026516115
205	0xbdc0f4e9	-0.09421713
206	0x3ca0c703	0.019626146
207	0x3cc2e1ff	0.023789404
208	0xbc012525	-0.007882391
209	0x3d8289e7	0.06373959
210	0x3bb7e813	0.005612382
211	0xbbfab642	-0.0076511214
212	0xbc3477c6	-0.011014884
213	0xbb381783	-0.0028090186
214	0x3d6185e0	0.055059314
215	0xbd2d0765	-0.04224338
216	0x3d87e89a	0.06636162
217	0x3c82a59f	0.015948115
218	0x3d531f90	0.051543772
219	0xbd19a9e0	-0.03751552
220	0xbde3ba30	-0.11119497
221	0xbd14c6d0	-0.036322415
222	0x3d8a5631	0.06754721
223	0x3d160e62	0.03663481
224	0x3db4fb52	0.08836998
225	0x3ce30b8d	0.027715469
226	0xbd15e5ed	-0.036596227
227	0x3c088c1a	0.008334184
228	0x3d74f2c6	0.05980184
229	0xbbce1c1d	-0.0062899725
230	0x3d387103	0.04502965
231	0xbc14520d	-0.009052766
232	0xbc0a0fea	-0.008426646
233	0x3c6eff8d	0.014587295
234	0xba67a6c0	-0.00088367984
235	0x3d808c26	0.06276731
236	0xbc57f5ff	-0.013181209
237	0x3cbb42bd	0.022858972
238	0x3d7dd1ff	0.061967846
239	0xbd1691ee	-0.036760263
240	0xbdae619d	-0.08514712
241	0x3d220cdd	0.03956305
242	0xbd2bddca	-0.04195956
243	0xbbc96e82	-0.0061472068
244	0xbd12cb9c	-0.03583871
245	0x3cc37b25	0.02386243
246	0x3c0b3ce3	0.008498403
247	0xbd3aedb5	-0.04563685
248	0x3dbdd74a	0.09269579
249	0xbc8f615b	-0.017502477
250	0xbcf3e24d	-0.029770995
251	0x3cb812dd	0.022469932
252	0x3d58b4e3	0.052906882
253	0x3bd60e36	0.006532456
254	0xbd13aabe	-0.036051504
255	0x3d1f4fbf	0.03889441

convs.2.att f4 [10, 4]
0	0x3cef083e	0.029178735
1	0x3c922d0b	0.017843744
2	0x3cae6223	0.02128703
3	0x3ba062ff	0.0048946138
4	0x3ca3250a	0.019915123
5	0xbb07158d	-0.002061221
6	0x3c9a37c7	0.018825425
7	0x3cb39b9c	0.021924786
8	0x3ab490fa	0.0013776117
9	0xbc5b7c7d	-0.01339638
10	0xba219106	-0.0006163273
11	0x3c682f28	0.014171399
12	0xbc5949db	-0.013262237
13	0xbadeb642	-0.0016991573
14	0xbc7bdd9d	-0.015372661
15	0xbba4c6e9	-0.0050285948
16	0xbc8ae4fe	-0.016954895
17	0xbd037995	-0.03209837
18	0x3bbfbee8	0.005851615
19	0x3c512f76	0.012767663
20	0xbb980b57	-0.0046400237
21	0xbc6e7265	-0.014553641
22	0xbb95de82	-0.004573644
23	0xbc28bcf9	-0.010298961
24	0xbc45a0e9	-0.01206229
25	0x3b924532	0.004463815
26	0xbc00d3b2	-0.007862972
27	0xbbccb950	-0.006247677
28	0x3b557baf	0.0032574942
29	0x3ab80122	0.0014038424
30	0x3bebd1b2	0.0071966285
31	0x3c1a6179	0.009422653
32	0xbb86692e	-0.004101894
33	0xbbd75d55	-0.0065724053
34	0xbba5a1a5	-0.00505467
35	0x3be10e68	0.0068681724
36	0x3adb51f9	0.0016732804
37	0x3b808901	0.003922582
38	0xbc6ef9f3	-0.01458596
39	0xbc5b8130	-0.0133975

convs.2.root f4 [32, 32]
0	0xbc546c89	-0.01296533
1	0xbd7f8d18	-0.062390417
2	0x3ddca2b7	0.10773223
3	0xbd0b6613	-0.034032892
4	0xbc0d4a09	-0.008623608
5	0xbde0a4f4	-0.10968962
6	0xbda3d6a3	-0.07999923
7	0xbd4b4fef	-0.049636777
8	0x3d3a4b93	0.04548223
9	0xbd3f2125	-0.04666247
10	0x3ceb62e6	0.028733682
11	0x3c9a88a3	0.018863982
12	0xbc7495fc	-0.014928337
13	0x3d5c64b3	0.05380697
14	0xbd7a54c0	-0.06111598
15	0xbd724f43	-0.05915762
16	0xbbe2c26a	-0.0069201486
17	0x3c935cd2	0.017988596
18	0x3d38d579	0.04512546
19	0x3c04a652	0.0080962945
20	0xbc127f86	-0.008941537
21	0xbd342ce0	-0.04398811
22	0xbd4ba274	-0.049715474
23	0x3c9fb00d	0.019493127
24	0xbddcf035	-0.10788003
25	0x3b8ad346	0.0042366115
26	0x3d5089e5	0.050912756
27	0xbbda1020	-0.0066547543
28	0x3cacfe4e	0.021117356
29	0x3ca48ccd	0.02008667
30	0xbd2c326b	-0.04204027
31	0xbcd1ea67	-0.025624467
32	0x3c949e36	0.018141847
33	0xbaba7f85	-0.0014228678
34	0xbd190f52	-0.037368126
35	0x3cf00b79	0.029302346
36	0xbc232f9f	-0.009960084
37	0x3d587383	0.052844536
38	0xbd8f4e01	-0.069973
39	0xbdc3e028	-0.09564239
40	0x3d04d54f	0.03242999
41	0xbba7fd0f	-0.0051266025
42	0xbcfb56c5	-0.030681023
43	0xbc2d45b1	-0.010575698
44	0xbc3f7380	-0.011685252
45	0x3d9ee8e9	0.07759268
46	0xbc07a6da	-0.008279527
47	0x3d004b52	0.03132183
48	0xbbec339a	-0.0072083
49	0x3d0090a2	0.031387933
50	0x3c597262	0.0132719
51	0xbdaf7918	-0.08568019
52	0xbd1df86a	-0.038566984
53	0xbd1ca7fe	-0.038246147
54	0xbc2ba381	-0.010475994
55	0x3ccf117f	0.025276897
56	0xbd916741	-0.07099772
57	0xbd4fa259	-0.050691936
58	0x3d83372e	0.06407009
59	0xbd37933e	-0.044818155
60	0xbacf2631	-0.0015804229
61	0xbbb22979	-0.005437073
62	0xbd636b4c	-0.05552225
63	0xbcbf27fe	-0.0233345
64	0xbd2d2e99	-0.042280767
65	0xbe003df5	-0.12523635
66	0x3da1de66	0.07903747
67	0xbda8abd0	-0.08235896
68	0xbcdded4c	-0.027090691
69	0xbdead471	-0.11466301
70	0xbd16fbd1	-0.036861245
71	0x3d80099f	0.06251835
72	0x3d211923	0.039330613
73	0x3cefa47f	0.029253243
74	0x3d5f5a44	0.054529443
75	0xbca29439	-0.019846069
76	0xbce16f27	-0.027518822
77	0xbde1563a	-0.110027745
78	0x3b5a7862	0.0033335914
79	0xbcb0a2f0	-0.02156207
80	0xbc95cbc8	-0.018285647
81	0x3da1211d	0.07867644
82	0x3a64d076	0.0008728573
83	0xbc8e49df	-0.017369209
84	0xbdf5985f	-0.11991953
85	0xbd4f039e	-0.05054056
86	0x3b83e18e	0.004024691
87	0x3d1c004e	0.038086228
88	0xbd8366af	-0.0641607
89	0x3cdd84a5	0.027040789
90	0x3be71d5c	0.0070530605
91	0xbbe921cb	-0.007114624
92	0xbcb78ed0	-0.022406965
93	0xbc73092a	-0.014833728
94	0xbd6e1ea0	-0.058134675
95	0xbdb7f7d1	-0.08982814
96	0xbc93cd21	-0.018042149
97	0xbd266741	-0.040625814
98	0xbbb8d6b5	-0.0056408294
99	0xbd6c8faa	-0.057754196
100	0xbb457224	-0.0030127848
101	0xbdec1d7f	-0.115290634
102	0xbbe498b8	-0.0069762133
103	0xbd2e0771	-0.042487565
104	0xbd95993a	-0.07304616
105	0xbc3ddcc2	-0.011588277
106	0x3d8bf9c5	0.06834749
107	0x3d68eb6b	0.056865137
108	0xbd83990a	-0.06425674
109	0xbd825881	-0.06364537
110	0xbb14d1f2	-0.0022708145
111	0x3c824cc2	0.015905742
112	0xbd6dcb78	-0.05805537
113	0x3c9696ba	0.018382419
114	0x3cdf53e8	0.02726169
115	0xbd7625e1	-0.060094718
116	0xbc6f95d0	-0.01462312
117	0xbdb5e854	-0.08882204
118	0xbc2e414c	-0.010635685
119	0xbd56c1aa	-0.052430786
120	0xbadcabe7	-0.0016835899
121	0x3c7c387f	0.015394329
122	0x3c8a35b7	0.016871316
123	0xbc0fcf1a	-0.008777404
124	0xbcb53618	-0.02212052
125	0x3c9c533c	0.019082658
126	0xbd5bc27b	-0.053652268
127	0x3c454875	0.012041201
128	0xbc3f86b9	-0.011689835
129	0x3dafc4aa	0.085824326
130	0x3c7ec3ed	0.015549642
131	0x3d355f67	0.044280436
132	0xbcf8c6c5	-0.030368218
133	0x3baf4fbe	0.005350082
134	0x3d19dbf6	0.037563287
135	0x3d4ecb0a	0.050486602
136	0x3b82f6d5	0.00399671
137	0x3bb8e8b3	0.0056429743
138	0xbc938330	-0.018006891
139	0x3b0cf67b	0.0021509218
140	0x3daffe13	0.08593383
141	0x3d126f66	0.03575077
142	0xbd2636e4	-0.04057969
143	0x3cb6fc68	0.022337154
144	0x3d4c7595	0.049916822
145	0x3cd0d6cd	0.02549305
146	0x3d31d0de	0.043412082
147	0x3c1f6c21	0.00973037
148	0x3d3f3136	0.04667779
149	0xbcfe57ba	-0.03104769
150	0x3d42ecf4	0.047589257
151	0x3d284645	0.04108264
152	0x3bbdd1c7	0.0057928297
153	0xbcf48eec	-0.029853307
154	0xbde44aff	-0.11147117
155	0x3d4b67c0	0.04965949
156	0x3b067062	0.0020513763
157	0x3d29a9b5	0.04142161
158	0x3cad6c3b	0.021169772
159	0x3c2d8fa6	0.0105933305
160	0xbd1f757a	-0.038930394
161	0xbdcd06bf	-0.10011052
162	0xbd5d7a07	-0.054071452
163	0x3d221344	0.039569154
164	0x3cc2e4c0	0.023790717
165	0x3cc18a24	0.02362544
166	0xbd929bf9	-0.07158656
167	0xbce5157b	-0.027964344
168	0x3ceaa606	0.02864362
169	0x3d207557	0.039174404
170	0x3d8ebba2	0.06969382
171	0xbb62600a	-0.0034542107
172	0x3c7c7378	0.015408389
173	0xbd11b2a7	-0.035570767
174	0xbcd170ed	-0.025566543
175	0xbd56fc66	-0.0524868
176	0x3c64877d	0.013948319
177	0x3d4b0b6a	0.049571432
178	0x3bb09706	0.005389097
179	0xbd0cd4b5	-0.03438254
180	0xbcc8c0b6	-0.024505954
181	0xbd9157df	-0.07096838
182	0x3bdabdd9	0.0066754636
183	0xbd7bb02f	-0.06144732
184	0xbce9c338	-0.02853547
185	0xbc8ca00e	-0.017166164
186	0x3dac4ad0	0.08412707
187	0xbd267486	-0.04063847
188	0x3ca6ba00	0.020352364
189	0xbb8ab332	-0.0042327875
190	0x3d22c095	0.03973444
191	0x3b4a4c10	0.003086809
192	0xbc09b495	-0.0084048705
193	0x3dd1c8b0	0.10243356
194	0xbdc8dfb4	-0.09808293
195	0x3e05e5fe	0.13076016
196	0x3cdfc190	0.027313977
197	0x3d951bd6	0.072807
198	0x3b41254b	0.0029471691
199	0x3ce97e2e	0.02850255
200	0x3cff0303	0.031129366
201	0x3cf9b7d9	0.030483173
202	0xbe0fac09	-0.1403047
203	0xbda04628	-0.07825881
204	0x3b1687dc	0.0022969162
205	0xbabb6d1e	-0.0014299487
206	0xbd45ffdc	-0.04833971
207	0x3b62cc96	0.0034606806
208	0x3d41c597	0.047307577
209	0x3cce1be1	0.025159778
210	0xbc8562f5	-0.016282538
211	0x3d6d98d8	0.05800709
212	0x3dd9f742	0.10642864
213	0x3e5c49ab	0.21512477
214	0x3bbc1813	0.0057401746
215	0x3bb05e79	0.005382356
216	0x3e0f2cbe	0.13981912
217	0xbd3188d1	-0.04334337
218	0xbd6d5f79	-0.057952378
219	0xbd541358	-0.05177626
220	0xbc41ab5e	-0.011820642
221	0xbc62cc22	-0.013842614
222	0x3d2abc5a	0.041683532
223	0x3c7c85e4	0.015412781
224	0xbd295258	-0.041338295
225	0xbd1d0680	-0.038336277
226	0xbca382c7	-0.01995982
227	0x3c617ec9	0.013763138
228	0x3ceba6b3	0.028766012
229	0xbd1e5a7f	-0.038660523
230	0x3c5c4e33	0.0134463785
231	0xbc20f8ea	-0.009824971
232	0x3d655ae9	0.0559949
233	0xbc513ec9	-0.012771317
234	0xbb595fc2	-0.0033168648
235	0x3d0718b4	0.032982543
236	0xbc9f9bc8	-0.019483462
237	0x3c1223b3	0.008919644
238	0xbce40398	-0.027833745
239	0xbcd88719	-0.026431607
240	0xbd2d14d6	-0.0422562
241	0xbbf7fed2	-0.0075682187
242	0x3cb815c7	0.022471322
243	0x3cb536ee	0.02212092
244	0xbca354ae	-0.01993784
245	0xbd7613b9	-0.060077403
246	0xbd542c43	-0.051800024
247	0x3d2bd9b7	0.041955676
248	0xbd085732	-0.03328628
249	0xbb131d8d	-0.0022448034
250	0xbcae1aef	-0.021253077
251	0xba06bc95	-0.0005139795
252	0x3d250cc5	0.04029538
253	0xbb4dc0b1	-0.003139537
254	0xbc3dea11	-0.01159145
255	0xbb6e0047	-0.0036316083

convs.2.bias f4 [32]
0	0xbcb69cad	-0.022291506
1	0xbd23dbc4	-0.040004507
2	0x3d2a88f9	0.041634534
3	0xbd89e38a	-0.06732853
4	0xbc784117	-0.015152237
5	0xbda15e8b	-0.07879361
6	0xbb48a31e	-0.0030614804
7	0xbd2aa441	-0.04166055
8	0xbccd2848	-0.025043622
9	0xbcc35620	-0.023844779
10	0x3d9ab1a9	0.07553417
11	0x3d95c9f9	0.07313914
12	0xbd28c02d	-0.041198898
13	0x3cd283fc	0.0256977
14	0x3bcb6a1c	0.0062077176
15	0x3d1b4688	0.03790906
16	0xbd22a688	-0.039709598
17	0xbd07f7f9	-0.03319547
18	0x3cf8ac23	0.030355519
19	0xbd2e5635	-0.042562682
20	0xbd416d88	-0.047223598
21	0xbdc702a6	-0.09717302
22	0xbd0a2812	-0.03372962
23	0xbaa9ea36	-0.0012963477
24	0xbd807882	-0.06272985
25	0x3d6e7a17	0.058221903
26	0x3c09cd7b	0.008410807
27	0x3d0fff9a	0.03515587
28	0x3cc174b9	0.023615228
29	0x398243e4	0.00024846115
30	0xbd66d2df	-0.056353446
31	0xbc92a9a7	-0.017903162

convs.3.basis f4 [4, 32, 32]
0	0xbccc2ca9	-0.02492364
1	0x3d1d982a	0.038475193
2	0xbd559e14	-0.05215271
3	0x3d22f3a0	0.03978312
4	0x3c2406f5	0.010011424
5	0xbc438c93	-0.011935371
6	0x3d90a46d	0.07062612
7	0x3d472afe	0.048624985
8	0xba5a092a	-0.00083174056
9	0xbd1e8ee6	-0.038710497
10	0xbd5e546e	-0.054279737
11	0x3dbdda3d	0.09270141
12	0xbd826680	-0.063672066
13	0x3ce6abe8	0.028158143
14	0x3cf92f3d	0.030418033
15	0xbd1f6fb2	-0.03892488
16	0xbbac7ff8	-0.0052642785
17	0x3c2df494	0.010617394
18	0x3c3bf7d2	0.011472659
19	0x3c2000f6	0.009765854
20	0x3ce91ceb	0.028456172
21	0x3d12fab7	0.03588363
22	0x3da30fa7	0.0796197
23	0x3d6174de	0.055043094
24	0x3db69044	0.08914235
25	0xbc7f68fb	-0.015588994
26	0xbdaa742e	-0.08322941
27	0xbdd6cc14	-0.104881436
28	0x3ccc83c8	0.024965182
29	0xbda95b80	-0.08269405
30	0x3cdc408d	0.026886249
31	0xbaef8139	-0.0018272764
32	0x3dad1e5f	0.084530585
33	0xbdedea88	-0.11616999
34	0x3d48316f	0.04887527
35	0x3d586899	0.052834127
36	0x3d2b3cf7	0.041806187
37	0x3c0484fa	0.008088345
38	0xbd96b3d7	-0.073585205
39	0x3d1a6ec0	0.037703276
40	0x3e060ecd	0.13091584
41	0x3c8dc827	0.017307354
42	0xbcf09d97	-0.02937202
43	0x3d87ef7f	0.06637477
44	0xbcd348ef	-0.025791613
45	0x3d8ade7a	0.06780715
46	0xbd113d75	-0.035459
47	0x3d86702d	0.065643646
48	0xbd047ee7	-0.032347586
49	0xbcc8fe93	-0.024535453
50	0x3c6f9661	0.0146232555
51	0x3c8cd886	0.01719309
52	0x3dc54b8d	0.09633551
53	0xbd5a373c	-0.05327533
54	0xbcab5a0e	-0.020916965
55	0xbd229d75	-0.039700944
56	0xbd46c1a1	-0.048524503
57	0x3da3630b	0.07977875
58	0xbd356f9a	-0.044295885
59	0x3d3617d8	0.044456333
60	0xbc135408	-0.008992203
61	0x3d944b4f	0.072409265
62	0x3d85869c	0.06519815
63	0xbdc361e6	-0.09540157
64	0xbd94ed37	-0.07271808
65	0x3ba6ab3a	0.0050863298
66	0x3d3a47da	0.04547868
67	0xbcff2f7f	-0.031150578
68	0xbcea82d3	-0.028626835
69	0x3d8f453e	0.06995629
70	0x3dae5b83	0.08513548
71	0xbcdd3704	-0.027003773
72	0xbdbcb015	-0.092132725
73	0xbd843496	-0.064553425
74	0xbd0434b5	-0.032276828
75	0x3c905b4d	0.01762166
76	0x3c51c5a8	0.012803473
77	0xb92a37bd	-0.00016233228
78	0x3d6e148d	0.058125068
79	0x3d7c5e3d	0.06161331
80	0xbd17aac2	-0.03702808
81	0xbc05156b	-0.008122782
82	0x3c9404ca	0.01806869
83	0xbceb9988	-0.028759733
84	0xbb92d426	-0.0044808565
85	0x3d901b00	0.070364
86	0x3caa5891	0.020794185
87	0x3d513ca2	0.051083215
88	0xbbd41fe2	-0.0064735273
89	0x3d65b52f	0.056080993
90	0xbc8b8982	-0.017033342
91	0x3ce790f2	0.028267357
92	0x3d84962e	0.06473957
93	0xbdc28583	-0.094981216
94	0x3d3d504b	0.04621915
95	0x3c4af1d3	0.012386757
96	0x3c9f889e	0.019474324
97	0x3b04852a	0.0020220974
98	0x3c48b004	0.012248997
99	0x3d8f8ee9	0.0700968
100	0x3c98152d	0.018564785
101	0xbc216815	-0.009851475
102	0xbd5e5483	-0.054279815
103	0x3c3b46a0	0.0114304125
104	0xbb9a64f6	-0.0047117425
105	0x3d7c7cb8	0.06164238
106	0xbc1cd5d5	-0.009572466
107	0xbbded510	-0.0068003014
108	0xbd931c7f	-0.071831696
109	0x3d487775	0.048942048
110	0xbc37ed4d	-0.0112260105
111	0xbd949929	-0.072557755
112	0xbca9b8f1	-0.02071807
113	0x3d2a3eae	0.041563682
114	0xbd51b43c	-0.051197276
115	0x3d831e0e	0.06402217
116	0xbda1043c	-0.07862136
117	0xbd48921a	-0.04896746
118	0x3c0347c1	0.008012713
119	0xbd401a7e	-0.046900265
120	0x3cde73eb	0.027154883
121	0x3ce94188	0.02847363
122	0xbd6acff7	-0.057327237
123	0xbd5ac42b	-0.053409737
124	0x3dcf33bd	0.1011729
125	0x3d0ed6e6	0.034872912
126	0x3c14ace6	0.009074425
127	0xbde44bc9	-0.11147267
128	0x3bd6d3da	0.0065560164
129	0xbd10d8f8	-0.035363168
130	0x3c16ec58	0.009211622
131	0xbcc811c2	-0.02442253
132	0x3d4fa3b6	0.050693236
133	0xbd30932b	-0.0431091
134	0xbd2d9396	-0.042377077
135	0xbd34adb1	-0.044110958
136	0x3da86c70	0.08223808
137	0x3bc7b2ce	0.006094313
138	0x3d897fa0	0.06713796
139	0x3b461568	0.0030225161
140	0xbcfab222	-0.030602518
141	0xbd017bbc	-0.031612143
142	0xbc9215aa	-0.017832596
143	0xbcac257c	-0.021013968
144	0xbd010639	-0.031500075
145	0x3d1f9687	0.038961913
146	0xbd67fb80	-0.056636333
147	0xbc9916eb	-0.018687686
148	0xbd02fcf8	-0.03197953
149	0xbd1600e3	-0.03662194
150	0xbd46715c	-0.04844795
151	0x3d8975f2	0.067119494
152	0xbd787c42	-0.060665376
153	0xbd97e65a	-0.07416983
154	0xbc609b26	-0.013708865
155	0xbcc1c833	-0.023655033
156	0x3ce1ed9c	0.027579121
157	0x3cdcff76	0.026977282
158	0x3c6aa931	0.014322565
159	0xbd85ec01	-0.06539155
160	0x3cced7dc	0.025249414
161	0xbdd0222e	-0.10162769
162	0xbd8fc4ca	-0.070199564
163	0xbbfc0115	-0.0076905587
164	0x3cf9f1cf	0.030510811
165	0xbcaa2e19	-0.020773934
166	0x3c088dfd	0.008334634
167	0x3d419f58	0.047271103
168	0x3d97769b	0.07395669
169	0xbc1649d9	-0.00917288
170	0x3d38e9f5	0.045144994
171	0xbd5f43ab	-0.054507893
172	0x3ce8ae5f	0.02840346
173	0x3d8c2616	0.06843202
174	0x3d53f646	0.051748537
175	0xbc7e9ce5	-0.015540336
176	0x3a339d15	0.0006851715
177	0xbcb26f50	-0.021781594
178	0xbd2f1225	-0.042741913
179	0xbcb0c361	-0.021577539
180	0x3c24b190	0.0100521
181	0x3d33478d	0.043769408
182	0xb9c11e11	-0.0003683423
183	0x3b1ccc52	0.0023925495
184	0x3cc47a7e	0.02398419
185	0xbcd1f775	-0.025630692
186	0xbd0cad26	-0.034344815
187	0xbd2cddef	-0.04220384
188	0x3c48f313	0.012264985
189	0xbc2bdad0	-0.010489181
190	0x3d2dd4ea	0.04243938
191	0xbdec962e	-0.11552082
192	0xbcf3239c	-0.029680066
193	0xbc812c4c	-0.015768193
194	0x3d1f55d7	0.038900223
195	0xbd0cb9dc	-0.034356937
196	0x3cd67140	0.026177049
197	0x3ccbb708	0.02486755
198	0xbdb4965a	-0.0881774
199	0x3d13cb94	0.03608282
200	0xbd8c7dcf	-0.068599336
201	0x3d010f8d	0.03150897
202	0xbc628d09	-0.013827571
203	0x3bf4a7e5	0.0074663037
204	0x3c06d930	0.0082304925
205	0xbd8edb97	-0.06975477
206	0x3d4d96e6	0.050192736
207	0x3baae323	0.005215065
208	0x3d194db3	0.037427615
209	0xbd121c37	-0.03567144
210	0x3c317573	0.010831225
211	0x3cfd28ab	0.030903181
212	0x3c065259	0.008198344
213	0x3cfd3264	0.030907817
214	0x3c726018	0.014793418
215	0xbd743621	-0.059621934
216	0xbc915346	-0.017739903
217	0xbcf44208	-0.029816642
218	0xbc8351cc	-0.016030215
219	0xbd481146	-0.0488446
220	0xbd5e089f	-0.05420744
221	0xbd1fd213	-0.0390187
222	0xbccd22d2	-0.025041018
223	0x3d96f9de	0.07371877
224	0x3d7b6d7a	0.0613837
225	0xbd3f406a	-0.04669229
226	0xbc1013f7	-0.0087938225
227	0x3d014abd	0.031565417
228	0x3cc9449c	0.024568848
229	0xbcd511e1	-0.026009502
230	0xbcbec11a	-0.023285437
231	0xbc8ce6d9	-0.01719992
232	0x3dc68b68	0.096945584
233	0x3b6f9b2f	0.0036561002
234	0x3c3f52dd	0.011677471
235	0x3cc9b937	0.02462445
236	0x3c8acb40	0.01694262
237	0x3cd1407d	0.025543446
238	0x3d67cb2f	0.056590255
239	0x3cc1cf38	0.02365838
240	0x3d7417f5	0.05959316
241	0x3d95bb3d	0.073111035
242	0x3d57eeb2	0.052717872
243	0xbc314251	-0.010819034
244	0x3d4f8e92	0.050673075
245	0x3d6bf3d8	0.057605594
246	0x3d4e460a	0.050359763
247	0x3d7e3055	0.06205781
248	0xbd068b08	-0.032847434
249	0x3dbd7d4a	0.092524126
250	0x3c65ffa0	0.0140379965
251	0xbd075df6	-0.033048593
252	0x3d4a1c50	0.049343407
253	0x3be3dee0	0.006954059
254	0x3db25c59	0.0870902
255	0xbd52e9d6	-0.051492535
