results/flixster_testmode/model_checkpoint6.pth (torch_old, 199981 bytes, 19 tensors)

convs.0.basis f4 [4, 4, 32]
0	0x3e13daba	0.14438906
1	0xbe1ab14a	-0.15106693
2	0x3e1a8bf2	0.15092447
3	0x3d384843	0.04499079
4	0x3d9c1168	0.076205075
5	0x3e808acb	0.2510589
6	0xbd7dbd0c	-0.061947867
7	0xbe3ccf77	-0.18438517
8	0x3d91ad80	0.071131706
9	0xbe132d69	-0.14372791
10	0x3e119cc6	0.1421996
11	0xbd747295	-0.059679586
12	0xbe3365bf	-0.17519282
13	0x3d693a83	0.056940567
14	0x3dac2a51	0.08406509
15	0xbdfc14e8	-0.12308675
16	0x3d3cf792	0.04613454
17	0xbd695dd3	-0.056974243
18	0xbe3b312d	-0.18280478
19	0x3d76bf68	0.060241133
20	0x3d854911	0.06508077
21	0x3df2eca1	0.1186154
22	0xbbc6d674	-0.0060680453
23	0xbe28ae75	-0.164728
24	0xbbb43200	-0.0054991245
25	0xbdf6699e	-0.12031864
26	0xbdc4a465	-0.09601668
27	0xbc1443d0	-0.009049371
28	0x3df04b49	0.117331095
29	0x3e7def22	0.24798253
30	0xbe551786	-0.20809755
31	0xbd853879	-0.06504912
32	0xbdd03bc7	-0.101676516
33	0xbdbf5509	-0.09342391
34	0xbdab5acf	-0.0836693
35	0xbdf9747a	-0.12180419
36	0xbc4d912f	-0.0125468215
37	0x3e724105	0.23657615
38	0xbde6813f	-0.112551205
39	0xbddc290f	-0.10750019
40	0xbe2c8904	-0.16849142
41	0xbe026aa2	-0.1273599
42	0x3e054bec	0.13017243
43	0xbe665129	-0.22491898
44	0xbe0998b8	-0.13437164
45	0x3d68b3b1	0.056811992
46	0xbd5df634	-0.054189876
47	0xbdd40129	-0.10351784
48	0xbe41b157	-0.18915306
49	0xbe608509	-0.21925749
50	0x3e23fa5b	0.16013472
51	0xbe079541	-0.1324053
52	0xbe372b86	-0.17887697
53	0x3ddb665b	0.10712882
54	0xbccb1103	-0.024788385
55	0xbd422a86	-0.047403835
56	0x3e01d47e	0.12678716
57	0xbb986ed2	-0.0046518827
58	0x3b17f30a	0.0023185634
59	0xbd84f835	-0.06492654
60	0x3dff2004	0.12457278
61	0x3d93b1b9	0.07211632
62	0xbe03fe90	-0.12890077
63	0x3b8b34ec	0.004248252
64	0xbd9ee198	-0.07757872
65	0xbdcfa6eb	-0.10139259
66	0x3e5f0f1f	0.21783112
67	0x3e32d8b6	0.17465481
68	0xbcbc223f	-0.022965549
69	0xbe1310eb	-0.14361922
70	0x3db4ff63	0.08837774
71	0xbe26c408	-0.16285717
72	0xbde76295	-0.112981
73	0xbddcc55a	-0.10779829
74	0xbd8ddc8b	-0.06926831
75	0x3d757408	0.05992511
76	0x3e4835fb	0.19551842
77	0x3dd66b28	0.10469657
78	0x3d88ec2d	0.06685672
79	0xbe559ebe	-0.20861337
80	0x3d831a91	0.064015515
81	0xbd77a6e5	-0.060461897
82	0x3e0b4447	0.13600264
83	0x3e2b875a	0.16750851
84	0x3d9de1fb	0.07709118
85	0x3dfc7e0a	0.123287275
86	0xbe95b83e	-0.29242128
87	0xbe876a09	-0.26448086
88	0xbe87ec0b	-0.26547274
89	0xbdce5c5e	-0.100762114
90	0xbe09ed35	-0.13469394
91	0x3bd7b5b7	0.0065829414
92	0xbde649e6	-0.11244564
93	0x3d5a20e7	0.053254034
94	0x3a38192a	0.00070227927
95	0x3db319ee	0.0874518
96	0x3e397018	0.18109167
97	0x3e021b37	0.12705694
98	0x3d85add5	0.065272965
99	0xbe067251	-0.13129546
100	0xbe55ac89	-0.20866598
101	0xbe8b7dc0	-0.27244377
102	0xbdbfc136	-0.09363024
103	0xbd9ac878	-0.07557768
104	0x3e89942b	0.26870856
105	0x3ebfb1a6	0.37440223
106	0x3eca555f	0.39518258
107	0x3e1f5dd2	0.15563133
108	0xbcb446cf	-0.02200642
109	0xbd126047	-0.03573635
110	0xbdaa529d	-0.083165385
111	0x3c749376	0.014927736
112	0xbe8eae6e	-0.27867454
113	0xbe2d370d	-0.16915531
114	0xbdf1a128	-0.11798316
115	0xbc688891	-0.014192716
116	0x3d349531	0.044087593
117	0xbeab82b8	-0.33498168
118	0xbe291f1e	-0.16515777
119	0x3da916ce	0.08256303
120	0xbe36f969	-0.1786858
121	0x3e0f5952	0.13998917
122	0xbdf26dc2	-0.11837341
123	0xbe28e069	-0.16491856
124	0xbd3c29d3	-0.045938324
125	0x3e4f6daa	0.20256677
126	0x3daca606	0.08430104
127	0xbc25a8c5	-0.010111039
128	0x3d67d47d	0.05659913
129	0xbd90b79d	-0.070662715
130	0x3d6b625d	0.057466853
131	0x3dd0ef8c	0.1020194
132	0x3d03e6a9	0.032202397
133	0x3e5b52b9	0.21418275
134	0x3d40b02c	0.04704301
135	0xbdb99b2f	-0.09062802
136	0xbb43d7c5	-0.0029883247
137	0xbd7ae142	-0.06124998
138	0xbc2000b9	-0.009765797
139	0xbc5b736e	-0.01339422
140	0xbe2078e9	-0.15671124
141	0x3d865a18	0.06560153
142	0x3de4e72b	0.11176904
143	0xbe2280fe	-0.15869519
144	0xbda475f7	-0.080303125
145	0xbdbc022c	-0.09180102
146	0xbd39b8b8	-0.045342177
147	0xbb8b7934	-0.004256392
148	0x3c76ab81	0.015055538
149	0x3e0c2eda	0.13689747
150	0x3e09eb9b	0.13468783
151	0xbe2a649f	-0.16639946
152	0x3d756608	0.059911758
153	0xbe105d6d	-0.14098139
154	0x3d82e290	0.063908696
155	0x3c750534	0.014954854
156	0x3b7f60ce	0.0038967612
157	0x3e350e41	0.17681219
158	0xbe38afbd	-0.18035789
159	0xbdc45b09	-0.09587676
160	0xbd30ec13	-0.043193888
161	0x3c937b4b	0.018003127
162	0xbde3e5f8	-0.111278474
163	0x3d36446f	0.044498857
164	0x3c9f14a3	0.01941902
165	0x3e43e2ed	0.19129534
166	0xbde49812	-0.111618176
167	0xbcc60dea	-0.024176557
168	0xbca5c9c6	-0.020237815
169	0xbdd19cdb	-0.10234996
170	0x3dc59b13	0.09648719
171	0xbe7b8cc2	-0.24565414
172	0xbe0e8778	-0.13918865
173	0x3a40c8f0	0.0007354161
174	0x3da2cdb1	0.07949389
175	0xbd007183	-0.031358253
176	0xbe23866c	-0.15969247
177	0xbe416afb	-0.18888466
178	0x3dd2a40d	0.102851965
179	0x3d2dce38	0.042432994
180	0xbe3080a1	-0.17236568
181	0x3c4c090b	0.012453328
182	0x3d294faa	0.04133574
183	0xbd4f1001	-0.050552372
184	0x3e2b2986	0.16715059
185	0xbd938c1b	-0.07204457
186	0x3ca7a090	0.020462304
187	0xbd303271	-0.043016855
188	0x3da2712c	0.07931742
189	0x3e232064	0.15930325
190	0xbce2fcb8	-0.027708396
191	0x3de23362	0.11044957
192	0xbcd60f7f	-0.026130436
193	0x3cb95f34	0.022628404
194	0xbd58d002	-0.052932747
195	0x3d3f3090	0.046677172
196	0x3dbfc172	0.09363069
197	0x3e1102ff	0.14161299
198	0xbd3df0da	-0.046372272
199	0xbdd261c2	-0.10272552
200	0xbe7f23fe	-0.24916074
201	0xbb4ab1a4	-0.0030928636
202	0xbe248830	-0.16067576
203	0xbda1a96d	-0.078936435
204	0x3e4d354b	0.20039861
205	0xbca5c72e	-0.020236578
206	0xbe4b5a5d	-0.1985869
207	0xbe833e27	-0.25633356
208	0x3e61b26b	0.22040717
209	0xbd63452b	-0.055485886
210	0x3e08ee11	0.13372065
211	0x3e4429b0	0.19156528
212	0xbe15ec20	-0.14640856
213	0xbd8710b8	-0.06594986
214	0xbe3f056e	-0.18654415
215	0xbe8d4d64	-0.27598107
216	0xbe630903	-0.22171406
217	0xbc968d55	-0.01837794
218	0x3db3a668	0.08771974
219	0xbd4a133f	-0.04933476
220	0xbd67d213	-0.056596827
221	0xbd4266dd	-0.04746138
222	0xbcf44b21	-0.02982098
223	0x3c2732f6	0.010205021
224	0xbcd51445	-0.026010642
225	0x3e8127bb	0.25225624
226	0x3c884ec2	0.016639117
227	0xbd81b103	-0.063325904
228	0x3e19d5d3	0.15022974
229	0xbe1c2d5f	-0.15251683
230	0x3d140be8	0.036144167
231	0xbe676137	-0.22595678
232	0x3e64c1bc	0.22339529
233	0x3e8d887c	0.27643192
234	0x3e96f373	0.29482612
235	0xbeb73715	-0.35784212
236	0xbe277227	-0.1635214
237	0xbd7a008e	-0.061035685
238	0xbe0618ab	-0.13095348
239	0x3d362b47	0.044474866
240	0xbe27be10	-0.16381097
241	0xbe30be16	-0.17260012
242	0xbe32921e	-0.17438552
243	0xbde13f12	-0.10998358
244	0x3d6b23b4	0.057407096
245	0xbea64e53	-0.32481632
246	0x3e50c6a7	0.2038828
247	0x3dc4475e	0.09583925
248	0x3d9c720b	0.076389395
249	0x3e153c8e	0.14573881
250	0x3e7030aa	0.23456064
251	0xbd0d47ec	-0.03449242
252	0xbcd854ae	-0.026407566
253	0x3e0f4315	0.13990434
254	0xbe3d5757	-0.18490349
255	0xbe251478	-0.1612109

convs.0.att f4 [10, 4]
0	0xbd8e7104	-0.0695515
1	0xbe2d3648	-0.16915238
2	0x3e348bdd	0.17631479
3	0x3dac403a	0.08410688
4	0xbd9b3a0f	-0.07579433
5	0xbd73fbd4	-0.059566334
6	0x3e01249b	0.1261162
7	0x3d1d700c	0.038436934
8	0xbe2b9f83	-0.16760068
9	0x3e11bc63	0.1423202
10	0x3e6042d5	0.21900494
11	0x3ca8b15b	0.020592382
12	0xbe4a7437	-0.19770895
13	0x3e27ee93	0.16399603
14	0x3dff07f7	0.12452691
15	0xbd56648c	-0.052341983
16	0x3d9a2a51	0.075276025
17	0xbd8c9421	-0.06864191
18	0x3df8d8e1	0.12150741
19	0x3d544381	0.05182219
20	0xbdb019bd	-0.08598659
21	0x3e8499f6	0.25898713
22	0x3e8d8207	0.27638265
23	0x3e44b2b9	0.19208802
24	0xbb492c9e	-0.003069676
25	0x3e2cf5d2	0.16890648
26	0x3dcc7ac3	0.099843524
27	0x3d96dbfd	0.07366178
28	0x3d9cd899	0.076585
29	0x3e5c0276	0.21485314
30	0x3e4a3013	0.19744901
31	0x3e067890	0.13131928
32	0x3e26c3f3	0.16285686
33	0x3e45a5b9	0.193015
34	0x3de2d951	0.11076606
35	0xbb5995eb	-0.003320093
36	0x3e977b9a	0.29586488
37	0x3df0f45a	0.11765356
38	0x3cd1a724	0.025592394
39	0xbe27aa09	-0.16373457

convs.0.root f4 [4, 32]
0	0xbdba4370	-0.09094894
1	0x3d805c37	0.062675886
2	0x3da2cfac	0.079497665
3	0x3e146af9	0.14493932
4	0x3e372ec5	0.17888935
5	0x3d14a9c6	0.03629472
6	0xbdbb4d96	-0.09145658
7	0xbe7669ab	-0.24063747
8	0x3e406802	0.18789676
9	0x3eb13d51	0.34617093
10	0x3e9e06ec	0.30864656
11	0xbd1b1486	-0.03786137
12	0x3e1c4cce	0.15263674
13	0x3dc72126	0.097231194
14	0xbdb26b9e	-0.087119326
15	0xbe147dfe	-0.14501187
16	0xbded8a99	-0.11598701
17	0x3e51340f	0.20430015
18	0x3d70ae5e	0.05876004
19	0xbe586a10	-0.2113421
20	0x3df239bc	0.11827418
21	0xbdb3fadd	-0.08788083
22	0x3de00ce5	0.109399594
23	0x3e56cd55	0.20976765
24	0xbd96bdc8	-0.07360417
25	0x3e51c3c3	0.20484833
26	0x3b7d72a8	0.0038673077
27	0xbe990873	-0.2988926
28	0x3d975ac5	0.0739036
29	0xbe5ad35a	-0.21369687
30	0x3d084df7	0.033277478
31	0xbe60e6d0	-0.21963048
32	0x3e0f00d0	0.13965154
33	0x3e8644ee	0.26224464
34	0xbe1305a9	-0.14357628
35	0x3dc125bc	0.094310254
36	0xbde5ff07	-0.11230283
37	0xbe48cc73	-0.19609241
38	0xbd8a0ec4	-0.067410976
39	0xbe8a791e	-0.2704553
40	0xbc7ba09a	-0.015358115
41	0xbe7301e9	-0.23731197
42	0x3e565691	0.2093146
43	0x3e3db201	0.18524934
44	0x3ea15643	0.31511125
45	0x3e5ff852	0.2187207
46	0xbe1adf35	-0.15124209
47	0x3e70ef7e	0.23528859
48	0x3c9b1492	0.018930707
49	0x3dc83dc6	0.09777407
50	0x3db968f6	0.09053223
51	0xbdf25c8c	-0.11834058
52	0x3cc54562	0.024080936
53	0xbe729319	-0.23688926
54	0xbe481a2e	-0.19541237
55	0xbeb265b5	-0.3484322
56	0xbe82bc4b	-0.2553428
57	0xbdb2e41f	-0.08734917
58	0x3e867cac	0.26266992
59	0x3e00ea2c	0.1258933
60	0x3da078d4	0.07835546
61	0xbdba6e29	-0.09103043
62	0x3e84f10d	0.25965157
63	0x3e89e50c	0.2693256
64	0x3dbfd182	0.09366132
65	0x3e03bab5	0.12864192
66	0x3ddf0565	0.10889701
67	0xbda7d8ef	-0.08195674
68	0xbe328ce8	-0.17436564
69	0xbe3c76f7	-0.18404756
70	0xbe0f08d5	-0.13968213
71	0xbdadf433	-0.08493843
72	0xbd2d5d6a	-0.042325415
73	0xbd4fef24	-0.05076517
74	0xbe77cea6	-0.24199924
75	0x3d802a8e	0.06258117
76	0xbcb90161	-0.022583665
77	0x3e586114	0.21130782
78	0xbd273eda	-0.040831424
79	0xbd1aae23	-0.037763726
80	0xbe120845	-0.14260967
81	0xbd883820	-0.0665133
82	0xbe2caf69	-0.16863789
83	0x3e234261	0.1594329
84	0x3d36f545	0.0446675
85	0x3dfb676d	0.12275586
86	0xbe05b4ae	-0.13057205
87	0x3df89036	0.12136881
88	0x3d641e15	0.05569275
89	0x3e1e6012	0.15466335
90	0x3c9f2f01	0.019431593
91	0xbe224745	-0.158475
92	0xbdbc1812	-0.091842785
93	0xbe175ac4	-0.14780718
94	0x3dfbc796	0.12293927
95	0x3d1a3ff6	0.037658654
96	0xbd10d77f	-0.035361763
97	0xbde6e3fb	-0.112739526
98	0xbc7c0224	-0.01538137
99	0x3e3959c6	0.18100652
100	0x3e1d347c	0.15352052
101	0xbdc7d6e3	-0.09757783
102	0x3d198e6a	0.037489332
103	0xbe2e9625	-0.17049463
104	0xbe1dcf25	-0.1541105
105	0x3e767aac	0.24070233
106	0xbe027690	-0.1274054
107	0xbdd6be14	-0.10485473
108	0x3e27348a	0.16328636
109	0x3c65b920	0.014021188
110	0xbc320cab	-0.010867278
111	0x3da48e57	0.08034962
112	0x3da6a808	0.08137518
113	0xbde5b032	-0.11215247
114	0xbca472fa	-0.020074356
115	0x3e37c93f	0.17947863
116	0xbdf76bd3	-0.12081113
117	0x3d6a93db	0.057269912
118	0xbe4fc475	-0.20289786
119	0xbe3d3a95	-0.18479379
120	0xbd81ef2b	-0.06344446
121	0x3e440158	0.19141138
122	0xbe105cce	-0.14097902
123	0xbd559f5f	-0.05215394
124	0xbe700076	-0.23437676
125	0xbe2663e3	-0.16249041
126	0x3ae2b514	0.0017296397
127	0xbe562785	-0.20913513

convs.0.bias f4 [32]
0	0x3e13f8a9	0.14450325
1	0x3bd0b7c6	0.0063695638
2	0x3e57ff7c	0.21093553
3	0xbe920dfc	-0.28526294
4	0x3e4afd27	0.19823132
5	0xbce065d2	-0.027392302
6	0x3e31c7d6	0.17361388
7	0x3df25ded	0.11834321
8	0x3e2e24c0	0.17006207
9	0xbccd058d	-0.02502706
10	0x3ba912de	0.00515972
11	0x3e7ef669	0.24898686
12	0xbd41bc9b	-0.04729901
13	0xbe78528c	-0.24250239
14	0xbe776322	-0.2415891
15	0x3d971576	0.0737714
16	0x3e2571a3	0.1615663
17	0x3e701b01	0.23447801
18	0x3e58928e	0.21149656
19	0xbd9dabe5	-0.07698802
20	0x3e0f89a0	0.14017344
21	0xbe920811	-0.2852178
22	0x3e1d32d1	0.15351416
23	0xbbd16ec2	-0.006391377
24	0xbca48e55	-0.0200874
25	0xbd26bb81	-0.04070616
26	0xbe0c3d17	-0.13695179
27	0xbc174b72	-0.009234296
28	0x3d944660	0.072399855
29	0xbe3090ff	-0.17242812
30	0x3e5247b1	0.2053516
31	0xbd420b6f	-0.047374185

convs.1.basis f4 [4, 32, 32]
0	0xbd289aee	-0.041163377
1	0xbd23e561	-0.040013675
2	0x3d4d47fe	0.050117485
3	0xbd47e831	-0.04880542
4	0x3d98bc32	0.074577704
5	0xbd17d71f	-0.03707039
6	0xbc96e775	-0.018420914
7	0x3bcde2c0	0.006283134
8	0x3d4f5d5e	0.05062615
9	0xba5d66ea	-0.00084458163
10	0x3d842846	0.06452994
11	0xbd34be5f	-0.044126865
12	0xbd455605	-0.048177738
13	0x3df07e46	0.11742835
14	0x3dc8ca82	0.0980425
15	0xbd97b3ac	-0.074073166
16	0xbd8a72a5	-0.06760148
17	0x3d4483b7	0.047977176
18	0xbc233bea	-0.009963015
19	0xbd3b9dac	-0.045804664
20	0xb9127d04	-0.00013970217
21	0x3d2fb076	0.042892896
22	0x3d8d2c66	0.06893234
23	0x3d4e20ce	0.050324254
24	0x3d12a20e	0.03579908
25	0x3d889890	0.06669724
26	0x3a7ece91	0.0009720112
27	0x3ccc336f	0.02492687
28	0xbcd70be9	-0.026250796
29	0x3c68e366	0.014214372
30	0x3b76be87	0.0037650184
31	0xbd5221e6	-0.05130186
32	0xbd4fb288	-0.05070737
33	0x3c184a1f	0.009295016
34	0xbd36cb69	-0.04462758
35	0xbd9b9a36	-0.07597773
36	0xbd52af9b	-0.051437
37	0x3d3a19be	0.045434706
38	0xbd94b4ab	-0.07261022
39	0x3c2dc2b3	0.010605502
40	0xbd5f02d7	-0.054446068
41	0xbd68e18c	-0.056855723
42	0x3d83e228	0.0643962
43	0xbd9290d8	-0.07156533
44	0x3be90802	0.0071115503
45	0x3d852ff3	0.06503286
46	0xbde0cbcf	-0.109763734
47	0x3e053478	0.13008296
48	0xbd20f9c1	-0.039300684
49	0x3c85d4ab	0.01633676
50	0xbb933306	-0.0044921665
51	0x3d9020af	0.07037484
52	0x3c68babe	0.014204679
53	0xbd290b48	-0.041270524
54	0xbcb943ef	-0.022615401
55	0x3d5e69d7	0.054300155
56	0x3d5f4fdd	0.054519523
57	0xbcb88d0e	-0.022528198
58	0xbd4e637a	-0.050387837
59	0xbd92396b	-0.07139858
60	0x3cb95154	0.022621788
61	0xbd71893a	-0.05896876
62	0x3baca0bb	0.005268184
63	0x3d99889c	0.07496759
64	0x3e199f14	0.1500209
65	0x3d29bc5a	0.04143939
66	0x3d9c2fa0	0.07626271
67	0xbcfbce78	-0.0307381
68	0xbcf00cc4	-0.029302962
69	0xbd415c5d	-0.047207225
70	0x3e124d88	0.14287388
71	0xbe491e20	-0.19640398
72	0x3c490dad	0.012271327
73	0xbda1a9a3	-0.07893684
74	0x3d87bee7	0.066282086
75	0x3d66b979	0.056329224
76	0xbd80b6f8	-0.062848985
77	0xbd89ca33	-0.067280196
78	0x3d0fc8d0	0.03510362
79	0xbe3f64cd	-0.18690796
80	0xbcc3707a	-0.023857344
81	0xbd9b2f3c	-0.075773686
82	0x3d693a11	0.056940142
83	0xbd33c8b9	-0.043892596
84	0xbb27ed08	-0.002562346
85	0x3cf0ee8f	0.029410629
86	0xbd4c6b59	-0.049907062
87	0x3d918293	0.07104983
88	0xbdbbfcb8	-0.09179062
89	0xbd6ab18d	-0.057298232
90	0x3d787ab6	0.0606639
91	0x3d5c03f8	0.053714722
92	0xbb5e48f6	-0.0033918
93	0xbcbf4203	-0.023346907
94	0xbd0f018b	-0.03491358
95	0xbd925199	-0.0714447
96	0xbd84b26e	-0.06479345
97	0xbd754aec	-0.059885904
98	0x3d50b823	0.050956856
99	0x3d73febd	0.05956911
100	0x3d219469	0.039448176
101	0xbbf69759	-0.0075253663
102	0xbd3df9f2	-0.046380945
103	0xbb2801a9	-0.0025635755
104	0xbc600398	-0.013672732
105	0x3cc6fd03	0.024290567
106	0x3c2c29fa	0.010508055
107	0xbcf88070	-0.030334681
108	0xbbbca1a5	-0.005756574
109	0xbc779e54	-0.015113432
110	0xbcb1c942	-0.021702413
111	0x3d916368	0.07099038
112	0x3d757765	0.059928317
113	0xbdaa1a9c	-0.083058566
114	0x3bad896d	0.0052959234
115	0xbcf989fc	-0.030461304
116	0x3ce7101b	0.028205922
117	0x3d26b501	0.040699963
118	0xbc8ba347	-0.01704563
119	0xbb8557a5	-0.004069286
120	0xbd2fce5a	-0.0429214
121	0xbd118b83	-0.03553344
122	0x3c1c3854	0.009534914
123	0x3be3840f	0.006943233
124	0x3d64c068	0.055847555
125	0x3b557857	0.003257295
126	0xbba5941a	-0.0050530555
127	0xbc046066	-0.008079624
128	0x3e1fea1e	0.15616652
129	0x3b985f5e	0.0046500405
130	0x3d66b2dc	0.056322917
131	0x3dd87f10	0.1057111
132	0x3d4d1bdb	0.050075393
133	0xbd527caf	-0.05138844
134	0x3d4dd0f4	0.0502481
135	0xbdd841be	-0.10559414
136	0x3d8a985b	0.06767341
137	0x3bf25c41	0.0073962514
138	0x3dd71684	0.105023414
139	0xbd5a63b8	-0.053317755
140	0x3d600124	0.054688588
141	0x3be4b094	0.0069790576
142	0x3de6fca8	0.11278659
143	0xbd3bdbbc	-0.045863852
144	0x3c5d997b	0.013525362
145	0x3cc632ff	0.024194239
146	0xbd7701f6	-0.060304604
147	0x3d1f139e	0.038837068
148	0x3d25359a	0.04033432
149	0xb90f27f1	-0.00013652422
150	0x3dc41cff	0.09575843
151	0xbd40de09	-0.04708675
152	0xbd0f43da	-0.034976818
153	0xbc5b40db	-0.013382162
154	0xbd8b4461	-0.068001516
155	0x3db0af86	0.086272284
156	0xbdb99feb	-0.09063705
157	0x3daaf18f	0.08346855
158	0xbd80270f	-0.0625745
159	0xbc66738c	-0.014065634
160	0x3d21381f	0.039360162
161	0xbd8cbf16	-0.06872384
162	0xbcc1fa1b	-0.02367883
163	0xbc2c60da	-0.010521138
164	0x3d9d77e0	0.0768888
165	0xbd0e8759	-0.034797046
166	0xbc21a306	-0.009865528
167	0xbd1cf204	-0.03831674
168	0x3d65c507	0.056096103
169	0xbd63b971	-0.055596773
170	0xbb54c110	-0.0032463707
171	0xba3d604b	-0.00072241266
172	0xbd225743	-0.039634
173	0x3d260d13	0.040539812
174	0xbce336bb	-0.027736058
175	0x3dcd8f1b	0.10037061
176	0x3d8e6e64	0.06954649
177	0xbd00e923	-0.031472337
178	0xbc1a3f8b	-0.009414564
179	0x3ca38e97	0.019965453
180	0x3db9452b	0.09046396
181	0xbcf54f4d	-0.02994504
182	0xbca953d6	-0.020669859
183	0x3d1af803	0.03783418
184	0x3c078ed2	0.008273797
185	0x3d8bbae4	0.06822756
186	0x3cf63d68	0.030058578
187	0x3d0c8d00	0.034314156
188	0x3dfa7fe3	0.12231424
189	0xbd30e665	-0.04318847
190	0xbc7a58c7	-0.015279955
191	0x3c553e6b	0.01301537
192	0xbd1419e0	-0.03615749
193	0xbd443537	-0.047902312
194	0xbdcaa85e	-0.09895395
195	0x3c8bd363	0.01706857
196	0x3d9429f2	0.07234563
197	0x3d2de21a	0.042451955
198	0x3d3cfbe4	0.04613866
199	0xbd9d0520	-0.07666993
200	0x3c040b09	0.008059272
201	0xbd2dc4e3	-0.042424094
202	0x3d5d0b30	0.053965747
203	0xbcd3906b	-0.0258257
204	0x3ce6bf3e	0.028167363
205	0xbcad0991	-0.021122726
206	0x3d91923c	0.0710797
207	0xbdef57b1	-0.11686648
208	0xbdb08890	-0.08619797
209	0x3db209ee	0.086933
210	0x3d447640	0.047964334
211	0x3ce9d0d4	0.02854196
212	0x3cb539d0	0.022122294
213	0x3d7ce363	0.06174029
214	0x3dc34415	0.0953447
215	0x3d54a8ee	0.051918916
216	0xbcf6025f	-0.030030428
217	0xbde54446	-0.11194663
218	0xbd69a25c	-0.057039604
219	0x3db0bdf8	0.08629984
220	0xbe092f6c	-0.13396996
221	0xbce4491d	-0.027866894
222	0x3c69103d	0.014225063
223	0x3d1ece40	0.038770914
224	0xbe5718f4	-0.21005613
225	0x3db90440	0.09034014
226	0xbc6fd2b5	-0.014637639
227	0xbd96eae3	-0.0736902
228	0xbd69304f	-0.056930836
229	0xbc4d4b9c	-0.012530234
230	0xbe284f2a	-0.16436449
231	0x3e042788	0.12905705
232	0xbd6b8a0e	-0.057504706
233	0x3d8efc75	0.06981746
234	0xbd05a6cc	-0.032629773
235	0xbe02eda8	-0.12785971
236	0x3c15b35e	0.009137003
237	0xbccdc07c	-0.025116198
238	0x3daab5ff	0.08335494
239	0x3e026596	0.12734064
240	0xbc5e92dc	-0.013584819
241	0x3daa8607	0.08326345
242	0xbe010118	-0.12598073
243	0x3d539941	0.051659826
244	0x3ca318e3	0.019909328
245	0xbe2857d3	-0.16439752
246	0x3d917a20	0.071033716
247	0xbcf60c44	-0.030035146
248	0xbd4bc561	-0.049748782
249	0xbcdd4e42	-0.027014855
250	0x3df7b6f6	0.12095444
251	0xbde2374e	-0.11045705
252	0x3d6ac066	0.05731239
253	0x3d7a56c3	0.0611179
254	0xbbef0773	-0.007294589
255	0x3c9e0577	0.019289715

convs.1.att f4 [10, 4]
0	0x3d61ea69	0.05515519
1	0x3d9c28cf	0.07624971
2	0xbe3d58cf	-0.18490909
3	0xbda8865c	-0.08228752
4	0x3dd1a86b	0.10237201
5	0x3dbfee88	0.09371668
6	0xbe659f9c	-0.22424167
7	0xbcb4c03f	-0.022064326
8	0x3e180f27	0.1484953
9	0x3d8e9877	0.06962674
10	0xbe54bb4c	-0.20774573
11	0xbd3fd224	-0.046831265
12	0x3de6e503	0.11274149
13	0x3d275667	0.040853884
14	0xbdffc66f	-0.1248902
15	0xbde67a0a	-0.11253746
16	0x3dfefa6d	0.12450109
17	0xbb39fa8a	-0.0028378093
18	0xbdaeae85	-0.08529381
19	0xbd8d48d2	-0.06898655
20	0xbcb35778	-0.021892294
21	0x3d06b9ec	0.032892153
22	0xbd52afb1	-0.051437084
23	0xbd77c611	-0.060491625
24	0xbb5da1b8	-0.0033818316
25	0xbdabfa25	-0.08397321
26	0xbd44ade3	-0.048017394
27	0x3d072eed	0.033003736
28	0x3c19c3bc	0.009385046
29	0xbd5fd3b3	-0.05464525
30	0x3d328517	0.043583956
31	0x3d19dda9	0.037564907
32	0xbd33ceb9	-0.043898318
33	0xbc3b2534	-0.011422444
34	0x3cb9262f	0.022601215
35	0x3d77e60b	0.06052212
36	0xbd984a6d	-0.074360706
37	0xbd7d13cc	-0.061786458
38	0x3d7e05fc	0.062017426
39	0x3cc84ac8	0.024449721

convs.1.root f4 [32, 32]
0	0xbd26eaf0	-0.040751398
1	0x3d2ed287	0.042681243
2	0xbc87bb73	-0.016568875
3	0x3d01cc66	0.03168907
4	0x3a795fd4	0.00095128757
5	0xbc36d8b1	-0.011160062
6	0xbe40a0d4	-0.18811351
7	0x3d459ed7	0.048247185
8	0x3b0ba2c5	0.0021306735
9	0xbd301b5e	-0.04299485
10	0x3d7227c5	0.05911996
11	0xbcc0ef86	-0.023551714
12	0xbdbc0fd3	-0.09182706
13	0xbcf7ede7	-0.030264808
14	0xbc220234	-0.009888221
15	0x3d23ae93	0.03996141
16	0x3d50857a	0.050908543
17	0xbd119605	-0.03554346
18	0xbdd2ace8	-0.102868855
19	0xbbb3250e	-0.0054670637
20	0x3cafe7bd	0.021472806
21	0x3c84233b	0.01613008
22	0x3d267725	0.04064097
23	0x3c9c4ede	0.019080576
24	0xbda9aa99	-0.08284492
25	0xbcf641e0	-0.030060709
26	0xbc95b332	-0.018273924
27	0x3dc8bda2	0.098017946
28	0xbd84b44e	-0.06479703
29	0xbd9c188b	-0.07621869
30	0x3b78eae7	0.003798181
31	0x3d81fb20	0.063467264
32	0xbd1631fc	-0.036668763
33	0xbbdde995	-0.00677223
34	0x3d822000	0.0635376
35	0xbd820f31	-0.06350554
36	0x3cd660ff	0.026169298
37	0x3b7f115b	0.0038920257
38	0x3d93d84d	0.072189905
39	0x3d9e2260	0.077214
40	0x3d92a7c7	0.07160907
41	0xbdab3430	-0.08359563
42	0x3d371553	0.04469807
43	0xbb3bfb25	-0.002868363
44	0xbe00fb74	-0.12595922
45	0xbdb813e9	-0.089881726
46	0x3ce33728	0.027736261
47	0xbce7ed52	-0.028311405
48	0xbbdaa58c	-0.0066725668
49	0xbc022790	-0.007944003
50	0x3d214471	0.03937191
51	0x3d2a1e24	0.04153265
52	0xbce42c3a	-0.02785312
53	0x3d21e093	0.03952081
54	0x3d16fb3d	0.036860693
55	0xbdf389f1	-0.118915446
56	0x3d08a966	0.033364676
57	0x3cc4cc2d	0.02402314
58	0x3dca0367	0.0986393
59	0xbd9f2349	-0.07770402
60	0xbd44babf	-0.048029657
61	0xbcf1114d	-0.029427195
62	0xbcc20789	-0.023685234
63	0x3d4f4ec1	0.050612215
64	0xbc98e4c5	-0.018663773
65	0xbb9f09ef	-0.004853479
66	0x3d901165	0.07034568
67	0xba0c2e40	-0.0005347468
68	0xbcc9cc34	-0.024633504
69	0xbdb4eddd	-0.08834431
70	0x3ddd0e92	0.10793795
71	0x3df15576	0.117838785
72	0x3bea8603	0.0071570887
73	0xbcdb0326	-0.0267349
74	0x3c838499	0.016054438
75	0xbd913661	-0.0709045
76	0x3caf9dc6	0.021437537
77	0xbd5b3797	-0.05351981
78	0xbcd838d2	-0.026394282
79	0xbd29b8ce	-0.04143601
80	0xbcc07b30	-0.02349624
81	0xbdadf24d	-0.08493481
82	0xbd8d1b52	-0.068899766
83	0xbd82f50a	-0.06394394
84	0xbd9efdbf	-0.07763242
85	0x3bd00e01	0.0063493256
86	0x3d2ebcec	0.04266064
87	0x3d6032b9	0.054735873
88	0x3d45304a	0.048141755
89	0xbcb68f19	-0.022285031
90	0x3d320ae8	0.043467432
91	0xbcff5460	-0.031168163
92	0x3d2f8a31	0.0428564
93	0xbd01746a	-0.03160516
94	0xbd1efc35	-0.038814742
95	0x3ba229a6	0.0049488125
96	0x3dabbada	0.083852485
97	0x3da2c040	0.07946825
98	0xbcc69b61	-0.024244012
99	0xbd88b5ba	-0.066752866
100	0xbd7cb134	-0.06169243
101	0x3d65e54f	0.05612689
102	0xbc8b8bd3	-0.017034447
103	0xbd814127	-0.06311255
104	0xbd7900fe	-0.06079196
105	0x3d8e98fb	0.069627725
106	0x3db83b8c	0.08995733
107	0x3d92164d	0.0713316
108	0x3d66e122	0.056367047
109	0xbd1a785d	-0.037712444
110	0xbc1e3c3a	-0.009657914
111	0x3d4ae768	0.049537092
112	0x3d4f982b	0.050682228
113	0xbd918e4a	-0.071072176
114	0x3d878a7f	0.06618213
115	0x3d51e256	0.05124124
116	0xbccd9afb	-0.025098315
117	0x3cb15cdb	0.021650722
118	0x3dc05f28	0.093931496
119	0x3c83d648	0.016093388
120	0xbd26cbf9	-0.040721867
121	0x3cba1344	0.022714265
122	0x3dc518a2	0.09623839
123	0x3dd26484	0.10273078
124	0x3d686244	0.05673434
125	0xbd8656dd	-0.065595366
126	0xbbe94b4f	-0.007119573
127	0x3d52748c	0.05138068
128	0x3d3c3325	0.045947213
129	0x3dce2d6e	0.10067259
130	0x3cd770e3	0.026298946
131	0xbd9aa632	-0.075512305
132	0x3d8dd069	0.06924517
133	0x3d8a6cfa	0.06759067
134	0x3cc047d3	0.023471748
135	0xbd81db79	-0.06340689
136	0xbcac0b23	-0.021001404
137	0xbd663e68	-0.05621186
138	0xbd818955	-0.06325022
139	0xbcf39753	-0.029735243
140	0x3dfc83d6	0.12329833
141	0x3cdc480a	0.02688982
142	0xbd3bcfd0	-0.045852482
143	0x3bece523	0.0072294637
144	0x3d0262ff	0.03183269
145	0xbd80523d	-0.06265686
146	0xbd7e033e	-0.06201481
147	0x3c0eff41	0.008727849
148	0x3dcfd208	0.10147482
149	0x3d0e7a69	0.03478471
150	0x3d233cab	0.03985278
151	0xbc650f85	-0.013980751
152	0x3c985aa8	0.018597916
153	0x3d586a43	0.052835714
154	0x3d15a7a6	0.036536835
155	0xbd2e55d5	-0.042562325
156	0xbd7a36da	-0.061087467
157	0xba8f2b65	-0.0010922967
158	0x3d92168c	0.07133207
159	0xbdbdd279	-0.0926866
160	0x3dbab0d9	0.09115762
161	0x3c5e40b5	0.013565232
162	0x3d989588	0.07450396
163	0x3d90d149	0.07071168
164	0x3da8b5ad	0.08237777
165	0x3ccfb67c	0.02535557
166	0xbcd96625	-0.026537964
167	0x3da7695a	0.08174391
168	0x3d8eda77	0.069752626
169	0x3c38f130	0.011287972
170	0x3daf8446	0.08570151
171	0xbdae1272	-0.08499612
172	0xbd377005	-0.044784565
173	0xbd835536	-0.06412737
174	0x3b21b53c	0.0024674674
175	0xbd57def7	-0.05270287
176	0xbdebe288	-0.11517817
177	0x3d33dd24	0.043912068
178	0xbd6db155	-0.058030445
179	0x3d699e23	0.057035577
180	0xbd4fa41b	-0.050693613
181	0x3c88cc94	0.016699113
182	0x3d379aeb	0.044825476
183	0xbd2e39f7	-0.04253575
184	0xbd81d678	-0.06339735
185	0xbd7f58c2	-0.062340505
186	0x3cfee121	0.03111321
187	0x3df1904b	0.117951
188	0xbd96af80	-0.07357693
189	0xbdae25e7	-0.08503323
190	0xbb8028e1	-0.003911123
191	0xbcd97c35	-0.026548484
192	0xbc45f4a2	-0.012082251
193	0x3c45b159	0.012066209
194	0x3d217b60	0.0394243
195	0xbb866625	-0.004101532
196	0xbda1f337	-0.07907718
197	0xbca36bbf	-0.019948838
198	0xbd7e1db4	-0.062040046
199	0xbdad0e64	-0.084500104
200	0x3db01b51	0.0859896
201	0xbd6dfeab	-0.0581042
202	0x3af02098	0.001832026
203	0x3d8029e0	0.06257987
204	0xbd7a5742	-0.06111837
205	0x3ce56fda	0.028007437
206	0xbd51af3d	-0.05119251
207	0x3bb14743	0.0054101064
208	0xbc26b082	-0.010173919
209	0xbcecabe7	-0.028890563
210	0xbdc2d228	-0.095127404
211	0xbd0eada4	-0.034833565
212	0xbd1ffbe0	-0.039058566
213	0x3da0ba31	0.07848013
214	0x3db1c3a5	0.08679894
215	0xbda1ad32	-0.078943625
216	0xbc4cedaa	-0.012507835
217	0x3cf0aaa3	0.02937824
218	0xbd21143e	-0.039325945
219	0xbd51c1fd	-0.051210392
220	0xbd38ac48	-0.045086175
221	0x3d9cf019	0.076629825
222	0x3c005d54	0.007834751
223	0x3d6fbd04	0.05852987
224	0x3ce94f2b	0.028480133
225	0x3d4fc77f	0.050727364
226	0xbd6c1db3	-0.05764551
227	0xbc8559f4	-0.016278245
228	0xbd54c597	-0.05194625
229	0xbd457fa0	-0.048217416
230	0xbe0953dd	-0.13410898
231	0xbdc504c3	-0.09620049
232	0x3af9215e	0.0019007137
233	0x3d5e2235	0.05423184
234	0x3c8a3aad	0.016873682
235	0xbcbd1ed2	-0.023085985
236	0x3c91d5df	0.017802177
237	0x3dc550e7	0.096345715
238	0xbda089a1	-0.07838751
239	0xbdbec89f	-0.09315609
240	0xbc2ba7d8	-0.010477029
241	0x3cbed21a	0.023293544
242	0x3d8d2e41	0.06893588
243	0x3d56e66f	0.052465852
244	0x3d7f8b58	0.062388748
245	0x3a8f6698	0.001094061
246	0xbd02988a	-0.031883754
247	0xbbbbd6b4	-0.0057323817
248	0xbd7f726e	-0.062364988
249	0xbae414ba	-0.0017401197
250	0xbc398c7d	-0.011324999
251	0x3ccf9ac8	0.02534236
252	0x3cea6549	0.02861275
253	0x3c9f564a	0.019450326
254	0xbd1534f2	-0.036427446
255	0xbd21f2c1	-0.03953815

convs.1.bias f4 [32]
0	0xbd386ef4	-0.04502769
1	0xbd8572b8	-0.065160215
2	0xbd00668f	-0.031347807
3	0xbd5748a8	-0.052559525
4	0xbd2827e5	-0.04105367
5	0xbdbb9c26	-0.09160642
6	0xbdae2f2b	-0.0850509
7	0x3cbd180a	0.023082752
8	0x3c0b13d3	0.008488613
9	0xbcc37daa	-0.023863632
10	0x3d691d2a	0.05691258
11	0xbdc1cd5d	-0.09462998
12	0xbdb627a0	-0.088942766
13	0x3da36d0b	0.07979783
14	0x3de6395f	0.112414114
15	0x3db217cc	0.08695945
16	0xbd2a9987	-0.04165032
17	0x3db394d0	0.08768618
18	0x3d6a49b5	0.0571992
19	0x3d76e8a6	0.060280465
20	0xbd01ba33	-0.031671714
21	0xbd7a0a8a	-0.061045207
22	0xbbbd9d51	-0.005786576
23	0xbda0f129	-0.07858498
24	0xbd771400	-0.060321808
25	0x3d966d01	0.073450096
26	0x3c749cb3	0.014929938
27	0xbda73185	-0.08163742
28	0xbdc1bc6f	-0.09459769
29	0x3d286acb	0.04111747
30	0xbd6bea9f	-0.0575968
31	0x3d5996f1	0.053122465

convs.2.basis f4 [4, 32, 32]
0	0x3d4746f0	0.048651636
1	0xbd39c10f	-0.04535013
2	0xbc6fe4ac	-0.014641922
3	0x3ceacf60	0.028663337
4	0xbd85c042	-0.06530811
5	0xbcb46ad3	-0.022023594
6	0x3d2efd89	0.04272226
7	0xba8f79af	-0.0010946299
8	0x3c565bf2	0.013083445
9	0x3c4f5251	0.012653903
10	0xbda39c9d	-0.07988856
11	0xbc132ce6	-0.008982873
12	0x3d380cf8	0.044934243
13	0x3b8738ae	0.00412663
14	0x3d80086b	0.062516056
15	0x3c67ae05	0.014140611
16	0x3be47066	0.0069714068
17	0x3d89fd4b	0.06737765
18	0xbd866536	-0.06562273
19	0x3d0efa0c	0.034906432
20	0xbd0c6ac2	-0.0342815
21	0xbc7d5f64	-0.015464637
22	0x3d8a2420	0.067451715
23	0xbd83974b	-0.06425341
24	0xbce19bae	-0.027540054
25	0xbd8bcec0	-0.06826544
26	0x3d09cd61	0.03364313
27	0xbcac8948	-0.021061555
28	0xbd5a0c5e	-0.05323445
29	0xbba12f2b	-0.004918953
30	0xbc0156fc	-0.007894274
31	0xbd90568e	-0.07047759
32	0xbcc7a2c9	-0.024369614
33	0x3dc2b568	0.09507257
34	0x3d562270	0.052278936
35	0xbd5c7854	-0.05382569
36	0xbcfd11e0	-0.030892313
37	0xbd35b974	-0.044366315
38	0xbd3bd675	-0.04585882
39	0x3d772f45	0.060347814
40	0x3d87029e	0.06592296
41	0xbca2333a	-0.019799817
42	0x3d6cfd28	0.057858616
43	0xbc93480f	-0.017978696
44	0xb8c65164	-9.456536e-05
45	0xbd43c749	-0.047797475
46	0xbcc7c9e2	-0.024388257
47	0x3d79fea7	0.06103387
48	0xbd391a3c	-0.045191035
49	0xbb3a1a89	-0.0028397164
50	0xbd552897	-0.052040663
51	0x3da0d2f5	0.07852737
52	0x3d623ea1	0.05523551
53	0x3c848a92	0.016179357
54	0xbc1a90e2	-0.009433957
55	0x3cba9e96	0.022780698
56	0xbcdd4d8f	-0.027014522
57	0x3b978f69	0.00462525
58	0xbcc12238	-0.023575887
59	0x3d593384	0.053027645
60	0x3d373302	0.04472638
61	0xbcb935ab	-0.022608599
62	0xbd45702d	-0.048202682
63	0x39e19487	0.00043026006
64	0xbd1c6f0c	-0.03819184
65	0x3b43dcd2	0.0029886258
66	0xbda6d3cf	-0.08145868
67	0x3d225828	0.039634854
68	0xbc85346f	-0.016260354
69	0xbd8e1d9c	-0.06939241
70	0x3cc5abd3	0.024129784
71	0x3cede448	0.029039517
72	0xbd4a8685	-0.049444694
73	0x3d9ab59e	0.07554172
74	0x3c785592	0.01515712
75	0x3d5a4cd3	0.05329592
76	0xbcc34dd7	-0.023840828
77	0x3d4e31ec	0.050340578
78	0x3da94c4c	0.082665056
79	0xbd5d60a7	-0.054047253
80	0x3c50da59	0.012747371
81	0x3d870827	0.06593352
82	0x3d60d8fa	0.054894425
83	0xbb17d476	-0.0023167408
84	0x3d60c93d	0.054879416
85	0x3dabaa06	0.08382039
86	0x3d29d48b	0.041462462
87	0x3d126f2f	0.035750564
88	0x3d116539	0.035496924
89	0x3c602b96	0.013682267
90	0xbda69225	-0.081333436
91	0x3bb4abf4	0.0055136625
92	0x3cc04084	0.023468263
93	0x3cc6ff90	0.024291784
94	0xbc777a94	-0.0151049085
95	0xbc3c7719	-0.0115030045
96	0xbd25bb97	-0.040462103
97	0xbd6ec2f3	-0.058291387
98	0x3d2c4c64	0.04206504
99	0x3d54c399	0.05194435
100	0x3d60b4a0	0.054859757
101	0x3bcb4162	0.0062028626
102	0x3d8e9b68	0.06963235
103	0x3da1a69f	0.078931086
104	0xbdb142e0	-0.086553335
105	0xbd9db021	-0.076996095
106	0xbc02f08c	-0.007991921
107	0x3d81122c	0.06302294
108	0x3bd21868	0.006411601
109	0xbd9f3770	-0.07774246
110	0xbd6e15ca	-0.05812625
111	0x3cee1557	0.02906291
112	0xbcbd2006	-0.023086559
113	0xbd1d2588	-0.03836587
114	0x3da01963	0.07817342
115	0xbcdf5c4f	-0.027265696
116	0xbc82140d	-0.015878702
117	0xbda5d692	-0.08097567
118	0xbd1b1db5	-0.037870128
119	0x3d509b35	0.050929267
120	0xbd37c8f2	-0.04486937
121	0xbd0931ca	-0.03349475
122	0xbd3bf187	-0.045884635
123	0xbc0d428f	-0.008621826
124	0xbb5adc64	-0.0033395523
125	0xbcc1f791	-0.02367762
126	0xbd73b93b	-0.05950282
127	0x3c2e4584	0.010636691
128	0x3d8d1f10	0.0689069
129	0x3d4fe726	0.05075755
130	0xbd963c60	-0.07335734
131	0xbd214488	-0.039371997
132	0x3d01345c	0.031544074
133	0xbd8bfd1b	-0.068353854
134	0xbd858f83	-0.06521513
135	0x3d7af590	0.061269343
136	0xbd734cd2	-0.059399433
137	0xbd3f9a3b	-0.046777945
138	0xbd89f198	-0.067355335
139	0xbd83f47e	-0.064431176
140	0xbc16cbca	-0.009203861
141	0xbd65f9c8	-0.056146413
142	0x3b0bcc04	0.002133132
143	0x3cb55fe4	0.02214045
144	0x3d3e9f1f	0.04653847
145	0x3c9dd155	0.019264856
146	0xbd696adb	-0.05698667
147	0x3d8731d3	0.066013
148	0x3c4232df	0.011852949
149	0x3dc1d71a	0.094648555
150	0xbc8506d7	-0.016238613
151	0x3c9f7ed6	0.01946966
152	0xbd122d80	-0.035687923
153	0xbbb72584	-0.005589189
154	0xba31f078	-0.0006787847
155	0xbd80621d	-0.062687136
156	0x3cb6e792	0.022327218
157	0xbcc39011	-0.023872407
158	0xbcf3e72f	-0.029773323
159	0xbd4da720	-0.05020821
160	0x3c7b408d	0.015335214
161	0xbbe37822	-0.006941811
162	0x3c631bf6	0.013861647
163	0xbbd5b272	-0.0065215165
164	0xbd40f7f9	-0.047111485
165	0x3d2b1a93	0.04177339
166	0x3d74cd0e	0.059765868
167	0xbca9164e	-0.020640519
168	0x3c8f0617	0.017458959
169	0x3d646397	0.05575904
170	0xbb11ea11	-0.0022264759
171	0xba11e663	-0.00055656413
172	0xbd31a1e9	-0.0433673
173	0x3834d572	4.311413e-05
174	0x3dbfbdb7	0.09362357
175	0x3da7c7ae	0.08192383
176	0xbcb7503b	-0.022377124
177	0x3d95cd84	0.073145896
178	0x3da69096	0.08133046
179	0x3c50d739	0.012746626
180	0x3bdcaa65	0.00673418
181	0xbd25cc2f	-0.040477928
182	0xbcd5d807	-0.026103986
183	0x3cb34b16	0.02188639
184	0x3d21bdaf	0.039487537
185	0x3c866892	0.016407285
186	0x3d10a386	0.035312198
187	0x3d5cf604	0.053945556
188	0xbd85770c	-0.06516847
189	0x3d51f35e	0.051257484
190	0x3cf0dba2	0.029401604
191	0x3c281d6d	0.010260922
192	0xbd2ec811	-0.042671267
193	0x3b1d843c	0.0024035117
194	0xbdb0d8be	-0.0863509
195	0x3d8b78f3	0.068101786
196	0x3db0600c	0.086120695
197	0xbc9a1afe	-0.018811699
198	0xbbf8d7bc	-0.007594077
199	0xbd498825	-0.049202103
200	0xbc3d55f6	-0.011556139
201	0xbcac941b	-0.021066716
202	0xbd67437f	-0.056460854
203	0x3d643f5b	0.055724483
204	0xbc5c4f1b	-0.013446595
205	0xbdbdadc1	-0.092616566
206	0x3ba6520e	0.0050756996
207	0x3ce5d300	0.028054714
208	0x3d49da00	0.049280167
209	0x3d1a4d62	0.037671454
210	0xbbe956cc	-0.0071209427
211	0x3c54b673	0.012982952
212	0x3be11901	0.006869436
213	0xbc84e14c	-0.016220711
214	0x3da28dfc	0.079372376
215	0xbce1ca3b	-0.027562251
216	0x3d4a7ced	0.049435545
217	0x3d92233c	0.07135627
218	0xbcdc6e30	-0.02690801
219	0xbd60122f	-0.05470484
220	0xbd7e4261	-0.062075023
221	0xbd8c0d44	-0.06838468
222	0x3d2f7892	0.042839594
223	0xbd8e73f1	-0.06955708
224	0x3ce130d1	0.027489098
225	0x3d272fff	0.040817257
226	0x3d886f94	0.06661907
227	0x3d13e818	0.036110014
228	0x3c8c070a	0.0170932
229	0xbc04f73e	-0.008115588
230	0x3dae05d6	0.08497207
231	0x3c69ae63	0.014262768
232	0xbd9d90fd	-0.0769367
233	0x3c8d6f41	0.017264964
234	0x3ccf1022	0.025276247
235	0x3db036e4	0.086042196
236	0xbc1f6712	-0.009729164
237	0xbca21cb0	-0.01978907
238	0xbd6ccedc	-0.057814464
239	0xbd5042fd	-0.050845135
240	0xbde2ac1b	-0.11067983
241	0x3d5485ef	0.05188554
242	0xbc576608	-0.013146885
243	0xbd4b62ef	-0.049654897
244	0x3b143622	0.0022615273
245	0x3cc0f8a2	0.023556057
246	0xbd0806f4	-0.033209756
247	0xbbc7cea9	-0.006097634
248	0x3cfb6256	0.030686539
249	0x3d5c8359	0.0538362
250	0xbca3e5c7	-0.020007027
251	0x3d1c541f	0.03816616
252	0x3dc60966	0.09669761
253	0x3d06b5f0	0.032888353
254	0xbd6963f8	-0.056980103
255	0xbd21f85e	-0.039543502

convs.2.att f4 [10, 4]
0	0x3d0db38f	0.03459507
1	0x3c822867	0.015888406
2	0x3d3fc84c	0.046821877
3	0xbce549a3	-0.027989214
4	0x3d069e44	0.032865778
5	0x3c786b3f	0.015162288
6	0x3d0e9072	0.034805723
7	0x3ce4e91d	0.027943188
8	0x3cd4b83d	0.025966758
9	0x3c667f2b	0.014068405
10	0x3d30ed40	0.04319501
11	0xbb791883	-0.0038008995
12	0xbb163f02	-0.002292574
13	0x3c3c0a6f	0.011477097
14	0x3bada564	0.005299257
15	0xbb84c0b6	-0.0040512932
16	0xbd21e696	-0.039526545
17	0xbd39cc5b	-0.045360904
18	0xbc97d908	-0.018536106
19	0xbd50424c	-0.050844476
20	0xbb95da42	-0.0045731375
21	0xbb6c7034	-0.003607762
22	0xbd131582	-0.035909183
23	0xbcc6c495	-0.02426366
24	0x3cc1bc02	0.02364922
25	0x3c2a9a5d	0.01041278
26	0x3ca7f330	0.020501703
27	0x3d216873	0.03940625
28	0xbca77752	-0.020442639
29	0x3c0638c7	0.008192248
30	0x3ad2cc80	0.0016082674
31	0xbc1c06b0	-0.009523079
32	0x3ccd81a3	0.02508623
33	0xbcbb212e	-0.02284297
34	0xbc4b1547	-0.01239521
35	0xbce3d552	-0.02781168
36	0xbc1ae952	-0.009455042
37	0x3c6bf1ae	0.014400883
38	0x3c662638	0.014047198
39	0xbd11b941	-0.035577063

convs.2.root f4 [32, 32]
0	0xbd150392	-0.036380358
1	0xbcbfd66f	-0.02341768
2	0x3c6e1e9f	0.014533668
3	0xbc105055	-0.008808215
4	0x3adbb97d	0.0016763654
5	0xbd722cf2	-0.059124894
6	0xbd31de43	-0.043424856
7	0xbc3aa925	-0.011392866
8	0x3d590ff7	0.05299374
9	0xbd771f35	-0.060332496
10	0xbb741098	-0.0037241336
11	0xbbb29397	-0.005449723
12	0xbce3b88f	-0.027797965
13	0x3da8a702	0.08234979
14	0xbd64dec5	-0.055876512
15	0xbda52096	-0.08062856
16	0x3cc08394	0.023500241
17	0xbc918259	-0.01776235
18	0x3bd000ef	0.0063477675
19	0x3ca682ed	0.020326102
20	0xbb107382	-0.0022041504
21	0x3c389069	0.011264899
22	0xbca52e1c	-0.020163588
23	0x3d37d021	0.04487622
24	0xbd410834	-0.047126964
25	0xbd4ef5af	-0.05052727
26	0x3d08a09f	0.033356305
27	0x3c8abcce	0.016935732
28	0x3caa9a47	0.020825518
29	0x3cc8e255	0.024521986
30	0xbd12a012	-0.035797186
31	0xbcc566d7	-0.02409689
32	0xbcb07666	-0.021540832
33	0x3c1bfeff	0.009521245
34	0xbd8661ab	-0.065615974
35	0x3d889acb	0.066701494
36	0x3d03a479	0.032139275
37	0x3dad718e	0.084689245
38	0xbbefb38a	-0.007315104
39	0xbd6611b8	-0.05616924
40	0x3d2c271b	0.04202948
41	0xbd652f06	-0.05595305
42	0xbdcdeaa2	-0.10054518
43	0x3d9048f2	0.07045163
44	0x3db88dbf	0.09011411
45	0x3d50f853	0.05101807
46	0x3d828932	0.06373824
47	0x3d3b403e	0.045715563
48	0x3d99a6df	0.07502531
49	0xbc2ef76e	-0.010679109
50	0xbd4a5388	-0.049396068
51	0xbd853aaa	-0.0650533
52	0xbcee420c	-0.029084228
53	0xbd0168a3	-0.03159393
54	0xbd1c76a3	-0.03819908
55	0xbd874d1f	-0.066065066
56	0xbdc99fbf	-0.09844922
57	0xbd57dd8f	-0.05270153
58	0x3db1d1d6	0.08682601
59	0x3c9213c2	0.017831687
60	0xbd2d23a9	-0.042270336
61	0x3d20700e	0.039169364
62	0xbd86fd3b	-0.06591269
63	0xbd86e214	-0.0658609
64	0xbc372a08	-0.011179455
65	0xbdbbf373	-0.09177294
66	0x3dad8dbe	0.08474301
67	0xbcfb489c	-0.030674271
68	0xbd9a1880	-0.07524204
69	0xbdb68d5f	-0.08913683
70	0xbd08daa0	-0.033411622
71	0xbd01f113	-0.031724047
72	0x3d8b54a0	0.0680325
73	0xbd9d8c2e	-0.07692753
74	0xbd6368fd	-0.055520047
75	0xbd587c7d	-0.052853096
76	0xbd3d7f82	-0.04626418
77	0xbd4e6da3	-0.050397526
78	0xbcb15255	-0.021645704
79	0xbd05a2c2	-0.03262592
80	0xbbf1c43d	-0.0073781298
81	0x3d665f6a	0.056243338
82	0x3ad5e64d	0.0016319245
83	0xbda39220	-0.079868555
84	0xbdcb8ae6	-0.09938602
85	0x3cb9342e	0.022607889
86	0x3a6b4e89	0.0008976241
87	0x3d38bfd2	0.04510481
88	0x3cf3a42e	0.029741373
89	0xbb8f4f21	-0.0043734466
90	0x3d0c17af	0.034202274
91	0x3d38be89	0.045103583
92	0x3d809d63	0.06280019
93	0xbb1f8e68	-0.0024346355
94	0xbd842e3d	-0.06454132
95	0xbd1535ea	-0.03642837
96	0x3d011aa7	0.03151956
97	0xbb0e5fa0	-0.0021724477
98	0xbda5712d	-0.08078227
99	0xb9624cc8	-0.00021581643
100	0x3d82395c	0.06358597
101	0xbd89b950	-0.06724799
102	0xbbe01603	-0.0068385615
103	0x39863e2f	0.00025604802
104	0xbac2cf33	-0.0014862776
105	0x3c1ebddf	0.0096888235
106	0x3abf3f72	0.0014591052
107	0x3bc28ac5	0.005936953
108	0xbd8f0fb2	-0.069854155
109	0xbd8fa43e	-0.070137486
110	0xbd185f37	-0.03720018
111	0xbd3f915f	-0.046769496
112	0xbda94fca	-0.08267172
113	0x3d629c7d	0.05532502
114	0xbd130fd9	-0.035903785
115	0xbc370d9b	-0.011172677
116	0x3d8096c8	0.06278759
117	0xbd3d5f6e	-0.046233587
118	0xbd2fd99b	-0.042932134
119	0xbd61c69e	-0.055121057
120	0x3d8626a2	0.065503374
121	0xbd09dd8f	-0.03365856
122	0x3d35124c	0.044206902
123	0xbd3b9e75	-0.045805413
124	0xbd2b35eb	-0.041799467
125	0x3d6523b9	0.05594227
126	0xbd281333	-0.041033935
127	0x3da7561c	0.08170721
128	0x3d0b6a11	0.0340367
129	0x3d913b72	0.070914164
130	0x3d9c840d	0.07642374
131	0x3d62a034	0.055328563
132	0x3cf680cf	0.030090718
133	0xbd7debc9	-0.06199244
134	0x3d7fd35c	0.062457427
135	0x3d54a9be	0.05191969
136	0xbd26c2cf	-0.040713128
137	0xbc84960b	-0.016184827
138	0xbd651c0d	-0.055934954
139	0x3d623f1b	0.055235963
140	0x3daad219	0.08340854
141	0xbd080c11	-0.033214632
142	0xbd4653c0	-0.048419714
143	0x3cd04683	0.025424248
144	0x3d086809	0.03330234
145	0x3dcb682f	0.09931981
146	0x3db3bf30	0.087767005
147	0xbda3661d	-0.07978461
148	0x3d390e55	0.045179684
149	0xbd3e42b3	-0.046450328
150	0x3d8a71e8	0.06760007
151	0xbd10249f	-0.035191175
152	0xbc797cee	-0.015227539
153	0xbd68f579	-0.056874726
154	0xbb50a018	-0.0031833705
155	0x3d93dac3	0.0721946
156	0xbc010330	-0.007874295
157	0x3c5b1d8e	0.013373746
158	0x3d182757	0.037146892
159	0xbd9a7beb	-0.07543167
160	0xbd76eb2f	-0.060282882
161	0xbde74328	-0.11292106
162	0xbda83c0e	-0.082145795
163	0x3d762ed0	0.060103238
164	0x3d411d1e	0.04714691
165	0x3d0d3ea9	0.034483586
166	0xbd983f2f	-0.07433926
167	0xbd8186c7	-0.06324535
168	0x3d654a17	0.05597886
169	0x3c831203	0.0159998
170	0x3d2e6b6d	0.042582918
171	0xbb94f8f1	-0.0045462777
172	0x3c09ba5f	0.008406251
173	0xbd0abc80	-0.033871174
174	0xbcd1e042	-0.02561963
175	0xbc09845f	-0.008393376
176	0x3d252c8c	0.040325686
177	0x3d347ac9	0.04406241
178	0x3cbd90ee	0.023140397
179	0xbd731431	-0.059345428
180	0xbd4168e2	-0.047219165
181	0xbd628f23	-0.055312287
182	0x3c951832	0.018200014
183	0xbd89ff29	-0.06738121
184	0xbcebc7b8	-0.028781757
185	0xbd160d7a	-0.036633946
186	0x3db03281	0.08603383
187	0xbd6ed663	-0.058309924
188	0x3d0a3e47	0.0337508
189	0x3c456041	0.0120468745
190	0x3d958a4f	0.07301771
191	0xbd0bb0d7	-0.034104194
192	0x3ce962ee	0.028489556
193	0x3e12ab22	0.14323094
194	0xbdf35a6c	-0.11882481
195	0x3de45cba	0.11150499
196	0x3d12b53a	0.035817362
197	0x3dbbf06a	0.09176715
198	0xbcc7bfd6	-0.024383467
199	0x3c674af0	0.014116988
200	0x3d38199a	0.04494629
201	0x3cc1443d	0.023592109
202	0xbe15edae	-0.14641449
203	0xbe170871	-0.14749314
204	0x3d479805	0.04872896
205	0xbb7c0784	-0.0038456628
206	0xbd4e155a	-0.05031333
207	0xbd218d39	-0.03944132
208	0x3e071f7e	0.13195607
209	0x3d06fb41	0.03295446
210	0xbd86dceb	-0.065851055
211	0x3c47014e	0.012146307
212	0x3da3a582	0.079905525
213	0x3e3bec9e	0.18351981
214	0x3d877a09	0.06615073
215	0x3d24314e	0.040086083
216	0x3e35d215	0.17755921
217	0xbd677527	-0.05650821
218	0xbda3e95b	-0.080034934
219	0xbba61a8e	-0.0050690835
220	0xbc80c496	-0.01571874
221	0xbd071a74	-0.032984212
222	0x3d39da02	0.045373924
223	0x3dbfaa35	0.09358636
224	0xbc9f69b9	-0.019459592
225	0xbd3c409d	-0.045960058
226	0x3d88e4be	0.06684254
227	0x3d0e03b4	0.0346715
228	0x3d4bf23f	0.04979157
229	0xbda077a8	-0.078353226
230	0xbd0f35da	-0.034963466
231	0xbd28e468	-0.04123345
232	0x3dbb530d	0.091467
233	0x3adda59e	0.001691032
234	0xbc6cfee0	-0.014465064
235	0xba5c0c4a	-0.0008394165
236	0xbade4701	-0.0016958417
237	0x3c9b0d68	0.018927291
238	0xbd6325d0	-0.055455983
239	0xbd121ee4	-0.03567399
240	0xbd522aba	-0.05131028
241	0x3d0cfd21	0.03442109
242	0x3d439a87	0.04775479
243	0x3cd48048	0.025940076
244	0x3d0b8d6f	0.03407043
245	0xbdcb49d0	-0.09926188
246	0xbdad0d4c	-0.08449802
247	0x3d76c75d	0.06024872
248	0xbd895a7a	-0.0670671
249	0x3d37f09d	0.0449072
250	0xbd5cd6ea	-0.053915896
251	0xbd0ef791	-0.034904066
252	0x3ca3dc59	0.02000253
253	0x3add3c59	0.0016878947
254	0xba98d14e	-0.0011659057
255	0x3c88432b	0.01663359

convs.2.bias f4 [32]
0	0xbad5ab4c	-0.0016301661
1	0xbd664833	-0.0562212
2	0x3d63b07a	0.055588223
3	0xbddfdc23	-0.109306596
4	0xbd5b8006	-0.05358889
5	0xbdddd32c	-0.108312935
6	0x3c53a642	0.012918057
7	0xbdd004e9	-0.101571865
8	0xbdb3598d	-0.08757315
9	0xbd436dbd	-0.047712076
10	0x3dbff7ca	0.09373434
11	0x3db30574	0.087412745
12	0xbd8721c4	-0.06598237
13	0x3d3a8fa0	0.045547128
14	0x3cdec96f	0.02719566
15	0x3d9d1c6a	0.07671435
16	0xbd8feecd	-0.070279695
17	0xbda3e92a	-0.08003457
18	0x3d6e41cf	0.05816823
19	0xbdc7d158	-0.09756726
20	0xbdc0f98f	-0.094225995
21	0xbdd8c5ed	-0.10584626
22	0xbd65011e	-0.05590927
23	0xbd5e0fe9	-0.05421439
24	0xbd846ff6	-0.06466667
25	0x3da33118	0.07968348
26	0x3cef155e	0.029184993
27	0x3da9b1cb	0.082858644
28	0x3d41c022	0.047302373
29	0x3d19266b	0.037390154
30	0xbdaa92c3	-0.08328774
31	0x3b8c3e6e	0.004279903

convs.3.basis f4 [4, 32, 32]
0	0xbd21a696	-0.03946551
1	0x3dab9934	0.083788306
2	0xbd56f7e4	-0.0524825
3	0x3d5f7e0a	0.05456356
4	0x3c63edde	0.013911692
5	0xbd029a24	-0.03188528
6	0x3d946b8e	0.07247077
7	0x3d30f69a	0.043203928
8	0xbca48242	-0.020081643
9	0xbd6ab793	-0.057303976
10	0xbda9db11	-0.08293737
11	0x3dcfd379	0.10147757
12	0xbdb58a4f	-0.08864271
13	0x3d0f150e	0.03493219
14	0x3d079b9f	0.033107396
15	0xbd5f67ad	-0.054542232
16	0xbca08346	-0.019593846
17	0xba2cc644	-0.0006590823
18	0xbacba112	-0.0015535674
19	0x3cab0a22	0.020878855
20	0x3cc79c59	0.024366545
21	0x3d20fb24	0.039302006
22	0x3ddf3705	0.10899166
23	0x3d49193a	0.049096324
24	0x3dbddf1c	0.0927107
25	0xbc1c3562	-0.009534212
26	0xbdd561b4	-0.10419026
27	0xbde4624e	-0.11151563
28	0x3ce9a81b	0.028522542
29	0xbdd0255c	-0.10163376
30	0x3d00d07a	0.03144882
31	0xbbaa13ff	-0.005190372
32	0x3da9e622	0.082958475
33	0xbd87828d	-0.066166975
34	0x3d7b97f9	0.06142423
35	0x3d922ccb	0.0713745
36	0x3cec3f69	0.02883883
37	0x3ceb4872	0.028721068
38	0xbda11022	-0.07864405
39	0x3c98b9d8	0.018643305
40	0x3e0269ef	0.12735723
41	0x3d1fdb4f	0.03902751
42	0xbc5bec94	-0.013423104
43	0x3d628c40	0.055309534
44	0xbc2536d0	-0.010083869
45	0x3daab4f8	0.08335298
46	0xbd9c38e5	-0.07628039
47	0x3d97f509	0.074197836
48	0xbd1ca7a8	-0.038245827
49	0xbc46c42d	-0.012131733
50	0x3c8c63ac	0.017137371
51	0xbb3df6a5	-0.0028986123
52	0x3dafd5ad	0.08585677
53	0xbda6ed56	-0.08150737
54	0xbcca6c4a	-0.02470984
55	0xbd2052b2	-0.039141364
56	0xbd7868d8	-0.06064686
57	0x3db56392	0.08856882
58	0xbd4c8599	-0.049932096
59	0x3d8fa1c4	0.07013276
60	0xbc4ed494	-0.012623925
61	0x3da313ed	0.07962785
62	0x3d840740	0.06446695
63	0xbd9e8aff	-0.07741355
64	0xbd056499	-0.03256664
65	0xbd2eb39a	-0.04265175
66	0x3d07359a	0.033010103
67	0xbd358079	-0.044311974
68	0xbd489d7f	-0.048978325
69	0x3d81fda1	0.06347204
70	0x3dad367a	0.08457656
71	0xbd1368ec	-0.035988733
72	0xbdef3daa	-0.11681683
73	0xbd47534b	-0.04866342
74	0xbd0e716f	-0.034776147
75	0x3cc9c860	0.024631679
76	0x3beb0e23	0.007173316
77	0x3c4bb0d8	0.0124323
78	0x3dcc0a8c	0.09962949
79	0x3d7a990e	0.06118112
80	0xbc1dd93f	-0.009634315
81	0xbcf0af07	-0.029380335
82	0xbb33d065	-0.0027437445
83	0xbd18d4db	-0.03731237
84	0xbd86a46f	-0.06574332
85	0x3d9b3138	0.07577747
86	0xbbc8054a	-0.006104146
87	0x3cd42871	0.02589819
88	0xbc8fa627	-0.017535282
89	0x3d5f48dd	0.054512847
90	0xbd4cbde7	-0.049985792
91	0xbbd05322	-0.0063575665
92	0x3d7cb28e	0.06169372
93	0xbdbaf11b	-0.091280185
94	0x3d22f575	0.039784867
95	0x3bb89fa5	0.0056342655
96	0xbcb2d636	-0.02183066
97	0x3d7594c2	0.05995632
98	0x3d354efa	0.04426477
99	0x3d98667e	0.07441424
100	0x3d081d3a	0.033230998
101	0xbbf1d254	-0.0073798094
102	0xbd48d2e9	-0.049029265
103	0xbc62cf1f	-0.013843327
104	0xbc955299	-0.018227862
105	0x3d94d48f	0.07267105
106	0xbb0b753e	-0.0021279599
107	0xbc958c67	-0.018255426
108	0xbd91a372	-0.07111253
109	0x3d748ed8	0.05970654
110	0xbb9ebbdf	-0.0048441733
111	0xbd9930c6	-0.07480006
112	0xbc9c559f	-0.019083796
113	0x3d808b17	0.06276529
114	0xbd73c95f	-0.059518214
115	0x3d9a8237	0.07544368
116	0xbda5688e	-0.08076583
117	0xbd930f70	-0.07180679
118	0x3c2bfe95	0.010497709
119	0xbd5ee49d	-0.05441724
120	0x3d2fa43f	0.042881247
121	0x3d1b3365	0.03789081
122	0xbd1cd5fb	-0.038290005
123	0xbd3812fe	-0.044939987
124	0x3db2491f	0.08705353
125	0x3d5116fc	0.05104731
126	0x3d09ebc1	0.033672098
127	0xbdc46501	-0.095895775
128	0xbd305bc2	-0.043056257
129	0xbb96eac2	-0.004605622
130	0xbb291750	-0.002580125
131	0xbd3ef04f	-0.046615895
132	0x3ce3ceab	0.027808508
133	0xbc6b3bed	-0.014357549
134	0xbd773ae1	-0.060358886
135	0xbd5cf5e9	-0.053945456
136	0x3d899afb	0.06719013
137	0xba64475c	-0.0008708143
138	0x3d710bf0	0.058849275
139	0xb832cbc3	-4.2628275e-05
140	0xbd098c08	-0.03358081
141	0xbc664fe3	-0.014057132
142	0xbd9fe8c6	-0.0780807
143	0xbd2cf8fe	-0.042229645
144	0xbd441105	-0.047867794
145	0x3d6ab6e9	0.057303343
146	0xbc62aecc	-0.01383562
147	0xbd320f61	-0.043471698
148	0xbcd08d5a	-0.025458027
149	0xbd5ba683	-0.053625595
150	0xbd242aa9	-0.040079746
151	0x3d7d6dc5	0.061872263
152	0xbd6f4e19	-0.05842409
153	0xbd87db36	-0.06633608
154	0xbd42a083	-0.047516357
155	0xbc065c5d	-0.008200732
156	0x3c8c0168	0.017090514
157	0x3cb02e89	0.021506565
158	0xbb37352e	-0.0027955282
159	0xbda19eea	-0.078916386
160	0xbc6fdb42	-0.0146396775
161	0xbd748273	-0.05969472
162	0xbd924259	-0.07141561
163	0xbc0f3d9b	-0.008742715
164	0x3d01ec86	0.031719707
165	0xbc4c8d0d	-0.012484801
166	0x3d42dd24	0.047574177
167	0x3c64e129	0.013969698
168	0x3da13120	0.07870698
169	0xbca220d8	-0.019791052
170	0x3d2b5318	0.04182729
171	0xbd85caba	-0.06532808
172	0x3d1576a4	0.036490098
173	0x3d7e7070	0.062118948
174	0x3d16d832	0.036827274
175	0xbd0591f4	-0.032609895
176	0xbc1e71f9	-0.009670728
177	0xbc43b784	-0.011945609
178	0xbd97a497	-0.0740444
179	0xbcc4e303	-0.024034029
180	0xbb02de09	-0.001996877
181	0x3cf2800b	0.029602071
182	0xbbe68623	-0.0070350333
183	0x3a01d80b	0.00049531524
184	0x3d4b88eb	0.049691122
185	0xbd02076a	-0.03174535
186	0xbcc3224b	-0.023820063
187	0xbca32aa6	-0.019917797
188	0xbc00070f	-0.007814183
189	0xbc64afa7	-0.013957894
190	0x3d87581a	0.06608601
191	0xbdcb3d0c	-0.09923753
192	0xbd806252	-0.06268753
193	0xbc092bbc	-0.0083722435
194	0x3d14543d	0.03621315
195	0xbd806b56	-0.06270473
196	0x3cbd38ab	0.02309831
197	0x3d049e73	0.03237767
198	0xbd9ce4ac	-0.07660803
199	0x3d6f5b13	0.058436465
200	0xbd747d3d	-0.05968975
201	0x3cc1980f	0.023632078
202	0xbd2adbb6	-0.04171344
203	0x3cd8712e	0.026421156
204	0x3cc8caae	0.024510708
205	0xbd2df63a	-0.042471148
206	0x3dbb3945	0.09141783
207	0x3d24b521	0.0402118
208	0x3d42811b	0.047486406
209	0xbcd68459	-0.026186155
210	0xba2cc17b	-0.000659011
211	0x3d0553a7	0.03255048
212	0x3c8c5ef0	0.017135113
213	0xbaac9e3b	-0.0013169715
214	0x3c2a79ad	0.010404986
215	0xbd94de9d	-0.072690226
216	0xbd5cb0e2	-0.053879626
217	0xbc393c6e	-0.0113059115
218	0x3cb603fa	0.022218693
219	0xbdab1f29	-0.08355553
220	0xbd5227c4	-0.051307455
221	0xbd14c4d9	-0.03632054
222	0xbd1c5cda	-0.038174488
223	0x3d867d1a	0.0656683
224	0x3d81db48	0.06340653
225	0xbd53b14b	-0.05168275
226	0x3cd31c7f	0.025770424
227	0x3cf331fe	0.029686924
228	0x3c4b12a5	0.012394582
229	0xbc3a8a2e	-0.011385484
230	0xbd0cdfb8	-0.034393042
231	0xbc0b3f2f	-0.008498951
232	0x3de25acf	0.110524766
233	0xbcae3d44	-0.021269448
234	0x3ace553e	0.0015741957
235	0x3d23a004	0.039947525
236	0xbb11f7e1	-0.0022272991
237	0x3d09876b	0.03357641
238	0x3d50365c	0.05083309
239	0x3c5a35c2	0.013318481
240	0x3d6346fc	0.055487618
241	0x3d98fb84	0.07469848
242	0x3d93bceb	0.072137676
243	0xbd163c66	-0.036678694
244	0x3c88267a	0.01661991
245	0x3d69f4a4	0.057118073
246	0x3d97311e	0.07382415
247	0x3d90d420	0.0707171
248	0xbc9a2119	-0.01881461
249	0x3da515ca	0.080607966
250	0x3d1380fc	0.03601168
251	0x3c0d6f19	0.008632445
252	0x3d1ac496	0.037785135
253	0xbb9d93a9	-0.004808862
254	0x3dd18188	0.10229784
255	0xbd6cf6b6	-0.05785247
