results/flixster_testmode/model_checkpoint20.pth (torch_old, 199981 bytes, 19 tensors)

convs.0.basis f4 [4, 4, 32]
000000 2f e2 9a 3d b6 3f 4e bc 02 46 8c 3d a1 c4 8b 3d
       0.07562672 -0.012588432 0.068492904 0.06824613
000010 d5 70 7b bd f3 ac 5e 3e 86 10 04 be d6 92 01 be
       -0.061386902 0.21745662 -0.12896928 -0.1265367
000020 ab 0b de 3d e4 0a 3e be a8 24 08 3e 6e da 1a be
       0.10842069 -0.18558842 0.13295233 -0.15122387
000030 0c 26 59 be 90 94 f7 3d c5 48 0f 3e 6e 29 c2 bd
       -0.2120592 0.12088883 0.13992603 -0.09480558
000040 81 d3 3d bd 55 33 a0 bd 09 24 57 be 33 06 da 3a
       -0.046344284 -0.07822291 -0.2100984 0.0016633928
000050 e8 c9 f3 3c be 13 33 3e 11 47 74 3d 6b ab b5 bd
       0.029759362 0.17488 0.059638087 -0.08870586
000060 ef b6 90 3d 49 0a 13 be dc 74 d3 3d 39 34 36 3d
       0.07066142 -0.14359392 0.103250235 0.044483397
000070 14 29 14 3e 01 43 8b 3e b3 4d 74 be e2 d9 ba 3c
       0.14468795 0.27199557 -0.23857765 0.022808973
000080 49 b5 42 be 2f 75 07 be cd bf 05 be 63 2d 93 39
       -0.19014467 -0.13228296 -0.13061447 0.0002807184
000090 20 2e 83 bc 8a 18 8d 3e 0d e7 85 bd 39 be 99 bd
       -0.016013205 0.27557784 -0.0653821 -0.07506985
0000a0 8e 35 6f be 16 d1 da bd 0c 5e ed 3d ec 01 57 be
       -0.23360273 -0.10684411 0.11590204 -0.20996827
0000b0 ea 6e 3e bd 82 2b c6 ba c9 0e aa 3c 4d cd e8 bd
       -0.046492495 -0.0015119168 0.020759003 -0.11367283
0000c0 46 ce ba bd d9 85 54 be 7a a5 c8 3d 9e 0c 06 be
       -0.09121375 -0.20754184 0.09797187 -0.1309075
0000d0 b4 38 22 be 61 59 10 3e 48 cc bd bd 1f 52 97 bd
       -0.15841943 0.14096595 -0.09267479 -0.0738871
0000e0 43 fa 11 3d 91 4f 81 bd 67 6e 2a 3c eb 23 27 3d
       0.03563906 -0.06314004 0.0104022985 0.04080574
0000f0 af c6 fb 3d c8 53 0b 3e c6 e5 6c be c0 74 e6 3c
       0.12293755 0.13606179 -0.23134527 0.028131843
000100 d5 6c 9a bd 92 85 dd bd b8 7c ac 3d 30 cf 00 3e
       -0.07540289 -0.10816492 0.08422226 0.12579036
000110 ee 90 4c 3c 11 bc 00 be e5 19 63 3d f9 8c 83 be
       0.012485726 -0.12571742 0.055444617 -0.2569349
000120 4b 83 a1 be a7 79 3d bd 36 bc 09 bd dd d0 92 3d
       -0.3154548 -0.046258595 -0.033626758 0.07168744
000130 bc ca 7b 3e 4d 2f 58 3d 65 51 2b 3d 52 88 1e be
       0.24589056 0.052779485 0.04182567 -0.1548169
000140 f8 93 4f 3d 8d 7f 90 bd 1b af e4 3d ce 89 04 3e
       0.050678223 -0.070555784 0.11166211 0.12943193
000150 c2 97 8e 3d 3a 83 c3 3d 66 6c 1d bf 8d a9 e0 be
       0.06962539 0.09546514 -0.6149353 -0.43879357
000160 a8 03 b5 be 56 05 ae 3b 59 cb ec bd c2 03 89 3b
       -0.35354352 0.0053106947 -0.11562223 0.004181356
000170 27 b6 9f bd 77 a0 5e 3d 63 0d 5f 3c 1a 6c b9 3d
       -0.07798415 0.05435225 0.0136140315 0.09053822
000180 02 0d 0d 3e d6 4a 38 bd 63 14 b8 bb f4 de bc bd
       0.13774493 -0.044993244 -0.0056176647 -0.092222124
000190 44 d1 28 be ee 8e 96 be 95 13 5b bd ba ed 2a ba
       -0.16486079 -0.29405922 -0.05348547 -0.00065204094
0001a0 54 5d b7 3e b3 ca fe 3e 95 cd 00 3f b0 e0 1d 3e
       0.3581339 0.49764022 0.50313693 0.15417743
0001b0 a7 70 ca 3d 3a 1d 28 3d 56 56 ca bd d4 3f 32 bd
       0.09884768 0.041043498 -0.098797485 -0.043517902
0001c0 b4 9d bf be 41 6c 0b be 42 2a bd bd f6 9c 09 bc
       -0.37425005 -0.13615514 -0.09236576 -0.008399239
0001d0 f7 08 5e bd db 78 f5 be 5f 1a 0c be 16 fe 95 3d
       -0.05420777 -0.47943768 -0.13681935 0.07323854
0001e0 f2 d8 9a bd e6 2e 31 3e 7b 56 36 be 76 0b 2b be
       -0.0756091 0.17303047 -0.17806427 -0.16703591
0001f0 37 ca 05 3c cd d1 12 3e db 27 10 3e 2a df 8c 3d
       0.008165888 0.14337845 0.14077704 0.06878503
000200 07 6b 09 3c 4b e7 81 bc 7d 49 3f 3d dc 15 9f 3d
       0.008387334 -0.01585736 0.046700943 0.07767841
000210 0a 2e 99 bd 76 f8 18 3e 97 1b 07 bd c2 ae ac bd
       -0.074794844 0.1493853 -0.032985296 -0.0843177
000220 cc 3f c6 bc 6b 65 0f be 34 ec 6a 3d 1b ec 18 bd
       -0.024200343 -0.14003532 0.057354167 -0.037334543
000230 25 5a 10 be 14 b7 8b 3d 2d 5f 12 3e 76 e1 3e be
       -0.14096887 0.06822029 0.14294119 -0.18640694
000240 f8 f4 88 bd e9 9f a5 bd 4b 24 d0 bd 22 2c fa bc
       -0.06687349 -0.08087141 -0.10163172 -0.030538622
000250 58 e9 5b 3c b3 2b 20 3e 88 31 d6 3d ad b5 f8 bd
       0.013422333 0.1564167 0.10458666 -0.12144027
000260 66 46 3d 3d fd 2c a9 bd 7f 49 ae 3d 87 41 64 3c
       0.046209715 -0.08260534 0.08510112 0.013931639
000270 1c 32 46 3d 99 c7 5a 3e 04 b0 2b be 3c 1b 04 3c
       0.04838763 0.21365203 -0.16766363 0.008063134
000280 24 26 07 be b3 c1 81 bd 4d b5 16 be 3e 2a a1 3d
       -0.13198143 -0.06335773 -0.14717598 0.07869385
000290 49 2f b3 bc 82 92 58 3e a2 0b a8 bd 72 a2 85 bc
       -0.021873133 0.21149638 -0.08205344 -0.016312812
0002a0 22 3c fb bd 46 fe d9 bd 3c 0f e1 3d e1 b7 60 be
       -0.12267329 -0.10644202 0.10989234 -0.21945144
0002b0 55 c6 80 bd 7e 49 6e bc e9 b3 c8 3d c9 5c 78 bd
       -0.06287829 -0.014543889 0.0979994 -0.06063536
0002c0 4c 09 cb bd 24 28 1d be 06 c1 80 3c 85 bd 85 bd
       -0.099138826 -0.15347344 0.01571704 -0.065302886
0002d0 15 06 10 be d9 61 f1 3d 98 22 fb ba 20 c6 14 bd
       -0.1406482 0.11786241 -0.001916009 -0.03632176
0002e0 1f c0 a4 3d 98 70 84 bd 74 be 0a 3d 8a 5d 0a 3d
       0.08044457 -0.06466788 0.033873037 0.033780612
0002f0 63 38 eb 3d 73 ea 45 3e 26 d7 2f be cf 30 f7 3c
       0.11485364 0.19327717 -0.17171916 0.030174641
000300 35 eb 0b bd 2e 7a 1b bb c5 57 c0 bd 56 87 57 3d
       -0.034159858 -0.0023723948 -0.09391741 0.0526193
000310 c4 20 a7 3d 94 9b 06 3e 23 0d f3 3c 98 69 37 be
       0.081605464 0.13145286 0.02966935 -0.17911375
000320 7d 00 0c bf 5a f8 45 3d 89 06 1d be 2a 28 b5 bd
       -0.54688245 0.04833255 -0.15334524 -0.08845551
000330 8d f5 7f 3e 07 c3 31 bc 82 66 3c be ee 36 78 be
       0.24996014 -0.010849721 -0.18398479 -0.24239704
000340 b9 66 42 3e 03 00 81 bd 74 f6 0a 3e 3b 9e 28 3e
       0.18984498 -0.0629883 0.13570577 0.1646661
000350 7f fe e0 bd 49 93 85 bd db 4d 1a bf 93 9a cd be
       -0.10986041 -0.06522233 -0.6027505 -0.40156993
000360 fe 3e 95 be 2e 40 eb 3c 19 d7 49 3d bf 1c 90 bd
       -0.29149622 0.028717127 0.0492774 -0.07036733
000370 04 00 10 bd 86 77 2f bd 31 8f 10 bd 71 5d 19 3b
       -0.035156265 -0.042838596 -0.035292808 0.0023401643
000380 b6 5d ba bb ed 7e 37 3e 90 d8 33 3c 49 5d f4 3c
       -0.0056874407 0.17919512 0.0109769255 0.029829638
000390 17 42 0b 3e 2e 92 27 be c3 24 32 3d 88 6e 2d be
       0.1359943 -0.16364357 0.04349209 -0.16936696
0003a0 9f c6 75 3e 43 8a be 3e 67 89 c0 3e 8b 56 f4 be
       0.24001549 0.3721486 0.3760483 -0.47722277
0003b0 16 70 09 be 71 ad 24 bd 83 1b c4 bd a6 9b 28 3d
       -0.13421664 -0.04020447 -0.0957556 0.041164063
0003c0 60 bc 59 be ea 5b 2a be 84 d4 36 be 79 3e 52 bd
       -0.21263266 -0.16636625 -0.17854506 -0.05132911
0003d0 d8 a3 36 3c db 1a bb be 02 f2 4d 3e 5d d7 65 3d
       0.011147462 -0.36543927 0.2011185 0.05611359
0003e0 e1 6c c6 3d b9 d3 f4 3d c9 74 00 3e 16 58 99 bc
       0.09688736 0.119544454 0.1254455 -0.01871876
0003f0 eb d6 8f 3b 16 43 d7 3d 49 dd 04 be d3 6c 16 be
       0.004389634 0.105108425 -0.12975039 -0.1468995

convs.0.att f4 [10, 4]
000000 88 85 ad bd 52 82 29 be 4e 38 91 3e 29 42 dc 3d
       -0.08472735 -0.1655362 0.2836327 0.107548065
000010 54 5e 13 be e9 7d 64 bd 14 a0 8a 3e 0d ac ab 3d
       -0.14391452 -0.05578414 0.27075255 0.083824255
000020 95 bc 47 be c4 2d 06 3e 9d 9a 99 3e 35 b2 cb 3d
       -0.19505532 0.13103396 0.30000773 0.099461
000030 df 48 4d be eb cd 2e 3e 92 04 a0 3e 45 ce 8a 3d
       -0.2004733 0.17070739 0.31253487 0.06777624
000040 d1 af b0 bb d3 5d 53 3d b1 c2 96 3e e5 c8 12 3e
       -0.0053920527 0.05160315 0.29445413 0.14334448
000050 90 e8 29 bd ad 71 6e 3e a4 2a 96 3e 27 c2 0d 3e
       -0.041481555 0.23285551 0.29329407 0.13843594
000060 94 2a 3c bb 23 9c 6f 3e 71 5f 4e 3e 1c df da 3d
       -0.0028711902 0.23399405 0.20153596 0.10687086
000070 d6 45 c0 3d 56 f6 61 3e 53 81 2d 3e d3 42 ba 3d
       0.0938832 0.22066626 0.16943865 0.09094777
000080 07 a4 3d 3e 12 df 41 3e 81 ac 9f 3d 3d 09 a3 bb
       0.18519603 0.18932751 0.077965744 -0.0049754665
000090 03 af aa 3e 67 2f 1c 3e bb 56 4a 3d fb 69 f2 bd
       0.33336648 0.15252458 0.04939912 -0.118366204

convs.0.root f4 [4, 32]
000000 7f ab a7 bd a5 0b 33 ba 37 39 1a 3c 69 c0 40 3e
       -0.08187007 -0.0006830043 0.009413055 0.18823399
000010 79 2d ef 3d f8 cf 7d bb 3e 22 f9 bd d0 e2 82 be
       0.11678595 -0.0038728695 -0.12164734 -0.2556367
000020 38 70 66 3e 2d 51 cd 3e d6 8e b3 3e 00 d6 90 bd
       0.22503746 0.40100995 0.35069913 -0.07072067
000030 ce ca 47 3d 2f 6c 23 3e 93 8d d4 bd be 80 82 bd
       0.048777394 0.15959238 -0.10378566 -0.06372212
000040 77 0f 55 be 90 e8 4a 3e dc 77 17 3d fb 3d 6c be
       -0.2080668 0.19815278 0.03697954 -0.23070519
000050 0e b7 8d 3d 14 ab 02 be ce 1b 96 3d 5a 2e 67 3e
       0.069196805 -0.12760574 0.07329522 0.22576275
000060 e7 67 83 bc e8 60 61 3e 5f 83 34 bd f5 3b 8b be
       -0.016040755 0.22009623 -0.044070598 -0.2719418
000070 f6 62 db 3d d4 91 7d be 52 b2 86 3d 99 66 31 be
       0.10712235 -0.2476266 0.06576981 -0.17324294
000080 24 ef 24 3e 19 75 51 3e c7 e2 76 be ac 47 20 3e
       0.1610685 0.20454825 -0.24109946 0.1565234
000090 b8 cb ed bd 44 8f 35 be 6f 66 b2 bd 77 be 71 be
       -0.11611122 -0.17730433 -0.08710944 -0.23607813
0000a0 6d 06 52 3d d7 47 61 be 97 49 e4 3d 6e 75 3a 3e
       0.05127566 -0.22000061 0.11146849 0.18208858
0000b0 ad d2 a1 3e 9b aa 73 3e 68 b7 13 be 7c 5a 9f 3e
       0.31606045 0.2379555 -0.14425433 0.31123722
0000c0 d2 6b 8f 3b 47 34 c9 3d be bc 9b 3d 91 52 9e bd
       0.004376867 0.09824424 0.07604359 -0.07730592
0000d0 f5 af 3a bd 8e ee 6d be 52 05 66 be 1c 99 c2 be
       -0.045577962 -0.23235533 -0.22462967 -0.38007438
0000e0 6e cd 81 be 13 4d 0e bd 84 96 58 3e 70 30 bc 3d
       -0.25352043 -0.034741472 0.21151167 0.09188926
0000f0 60 37 0a 3e e3 3e a3 bd 0a 69 83 3e 44 78 8e 3e
       0.13497686 -0.07970979 0.25666076 0.2782613
000100 36 73 30 bd 62 0b 0a 3e 47 b9 ec 3c e5 a0 2a bd
       -0.043078624 0.13480905 0.02889694 -0.041657347
000110 1b b4 0b be ec 70 27 be 28 a9 f2 bd bd 61 c9 bd
       -0.13642924 -0.1635167 -0.1184867 -0.09833095
000120 4a 11 c7 bd a7 05 20 bc e0 6b 4b be 42 d8 2f bc
       -0.097200945 -0.009766973 -0.1986537 -0.010732712
000130 04 09 e4 3c da 50 37 3e bf 83 be bb ce 90 0f bd
       0.02783633 0.17901936 -0.005814045 -0.035050206
000140 69 e0 f6 bd 39 7c d4 bd e7 5c 26 be d9 ea 30 3e
       -0.120545216 -0.10375256 -0.16246377 0.17277087
000150 ce d3 82 bc d1 0c 0f 3e 47 0b 09 be 9f d2 8e 3d
       -0.015970137 0.13969733 -0.13383208 0.069737665
000160 13 ee 47 3d 74 92 a1 3d 7a 6e bd 3d 77 76 06 bd
       0.04881103 0.07889262 0.09249587 -0.03282782
000170 11 f1 0b be 69 c4 fa bd dd 3a 05 3d 96 0e ed 3a
       -0.13666178 -0.122444935 0.03252684 0.0018086012
000180 db 3d e8 bd aa 18 31 bd 1d 0a 4f bd 22 d2 62 3e
       -0.11339923 -0.043236412 -0.050546754 0.22150472
000190 5f a9 b4 ba 83 db 4c bd a8 1f 0f bd 30 1f 20 be
       -0.0013783387 -0.05001403 -0.0349423 -0.15636897
0001a0 c6 e7 27 be c4 5c f5 3d f8 a4 9e bd a2 06 29 be
       -0.16397008 0.11980584 -0.07746309 -0.16506436
0001b0 a9 d7 15 3e 7a 70 ed 3d eb fb 53 3d e6 91 7e 3c
       0.14633049 0.11593719 0.05175392 0.015537715
0001c0 8a b4 d9 3c 7f 61 2e be ba 61 65 bd d9 97 16 3e
       0.026575346 -0.1702938 -0.056001402 0.14706363
0001d0 5f 3c c7 bd 9b f4 e7 3d ac 68 40 be b7 ec 08 be
       -0.09728312 0.11325952 -0.18789929 -0.1337155
0001e0 6f 74 29 bd 6d 1a ed 3d 6b 80 ae bc 24 16 db bc
       -0.041370805 0.11577306 -0.021301469 -0.026743956
0001f0 d5 a7 49 be 65 c4 90 bd 7c ce e7 bd 28 c5 d0 bd
       -0.19692929 -0.07068709 -0.11318681 -0.101938546

convs.0.bias f4 [32]
000000 f6 25 0d 3e 88 b1 67 bb 83 42 e2 3d e7 41 63 be
       0.13784012 -0.003535362 0.11047842 -0.22193108
000010 c1 26 ee 3d ec 88 33 bc 36 63 d7 3d 63 a7 04 3e
       0.116284855 -0.010957938 0.1051697 0.12954478
000020 a6 56 36 3e 74 ad 9b bc 4c 99 06 3d ac 98 58 3e
       0.17806491 -0.019003607 0.03286104 0.2115199
000030 30 50 80 bd 21 18 36 be 85 26 58 be 92 9e 6b 3d
       -0.062652946 -0.17782642 -0.21108444 0.05752427
000040 12 85 d0 3d bf 82 61 3e 49 d6 3e 3e e2 7b d8 bd
       0.10181631 0.22022532 0.18636431 -0.10570504
000050 38 e8 96 3d 92 18 8e be a9 54 21 3e 8d 2e 91 3c
       0.07368511 -0.2775312 0.15754952 0.017722392
000060 15 5a 0c 3b 09 d8 82 bd 61 f5 e4 bd f4 1f 09 3d
       0.0021415998 -0.06388862 -0.11179615 0.03347774
000070 ca 1e e5 3d 33 bb 1b be 00 e2 48 3e 31 99 e8 3b
       0.11187513 -0.1520813 0.19617462 0.00709834

convs.1.basis f4 [4, 32, 32]
000000 45 a0 0c be 6d 2f 8b bd 9a f7 7e 3b f8 42 54 bd
       -0.13733013 -0.06796155 0.0038904906 -0.05182168
000010 9d a8 bc bc a8 69 d2 bc 78 71 21 bd 62 20 02 3e
       -0.02302962 -0.025685146 -0.039414853 0.12707666
000020 04 aa 3d 3d 30 d2 0c bb 9a 3f 79 3c 20 95 ac 3c
       0.046304718 -0.0021487586 0.015212918 0.021067202
000030 2f be 5b bd aa 09 e1 3c 98 ea b1 3d eb 80 bb bc
       -0.05364817 0.027470428 0.08687323 -0.022888621
000040 32 8a d8 bb 2d 0c 9f 3c 40 9a 9e 3c 94 07 4a bd
       -0.006608271 0.019414986 0.019360662 -0.049323633
000050 5b 51 1d 3c c1 13 a1 bd cc 4b 5c 3d 3b 3a ee bc
       0.009601916 -0.07865096 0.053783223 -0.0290805
000060 a5 b7 a8 bc 51 5a 51 3d 12 df c6 3b 1b d3 9c 3d
       -0.020595381 0.051111523 0.0060690725 0.07657453
000070 83 d8 7e bc 50 64 48 3c d3 fb 6c 3c b4 13 ed bc
       -0.01555455 0.012230948 0.014464336 -0.02894006
000080 5a ef 0a bd 6c b0 f2 bc 01 4d 74 bd ea 06 0a 3c
       -0.03391967 -0.02962514 -0.05964375 0.0084245
000090 e6 38 99 bd 3f 77 20 bc ed cf aa bd d1 06 3c 3c
       -0.07481556 -0.0097940555 -0.0834044 0.0114762345
0000a0 b7 b9 09 bc c1 4e d8 bc 00 e0 d6 3c 61 0e 48 bc
       -0.008406094 -0.02640474 0.026229858 -0.012210459
0000b0 0f ff 92 bc 7c aa 9b 3c c8 db 90 bd 16 36 d7 3d
       -0.017943887 0.019002192 -0.0707317 0.10508363
0000c0 99 5c 40 3d 40 2d ac 3c b6 88 0a 3d 9f b6 eb 3c
       0.046963308 0.02101767 0.033821784 0.028773604
0000d0 90 b2 69 3d c3 97 c7 bd f8 0c 07 bd 29 3e af 3a
       0.057055056 -0.09745743 -0.032971352 0.0013369966
0000e0 d6 eb a6 bb 4a af 16 3c a5 ed 86 bc 8c aa 99 bd
       -0.005094032 0.009197066 -0.01647074 -0.07503232
0000f0 92 bd 0b 3d 8b d1 53 bd 2f 84 1b 3c 86 ef 90 3b
       0.034116335 -0.051713508 0.009491964 0.0044230847
000100 e3 f1 d3 3d ee 16 4c 3d 63 e3 14 3d 02 94 a2 bd
       0.103488706 0.049826555 0.036349665 -0.079383865
000110 05 0a d3 bc 37 8e 5b bb a4 8b f5 3d af 68 1a be
       -0.025761614 -0.0033501515 0.11989525 -0.15078996
000120 65 3d c6 bb a2 bd 04 bd 25 60 3e 3d 87 ce 97 3c
       -0.0060497993 -0.03240741 0.04647841 0.018531097
000130 51 6f 5d bd 52 ef 8f bc fb ea 6b 3d 8c be 1d be
       -0.054061238 -0.017570172 0.05759714 -0.15404719
000140 5a a9 f9 bc ce bc 33 bd 53 ff 8e 3b 4d b6 7a 3b
       -0.03047626 -0.04388123 0.004363933 0.0038255632
000150 b5 90 db 3a 5c ba 7a 3d 4a a7 4c 3c c7 4f 01 3d
       0.00167515 0.061212882 0.012491057 0.031570222
000160 4d c5 e1 bd 97 05 60 bd bf 0f 74 3d d2 43 9a 3d
       -0.1102396 -0.05469283 0.05958533 0.07532467
000170 50 a8 ce bb b2 99 01 3b 0f f9 04 bc 1b c6 37 bd
       -0.0063066855 0.0019775447 -0.008116021 -0.044866662
000180 3f b2 8a bc e5 cd fb bb ac f7 60 3d 2d aa 89 3d
       -0.016930697 -0.0076844567 0.0549237 0.067219116
000190 93 9b 86 3d d0 d1 de bb a8 d0 5f 3b c5 19 eb ba
       0.06572642 -0.006799914 0.0034151468 -0.0017936757
0001a0 77 b0 50 bc ed 02 ef 3c bc 20 a4 3c 18 d7 f3 bc
       -0.012737385 0.0291762 0.02003514 -0.02976565
0001b0 12 ca 2b 3d c3 ad c6 bc e6 66 52 bd 9a 7f 4c 3d
       0.041940756 -0.024252778 -0.051367663 0.049926378
0001c0 ad e4 db bc c8 5f 1b bd 41 67 96 3c 90 e4 53 bc
       -0.02684244 -0.03793314 0.018359782 -0.0129329115
0001d0 1a 54 6f bd 69 a3 cd 3d 36 9a 5a bd a7 09 60 3c
       -0.058429815 0.10040934 -0.053369723 0.013674176
0001e0 1c a1 19 3d 01 54 e8 bb 25 ca 82 bc 1b 22 ce 3a
       0.03750716 -0.007090092 -0.01596553 0.0015726717
0001f0 cc 71 17 bb 65 d9 af 3b de 9c 57 bc 57 18 8c 3c
       -0.00231086 0.0053664916 -0.013159959 0.01710145
000200 d6 21 e7 3d 7c 88 aa 3c 5e 1d 43 3d b3 cc 07 bc
       0.112857506 0.020817034 0.04763543 -0.00828855
000210 79 93 39 3d 62 46 24 bc fd 4f b7 3d a6 ff e9 bc
       0.045306657 -0.010026546 0.089508034 -0.028564285
000220 e6 bb 31 3d 4e e7 33 3b 25 01 3c 3d 78 eb 68 bd
       0.043392085 0.00274511 0.04589953 -0.056865185
000230 9c df 60 3d 90 b1 01 bc d0 18 b0 3d bd 0d 8c bd
       0.05490075 -0.007915869 0.085984826 -0.06838558
000240 49 cb c2 bc 0a a7 16 3c 14 55 a2 bd 7e 70 27 3d
       -0.023778575 0.009195099 -0.079263836 0.040878765
000250 cb ae 69 3c aa 42 e9 bb 79 bb e8 3d 84 27 d3 bc
       0.014262865 -0.0071185427 0.113638826 -0.025775678
000260 d9 ea 9a bc 09 56 9c bc 46 db 45 bd 38 2c f7 3d
       -0.018910812 -0.019083994 -0.04830482 0.12068981
000270 42 24 ca bd 40 41 b5 3d 49 49 19 bd ee 70 45 bc
       -0.09870197 0.08850336 -0.037423406 -0.01205085
000280 1d d5 78 3b 1d 85 32 39 9a 8d 79 bc 85 33 b1 bc
       0.0037968822 0.00017024991 -0.015231514 -0.021631012
000290 ef 74 71 3d 14 c3 37 bd d1 d1 07 3e 7c 29 a8 bc
       0.058949407 -0.044863775 0.13263632 -0.020527594
0002a0 38 d2 f0 3c 1d fb b0 bc 86 bf b0 bc 89 d3 d8 bc
       0.029397115 -0.021604115 -0.0215757 -0.026468055
0002b0 35 0c e1 3c 95 7d a8 bc b4 f5 d6 bd ea ac 08 3e
       0.027471641 -0.020567695 -0.10496083 0.13347211
0002c0 fe f6 06 bc 37 9b 46 bd e0 0c 98 bc 82 30 98 bc
       -0.008237598 -0.04848787 -0.018560827 -0.018577818
0002d0 36 b9 53 bc 4a db a9 3d 1f 8b d7 bd 4c cb 3d 3d
       -0.012922576 0.08293779 -0.10524582 0.046336457
0002e0 0c e0 a6 3d d0 54 aa 3c d4 29 b4 bb fa 03 17 3c
       0.08148202 0.020792395 -0.0054981504 0.009217257
0002f0 53 2d ab 3d 8e d9 8f bc 09 12 91 3c 58 42 8a 3c
       0.08358254 -0.017559793 0.017708795 0.016877338
000300 5b d8 2c bd 25 d8 97 bc 6e 52 16 bd 1d 4d 48 bd
       -0.04219852 -0.018535683 -0.036699705 -0.048901666
000310 5a c4 a1 3c 84 fd 64 3d af 20 09 3d 2e 7b 3a bc
       0.019746948 0.055905834 0.033478435 -0.011381907
000320 02 49 07 3b 1a ff 03 3a df 1e 71 3c b3 5d ff bc
       0.0020642881 0.00050352665 0.014716833 -0.031172609
000330 73 78 4f 3b f8 bb 8a bb 85 21 87 3d 0a 02 e0 bd
       0.0031657487 -0.0042338334 0.0659819 -0.10937889
000340 ed eb 9b bd 6a 2f 3f 3d 8f 81 22 3c f4 10 70 3c
       -0.07613359 0.046676077 0.0099185845 0.014652479
000350 d7 06 af 3b 79 84 00 3d 60 06 e4 3d a7 ac 88 3c
       0.0053413915 0.031376336 0.111340284 0.01668389
000360 5f 86 2f bc 8d 4a 18 bd ae f3 25 bd a2 7f da 3d
       -0.010713189 -0.037180472 -0.040515594 0.10668875
000370 ff d8 fd bd fd 03 b6 bb 4f 26 0c bb 81 d8 00 3d
       -0.12394904 -0.0055546747 -0.0021385138 0.031456474
000380 39 39 78 be 1c 17 44 bd 2c 03 cc bc cb 01 cf bc
       -0.24240579 -0.0478736 -0.024903856 -0.02526941
000390 ee aa 91 bd 0b 10 98 bd a9 f6 1b be 57 d8 3a 3e
       -0.071126804 -0.07424935 -0.15230812 0.1824659
0003a0 e7 37 7d 3c 81 72 31 3c 21 a2 ac bc 92 d1 02 bd
       0.015455223 0.0108305225 -0.021073403 -0.031938143
0003b0 f0 73 bb bc 04 76 85 bd f9 48 51 3d d5 fd 1a 3e
       -0.022882432 -0.0651665 0.051094983 0.15135892
0003c0 a7 8d 81 3d 15 3e 1c 3b 56 c3 92 3b 14 9a 9a bc
       0.06325846 0.0023840715 0.0044788523 -0.018872298
0003d0 f8 fd 14 3d 1f e8 8c be 27 16 c5 3b 2a 0c fe bc
       0.036375016 -0.27520844 0.0060146037 -0.03101166
0003e0 1e 62 e5 bc c2 d3 07 3c e9 ab da b9 3c 7d d0 bd
       -0.028000887 0.008290233 -0.00041708283 -0.101801366
0003f0 33 64 68 3d f9 d5 35 3c 8d d4 2a bc 42 a0 b8 bc
       0.056736182 0.011098378 -0.010426653 -0.022537354

convs.1.att f4 [10, 4]
000000 b5 07 ab bc 8b a8 2e 3e 73 22 82 be 1a a6 42 bc
       -0.020877698 0.17056482 -0.25416908 -0.011880422
000010 e1 e6 af 3d 9f d7 0f 3e dc 50 71 be 08 49 c7 bc
       0.085889585 0.14047097 -0.23566002 -0.024326816
000020 24 c5 f2 3d d9 ab 74 3d d8 f3 5e be 61 37 32 bd
       0.11854008 0.0597342 -0.21772707 -0.043509845
000030 58 99 de 3d 1f 20 df bb c4 2f 40 be fa 23 c9 bd
       0.10869092 -0.006809249 -0.18768221 -0.09821315
000040 ee e4 da 3d c5 8b 63 bd 71 49 0f be 29 9a 9f bd
       0.10688196 -0.055553216 -0.1399286 -0.077930756
000050 62 dc b8 3c 31 b2 d0 bd 52 43 f0 bd e6 fe 90 bd
       0.022566024 -0.10190237 -0.1173159 -0.07079868
000060 7f 3c 18 3d fd a1 00 be 29 68 8f bd f8 52 3f 3d
       0.03716707 -0.12561794 -0.07002289 0.046709985
000070 b3 68 39 3d ad cf 1f be 4f 87 4e 3c 0a 00 a7 3d
       0.045265865 -0.15606566 0.012605502 0.08154304
000080 d9 a8 0a bd c5 b3 35 be 4c 0f e2 3c b9 81 d1 3d
       -0.033852432 -0.17744358 0.027595185 0.10229821
000090 7f 79 1a be 76 01 30 be 96 94 9a 3d ef cd 43 3d
       -0.1508541 -0.17188057 0.07547872 0.047803815

convs.1.root f4 [32, 32]
000000 04 80 8b bd f2 75 8d 3d 21 c1 41 3b 21 9c 76 3c
       -0.068115264 0.06907262 0.0029564577 0.0150518725
000010 6b 85 2b 3d 39 1b 42 bd 75 46 5b be ba ee a9 3d
       0.041875284 -0.047389243 -0.21413596 0.082974866
000020 7b fc 42 3b b1 76 a0 bb 54 40 cc 3c 2c 1a 66 3c
       0.002975254 -0.0048969616 0.024933018 0.014044326
000030 85 11 d2 bd 16 ac 2a bd 9b 63 6a 3b 07 24 7d 3d
       -0.10257248 -0.04166802 0.0035764936 0.061801936
000040 95 7e 29 3a f7 84 3c bd 59 79 c1 bd 22 d1 8a bc
       0.00064657006 -0.046025243 -0.09446973 -0.016945425
000050 e6 e8 bb bc de a7 47 3d e4 a7 27 3d 51 1c d8 3c
       -0.022938203 0.048744075 0.040931597 0.02638069
000060 45 d9 4b bd d0 cf ec bc 42 3b 3c bc 6a 2a bf 3d
       -0.04976775 -0.028907686 -0.011488738 0.09334262
000070 cf b9 86 bd 9a 36 e8 bd 8c ab 4d bc d8 ff 27 3d
       -0.06578409 -0.113385394 -0.012553107 0.041015476
000080 b4 f5 d8 bb a2 cd 2a 3c 36 81 b9 3d c4 00 e0 bc
       -0.006621087 0.010425003 0.09057848 -0.027344115
000090 77 54 6a 3d a9 d8 77 bb 8b c0 ca 3d db db 4f 3d
       0.05720946 -0.0037818349 0.09900006 0.05074678
0000a0 20 64 12 3d 9c 49 47 bd ca fc 39 3d 24 16 7e 3d
       0.035740018 -0.048654184 0.045407094 0.062032834
0000b0 e8 4d 01 bd 40 0f b7 bd 25 9a 0a bb 96 51 20 bd
       -0.031568438 -0.089384556 -0.0021149006 -0.039140306
0000c0 f5 7d 86 bd 0f 3a 34 bd 4b 7d 92 3d 9e f3 fd bb
       -0.06566993 -0.04400068 0.07152804 -0.0077499887
0000d0 26 6a 15 bd 76 1a b6 3d 81 c9 55 3c 48 7e b0 bd
       -0.036478184 0.08891766 0.013048531 -0.08617836
0000e0 0c 24 9c 3d 54 ce a5 b8 e0 1d 4d 3d c9 a3 fc bd
       0.07624063 -7.906245e-05 0.05007732 -0.12335927
0000f0 f9 64 ba bc 81 cf b3 bd bc dc 54 bc 5d 48 03 3d
       -0.022753226 -0.087798126 -0.01299208 0.032051433
000100 68 84 49 3c 7f 5f 0c bd 8f b1 6c 3d 6e e6 01 3d
       0.0122996345 -0.03427076 0.05778652 0.031713895
000110 75 a6 1b bd ac a7 bf bd 4d cb 03 3e 1e ae b4 3d
       -0.038000543 -0.09358153 0.12870522 0.08822273
000120 13 f9 2f 3d bc e2 41 bd 9a 19 11 bc b9 4c b5 ba
       0.042962145 -0.04733537 -0.008856202 -0.0013832069
000130 3a 8d 21 3d f4 23 2b bd a2 46 7c bd 86 43 df bc
       0.039441325 -0.041782334 -0.0615908 -0.027253877
000140 cc 00 f2 bc 5b b5 8f bd fb 3f f7 bc 04 e3 2e bc
       -0.029541396 -0.07017013 -0.030181875 -0.010674242
000150 71 a4 83 bd e0 0e c3 3b ca 5e 56 3b 95 6d 09 3d
       -0.06427849 0.005952701 0.0032710307 0.03355177
000160 bb 55 5e 3d 15 b4 da 3a 71 97 5c 3d ab 52 f5 bc
       0.054280978 0.0016685749 0.053855363 -0.029946646
000170 ea a3 83 3d 95 ad a5 bd e7 a6 63 bd f7 88 a4 3c
       0.064277485 -0.08089749 -0.055579092 0.020084841
000180 09 29 4b 3d 24 e8 c4 3d 8d 9e 97 bc 6d fd cd bd
       0.04959968 0.0961459 -0.01850822 -0.10058103
000190 83 2e 57 bd de fa d8 3c 03 c1 34 bd 1a de 17 bd
       -0.05253459 0.02648681 -0.044129383 -0.037077047
0001a0 3b ea 35 bd de 52 82 3d 9c 70 be 3d 4d c0 5a 3d
       -0.044412833 0.06363462 0.09298822 0.05340605
0001b0 97 2e 5c 3c ea 10 c8 bc a7 b7 db 3c 92 70 b3 3d
       0.013438842 -0.024422128 0.02682097 0.087617055
0001c0 ac bf a6 bb b3 01 2f bd 82 9a 6e 3d 19 52 a7 3d
       -0.005088767 -0.04272623 0.05825282 0.08169956
0001d0 75 0c 24 bd 78 8e e2 39 a9 c4 00 3e 81 c4 09 3c
       -0.040050942 0.00043212227 0.1257502 0.008408667
0001e0 9d f1 36 bd cc df 99 3c df 72 00 3e 99 7f e1 3d
       -0.044664014 0.018783472 0.1254382 0.110106654
0001f0 d2 ae d6 3c 82 b2 98 bc e3 40 93 bc 34 b0 79 3d
       0.026206408 -0.018639807 -0.017975276 0.060959056
000200 0d 85 81 3d 84 29 d0 3d 1b 55 10 3d 12 8d 81 bd
       0.063242055 0.101641685 0.035237413 -0.06325735
000210 91 e6 a3 3d be 82 63 3d c6 70 8d 3d d1 9d a0 bd
       0.080029614 0.055544607 0.069062755 -0.07842601
000220 ac d6 a3 3b 66 99 a7 bd 66 8d 91 bd 5b 17 0c 3d
       0.004999956 -0.08183555 -0.07107048 0.03420196
000230 c0 cb b6 3d 68 45 09 bd ec 87 dd bd 9a ff e6 3c
       0.08925581 -0.033513457 -0.10816941 0.028198052
000240 32 22 80 3c 81 2d 96 bd e7 d2 44 bd ea 4a 14 bc
       0.015641306 -0.07332898 -0.048052695 -0.009051064
000250 2f 17 e1 3d 6f 87 08 3e dc cc 6e 3a e1 d5 91 bd
       0.1099075 0.13332914 0.0009109506 -0.07120872
000260 47 9b 03 bd e5 47 81 3d 3a bd 9e 3d 3a 01 58 bd
       -0.032130506 0.06312541 0.07750936 -0.052735545
000270 36 b3 96 3c 37 5c d0 bc 1c 4a b3 3d b6 21 a4 bd
       0.018396001 -0.025434596 0.087543696 -0.08014242
000280 48 74 8b 3d b3 c7 08 3c 17 ef 33 3c 79 fc 95 3d
       0.06809288 0.008348393 0.010982296 0.07323546
000290 3e 4a 42 3d ba 7c 10 3d 93 f9 27 bd 1b ea ca 3d
       0.047434084 0.0352752 -0.041009497 0.09907933
0002a0 ce f4 ae 3d 51 4f 0b 3c 6a 3e dd 3d 92 db d7 bd
       0.085427865 0.008502797 0.1080292 -0.105399266
0002b0 b8 74 c6 bd a6 d1 83 bd 1d 58 bd 3c 96 5f 2d bd
       -0.09690231 -0.06436472 0.023113305 -0.042327486
0002c0 5d 43 8f bd 41 73 60 3d 94 71 93 bd 80 c9 b1 3d
       -0.069952704 0.054797415 -0.07199398 0.08681011
0002d0 81 cb 07 bc fc fa 96 3b 3f 46 81 3d 3a 0a 30 bd
       -0.008288265 0.0046075564 0.063122265 -0.042978503
0002e0 9c 4b 06 be 1c 08 84 bd fd a7 ef 3c ae 87 1c 3e
       -0.1311478 -0.06446859 0.029254908 0.15286133
0002f0 a9 3d a6 bd 8d 4e 1d bd 0d 9c ce bb 1d 7f e7 bc
       -0.081172295 -0.03840499 -0.006305224 -0.028258855
000300 1e 51 a6 bb 9b 79 29 bb 83 29 a1 3d fb 60 17 bd
       -0.005075588 -0.0025859836 0.07869246 -0.036957722
000310 a8 63 24 bd 93 d6 5f bc 0b f4 87 bd 2f ab 9d bd
       -0.040134102 -0.013661998 -0.066383444 -0.07698666
000320 6a 7a 03 3d b4 57 3f bd d5 83 2e bd 2c 52 73 3d
       0.032099165 -0.0467145 -0.042606194 0.059404537
000330 be 14 8a bd 4d 01 8a 3c 16 1b 38 bd e0 35 e3 bc
       -0.067422375 0.016846323 -0.044947706 -0.02773565
000340 d6 e9 fd bc 0b dd a8 bc 12 a2 a2 bd d6 ae b5 b9
       -0.03099529 -0.020613214 -0.07941069 -0.00034653273
000350 89 1f ea bc b3 6e 84 3d 82 6a a8 3d 28 ea 8c bd
       -0.02857949 0.06466427 0.0822344 -0.06880599
000360 00 28 8c 3c 6d 0f 52 3d d7 17 f2 bc b5 55 af bc
       0.017108917 0.051284242 -0.029552383 -0.021403173
000370 fa ca a6 bd 6c aa 56 3d a5 85 b0 bc 92 a8 47 3d
       -0.081441835 0.05240862 -0.021548102 0.048744746
000380 e5 fc 9b ba 50 1e 75 3d fe 6a 98 bd eb eb 2e bd
       -0.001190093 0.05984336 -0.07442282 -0.042705458
000390 3e 31 4b bd d8 77 48 bd 0d e6 2a be 6c f3 40 bd
       -0.049607508 -0.048942417 -0.1668932 -0.047107145
0003a0 85 b6 af 3c 1f c9 4f 3d 0c 85 20 3d e8 2b 45 bd
       0.021449337 0.050728913 0.039189383 -0.048137575
0003b0 ce 43 f4 bc ba 2a bb 3d 2c 15 4b bd 45 55 af bd
       -0.029817488 0.09139009 -0.049580738 -0.08561186
0003c0 39 85 3f 3c 80 39 22 3d 5d 49 57 3d 3b ac a7 3d
       0.011689478 0.039605618 0.0525602 0.08187147
0003d0 e3 86 9d 3d e1 b3 e7 bc b9 3f 2c bc 69 d6 62 bc
       0.07691743 -0.028284015 -0.01051324 -0.013845065
0003e0 73 c0 a9 bd ac b7 b3 bb 94 db bc ba 6a c2 69 3d
       -0.0828866 -0.005484542 -0.0014408701 0.057070173
0003f0 60 6e a8 3b 1c 97 89 3d a4 f4 f2 bc ad f1 49 bd
       0.005140111 0.06718275 -0.02965767 -0.049302746

convs.1.bias f4 [32]
000000 a4 d6 68 bd a3 18 85 bd 3a 5a dd bc d8 dc 31 bd
       -0.056845322 -0.0649884 -0.027020562 -0.043423504
000010 25 03 10 bd d0 3a fd bd b3 b8 9b bd b0 a7 2a 3d
       -0.03515925 -0.12364733 -0.07603588 0.041663826
000020 58 04 a7 3c b2 6d 0b bd 41 7e 0d 3d fd 09 98 bd
       0.020387813 -0.03404016 0.034544233 -0.0742378
000030 02 59 a4 bd c2 e1 74 3d ab 87 d7 3d ae 11 ea 3d
       -0.080247894 0.059785612 0.105239235 0.114291534
000040 1b 8b 14 bd 88 a4 a5 3d ae 05 91 3d 74 ed 17 3d
       -0.036265474 0.080880225 0.070811614 0.037091687
000050 ad a8 37 bd b9 58 59 bd 57 7e c5 bb a3 8a a6 bd
       -0.044838596 -0.05306313 -0.006027024 -0.081319116
000060 c4 e6 80 bd 4a da a9 3d 7b 8a 8b 3c e1 10 e2 bd
       -0.06294015 0.082935885 0.017033806 -0.11038376
000070 2c 9d a1 bd c5 17 5f 3c bc d5 09 bd ff 1b 63 3d
       -0.07891306 0.013616507 -0.0336511 0.05544662

convs.2.basis f4 [4, 32, 32]
000000 f1 56 a9 39 d7 8c e4 bc 9a dc d9 3c 47 e3 20 3d
       0.00032298968 -0.027899189 0.026594449 0.03927925
000010 19 00 b4 bd 31 b2 72 bc 2f 12 86 3d 96 83 44 3c
       -0.08789081 -0.014812992 0.06546437 0.011994263
000020 93 4b 14 bd e8 ec d7 bc e4 ad 8f bd d5 31 b0 bb
       -0.036204886 -0.026358083 -0.07015589 -0.005377034
000030 e0 3d 0c 3d 38 23 5a bd f6 ee 60 3c 7c fa ac 3a
       0.034238696 -0.053256243 0.013728848 0.0013197209
000040 a0 c7 47 bc 65 53 96 3d 79 88 99 bd 3a db 97 3c
       -0.01219359 0.07340125 -0.07496733 0.018537153
000050 c9 3c 03 bc e3 f0 8a bb 9e 71 00 3d 3d e4 5a bd
       -0.008010098 -0.0042401417 0.031358354 -0.05344032
000060 68 36 76 bd 4d 69 05 bd 8e e9 ec 3c a8 03 0d bc
       -0.06011048 -0.032571126 0.028919961 -0.008606829
000070 8e a2 e2 bc ee 12 0f 3d 9f 42 9a bc 1a 58 a5 bd
       -0.027665403 0.034930162 -0.018830596 -0.08073445
000080 39 31 08 3d a8 24 da 3d d2 b1 80 bc 91 0f 0c bd
       0.033250067 0.10651523 -0.015709791 -0.034194533
000090 7b 0c 10 bd 91 86 9c bc bd 17 ab bd 10 58 0f 3d
       -0.035168152 -0.019107135 -0.08354137 0.034996092
0000a0 85 be 26 3d fe 82 15 3d 56 70 4f 3d e7 c1 52 bd
       0.040709037 0.036501877 0.05064424 -0.05145445
0000b0 96 1c 0a bd 48 e5 d8 ba b0 9c b4 3d ad 56 5d 3d
       -0.033718668 -0.0016547823 0.08818948 0.05403774
0000c0 47 80 82 bc 51 53 c8 3c 59 67 cd bc dd 12 21 3d
       -0.015930308 0.02445379 -0.025073694 0.03932463
0000d0 00 09 4a 3c aa eb 45 3d 05 f2 89 3d df dd 49 bd
       0.012331247 0.04832045 0.06735615 -0.04928386
0000e0 73 68 25 3c ff b9 5b bd 8e 40 b2 bc d5 c5 5f 3d
       0.010095703 -0.053644177 -0.021759298 0.054632027
0000f0 3b 09 85 3d c0 f0 84 bd 99 74 c5 bc de 81 90 3d
       0.06495901 -0.06491232 -0.02410345 0.0705602
000100 e8 22 c0 3c e4 cd 0d 3c 54 9f b2 bd cb e8 ee 3c
       0.023454145 0.008655045 -0.08721796 0.029163739
000110 bf 5b 1c bd e5 5c a1 bd 16 77 f3 bc 6b 0b 2b bc
       -0.038173433 -0.07879046 -0.02971987 -0.010439734
000120 59 6f 58 bd 0c 04 da 3d 45 64 2a 3d d9 22 2b 3d
       -0.052840564 0.10645303 0.04159953 0.04178128
000130 14 ef 95 bc 45 f4 80 3d 62 04 d8 3d 81 d2 71 bd
       -0.018302478 0.06296591 0.10547711 -0.059038643
000140 32 78 2e bc 0e a8 8c 3d 76 ad 59 3d 64 c8 01 bd
       -0.010648774 0.068679914 0.05314394 -0.031685248
000150 0f 79 c5 3a 80 1e 9f 3d e1 33 97 3d f9 43 69 bd
       0.0015065985 0.07769489 0.07382942 -0.05694959
000160 6c 72 a1 3d c7 65 11 bd 70 3b fa bc ab 47 ad 3c
       0.07883152 -0.035497453 -0.03054592 0.021152338
000170 83 1e fe bc 1f bf a4 3c 0d ac 9c 3c 32 8b ba 3d
       -0.031020408 0.020110665 0.019125009 0.09108581
000180 54 6a 63 bd d3 6c b3 bd 60 8c 48 3d f8 c8 e5 3c
       -0.055521324 -0.08760991 0.048961997 0.02804993
000190 de c1 b3 3c 47 20 b6 3c de 26 2b 3d 50 9c 05 3e
       0.021943029 0.022232188 0.041785114 0.1304791
0001a0 81 c8 b4 bd a6 41 0a be 4f da 31 3b 48 78 90 3d
       -0.088273056 -0.13501605 0.0027138179 0.07054192
0001b0 64 02 2c 3d cb 3b 2a bd 7a 46 16 3d b5 04 73 bc
       0.041994467 -0.04156093 0.036688305 -0.014832665
0001c0 68 8c 2b ba 19 fe f4 bc bf 4a 9e 3d aa 4c a8 bc
       -0.00065440545 -0.02990632 0.077291004 -0.020544369
0001d0 38 31 24 bc f7 5e a9 bd 42 50 55 bd 28 f9 9c 3d
       -0.0100215 -0.08270066 -0.052078493 0.0766471
0001e0 08 7d 40 bd 02 e9 74 bc 07 60 d9 bc 02 45 ef bc
       -0.04699424 -0.0149481315 -0.026535047 -0.02920771
0001f0 b4 88 91 bb 71 fd 3b 3c 93 1e a2 bd e7 a6 1d 3d
       -0.004441345 0.011473999 -0.07915988 0.03848925
000200 9d 5c 5f 3d ec dd 85 3c be da 9f bd 96 61 59 bd
       0.054531682 0.016341172 -0.07805394 -0.05307158
000210 dd e7 32 3c f0 b6 7c bd 50 44 c0 bd b2 d9 b3 3d
       0.010919538 -0.0616979 -0.093880296 0.087817565
000220 f4 8c a4 bd 5e ac 76 bd be 75 57 bd f8 fa 1b bd
       -0.08034697 -0.060222976 -0.052602522 -0.03808114
000230 c3 22 8d 3c 0a cb 4e bc d2 bf ad 3d e6 c1 10 3c
       0.01722849 -0.0126216505 0.084838524 0.0088352915
000240 a0 4a 1f 3d 5f e4 9e 3c 54 c6 24 bd 6c 66 5b 3d
       0.038889527 0.019396005 -0.040228203 0.053564474
000250 9e 9d 5f bc 40 71 bd 3d 1e a9 ae bc e5 b8 8d 3c
       -0.013648419 0.09250116 -0.021320876 0.017300079
000260 4f 5a 1b bd 5f 11 28 3c f5 36 6b 3c 75 62 8b bd
       -0.03792792 0.010258048 0.0143563645 -0.068058886
000270 7d 22 0d 3d 1a cb 4c bc 8f 91 36 bd 8e bc 92 bb
       0.03445672 -0.012499595 -0.04457241 -0.004478044
000280 d3 9a fe 3a 43 33 c9 3c 6f 7a 96 3b 0c 21 be 3c
       0.0019424803 0.024560576 0.004592232 0.023209117
000290 46 17 36 bd 61 a3 49 3d 97 73 50 3d d2 7a 2b bc
       -0.04445579 0.049228076 0.050891485 -0.010466294
0002a0 ca fa ce ba 54 93 36 3d bf c4 cd bb 3c f4 b1 bb
       -0.0015791294 0.044574097 -0.0062795575 -0.0054307263
0002b0 05 8b 13 bd 23 30 aa bd fc e9 8c 3d 87 9c 86 3d
       -0.03602125 -0.083099626 0.068805665 0.06572824
0002c0 17 a8 22 bd ae 2c e4 3d 4b 8c dc 3c ce 8f bb 3c
       -0.039711084 0.111413345 0.026922366 0.02289572
0002d0 b2 30 01 3d 9a 82 23 bc 84 40 e9 bb ba 21 27 ba
       0.03154058 -0.009979868 -0.0071182866 -0.000637557
0002e0 37 90 05 3d b5 00 a8 3b 87 53 3f 3c a1 d1 b9 3c
       0.032608237 0.0051270374 0.011677629 0.022682967
0002f0 d3 bf 0d bd b0 8f 4c 3d 30 f2 f9 3c 72 a6 37 3c
       -0.034606766 0.04994172 0.030510992 0.011209117
000300 77 9f 11 3c 26 20 b1 bb 0b 18 b8 bd 6c f0 99 3d
       0.008888117 -0.0054054437 -0.08988961 0.0751656
000310 bb 49 95 3d b0 9b ea bc 3a 2d d6 bc 58 d0 85 bd
       0.072894536 -0.02863869 -0.026144613 -0.06533879
000320 97 86 4f bb 7b a9 50 bc 50 df 33 bd 6e c6 87 3d
       -0.0031665915 -0.01273572 -0.04391414 0.06629644
000330 f6 4f 73 3c 27 cb 88 bd f4 39 b0 39 b7 73 cd bb
       0.014850607 -0.06679373 0.00033612514 -0.006269898
000340 96 07 6d 3c 43 cc 49 3d fa a9 33 bb 6c 69 15 3c
       0.014467141 0.049267065 -0.0027414546 0.009119373
000350 f6 b1 7e 3c b0 ef 9b 3b ee 78 70 3d 31 fd 15 bd
       0.015545359 0.0047587976 0.058709078 -0.036618415
000360 75 58 8e 3d 00 06 59 3d db 1d a2 3c 6d 7e ec bc
       0.069504656 0.052984238 0.019789627 -0.028868878
000370 b8 59 ea bd 59 e1 2d bd 74 c7 57 3d 10 c7 8d bb
       -0.11442894 -0.042451236 0.052680448 -0.0043267086
000380 b2 84 bd 3d 9d 25 79 3c 3d 70 a3 bc e8 05 be 3c
       0.09253825 0.015206722 -0.01995098 0.023196176
000390 af ae e1 3c 5b 3c 36 bb da b5 4b 3c c2 13 1f 3c
       0.027549116 -0.002780697 0.0124334935 0.0097093005
0003a0 52 e3 a3 bc 9c 9f af 3c b8 ec 73 3c bb 51 a1 3d
       -0.020005856 0.021438412 0.014887981 0.07876917
0003b0 38 d2 7d 3c 32 14 81 3d e2 9b 9e 3d 0a 2a 6e bd
       0.015492015 0.0630268 0.07744576 -0.05814556
0003c0 3e 7c a4 bd ef bc 59 3d bf e6 33 bc d6 0d 0d bd
       -0.0803151 0.053158697 -0.010980307 -0.034437023
0003d0 6d e8 1f bd ac d9 0a 3d 72 1c df 3b e7 87 11 bd
       -0.039040018 0.033898994 0.006808811 -0.035529997
0003e0 f9 78 aa 3d 49 e6 51 bc 88 52 5e 3b 64 a4 a8 3c
       0.08323855 -0.012811252 0.0033923704 0.0205862
0003f0 1e d7 9a 3d 26 7b 16 3b ee 4d 65 bd d5 74 d8 3c
       0.075605616 0.0022961586 -0.055982523 0.026422897

convs.2.att f4 [10, 4]
000000 06 10 bb 3c 2b 8b b3 3c 87 b8 35 3c e8 51 ec 3a
       0.022834789 0.021916946 0.011091358 0.0018029781
000010 16 9a 97 3c 9c 8a da 3b 87 c9 a3 3b 16 c8 77 3c
       0.018506091 0.0066693556 0.004998389 0.015123388
000020 8a 56 cb 3b 42 2a 40 bc 28 1b c3 bb cb 57 cd 3b
       0.0062053846 -0.011728825 -0.005954165 0.0062665693
000030 3e 5d b8 bc 48 49 0d 3a e6 6f b6 bc 9a e1 82 bc
       -0.022505399 0.0005389643 -0.022270154 -0.015976716
000040 01 0b fa bb 09 ae a8 bb 0a ca bb bb e8 65 55 bc
       -0.0076307063 -0.0051476997 -0.005730872 -0.013024785
000050 60 dc 66 bb e3 21 cf bb 91 da 6a 3a 4f 8d 8b bc
       -0.0035226569 -0.0063211783 0.00089589605 -0.017035155
000060 ac b5 c7 ba 51 04 8b 3b 6e 83 67 bc 8d 99 4b bc
       -0.0015236638 0.004242458 -0.014130456 -0.012426746
000070 a7 d4 8a 3c 10 af 84 ba 6c 7f 97 3b ff 14 a3 3c
       0.016947104 -0.0010122973 0.004623344 0.019907473
000080 6e 02 a1 3b fe dd 8c 3a 83 10 61 3c d2 11 55 3b
       0.0049136197 0.0010747311 0.013736847 0.0032511842
000090 4c 1a f1 bb f5 2f e9 3b fd 12 70 bb e3 cf 55 bc
       -0.007357871 0.0071163126 -0.0036632412 -0.013050052

convs.2.root f4 [32, 32]
000000 a6 29 12 bd 17 06 9b bd a6 b4 b4 3d 13 3e 0e bd
       -0.03568425 -0.07569521 0.088235185 -0.034727167
000010 3f 04 22 3b 6b 19 e2 bd a0 87 7d bd 75 cf 50 bd
       0.002472177 -0.11040004 -0.06189692 -0.050979096
000020 1d 7c d0 3c 16 1f 1d bd 99 68 1a 3d d6 01 2e 3d
       0.025449807 -0.038359724 0.03769741 0.04248222
000030 a1 d0 1a bd 54 21 72 3d f1 ed 82 bd c6 d6 0b bd
       -0.03779662 0.059113815 -0.0639304 -0.03414037
000040 b4 24 62 bc 3b 0f b5 bc dd 6c 1b 3d 0a 55 81 3c
       -0.013802696 -0.022101989 0.037945617 0.01578762
000050 76 7c 86 bb 38 c9 12 bd 6e a9 47 bd 12 2b 03 3d
       -0.0041041924 -0.03583643 -0.048745565 0.032023497
000060 52 fa cb bd 77 58 28 3c 8b 44 fd 3c d9 71 97 3c
       -0.09959854 0.010274998 0.030916473 0.018486904
000070 39 25 0d 3d b7 07 cb 3c 75 89 96 bd de 77 1e bd
       0.034459326 0.024783952 -0.073504366 -0.038688533
000080 e0 93 89 3c 37 cb de bc f3 88 91 bd a7 e9 ef 3c
       0.016794145 -0.02719651 -0.07106199 0.029286219
000090 68 79 ad bc f8 37 9d 3d 3f 26 af bd 3f 7e bf bd
       -0.021176055 0.07676691 -0.08552217 -0.093502514
0000a0 7e 9c d5 3c 98 ef 90 3a 18 1d 5e bd 37 2b 93 3c
       0.026075598 0.0011057733 -0.054226965 0.017964942
0000b0 ae c8 8d 3c bb 42 5a 3d 14 50 17 3c b7 67 fc 3c
       0.017307606 0.053286295 0.009235401 0.030811174
0000c0 91 24 c7 3c 30 df 36 3c 68 4b 8b 3c f8 9d 9f bd
       0.024309428 0.0111616105 0.01700373 -0.07793802
0000d0 7e e5 37 bd 39 07 14 bd 05 46 90 3c d7 be 34 3b
       -0.044896595 -0.0361397 0.017611513 0.002757957
0000e0 77 7e 8c bd 74 6d 88 bd df e1 81 3d 27 98 00 bd
       -0.06860059 -0.066615015 0.063419096 -0.031395104
0000f0 af 11 27 bc 9a 9e f2 bb d2 87 82 bd 1d bd b5 bc
       -0.010197087 -0.0074041607 -0.06373562 -0.022184903
000100 ae 83 91 bd 4c 28 01 be 8b c9 ae 3d 39 32 98 bd
       -0.07105194 -0.12613028 0.08534535 -0.07431454
000110 76 ce 17 bd 55 17 d6 bd 2b 08 e0 bc 04 50 09 3d
       -0.03706213 -0.10453669 -0.027347645 0.033523574
000120 36 63 13 3d b8 31 b2 bc f1 5d 2a 3d 4f 1e 74 bc
       0.035983287 -0.021752223 0.041593496 -0.014899804
000130 3f ad 5b bd 0c 6a bc bd 4f bd aa 3c 8f 99 08 3b
       -0.053632017 -0.09199914 0.020842222 0.0020843481
000140 19 9c 7c bd 02 86 1f 3d dd 7b 5f 3c 28 f5 55 bd
       -0.061672304 0.03894616 0.013640371 -0.052235752
000150 69 17 02 be a1 da 2c bd 78 e5 c7 bc fa 95 10 3d
       -0.12704243 -0.04220069 -0.024401411 0.03529928
000160 42 86 4b bd 21 c1 86 3c fe b1 5e 3c 9a 73 26 bc
       -0.049688585 0.016449513 0.013592241 -0.0101593975
000170 8d 44 21 bc 4a 69 0a bc a8 ee ba bd 9c d6 c2 bd
       -0.009843004 -0.008447954 -0.09127551 -0.0951359
000180 7c 72 04 3d f2 21 2b bd 00 4c 72 bc da 74 40 bd
       0.032335743 -0.04178042 -0.014788628 -0.04698644
000190 a3 6c 48 3c 5b e4 df bd f5 e9 8a 3c a0 45 53 bd
       0.012232932 -0.10932227 0.016957263 -0.05158007
0001a0 ba eb 57 bd 91 c2 10 bd 45 9c 7c 3d fb 12 46 3d
       -0.05271504 -0.035341803 0.061672468 0.048357945
0001b0 d7 c3 9d bd fa 2f 4f bd 0d a9 a3 3a 13 5e 18 3c
       -0.07703369 -0.050582863 0.0012486294 0.009299773
0001c0 ab 0a b6 bd 6b 67 a0 3c 93 95 d7 3c 10 3a 86 bd
       -0.088887535 0.019580564 0.02631644 -0.06554043
0001d0 13 1d 71 3b ee fc bf bd a5 38 59 bd 96 12 4d bd
       0.0036791011 -0.093744144 -0.053032536 -0.050066553
0001e0 0e 23 23 3c 97 dd b2 3c 71 5f fb 3c f8 13 d9 bb
       0.009957088 0.021834178 0.030685158 -0.006624695
0001f0 91 1d a0 bb 94 ef 2f 3d 75 d7 4e bd 63 bc 0c 3d
       -0.004886337 0.04295309 -0.050498445 0.034359347
000200 22 ca a5 bc 9a c7 a3 3d 9e 1a 4c 3d 60 4a 10 3d
       -0.020237986 0.07997055 0.04983007 0.03522718
000210 76 ee 07 bd e2 19 ae bc 62 e1 b3 3c be c6 87 3d
       -0.0331864 -0.021252576 0.021958057 0.06629704
000220 18 96 0b bd 12 f8 05 3c fc 0b 42 bc 62 c8 d4 3c
       -0.034078687 0.00817682 -0.011843678 0.025974456
000230 83 1a 9f 3d 74 a0 24 3d f5 9e 66 bd 74 25 ff 3c
       0.077687286 0.040192083 -0.056303937 0.031145789
000240 46 75 ef 3c 3d 63 6a 3d 26 e3 4f 3d 88 21 2d bd
       0.029230725 0.057223547 0.050753735 -0.042268306
000250 27 b8 5d 3d d0 94 2f bd 9f c1 b7 3d c1 dd 07 3d
       0.0541307 -0.042866528 0.08972477 0.033170465
000260 81 63 aa bc 0b a3 39 bd 7d c8 94 bd da a5 b1 3c
       -0.0207994 -0.045321506 -0.072648026 0.02168553
000270 0f 0d 8b bb 86 c9 0a 3d 3b 7a 83 3c 4b 25 14 bd
       -0.0042435 0.033883594 0.016049495 -0.036168378
000280 1c 11 62 bd 94 76 db bd cf 3d 58 bd 13 67 24 3d
       -0.055192098 -0.10715976 -0.05279332 0.04013736
000290 26 62 9b 3c c9 b0 78 3c c4 9f 92 bd 09 38 d2 bc
       0.0189677 0.015178868 -0.07159379 -0.025661485
0002a0 96 43 d5 3c 11 ed 2b 3d 76 fd 89 3d d1 79 db 3a
       0.026033204 0.04197413 0.06737797 0.0016744678
0002b0 08 42 8a 3b 91 49 32 bd 3d 8a 0d bd 1e f2 2b bd
       0.0042192973 -0.04352719 -0.034555662 -0.041978948
0002c0 6c 75 3d 3c f0 00 0d 3d 1f ff 5b 3b cc bb 36 bd
       0.01156364 0.034424722 0.0033568812 -0.04461269
0002d0 a7 ea c2 bc af ea 95 bd 2d 7d 5a 3c 4b 45 7f bd
       -0.023793532 -0.07320153 0.013335508 -0.062321942
0002e0 5e 81 05 bd 8d 1a 76 bc 37 c5 a4 3d cc 7b 1f bd
       -0.032594077 -0.015020979 0.08045428 -0.03893642
0002f0 2c 1a 1c 3c 5a 72 82 bc 2d 0c ea 3c dc c5 43 bc
       0.009527724 -0.015923668 0.028570259 -0.011949029
000300 ae 0e 33 3c 6d eb f9 3d bb 9e f4 bd b9 c3 10 3e
       0.010928793 0.12203107 -0.11944338 0.14137162
000310 4c 93 40 3d 93 a8 cf 3d 80 5d 4c bb 2d 1f 0e 3d
       0.047015473 0.10139575 -0.003118366 0.0346977
000320 c4 81 3f 3d f5 e3 36 3d a4 bc 15 be 5b d8 c4 bd
       0.046754614 0.04465099 -0.14622742 -0.09611579
000330 3e b8 75 3c 2e 3e 1e bc 97 e3 2b bd bf 94 40 bc
       0.01499754 -0.0096583795 -0.041965093 -0.011754214
000340 be da 78 3d 3e 4a 0a 3d fe 31 17 bd ea 82 8f 3d
       0.060755484 0.03376221 -0.03691291 0.07007392
000350 54 67 ea 3d f0 84 5b 3e a2 9c 8a 3c 5b ba 02 3d
       0.114454895 0.2143743 0.016920391 0.031916004
000360 ad 17 27 3e ac 1c 53 bd 6b 6e 87 bd 80 87 5c bd
       0.16317625 -0.051541016 -0.066128574 -0.05384016
000370 13 1a 65 bc ef cb 81 bb 6a 86 74 3d be 16 e6 3c
       -0.013983267 -0.0039610784 0.0596985 0.028087016
000380 8e 58 8e ba e1 bd 9d bc 26 3d 65 bb 43 dd df 3c
       -0.0010860132 -0.01925558 -0.0034979074 0.027327185
000390 74 fb e7 3c 38 37 23 bd bf 77 27 bc ca 4e 95 bc
       0.028318144 -0.039847583 -0.010221421 -0.018226046
0003a0 12 eb aa 3d 59 6c d8 bc 0b af 9e bc 07 67 a5 3b
       0.08345617 -0.026418852 -0.019370576 0.005047682
0003b0 ce 2f 7d ba c8 fc 03 3c 38 87 03 bd 10 69 62 bd
       -0.00096583075 0.008055873 -0.032111377 -0.055275977
0003c0 5d be 13 bd 80 40 b5 3c 68 bf ed 3c 8b cb 99 3c
       -0.036070216 0.022125483 0.029021934 0.018773815
0003d0 71 af 78 3a 99 ab 8b bd 80 dc 74 bd 71 53 17 3d
       0.0009486592 -0.06819839 -0.059780598 0.03694481
0003e0 a6 64 02 bd 0f 7a a9 bb 94 d8 98 bc 0a a8 d3 bc
       -0.031834267 -0.005172021 -0.01865796 -0.025836963
0003f0 98 d1 c3 3c 10 ce 40 3b ef f0 42 3c 22 02 6f 3c
       0.023903653 0.0029419698 0.011898263 0.014587911

convs.2.bias f4 [32]
000000 c9 34 fa bb eb 93 35 bd c4 3e 3e 3d 12 97 9f bd
       -0.007635687 -0.04433052 0.046446577 -0.07792486
000010 79 13 d5 bc 2c 00 ae bd db 3d cc 3a 93 a1 4b bd
       -0.026010262 -0.084961265 0.0015582399 -0.049714636
000020 0f 9b 0a bd c8 9e a9 bc d2 de a8 3d dd 86 98 3d
       -0.03383928 -0.020705596 0.082456246 0.07447598
000030 3e fd eb bc eb 9e 9f 3c 09 ed 37 3c 26 3a 2f 3d
       -0.028807279 0.019484958 0.011225947 0.042780064
000040 38 a6 68 bd 24 e7 1d bd 83 1a eb 3c 76 cf 62 bd
       -0.056799144 -0.03855051 0.028699165 -0.05537363
000050 33 7e 6f bd 9c 31 cd bd ee de dd bc d1 a6 1f bb
       -0.058469962 -0.10019228 -0.02708384 -0.0024360905
000060 36 08 87 bd b6 e2 5c 3d a6 0c a1 3c f9 ad 03 3d
       -0.06593363 0.053927146 0.019659352 0.032148335
000070 81 2f 8d 3c e7 8e 8a 3b 00 0b 49 bd 3e 5c d8 bb
       0.017234566 0.004228461 -0.049082756 -0.006602793
