results/flixster_testmode/model_checkpoint39.pth (torch_old, 199981 bytes, 19 tensors)

convs.0.basis f4 [4, 4, 32]
0	0x3c14af83	0.009075048
1	0x3c951c3c	0.01820194
2	0x3c5c592a	0.013448993
3	0x3cadc188	0.021210447
4	0xbd9dc9f0	-0.07704532
5	0x3e3bfaf6	0.18357453
6	0xbde553db	-0.11197635
7	0xbdd91a3c	-0.10600707
8	0x3db2c248	0.087284625
9	0xbe466a0e	-0.19376394
10	0x3dbaf4b7	0.09128707
11	0xbdbffd72	-0.09374513
12	0xbe50bf45	-0.20385464
13	0x3d850e22	0.06496836
14	0x3e1a94c2	0.15095809
15	0xbddf541f	-0.10904717
16	0xbd834a82	-0.064106956
17	0xbdad8760	-0.08473086
18	0xbe4d4248	-0.20044816
19	0xbc6e2d7a	-0.01453721
20	0x3d3b8e34	0.045789912
21	0x3e49f949	0.19724001
22	0x3d679b88	0.05654481
23	0xbd933d93	-0.07189479
24	0x3d944906	0.072404906
25	0xbdee475d	-0.11634705
26	0x3deef034	0.11666909
27	0x3c7286ee	0.014802678
28	0x3e1f7b71	0.15574433
29	0x3e8f263b	0.27958855
30	0xbe0c466c	-0.13698739
31	0x3d2ef4d8	0.04271397
32	0xbe4935bc	-0.19649404
33	0xbe05c3db	-0.13062994
34	0xbdd45b5d	-0.10368989
35	0x3d11b358	0.035571426
36	0x3cf07788	0.029353872
37	0x3e7b53b9	0.24543656
38	0x3c66dbb6	0.014090469
39	0xbdc91fe9	-0.098205395
40	0xbe78e59e	-0.24306342
41	0xbd9a0883	-0.07521155
42	0x3ddd7357	0.10813015
43	0xbe5c9c29	-0.21543945
44	0x3d144307	0.036196735
45	0xbad93640	-0.0016571954
46	0x3c8f6973	0.017506337
47	0xbde256bd	-0.110517
48	0xbc985e6d	-0.018599713
49	0xbe5c6baf	-0.21525453
50	0x3dd91424	0.10599545
51	0xbde47c5b	-0.111565314
52	0xbd7afea6	-0.061278008
53	0x3dfc703f	0.12326097
54	0xbde1051f	-0.10987305
55	0xbdfc2fac	-0.1231378
56	0xbc7f92e8	-0.01559899
57	0xbd8ac0f3	-0.067750834
58	0xbd0f2b22	-0.034953244
59	0x3d38e024	0.045135632
60	0x3d91efcb	0.07125815
61	0x3de00c79	0.10939879
62	0xbe7cfde6	-0.2470623
63	0xbc55ed87	-0.013057119
64	0xbd7e99ca	-0.062158383
65	0xbdc37beb	-0.0954512
66	0x3c576eb6	0.013148954
67	0x3cd9517b	0.02652811
68	0xbc0640b3	-0.008194136
69	0xbd8927cc	-0.06697044
70	0x3c5d6a2f	0.013514086
71	0xbeb04b86	-0.3443262
72	0xbee794b9	-0.45230654
73	0x3cba8e6f	0.022772996
74	0x3b2660b4	0.002538723
75	0x3d94e067	0.07269364
76	0x3e89d853	0.26922855
77	0x3d294dfd	0.04133414
78	0x3d733abc	0.059382185
79	0xbe3d9817	-0.18515049
80	0x3d0ce6be	0.03439974
81	0xbd775ad1	-0.060389344
82	0x3ca49f5f	0.020095525
83	0x3d8184ee	0.063241825
84	0x3d21aa4e	0.039469056
85	0x3de766e8	0.11298925
86	0xbf3f16fd	-0.7464445
87	0xbef29d98	-0.4738586
88	0xbed12efd	-0.40856162
89	0x3cfa7544	0.030573495
90	0xbdaf1ed9	-0.085508056
91	0x3d6ab7fa	0.05730436
92	0xbd842302	-0.0645199
93	0x3c95995d	0.018261606
94	0xbc979446	-0.01850332
95	0x3df7250e	0.120676145
96	0x3dea1df6	0.11431496
97	0xbd0f1778	-0.03493449
98	0xbbe773a9	-0.0070633483
99	0x3c67b20f	0.014141574
100	0xbdfa49fb	-0.12221142
101	0xbe8f9829	-0.28045776
102	0xbd5fafd5	-0.054611046
103	0x3d952c5b	0.07283851
104	0x3ebdad21	0.3704615
105	0x3f215d30	0.6303282
106	0x3f29fb32	0.6639892
107	0x3e1c0574	0.15236455
108	0x3da67970	0.08128631
109	0x3d2df67a	0.042471386
110	0x3cb1d7be	0.02170932
111	0xbd1e2e53	-0.038618397
112	0xbed8ad16	-0.42319554
113	0x3c8ac8e7	0.0169415
114	0xbe47510e	-0.19464514
115	0xbd0b519b	-0.034013372
116	0xbd97a43d	-0.07404373
117	0xbf15e627	-0.5855431
118	0xbdc46d22	-0.09591128
119	0xbbaca791	-0.005268999
120	0xbd0797aa	-0.033103622
121	0x3e91fd87	0.2851374
122	0xbe19e8c2	-0.15030196
123	0xbe57a704	-0.21059805
124	0xbccfbf4b	-0.02535977
125	0x3bf45555	0.0074564614
126	0x3e33dfaa	0.1756579
127	0x3d7f17f6	0.06227871
128	0x3c180504	0.00927854
129	0x3ce741ee	0.02822968
130	0x3cc69ee2	0.024245683
131	0x3ab2ee89	0.0013651411
132	0xbd43ff48	-0.047850877
133	0x3d78d026	0.06074538
134	0xbce9f59d	-0.0285595
135	0xbda988a3	-0.082780145
136	0xbccd9e0f	-0.025099782
137	0xbdecca5d	-0.11562035
138	0x3d6b071a	0.05737982
139	0x3cce7986	0.025204431
140	0xbdf16865	-0.1178749
141	0x3c8c0343	0.017091399
142	0x3e000870	0.12503219
143	0xbe3123e2	-0.17298844
144	0xbd74cd31	-0.059766
145	0xbcf79a0f	-0.030224828
146	0xbd9c09d3	-0.07619061
147	0xbd34b496	-0.044117533
148	0x3c849b1c	0.016187243
149	0x3e0122fe	0.12611005
150	0x3dcc8c29	0.09987671
151	0xbdd7e66d	-0.10541997
152	0x3d10deb9	0.035368655
153	0xbd2e15b5	-0.04250117
154	0x3dbdc6c8	0.0926643
155	0xbc8bdca3	-0.017072981
156	0x3d975890	0.07389939
157	0x3e293b83	0.16526608
158	0xbd29b55e	-0.04143273
159	0x3ca06663	0.019580072
160	0xbe073141	-0.13202383
161	0xbdece7de	-0.11567663
162	0xbe02bdcc	-0.12767714
163	0x3dfca7f7	0.12336724
164	0x3c0a2b99	0.008433246
165	0x3e454d4f	0.19267772
166	0xbcf6deda	-0.03013556
167	0xbca9ae95	-0.02071313
168	0xbe092fca	-0.13397136
169	0xbdd4b012	-0.10385145
170	0x3dcee1b7	0.101016454
171	0xbe515e1f	-0.2044606
172	0x3bba02ad	0.0056765885
173	0xbbe84740	-0.007088572
174	0x3db5b8ca	0.08873136
175	0xbd916a29	-0.071003266
176	0xbd0b301f	-0.03398144
177	0xbe0d9478	-0.13826168
178	0x3bdb9302	0.0067008743
179	0xbdcc1e75	-0.09966747
180	0xbd75bffb	-0.05999754
181	0x3dd59f70	0.10430801
182	0xbc95533a	-0.018228162
183	0xbd4a741e	-0.049427144
184	0x3cb2b221	0.021813454
185	0xbd10d1c9	-0.035356317
186	0xbc3aee5c	-0.011409368
187	0x3bdef56f	0.0068041603
188	0x3e174546	0.1477252
189	0x3e54c4f2	0.20778254
190	0xbe4c67d5	-0.19961484
191	0x3c9167f8	0.017749771
192	0xbc10ea8e	-0.008844985
193	0x3c7150d8	0.014728747
194	0xbdfef7f5	-0.12449638
195	0x3cc5128e	0.0240567
196	0x3d566c7a	0.052349545
197	0x3dc6348e	0.09677993
198	0x3c8aaf49	0.016929286
199	0xbe3d59e7	-0.18491326
200	0xbf0ccadc	-0.5499704
201	0x3d53a789	0.051673446
202	0xbdd46ccb	-0.10372313
203	0xbdfa2b43	-0.12215283
204	0x3e8b6401	0.27224734
205	0xbb48bbb2	-0.0030629453
206	0xbe0e8c84	-0.1392079
207	0xbe3c23af	-0.18372987
208	0x3e1892a6	0.14899692
209	0xbcd620c1	-0.026138665
210	0x3da3e3e9	0.08002455
211	0x3dda271b	0.1065199
212	0xbdd54266	-0.10413055
213	0xbc615051	-0.013752059
214	0xbf13970d	-0.5765236
215	0xbed51a9e	-0.4162187
216	0xbeb21cfc	-0.34787738
217	0x3d0601e9	0.032716665
218	0x3d331fa8	0.04373136
219	0xbd316d80	-0.043317318
220	0x3cf65c69	0.030073361
221	0xbd9dd4fe	-0.07706641
222	0xbd982fca	-0.0743099
223	0x3c112b21	0.00886038
224	0xbc743b20	-0.014906675
225	0x3e1876f9	0.14889134
226	0x3c28ed43	0.010310474
227	0x3b8821d7	0.0041544246
228	0x3e152218	0.14563787
229	0xbd9c7d8f	-0.07641136
230	0x3d433d15	0.047665674
231	0xbdc3d74b	-0.09562548
232	0x3e89d3d3	0.26919422
233	0x3f050c36	0.5197176
234	0x3ec60450	0.38675165
235	0xbf1fde84	-0.62448907
236	0xbdb63975	-0.08897678
237	0xbd25ef29	-0.040511284
238	0xbcecd79c	-0.028911404
239	0x3cbaa110	0.022781879
240	0xbe816793	-0.25274333
241	0xbda8d848	-0.082443774
242	0xbe4da948	-0.20084107
243	0xbaf09bdd	-0.0018356998
244	0x3d30f48e	0.043201976
245	0xbec682c2	-0.38771635
246	0x3e373c28	0.17894042
247	0xbc99221e	-0.018693026
248	0x3d87ec5a	0.06636877
249	0x3e180e36	0.14849171
250	0x3dcf067c	0.10108659
251	0x3c0b1075	0.00848781
252	0x3bd91fe8	0.006626118
253	0xbbca29ab	-0.006169518
254	0xbe0356cf	-0.12826084
255	0xbe10d688	-0.14144337

convs.0.att f4 [10, 4]
0	0xbda62e5c	-0.08114311
1	0xbe3788b3	-0.1792324
2	0x3e9ee12a	0.31031162
3	0x3e417048	0.18890488
4	0xbe5408f3	-0.20706539
5	0xbd062d89	-0.03275827
6	0x3ebca014	0.3684088
7	0x3e264299	0.16236342
8	0xbe821495	-0.25406328
9	0x3dec48ab	0.11537298
10	0x3ec73488	0.38907266
11	0x3e068c0c	0.13139361
12	0xbe54d628	-0.20784819
13	0x3e2a9bbf	0.16660975
14	0x3ec482ba	0.38380986
15	0x3ddfbc31	0.109245665
16	0xbdaf4951	-0.08558906
17	0x3dab19e9	0.08354551
18	0x3ea661da	0.3249653
19	0x3e3340f4	0.17505246
20	0xbcd4b5cb	-0.025965592
21	0x3e1e95e6	0.15486869
22	0x3e8c1948	0.27363038
23	0x3e36de8a	0.1785833
24	0xbaf5fa15	-0.0018766547
25	0x3e7640b7	0.24048124
26	0x3e4b23d2	0.19837883
27	0x3db6a818	0.0891878
28	0x3db3c9a0	0.08778691
29	0x3e56fc16	0.209946
30	0x3e1d6565	0.1537071
31	0x3d125d64	0.035733595
32	0x3e31a66a	0.17348638
33	0x3e38c28b	0.18042962
34	0x3d989854	0.07450929
35	0xbd56292d	-0.052285362
36	0x3eab989f	0.33514878
37	0x3e23876d	0.1596963
38	0x3c338034	0.010955859
39	0xbdbf8ded	-0.09353242

convs.0.root f4 [4, 32]
0	0xbdfcb318	-0.12338847
1	0x3c9f435b	0.019441297
2	0xbd8c9c7a	-0.06865783
3	0x3e4465f0	0.19179511
4	0x3cf4198e	0.029797342
5	0x3d116e9b	0.035505872
6	0xbde64863	-0.112442754
7	0xbe5598e6	-0.20859107
8	0x3e4ac322	0.19801
9	0x3ebf4f02	0.37364966
10	0x3ea8acf6	0.3294446
11	0xbdc4c8f6	-0.09608643
12	0x3db89538	0.09012836
13	0x3e3c07d5	0.18362363
14	0x3c25d6fb	0.010122056
15	0xbd9fc2b3	-0.07800808
16	0xbe544947	-0.20731078
17	0x3e4e3f5d	0.20141359
18	0x3ce5385c	0.027980976
19	0xbe6faa06	-0.23404703
20	0xbd2ba33a	-0.04190371
21	0xbdfc1ba8	-0.123099625
22	0xbd11c616	-0.0355893
23	0x3ddf9d61	0.109186895
24	0xbc963385	-0.018335113
25	0x3e4218d9	0.18954791
26	0x3c8b7254	0.01702229
27	0xbe4eea09	-0.20206465
28	0xbc9112b5	-0.017709116
29	0xbe4597c7	-0.1929618
30	0x3d9a5374	0.07535449
31	0xbdd37a0c	-0.10326013
32	0x3e29cbcb	0.16581647
33	0x3d329c86	0.043606304
34	0xbe1b3b0f	-0.15159248
35	0x3e391275	0.18073447
36	0xbda0ffe1	-0.07861305
37	0xbd6ea6e5	-0.05826463
38	0xbdbe78f3	-0.09300413
39	0xbcf36fba	-0.029716361
40	0x3c2d7507	0.0105869835
41	0xbdfb2ae4	-0.1226404
42	0xbcaace30	-0.020850271
43	0x3dde7579	0.1086225
44	0x3e569a25	0.20957239
45	0x3e1f506a	0.1555802
46	0xbced7ed8	-0.028991148
47	0x3eba838a	0.3642848
48	0xbd88d18b	-0.06680592
49	0x3d9dfa3d	0.07713745
50	0xbd0894cf	-0.03334504
51	0xba954680	-0.0011388808
52	0xbd8b88ff	-0.06813239
53	0xbdf53966	-0.119738385
54	0xbdbfd74b	-0.09367236
55	0xbe966f94	-0.29382002
56	0xbe1d7e7d	-0.15380283
57	0x3d92a072	0.07159509
58	0x3dbaeb7b	0.091269456
59	0xbce1588d	-0.027508045
60	0x3bdefc5b	0.0068049855
61	0x3c8421fe	0.01612949
62	0x3e334671	0.1750734
63	0x3e7dcf32	0.2478607
64	0xbd3276e9	-0.043570433
65	0x3e12d36d	0.14338465
66	0xbc834b73	-0.016027188
67	0xbcb4aee5	-0.022056052
68	0xbd8938d4	-0.06700292
69	0xbe52cec9	-0.20586695
70	0xbdba9f61	-0.0911243
71	0xbe27711b	-0.1635174
72	0xbdafbf3e	-0.085813984
73	0x3da327b3	0.079665564
74	0xbdf8df9d	-0.12152026
75	0xbd215ef3	-0.03939719
76	0x3d4d8697	0.050177183
77	0x3e366213	0.1781085
78	0xbce801b0	-0.028321117
79	0xbd4e7c1c	-0.05041133
80	0xbe0b90f0	-0.13629508
81	0xbdfb3b31	-0.12267149
82	0xbe18e73e	-0.14931962
83	0x3e4d5830	0.20053172
84	0xbc7324fb	-0.01484036
85	0x3d4d31ba	0.05009625
86	0xbe14871c	-0.14504665
87	0x3d2d613b	0.042329054
88	0x3d1b3613	0.037893366
89	0x3d9e2ace	0.07723008
90	0x3db46b5d	0.088095404
91	0xbd495af5	-0.04915901
92	0xbe1f4788	-0.15554631
93	0xbdd70401	-0.104988106
94	0xbc73f88c	-0.014890801
95	0xbd302d1b	-0.043011766
96	0xbe0216cc	-0.12704009
97	0xbc24cb00	-0.010058165
98	0xbd9f55f2	-0.07780065
99	0x3e56e6d6	0.20986494
100	0xbd311263	-0.043230426
101	0xbd8cb9f4	-0.06871405
102	0xbd7c856f	-0.06165069
103	0xbe216a69	-0.15763249
104	0xbe2221a2	-0.15833142
105	0x3da2ac30	0.079429984
106	0xbd28285d	-0.04105412
107	0xbdff3b39	-0.12462468
108	0x3e26c698	0.16286695
109	0x3e15fda6	0.1464754
110	0x3d8bbd3b	0.06823202
111	0x3ba678c2	0.0050803134
112	0x3ca4b6b6	0.020106655
113	0xbe312ca1	-0.17302181
114	0xbd686e9e	-0.056746118
115	0x3ded0e39	0.115749784
116	0xbd4688e4	-0.048470393
117	0x3e01917e	0.12653157
118	0xbe378d15	-0.17924912
119	0xbde32160	-0.1109035
120	0xbd6756af	-0.056479152
121	0x3de7873d	0.113050915
122	0x3cb45414	0.022012748
123	0xbd515294	-0.051104143
124	0xbe19189e	-0.14950797
125	0xbd28e95e	-0.04123818
126	0xbde00030	-0.10937536
127	0xbd604f70	-0.054763258

convs.0.bias f4 [32]
0	0x3df8d5e4	0.121501714
1	0xbc1f2c69	-0.009715178
2	0x3d9f6474	0.07782832
3	0xbe559a26	-0.20859584
4	0x3d8bfe02	0.068355575
5	0x3cf6a515	0.030108014
6	0x3dbcd3f0	0.09220111
7	0x3e1e0b19	0.15433921
8	0x3e34844e	0.17628595
9	0xbb7ecb02	-0.0038878326
10	0x3d0a4b0b	0.033762973
11	0x3e0ee359	0.13953914
12	0xbdb375d4	-0.08762708
13	0xbe31bbdb	-0.17356817
14	0xbdff7a54	-0.12474504
15	0x3d5cb446	0.05388286
16	0x3d5dbf89	0.05413774
17	0x3e48d4d6	0.1961244
18	0x3e0317f3	0.12802105
19	0xbdd5034e	-0.10401021
20	0x3d0920ba	0.033478476
21	0xbe6e1612	-0.23250607
22	0x3e2209eb	0.15824096
23	0x3cf01b43	0.029309874
24	0x3c9f9b30	0.019483179
25	0xbd9d4c9d	-0.076806284
26	0xbd90016a	-0.0703152
27	0x3d631618	0.055440992
28	0x3da2427c	0.07922837
29	0xbdaf8413	-0.08570113
30	0x3e11ed12	0.14250591
31	0x3c8f8b7c	0.017522566

convs.1.basis f4 [4, 32, 32]
0	0xbd3fd216	-0.046831213
1	0xbd5d7d49	-0.05407456
2	0xbd939c3b	-0.07207533
3	0xbd9052b6	-0.07047026
4	0xbd3b5ac2	-0.04574085
5	0xbd3d83dc	-0.04626833
6	0xbe535547	-0.20638
7	0x3cbb4947	0.02286209
8	0x3d4e79c7	0.050409105
9	0xbbb18620	-0.0054176003
10	0xbce3c5ad	-0.02780422
11	0x3d79cf18	0.060988516
12	0xbd98b8b2	-0.07457103
13	0xbd848539	-0.06470723
14	0xbc3ec8e3	-0.011644575
15	0x3ca99aeb	0.020703753
16	0x3d89fbf1	0.06737507
17	0x3c90a209	0.01765539
18	0x3d6c2a9b	0.05765782
19	0xbc02ea45	-0.0079904245
20	0x3c0df654	0.008664686
21	0xbdfdc9ed	-0.1239203
22	0xbd270fb1	-0.04078645
23	0xbcaa2333	-0.020768737
24	0xbca893a2	-0.02057821
25	0x3d5c765b	0.05382381
26	0xbce72504	-0.028215893
27	0x3cda84bc	0.02667462
28	0x3da4b2ad	0.08041892
29	0xbd0f5967	-0.03499737
30	0xbd040a38	-0.032236308
31	0xbcefa253	-0.029252207
32	0x3cb8b18e	0.022545602
33	0xbccc4921	-0.024937214
34	0xbca53162	-0.02016515
35	0x3b37fd7e	0.0028074677
36	0xbc499a04	-0.012304787
37	0xbb7420af	-0.0037250926
38	0xbdffa4a5	-0.12482575
39	0xbcdc64bb	-0.0269035
40	0x3be1bf61	0.006889269
41	0x3b6f8910	0.0036550201
42	0x3c8ba526	0.017046522
43	0x3d302ad5	0.043009598
44	0xbcb4f2c1	-0.02208841
45	0xbc926896	-0.017872136
46	0xbc0df48a	-0.00866426
47	0x3c4a5c3a	0.01235109
48	0x3c85e6ae	0.016345348
49	0x3b8adc63	0.004237698
50	0xbbacc8fb	-0.005272982
51	0x3be07530	0.0068499073
52	0x3c8d5d90	0.017256528
53	0xbd2c8180	-0.04211569
54	0xbb59c326	-0.003322789
55	0xbd225178	-0.039628476
56	0xbcb53412	-0.022119556
57	0x3d4f7457	0.05064806
58	0x3c8ae55c	0.01695507
59	0xbd8bd434	-0.06827584
60	0x3c75bad8	0.01499816
61	0x3c296af4	0.010340441
62	0xbc335b76	-0.010947099
63	0xbcacce7b	-0.021094551
64	0xbcd57a4a	-0.026059289
65	0xbc5b0c40	-0.01336962
66	0x3c193b8a	0.009352574
67	0xbd2ac07e	-0.04168748
68	0x3b87a36a	0.0041393535
69	0x3c534081	0.012893797
70	0x3d329cd4	0.043606594
71	0xbd266ce9	-0.04063121
72	0xba1bc63f	-0.0005942322
73	0xb9045b94	-0.00012622616
74	0x3c2c56d8	0.010518752
75	0xbc267365	-0.010159348
76	0x3b37ee26	0.0028065532
77	0x3b2c8da3	0.002632954
78	0x3cb3bc43	0.021940356
79	0xbd079cfa	-0.03310869
80	0xbc981fb2	-0.018569801
81	0x3c989d05	0.01862956
82	0xbb86611b	-0.0041009313
83	0x3cc89094	0.024483003
84	0xbcd26ab3	-0.025685644
85	0x3c240c37	0.010012678
86	0x3c3e75f9	0.011624807
87	0x3b80e2f1	0.0039333035
88	0xbb6de95b	-0.003630242
89	0x3c0ef7d2	0.008726077
90	0x3c89b9e0	0.016812265
91	0x3d173ef6	0.03692528
92	0xbce0caed	-0.027440513
93	0x3c0bbe35	0.008529236
94	0xbc063ecb	-0.008193682
95	0x3c34045d	0.010987368
96	0xbd2faf28	-0.04289165
97	0x3cb7047c	0.022341006
98	0xbb198da0	-0.0023430362
99	0xbbb72b8b	-0.0055899075
100	0x3d0ac04b	0.03387479
101	0xbc5340e9	-0.012893894
102	0x3da52635	0.08063928
103	0x3d10af53	0.035323452
104	0x3c0ba0bb	0.008522208
105	0x3cd5b7b2	0.02608857
106	0xbd14263a	-0.03616927
107	0xbd5ca354	-0.0538667
108	0x3d1a0613	0.03760345
109	0xbccf2a72	-0.025288794
110	0x3bb718f9	0.005587694
111	0x3cb15091	0.021644862
112	0xbb78eb77	-0.0037982145
113	0x3b3178db	0.0027080092
114	0x3cb1a455	0.021684805
115	0x3c65da0d	0.014029038
116	0xbc760d9b	-0.015017892
117	0x3cb3f8b7	0.021969182
118	0xbceaad90	-0.028647214
119	0x3d3be941	0.045876745
120	0x3d4343ff	0.047672268
121	0xbd56a67d	-0.05240487
122	0xbd5c90c4	-0.053848997
123	0x3d38d66c	0.045126364
124	0xbc5f85b2	-0.013642715
125	0xbc3aa048	-0.011390753
126	0x3c08cf28	0.008350171
127	0x3d28e84c	0.04123716
128	0xbcf8cd0a	-0.030371208
129	0xbc254965	-0.010088299
130	0x3c9ad534	0.018900491
131	0x3affee93	0.0019526057
132	0x3b939522	0.004503862
133	0x3bf042bf	0.0073321755
134	0x3c9d556f	0.019205777
135	0x3d9e4ec1	0.07729865
136	0xbbf2bb8b	-0.007407611
137	0x3b61a5d3	0.0034431114
138	0x3c25b7d0	0.010114625
139	0xbcc44ee7	-0.023963405
140	0x3d0497c1	0.032371286
141	0x3c0ccdc9	0.008593985
142	0xbc873f1f	-0.01650959
143	0xbc62e507	-0.01384855
144	0xbbef1daf	-0.0072972397
145	0x3c2ff43a	0.0107393805
146	0xbcaa2182	-0.02076793
147	0x3cf8931b	0.030343583
148	0x3cccb9c9	0.024990933
149	0xbda1067e	-0.078625664
150	0x3cc081ca	0.023499388
151	0xbc8d2dd4	-0.017233767
152	0x39b9d7fa	0.00035446865
153	0x3cce0001	0.025146486
154	0x3cc2ab01	0.023763182
155	0x3d8b5b00	0.06804466
156	0xbc4934e8	-0.01228068
157	0x3b85476a	0.004067351
158	0xbb065e43	-0.0020502962
159	0xbb737bc8	-0.0037152637
160	0xbcf4054e	-0.029787686
161	0x3d1c563d	0.03816818
162	0x3c5543ce	0.013016654
163	0xbd958547	-0.07300811
164	0xbca04ad4	-0.01956693
165	0x3d8c6783	0.06855681
166	0x3e816374	0.2527119
167	0x3ce58c15	0.028020898
168	0x3c14693d	0.009058294
169	0xbc6bb301	-0.01438594
170	0xbc706c4e	-0.014674259
171	0xbca36d5a	-0.019949604
172	0x3dec2616	0.11530702
173	0x3afe3b8c	0.0019396408
174	0xbd809127	-0.062776856
175	0x3d4c69f4	0.049905732
176	0x3c9c70fb	0.019096842
177	0xbb04f2eb	-0.0020286392
178	0x3b13a3a3	0.0022527955
179	0x3c1d2926	0.00959233
180	0x3c843fd5	0.016143719
181	0x3d67a9d1	0.056558434
182	0xbd1d3808	-0.038383514
183	0x3cab2c6f	0.020895211
184	0x3da991ed	0.08279786
185	0xbc958dc5	-0.018256078
186	0x3ad67fbf	0.0016364976
187	0x3d36c1b5	0.044618327
188	0xbc4b4b43	-0.0124080805
189	0x3be2f47d	0.006926118
190	0x3d40a928	0.04703632
191	0x3cd1ad93	0.025595462
192	0xbd119157	-0.035538998
193	0x3ce6e6b6	0.028186183
194	0x3c9235a9	0.017847853
195	0xbb2d0df2	-0.0026406017
196	0x39e43dd6	0.0004353362
197	0xbcaa458e	-0.02078512
198	0xbc93ec23	-0.018056935
199	0x3cec1f4f	0.028823523
200	0xbc84b290	-0.016198426
201	0x3b296c96	0.0025852076
202	0x3cf7f486	0.030267965
203	0xbccf07f1	-0.025272341
204	0x3be70335	0.007049943
205	0x3c343eac	0.01100127
206	0x3c1177c7	0.008878655
207	0x3ce39e30	0.02778539
208	0xbca669c3	-0.020314103
209	0xbc30a233	-0.010780859
210	0xbc81e33a	-0.01585542
211	0xbc61eff2	-0.013790118
212	0xbc0df90d	-0.008665335
213	0xbd36826a	-0.044557966
214	0xbad34dc6	-0.0016121201
215	0xba3f0d0e	-0.0007288017
216	0xba5cf165	-0.00084283046
217	0xbc8e2623	-0.01735217
218	0x3c884736	0.016635519
219	0xbc923bbb	-0.017850747
220	0xbc87e52f	-0.016588775
221	0x3c03da62	0.008047672
222	0x3c670e88	0.014102586
223	0x3ac5a411	0.0015078803
224	0xbe4fb93f	-0.2028551
225	0xbd4a3fe9	-0.049377356
226	0xbd84444a	-0.064583376
227	0xbd227a1f	-0.039667245
228	0xbd2b57cb	-0.041831773
229	0xbe306249	-0.17224993
230	0xbe4157f2	-0.18881205
231	0x3e245e73	0.16051655
232	0x3d63e066	0.055633925
233	0x3bc6004c	0.006042516
234	0xbd4c909b	-0.049942594
235	0x3d3fb0eb	0.04679958
236	0xbd993280	-0.07480335
237	0xbdc519bd	-0.0962405
238	0xbc7b376b	-0.015333037
239	0x3e548944	0.20755488
240	0x3d6f28be	0.058388464
241	0xbc1a5ece	-0.009422017
242	0x3d81dbb3	0.063407324
243	0x3c2d911d	0.01059368
244	0x3c256d61	0.010096879
245	0xbe979d7c	-0.2961234
246	0xbc6c7014	-0.014431018
247	0xbc949226	-0.018136095
248	0x3c31c294	0.010849614
249	0x3ccb2f89	0.02480294
250	0xbd8ef124	-0.06979588
251	0xbdc4386e	-0.095810756
252	0x3dc1d144	0.094637424
253	0xbd7b2ef3	-0.06132407
254	0xbc521c46	-0.012824124
255	0xbd268c1d	-0.040660966

convs.1.att f4 [10, 4]
0	0xbdc2924f	-0.095005624
1	0x3e2b02cf	0.1670029
2	0xbe936b8f	-0.28792998
3	0xbbfa752a	-0.0076433616
4	0x3d09b975	0.03362413
5	0x3e146baf	0.14494203
6	0xbe8b5a5b	-0.27217373
7	0xba361396	-0.00069456676
8	0x3df7f294	0.12106815
9	0x3dbff2f8	0.093725145
10	0xbe7de22b	-0.24793307
11	0xbd1cdfe0	-0.03829944
12	0x3de774f4	0.11301604
13	0x3cb5eb0c	0.022206806
14	0xbe59b8c0	-0.21261883
15	0xbdaf74d2	-0.085672036
16	0x3e0d8750	0.13821149
17	0xbd3c963d	-0.046041716
18	0xbe1b75cf	-0.15181659
19	0xbdb5ddc9	-0.08880193
20	0x3d846930	0.064653754
21	0xbddb0aaf	-0.10695397
22	0xbdffba25	-0.12486676
23	0xbdd2f1b8	-0.103000104
24	0x3d68a027	0.05679336
25	0xbe20ddea	-0.15709653
26	0xbd905883	-0.07048132
27	0x3d4c2844	0.049843088
28	0x3cbbfdc6	0.022948157
29	0xbe3d17be	-0.18466088
30	0x3be84a0c	0.007088905
31	0x3dcb3fcc	0.09924278
32	0xbd57a046	-0.052643083
33	0xbe2b61c6	-0.16736516
34	0x3d154f3f	0.036452528
35	0x3d984acd	0.07436142
36	0xbe3d60bb	-0.18493931
37	0xbe35c600	-0.17751312
38	0x3d90e3f5	0.07074729
39	0x3d1e6dce	0.038678937

convs.1.root f4 [32, 32]
0	0xbd3e0d34	-0.04639931
1	0x3d36e648	0.044653207
2	0x3cf35798	0.029704854
3	0xbcce5d76	-0.02519105
4	0x3b3ebff5	0.0029106115
5	0xbd20f3de	-0.03929507
6	0xbe34e59e	-0.17665717
7	0x3d954239	0.072880216
8	0xbc177685	-0.009244566
9	0xbcba802d	-0.022766197
10	0xbcb86c03	-0.022512442
11	0xbd09790d	-0.03356271
12	0xbd502a78	-0.05082175
13	0xbc8d1251	-0.017220648
14	0xbd6729c9	-0.056436334
15	0x3cbf26d9	0.023333954
16	0xbc0456fc	-0.008077379
17	0xbd363272	-0.044481702
18	0xbd6655fb	-0.05623434
19	0xbb43daf5	-0.0029885147
20	0xbd6b9901	-0.057518963
21	0x3bb673c5	0.005568
22	0xbc9c0574	-0.019045569
23	0x3d2884c1	0.04114223
24	0xbc2b1945	-0.010443036
25	0xbd9be12d	-0.07611308
26	0xbda424be	-0.080148205
27	0x3e1f0551	0.15529372
28	0xbd0a6184	-0.033784404
29	0xbdd99747	-0.10624557
30	0xbd824579	-0.06360907
31	0x3cf75788	0.030193105
32	0xbc8243f6	-0.015901547
33	0xbd6c9699	-0.05776081
34	0x3d9a8314	0.075445324
35	0x3d92e1b0	0.07171953
36	0x3adcb7a9	0.0016839403
37	0xbc7cc48b	-0.015427719
38	0x3dd076ac	0.10178885
39	0x3da0934c	0.07840595
40	0x3d17d346	0.03706672
41	0xbd7fded3	-0.06246836
42	0x3c5e165e	0.013555137
43	0x3cdb0fe0	0.026740968
44	0xbd20f7ca	-0.03929881
45	0xbd88f75d	-0.06687806
46	0x3bee93a5	0.007280784
47	0xbd960567	-0.07325249
48	0xbb9d4ed8	-0.0048006587
49	0xbc3bab86	-0.011454469
50	0x3dd5c8bc	0.10438678
51	0x3cbe2a8b	0.023213645
52	0x3bc5d711	0.006037601
53	0x3d92cbeb	0.071678005
54	0xbc81a3ed	-0.015825236
55	0xbd906ed0	-0.07052386
56	0x3d398023	0.045288216
57	0x3d702949	0.058633123
58	0xbd04446b	-0.03229181
59	0xbc864997	-0.016392512
60	0x3bd522da	0.006504399
61	0xbd2c82f7	-0.042117085
62	0xbd754ebb	-0.059889536
63	0xbd543830	-0.051811397
64	0x3c1318c8	0.008978076
65	0x3d5db243	0.05412508
66	0x3aa2b3a6	0.0012413159
67	0x3d98ee2f	0.07467305
68	0x3cd02428	0.025407866
69	0xbd70f15b	-0.058823925
70	0x3d3088f5	0.043099362
71	0x3d3dcd7a	0.046338536
72	0xbb71ad1e	-0.0036876868
73	0xbbe940b6	-0.00711831
74	0xbc81b23f	-0.015832065
75	0x3cb4f3b9	0.022088872
76	0xba613ab1	-0.00085918145
77	0xbadd7183	-0.0016894791
78	0xbcba0098	-0.022705361
79	0xbcc34a64	-0.023839183
80	0x3b5c63f3	0.003362891
81	0xbd9b53f1	-0.0758437
82	0xbc976fab	-0.018485865
83	0xbd06d2eb	-0.03291599
84	0x3c42cf78	0.011890285
85	0xbd1ace8d	-0.03779464
86	0x3c196e59	0.009364688
87	0xbc7223c0	-0.014779031
88	0x3ccea8ca	0.02522697
89	0x3d9bf5de	0.07615255
90	0x3dca5e84	0.09881309
91	0x3d4de8f5	0.050270993
92	0x3c643230	0.013927981
93	0xbdb2e650	-0.08735335
94	0x3c03f512	0.008054035
95	0x3d0ab16d	0.033860613
96	0x3d01ff9d	0.031737912
97	0x3dbc0bb1	0.091819175
98	0x3d180fc0	0.037124395
99	0xbdc58626	-0.096447274
100	0xbcae5548	-0.0212809
101	0x3d0d150e	0.034443907
102	0x3b1546e1	0.0022777843
103	0xbc8915bb	-0.016733995
104	0xbcc0fc7e	-0.023557898
105	0x3d7a7bb2	0.06115312
106	0x3da68434	0.081306845
107	0xbca44b02	-0.020055298
108	0x3d43c3be	0.047794096
109	0xbc44fd71	-0.012023316
110	0xbba419c1	-0.005007953
111	0x3d1409ed	0.03614228
112	0xbd010c67	-0.03150597
113	0x3a73d328	0.0009301179
114	0x3d9d2f77	0.07675069
115	0x3d7ca100	0.06167698
116	0xbc489da7	-0.0122446185
117	0xb918a275	-0.0001455637
118	0x3dc46441	0.095894344
119	0x3bd5ce1b	0.006524814
120	0xbcb673f5	-0.02227209
121	0x3c5239fe	0.012831209
122	0x3c4e07d2	0.012575107
123	0x3d9f5b1b	0.07781049
124	0x3d480cb8	0.048840255
125	0x3ce82566	0.028338145
126	0xbbcf276a	-0.006321837
127	0x3dda7397	0.10666578
128	0x3cc40fec	0.023933373
129	0x3dd8ace6	0.10579853
130	0x3d9db0fa	0.07699771
131	0x3c2ed51c	0.010670926
132	0x3da66e2b	0.081264816
133	0xbbaad7a7	-0.005213696
134	0x3daf33fc	0.08554837
135	0xbd4ac0e5	-0.049500365
136	0xbd53e173	-0.051728677
137	0xbd05ba72	-0.03264851
138	0xbdb6b6b8	-0.089215696
139	0xbd18a0c0	-0.03726268
140	0x3d953dd8	0.072871864
141	0x3b045acb	0.0020195718
142	0xbd9c55be	-0.076335415
143	0x3d3e7211	0.0464955
144	0xbcac35d1	-0.021021755
145	0xbc8fede3	-0.017569488
146	0xbd238d11	-0.039929453
147	0x3d5b7aca	0.053583898
148	0x3da783ba	0.08179422
149	0x3e21fcfe	0.15819165
150	0xbc54efcf	-0.012996628
151	0xbc8a4d41	-0.01688254
152	0xbccb13f8	-0.024789795
153	0x3d734e59	0.05940089
154	0x3cc3b529	0.023890095
155	0xbd9612ce	-0.073278055
156	0xbca73d06	-0.02041484
157	0xbc550e48	-0.013003893
158	0x3d34d279	0.044146035
159	0xbc727e89	-0.014800676
160	0x3d998d4c	0.07497653
161	0x3c8d117e	0.017220255
162	0x3d6e545d	0.058185924
163	0x3dc976ac	0.09837088
164	0x3d374a2d	0.044748474
165	0x3b9abd92	0.0047223056
166	0xbc1b5651	-0.009481029
167	0x3d8e0e46	0.06936316
168	0x3cf00e73	0.029303765
169	0x3d604867	0.05475655
170	0x3e00061c	0.1250233
171	0xbe0b9e08	-0.13634503
172	0xbd121b48	-0.03567055
173	0xbd2dae8e	-0.042402796
174	0x3d9b13b1	0.07572115
175	0x3c408a60	0.011751741
176	0xbdff510d	-0.12466631
177	0x3cd1dd56	0.025618237
178	0xbd9c0284	-0.07617667
179	0x3d09c265	0.033632655
180	0xbd0ce9c9	-0.034402642
181	0x3d835e2d	0.06414447
182	0x3dba3e24	0.09093884
183	0xbcb04c72	-0.021520827
184	0xbdeb1161	-0.11477924
185	0xbd3d00b0	-0.046143234
186	0x3c1fb0bf	0.009746729
187	0x3e32cbea	0.174606
188	0xbe14eaea	-0.14542738
189	0x3acc3a1f	0.0015581286
190	0xbb82817d	-0.0039827214
191	0xbd07b2b7	-0.03312942
192	0xbcf66f8c	-0.030082487
193	0xbd242312	-0.04007251
194	0x3dd43af7	0.10362809
195	0xbd3818cc	-0.044945523
196	0xbd296312	-0.041354246
197	0xbc9d78be	-0.019222613
198	0xbc979933	-0.018505668
199	0xbd541ef1	-0.05178732
200	0xbc2c2f79	-0.010509365
201	0xbc47b6d1	-0.012189583
202	0xbd9207bd	-0.07130382
203	0x3d2a1b54	0.04152997
204	0xbcf1eb0d	-0.029531026
205	0x3cd1fbf4	0.025632836
206	0xbdabed76	-0.083949015
207	0xbd2e52a4	-0.04255928
208	0xbd25704d	-0.0403903
209	0xbad59d21	-0.0016297438
210	0xbdd5127c	-0.10403916
211	0x3d20a53c	0.03922008
212	0x3ce73814	0.028224982
213	0x3d8be114	0.068300396
214	0x3de3a4e1	0.111154325
215	0x3d0c4cab	0.034252804
216	0x3bfdeff3	0.0077495514
217	0x3cad993a	0.021191228
218	0xbdb1cbdc	-0.08681461
219	0xbd705031	-0.058670226
220	0xbdd1a2d1	-0.10236133
221	0xbd03b5be	-0.032155745
222	0x3d228dd7	0.03968605
223	0x3dc13dda	0.094356254
224	0xbb1ec03c	-0.0024223467
225	0x3d3299a1	0.043603543
226	0xbd3ee206	-0.04660227
227	0xbd512319	-0.051058862
228	0xbd24f987	-0.04027703
229	0xbd3eb33e	-0.046557657
230	0xbe273a41	-0.16330816
231	0xbd3dff1a	-0.046385862
232	0x3b103bfc	0.002200841
233	0x3d43e726	0.047827862
234	0x3d1bf13e	0.038071863
235	0xbd56104b	-0.052261632
236	0xbc85053f	-0.016237853
237	0x3d86bfe6	0.065795705
238	0xbd948f3f	-0.072538845
239	0xbd2fc4ba	-0.042912222
240	0xbbb52058	-0.0055275373
241	0x3a20269f	0.00061092706
242	0x3d22b83e	0.03972649
243	0x3d558531	0.052128974
244	0x3d479fbf	0.04873633
245	0xbd2bb920	-0.041924596
246	0xbb819875	-0.003954942
247	0xbc5e1606	-0.0135550555
248	0xbd6e5203	-0.05818368
249	0xbbfdf888	-0.0077505745
250	0xb8c4ad96	-9.378341e-05
251	0x3d32d93a	0.043664195
252	0xbc15187d	-0.009100077
253	0x3d9d6b75	0.076865114
254	0xbc457f5d	-0.012054292
255	0xbd233098	-0.039841264

convs.1.bias f4 [32]
0	0xbd9970f7	-0.074922495
1	0xbd1f3943	-0.03887297
2	0xbcfc8092	-0.030823026
3	0xbd0e14e5	-0.034687895
4	0xbb873b72	-0.0041269595
5	0xbdfef435	-0.124489225
6	0xbd1ede60	-0.038786292
7	0x3da82aad	0.08211265
8	0x3c3bffb7	0.011474541
9	0xbc7b9dbf	-0.015357434
10	0x3c60639d	0.013695625
11	0xbd28f81e	-0.041252248
12	0xbd7ce0aa	-0.061737694
13	0x3cd411cc	0.025887392
14	0x3db2f87f	0.08738803
15	0x3dfc7fbf	0.12329053
16	0xbcae56d0	-0.02128163
17	0x3d7397c0	0.059470892
18	0x3d859bef	0.065238826
19	0x3cacc10d	0.021088148
20	0xbc5fdd1c	-0.013663556
21	0xbcdbd8d1	-0.026836785
22	0xbcafb01c	-0.02144628
23	0xbd3e29f4	-0.04642673
24	0xbcece05e	-0.02891558
25	0x3d764ddd	0.06013285
26	0x3ab7780a	0.0013997566
27	0xbddacbaa	-0.10683377
28	0xbd01e0fa	-0.031708695
29	0x3b00e127	0.0019665451
30	0xbd375802	-0.044761665
31	0x3d452428	0.048130184

convs.2.basis f4 [4, 32, 32]
0	0x3cdae5ae	0.026720848
1	0xbcda179f	-0.026622592
2	0x3d2a926c	0.041643545
3	0x3cc8f92e	0.02453288
4	0xbd7b60e5	-0.061371703
5	0xbcc262a6	-0.02372868
6	0xbb3ac734	-0.0028500082
7	0x3d6f2926	0.05838885
8	0xbd3df4bc	-0.046375975
9	0x3acfc35e	0.0015851071
10	0xbb897201	-0.0041944985
11	0x3d2aaf09	0.041670833
12	0x3d357b74	0.044307187
13	0x3c10f8e3	0.008848402
14	0x3d0d72ce	0.034533314
15	0x3b436523	0.002981492
16	0x3bedb7fc	0.0072545987
17	0x3cc8360c	0.024439834
18	0xbd56cdb0	-0.052442253
19	0xbb9b7fab	-0.004745444
20	0xbda5d66d	-0.08097539
21	0xbc113419	-0.008862519
22	0x3d447975	0.047967393
23	0xbcd97551	-0.026545199
24	0xbd8c59e2	-0.06853081
25	0x3d290fba	0.041274764
26	0x3c4c98db	0.012487615
27	0x3c898ea5	0.016791651
28	0x3d3f6f5b	0.046737056
29	0xbd2348c2	-0.03986431
30	0xbcfaa4b7	-0.03059612
31	0xbd087b03	-0.033320438
32	0xbc9b329a	-0.018945027
33	0x3d350ade	0.044199817
34	0xbc4193bc	-0.011815008
35	0x3c97b1f9	0.018517481
36	0xbb1cc365	-0.0023920175
37	0x3c29df96	0.010368248
38	0xbcac2ca4	-0.02101738
39	0x3c39ef11	0.011348502
40	0x3d5452af	0.051836666
41	0x3c7a77a2	0.015287312
42	0xbc26ec7f	-0.010188221
43	0xbd0666f4	-0.032813028
44	0xbc7b2fc2	-0.015331211
45	0xbd0239b9	-0.03179333
46	0x3d2c8f39	0.042128775
47	0x3b816f4b	0.0039500347
48	0x3d21e133	0.039521407
49	0xbc2ebad8	-0.010664664
50	0xbd4fe2bc	-0.05075334
51	0x3d299b20	0.041407704
52	0x3d759240	0.059953928
53	0x3d8df3b3	0.069312476
54	0x3da6d25d	0.08145592
55	0xbc7ee4dd	-0.015557495
56	0x3d5dffc2	0.054198988
57	0xbddd9d47	-0.10821014
58	0xbcb0590a	-0.021526832
59	0x3c010b0c	0.007876169
60	0x3cb0c7e1	0.021579685
61	0xbd92cbc0	-0.071677685
62	0x3c0f643e	0.008751927
63	0x3c1a7c1c	0.009429004
64	0xbd1d94fc	-0.03847216
65	0x3d50736f	0.050891336
66	0xbc8370d5	-0.016045013
67	0x3cdd3245	0.02700151
68	0xbcfe77f1	-0.031063052
69	0x3b2aa449	0.0026037863
70	0xbd37acdd	-0.04484259
71	0xbd33d3e8	-0.04390326
72	0x39100fd7	0.00013738811
73	0xbc0d1ce5	-0.008612846
74	0x3d0d13e7	0.03444281
75	0x3d5ed073	0.05439801
76	0xba7503c1	-0.00093465677
77	0x3d4b7c5e	0.049679153
78	0x3d6c7c4e	0.057735734
79	0xbd041641	-0.032247785
80	0x3d1ae444	0.037815347
81	0x3d59383a	0.053032137
82	0x3a18a6ec	0.0005823213
83	0x3be76f1d	0.0070628063
84	0xbc78a267	-0.0151754385
85	0x3d96ab31	0.07356871
86	0x3da820ed	0.08209405
87	0xbcb9b72b	-0.02267035
88	0x3db15165	0.08658103
89	0xbdf4ef54	-0.11959711
90	0xbd203f7c	-0.039123043
91	0x3d134649	0.0359557
92	0xbc1d60ba	-0.009605581
93	0xbc94f1cc	-0.018181704
94	0xbcd27ad3	-0.025693333
95	0x3cfbebda	0.030752111
96	0x3b6bd547	0.0035985278
97	0xbc8f2979	-0.01747583
98	0x3af611b5	0.0018773588
99	0x3cf21fdd	0.02955621
100	0x3d1f7077	0.038925614
101	0xbc8a7bb8	-0.016904697
102	0x3d661ef4	0.056181863
103	0x3d8f7239	0.07004208
104	0xbc3f8aaf	-0.01169078
105	0xbd8aacf3	-0.06771269
106	0xbd232df7	-0.039838757
107	0xbd11409c	-0.035462007
108	0xba828778	-0.0009958586
109	0xbd54e074	-0.051971868
110	0xbcc7fbb9	-0.024412023
111	0x3b5ffcf6	0.0034177876
112	0x3cc65cea	0.024214227
113	0xbdc873a1	-0.097876795
114	0x3d9f4c62	0.07778241
115	0x3ca53f3a	0.02017175
116	0x3d4b2511	0.049595896
117	0xbd9b34e6	-0.07578449
118	0xbd0920af	-0.033478435
119	0x3d208343	0.03918768
120	0x3be3e841	0.006955177
121	0x3c42907f	0.011875271
122	0xbd79aff2	-0.06095881
123	0xbc41662d	-0.011804146
124	0x3cb2ff73	0.021850323
125	0x3d2eb138	0.042649478
126	0xbd78f824	-0.06078352
127	0x3da82819	0.08210773
128	0xbc2000a4	-0.009765778
129	0x3d66d1e2	0.056352504
130	0xbcdf0e52	-0.027228508
131	0xbcc0810b	-0.023499032
132	0x3d313a94	0.043268755
133	0xbd7cf18d	-0.0617538
134	0xbd9193d1	-0.07108272
135	0xbc25314c	-0.010082554
136	0xbd9866ce	-0.074414834
137	0x3c603115	0.013683577
138	0x3ba9ede7	0.005185831
139	0x3c675f42	0.014121832
140	0x3c81d513	0.015848672
141	0x3d3db986	0.046319507
142	0x3c8a4c70	0.016882151
143	0x3d3e5c75	0.046474893
144	0xbc6f32bd	-0.014599499
145	0xbc615c43	-0.013754907
146	0xbd0ce6a4	-0.034399644
147	0x3cb62701	0.022235395
148	0xbd873d62	-0.06603505
149	0x3da8cc86	0.08242135
150	0x3b200979	0.0024419709
151	0xbd0123bc	-0.03152822
152	0xbbcfb796	-0.006339024
153	0xbb70d4e6	-0.003674799
154	0xbcb5e933	-0.022205925
155	0xbaf3ecaa	-0.001860996
156	0x3dca0521	0.098642595
157	0xbc8c9a4d	-0.01716342
158	0xbd13d5b4	-0.036092475
159	0xb92b7d61	-0.00016354538
160	0x3cc0e20e	0.023545291
161	0xbc2a1dc8	-0.010383077
162	0x3c1f1326	0.009709155
163	0x3ccbd105	0.024879942
164	0xbd1f558b	-0.03889994
165	0xbbd2829c	-0.0064242613
166	0x3d828581	0.0637312
167	0x3cc2245e	0.023698982
168	0x3cd21c3e	0.025648233
169	0x3d5d32a9	0.05400339
170	0x3c93aab1	0.018025728
171	0x3d4dc7cb	0.050239366
172	0xbd4bb820	-0.049736142
173	0xbd2beb4b	-0.04197244
174	0x3d842095	0.06451527
175	0x3d1bf07a	0.038071133
176	0xbcbdc962	-0.023167316
177	0x3d8bbc48	0.06823021
178	0x3cced549	0.025248187
179	0xbc786efa	-0.015163178
180	0x3b8e9015	0.004350672
181	0x3ce87548	0.028376237
182	0x3bb52063	0.0055275424
183	0xbcf469ad	-0.029835546
184	0x3c8ab818	0.016933486
185	0xbacc77b5	-0.001559964
186	0xbc8ec0b5	-0.017425874
187	0x3c3637c3	0.011121693
188	0x3c82fd10	0.01598981
189	0xbce9dab6	-0.028546672
190	0x3d7ee50e	0.062230162
191	0x3d717bcf	0.058955964
192	0x3d61ba45	0.05510928
193	0x3d3c89fa	0.046030022
194	0xbd1b7edf	-0.03796279
195	0x3ce6b033	0.02816019
196	0x3d695faa	0.056975998
197	0x3c0d3717	0.0086190915
198	0xbdef1264	-0.116734296
199	0xbdd56bf7	-0.10420983
200	0xbd5decea	-0.054181017
201	0x3c2e7edc	0.010650363
202	0x3d0c7af6	0.034296952
203	0x3deddecc	0.11614761
204	0x3b60423d	0.0034219169
205	0xbc2eb857	-0.010664067
206	0xbc11e20f	-0.008903994
207	0x3d0bafba	0.034103133
208	0xbccb3278	-0.024804339
209	0x3d0948b1	0.03351659
210	0x3bb1aff4	0.0054225866
211	0xbcdd19e8	-0.026989892
212	0xbdb13c72	-0.08654107
213	0xbd3a7808	-0.045524627
214	0x3d7b17d1	0.06130201
215	0xbd2d5200	-0.04231453
216	0xbc7687cf	-0.015047028
217	0xbbd1d56f	-0.006403617
218	0x3dc2aa62	0.09505154
219	0x3c33fce7	0.01098559
220	0xbd4909be	-0.049081556
221	0xbd276e5e	-0.04087674
222	0xbc02790d	-0.007963431
223	0xba8ae239	-0.0010595984
224	0x3da77017	0.08175676
225	0x3c83cb69	0.016088204
226	0xbd2c0299	-0.041994665
227	0x3c32dda2	0.010917099
228	0x3d32676c	0.043555662
229	0xbc300f6b	-0.010745863
230	0x3d941563	0.07230642
231	0xbd86dc9f	-0.06585049
232	0x3ca6bddc	0.020354204
233	0x3b39d6c5	0.0028356772
234	0xbd788d0e	-0.060681395
235	0xbb91dc96	-0.0044513447
236	0xbc80d43f	-0.015726207
237	0xbca60066	-0.020263862
238	0x3cc8ef66	0.024528217
239	0xbd0dcfe2	-0.03462208
240	0xbd8f6b45	-0.07002882
241	0x3d068733	0.03284378
242	0xbcf2da8f	-0.029645232
243	0x3b0e4342	0.002170757
244	0x3cfc03da	0.030763555
245	0x3cd7a512	0.026323829
246	0x3c98d7fc	0.018657677
247	0xbda51439	-0.08060498
248	0x3df441fb	0.11926647
249	0xbdc35df7	-0.09539407
250	0x3c68e228	0.014214076
251	0xbc242d33	-0.010020542
252	0x3c801d5c	0.015639
253	0x3d611ec5	0.054960985
254	0xbd0433b2	-0.032275863
255	0x3d076527	0.03305545

convs.2.att f4 [10, 4]
0	0x3c856865	0.01628513
1	0xba89ad71	-0.001050396
2	0x3c6edd7a	0.014579171
3	0x3ca94a5c	0.02066534
4	0x3b6357fd	0.0034689896
5	0xbb69a8f9	-0.0035653694
6	0x3b1fcbfa	0.0024383054
7	0x3c4373d2	0.011929469
8	0x3c530781	0.012880207
9	0xbbfc3e18	-0.007697832
10	0x3c981153	0.018562948
11	0x3cece368	0.02891703
12	0x3bd1540d	0.0063881935
13	0xbbdd1bc3	-0.006747694
14	0xbab8a2ce	-0.0014086606
15	0x3ca0e598	0.019640729
16	0xbbea47de	-0.0071496805
17	0xbb1f0691	-0.0024265388
18	0xbb24a1ae	-0.0025120783
19	0x3b39657e	0.0028289254
20	0xbcdd7de2	-0.027037565
21	0x3b9e210c	0.004825717
22	0xbcae686d	-0.021290028
23	0xbc455360	-0.012043804
24	0xbc03d2a1	-0.008045823
25	0xbb069764	-0.0020537013
26	0x39c0a0f6	0.0003674102
27	0xbb43d509	-0.0029881618
28	0x3bdd2d5c	0.006749792
29	0xbc43abcd	-0.011942816
30	0xbbb7cdb5	-0.005609239
31	0x3c5cdc72	0.013480293
32	0xba2e19d9	-0.0006641425
33	0xba815e6d	-0.000987006
34	0x3c15d2f5	0.009144534
35	0x3b9914a6	0.004671651
36	0xbb49917e	-0.0030756886
37	0xbb9f96e6	-0.0048702834
38	0xbc12403f	-0.00892645
39	0xbb2d7f6f	-0.0026473661

convs.2.root f4 [32, 32]
0	0xbca63b9b	-0.020292094
1	0xbdc70259	-0.09717245
2	0x3dde8d79	0.108668275
3	0xbd11ae00	-0.03556633
4	0x3cabaf13	0.020957505
5	0xbdf68e99	-0.12038917
6	0xbd1259f9	-0.035730336
7	0xb96fffb2	-0.0002288807
8	0x3d6448a1	0.055733327
9	0xbc9d83a2	-0.019227806
10	0x3d0d9a20	0.034570813
11	0x3c1e6cec	0.009669524
12	0x3b046fe3	0.0020208291
13	0x3d2d3b66	0.042292975
14	0xbd4a0020	-0.049316525
15	0xbd3202ba	-0.04345963
16	0xbb560406	-0.0032656207
17	0x3c3e810e	0.011627449
18	0x3c858cd7	0.01630251
19	0x3d0c7e66	0.03430023
20	0xbc1c70fe	-0.009548424
21	0xbdc1df44	-0.09466413
22	0xbd12c669	-0.03583375
23	0x3d27bd60	0.040952086
24	0xbe0ef375	-0.13960059
25	0x3d09e23b	0.033663016
26	0x3d6afb18	0.057368368
27	0xbc5dfb10	-0.0135486275
28	0x3d11e40d	0.035617877
29	0xbb7d0f8b	-0.0038614
30	0xbd571963	-0.052514445
31	0xbd065b0c	-0.032801673
32	0xbd482042	-0.04885889
33	0xbcdaa74d	-0.026691103
34	0xbd3735ef	-0.04472917
35	0x3d86226c	0.06549534
36	0xbc96f9bc	-0.01842963
37	0x3af42eca	0.0018629667
38	0x3c952b56	0.01820914
39	0xbdb5bc76	-0.08873837
40	0xbc3f3f63	-0.011672827
41	0x3d26a156	0.040681206
42	0xbd03bd15	-0.032162745
43	0xbd6401ca	-0.05566577
44	0xbd2a76c1	-0.04161716
45	0x3c8d95e4	0.017283387
46	0xbd2ef541	-0.04271436
47	0x3d03a969	0.032143984
48	0xbd9d633b	-0.07684942
49	0x3cb748c9	0.022373574
50	0xbd0fb843	-0.035087835
51	0xbd16b77b	-0.036796074
52	0x3c9ef7d8	0.01940529
53	0x3d9e8402	0.07740022
54	0xbc9dc494	-0.019258775
55	0x3c800a0a	0.015629787
56	0x3c911f5b	0.017715147
57	0xbdf6e2ba	-0.120549634
58	0xbd6c8d63	-0.057752024
59	0xbd177708	-0.03697875
60	0xbd5c5036	-0.053787433
61	0xbcecdfe3	-0.028915351
62	0x3cd6224c	0.0261394
63	0x3cb1b03a	0.021690477
64	0xbcaee9f4	-0.021351792
65	0xbdc397a0	-0.095504045
66	0xbc6e6ce3	-0.014552328
67	0x3cdbbc9a	0.02682333
68	0xbb8b6a13	-0.0042545884
69	0xbd7bc2b7	-0.06146499
70	0xbd192e97	-0.037397947
71	0x3bd70885	0.006562295
72	0x3d765709	0.060141597
73	0x3c6b399e	0.014356999
74	0x3d566ce1	0.05234993
75	0xbd698a12	-0.05701644
76	0xbcb2485d	-0.021763021
77	0xbdab54b5	-0.08365766
78	0x3c2c92c4	0.0105330385
79	0xbd668a63	-0.05628432
80	0xbb010ad6	-0.0019690297
81	0x3d2202cc	0.03955345
82	0x3c742365	0.014901017
83	0x3bf47ab3	0.007460916
84	0xbd225d84	-0.039639965
85	0xbd4dc050	-0.05023223
86	0xbc9be401	-0.01902962
87	0x3d2af4e5	0.041737456
88	0xbd15d94a	-0.036584176
89	0x3ce265d2	0.027636442
90	0x3b689530	0.0035489313
91	0x3ca93a3d	0.020657653
92	0xbd08dd5c	-0.03341423
93	0x3c93b36b	0.01802989
94	0x3cc55cf7	0.02409218
95	0xbd465050	-0.048416436
96	0x3d311c92	0.043240137
97	0xbd5ddf33	-0.054167937
98	0x3d7dc7d0	0.061958134
99	0xbd97027b	-0.0737352
100	0xbbaf17db	-0.00534342
101	0x3c140263	0.009033772
102	0x3bd6e97a	0.0065585943
103	0x3d50bed0	0.050963223
104	0xbc3dd567	-0.011586524
105	0x3d641b10	0.05568987
106	0x3d9d8b40	0.076925755
107	0x3d53110b	0.051529925
108	0x3c750907	0.014955766
109	0xbc698140	-0.014252007
110	0xbcd3238b	-0.025773784
111	0x3c1f5278	0.009724252
112	0xbbde485a	-0.0067835273
113	0xbc383d83	-0.011245134
114	0x3cd52749	0.02601971
115	0xbd690c35	-0.056896407
116	0xbd337f7f	-0.04382276
117	0xbdea913c	-0.114534825
118	0x3d937f80	0.07202053
119	0xbd261793	-0.040549826
120	0xbd82fc02	-0.06395723
121	0x3c9e4b69	0.019323068
122	0x3cb9247d	0.022600407
123	0x3cb9227e	0.022599455
124	0xbc70da83	-0.014700535
125	0xbd8ac800	-0.06776428
126	0xbcbd86cb	-0.023135563
127	0xbb0cda09	-0.0021492264
128	0x3d536601	0.05161095
129	0x3d58947d	0.052875984
130	0xbd980c55	-0.07424227
131	0x3cdfc9a3	0.027317828
132	0xbcc230d7	-0.02370493
133	0x3da9b698	0.0828678
134	0x3c54e4f7	0.012994043
135	0x3ca79858	0.020458385
136	0x3d089599	0.033345792
137	0x3c70e46c	0.0147028975
138	0x3cc2cfdc	0.023780756
139	0x3c484869	0.012224295
140	0x3d76b0a4	0.06022705
141	0xbc015790	-0.007894412
142	0x3d86ed14	0.06588188
143	0xbc1a238c	-0.009407889
144	0x3cda23eb	0.026628455
145	0x3caacb35	0.02084885
146	0xbd51816f	-0.051148828
147	0xbcb629ab	-0.022236666
148	0xbc121f68	-0.008918621
149	0xbd06e0c8	-0.03292921
150	0x3d7c9ab3	0.06167097
151	0x3c90c60d	0.017672563
152	0x3d8687fe	0.06568907
153	0xbb420a6a	-0.0029608258
154	0xbd3f6512	-0.046727248
155	0xbd269007	-0.0406647
156	0xbce055b6	-0.02738462
157	0x3c786ef8	0.015163176
158	0x3d6b868b	0.057501357
159	0x3cdab554	0.026697792
160	0xbd41142e	-0.047138385
161	0xbde1ab04	-0.11018947
162	0xbd17d67e	-0.03706979
163	0x3d1e92be	0.038714163
164	0x3c958146	0.018250119
165	0x3cb1c011	0.02169803
166	0xbd61cd10	-0.055127203
167	0xbcd9230d	-0.026505971
168	0x3cd57649	0.02605738
169	0x3d0310cd	0.031998444
170	0x3dbda7e7	0.092605405
171	0x3d1599d1	0.036523644
172	0xbc5ca62e	-0.013467355
173	0xbca14115	-0.019684354
174	0xbd122973	-0.03568406
175	0xbd4387e7	-0.04773703
176	0x3a970564	0.0011521992
177	0x3caf4912	0.021397147
178	0x3cb7b4b8	0.02242504
179	0xbd5ebae6	-0.05437746
180	0xbcb57ca1	-0.022154154
181	0xbdb3efb3	-0.087859534
182	0x3b4c02f4	0.003112969
183	0xbd36d6ab	-0.044638317
184	0xbd82665e	-0.06367181
185	0x3cb19e01	0.021681787
186	0x3da33242	0.0796857
187	0xbbe484c5	-0.006973835
188	0x3cf9fcfb	0.030516138
189	0xbcad7a08	-0.021176353
190	0x3cdf5002	0.02725983
191	0xbcffb7a2	-0.031215493
192	0xbbab2da4	-0.0052239466
193	0x3d5543fb	0.052066784
194	0xbd01e625	-0.031713624
195	0x3da07b93	0.0783607
196	0x3c839b24	0.016065188
197	0x3cdf4a33	0.02725706
198	0x3d13dc6a	0.036098875
199	0x3b70cf8d	0.0036744804
200	0xbb1bfb09	-0.0023800752
201	0x3a4d99f5	0.0007843071
202	0xbd55052e	-0.052006893
203	0xbd1aa17d	-0.037751663
204	0xbcdca193	-0.026932513
205	0x3bc54a42	0.006020815
206	0xbc8b0211	-0.016968759
207	0xbb6d825a	-0.0036241026
208	0x3c9a2c44	0.018819936
209	0xbbdbdafe	-0.0067094555
210	0x3bbabe81	0.0056989794
211	0x3c91b2ed	0.017785514
212	0x3d603d8a	0.05474619
213	0x3e276547	0.16347228
214	0xbc84afc5	-0.016197095
215	0xbb9be0fe	-0.004757046
216	0x3da93757	0.08262508
217	0xbd16e3fa	-0.03683851
218	0xbb9b353e	-0.0047365716
219	0xbbed1640	-0.0072353184
220	0x3b73911c	0.003716535
221	0x3a1577bb	0.000570174
222	0x3c96b1b8	0.01839529
223	0xbb01bd28	-0.0019796584
224	0x3ae62254	0.0017557838
225	0xbd305e88	-0.043058902
226	0xbbc64ef3	-0.006051892
227	0x3b87c922	0.00414385
228	0x3c9b9e1d	0.018996293
229	0x3b4d6f7d	0.003134697
230	0xbcb141c8	-0.021637812
231	0xbd089ac0	-0.033350706
232	0x3d7f4142	0.062318094
233	0xbbed4836	-0.007241274
234	0xbc2af7c2	-0.010435047
235	0x3d2fbc25	0.042904038
236	0xbcbc8f96	-0.023017686
237	0x3cf17340	0.0294739
238	0xbd0de00a	-0.03463749
239	0xbc9a9b1e	-0.018872794
240	0xbd796465	-0.06088676
241	0x38d4e366	0.00010151304
242	0x3d247bff	0.040157314
243	0xbc6595c1	-0.014012755
244	0xbd34bb6b	-0.04412405
245	0xbc23b61c	-0.009992149
246	0xbd30736f	-0.043078836
247	0x3bddbcc0	0.0067668855
248	0xbcce9c34	-0.025220968
249	0xbd135f41	-0.035979513
250	0x3a5aebd2	0.000835118
251	0xbb090557	-0.0020907724
252	0x3cec05d4	0.028811373
253	0xbcbd3082	-0.02309442
254	0x3c893a9f	0.016751586
255	0x3c0bc1fb	0.008530135

convs.2.bias f4 [32]
0	0x3c2955cd	0.010335398
1	0xbc9fcd86	-0.01950718
2	0x3cb8682f	0.022510616
3	0xbd336072	-0.04379315
4	0xbcc5cadc	-0.024144582
5	0xbcf15139	-0.029457675
6	0xbcb25e0e	-0.021773364
7	0xbb4ac2fe	-0.0030938978
8	0x3b9a54d3	0.004709819
9	0xbbe1bf76	-0.006889279
10	0x3cb18449	0.021669524
11	0x3c808b7f	0.015691517
12	0x3c7241e9	0.014786222
13	0xbb883947	-0.0041572186
14	0xbb2a32ed	-0.0025970296
15	0x3bb935bb	0.005652157
16	0xbc46bf91	-0.012130634
17	0xba443dca	-0.0007486014
18	0x3bb91c8d	0.0056491555
19	0xbc434294	-0.011917729
20	0xbd12f35d	-0.03587662
21	0xbd9a8856	-0.07545535
22	0x3c669720	0.014074117
23	0xbc33309b	-0.010936881
24	0xbd0869d1	-0.03330404
25	0x3c154b6f	0.009112223
26	0x3bbaed6c	0.0057045724
27	0x3b6e1586	0.0036328747
28	0xbb83451d	-0.0040060417
29	0xbb9c8a9a	-0.004777265
30	0xbc4ed0b5	-0.012623002
31	0x3c002579	0.007821434
