results/flixster_testmode/model_checkpoint11.pth (torch_old, 199981 bytes, 19 tensors)

convs.0.basis f4 [4, 4, 32]
0.13305672 -0.09016748 0.1025099 0.076387905 -0.008430019 0.24857116 -0.075197525 -0.1477574
0.10002013 -0.14653069 0.15245219 -0.1465539 -0.20454334 0.13801508 0.123572856 -0.1027885
-0.019009536 -0.10049516 -0.21267799 0.021888504 0.05298159 0.15542091 0.035382196 -0.11721053
0.042201906 -0.17250839 0.032137576 0.0551124 0.13881208 0.2844516 -0.25171238 -0.010303994
-0.14524484 -0.10739186 -0.090444975 -0.07022329 -0.025265122 0.25231248 -0.12836236 -0.09810788
-0.20746563 -0.14805038 0.12828524 -0.22351982 -0.103672 0.056696113 -0.023523726 -0.13164009
-0.17193305 -0.22914585 0.13780469 -0.13040386 -0.20203947 0.11284143 -0.07554429 -0.060463674
0.07017565 -0.052978665 0.006505264 0.017898545 0.12563002 0.11175184 -0.16228347 0.019008989
-0.08066122 -0.10462769 0.17345393 0.16357061 0.021793596 -0.13587634 0.10091699 -0.18938032
-0.16757397 -0.08579945 -0.070553586 0.063877545 0.20840621 0.072642565 0.05631659 -0.19249852
0.059841644 -0.06545702 0.12757696 0.14804323 0.077576414 0.11108631 -0.42170808 -0.34078118
-0.29134202 -0.053637654 -0.13818933 0.0069210376 -0.08099288 0.053510822 0.0073371334 0.08327261
0.1641771 0.09787324 0.024077846 -0.1260124 -0.20500769 -0.28567892 -0.05407834 -0.055745576
0.32179382 0.43649483 0.46350798 0.15672584 0.030100008 0.01121481 -0.0881856 -0.023872225
-0.3227039 -0.18428294 -0.114517994 -0.0029571743 0.021586925 -0.38554674 -0.15201856 0.080255315
-0.14374563 0.14655025 -0.16163673 -0.16287751 -0.0109168785 0.20662595 0.11442993 0.036034994
0.038782366 -0.057282142 0.06314452 0.11284361 -0.0082973065 0.19772302 0.011585081 -0.08620231
-0.010040119 -0.08956886 0.03988351 -0.052144177 -0.15082166 0.08676805 0.11755693 -0.1645983
-0.06112827 -0.103498794 -0.078378 -0.012575933 -0.0050509917 0.13924013 0.11907799 -0.14649396
0.057035666 -0.15219508 0.04979535 0.031290334 0.023541726 0.19596124 -0.18818812 -0.046715066
-0.08362375 -0.024885999 -0.1316252 0.054556243 -0.025826143 0.2085426 -0.11799113 -0.006064812
-0.084200814 -0.14037536 0.12179438 -0.22872756 -0.12305559 0.03327246 0.09327337 -0.053034488
-0.16278826 -0.17803206 0.055667523 -0.019441938 -0.18068358 0.08131827 0.016164063 -0.020499663
0.11200711 -0.069910854 0.03347485 0.01868305 0.10514392 0.18620783 -0.111470126 0.08395152
-0.030829296 0.013413934 -0.0607007 0.049192734 0.08979519 0.13594587 -0.002622992 -0.13617235
-0.33280993 0.008604831 -0.16680585 -0.080909505 0.22295949 -0.016591234 -0.19589506 -0.25347945
0.21195213 -0.057640117 0.14133403 0.18741894 -0.13857394 -0.06954417 -0.35828242 -0.33721972
-0.24831407 0.008242607 0.0742219 -0.055755075 -0.044887945 -0.04909626 -0.02639835 0.0079984665
-0.0025987758 0.23091277 0.0018961949 -0.034174547 0.14447425 -0.17104194 0.03808498 -0.2222547
0.2272496 0.31643578 0.33215383 -0.40349495 -0.15139459 -0.058250863 -0.123863846 0.033188194
-0.19839646 -0.18755955 -0.17959005 -0.07859672 0.046805818 -0.35920256 0.20639569 0.082395226
0.084011994 0.13286766 0.16736554 -0.027499482 -0.010758808 0.14079307 -0.15606277 -0.1408296
00000000: 0540 083e baa9 b8bd b6f0 d13d 4371 9c3d
00000010: 101e 0abc 7089 7e3e 2901 9abd b74d 17be
00000020: 5bd7 cc3d 240c 16be 6d1c 1c3e 3a12 16be
00000030: cf73 51be d353 0d3e c413 fd3d c782 d2bd
00000040: e3b9 9bbc 68d0 cdbd 42c8 59be 854f b33c
00000050: 3903 593d a926 1f3e ecec 103d 130c f0bd
00000060: e8db 2c3d 0aa6 30be b1a2 033d 8abd 613d
00000070: c124 0e3e a4a3 913e 72e0 80be 15d2 28bc
00000080: 10bb 14be 43f0 dbbd 373b b9bd 3ad1 8fbd
00000090: cdf8 cebc 1a2f 813e 6c71 03be c9ec c8bd
000000a0: df71 54be 859a 17be 355d 033e 61e2 64be
000000b0: fc51 d4bd 2f3a 683d d4b4 c0bc a9cc 06be
000000c0: 380f 30be 36a5 6abe ac1c 0d3e 9788 05be
000000d0: 6fe3 4ebe 6819 e73d f7b6 9abd c2a8 77bd
000000e0: 40b8 8f3d 2800 59bd 1c2a d53b f89f 923c
000000f0: 28a5 003e 26de e43d a32d 26be bdb8 9b3c
00000100: b631 a5bd 0b47 d6bd e89d 313e 0e7f 273e
00000110: 7c88 b23c 2b23 0bbe 91ad ce3d eaec 41be
00000120: 8398 2bbe 9fb7 afbd 667e 90bd 3bd2 823d
00000130: 7068 553e a0c5 943d 3aac 663d 551e 45be
00000140: 831c 753d 550e 86bd 89a3 023e a598 173e
00000150: 62e0 9e3d 3881 e33d 1fea d7be df7a aebe
00000160: c82a 95be 28b3 5bbd 8181 0dbe dfc9 e23b
00000170: 98df a5bd 2a2e 5b3d 566c f03b d58a aa3d
00000180: 0b1e 283e c471 c83d e73e c53c 6509 01be
00000190: 89ed 51be 8244 92be 4081 5dbd 7955 64bd
000001a0: 29c2 a43e 407c df3e eb50 ed3e bd7c 203e
000001b0: 4b94 f63c 53be 373c a79a b4bd af8f c3bc
000001c0: 7239 a5be abb4 3cbe 6988 eabd 27cd 41bb
000001d0: 10d7 b03c 6266 c5be c1aa 1bbe e65c a43d
000001e0: 0e32 13be 4511 163e 1984 25be 5dc9 26be
000001f0: b5dc 32bc c195 533e 3d5a ea3d 6e99 133d
00000200: 42da 1e3d aea0 6abd ea51 813d 8d1a e73d
00000210: 6df1 07bc e777 4a3e 5acf 3d3c d68a b0bd
00000220: 507f 24bc e16f b7bd e45c 233d 2295 55bd
00000230: fe70 1abe 73b3 b13d b0c1 f03d 758c 28be
00000240: a361 7abd 2df7 d3bd a584 a0bd 490b 4ebc
00000250: ca82 a5bb f794 0e3e 29df f33d 8302 16be
00000260: 3b9e 693d 07d9 1bbe 35f6 4b3d 4b2a 003d
00000270: 94da c03c 10aa 483e 63b4 40be 4c58 3fbd
00000280: ee42 abbd b9dd cbbc c2c8 06be 5e76 5f3d
00000290: 5991 d3bc 318c 553e 55a5 f1bd 55bb c6bb
000002a0: 7a71 acbd 8fbe 0fbe 556f f93d 8f37 6abe
000002b0: 9204 fcbd b448 083d 1c06 bf3d b13a 59bd
000002c0: f7b1 26be 094e 36be a103 643d b344 9fbc
000002d0: 1e05 39be 318a a63d 7f6a 843c e9ee a7bc
000002e0: fc63 e53d 6c2d 8fbd ed1c 093d 320d 993c
000002f0: b255 d73d 44ad 3e3e 734a e4bd c6ee ab3d
00000300: b88d fcbc 1ec6 5b3c 4ca1 78bd 527e 493d
00000310: 8ae6 b73d 6535 0b3e 81e6 2bbb c470 0bbe
00000320: 1066 aabe 47fb 0c3c 27cf 2abe e2b3 a5bd
00000330: 7e4f 643e 57ea 87bc b798 48be 0fc8 81be
00000340: fb09 593e 0b18 6cbd deb9 103e c0ea 3f3e
00000350: 54e6 0dbe 2c6d 8ebd cb70 b7be 10a8 acbe
00000360: 0b46 7ebe 000c 073c a701 983d 6f5f 64bd
00000370: 6cdc 37bd 2919 49bd 5a41 d8bc 000c 033c
00000380: 3950 2abb 6674 6c3e be89 f83a 9cfa 0bbd
00000390: 0ff1 133e 9e25 2fbe fffe 1b3d bc96 63be
000003a0: 1fb4 683e df03 a23e 1110 aa3e e496 cebe
000003b0: 2f07 1bbe 7598 6ebd 54ac fdbd 58f0 073d
000003c0: 7128 4bbe 9c0f 40be 74e6 37be 51f7 a0bd
000003d0: 75b7 3f3d 66e9 b7be 6459 533e d4be a83d
000003e0: 7b0e ac3d 760e 083e df61 2b3e 9846 e1bc
000003f0: b645 30bc 0f2c 103e ebce 1fbe a235 10be

convs.0.att f4 [10, 4]
-0.092664294 -0.1808574 0.18790843 0.105966486 -0.11276655 -0.0714356 0.16797982 0.06810376
-0.18788154 0.12401548 0.23441702 0.054705624 -0.18869404 0.17428768 0.21190156 -0.00014660778
0.046592798 -0.026421905 0.18885899 0.06714757 -0.071825296 0.24636735 0.26983514 0.17596017
0.00400843 0.19997251 0.16118386 0.074566714 0.09071973 0.23137094 0.18825002 0.12455477
0.18130822 0.19023941 0.09923883 -0.014999108 0.32075748 0.12969413 0.040094778 -0.13135406
00000000: c7c6 bdbd af32 39be 116b 403e f504 d93d
00000010: 26f2 e6bd d44c 92bd e702 2c3e fc79 8b3d
00000020: 0564 40be d4fb fd3d 040b 703e 0113 603d
00000030: 0339 41be 7878 323e b9fc 583e baba 19b9
00000040: 17d8 3e3d c072 d8bc 4064 413e aa84 893d
00000050: 2419 93bd b947 7c3e d527 8a3e e72e 343e
00000060: 2659 833b 98c5 4c3e 620d 253e 6fb6 983d
00000070: 44cb b93d 81ec 6c3e 9dc4 403e 9216 ff3d
00000080: dda8 393e 1fce 423e ba3d cb3d d2be 75bc
00000090: 533a a43e 8ace 043e 6c3a 243d ae81 06be

convs.0.root f4 [4, 32]
-0.07292928 0.05411019 0.062420886 0.13728791 0.17175138 0.0076816618 -0.10165226 -0.26801202
0.21579158 0.38312802 0.33646 -0.052399654 0.12524383 0.11117401 -0.10612742 -0.09230437
-0.15904339 0.19968377 0.057684917 -0.21636398 0.11869563 -0.12007587 0.09872959 0.2297158
-0.066168375 0.21747476 -0.011816846 -0.29875195 0.098912686 -0.22935982 0.045585793 -0.20667359
0.14905377 0.24992895 -0.18972698 0.103102334 -0.14735386 -0.1943571 -0.057517517 -0.26801524
0.012999169 -0.24421848 0.19420418 0.18795142 0.3240315 0.23066719 -0.15496722 0.2687314
0.019315954 0.09998591 0.091171265 -0.11479042 0.006632001 -0.23874468 -0.19689354 -0.36696044
-0.26180008 -0.064474374 0.24266513 0.11434634 0.13134225 -0.09126406 0.26376796 0.2742418
0.024866046 0.13447526 0.091060996 -0.06901574 -0.17284854 -0.18163875 -0.1451638 -0.084410526
-0.07632904 -0.082419135 -0.23611124 0.024960153 -0.001028889 0.23501407 -0.025450893 -0.055922516
-0.14081828 -0.08732413 -0.16367349 0.16256171 0.0070125577 0.13528328 -0.13907069 0.10731803
0.048801765 0.1039251 0.05938889 -0.06834421 -0.10461583 -0.12682931 0.09424748 0.036510244
-0.07629966 -0.08701123 -0.033370897 0.21238567 0.08758626 -0.055290278 0.006719879 -0.1636282
-0.15414017 0.19162473 -0.09581604 -0.15899552 0.14774466 0.08530875 0.020462133 0.061758187
0.05374606 -0.1473305 -0.043099612 0.16083097 -0.11515785 0.083624676 -0.19481613 -0.1626311
-0.03976841 0.1374107 -0.0821307 -0.010473699 -0.21659076 -0.11412398 -0.052679133 -0.1657944
00000000: f25b 95bd a6a2 5d3d 0bad 7f3d 3495 0c3e
00000010: 98df 2f3e 73b6 fb3b 0f2f d0bd df38 89be
00000020: 78f8 5c3e 5b29 c43e 7c44 ac3e 05a1 56bd
00000030: eb3f 003e 33af e33d 5559 d9bd 130a bdbd
00000040: 45dc 22be e779 4c3e 0547 6c3d 858e 5dbe
00000050: b216 f33d 56ea f5bd bd32 ca3d 9e3a 6b3e
00000060: 4983 87bd b4b1 5e3e 729b 41bc 04f6 98be
00000070: bc92 ca3d 4ddd 6abe 2bb8 3a3d 3ea2 53be
00000080: 8da1 183e 60ed 7f3e ca47 42be 5127 d33d
00000090: eee3 16be 8c05 47be 7d97 6bbd 4b39 89be
000000a0: 77fa 543c 6914 7abe 76dd 463e 5676 403e
000000b0: 75e7 a53e 0534 6c3e baaf 1ebe 2997 893e
000000c0: 7e3c 9e3c 6ac5 cc3d 00b8 ba3d 3d17 ebbd
000000d0: 4251 d93b 7c79 74be 769e 49be 3de2 bbbe
000000e0: a90a 86be 240b 84bd 357d 783e 6a2e ea3d
000000f0: 957e 063e a7e8 babd 980c 873e 6c69 8c3e
00000100: e1b3 cb3c e2b3 093e 307e ba3d 2058 8dbd
00000110: 35ff 30be 82ff 39be d2a5 14be 6ddf acbd
00000120: 6652 9cbd 5dcb a8bd 25c7 71be 3c79 cc3c
00000130: c9db 86ba 87a7 703e 647e d0bc 020f 65bd
00000140: ab32 10be fed6 b2bd 069a 27be 9476 263e
00000150: 99c9 e53b b387 0a3e 8c68 0ebe 8ec9 db3d
00000160: 5ce4 473d afd6 d43d c441 733d 0df8 8bbd
00000170: d340 d6bd 8bdf 01be d304 c13d c48b 153d
00000180: ff42 9cbd f232 b2bd ecaf 08bd a17b 593e
00000190: 6d60 b33d 0f78 62bd 6e32 dc3b 278e 27be
000001a0: ecd6 1dbe 4639 443e 333b c4bd b9cf 22be
000001b0: 604a 173e 5bb6 ae3d 34a0 a73c 27f6 7c3d
000001c0: d424 5c3d cedd 16be 3889 30bd e0b0 243e
000001d0: e1d7 ebbd 6a43 ab3d e17d 47be c488 26be
000001e0: 33e4 22bd 64b5 0c3e 2434 a8bd e199 2bbc
000001f0: f8c9 5dbe d5b9 e9bd 13c6 57bd 02c6 29be

convs.0.bias f4 [32]
0.14524329 0.0059983553 0.17097393 -0.27439478 0.17248991 -0.02546784 0.1443498 0.11827169
0.18371081 -0.023924729 0.027167678 0.23532164 -0.0532736 -0.20112203 -0.23501343 0.0801894
0.13667832 0.22782987 0.20508692 -0.09105676 0.12888573 -0.29052675 0.15695465 0.008443738
-0.01024933 -0.050930995 -0.1259775 0.0069871424 0.101235345 -0.16792823 0.20541713 -0.024535732
00000000: a8ba 143e da8d c43b ca13 2f3e 797d 8cbe
00000010: 32a1 303e eea1 d0bc 6fd0 133e 6e38 f23d
00000020: b01e 3c3e cbfd c3bc c08e de3c 28f8 703e
00000030: 6b35 5abd eff2 4dbe 5ca7 70be 573a a43d
00000040: 67f5 0b3e 3c4c 693e 4e02 523e f77b babd
00000050: 9ffa 033e ecbf 94be b8b8 203e 9b57 0a3c
00000060: ceec 27bc 059d 50bd 3f00 01be 66f4 e43b
00000070: 7a54 cf3d 61f5 2bbe de58 523e 29ff c8bc

convs.1.basis f4 [4, 32, 32]
-0.095991775 -0.03598007 0.05676503 -0.067372404 0.06756347 -0.024561636 -0.028998768 0.08069649
0.027175818 0.0045059496 0.022370432 -0.050381232 -0.05160324 0.111250736 0.1084482 -0.031696625
-0.06445565 0.03519356 -0.025519919 -0.046754945 0.0074191913 0.013270198 0.08506149 0.040037602
0.022391135 0.05261321 0.004946582 0.048790928 -0.02915779 0.040445585 -0.01870618 -0.05060816
-0.051553767 0.014777672 -0.049538266 -0.056164257 -0.06574376 0.04061272 -0.07418567 0.005030059
-0.03066324 -0.06782758 0.07129296 -0.036798637 -0.0043677795 0.0706101 -0.0946634 0.11075145
-0.011127203 0.01285593 0.004474955 0.068824284 0.011626491 -0.060599104 -0.018101957 0.030154705
0.029665196 -0.018684454 -0.037790935 -0.083041474 0.013001817 -0.07326365 0.0057960576 0.08389704
0.15570322 0.041423682 0.0797818 -0.05684935 -0.01574445 -0.019779028 0.12042127 -0.20549092
-0.019466776 -0.067018725 0.033504963 0.046922028 -0.0773883 -0.06281315 0.049003657 -0.18132332
-0.030480351 -0.07738748 0.032532953 -0.052494068 0.010870607 0.05988482 -0.023802299 0.054648183
-0.094098195 -0.061362285 0.061072223 0.08230819 -0.0015419603 -0.0005893511 -0.04521113 -0.075178795
-0.044105392 -0.051469028 0.04619432 0.078031585 0.040857673 -0.03818327 -0.030362407 0.0074822684
-0.0058992393 0.04962119 0.05452797 -0.04618253 0.02146799 -0.028609615 -0.033014584 0.05923033
0.039761193 -0.062888235 0.03401249 -0.035860352 -0.014823447 0.041654497 -0.035945315 0.015622481
-0.019311083 -0.0355758 -0.0077033755 -0.02457362 0.050940406 -0.003787797 0.013999143 -0.025473142
0.16126761 0.0025260192 0.07472896 0.08391315 0.0726914 -0.03669144 0.065689415 -0.0877548
0.03917613 0.0096302815 0.07008464 -0.06641776 0.05025106 -0.000755314 0.103364415 -0.042974465
-0.0028373299 0.018501213 -0.08067153 0.041110914 0.051360074 0.014972062 0.09274024 -0.025798734
-0.011990461 -0.018293358 -0.06260566 0.11594266 -0.08250929 0.10018839 -0.06488671 -0.025434002
0.03156216 -0.057890154 -0.015023882 0.013575537 0.0857182 -0.04661 0.034523923 -0.013251802
0.044725534 -0.02168043 0.027223548 -0.0143168615 -0.009912327 0.0107974345 -0.07280653 0.09851656
0.056615528 -0.038577717 0.008506984 -0.018442437 0.03868921 0.017979706 -0.07233319 0.055793583
0.0356266 0.05117201 0.015217858 0.013051321 0.14551146 -0.042639337 0.015377779 -0.011293801
-0.03469545 -0.048407402 -0.074308775 -0.007265382 0.06343341 0.051384088 0.047152225 -0.05380805
-0.0046279724 -0.028442465 0.020763448 -0.036571074 0.014656605 -0.021318207 0.076224685 -0.10542193
-0.08902826 0.07970085 0.027266353 0.031660423 0.03738299 0.05176031 0.103113405 0.052900266
-0.019584877 -0.09667283 -0.05076113 0.10761286 -0.12738685 -0.008500862 0.003042291 0.025231967
-0.27274287 0.054266356 -0.030156406 -0.069691055 -0.08113077 -0.041273788 -0.14097166 0.19679454
0.0016928156 0.039998896 -0.014133616 -0.10212255 0.0009402249 0.0022297218 0.0780228 0.15657711
0.027021 0.06490959 -0.07409598 0.05595066 0.023226017 -0.22546242 0.05178843 -0.027544726
-0.0692415 0.005781969 0.10629056 -0.15069471 0.050520662 0.020860836 -0.014401265 0.04579758
00000000: 5697 c4bd d65f 13bd 7382 683d 8bfa 89bd
00000010: b75e 8a3d 7c35 c9bc d38e edbc 3444 a53d
00000020: d29f de3c a5a6 933b 3242 b73c 8d5c 4ebd
00000030: eb5d 53bd 6dd7 e33d 171a de3d 52d4 01bd
00000040: 5301 84bd 1f27 103d 260f d1bc 1d82 3fbd
00000050: b01c f33b 3f6b 593c b834 ae3d 78fe 233d
00000060: 9d6d b73c f380 573d f016 a23b ffd8 473d
00000070: 51dc eebc 45aa 253d b43d 99bc 814a 4fbd
00000080: 0b2a 53bd 0c1e 723c a3e8 4abd 7e0c 66bd
00000090: aaa4 86bd 8659 263d a8ee 97bd 31d3 a43b
000000a0: 7a31 fbbc 30e9 8abd 0b02 923d 2bba 16bd
000000b0: 971f 8fbb 079c 903d e2de c1bd a8d1 e23d
000000c0: df4e 36bc aea1 523c a5a2 923b bff3 8c3d
000000d0: 0a7d 3e3c c436 78bd 8e4a 94bc 0007 f73c
000000e0: 6d04 f33c 2410 99bc abca 1abd a611 aabd
000000f0: 9305 553c 410b 96bd dbec bd3b 36d2 ab3d
00000100: aa70 1f3e e1ab 293d a464 a33d ddda 68bd
00000110: 81fa 80bc a107 a2bc 6d9f f63d 366c 52be
00000120: ca78 9fbc 1d41 89bd 803c 093d 5031 403d
00000130: c27d 9ebd 2ea4 80bd 0fb8 483d d2ac 39be
00000140: eeb1 f9bc 547d 9ebd 4641 053d 0504 57bd
00000150: a11a 323c c949 753d 0afd c2bc c6d6 5f3d
00000160: 8eb6 c0bd 0557 7bbd de26 7a3d 3291 a83d
00000170: 9a1b caba af7e 1aba 4e2f 39bd 57f7 99bd
00000180: dba7 34bd 30d1 52bd 4136 3d3d 06cf 9f3d
00000190: 605a 273d 0f66 1cbd 95ba f8bc d12d f53b
000001a0: 684e c1bb 973f 4b3d b858 5f3d e429 3dbd
000001b0: a3dd af3c b65e eabc 4d3a 07bd 819b 723d
000001c0: a2dc 223d 8ccb 80bd ae50 0b3d 4ee2 12bd
000001d0: 0bde 72bc e89d 2a3d 653b 13bd 6ff5 7f3c
000001e0: 4732 9ebc eeb7 11bd 996c fcbb 9e4e c9bc
000001f0: e3a6 503d b03c 78bb a95c 653c 0dad d0bc
00000200: 5623 253e 928b 253b 7f0b 993d a8da ab3d
00000210: 3bdf 943d c349 16bd 2c88 863d cab8 b3bd
00000220: 2677 203d 54c8 1d3c 8988 8f3d 0906 88bd
00000230: 0ed4 4d3d 4400 46ba b9b0 d33d fe05 30bd
00000240: 7ff2 39bb db8f 973c 1d37 a5bd eb63 283d
00000250: f15e 523d 614d 753c 98ee bd3d de57 d3bc
00000260: a373 44bc f4db 95bc 6537 80bd 5873 ed3d
00000270: a1fa a8bd 922f cd3d 53e3 84bd f85a d0bc
00000280: 5347 013d 3a1e 6dbd ba26 76bc ee6b 5e3c
00000290: 068d af3d 21ea 3ebd f568 0d3d 161e 59bc
000002a0: 1f32 373d 289b b1bc eb03 df3c 4591 6abc
000002b0: 5067 22bc b9e7 303c 971b 95bd 0dc3 c93d
000002c0: afe5 673d ab03 1ebd e160 0b3c 9814 97bc
000002d0: 9478 1e3d 2d4a 933c 6c23 94bd d087 643d
000002e0: 33ed 113d be99 513d 5354 793c 35d5 553c
000002f0: f500 153e 96a6 2ebd 14f3 7b3c a209 39bc
00000300: d11c 0ebd d746 46bd 332f 98bd 7112 eebb
00000310: 60e9 813d 1f78 523d b122 413d d465 5cbd
00000320: 3fa6 97bb 2c00 e9bc 1b18 aa3c 8dcb 15bd
00000330: 4222 703c 85a3 aebc b01b 9c3d 74e7 d7bd
00000340: 7354 b6bd 333a a33d b05d df3c 5cae 013d
00000350: e81e 193d 9e02 543d 1f2d d33d f3ad 583d
00000360: 7770 a0bc 68fc c5bd e7ea 4fbd 2264 dc3d
00000370: b371 02be 3347 0bbc 2c61 473b 45b3 ce3c
00000380: f4a4 8bbe 6646 5e3d 910a f7bc 2fba 8ebd
00000390: e427 a6bd b40e 29bd e05a 10be 8284 493e
000003a0: 77e1 dd3a e2d5 233d af90 67bc a125 d1bd
000003b0: 6d79 763a 8620 123b 6bca 9f3d c055 203e
000003c0: 255b dd3c 52ef 843d a2bf 97bd 852c 653d
000003d0: 7d44 be3c 9fdf 66be 1b20 543d 7aa5 e1bc
000003e0: 7dce 8dbd ac76 bd3b ddae d93d b74f 1abe
000003f0: c1ee 4e3d 58e4 aa3c 49f3 6bbc 3e96 3b3d

convs.1.att f4 [10, 4]
0.028853668 0.15739961 -0.20819223 -0.045419324 0.12500948 0.14024219 -0.22285257 -0.026118983
0.14615367 0.0768301 -0.22667365 -0.040353928 0.10646578 0.014093448 -0.14335631 -0.09457842
0.10379946 -0.020422803 -0.101949416 -0.07453432 -0.0095564835 -0.014974005 -0.067855544 -0.05901456
-0.004218848 -0.09839579 -0.053939078 0.038034387 0.015472193 -0.08970726 0.038590197 0.054947935
-0.050535873 -0.06815292 0.03615285 0.0932464 -0.101058416 -0.10068518 0.06892064 0.029074617
00000000: 875e ec3c 5d2d 213e 5830 55be 9d09 3abd
00000010: 7c02 003e a69b 0f3e 7733 64be 7af7 d5bc
00000020: 4fa9 153e 1959 9d3d 231d 68be 294a 25bd
00000030: bb0a da3d 35e8 663c ffcb 12be 55b2 c1bd
00000040: d094 d43d b94d a7bc dbca d0bd 73a5 98bd
00000050: cc92 1cbc 8755 75bc d9f7 8abd 40b9 71bd
00000060: 433e 8abb bb83 c9bd 39ef 5cbd f2c9 1b3d
00000070: 157f 7d3c 71b8 b7bd c110 1e3d 1611 613d
00000080: b4fe 4ebd c293 8bbd 0315 143d f8f7 be3d
00000090: b7f7 cebd 0834 cebd 4426 8d3d e42d ee3c

convs.1.root f4 [32, 32]
-0.052394055 0.051807176 -0.009379154 0.030760067 0.021748327 -0.012358496 -0.22424199 0.07186129
-0.002087393 -0.0055509806 0.06783726 -0.027728647 -0.10217508 -0.048617046 -0.0075467927 0.0355981
0.049449593 -0.029689621 -0.094394654 -0.01860986 -0.0014201055 0.0130637465 0.042537726 0.02937346
-0.070885666 -0.019965574 -0.0092717325 0.1060591 -0.06974424 -0.09156834 -0.009890018 0.046786185
-0.015076825 -0.0025157798 0.07899581 -0.060520336 0.042250175 0.0023907921 0.081814066 0.045405008
0.050477657 -0.051578403 0.053918324 0.014250678 -0.08875716 -0.09885816 0.017335827 -0.04299768
-0.004914852 -0.02567171 0.06065783 0.010588223 -0.02208844 0.049486484 0.026647616 -0.10135522
0.049282666 0.026854163 0.079545274 -0.10262591 -0.041655913 -0.061162185 -0.042104285 0.045160946
-0.01111072 -0.022517515 0.07843649 0.014093252 -0.027871167 -0.08886465 0.12734543 0.12302611
0.012839304 -0.030649247 -0.0022805831 -0.057310913 0.03667287 -0.060287204 -0.044712007 -0.03539185
-0.029037114 -0.0938376 -0.04161744 -0.059549265 -0.09294926 0.0017546888 0.025620982 0.06136248
0.055680603 -0.026027387 0.02600049 -0.04383322 0.05480247 -0.056295678 -0.034930598 0.0017397733
0.067580625 0.07874778 -0.040504258 -0.06985993 -0.07086573 0.048134677 -0.032685604 -0.039759304
-0.045241136 0.06122789 0.097789735 0.052204605 0.043449488 -0.033821195 0.0046054376 0.058542296
0.041456964 -0.05641449 0.04984672 0.057449136 -0.03490966 0.013161837 0.1074302 0.018380145
-0.044288438 0.011267016 0.107476555 0.110699445 0.047221575 -0.040095612 0.0038876934 0.046787713
0.05758471 0.10882278 0.05134058 -0.08324769 0.083247475 0.06296388 0.036838815 -0.07128087
-0.027720492 -0.05265112 -0.06843598 -0.01402698 0.122615464 -0.0004009192 -0.06715891 0.018266357
0.03208695 -0.08639903 -0.056899387 -0.020881144 0.09170413 0.07723787 0.023697553 -0.032632094
0.021016069 0.04733059 0.043210853 -0.059414353 -0.030383553 0.0040730224 0.104556486 -0.123584785
0.07295924 0.007954917 0.054944955 0.07272157 0.06650233 0.03214495 -0.04389345 0.10231336
0.086117275 -0.009010734 0.08389028 -0.09833613 -0.058853183 -0.05873842 0.016047794 -0.048112888
-0.11537134 0.045865998 -0.07878567 0.06440995 -0.050288472 0.01056054 0.060294174 -0.04353573
-0.07809852 -0.06577494 0.029751942 0.13948017 -0.081061766 -0.062164135 -0.003132318 -0.018347455
0.017647507 0.018725213 0.037992954 -0.0037919218 -0.071876764 -0.019062124 -0.06296377 -0.09807853
0.08069318 -0.043509044 0.01255127 0.05619801 -0.06619198 0.019642614 -0.057892047 -0.037472587
-0.0061488743 -0.015403288 -0.09232759 -0.020536402 -0.029099826 0.07668681 0.07224282 -0.07602928
-0.00833261 0.0324967 -0.028270625 -0.039558575 -0.04540832 0.066010766 0.008007866 0.0645803
0.014607115 0.05009618 -0.06633976 -0.02139492 -0.052158725 -0.045275386 -0.15264289 -0.07059487
0.012348394 0.048347726 0.023983676 -0.03881544 -0.0030240652 0.09773327 -0.06760082 -0.094315514
-0.005582726 0.034619622 0.05692621 0.06558241 0.06057852 -0.0036693236 -0.020970171 -0.01403435
-0.06894661 0.001678048 0.003667479 0.044521138 0.020735273 0.03823794 -0.028439434 -0.03896715
00000000: 269b 56bd c333 543d 06ab 19bc 89fc fb3c
00000010: 8c29 b23c 4a7b 4abc b19f 65be 032c 933d
00000020: a5cc 08bb 00e5 b5bb 43ee 8a3d 3027 e3bc
00000030: 2b41 d1bd ab22 47bd 164b f7bb 50cf 113d
00000040: a88b 4a3d a637 f3bc fc51 c1bd b573 98bc
00000050: d522 baba 5309 563c 0a3c 2e3d 9ca0 f03c
00000060: 812c 91bd d88e a3bc 77e8 17bc 8335 d93d
00000070: 11d6 8ebd 2f88 bbbd be09 22bc dfa2 3f3d
00000080: ca04 77bc c8df 24bb 8ec8 a13d 2ce4 77bd
00000090: 850e 2d3d d6ae 1c3b 228e a73d 9afa 393d
000000a0: a9c1 4e3d e043 53bd 76d9 5c3d ad7b 693c
000000b0: 50c6 b5bd 2676 cabd dd03 8e3c 561e 30bd
000000c0: c40c a1bb 7a4d d2bc 5874 783d 3a7a 2d3c
000000d0: d1f2 b4bc 57b2 4a3d 1a4c da3c 5393 cfbd
000000e0: 9fdc 493d 43fd db3c a2e8 a23d 882d d2bd
000000f0: 649f 2abd 3385 7abd 8b75 2cbd affa 383d
00000100: bd09 36bc a776 b8bc 4fa3 a03d 62e7 663c
00000110: 1352 e4bc abfe b5bd d766 023e 1df5 fb3d
00000120: f25b 523c 2114 fbbc d675 15bb d9be 6abd
00000130: 4b36 163d b7ef 76bd f023 37bd 0bf7 10bd
00000140: 3edf edbc ed2d c0bd 0c77 2abd eee9 73bd
00000150: 2e5c bebd 96fd e53a 18e3 d13c 3957 7b3d
00000160: 5811 643d 6337 d5bc fbfe d43c 768a 33bd
00000170: 8e78 603d 4c96 66bd 6313 0fbd 1b09 e43a
00000180: b667 8a3d 8446 a13d cbe7 25bd b912 8fbd
00000190: 0d22 91bd de28 453d 57e1 05bd a7da 22bd
000001a0: c54e 39bd 19ca 7a3d fc45 c83d 7fd4 553d
000001b0: 17f8 313d 1888 0abd 36e9 963b 0cca 6f3d
000001c0: c7ce 293d e112 67bd 132c 4c3d c94f 6b3d
000001d0: 6ffd 0ebd bfa4 573c 5d04 dc3d f591 963c
000001e0: cb67 35bd 4a99 383c ab1c dc3d 64b6 e23d
000001f0: 696b 413d 4c3b 24bd acc8 7e3b 79a4 3f3d
00000200: f2dd 6b3d 7ade de3d 804a 523d c47d aabd
00000210: a77d aa3d 35f3 803d 4ce4 163d b4fb 91bd
00000220: 1616 e3bc b3a8 57bd 2a28 8cbd 6bd1 65bc
00000230: d11d fb3d 7732 d2b9 9c8a 89bd 54a3 953c
00000240: 9b6d 033d faf1 b0bd 550f 69bd ef0e abbc
00000250: 60cf bb3d e32e 9e3d 5f21 c23c 3ba9 05bd
00000260: e429 ac3c b9dd 413d ddfd 303d 775c 73bd
00000270: eee6 f8bc fd76 853b b621 d63d 051a fdbd
00000280: a76b 953d 5755 023c f60d 613d 0cef 943d
00000290: 6032 883d 6caa 033d 9ec9 33bd ab89 d13d
000002a0: 415e b03d c2a1 13bc abce ab3d 7464 c9bd
000002b0: 0910 71bd b397 70bd aa76 833c 0512 45bd
000002c0: cf47 ecbd fcdd 3b3d 625a a1bd 5de9 833d
000002d0: 49fb 4dbd 1d06 2d3c 06f7 763d 8652 32bd
000002e0: 1ef2 9fbd 03b5 86bd 58ba f33c e4d3 0e3e
000002f0: b603 a6bd d29f 7ebd 9347 4dbb 674d 96bc
00000300: 8191 903c 9e65 993c 809e 1b3d e481 78bb
00000310: 2034 93bd 2c28 9cbc 26f3 80bd 65dd c8bd
00000320: 7742 a53d 8a36 32bd d8a3 4d3c e22f 663d
00000330: a98f 87bd 8ce9 a03c 3620 6dbd db7c 19bd
00000340: 7f7c c9bb 135e 7cbc 3f16 bdbd f53b a8bc
00000350: c262 eebc f90d 9d3d 0bf4 933d 3db5 9bbd
00000360: 8085 08bc 421b 053d cc97 e7bc 2c08 22bd
00000370: 13fe 39bd a730 873d 6d33 033c ad42 843d
00000380: ae52 6f3c a731 4d3d 24dd 87bd 6644 afbc
00000390: 63a4 55bd af72 39bd 6b4e 1cbe 0b94 90bd
000003a0: eb50 4a3c 4408 463d 6a79 c43c f0fc 1ebd
000003b0: 652f 46bb 6128 c83d 4c72 8abd 7e28 c1bd
000003c0: 4def b6bb 4ecd 0d3d 752b 693d 1250 863d
000003d0: 2f21 783d 0979 70bb a3c9 abbc 55f0 65bc
000003e0: e133 8dbd f3f1 db3a 165a 703b cc5b 363d
000003f0: 05dd a93c 639f 1c3d d1f9 e8bc 059c 1fbd

convs.1.bias f4 [32]
-0.047854446 -0.06480615 -0.023268776 -0.054759298 -0.03738561 -0.101388134 -0.0819094 0.02641389
0.0074641346 -0.014682342 0.048457485 -0.08752908 -0.09137981 0.0702179 0.11264088 0.09896084
-0.036935873 0.08316668 0.07163737 0.046123974 -0.040249046 -0.06668717 -0.0042231875 -0.07709462
-0.0642038 0.088934 0.0110710915 -0.09658508 -0.09535332 0.025334261 -0.05646564 0.05074499
00000000: 0603 44bd 16b9 84bd 299e bebc 494b 60bd
00000010: a721 19bd 95a4 cfbd 1ec0 a7bd f161 d83c
00000020: b395 f43b 358e 70bc 5b7b 463d 7242 b3bd
00000030: 5625 bbbd 67ce 8f3d 43b0 e63d fbab ca3d
00000040: 124a 17bd 4b53 aa3d 9db6 923d 7eec 3c3d
00000050: 2fdc 24bd 4893 88bd aa62 8abb c9e3 9dbd
00000060: 487d 83bd 0723 b63d 8663 353c 66ce c5bd
00000070: 9a48 c3bd cc89 cf3c 8448 67bd fbd9 4f3d

convs.2.basis f4 [4, 32, 32]
0.037603952 -0.045365844 -0.009744008 0.029836703 -0.06369114 -0.016204143 0.046843152 0.0015154815
0.006650894 0.019380106 -0.07021385 -0.013462828 0.036076147 0.0142181795 0.054109383 0.005395606
0.0048900656 0.06807602 -0.065239504 0.037744336 -0.029421708 -0.016190903 0.06327268 -0.044179555
-0.02636625 -0.06725016 0.05427748 -0.014889864 -0.056847036 0.011412857 -0.01139653 -0.08187701
-0.006653786 0.100441135 0.026253851 -0.03868268 -0.030850705 -0.027494825 -0.05002754 0.05529681
0.067733355 -0.014551372 0.045259558 -0.030022638 0.007923324 -0.058670428 -0.0005514506 0.05262971
-0.04049129 0.003367179 -0.061951503 0.078954816 0.055523813 0.036457144 -0.006680269 0.036893323
-0.009954312 -0.0031530983 -0.04469419 0.064467706 0.03342337 -0.027247787 -0.0297687 0.01929195
-0.030337268 0.004502881 -0.08548165 0.044353805 -0.021897355 -0.059999824 0.020491427 0.02540224
-0.04564796 0.07274509 0.0133639285 0.050972234 -0.025782865 0.05715558 0.08137391 -0.061374515
0.008879597 0.067423746 0.04855914 -0.0039980686 0.049973503 0.09171918 0.04167033 0.03961024
0.046742443 0.005976584 -0.07195499 0.010004209 0.01834603 0.026806585 -0.008391659 -0.004002742
-0.03966583 -0.061841644 0.05096688 0.04968007 0.05067723 0.006807806 0.06631564 0.08119954
-0.08662467 -0.07543539 0.0022309734 0.06565442 0.0027847502 -0.073033474 -0.05776152 0.022257676
-0.02741647 -0.03590382 0.068734825 -0.022854954 -0.016498562 -0.08397525 -0.041513298 0.054181606
-0.049798116 -0.029142495 -0.035382327 -0.00048210274 -0.008256347 -0.014591096 -0.06115217 0.014086806
0.069877565 0.044801068 -0.07380846 -0.040484466 0.024456497 -0.06526229 -0.069651306 0.061473943
-0.062831566 -0.048789546 -0.062009085 -0.059612904 -0.004568846 -0.044508792 0.011314513 0.022174858
0.041665602 0.02326418 -0.06001158 0.065778196 -0.0010060701 0.09472952 -0.014493315 0.019409856
-0.035671156 -0.0038907845 0.005830061 -0.057087597 0.015144674 -0.013922666 -0.030017963 -0.045673773
0.009825482 -0.0097306855 0.016147383 -0.007831685 -0.047919918 0.042214837 0.05895018 -0.02083471
0.015711112 0.05831224 0.005601259 0.00054242206 -0.052197102 0.00050958333 0.088212475 0.07716596
-0.027614933 0.07296552 0.07704628 0.013851306 0.0069078896 -0.042754646 -0.030078312 0.03388652
0.037853424 0.018873265 0.043190144 0.06142048 -0.058544643 0.05956298 0.027236393 0.0039749276
-0.0377079 0.011274302 -0.08840427 0.081318185 0.08537498 -0.0042827544 -0.0036307548 -0.04220221
-0.005493738 -0.015023426 -0.059919525 0.043963857 -0.014052799 -0.09017411 0.007120878 0.0099546425
0.053632516 0.046147782 -0.018427104 0.022030216 0.016911998 0.00020175845 0.08004903 -0.01818185
0.06038361 0.059497885 -0.01898459 -0.04891296 -0.06898725 -0.06466882 0.0511153 -0.05926791
0.048077952 0.041299526 0.04169077 0.033414513 0.011170547 -0.009376463 0.06359329 0.010342391
-0.065942615 -0.0016853531 0.0107088685 0.08735446 0.008568371 -0.021707445 -0.016217662 -0.042010456
-0.10207995 0.054204516 -0.023614347 -0.050249994 -0.011372199 0.030813577 -0.020776944 -0.023143644
0.03402922 0.04268349 -0.035733525 0.036205932 0.08579917 0.021317644 -0.048571143 -0.015023549
00000000: 9a06 1a3d 89d1 39bd 55a5 1fbc 1a6c f43c
00000010: 8070 82bd 8dbe 84bc 9bde 3f3d 1fa3 c63a
00000020: beef d93b 07c3 9e3c 47cc 8fbd 3193 5cbc
00000030: 95c4 133d 5ef3 683c cda1 5d3d a0cd b03b
00000040: d83c a03b 716b 8b3d 4a9c 85bd ce99 1a3d
00000050: cb05 f1bc c9a2 84bc 1b95 813d 9ff5 34bd
00000060: 09fe d7bc 74ba 89bd 1052 5e3d 9ef4 73bc
00000070: 70d8 68bd fefc 3a3c 83b8 3abc 22af a7bd
00000080: 0108 dabb 15b4 cd3d 5112 d73c bb71 1ebd
00000090: 9eba fcbc d43c e1bc aee9 4cbd e87e 623d
000000a0: c9b7 8a3d e168 6ebc 1662 393d 09f2 f5bc
000000b0: d4d0 013c 6750 70bd 398f 10ba 4092 573d
000000c0: 32da 25bd e4ab 5c3b dcc0 7dbd 10b3 a13d
000000d0: f06c 633d 1654 153d 28e6 dabb 741d 173d
000000e0: 6917 23bc 36a4 4ebb 4111 37bd a507 843d
000000f0: f2e6 083d c036 dfbc 7ddd f3bc 270a 9e3c
00000100: dd85 f8bc e78c 933b 0111 afbd 56ac 353d
00000110: 1562 b3bc 60c2 75bd a3dd a73c 5c18 d03c
00000120: 5bf9 3abd 61fb 943d 61f4 5a3c 43c8 503d
00000130: 9636 d3bc f81b 6a3d 5da7 a63d d863 7bbd
00000140: bb7b 113c 7615 8a3d f3e5 463d 3b02 83bb
00000150: 04b1 4c3d 44d7 bb3d 82ae 2a3d 593e 223d
00000160: 0175 3f3d 38d7 c33b 235d 93bd b2e8 233c
00000170: 6a4a 963c 7c99 db3c 2b7d 09bc 6f29 83bb
00000180: a378 22bd aa4d 7dbd a6c2 503d 547d 4b3d
00000190: ed92 4f3d 0414 df3b 7fd0 873d f24b a63d
000001a0: 4668 b1bd df7d 9abd 8635 123b d375 863d
000001b0: 5b80 363b 9392 95bd 5897 6cbd bb55 b63c
000001c0: 8198 e0bc e20f 13bd d8c4 8c3d 503a bbbc
000001d0: fe27 87bc 37fb abbd d909 2abd 88ed 5d3d
000001e0: 1cf9 4bbd 3ebc eebc 0fed 10bd bcc2 fcb9
000001f0: a145 07bc 7e0f 6fbc b37a 7abd 59cc 663c
00000200: f81b 8f3d 5381 373d e428 97bd 0ad3 25bd
00000210: fe58 c83c 3ca8 85bd 58a5 8ebd 1acc 7b3d
00000220: d6ad 80bd 8cd7 47bd 3dfd 7dbd a92c 74bd
00000230: 42b6 95bb da4e 36bd 8260 393c 0ca8 b53c
00000240: 8da9 2a3d 8694 be3c b4ce 75bd b8b6 863d
00000250: 1cde 83ba 8d01 c23d 5e75 6dbc 6b01 9f3c
00000260: eb1b 12bd 88fc 7ebb 190a bf3b afd4 69bd
00000270: 5e21 783c e51b 64bc 3be8 f5bc 6c14 3bbd
00000280: 0ffb 203c 746d 1fbc 8447 843c 7850 00bc
00000290: ad47 44bd 77e9 2c3d be75 713d 8ead aabc
000002a0: 97b4 803c d1d8 6e3d c48a b73b 5431 0e3a
000002b0: a1cc 55bd 8f95 053a bea8 b43d 3009 9e3d
000002c0: b638 e2bc f26e 953d 71ca 9d3d 97f0 623c
000002d0: 945b e23b 7f1f 2fbd cb66 f6bc 97cc 0a3d
000002e0: 310c 1b3d 1b9c 9a3c 26e8 303d 0b94 7b3d
000002f0: 82cc 6fbd 50f8 733d db1e df3c 1c40 823b
00000300: 9973 1abd dab7 383c 4c0d b5bd 268a a63d
00000310: 14d9 ae3d 5956 8cbb f5f1 6dbb 39dc 2cbd
00000320: d104 b4bb d124 76bc 2d6e 75bd 7213 343d
00000330: b63d 66bc 34ad b8bd 4156 e93b cc18 233c
00000340: c5ad 5b3d 7505 3d3d 70f4 96bc b678 b43c
00000350: 088b 8a3c 1f8f 5339 bff0 a33d 1af2 94bc
00000360: ce54 773d 0eb4 733d 9285 9bbc f558 48bd
00000370: 3049 8dbd 1671 84bd 475e 513d e8c2 72bd
00000380: 63ed 443d b129 293d f1c3 2a3d a8dd 083d
00000390: ac04 373c bc9f 19bc 333d 823d 2273 293c
000003a0: ec0c 87bd 11e7 dcba 4074 2f3c e5e6 b23d
000003b0: 5a62 0c3c d0d3 b1bc e7da 84bc 2813 2cbd
000003c0: 4b0f d1bd 8e05 5e3d e072 c1bc f0d2 4dbd
000003d0: 7652 3abc c16c fc3c 6934 aabc bd97 bdbc
000003e0: 3962 0b3d e2d4 2e3d 515d 12bd ac4c 143d
000003f0: 7ab7 af3d 57a2 ae3c 89f2 46bd 5525 76bc

convs.2.att f4 [10, 4]
0.033635516 0.012675884 0.033547696 -0.0041459505 0.02693061 0.012066138 0.038106155 0.0259355
0.012924042 0.013475648 0.028833773 0.017572535 0.0027660122 0.008406095 -0.002002545 0.006294557
-0.0007540396 -0.01728378 -0.0045650364 -0.025795627 -0.0011515458 -0.006912425 -0.016705131 -0.01588542
0.0012141906 0.014412064 0.01303827 0.01113324 -0.0068480126 -0.0008689887 -0.005255207 -0.0034291875
-0.0016369803 0.0024983338 0.008592047 -0.004646873 0.0001373551 0.0022187936 0.00993699 -0.008949937
00000000: 65c5 093d 83ae 4f3c 4f69 093d c1da 87bb
00000010: 959d dc3c 0db1 453c 3315 1c3d b076 d43c
00000020: 5cbf 533c f7c8 5c3c ce34 ec3c 47f4 8f3c
00000030: fc45 353b b8b9 093c 213d 03bb 9242 ce3b
00000040: beaa 45ba b796 8dbc 4d96 95bb 5a51 d3bc
00000050: 77ef 96ba a081 e2bb 33d9 88bc 2422 82bc
00000060: 7a25 9f3a 9420 6c3c 789e 553c 3168 363c
00000070: 4b65 e0bb d8cc 63ba df33 acbb 38bc 60bb
00000080: f28f d6ba 16bb 233b a8c5 0c3c cc44 98bb
00000090: fb06 1039 2e69 113b c2ce 223c c2a2 12bc

convs.2.root f4 [32, 32]
-0.04742844 -0.038469426 0.042499408 -0.020725558 -0.008478443 -0.07095766 -0.05369733 -0.033520523
0.038672753 -0.06324986 0.0046312017 0.013112762 -0.0329806 0.09202018 -0.067008294 -0.061295576
0.01386514 -0.031468756 0.036443423 0.0021437341 -0.009699639 -0.006996348 -0.04351889 0.05104734
-0.059258476 -0.03055892 0.030543823 0.008081571 0.024357248 0.029782167 -0.03917408 -0.027772522
-0.014713401 -0.010425834 -0.08057487 0.05754452 0.005502559 0.08474771 -0.03745183 -0.06320185
0.038681727 -0.05269151 -0.09493889 0.06629359 0.08209905 0.065679066 0.0346805 0.05513544
0.08036272 -0.012168968 -0.060039412 -0.05305302 -0.045552723 -0.03875824 -0.03169619 -0.050757736
-0.10362797 -0.053649146 0.093040764 0.012271046 -0.067966506 0.015565096 -0.059045788 -0.06398665
-0.035686225 -0.1208853 0.10703386 -0.06063572 -0.09083706 -0.113211 -0.04072217 -0.046771895
0.040314242 -0.07323987 -0.013723689 -0.030997265 -0.058657505 -0.08782108 0.00086881936 -0.0029379628
-0.029707817 0.03518644 0.01513192 -0.07500734 -0.123704806 -0.007392918 -0.02223026 0.015221213
0.0007052757 0.025932683 0.06312856 0.047542088 0.034922417 0.006942187 -0.08687791 -0.05607029
0.020365309 -0.038926404 -0.044385735 -0.02398077 0.042123005 -0.09277683 -0.01180349 -0.03079968
-0.023913104 -0.016734421 0.03210534 0.03420093 -0.08666996 -0.03245928 -0.01992767 -0.020794796
-0.099545315 0.030428689 0.013740242 -0.03860806 0.034587737 -0.07292644 -0.07589547 -0.052906413
0.032109864 0.010095239 0.035019837 -0.028576512 -0.010165891 0.060225125 -0.051208664 0.044994198
0.034251418 0.06535134 0.07956251 0.053881798 0.0025898211 -0.061421115 0.038503632 0.060322326
-0.051179145 -0.016872425 -0.03904608 0.061741665 0.08732152 -0.0077280654 -0.015451878 0.032725792
0.021988066 0.097467594 0.07765456 -0.0678606 0.041340053 -0.052226186 0.07485435 -0.007997019
-0.019343983 -0.054784004 0.049813822 0.05062455 -0.046030626 0.004869898 0.036188588 -0.07195738
-0.04844954 -0.11000362 -0.06699162 0.04261469 0.019706402 0.022874089 -0.07999104 -0.06128682
0.029756866 0.024235383 0.05041362 -0.0018366764 0.007576362 -0.03341512 -0.018510899 -0.010502942
0.027206844 0.02691087 0.022493083 -0.06701953 -0.05526739 -0.07095005 0.0132210255 -0.06253723
-0.035637435 -0.02240345 0.096738555 -0.045801494 0.03019654 -0.00018668451 0.052380152 0.0009463169
0.016240906 0.14079104 -0.11962771 0.13003895 0.039482456 0.10607128 -0.021787718 0.0093330415
0.050562803 0.029304745 -0.15609498 -0.13745093 0.035628416 -0.013073938 -0.036659077 -0.042466667
0.116764225 0.04533296 -0.033699233 0.023955425 0.08457582 0.19770603 0.03544551 0.028458577
0.18769902 -0.06253556 -0.053753536 -0.032829564 -0.012273219 -0.020791143 0.083403006 0.06624489
-0.018523986 -0.04636582 0.046353415 0.029337207 0.056305103 -0.08169615 -0.030166673 -0.031986717
0.09472803 0.008223777 -0.00907143 -0.0031607598 -0.011805529 -0.0064361887 -0.050339486 -0.035458
-0.04911336 0.03532726 0.020241117 0.03742043 0.0132620325 -0.094937705 -0.06542223 0.039539028
-0.067496374 0.031205026 -0.025257599 -0.01741143 0.01185957 0.005011441 -0.0119046625 0.00996316
00000000: 5344 42bd 1e92 1dbd dc13 2e3d a5c8 a9bc
00000010: 2be9 0abc 4052 91bd bbf1 5bbd d14c 09bd
00000020: 5267 1e3d 2589 81bd 56c1 973b e9d6 563c
00000030: aa16 07bd 1375 bc3d a53b 89bd 1211 7bbd
00000040: 9d2a 633c 62e5 00bd b345 153d e47d 0c3b
00000050: 3ceb 1ebc 9f41 e5bb dd40 32bd 0417 513d
00000060: 04b9 72bd b356 fabc 0a37 fa3c 9168 043c
00000070: da88 c73c bbf9 f33c 0075 20bd 3383 e3bc
00000080: 7a10 71bc 1ed1 2abc 7004 a5bd cdb3 6b3d
00000090: cf4e b43b 3590 ad3d 1767 19bd f96f 81bd
000000a0: bb70 1e3d 0ed3 57bd 526f c2bd efc4 873d
000000b0: 8c23 a83d bf82 863d 240d 0e3d b3d5 613d
000000c0: 3695 a43d 5a60 47bc e3eb 75bd 204e 59bd
000000d0: 7e95 3abd f6c0 1ebd ddd3 01bd 58e7 4fbd
000000e0: e73a d4bd 35bf 5bbd 288c be3d 7f0c 493c
000000f0: 0632 8bbd bf04 7f3c ffd9 71bd 6f0b 83bd
00000100: b82b 12bd b692 f7bd 9234 db3d 295d 78bd
00000110: c808 babd 2bdb e7bd 4acc 26bd e393 3fbd
00000120: 8c20 253d c9fe 95bd 53d9 60bc faed fdbc
00000130: da42 70bd 8adb b3bd 7bc1 633a d68a 40bb
00000140: cf5d f3bc a81f 103d dfeb 773c 739d 99bd
00000150: f258 fdbd 4b40 f2bb 3c1c b6bc 6562 793c
00000160: 40e2 383a c770 d43c 8c49 813d 7ebb 423d
00000170: cf0a 0f3d 497b e33b 0ced b1bd f6a9 65bd
00000180: 26d5 a63c 4b71 1fbd d1cd 35bd 5273 c4bc
00000190: 2c89 2c3d c701 bebd 6d63 41bc 9c4f fcbc
000001a0: 6ae5 c3bc a016 89bc e480 033d 4616 0c3d
000001b0: 0580 b1bd 06f4 04bd 5a3f a3bc d959 aabc
000001c0: 6ade cbbd 9645 f93c c11e 613c 7c23 1ebd
000001d0: dfab 0d3d 755a 95bd 166f 9bbd 65b4 58bd
000001e0: a285 033d 8066 253c f670 0f3d 4a19 eabc
000001f0: d68e 26bc 9fae 763d 2dc0 51bd d64b 383d
00000200: 374b 0c3d ecd6 853d abf1 a23d 29b3 5c3d
00000210: fdb9 293b b594 7bbd fcb5 1d3d 8b14 773d
00000220: 39a1 51bd 0a38 8abc c8ee 1fbd d4e4 7c3d
00000230: a0d5 b23d b63b fdbb e029 7dbc 7b0b 063d
00000240: 5120 b43c 179d c73d 5b09 9f3d 80fa 8abd
00000250: 3054 293d 20eb 55bd 3d4d 993d ee05 03bc
00000260: 4677 9ebc 3165 60bd 9409 4c3d b05b 4f3d
00000270: 9c8a 3cbd aa93 9f3b 7c3a 143d 645e 93bd
00000280: 0673 46bd 9449 e1bd e732 89bd be8c 2e3d
00000290: 526f a13c 7162 bb3c 58d2 a3bd e307 7bbd
000002a0: acc4 f33c 4889 c63c 837e 4e3d a2bc f0ba
000002b0: 2243 f83b 4bde 08bd 2ba4 97bc 8814 2cbc
000002c0: e3e0 de3c 2f74 dc3c 6a43 b83c 8941 89bd
000002d0: 0f60 62bd 434e 91bd 009d 583c 8513 80bd
000002e0: 8ff8 11bd 7187 b7bc dd1e c63d 599a 3bbd
000002f0: bc5e f73c bec0 43b9 928c 563d 4112 783a
00000300: a60b 853c 872b 103e 5fff f4bd ee28 053e
00000310: 5bb8 213d e63b d93d 287c b2bc 9de9 183c
00000320: f11a 4f3d 8110 f03c 5dd7 1fbe f0bf 0cbe
00000330: 1aef 113d 1234 56bc d427 16bd 87f1 2dbd
00000340: 1522 ef3d 0eaf 393d 3508 0abd 2b3e c43c
00000350: 1636 ad3d 7373 4a3e 502f 113d f621 e93c
00000360: 2c34 403e a512 80bd ab2c 5cbd 4b78 06bd
00000370: 9d15 49bc 3052 aabc 32cf aa3d 67ab 873d
00000380: 9dbf 97bc 16ea 3dbd 14dd 3d3d 9554 f03c
00000390: 2ea0 663d 5050 a7bd 1920 f7bc 8104 03bd
000003a0: c500 c23d 05bd 063c 56a0 14bc c024 4fbb
000003b0: fa6b 41bc aae6 d2bb c730 4ebd 683c 11bd
000003c0: 172b 49bd 51b3 103d b3d0 a53c 2a46 193d
000003d0: ff48 593c b36e c2bd 17fc 85bd adf3 213d
000003e0: 8a3b 8abd afa1 ff3c 06e9 cebc 6aa2 8ebc
000003f0: a44e 423c 0437 a43b c60b 43bc 863c 233c

convs.2.bias f4 [32]
0.010158939 -0.055339284 0.05459984 -0.102224775 -0.04489051 -0.102382354 0.009214165 -0.08668088
-0.07490842 -0.04157262 0.09200076 0.090119645 -0.061585344 0.040437456 0.023265135 0.06954442
-0.07244118 -0.06887669 0.05927241 -0.09320115 -0.085921004 -0.10629522 -0.0538125 -0.043172374
-0.061722726 0.06700173 0.03707507 0.06439764 0.034025222 0.030653544 -0.06715597 0.0033265608
00000000: ae71 263c 72ab 62bd 15a4 5f3d 395b d1bd
00000010: 1ddf 37bd d7ad d1bd 02f7 163c bf85 b1bd
00000020: 9669 99bd 0d48 2abd e56a bc3d a690 b83d
00000030: ea40 7cbd bfa1 253d 8696 be3c 4e6d 8e3d
00000040: 0b5c 94bd 390f 8dbd a0c7 723d 3fe0 bebd
00000050: 5af7 afbd 4fb1 d9bd 7f6a 5cbd 84d5 30bd
00000060: f8d0 7cbd 3438 893d 07dc 173d e9e2 833d
00000070: 085e 0b3d 241d fb3c 1289 89bd 6e02 5a3b

convs.3.basis f4 [4, 32, 32]
-0.042855203 0.08169213 -0.051946253 0.053954627 0.014713818 -0.030975595 0.07275157 0.04596522
-0.014622003 -0.056502182 -0.07340521 0.10058196 -0.08258388 0.032643124 0.040534012 -0.053279437
-0.017063601 -0.0002555612 0.002473122 0.018229745 0.023213722 0.042068508 0.10229171 0.047606714
0.09380864 -0.013753403 -0.10127189 -0.11301977 0.026085962 -0.10001853 0.03274766 -0.008344051
0.081791 -0.075673744 0.05917546 0.06579192 0.03106236 0.03218117 -0.084272556 0.016819103
0.12911607 0.03490757 -0.0177381 0.052040808 -0.010075322 0.07921216 -0.06883342 0.06912903
-0.031267006 -0.014123992 0.022267338 0.0016668553 0.08473212 -0.07538484 -0.0254421 -0.044987544
-0.05880344 0.08854012 -0.05679073 0.0686557 -0.006727159 0.08365375 0.06687384 -0.08225457
-0.03156188 -0.03701716 0.021081867 -0.04650411 -0.054266375 0.06774173 0.085005395 -0.017870927
-0.10726731 -0.06539439 -0.0479678 0.04074226 -0.012424012 -0.002111535 0.09305049 0.05368935
-0.034217652 -0.034577277 0.0013868129 -0.027884178 -0.040760417 0.08224289 0.015749682 0.04595573
-0.0063000917 0.04563 -0.046877768 -0.012255815 0.053166945 -0.10870827 0.049422342 0.001626088
-0.017133534 0.052436035 0.032834444 0.06572896 0.026243731 0.004452351 -0.06176922 -0.01056609
-0.011598971 0.06665922 -0.009953827 -0.0179854 -0.07255836 0.051029455 -0.010112596 -0.08368384
-0.01733291 0.05372629 -0.04921792 0.07225693 -0.0840882 -0.06281139 0.011669232 -0.057832453
0.042279698 0.034175448 -0.059258495 -0.044581074 0.09339722 0.05020723 0.035822075 -0.1042513
-0.03770894 -0.002749646 -0.01062468 -0.049805373 0.02717183 -0.01152733 -0.06396771 -0.054061696
0.072574444 -0.0034637277 0.052767295 -0.000109281355 -0.03430871 -0.022439733 -0.06934398 -0.044157892
-0.04536041 0.04734594 -0.018069154 -0.03147871 -0.027853463 -0.047173224 -0.03494533 0.06644576
-0.057942834 -0.06877463 -0.060150232 -0.014232182 0.022631252 0.027146887 0.0050708707 -0.084270105
-0.006381582 -0.06408354 -0.06962695 -0.013386698 0.032519802 -0.003689046 0.032390367 0.014894156
0.078987226 -0.016308624 0.038977474 -0.0697976 0.03788471 0.061704367 0.039913733 -0.03513
0.000551269 -0.014434797 -0.06130437 -0.023222957 -0.0059244176 0.03328694 -0.007661434 -0.0063283737
0.044188336 -0.028869446 -0.03579191 -0.021352537 0.0018408678 -0.007218926 0.06636014 -0.10418814
-0.060599696 -0.014998668 0.038569316 -0.05204684 0.024515085 0.026899034 -0.0775414 0.054691844
-0.058124088 0.0260942 -0.028375236 0.024256837 0.020912785 -0.04818736 0.089818664 0.037304725
0.043999553 -0.028528092 0.0035710537 0.039837237 0.010293505 0.0044047814 0.011057248 -0.0716538
-0.050880987 -0.017916553 0.025514742 -0.08516849 -0.05424716 -0.04177766 -0.035188615 0.07192597
0.067477725 -0.04851239 0.018030869 0.024953743 0.01353671 -0.008617708 -0.040862396 -0.016282747
0.107799456 -0.016755264 0.0013697292 0.03191833 0.004293797 0.029210158 0.05237868 0.012321238
0.06098075 0.07407445 0.07277726 -0.03405682 0.025221635 0.058080498 0.07054847 0.06387689
-0.023283195 0.08554049 0.022762654 0.0026603797 0.045498315 0.0028990912 0.1019296 -0.057639144
00000000: f088 2fbd 344e a73d 98c5 54bd 87ff 5c3d
00000010: 3a12 713c 88c0 fdbc c6fe 943d 0746 3c3d
00000020: 2091 6fbc d56e 67bd 7955 96bd eafd cd3d
00000030: bd21 a9bd ccb4 053d fe06 263d 8a3b 5abd
00000040: f7c8 8bbc d8fc 85b9 1a14 223b 8c56 953c
00000050: b42a be3c 0750 2c3d 517e d13d 42ff 423d
00000060: bf1e c03d f455 61bc a367 cfbd e976 e7bd
00000070: 3ab2 d53c 84d6 ccbd 6922 063d 7db5 08bc
00000080: 0a82 a73d d6fa 9abd f861 723d eabd 863d
00000090: 7e76 fe3c 67d0 033d 1797 acbd 37c8 893c
000000a0: 0137 043e 3dfb 0e3d 7e4f 91bc be28 553d
000000b0: f712 25bc fc39 a23d 89f8 8cbd 8593 8d3d
000000c0: d511 00bd 5168 67bc fe69 b63c 627a da3a
000000d0: 0988 ad3d 5e63 9abd f36b d0bc dc44 38bd
000000e0: e0db 70bd 8654 b53d 669d 68bd 5c9b 8c3d
000000f0: 806f dcbb a852 ab3d 27f5 883d 1675 a8bd
00000100: 0847 01bd 4e9f 17bd e1b3 ac3c 187b 3ebd
00000110: 6b46 5ebd 2dbc 8a3d 4f17 ae3d 0d66 92bc
00000120: f7ae dbbd 7eed 85bd e279 44bd 5be1 263d
00000130: 158e 4bbc ae61 0abb 4191 be3d 5de9 5b3d
00000140: cf27 0cbd e7a0 0dbd b8c5 b53a 5c6d e4bc
00000150: 65f4 26bd f66e a83d 7a05 813c 133c 3c3d
00000160: 0071 cebb 86e6 3a3d e702 40bd 9dcc 48bc
00000170: 95c5 593d 71a2 debd 156f 4a3d 7622 d53a
00000180: a05b 8cbc 2bc7 563d 697d 063d e89c 863d
00000190: 18fd d63c 07e5 913b b901 7dbd 651d 2dbc
000001a0: 9c09 3ebc a184 883d 6015 23bc 1e56 93bc
000001b0: 7a99 94bd 4304 513d 4daf 25bc 6f62 abbd
000001c0: bffd 8dbc 1910 5c3d bb98 49bd 71fb 933d
000001d0: 6f36 acbd 42a3 80bd 4e30 3f3c b9e1 6cbd
000001e0: 7a2d 2d3d 8efb 0b3d 09b9 72bd a59a 36bd
000001f0: 0b47 bf3d 19a6 4d3d 2bba 123d b581 d5bd
00000200: b174 1abd 6833 34bb 2313 2ebc b800 4cbd
00000210: 7597 de3c 20dd 3cbc 8101 83bd cc6f 5dbd
00000220: e9a1 943d b5ff 62bb 8522 583d fb2d e5b8
00000230: 4a87 0cbd 88d3 b7bc 3704 8ebd e8de 34bd
00000240: d6cb 39bd d1ed 413d c305 94bc d2ef 00bd
00000250: f22c e4bc b638 41bd d622 0fbd b714 883d
00000260: 7755 6dbd b7d9 8cbd 1760 76bd 192e 69bc
00000270: 2d65 b93c 2663 de3c 8c29 a63b ce95 acbd
00000280: 971c d1bb 3b3e 83bd 9398 8ebd e253 5bbc
00000290: 7c33 053d ecc3 71bb c3ab 043d 9e06 743c
000002a0: 0ec4 a13d aa99 85bc d8a6 1f3d 0bf2 8ebd
000002b0: ff2c 1b3d b8bd 7c3d 957c 233d 7ae4 0fbd
000002c0: 0983 103a ed7f 6cbc 4b1a 7bbd 123e bebc
000002d0: 9e21 c2bb e357 083d c40c fbbb 3f5e cfbb
000002e0: d4fe 343d 9e7f ecbc 8a9a 12bd 84eb aebc
000002f0: 4649 f13a be8c ecbb d3e7 873d 9760 d5bd
00000300: 6337 78bd f9bc 75bc dcfa 1d3d 112f 55bd
00000310: dcd3 c83c 5d5b dc3c 07ce 9ebd 8e04 603d
00000320: 8613 6ebd 81c3 d53c 2f73 e8bc 46b6 c63c
00000330: 4a51 ab3c 1c60 45bd d9f2 b73d d7cc 183d
00000340: e038 343d bfb3 e9bc 5708 6a3b 5f2c 233d
00000350: 17a6 283c fc55 903b 7629 353c 3abf 92bd
00000360: 9568 50bd bcc5 92bc 4b04 d13c d16c aebd
00000370: 4532 5ebd 0d1f 2bbd f021 10bd ec4d 933d
00000380: c331 8a3d eeb4 46bd 79b5 933c cb6b cc3c
00000390: 14c9 5d3c 4a31 0dbc 545f 27bd 6563 85bc
000003a0: f6c5 dc3d 5642 89bc 7c88 b33a cbbc 023d
000003b0: fbb2 8c3b 244a ef3c 078b 563d 05df 493c
000003c0: f3c6 793d 58b4 973d 3e0c 953d 2a7f 0bbd
000003d0: 9a9d ce3c d1e5 6d3d b77b 903d e3d1 823d
000003e0: 66bc bebc da2f af3d bf78 ba3c c459 2e3b
000003f0: 715c 3a3d aefe 3d3b 77c0 d03d 0617 6cbd

convs.3.att f4 [10, 4]
-0.020125357 0.0019515547 0.04009714 0.07733294 -0.024128148 -0.004154976 0.027919566 0.084769666
-0.011666021 -0.0018022921 0.0102116885 0.052049704 -0.001403554 0.000978454 -0.017762374 0.02240681
0.0040679486 -0.0024485262 4.2723626e-05 -0.005747677 0.01624372 -0.0045278776 -0.032420542 -0.038154703
0.009558565 0.005896651 -0.0010027685 -0.0065584676 -0.009286231 0.0051195426 0.028386556 0.016120201
0.0056752367 0.0036826513 0.0070899664 -0.0025758164 -0.004547321 -0.0059303977 -0.013388236 0.045854308
00000000: efdd a4bc 4fcb ff3a e63c 243d bc60 9e3d
00000010: 65a8 c5bc 7726 88bb 93b7 e43c b89b ad3d
00000020: d722 3fbc e33a ecba ed4e 273c 1232 553d
00000030: 75f7 b7ba 783f 803a 6682 91bc 7d8e b73c
00000040: 6d4c 853b 7477 20bb 2532 3338 0257 bcbb
00000050: 8d11 853c 975e 94bb 67cb 04bd 1b48 1cbd
00000060: 879b 1c3c b238 c13b 546f 83ba 6ae8 d6bb
00000070: 4725 18bc d6c1 a73b ec8a e83c 830e 843c
00000080: 56f7 b93b a358 713b f352 e83b 07cf 28bb
00000090: b101 95bb c853 c2bb 555a 5bbc bad1 3b3d
