results/flixster_testmode/model_checkpoint1.pth (torch_old, 199981 bytes, 19 tensors)

convs.0.basis f4 [4, 4, 32]
0.19455653 -0.24491952 0.1994235 0.035339642 0.11167117 0.2365391 -0.074892625 -0.21824123
0.0575127 -0.19429134 0.19245516 0.026463013 -0.1647239 0.036412925 0.06655574 -0.12184482
0.113720134 0.028855484 -0.19034086 0.083172984 0.06895825 0.10743828 -0.03906816 -0.20505606
-0.0490866 -0.046527985 -0.2284009 -0.08804803 0.1253862 0.23266347 -0.18683448 -0.074599825
-0.10917926 -0.08130379 -0.09390314 -0.21581462 -0.04428088 0.22171211 -0.12901206 -0.1285569
-0.17751059 -0.14130467 0.18619256 -0.18245333 -0.17852825 0.068171635 -0.10697374 -0.04255914
-0.24123184 -0.18947785 0.18274115 -0.17420278 -0.17984153 0.12694122 0.03315887 -0.0018863891
0.22320719 0.049097408 0.006831652 -0.15783715 0.14340468 0.008646922 -0.1274343 -0.035705905
-0.084720075 -0.10341135 0.25710326 0.18779984 -0.14687303 -0.1488297 0.03766023 -0.1633026
-0.10153511 -0.15866143 -0.07779891 0.046565715 0.20585752 0.11947151 0.08714661 -0.22799718
0.08096816 -0.06279445 0.1554979 0.19185671 0.06867873 0.14055856 -0.26073483 -0.20144242
-0.26387495 -0.18996696 -0.13035637 0.0050921356 -0.13134994 0.06542764 -0.01829955 0.08736227
0.17894773 0.1508925 0.09001404 -0.14016691 -0.21810026 -0.25780788 -0.18466574 -0.09864334
0.21295291 0.2917578 0.2794778 0.19066945 -0.0558478 -0.052165896 -0.077779405 0.020936383
-0.27221134 -0.14943752 -0.12506881 -0.039186016 0.057636328 -0.26095653 -0.18389703 0.08888724
-0.20360072 0.14725481 -0.13549785 -0.13364725 -0.085416876 0.21468042 0.08816133 -0.025506774
0.05957799 -0.033599764 0.017203417 0.06728081 0.15687378 0.23101947 0.13067366 -0.101134926
0.012922505 0.028971119 -0.10671751 0.016057502 -0.13590024 -0.03707269 0.08534313 -0.14391541
-0.1009494 -0.07502582 0.03736685 -0.007867798 0.077757984 0.08572835 0.17531803 -0.19311832
0.055822816 -0.16837631 0.19848545 0.10517512 -0.02650644 0.13433963 -0.10063649 -0.19293135
0.084455974 0.11644043 -0.067405455 0.09871758 0.14758925 0.21516281 -0.049759537 0.010896116
0.17326023 0.022646977 0.018671017 -0.22439091 -0.1787989 -0.059372086 0.10200944 0.045565095
-0.14378135 -0.21327488 0.17308027 0.13584164 -0.12013434 -0.13303979 0.075848974 -0.10154915
0.20697092 -0.1055804 -0.008001923 -0.08805031 0.045772567 0.17806134 0.120058626 0.2270393
-0.019924035 0.028185787 -0.06251157 0.036319852 0.024546824 0.14925951 -0.10437174 -0.101966344
-0.19160946 -0.035043593 -0.14790013 -0.06831618 0.19236775 -0.06100781 -0.2115034 -0.24047041
0.24335876 -0.056975067 0.12399812 0.18870558 -0.15801993 -0.06708042 -0.089096844 -0.23847398
-0.2175549 -0.060970686 0.09919409 -0.04400792 -0.05608855 -0.035453524 -0.040875312 0.012163962
-0.040588375 0.2474924 0.026352685 -0.061436176 0.14947584 -0.113872275 0.06306858 -0.19823074
0.19044852 0.20867017 0.23435439 -0.27500927 -0.16766667 -0.0878361 -0.13368288 0.06564998
-0.11524489 -0.14178061 -0.1696918 -0.13901849 0.070179194 -0.25862992 0.21083798 0.09389322
0.052675936 0.15348615 0.24075653 -0.07561858 -0.05504352 0.16240427 -0.18312186 -0.17730989
00000000: d439 473e 2fcc 7abe ad35 4c3e 4dc0 103d
00000010: dbb3 e43d 4e37 723e 4e61 99bd a17a 5fbe
00000020: 7092 6b3d 4ff4 46be f712 453e f6c8 d83c
00000030: 62ad 28be b825 153d 604e 883d c789 f9bd
00000040: 1ae6 e83d 5662 ec3c b7e8 42be 9956 aa3d
00000050: fc39 8d3d 9a08 dc3d ef05 20bd 37fa 51be
00000060: 080f 49bd 2194 3ebd ede1 69be 8752 b4bd
00000070: 3d65 003e 553f 6e3e 8a51 3fbe cbc7 98bd
00000080: 6099 dfbd 9a82 a6bd 4a50 c0bd 82fe 5cbe
00000090: de5f 35bd 8008 633e bd1b 04be 6ca4 03be
000000a0: 56c5 35be 2cb2 10be 43a9 3e3e 0cd5 3abe
000000b0: 1cd0 36be 929d 8b3d 0c15 dbbd 7e52 2ebd
000000c0: 7b05 77be 7b06 42be 7f20 3b3e 3762 32be
000000d0: 6128 38be e1fc 013e 98d1 073d b740 f7ba
000000e0: 6d90 643e 5d1a 493d 0ddc df3b 10a0 21be
000000f0: add8 123e d2ab 0d3c 237e 02be 5b40 12bd
00000100: b881 adbd 54c9 d3bd 0aa3 833e 9a4e 403e
00000110: e265 16be d066 18be 9d41 1a3d cc38 27be
00000120: a4f1 cfbd 2478 22be 0955 9fbd b1bb 3e3d
00000130: 50cc 523e 7bad f43d ec79 b23d 1878 69be
00000140: a2d2 a53d 609a 80bd d73a 1f3e 1676 443e
00000150: 6fa7 8c3d 95ee 0f3e 097f 85be ec46 4ebe
00000160: 9e1a 87be b386 42be 247c 05be eedb a63b
00000170: 9980 06be edfe 853d f0e8 95bc fdea b23d
00000180: 133e 373e 9083 1a3e 4859 b83d ea87 0fbe
00000190: ad55 5fbe 65ff 83be 0419 3dbe 8505 cabd
000001a0: 5410 5a3e 4761 953e b717 8f3e da3e 433e
000001b0: aac0 64bd e8ab 55bd cf4a 9fbd c782 ab3c
000001c0: 495f 8bbe 2606 19be 0a12 00be 8481 20bd
000001d0: 1214 6c3d 189c 85be 814f 3cbe 830a b63d
000001e0: b57c 50be f7c9 163e f3bf 0abe d3da 08be
000001f0: 0bef aebd 2fd5 5b3e ed8d b43d 95f3 d0bc
00000200: 0d08 743d e89f 09bd 2eee 8c3c 85ca 893d
00000210: 85a3 203e 5e90 6c3e 51cf 053e d41f cfbd
00000220: eab8 533c d754 ed3c b68e dabd 068b 833c
00000230: 6f29 0bbe 88d9 17bd 61c8 ae3d 905e 13be
00000240: 8fbe cebd 23a7 99bd fb0d 193d f0e7 00bc
00000250: 943f 9f3d 5892 af3d 9286 333e cfc0 45be
00000260: 77a6 643d d76a 2cbe c53f 4b3e 0e66 d73d
00000270: 0924 d9bc 5490 093e 811a cebd cc8f 45be
00000280: 41f7 ac3d 5278 ee3d df0b 8abd 712c ca3d
00000290: a321 173e a453 5c3e a8d0 4bbd 9f85 323c
000002a0: 216b 313e 2786 b93c f6f3 983c bbc6 65be
000002b0: 0f17 37be 2530 73bd 53ea d03d 77a2 3a3d
000002c0: 6b3b 13be bb64 5abe f43b 313e 121a 0b3e
000002d0: fe08 f6bd 953b 08be b556 9b3d 00f9 cfbd
000002e0: 2ff0 533e 893a d8bd 7f1a 03bc b953 b4bd
000002f0: 047c 3b3d b655 363e 4ce1 f53d fe7c 683e
00000300: bb37 a3bc e1e5 e63c 1106 80bd 20c4 143d
00000310: 6c16 c93c 7cd7 183e dac0 d5bd bbd3 d0bd
00000320: 4535 44be df89 0fbd 2273 17be 5ae9 8bbd
00000330: 0dfc 443e 53e3 79bd 5994 58be e03d 76be
00000340: 0a33 793e b05e 69bd baf2 fd3d 093c 413e
00000350: facf 21be 7661 89bd 6878 b6bd 8632 74be
00000360: b6c6 5ebe 66bc 79bd 4526 cb3d a641 34bd
00000370: 1bbd 65bd b737 11bd df6c 27bd 5b4b 473c
00000380: ff3f 26bd a66e 7d3e 96e1 d73c 80a4 7bbd
00000390: 3210 193e de35 e9bd 1a2a 813d 00fd 4abe
000003a0: f004 433e a2ad 553e 99fa 6f3e 04ce 8cbe
000003b0: d0b0 2bbe 6ae3 b3bd 2ae4 08be 7f73 863d
000003c0: 8305 ecbd f02e 11be b0c3 2dbe dd5a 0ebe
000003d0: 1cba 8f3d 246b 84be e9e5 573e 174b c03d
000003e0: b9c2 573d 792b 1d3e e188 763e eadd 9abd
000003f0: 5075 61bd 4e4d 263e 4c84 3bbe b990 35be

convs.0.att f4 [10, 4]
0.004623773 -0.1644132 0.20903385 0.00060191716 0.07187645 0.006326297 -0.04630202 0.011315464
-0.042557623 0.18609273 0.23367414 -0.11286022 -0.20640172 0.15342827 0.031928223 -0.124743536
0.12963673 -0.12771702 0.016779544 0.03397968 -0.15240096 0.23607296 0.2827602 0.20637318
-0.030113813 0.109688014 0.041696116 0.08515285 0.11427913 0.2291499 0.21100079 0.12526967
0.22089778 0.21368559 0.10869375 -0.01778189 0.279996 0.0716018 0.011457571 -0.20567535
00000000: 0583 973b ef5b 28be f80c 563e fac9 1d3a
00000010: f633 933d d34c cf3b 30a7 3dbd 7f64 393c
00000020: e750 2ebd 188f 3e3e 4648 6f3e 4223 e7bd
00000030: f95a 53be 4d1c 1d3e 2bc7 023d 8a79 ffbd
00000040: 7ebf 043e 40c8 02be 4175 893c 472e 0b3d
00000050: ff0e 1cbe 1cbd 713e f2c5 903e 7e53 533e
00000060: 3eb1 f6bc 1ca4 e03d 8cc9 2a3d 9e64 ae3d
00000070: 2d0b ea3d 45a6 6a3e 9710 583e b146 003e
00000080: 0733 623e 65d0 5a3e d49a de3d 54ab 91bc
00000090: a35b 8f3e f7a3 923d 89b8 3b3c 8f9c 52be

convs.0.root f4 [4, 32]
-0.13303491 0.043190204 0.06585728 0.17122374 0.14764811 0.08247733 -0.10551876 -0.20849466
0.13246252 0.29035938 0.25423974 -0.0011696074 0.14502615 0.103041105 -0.06286909 -0.1830775
-0.07333228 0.20727667 0.040946037 -0.20155278 0.095367596 -0.032510545 0.083702855 0.16233824
-0.059486926 0.18072821 0.03607235 -0.27127978 0.049241744 -0.1772808 0.009782562 -0.2125571
0.123301916 0.26037124 -0.13804309 0.092454575 -0.087986685 -0.18786064 -0.10424064 -0.26520187
-0.036608584 -0.21364462 0.21640731 0.16990979 0.29043096 0.19462526 -0.13226746 0.1856671
-0.0045201587 0.08663885 0.080422856 -0.11206862 0.02294933 -0.22106835 -0.19709548 -0.2990391
-0.23282209 -0.08948393 0.26531035 0.118632816 0.023346312 -0.07866397 0.24393052 0.25327483
0.18828769 0.18195325 0.10865193 -0.11865706 -0.16210577 -0.18026604 -0.123791896 -0.033274107
0.07827458 -0.021559166 -0.23981762 0.12484202 -0.10962023 0.20526972 -0.056078386 0.08961522
-0.18015327 -0.023506256 -0.18739867 0.13037002 0.09242648 0.11414018 -0.023841204 0.2258829
0.115860775 0.18277486 0.014706432 -0.23245952 -0.06534236 -0.1696782 0.15831761 0.06504348
-0.01816 -0.12270533 0.0002805346 0.1970156 0.16955039 -0.11286695 0.029247617 -0.19009827
-0.15402952 0.24296975 -0.11137655 -0.061838232 0.18540698 -0.025091117 -0.035760388 0.09058124
0.11846812 -0.08291082 -0.023649186 0.15961294 -0.11137855 0.025602864 -0.21379395 -0.20838092
-0.09071851 0.20668457 -0.15528943 -0.05123228 -0.23972128 -0.19116302 0.038930997 -0.23710297
00000000: 4e3a 08be 36e8 303d 2ee0 863d 4755 2f3e
00000010: 1131 173e e0e9 a83d 381a d8bd a07f 55be
00000020: 41a4 073e fca9 943e b62b 823e 834d 99ba
00000030: bc81 143e 3707 d33d 82c1 80bd ab78 3bbe
00000040: 3c2f 96bd 5640 543e 08b7 273d da63 4ebe
00000050: 1650 c33d c729 05bd 676c ab3d ff3b 263e
00000060: 90a8 73bd d110 393e 9ac0 133d 2fe5 8abe
00000070: b6b1 493d 1989 35be 0a47 203c 92a8 59be
00000080: b785 fc3d 614f 853e 2b5b 0dbe d358 bd3d
00000090: 5d32 b4bd 8a5e 40be 1e7c d5bd 8ac8 87be
000000a0: e2f2 15bd a8c5 5abe e199 5d3e d5fc 2d3e
000000b0: 5eb3 943e d84b 473e 1f71 07be 841f 3e3e
000000c0: d71d 94bb b66f b13d bdb4 a43d 3c84 e5bd
000000d0: 3c00 bc3c be5f 62be 66d3 49be a71b 99be
000000e0: ea68 6ebe 5a43 b7bd c2d6 873e c3f5 f23d
000000f0: c440 bf3c 931a a1bd ecc8 793e 3dad 813e
00000100: 7dce 403e f451 3a3e e784 de3d 7902 f3bd
00000110: 0eff 25be a997 38be 9b86 fdbd 6e4a 08bd
00000120: 6c4e a03d d99c b0bc c092 75be 2cad ff3d
00000130: 9280 e0bd 3a32 523e 73b2 65bd 2f88 b73d
00000140: 197a 38be 3190 c0bc 70e5 3fbe b87f 053e
00000150: 184a bd3d 54c2 e93d a14e c3bc d94d 673e
00000160: 6a48 ed3d 5529 3b3e 3ff3 703c de09 6ebe
00000170: 37d2 85bd 1fc0 2dbe 031e 223e 8435 853d
00000180: 48c4 94bc ef4c fbbd b714 9339 75be 493e
00000190: 9e9e 2d3e ca26 e7bd b398 ef3c 1fa9 42be
000001a0: eab9 1dbe 10cd 783e 6319 e4bd 164a 7dbd
000001b0: 54db 3d3e e38b cdbc 7c79 12bd a882 b93d
000001c0: 6a9f f23d 26cd a9bd f0bb c1bc 9371 233e
000001d0: 701a e4bd 19bd d13c cdec 5abe cf61 55be
000001e0: a0ca b9bd 1fa5 533e 3104 1fbe f0d8 51bd
000001f0: 7f79 75be 3dc0 43be 1c76 1f3d 1fcb 72be

convs.0.bias f4 [32]
0.13050131 0.0016232716 0.21588801 -0.27782965 0.18002321 -0.012916903 0.13122165 0.12942347
0.14915419 -0.05808452 -0.015670089 0.26554862 -0.06871478 -0.25624555 -0.23171675 0.061339766
0.16344774 0.23431395 0.19568639 -0.076524734 0.1378243 -0.26119998 0.14554822 0.007980779
0.0004882506 -0.04953804 -0.12367504 -0.0008635871 0.05930655 -0.16199853 0.19277571 -0.066848874
00000000: 23a2 053e f5c3 d43a bf11 5d3e b03f 8ebe
00000010: 0158 383e 6ba1 53bc f85e 063e 9687 043e
00000020: e0bb 183e 09ea 6dbd 8f5e 80bc fdf5 873e
00000030: 56ba 8cbd 9e32 83be 2847 6dbe 683f 7b3d
00000040: d85e 273e ffef 6f3e 0362 483e 00b9 9cbd
00000050: d021 0d3e 01bc 85be 980a 153e d0c1 023c
00000060: e3fb ff39 66e8 4abd 5749 fdbd 5962 62ba
00000070: 6deb 723d f1e2 25be ff66 453e 10e8 88bd

convs.1.basis f4 [4, 32, 32]
-0.02088524 -0.06626309 0.061394237 -0.025579577 0.07003473 -0.03868895 -0.03121643 -0.036318403
0.046766058 -0.0060944934 0.073909774 -0.02903303 -0.06129695 0.10319463 0.073359095 -0.094184406
-0.07877081 0.025987187 0.015352287 -0.027108494 0.01033026 0.073790334 0.033086505 0.053297583
0.037847485 0.08164102 0.0033183258 0.027905762 0.006975878 -0.023843924 0.025365407 -0.06507063
-0.020830002 0.025550213 -0.053525966 -0.09337274 -0.051586326 0.025889896 -0.07351676 -0.018335683
-0.05193726 -0.05687355 0.068250306 -0.10242719 0.032807652 0.10084025 -0.06049199 0.12320786
-0.055716753 0.03828699 -0.017226243 0.078382604 -0.007058305 -0.03381163 0.034360576 0.08032375
0.07569392 -0.051301017 -0.05699074 -0.100670695 -0.021885615 -0.03126515 0.021873005 0.082292005
0.11118968 0.047955707 0.08518662 -0.032163788 -0.031800188 -0.074089184 0.10071117 -0.13194673
-0.006169319 -0.066534944 0.07283199 0.041386575 -0.06767917 -0.07214099 0.019512365 -0.12547356
-0.044152293 -0.09762586 0.05648784 -0.02334976 -0.01489493 -0.0032910418 -0.07856813 0.07961164
-0.084721014 -0.0645935 0.06921167 0.036917925 0.02357689 -0.022767726 -0.041991934 -0.08604885
-0.08284015 -0.076411076 0.05063532 0.06269499 0.04725939 0.022281863 0.00059561135 0.011991798
0.0012420276 -0.0017299601 -0.0015357728 -0.002619367 -0.009239097 -0.03710093 -0.0374685 0.06008308
0.07387623 -0.06860378 0.012432139 -0.060569324 0.070233785 0.059553202 -0.016209567 -0.016698023
-0.057355456 -0.011844761 0.012317102 0.025702747 0.050956417 -0.0069413 -0.0013661642 -0.004624699
0.11902527 -0.033183243 0.045219902 0.09354928 -0.004014568 -0.05505677 -0.01075188 -0.09241112
0.07109824 0.0028214396 0.107158504 -0.040799905 -0.013174451 -0.014417926 0.08413893 -0.016023435
0.04205737 0.0030887832 -0.049008735 0.045590624 0.06465599 -0.03689197 0.0599494 -0.101005524
-0.098236874 0.017276589 -0.02179442 0.0800684 -0.058794383 0.06266633 -0.07222709 -0.010889131
0.016299807 -0.055797204 -0.058308214 -0.026748054 0.069165036 -0.037637766 0.029203054 -0.037868217
0.0879845 -0.076247446 0.018765906 -0.016298838 -0.039567746 0.069822416 0.016253797 0.10391795
0.07020069 0.020886736 -0.039237145 0.026067281 0.0913457 -0.028705401 0.043848738 0.028036997
-0.006056246 0.087822534 0.04363673 0.025372846 0.06954196 -0.0076424647 -0.005320715 0.03395477
-0.040749133 -0.10761222 -0.09989385 0.03939736 0.05050411 0.05936975 0.017332423 -0.097879626
0.0038652907 -0.062979005 0.049325507 0.003882627 -0.035208903 -0.055165175 0.0048910063 -0.124060586
-0.056166567 0.054373167 0.0835333 0.031952765 0.058422565 0.06915407 0.024254762 0.008125965
-0.088030845 -0.08317503 -0.023141854 0.11135618 -0.0781766 -0.07676314 0.00844642 0.045002606
-0.054432094 0.10383258 0.009835194 -0.02097505 -0.034670833 0.043630093 -0.112570554 -0.010369266
-0.070085905 0.056006625 -0.029811664 -0.10553382 0.053222675 -0.050509773 0.07553647 -0.032249395
-0.03985418 0.10128993 -0.09870915 0.03609782 0.04085182 -0.050000098 0.06526695 0.0017276229
-0.039087076 -0.042352952 0.080358215 -0.028531026 0.051295035 -0.0074960543 0.009376491 0.033694264
00000000: 8617 abbc f1b4 87bd 8678 7b3d 438c d1bc
00000010: 5e6e 8f3d 4e78 1ebd 99b9 ffbc 9bc2 14bd
00000020: c48d 3f3d 51b4 c7bb 025e 973d add6 edbc
00000030: 8312 7bbd b557 d33d 4b3d 963d c1e3 c0bd
00000040: 9752 a1bd 15e3 d43c 2988 7b3c a212 debc
00000050: 4040 293c 631f 973d b785 073d 914e 5a3d
00000060: f705 1b3d 6833 a73d 4578 593b a09a e43c
00000070: e895 e43b 5554 c3bc 1dcb cf3c c043 85bd
00000080: aea3 aabc ae4e d13c 0b3e 5bbd 353a bfbd
00000090: 2f4c 53bd 0c17 d43c f48f 96bd b734 96bc
000000a0: 2abc 54bd 3df4 68bd d1c6 8b3d 59c5 d1bd
000000b0: 5161 063d 5585 ce3d 73c6 77bd 6754 fc3d
000000c0: 4037 64bd d2d2 1c3d 0d1e 8dbc 0f87 a03d
000000d0: 5b49 e7bb 107e 0abd adbd 0c3d c780 a43d
000000e0: 6a05 9b3d 0421 52bd 1f6f 69bd 702c cebd
000000f0: 7649 b3bc e30f 00bd 042f b33c b688 a83d
00000100: 6ab7 e33d 346d 443d 5376 ae3d 2dbe 03bd
00000110: ea40 02bd 12bc 97bd a841 ce3d 0b1d 07be
00000120: 0028 cabb 7943 88bd f028 953d f884 293d
00000130: 609b 8abd a8be 93bd 65d8 9f3c 247c 00be
00000140: 09d9 34bd 11f0 c7bd cb5f 673d ff47 bfbc
00000150: dd09 74bc 85ae 57bb 54e8 a0bd 6d0b a33d
00000160: 3682 adbd 9949 84bd d9be 8d3d 4037 173d
00000170: 5224 c13c 6283 babc bcff 2bbd 613a b0bd
00000180: 19a8 a9bd 697d 9cbd fb66 4f3d 3b66 803d
00000190: 1093 413d 7488 b63c cd22 1c3a 3f79 443c
000001a0: 88cb a23a d4bf e2ba fc4b c9ba b0a9 2bbb
000001b0: 955f 17bc 25f7 17bd 9278 19bd ad19 763d
000001c0: 6c4c 973d 2380 8cbd 2cb0 4b3c 8a17 78bd
000001d0: bbd6 8f3d 0fee 733d edc9 84bc 4bca 88bc
000001e0: 8eed 6abd 8710 42bc accd 493c 918e d23c
000001f0: adb7 503d d873 e3bb dd10 b3ba c98a 97bb
00000200: 85c3 f33d 27eb 07bd 8138 393d c496 bf3d
00000210: a38c 83bb 3583 61bd a728 30bc 0b42 bdbd
00000220: f49b 913d e7e7 383b eb75 db3d cd1d 27bd
00000230: a7d9 57bc 2a39 6cbc 0851 ac3d 9443 83bc
00000240: 5944 2c3d 2f6d 4a3b 62bd 48bd 3cbd 3a3d
00000250: 5c6a 843d 091c 17bd 818d 753d fcdb cebd
00000260: 6a30 c9bd a287 8d3c 368a b2bc e7fa a33d
00000270: 61d2 70bd 3457 803d cceb 93bd 5368 32bc
00000280: 2c87 853c 9c8b 64bd 98d4 6ebd bc1e dbbc
00000290: 66a6 8d3d 0f2a 1abd 3e3b ef3c b41b 1bbd
000002a0: 3831 b43d 9f27 9cbd f5ba 993c 2485 85bc
000002b0: ca11 22bd 0eff 8e3d af26 853c efd2 d43d
000002c0: 61c5 8f3d a91a ab3c 21b7 20bd 0d8b d53c
000002d0: 7413 bb3d 9727 ebbc bc9a 333d d8ad e53c
000002e0: 7973 c6bb 4ddc b33d 6ebc 323d b7da cf3c
000002f0: 046c 8e3d a46d fabb 6459 aebb 2814 0b3d
00000300: 90e8 26bd cc63 dcbd 2695 ccbd 205f 213d
00000310: 66dd 4e3d b22d 733d bafc 8d3c 1d75 c8bd
00000320: d150 7d3b 23fb 80bd 8b09 4a3d ac73 7e3b
00000330: 3637 10bd e1f4 61bd bc44 a03b 7a13 febd
00000340: ea0e 66bd 66b6 5e3d 8213 ab3d e7e0 023d
00000350: 804c 6f3d a6a0 8d3d ecb1 c63c c422 053c
00000360: 8449 b4bd ac57 aabd fc93 bdbc b50e e43d
00000370: 0e1b a0bd fe35 9dbd da62 0a3c a754 383d
00000380: 30f4 5ebd 2da6 d43d cb23 213c ded3 abbc
00000390: 0103 0ebd 78b5 323d 648b e6bd dbe3 29bc
000003a0: 3389 8fbd 3467 653d 9737 f4bc 1e22 d8bd
000003b0: 0500 5a3d 56e3 4ebd ddb2 9a3d f117 04bd
000003c0: 233e 23bd 1871 cf3d 0628 cabd 4fdb 133d
000003d0: 3d54 273d e7cc 4cbd aeaa 853d 6871 e23a
000003e0: c519 20bd 4a7a 2dbd d992 a43d e6b9 e9bc
000003f0: be1a 523d 76a1 f5bb db9f 193c ff02 0a3d

convs.1.att f4 [10, 4]
0.015663033 -0.006084593 -0.1309481 -0.008354287 0.04517589 0.036094546 -0.14129733 0.027769977
0.0845746 0.062651224 -0.12132025 0.025362391 0.10956335 0.037251018 -0.10523588 -0.109495044
0.10719518 0.000835301 -0.026355023 -0.034987517 -0.05552308 0.039922863 -0.02478069 -0.08126159
0.0063262526 -0.08420314 -0.046175297 0.02944313 0.02086797 -0.072921164 0.046942282 0.03396687
-0.052095212 0.042854715 0.020815955 0.05923096 -0.052639835 -0.074933685 0.041189875 -0.0033660713
00000000: c34f 803c 4461 c7bb 4217 06be 6be0 08bc
00000010: 5b0a 393d e0d7 133d 3fb0 10be dd7d e33c
00000020: 7335 ad3d 494f 803d c076 f8bd cac4 cf3c
00000030: c062 e03d 8694 183d e985 d7bd f03e e0bd
00000040: 2689 db3d 1af8 5a3a 7de6 d7bc 124f 0fbd
00000050: 2b6c 63bd 2886 233d e000 cbbc 7a6c a6bd
00000060: 744c cf3b b272 acbd 4f22 3dbd b832 f13c
00000070: 4ef3 aa3c b157 95bd 8d46 403d d820 0b3d
00000080: ca61 55bd 6d88 2f3d 3986 aa3c 2a9c 723d
00000090: de9c 57bd d576 99bd b7b6 283d 4e99 5cbb

convs.1.root f4 [32, 32]
-0.05669858 0.01766457 -0.03816668 0.025916126 -0.041913614 -0.046348248 -0.12917843 0.05017147
0.0060418723 -0.04692722 0.07331389 -0.04768381 -0.09173913 0.007397605 -0.0026616259 0.06910986
0.064164884 -0.029441562 -0.120174654 -0.0007270086 0.024014238 0.014738824 0.052140653 0.002030469
-0.09134535 -0.015118193 0.0021121732 0.043020055 -0.083848014 -0.05452183 0.015772976 0.08928111
-0.034222458 0.024932416 0.06278694 -0.073894456 0.04632562 0.0018099248 0.03679201 0.07655656
0.08548831 -0.062014412 0.025994623 -0.009086633 -0.12156768 -0.083016194 0.04064889 -0.039679583
0.003046524 0.009507608 0.022375101 0.06741929 -0.027032733 0.025988827 0.04735627 -0.10448071
0.03152658 -0.00029769322 0.09718343 -0.052473832 -0.060018774 -0.021325815 -0.003696882 0.058743443
-0.02536074 -0.012806475 0.05632398 -0.01666535 -0.029272342 -0.09160182 0.085847735 0.08628972
0.020198349 -0.040737603 0.014677481 -0.062271688 0.004070935 -0.04569011 -0.0030548833 -0.051991526
0.00994308 -0.062622 -0.09479199 -0.056482688 -0.07529903 -0.011840052 0.06502141 0.03307764
0.024648663 -0.0060116467 0.073321186 -0.03219748 0.021829603 -0.018737003 -0.0272042 0.010319234
0.08634452 0.056377724 -0.016262745 -0.045122787 -0.07404086 0.066805586 0.03160997 -0.06705532
-0.055937093 0.0362429 0.089721926 0.0822236 0.0561943 -0.05180812 -0.034028314 0.05132815
0.050774626 -0.084564045 0.100019515 0.025152713 -0.01144135 0.047966238 0.07402751 0.005549385
-0.03498081 0.047274 0.09144162 0.09133002 0.07081945 -0.08059791 -0.020414447 0.050479375
0.012684294 0.11381381 0.009030977 -0.09989418 0.064260855 0.045039415 0.015754536 -0.040868703
-0.034658518 -0.041717753 -0.038432196 -0.052610513 0.114063255 0.053953577 -0.038206678 0.032404326
0.020748515 -0.043621186 -0.0725029 0.021690726 0.061732076 0.029961905 0.04746007 -0.01660366
0.024266718 0.053039324 0.051743392 -0.025261449 -0.07206748 0.0032127327 0.08271919 -0.07798418
0.09356483 0.011473416 0.083747335 0.0915129 0.08330027 0.018194634 0.0017333885 0.08379539
0.06588746 0.005088563 0.09476586 -0.085583635 -0.032180488 -0.07125469 -0.009646032 -0.044229373
-0.13452461 0.03255143 -0.040619463 0.043652322 -0.06436377 0.02948977 0.033901878 -0.056427136
-0.048838545 -0.06527475 0.025325255 0.09636299 -0.062085588 -0.09342562 -0.012782022 -0.04146917
-0.019588593 0.0032704212 0.042304598 -0.017998166 -0.08682066 -0.024865516 -0.044282548 -0.04198542
0.080494136 -0.048393216 0.022849726 0.05251981 -0.054649007 0.03728931 -0.06401372 0.050831024
-0.014779792 -0.05424506 -0.098589316 -0.042437565 -0.036214087 0.08543617 0.07284336 -0.06947459
-0.0047406214 0.03326214 -0.048285507 -0.049073927 -0.028200524 0.08591395 0.008525237 0.08625064
0.033341106 0.035861496 -0.05298527 -0.0036597848 -0.063571125 -0.05374057 -0.095928945 -0.08389173
-0.0038139052 0.058465466 0.03722521 -0.031515192 0.02784078 0.09900864 -0.09039092 -0.07644782
-0.026202139 0.0040685236 0.08050957 0.044366837 0.055631693 0.017084945 -0.042803336 0.00021622574
-0.05168123 -0.0039128936 -0.02146496 0.0041546836 0.04072752 0.021933777 -0.050688732 -0.03990159
00000000: c53c 68bd 4ab5 903c aa54 1cbd 0e4e d43c
00000010: 9cad 2bbd a9d7 3dbd 5a47 04be 9980 4d3d
00000020: e6fa c53b c236 40bd 9825 963d 1950 43bd
00000030: bae1 bbbd 9c67 f23b ac6e 2ebb 7889 8d3d
00000040: e168 833d 6e2f f1bc 211e f6bd b994 3eba
00000050: 82b9 c43c 1c7b 713c 7091 553d 9e11 053b
00000060: 4513 bbbd 4cb2 77bc 636c 0a3b cc35 303d
00000070: 82b8 abbd 4852 5fbd 5436 813c 04d9 b63d
00000080: d92c 0cbd 113f cc3c 7096 803d fa55 97bd
00000090: efbf 3d3d 003b ed3a 38b3 163d b0c9 9c3d
000000a0: 7f14 af3d d302 7ebd adf2 d43c 1ae0 14bc
000000b0: 7af8 f8bd 6504 aabd 737f 263d 0f87 22bd
000000c0: 31a8 473b ccc5 1b3c fd4b b73c 2013 8a3d
000000d0: c073 ddbc 85e6 d43c a6f8 413d fcf9 d5bd
000000e0: 0422 013d b513 9cb9 1b08 c73d cdee 56bd
000000f0: 3fd6 75bd 7ab3 aebc 6347 72bb f79c 703d
00000100: 54c1 cfbc 40d2 51bc f9b3 663d c685 88bc
00000110: 8dcc efbc bc99 bbbd f0d0 af3d aab8 b03d
00000120: 0277 a53c 79dc 26bd d179 703c 9910 7fbd
00000130: 7a65 853b 8e25 3bbd 7034 48bb 11f5 54bd
00000140: 4de8 223c f73f 80bd 4e22 c2bd 645a 67bd
00000150: 6136 9abd c7fc 41bc f229 853d 6b7c 073d
00000160: feeb c93c 59fd c4bb 6b29 963d 81e1 03bd
00000170: ffd3 b23c 587e 99bc 58db debc 0112 293c
00000180: 65d5 b03d 54ec 663d 7339 85bc acd2 38bd
00000190: bca2 97bd 5ed1 883d 7579 013d 4d54 89bd
000001a0: 4b1e 65bd 6f73 143d 21c0 b73d d964 a83d
000001b0: ff2b 663d c034 54bd 4661 0bbd 773d 523d
000001c0: 0ef9 4f3d ea2f adbd 08d7 cc3d 100d ce3c
000001d0: 8074 3bbc 3f78 443d bc9b 973d 9ed7 b53b
000001e0: 0a48 0fbd 62a2 413d be45 bb3d 3c0b bb3d
000001f0: ca09 913d 8410 a5bd 333c a7bc 76c3 4e3d
00000200: c9d1 4f3c 3717 e93d aaf6 133c 5295 ccbd
00000210: 329b 833d 407b 383d a80f 813c f165 27bd
00000220: 17f6 0dbd 3ce0 2abd 146b 1dbd 1f7e 57bd
00000230: ff99 e93d 6dfe 5c3d 9b7e 1cbd 66ba 043d
00000240: caf8 a93c 21ac 32bd 677c 94bd c0b0 b13c
00000250: c6da 7c3d ab72 f53c 7e65 423d 6604 88bc
00000260: ffca c63c c33f 593d e1f0 533d 19f1 cebc
00000270: 1d98 93bd b68c 523b ae68 a93d 2bb6 9fbd
00000280: eb9e bf3d fffa 3b3c b983 ab3d 1e6b bb3d
00000290: 5599 aa3d ea0c 953c de32 e33a eb9c ab3d
000002a0: 01f0 863d f6bd a63b 9a14 c23d 7946 afbd
000002b0: b0cf 03bd fbed 91bd 640a 1ebc dc29 35bd
000002c0: d2c0 09be a654 053d 9860 26bd c7cc 323d
000002d0: 27d1 83bd 8894 f13c b2dc 0a3d 2420 67bd
000002e0: ed0a 48bd c5ae 85bd e976 cf3c f659 c53d
000002f0: 754d 7ebd ee55 bfbd b06b 51bc 94db 29bd
00000300: 4278 a0bc 9054 563b 9647 2d3d e470 93bc
00000310: 08cf b1bd c4b2 cbbc 9e61 35bd e7f8 2bbd
00000320: 1cda a43d f737 46bd 592f bb3c 031f 573d
00000330: a3d7 5fbd adbc 183d a019 83bd 3134 503d
00000340: f126 72bc 1130 5ebd 32e9 c9bd 03d3 2dbd
00000350: 3955 14bd 29f9 ae3d e62e 953d b248 8ebd
00000360: 3757 9bbb e23d 083d 06c7 45bd be01 49bd
00000370: c904 e7bc a7f3 af3d 70ad 0b3c 2da4 b03d
00000380: af90 083d 81e3 123d 1507 59bd 00d9 6fbb
00000390: 9431 82bd 121f 5cbd 6576 c4bd 6dcf abbd
000003a0: b6f2 79bb 7c79 6f3d 7679 183d 1316 01bd
000003b0: 5912 e43c 0bc5 ca3d e01e b9bd ad90 9cbd
000003c0: dea5 d6bc 4051 853b 34e2 a43d 00ba 353d
000003d0: 0fde 633d baf5 8b3c 8d52 2fbd a8ba 6239
000003e0: b3af 53bd bb37 80bb 49d7 afbc 0324 883b
000003f0: e6d1 263d 77ae b33c fd9e 4fbd da6f 23bd

convs.1.bias f4 [32]
-0.03539795 -0.06269748 -0.028632885 -0.054246534 -0.03531782 -0.0881939 -0.087280706 0.0009693565
-0.0024218766 -0.02715966 0.05862268 -0.09105496 -0.084123135 0.08436885 0.10375761 0.07206436
-0.03503237 0.09201688 0.03940376 0.061894856 -0.042805005 -0.054191552 -0.014535684 -0.08168776
-0.05995706 0.06847475 0.022979349 -0.06425391 -0.09300093 0.034312963 -0.04153591 0.055998005
00000000: 71fd 10bd 8967 80bd 838f eabc 9d31 5ebd
00000010: 6ba9 10bd 019f b4bd 3ac0 b2bd 6a1c 7e3a
00000020: 59b8 1ebb ef7d debc 561e 703d 067b babd
00000030: c048 acbd 93c9 ac3d df7e d43d 7b96 933d
00000040: 1a7e 0fbd 5973 bc3d d665 213d 7685 7d3d
00000050: 4d54 2fbd f6f7 5dbd 1427 6ebc ea4b a7bd
00000060: 8995 75bd 7d3c 8c3d 303f bc3c 8e97 83bd
00000070: 4677 bebd c08b 0c3d 8f21 2abd 2a5e 653d

convs.2.basis f4 [4, 32, 32]
0.035833534 -0.055391174 0.016197488 0.018509949 -0.0676152 -0.037029102 0.044148777 -0.015533377
0.013849543 0.017296018 -0.070970565 0.006468475 0.036951907 0.015280111 0.046633065 0.015296622
-0.008971778 0.058764033 -0.056066737 0.026368367 -0.041839574 -0.028820623 0.06788278 -0.084134586
-0.039139103 -0.061777886 0.045851596 -0.014411783 -0.04609976 -0.0052008396 -0.018847652 -0.074616075
-0.05052276 0.096935324 0.088356204 -0.082721606 -0.048946127 -0.0640882 -0.048180524 0.06620847
0.062289044 -0.04310672 0.069079325 -0.011973826 -0.0034204049 -0.06381071 -0.042435028 0.09329823
-0.06739916 -0.009502793 -0.06793601 0.082878515 0.05087249 0.011237928 -0.034842033 -0.022345046
-0.03495454 0.015362507 -0.022454076 0.058375563 0.066720076 -0.026775492 -0.07176654 -0.0009045526
-0.059177008 -0.007759115 -0.07336638 0.023855245 -0.011793245 -0.08602015 0.017664555 0.02639548
-0.06115305 0.07832173 0.024403771 0.07337872 -0.031006675 0.057240587 0.082886755 -0.043414794
0.0077891923 0.062452238 0.06883512 -0.0051981793 0.05209872 0.073406175 0.029631024 0.032996707
0.014637277 0.027800249 -0.07714456 0.012549943 0.028401917 0.03331423 -0.030539617 -0.03562355
-0.04740808 -0.06473371 0.043262992 0.04407828 0.060381602 -0.0005156081 0.06429803 0.06679267
-0.091989264 -0.07936898 -0.006947793 0.0717885 0.00025674334 -0.07918338 -0.07694464 0.030141331
-0.035698645 -0.047400445 0.08726713 -0.03380116 -0.019347358 -0.0907034 -0.04233203 0.04593448
-0.051545918 -0.03250133 -0.039355256 -0.0033017122 0.0031348404 -0.01685267 -0.06406383 0.019721122
0.06279858 0.041273404 -0.06060814 -0.05523389 0.031550366 -0.084627606 -0.07233701 0.053153336
-0.07110989 -0.055147927 -0.061349083 -0.047960404 -0.019782357 -0.06415472 -0.00905504 0.034146905
0.03886251 0.006418433 -0.05486646 0.06420657 0.007904663 0.08382495 -0.03326412 0.025871634
-0.057297897 0.0041978084 0.0015506543 -0.058113884 0.025411604 -0.02013465 -0.04286313 -0.065136254
0.009394977 -0.012868143 0.038236275 -0.012894198 -0.044487644 0.037009373 0.05861684 -0.028987015
0.015689768 0.058806386 0.0017212064 0.010399885 -0.048951402 0.007939176 0.0761867 0.08422229
-0.026705282 0.06619642 0.09405933 0.0069146054 0.0020622555 -0.04770905 -0.031363122 0.023114081
0.030894907 0.022570612 0.039122958 0.062421385 -0.068438694 0.05483227 0.022714801 0.0150720645
-0.06266382 -0.014429263 -0.06498117 0.049336344 0.08610802 -0.03817806 -0.01258784 -0.072471395
-0.023088772 -0.025307376 -0.04105069 0.08144483 -0.025411598 -0.09327355 -0.01502899 0.041040786
0.026949981 0.020408668 0.0066428683 -0.0008876078 -0.005042865 -0.03886575 0.06694999 -0.038948003
0.027899526 0.08963763 -0.016131338 -0.045114525 -0.054919496 -0.06306729 0.029495887 -0.07801963
0.049544785 0.05586277 0.03520662 0.048148483 0.020489331 0.005202266 0.08496216 0.029471125
-0.08259051 0.01886632 0.0108831925 0.076765396 0.008696844 -0.04729282 -0.040638912 -0.05313164
-0.10515799 0.07006453 -0.038004827 -0.035399534 0.013811638 0.037272595 -0.034213774 -0.021665988
0.043258563 0.045776382 -0.031027125 0.038105145 0.09588461 0.034465503 -0.046115015 -0.04856437
00000000: 2fc6 123d dbe1 62bd 98b0 843c 2da2 973c
00000010: d779 8abd d4ab 17bd 59d5 343d b57f 7ebc
00000020: 32e9 623c 61b0 8d3c 0459 91bd 80f5 d33b
00000030: e25a 173d 6e59 7a3c 5002 3f3d af9e 7a3c
00000040: 5dfe 12bc 8eb2 703d 3ca6 65bd 7902 d83c
00000050: f95f 2bbd 3a19 ecbc 2106 8b3d c14e acbd
00000060: 5350 20bd cf0a 7dbd e2ce 3b3d 661f 6cbc
00000070: 1ad3 3cbd ce6b aabb 6466 9abc 50d0 98bd
00000080: f4f0 4ebd 0786 c63d 19f4 b43d f269 a9bd
00000090: bc7b 48bd ad40 83bd f158 45bd 4e98 873d
000000a0: cc22 7f3d ac90 30bd 7679 8d3d de2d 44bc
000000b0: df28 60bb 31af 82bd 5ad0 2dbd 2413 bf3d
000000c0: 9208 8abd 9ab1 1bbc 0922 8bbd 36bc a93d
000000d0: ac5f 503d 491f 383c 85b6 0ebd f50c b7bc
000000e0: 7e2c 0fbd 06b3 7b3c 9cf1 b7bc 371b 6f3d
000000f0: 89a4 883d 4758 dbbc 56fa 92bd 7f1f 6dba
00000100: 9763 72bd 2d40 febb 1d41 96bd 136c c33c
00000110: 7438 41bc 552b b0bd 42b5 903c 553b d83c
00000120: 9f7b 7abd 2567 a03d 6bea c73c 9547 963d
00000130: b601 febc 1b75 6a3d 88c0 a93d b6d3 31bd
00000140: 7b3c ff3b ebcd 7f3d 6df9 8c3d 7d55 aabb
00000150: 7865 553d fa55 963d c3bc f23c 8e27 073d
00000160: 31d1 6f3c 59bd e33c f8fd 9dbd 479e 4d3c
00000170: 23ab e83c 8174 083d 382e fabc 00ea 11bd
00000180: fa2e 42bd 1b93 84bd 8934 313d 6d8b 343d
00000190: b352 773d e029 07ba b0ae 833d 98ca 883d
000001a0: de64 bcbd 348c a2bd 50aa e3bb d905 933d
000001b0: 829b 8639 e52a a2bd 2795 9dbd f4ea f63c
000001c0: be38 12bd f826 42bd 1cb9 b23d 1673 0abd
000001d0: 5a7e 9ebc b4c2 b9bd 5a64 2dbd cb25 3c3d
000001e0: d021 53bd 1d20 05bd fa32 21bd 8a61 58bb
000001f0: e571 4d3b 9c0e 8abc e633 83bd 318e a13c
00000200: 8b9c 803d 4d0e 293d 3e40 78bd ee3c 62bd
00000210: f53a 013d 3d51 adbd 6d25 94bd 50b7 593d
00000220: 10a2 91bd cbe2 61bd 2d49 7bbd 2172 44bd
00000230: 9c0e a2bc 8d63 83bd 975b 14bc a0dd 0b3d
00000240: 4c2e 1f3d b851 d23b a7bb 60bd bc7e 833d
00000250: 8f82 013c 6aac ab3d f53f 08bd c0f0 d33c
00000260: 33b1 6abd c58d 893b 533f cb3a d308 6ebd
00000270: ff2b d03c 6cf1 a4bc 4091 2fbd 2866 85bd
00000280: 64ed 193c e7d4 52bc a49d 1c3d 3042 53bc
00000290: ad38 36bd 2497 173d 3618 703d 2d76 edbc
000002a0: d487 803c f7de 703d 1a9a e13a 4764 2a3c
000002b0: 4481 48bd 5113 023c c607 9c3d bc7c ac3d
000002c0: 09c5 dabc fd91 873d 2ea2 c03d ea93 e23b
000002d0: e826 073b 916a 43bd 9e76 00bd be59 bd3c
000002e0: 5117 fd3c 01e6 b83c 653f 203d 91ad 7f3d
000002f0: 9629 8cbd cd97 603d 6414 ba3c d2f0 763c
00000300: e455 80bd b768 6cbc d914 85bd e814 4a3d
00000310: 6759 b03d 9960 1cbd 3a3d 4ebc e26b 94bd
00000320: aa24 bdbc 6a51 cfbc c524 28bd 8ccc a63d
00000330: fc2b d0bc 3406 bfbd 273c 76bc 621a 283d
00000340: 35c6 dc3c 1430 a73c 6bac d93b 5aae 68ba
00000350: 9e3e a5bb b131 1fbd 141d 893d f187 1fbd
00000360: 8c8d e43c ef93 b73d de25 84bc 02ca 38bd
00000370: 44f3 60bd 6c29 81bd 5ca1 f13c c1c8 9fbd
00000380: 79ef 4a3d 5cd0 643d d134 103d 5837 453d
00000390: 3ed9 a73c c577 aa3b a400 ae3d 6e6d f13c
000003a0: 3725 a9bd 8a8d 9a3c 6b4f 323c 2d37 9d3d
000003b0: 357d 0e3c 1eb6 41bd fd74 26bd 90a0 59bd
000003c0: 125d d7bd fe7d 8f3d f3aa 1bbd 1aff 10bd
000003d0: 354a 623c 26ab 183d be23 0cbd df7c b1bc
000003e0: e42f 313d 0480 3b3d 992c febc 2414 1c3d
000003f0: 275f c43d b32b 0d3d 19e3 3cbd 6feb 46bd

convs.2.att f4 [10, 4]
-0.018911302 -0.031672526 0.057853177 -0.050186068 0.066577904 0.06100223 0.06687782 0.058324628
0.03500923 -0.05365953 0.04437798 -0.03920148 0.037467897 0.0552084 0.031640552 0.0028737276
-0.0528292 -0.076805346 -0.038698953 -0.08357601 -0.023139225 0.010551241 -0.06349195 -0.06678825
0.021986688 0.012833618 0.03166238 0.039070334 -0.077288195 0.04825804 0.019494003 -0.07112625
0.067194134 -0.03973781 -0.03147697 -0.0575008 -0.06976197 0.044348814 0.05527682 -0.085492134
00000000: e0eb 9abc 0dbb 01bd 74f7 6c3d e88f 4dbd
00000010: ff59 883d 79dd 793d 3df7 883d cee5 6e3d
00000020: d765 0f3d 18ca 5bbd afc5 353d bb91 20bd
00000030: f077 193d 3422 623d 8699 013d 2655 3c3b
00000040: 6e63 58bd 1f4c 9dbd cb82 1ebd e629 abbd
00000050: 798e bdbc 1ddf 2c3c 1108 82bd 47c8 88bd
00000060: 6d1d b43c 1844 523c 69b0 013d 3708 203d
00000070: 4649 9ebd 39aa 453d e3b1 9f3c a4aa 91bd
00000080: 149d 893d 1dc4 22bd ffed 00bd f585 6bbd
00000090: 5ddf 8ebd 1aa7 353d f269 623d 8016 afbd

convs.2.root f4 [32, 32]
-0.01599014 0.0030452907 0.021167623 0.008200672 0.02315897 -0.042865954 -0.07108255 0.016738601
0.073905766 -0.055177364 -0.023984028 -0.012946921 -0.000919917 0.083883926 -0.059361905 -0.09496988
0.036221676 0.0025984086 -0.0327131 0.033686053 0.024500737 0.02873309 -0.009983139 0.054063804
-0.039551202 -0.07177717 0.019585663 0.012982974 0.0014020078 0.0245863 -0.021911802 -0.032611586
-0.021931035 0.021737708 -0.055229962 0.057724323 0.034227904 0.073750675 -0.016938463 -0.04643328
0.027922098 -0.062571675 -0.09599174 0.07907144 0.078255996 0.047571823 0.06742295 0.051109772
0.048265338 -0.02334865 -0.060894754 -0.06439843 -0.0008227179 -0.03416778 -0.054588947 -0.07977916
-0.092508525 -0.051442098 0.041346792 0.0022128902 -0.054021034 0.025401667 -0.082941346 -0.031130394
0.028044894 -0.05063087 0.06577299 0.008605089 -0.05530035 -0.059859894 -0.056577943 -0.006134983
0.094909295 -0.041938197 -0.09169274 -0.09193384 -0.013041441 -0.05019263 -0.0450794 -0.059439506
0.008135769 0.09096742 -0.021758238 -0.059251454 -0.06874462 0.052603498 0.021364136 0.08723583
0.06728625 -0.043418158 0.011263509 0.011075554 0.062678665 -0.037980746 -0.031636856 0.0076507926
0.064026795 0.036322642 -0.08444239 0.021820085 0.089885436 -0.043793652 -0.0634232 0.03784795
0.02386902 0.027758267 -0.031660736 -0.015074578 -0.038374428 -0.07109677 -0.08692936 -0.06138989
-0.065580174 0.08001737 -0.08072032 0.011928417 0.09422083 -0.030291628 -0.026298115 -0.07049279
0.08696857 -0.06915087 0.03470454 -0.077188574 -0.08706152 0.043954067 -0.025932286 0.11696977
0.03637225 0.08364925 0.08503103 0.06559711 0.035161003 -0.063456036 0.05490218 0.06806556
-0.049641408 0.0002438029 -0.06021031 0.041251592 0.086351894 -0.028481197 -0.06004107 0.021886604
0.031355735 0.09613689 0.085887626 -0.07491906 0.06603676 -0.04236728 0.06951953 -0.015253195
-0.0012975463 -0.060911197 -0.05519065 0.045388903 -0.022139454 -0.013593742 0.039833475 -0.07111005
-0.029802268 -0.09114312 -0.08437655 0.08747081 0.06345167 0.058177687 -0.080800965 -0.04102027
0.08487979 0.027718512 0.025130963 -0.016487703 0.042753354 -0.023455312 -0.014165076 -0.034487665
0.062433243 0.07659979 0.0066780723 -0.044363227 -0.02935471 -0.03161173 0.03569984 -0.042467155
-0.021596277 -0.053383656 0.08889392 -0.06274951 0.036891736 0.0029969895 0.09947246 -0.03230316
0.005263526 0.117146716 -0.07192595 0.07198383 0.024837151 0.045209214 -0.07598156 -0.007932412
0.008419983 -0.014826503 -0.11365277 -0.10808821 0.013753153 0.030291112 -0.101250924 -0.0018078733
0.11181388 -0.028603438 -0.060579404 -0.027822608 0.051860526 0.13786809 0.034776278 0.034602996
0.13514794 -0.025996262 -0.09343464 0.02363534 -0.03841204 0.009822745 -0.015911007 0.0801886
-0.028307684 -0.054739363 0.06419454 0.033467412 0.03655428 -0.083629854 -0.023788534 -0.053336125
0.07862878 0.022528106 -0.009544813 -0.010044558 -0.017513294 0.023607286 -0.061188146 -0.02846337
-0.06113096 0.025451383 0.078993015 0.026429256 0.028510144 -0.10454513 -0.0901922 0.06320284
-0.058781274 0.052248757 -0.08302813 -0.059316054 0.03029895 -0.03717886 -0.002241928 0.051734816
00000000: c1fd 82bc 8093 473b b967 ad3c 1d5c 063c
00000010: e1b7 bd3c 3694 2fbd ba93 91bd 641f 893c
00000020: e85b 973d a901 62bd 277a c4bc 531f 54bc
00000030: 9626 71ba 56cb ab3d 7825 73bd 927f c2bd
00000040: 2e5d 143d 104a 2a3b 2cfe 05bd 63fa 093d
00000050: c5b5 c83c a861 eb3c 5290 23bc 0272 5d3d
00000060: 7100 22bd e9ff 92bd 1d72 a03c 8ab6 543c
00000070: 93c3 b73a 3569 c93c 6180 b3bc ba93 05bd
00000080: b7a8 b3bc 4713 b23c d038 62bd 5770 6c3d
00000090: 8f32 0c3d 980a 973d 88c2 8abc d330 3ebd
000000a0: e2bc e43c 9425 80bd 5197 c4bd 35f0 a13d
000000b0: ae44 a03d acda 423d 0b15 8a3d 7b58 513d
000000c0: e0b1 453d ab45 bfbc c76c 79bd 53e3 83bd
000000d0: aaab 57ba 84f3 0bbd a998 5fbd 4263 a3bd
000000e0: 1c75 bdbd f3b4 52bd 415b 293d 2306 113b
000000f0: 2945 5dbd 2817 d03c 27dd a9bd 2b05 ffbc
00000100: 68be e53c 5162 4fbd fdb3 863d 5cfc 0c3c
00000110: 9f82 62bd a62f 75bd 46be 67bd f807 c9bb
00000120: ce5f c23d 63c7 2bbd 67c9 bbbd cf47 bcbd
00000130: c5ab 55bc ca96 4dbd 2da5 38bd d776 73bd
00000140: e34b 053c 204d ba3d 553e b2bc a7b1 72bd
00000150: fbc9 8cbd c476 573d d703 af3c b3a8 b23d
00000160: 60cd 893d 3dd7 31bd 958a 383c 3e76 353c
00000170: ac5d 803d b391 1bbd a695 01bd 80b3 fa3b
00000180: 7b20 833d 0dc7 143d 22f0 acbd 09c0 b23c
00000190: db15 b83d f960 33bd 06e4 81bd 7406 1b3d
000001a0: f788 c33c 4e65 e33c b0ae 01bd 5dfb 76bc
000001b0: 812e 1dbd 2f9b 91bd 0508 b2bd f773 7bbd
000001c0: e64e 86bd 26e0 a33d b250 a5bd 686f 433c
000001d0: daf6 c03d 2626 f8bc 256f d7bc 865e 90bd
000001e0: 941c b23d f99e 8dbd 5926 0e3d 0b15 9ebd
000001f0: 4f4d b2bd 2e09 343d f26f d4bc d98d ef3d
00000200: 12fb 143d 4c50 ab3d c024 ae3d c757 863d
00000210: fc04 103d 3df5 81bd 1ce1 603d f565 8b3d
00000220: ca54 4bbd 58a5 7f39 169f 76bd 6ef7 283d
00000230: 43d9 b03d 6651 e9bc a0ed 75bd 894b b33c
00000240: df6e 003d 6be3 c43d dae5 af3d 2a6f 99bd
00000250: 483e 873d 5089 2dbd 4160 8e3d 89e8 79bc
00000260: 6e12 aaba 057e 79bd 970f 62bd b7e9 393d
00000270: cd5d b5bc 49b8 5ebc 6d28 233d 25a2 91bd
00000280: e323 f4bc 3ea9 babd 9dcd acbd e523 b33d
00000290: f3f2 813d ba4b 6e3d fa7a a5bd df04 28bd
000002a0: 75d5 ad3d ef11 e33c 73df cd3c 3811 87bc
000002b0: 241e 2f3d 5b25 c0bc a314 68bc f042 0dbd
000002c0: 00ba 7f3d 5ae0 9c3d bbd3 da3b 37b6 35bd
000002d0: 4a79 f0bc 4d7b 01bd ff39 123d 0af2 2dbd
000002e0: adea b0bc d2a8 5abd 040e b63d d182 80bd
000002f0: ca1b 173d 2469 443b 38b8 cb3d 5150 04bd
00000300: a879 ac3b 9eea ef3d ea4d 93bd 426c 933d
00000310: 4877 cb3c 4c2d 393d 389c 9bbd f3f6 01bc
00000320: f8f3 093c dcea 72bc c9c2 e8bd 5a5d ddbd
00000330: e854 613c 1125 f83c a55c cfbd 29f6 ecba
00000340: adfe e43d c251 eabc 1c22 78bd 3dec e3bc
00000350: b46b 543d 4b2d 0d3e 9271 0e3d dfbb 0d3d
00000360: 3964 0a3e 1df6 d4bc a95a bfbd e79e c13c
00000370: f155 1dbd 94ef 203c cd57 82bc ec39 a43d
00000380: 84e5 e7bc 6236 60bd 6d78 833d 2015 093d
00000390: f1b9 153d 2146 abbd 2ce0 c2bc fb76 5abd
000003a0: 2008 a13d dd8c b83c d961 1cbc ee91 24bc
000003b0: 0a78 8fbc 1164 c13c 6ca0 7abd 032c e9bc
000003c0: 7564 7abd 6b7f d03c 17c7 a13d 2b82 d83c
000003d0: 1b8e e93c c21b d6bd b0b6 b8bd 7e70 813d
000003e0: a2c4 70bd cb02 563d a70a aabd 64f5 72bd
000003f0: 8135 f83c dc48 18bd 4fed 12bb e3e7 533d

convs.2.bias f4 [32]
-0.03024074 -0.06094656 0.05131637 -0.11412575 -0.058192346 -0.10997398 0.019519363 -0.10861046
-0.098799564 -0.06533567 0.095674865 0.08842256 -0.083359644 0.052702554 0.025843153 0.07528974
-0.066321366 -0.09152719 0.059702303 -0.101851575 -0.09615767 -0.10060528 -0.0586028 -0.066973925
-0.06085659 0.0838934 0.01978055 0.09653378 0.049986757 0.053115062 -0.091820665 -0.016004443
00000000: 6ebb f7bc 1aa3 79bd 1d31 523d c3ba e9bd
00000010: 195b 6ebd 0a3a e1bd 12e7 9f3c 296f debd
00000020: 6d57 cabd b5ce 85bd 2ff1 c33d e316 b53d
00000030: 76b8 aabd a2de 573d 05b5 d33c 8231 9a3d
00000040: 7fd3 87bd 9b72 bbbd 678a 743d 8f97 d0bd
00000050: 50ee c4bd 240a cebd 7d09 70bd a029 89bd
00000060: c244 79bd 4ed0 ab3d d20a a23c 81b3 c53d
00000070: eabe 4c3d 2e8f 593d 790c bcbd c01b 83bc

convs.3.basis f4 [4, 32, 32]
-0.055836264 0.07235854 -0.052956115 0.056951683 0.021044385 -0.035486437 0.07269265 0.037541293
-0.027801173 -0.05044252 -0.09498054 0.10060593 -0.08910265 0.045622863 0.042964786 -0.053034727
-0.017406894 0.002932572 -0.0077739907 0.026925074 0.018844131 0.035992358 0.112756215 0.045968477
0.096207045 0.00046515345 -0.10557776 -0.116253674 0.03613868 -0.10168022 0.033887748 0.0019408099
0.0811178 -0.06832376 0.0582612 0.07219623 0.028250163 0.031789206 -0.08472731 0.022213079
0.12906083 0.048724044 -0.014745972 0.058616433 -0.007460044 0.09252092 -0.060028184 0.07648715
-0.044691443 -0.013402307 0.014358204 -0.0075045857 0.08109713 -0.0836445 -0.025639733 -0.039485317
-0.056792926 0.092068434 -0.049989834 0.06061069 -0.011871303 0.07914508 0.07317282 -0.06829836
-0.03959674 -0.014320005 0.037163407 -0.043868553 -0.07067801 0.069217384 0.07727539 -0.039684333
-0.11330971 -0.052800052 -0.039726097 0.028180698 5.0633776e-06 0.0021418966 0.07796368 0.05369738
-0.008861279 -0.03940086 0.004094393 -0.044668354 -0.07533682 0.07744894 -0.0070527303 0.031922862
-0.025222467 0.041387416 -0.07281589 0.018897474 0.0585167 -0.099232815 0.04084348 -0.011305364
-0.026560852 0.056288853 0.04993224 0.073707856 0.04314032 -0.013414685 -0.050421722 -0.017084997
-0.02548112 0.08491134 -0.0008386863 -0.021143947 -0.06863553 0.0722487 0.02774131 -0.07256128
-0.016627355 0.068776615 -0.067456424 0.077412575 -0.08564908 -0.076753795 0.0070849913 -0.05960651
0.04849761 0.048299536 -0.028567571 -0.058763813 0.0922283 0.05918247 0.0437295 -0.08297015
-0.03476468 -0.028327249 0.005059335 -0.053416785 0.029428473 -0.016649999 -0.0641523 -0.056654423
0.060237188 0.0042464975 0.06217092 -0.0030330415 -0.03257907 -0.0003584971 -0.08249229 -0.042632286
-0.056997266 0.06871037 -0.011738508 -0.06356154 -0.026242107 -0.061424624 -0.045715068 0.055197112
-0.057028957 -0.0606358 -0.047624946 -0.013907936 0.025834976 0.018566173 -0.0038458828 -0.06978692
-0.023517815 -0.06706692 -0.0803629 -0.011533448 0.03631927 -0.018565517 0.055185497 0.008676214
0.07561622 -0.01317381 0.037410814 -0.068370804 0.04311947 0.070780784 0.058346868 -0.034715686
-0.013871839 -0.011954348 -0.084559254 -0.025874458 -0.010099759 0.027268745 -0.013183834 -0.0026111063
0.058446616 -0.02612026 -0.023575142 -0.027601535 -0.007847392 -0.011822946 0.073321186 -0.08740518
-0.078111395 0.0025259003 0.032251228 -0.07153166 0.019068927 0.044203535 -0.07183601 0.07099833
-0.05582049 0.010755126 -0.054956518 0.036599074 0.026756318 -0.042199157 0.08850817 0.05074336
0.044323016 -0.02624208 -0.0089241965 0.026656754 0.03460103 -0.0075310827 0.013861571 -0.07592799
-0.06632219 -0.013751325 0.027434746 -0.079210065 -0.059917297 -0.034897253 -0.04753982 0.0501149
0.06494088 -0.06312172 0.03099468 0.02680134 0.011578286 -0.011838766 -0.037264507 -0.002004143
0.11462163 -0.024159273 -0.006755728 0.046180613 -0.005785595 0.045468673 0.07812563 0.012417487
0.0506926 0.0752466 0.07478847 -0.04355847 0.0024352248 0.061135627 0.0747037 0.07169456
-0.012316267 0.08079675 0.046261687 0.005632526 0.042878233 -0.0059873313 0.11251987 -0.051615786
00000000: 91b4 64bd b730 943d 83e8 58bd 2b46 693d
00000010: 4665 ac3c 3a5a 11bd e2df 943d e6c4 193d
00000020: 49bf e3bc d19c 4ebd 2885 c2bd 7b0a ce3d
00000030: 737b b6bd 0adf 3a3d d8fb 2f3d f13a 59bd
00000040: e798 8ebc 6530 403b f6bc febb f991 dc3c
00000050: 025f 9a3c b96c 133d bbec e63d 7149 3c3d
00000060: 3308 c53d d7df f339 2739 d8bd 6816 eebd
00000070: 2706 143d b83d d0bd e1cd 0a3d c662 fe3a
00000080: 1721 a63d 54ed 8bbd 4ca3 6e3d 9edb 933d
00000090: e36c e73c 6635 023d 8385 adbd 34f8 b53c
000000a0: 8628 043e dd92 473d 1799 71bc c917 703d
000000b0: 6373 f4bb 9c7b bd3d 1de0 75bd 4ba5 9c3d
000000c0: 600e 37bd 5a95 5bbc ac3e 6b3c 07e9 f5bb
000000d0: 4116 a63d cf4d abbd 6b0a d2bc 5bbb 21bd
000000e0: b39f 68bd 608e bc3d 24c2 4cbd ea42 783d
000000f0: db7f 42bc d116 a23d a2db 953d 03e0 8bbd
00000100: 3130 22bd 749e 6abc a838 183d 83af 33bd
00000110: a2bf 90bd d8c1 8d3d 8f42 9e3d 0a8c 22bd
00000120: ec0e e8bd de44 58bd d5b7 22bd 35db e63c
00000130: 15e6 a936 105f 0c3b 6cab 9f3d c9f1 5b3d
00000140: e62e 11bc cc62 21bd 422a 863b 2af6 36bd
00000150: 314a 9abd 8d9d 9e3d 971a e7bb 8cc1 023d
00000160: 599f cebc da85 293d 7f20 95bd e0ce 9a3c
00000170: 35af 6f3d 933a cbbd 7e4b 273d 223a 39bc
00000180: 2596 d9bc 248f 663d c085 4c3d 25f4 963d
00000190: e7b3 303d 44c9 5bbc 0287 4ebd d6f5 8bbc
000001a0: c8bd d0bc ffe5 ad3d 49db 5bba 1236 adbc
000001b0: c990 8cbd 20f7 933d be41 e33c 029b 94bd
000001c0: 1736 88bc c1da 8c3d 9826 8abd 7c8a 9e3d
000001d0: c968 afbd 1831 9dbd 3729 e83b f525 74bd
000001e0: 6ea5 463d bcd5 453d 8a06 eabc 53b2 70bd
000001f0: 31e2 bc3d 5169 723d b41d 333d 41ec a9bd
00000200: 6965 0ebd 8c0e e8bc c7c8 a53b 8fcb 5abd
00000210: fb13 f13c 9465 88bc 4862 83bd 780e 68bd
00000220: 45bb 763d 3426 8b3b efa6 7e3d fec5 46bb
00000230: a271 05bd abf4 bbb9 b8f1 a8bd 319f 2ebd
00000240: f775 69bd 06b8 8c3d df52 40bc 8d2c 82bd
00000250: b0f9 d6bc 6398 7bbd b93f 3bbd 5e16 623d
00000260: 3297 69bd 3f5d 78bd 6012 43bd 1dde 63bc
00000270: dfa3 d33c 1618 983c 350b 7cbb 72ec 8ebd
00000280: 6fa8 c0bc 625a 89bd 4e95 a4bd c9f6 3cbc
00000290: 84c3 143d b616 98bc 300a 623d ae26 0e3c
000002a0: addc 9a3d f7d6 57bc 153c 193d fe05 8cbd
000002b0: 0b9e 303d 84f5 903d 20fd 6e3d 0932 0ebd
000002c0: b646 63bc 2bdc 43bc 672d adbd acf6 d3bc
000002d0: 7679 25bc b462 df3c 0201 58bc 181f 2bbb
000002e0: b865 6f3d 28fa d5bc a820 c1bc 9d1c e2bc
000002f0: 5992 00bc 08b5 41bc 6b29 963d 7d01 b3bd
00000300: def8 9fbd 9389 253b dd19 043d 317f 92bd
00000310: 7036 9c3c c40e 353d c21e 93bd 9367 913d
00000320: 07a4 64bd 4536 303c 161a 61bd e9e8 153d
00000330: 1130 db3c 06d9 2cbd c543 b53d 45d8 4f3d
00000340: 0d8c 353d a1f9 d6bc cb36 12bc 445f da3c
00000350: cfb9 0d3d 4dc7 f6bb a51b 633c 2280 9bbd
00000360: eed3 87bd 3d4d 61bc d5be e03c e338 a2bd
00000370: d76b 75bd 6cf0 0ebd 1db9 42bd 4845 4d3d
00000380: b9ff 843d f645 81bd 8ee8 fd3c 7c8e db3c
00000390: dab2 3d3c 62f7 41bc aba2 18bd f157 03bb
000003a0: bfbe ea3d abe9 c5bc 275f ddbb e227 3d3d
000003b0: 1795 bdbb 5c3d 3a3d 5500 a03d b772 4b3c
000003c0: 0ba3 4f3d e41a 9a3d b32a 993d 5e6a 32bd
000003d0: 4b98 1f3b 5a69 7a3d 41fe 983d 99d4 923d
000003e0: 2bca 49bc c478 a53d e57c 3d3d 0d91 b83b
000003f0: 16a1 2f3d 6031 c4bb d170 e63d 136b 53bd

convs.3.att f4 [10, 4]
-0.0073448927 -0.009403151 0.057494216 0.12887043 -0.03341466 -0.04516647 0.13622545 0.14703651
-0.04490211 0.04566574 0.08109838 0.082363024 0.08490233 -0.0014482103 -0.050666638 0.077030346
0.0045384 -0.047489148 0.06917598 0.033421732 0.06634893 0.0003942833 -0.03936917 -0.052435342
0.025150575 0.006322108 0.018157726 0.01038118 -0.031759594 0.033481285 0.07355175 0.05388047
0.0619133 0.060314983 0.003693127 -0.014453851 0.012157173 0.034618113 -0.03541652 0.08018969
00000000: 6dad f0bb ad0f 1abc 0e7f 6b3d 9cf6 033e
00000010: cfdd 08bd 7a00 39bd af7e 0b3e bd90 163e
00000020: 46eb 37bd 000c 3b3d e816 a63d f2ad a83d
00000030: 46e1 ad3d e0d1 bdba d287 4fbd 16c2 9d3d
00000040: dcb6 943b fb83 42bd 23ac 8d3d 3ae5 083d
00000050: f3e1 873d cfb7 ce39 9141 21bd 71c6 56bd
00000060: 9408 ce3c b029 cf3b 83bf 943c d315 2a3c
00000070: 5916 02bd ac23 093d 4da2 963d c5b1 5c3d
00000080: cd98 7d3d d80c 773d 6408 723b d8cf 6cbc
00000090: e12e 473c b9cb 0d3d ea10 11bd 7e3a a43d
