results/flixster_testmode/model_checkpoint7.pth (torch_old, 199981 bytes, 19 tensors)

convs.0.basis f4 [4, 4, 32]
0.14109342 -0.12974964 0.14205036 0.05286626 0.0619852 0.24973671 -0.062468328 -0.17887652
0.075347014 -0.14049576 0.14296265 -0.07969752 -0.17872931 0.071427315 0.09034053 -0.12026676
0.034240022 -0.073224545 -0.18605734 0.05426553 0.06105228 0.124378234 0.0013161068 -0.15694882
0.0035264553 -0.13743646 -0.06734203 0.012014967 0.11857049 0.25787818 -0.21624906 -0.058896214
-0.105205156 -0.09756477 -0.090086326 -0.10578818 -0.019828545 0.24443056 -0.12677674 -0.09923227
-0.1676432 -0.13693559 0.131034 -0.21986496 -0.13382916 0.06116438 -0.042536367 -0.10196958
-0.19076428 -0.21695839 0.15128252 -0.13574283 -0.1856864 0.11203388 -0.025902566 -0.04461472
0.12276066 -0.013773961 0.002524701 -0.044691008 0.12915076 0.08561559 -0.13766012 0.013333263
-0.07880002 -0.101957306 0.21981266 0.17640147 -0.021802068 -0.1395863 0.08719285 -0.17095076
-0.12696166 -0.10266587 -0.06977391 0.0586211 0.19839741 0.10695174 0.062236525 -0.20624267
0.06409495 -0.063010454 0.13515083 0.17164071 0.07477603 0.1225302 -0.32359594 -0.28010687
-0.27092943 -0.09472546 -0.1365677 0.0055536516 -0.11395886 0.053686313 0.00012778857 0.08423225
0.17796525 0.12944935 0.05949207 -0.13612929 -0.2070643 -0.28215384 -0.08604325 -0.072497174
0.28555974 0.3865899 0.41140613 0.1521367 -0.018189427 -0.029432273 -0.08515907 0.0049946522
-0.2894793 -0.16704307 -0.11317706 -0.01674397 0.037854515 -0.3483709 -0.1598028 0.08359102
-0.17068307 0.14496084 -0.12568878 -0.16646162 -0.025136227 0.196425 0.09317632 -0.005066572
0.06161932 -0.06674314 0.044126164 0.10770799 0.024454655 0.21225424 0.044192597 -0.07733458
0.011762273 -0.059051722 0.013439299 -0.02002774 -0.16614689 0.07502086 0.12732719 -0.14579892
-0.08040118 -0.082015656 -0.05858069 -0.0166378 0.017618462 0.14712702 0.14306067 -0.14931667
0.074362695 -0.13224576 0.048746195 0.026416931 0.01849365 0.17972082 -0.18575832 -0.075645246
-0.050093327 0.0019140884 -0.11714043 0.049051717 0.0069435206 0.19898064 -0.118285365 -0.017638873
-0.0425835 -0.119747266 0.10116065 -0.23632419 -0.13587342 0.018413417 0.08474241 -0.035720874
-0.16302249 -0.1808294 0.08990506 0.025911856 -0.17990696 0.032479722 0.033792127 -0.042983588
0.15158793 -0.071583845 0.02268791 -0.022250844 0.08872546 0.1657027 -0.045803644 0.10336634
-0.02701067 0.01973404 -0.04800516 0.04781928 0.08309699 0.14067088 -0.042730816 -0.11251206
-0.26234835 -0.0014884152 -0.1618078 -0.080800675 0.207273 -0.016073419 -0.2008132 -0.25410157
0.22114396 -0.05670465 0.13752735 0.19245313 -0.14353608 -0.06539744 -0.22239526 -0.29076135
-0.2300469 -0.016786441 0.08535259 -0.049322266 -0.05550428 -0.047074452 -0.031067474 0.008626363
-0.020459604 0.24900508 0.010187104 -0.06075626 0.14980668 -0.16124995 0.035674743 -0.2252976
0.22504918 0.28357947 0.3012427 -0.36522958 -0.15861441 -0.058325186 -0.13251889 0.035236757
-0.16801286 -0.16971797 -0.17307182 -0.10273702 0.05578953 -0.3336999 0.20602027 0.094485894
0.08387449 0.13889371 0.2174509 -0.02977165 -0.008800127 0.12935835 -0.1732969 -0.15631542
00000000: cb7a 103e 17dd 04be a675 113e 4b8a 583d
00000010: 31e4 7d3d fbba 7f3e cade 7fbd 682b 37be
00000020: 894f 9a3d 1fde 0fbe cd64 123e 7438 a3bd
00000030: d104 37be 7c48 923d 7504 b93d 6b4e f6bd
00000040: 443f 0c3d c0f6 95bd d185 3ebe 8845 5e3d
00000050: f511 7a3d 04ba fe3d 3781 ac3a 31b7 20be
00000060: 1a1c 673b 25bc 0cbe 9eea 89bd 6dda 443c
00000070: 16d5 f23d 9c08 843e 6570 5dbe 283d 71bd
00000080: cd75 d7bd 0ad0 c7bd 2e7f b8bd 79a7 d8bd
00000090: 796f a2bc 014c 7a3e c3d1 01be 4a3a cbbd
000000a0: a9aa 2bbe d838 0cbe c72d 063e 4824 61be
000000b0: 830a 09be 8087 7a3d 9d3a 2ebd 6dd5 d0bd
000000c0: b657 43be 572a 5ebe cee9 1a3e 2b00 0bbe
000000d0: 9324 3ebe 0572 e53d 9e31 d4bc edbd 36bd
000000e0: f169 fb3d 2eac 61bc 7475 253b eb0d 37bd
000000f0: 1940 043e 3a57 af3d c6f6 0cbe c273 5a3c
00000100: e861 a1bd fece d0bd 9216 613e 96a2 343e
00000110: 409a b2bc b6ef 0ebe 2a92 b23d b70d 2fbe
00000120: 3d02 02be 7c42 d2bd a0e5 8ebd ae1c 703d
00000130: b128 4b3e 8409 db3d baeb 7e3d 4731 53be
00000140: 3744 833d a00b 81bd fb64 0a3e 95c2 2f3e
00000150: 2d24 993d 1df1 fa3d 5eae a5be 2b6a 8fbe
00000160: 43b7 8abe 6cff c1bd 67d8 0bbe 68fb b53b
00000170: 4363 e9bd 2ee6 5b3d fcfe 0539 f581 ac3d
00000180: 863c 363e 5f8e 043e f5ad 733d 7a65 0bbe
00000190: aa08 54be 7876 90be 7237 b0bd 6679 94bd
000001a0: e334 923e 1def c53e d3a3 d23e b9c9 1b3e
000001b0: fe01 95bc f31b f1bc e167 aebd 2eaa a33b
000001c0: a136 94be 570d 2bbe 60c9 e7bd a62a 89bc
000001d0: 560d 1b3d ac5d b2be 58a3 23be c531 ab3d
000001e0: 8bc7 2ebe 9d70 143e 8fb4 00be ea74 2abe
000001f0: 7dea cdbc a323 493e 3ad3 be3d 7d05 a6bb
00000200: 8a64 7c3d a1b0 88bd a3bd 343d 0296 dc3d
00000210: 2155 c83c 2d59 593e 4c03 353d 9861 9ebd
00000220: 8cb6 403c 38e0 71bd 8130 5c3c 3711 a4bc
00000230: 6922 2abe 89a4 993d 0f62 023e 504c 15be
00000240: 60a9 a4bd d3f7 a7bd 4ef2 6fbd ff4b 88bc
00000250: 9854 903c 77a8 163e 7f7e 123e 78e6 18be
00000260: 784b 983d 6f6b 07be 17aa 473d 5268 d83c
00000270: ff7f 973c bc08 383e 6e37 3ebe e5eb 9abd
00000280: a92e 4dbd 26e2 fa3a 52e7 efbd 74ea 483d
00000290: 7986 e33b 95c1 4b3e 993f f2bd 667f 90bc
000002a0: 096c 2ebd 0e3e f5bd 512d cf3d f8fe 71be
000002b0: 6722 0bbe bcd7 963c 6e8d ad3d 0d50 12bd
000002c0: 5eef 26be 582b 39be 2520 b83d 1a45 d43c
000002d0: 8839 38be 7509 053d 9d69 0a3d 8f0f 30bd
000002e0: de39 1b3e 8d9a 92bd ffdb b93c 6747 b6bc
000002f0: b2b5 b53d f8ad 293e 9a9c 3bbd bbb1 d33d
00000300: 7b45 ddbc 48a9 a13c 0fa1 44bd 26de 433d
00000310: c12e aa3d 070c 103e 8206 2fbd b96c e6bd
00000320: 8652 86be ed16 c3ba f2b0 25be d37a a5bd
00000330: 603f 543e 67ac 83bc faa1 4dbe 9a19 82be
00000340: 9073 623e 2343 68bd f8d3 0c3e 6f12 453e
00000350: 1ffb 12be 18ef 85bd 95bb 63be acde 94be
00000360: 6a91 6bbe b883 89bc 57cd ae3d 2506 4abd
00000370: 7558 63bd 24d1 40bd 3781 febc 9755 0d3c
00000380: e69a a7bc 30fb 7e3e d0e7 263c 8edb 78bd
00000390: ec66 193e b51e 25be ae1f 123d 6ab4 66be
000003a0: 4b73 663e 5431 913e 7c3c 9a3e 5fff babe
000003b0: d16b 22be 64e6 6ebd 08b3 07be 6b54 103d
000003c0: 900b 2cbe 8cca 2dbe bd39 31be c967 d2bd
000003d0: 9083 643d b7da aabe faf6 523e d281 c13d
000003e0: 63c6 ab3d 273a 0e3e 73ab 5e3e ade3 f3bc
000003f0: 682e 10bc 8476 043e be74 31be 2611 20be

convs.0.att f4 [10, 4]
-0.071125515 -0.16535082 0.17921087 0.098776795 -0.0999705 -0.07571682 0.1433141 0.065947905
-0.18048505 0.12783474 0.20636961 0.026851444 -0.19391091 0.16912745 0.15693457 -0.035779335
0.068021335 -0.0580361 0.1315865 0.050735258 -0.08454562 0.25597906 0.27910355 0.19157986
0.0030417694 0.17625837 0.111366056 0.077688284 0.071377486 0.20949902 0.1941118 0.13571186
0.16206044 0.1933247 0.10085577 0.005015372 0.30128855 0.13058773 0.030487265 -0.15387833
00000000: 41aa 91bd ba51 29be 0e83 373e 7d4b ca3d
00000010: 55bd ccbd 6c11 9bbd eec0 123e b20f 873d
00000020: 13d1 38be 1ce7 023e 8e52 533e 8ff7 db3c
00000030: 9590 46be bf2f 2d3e 75b3 203e 5a8d 12bd
00000040: c54e 8b3d 43b7 6dbd 9dbe 063e c6cf 4f3d
00000050: 4126 adbd b00f 833e a9e6 8e3e 832d 443e
00000060: 6c58 473b 137d 343e e313 e43d 091b 9f3d
00000070: 5c2e 923d e986 563e 3ec5 463e 0df8 0a3e
00000080: 2cf3 253e e9f6 453e 788d ce3d fd57 a43b
00000090: 7e42 9a3e cab8 053e 6ec0 f93c 4892 1dbe

convs.0.root f4 [4, 32]
-0.08476567 0.059779804 0.07354273 0.14765263 0.17869836 0.033334654 -0.09699171 -0.24033496
0.18845516 0.3458957 0.30826664 -0.0444081 0.152407 0.09750642 -0.08714535 -0.13053818
-0.12001356 0.20380715 0.057342626 -0.21177618 0.116864786 -0.088288315 0.111109234 0.20885795
-0.07171467 0.20469476 0.00071592303 -0.2970888 0.088295445 -0.2210469 0.03755054 -0.21536922
0.14049274 0.25996056 -0.15079436 0.09571807 -0.13328664 -0.1947385 -0.06569848 -0.27165747
-0.010050968 -0.23841041 0.2073235 0.1845309 0.3152527 0.22646248 -0.151302 0.2417707
0.018471068 0.09745195 0.0905127 -0.12189441 0.02338009 -0.23597038 -0.19010103 -0.34878322
-0.25457534 -0.08498292 0.26001516 0.12432795 0.09900439 -0.09040855 0.25911227 0.26916793
0.084752366 0.12559345 0.103224106 -0.07790297 -0.17816424 -0.18172596 -0.14004302 -0.07884208
-0.046935897 -0.06052096 -0.24138638 0.062129322 -0.022048224 0.21497512 -0.033282973 -0.034494027
-0.14041802 -0.065620735 -0.17215611 0.1555285 0.037285067 0.12813048 -0.1332026 0.12210864
0.051477946 0.15108806 0.024023995 -0.14931746 -0.08912332 -0.14162317 0.119911775 0.038707044
-0.04544987 -0.10824561 -0.016756523 0.18856828 0.14895186 -0.09098844 0.029297026 -0.17312005
-0.15731901 0.23141482 -0.12478336 -0.11233076 0.1661286 0.023670984 -0.0072195646 0.07412662
0.08198889 -0.11583445 -0.018142467 0.18034722 -0.1212707 0.056345165 -0.20606636 -0.18472183
-0.062124204 0.18397503 -0.13931149 -0.040556442 -0.2344755 -0.15996748 -0.0043999953 -0.20797946
00000000: a099 adbd abdb 743d 929d 963d 4032 173e
00000010: b4fc 363e eb89 083d 97a3 c6bd 5e1a 76be
00000020: 64fa 403e 3e19 b13e 20d5 9d3e 45e5 35bd
00000030: 9510 1c3e 72b1 c73d 4379 b2bd cdab 05be
00000040: abc9 f5bd d2b2 503e 1ae0 6a3d dbdb 58be
00000050: ce56 ef3d 81d0 b4bd 3d8d e33d dcde 553e
00000060: 24df 92bd 819b 513e c8ac 3b3a 061c 98be
00000070: 3ed4 b43d 1e5a 62be 98ce 193d c089 5cbe
00000080: 54dd 0f3e 8d19 853e d669 1abe d607 c43d
00000090: 4b7c 08be 8869 47be ed8c 86bd b016 8bbe
000000a0: d1ac 24bc dc21 74be 9d4c 543e abf5 3c3e
000000b0: cd68 a13e c8e5 673e e9ee 1abe bd92 773e
000000c0: a350 973c e394 c73d b95e b93d c7a3 f9bd
000000d0: 9a87 bf3c 38a2 71be d8a9 42be b793 b2be
000000e0: b357 82be 860b aebd b520 853e a79f fe3d
000000f0: d0c2 ca3d 1e28 b9bd 5daa 843e 61d0 893e
00000100: a692 ad3d 929b 003e 2967 d33d 988b 9fbd
00000110: b070 36be 5f16 3abe 7067 0fbe f577 a1bd
00000120: db3f 40bd d3e4 77bd fe2d 77be 517b 7e3d
00000130: 7a9e b4bc 7022 5c3e ba53 08bd 9c49 0dbd
00000140: bec9 0fbe 2a64 86bd b149 30be dd42 1f3e
00000150: 3ab8 183d a334 033e 4366 08be 1814 fa3d
00000160: 8ada 523d d4b6 1a3e f8cd c43c ade6 18be
00000170: 4a86 b6bd aa05 11be 4e94 f53d 478b 1e3d
00000180: a529 3abd e0af ddbd fa44 89bc 0b18 413e
00000190: d686 183e 2658 babd 5100 f03c 6246 31be
000001a0: 3c18 21be 02f8 6c3e 6b8e ffbd ab0d e6bd
000001b0: 9e1d 2a3e a7e9 c13c 1992 ecbb b3cf 973d
000001c0: cbe9 a73d 9d3a edbd 839f 94bc f1ac 383e
000001d0: c65c f8bd 30ca 663d 0f03 53be b827 3dbe
000001e0: f375 7ebd f363 3c3e aca7 0ebe 831e 26bd
000001f0: 581a 70be 84ce 23be d62d 90bb 91f8 54be

convs.0.bias f4 [32]
0.14445865 0.005076541 0.20270346 -0.28145206 0.19406494 -0.025807787 0.1646084 0.11764991
0.16843462 -0.03267618 0.004538568 0.24474016 -0.045520626 -0.23719181 -0.23896635 0.07453956
0.16091526 0.23373309 0.2109297 -0.07890011 0.13821419 -0.28416163 0.1516872 -0.0069282725
-0.018824475 -0.044234496 -0.13973431 -0.0024468105 0.08338949 -0.17276576 0.20540848 -0.044885024
00000000: f8ec 133e 1d59 a63b 7f91 4f3e 7c1a 90be
00000010: f6b8 463e da6a d3bc 1b8f 283e 70f2 f03d
00000020: 207a 2c3e 75d7 05bd 45b8 943b 2a9d 7a3e
00000030: d673 3abd 69e2 72be 98b3 74be 32a8 983d
00000040: f8c6 243e ba57 6f3e f5fd 573e 6296 a1bd
00000050: 0588 0d3e a27d 91be e453 1b3e 9006 e3bb
00000060: c935 9abc 3b2f 35bd 8316 0fbe ab5a 20bb
00000070: 1cc8 aa3d 82e9 30be 9a56 523e 5cd9 37bd

convs.1.basis f4 [4, 32, 32]
-0.058444474 -0.049161654 0.04734995 -0.05696833 0.0668474 -0.033497784 -0.024705028 0.021431245
0.046530098 0.008468427 0.059058804 -0.04583636 -0.05703094 0.118461184 0.10696495 -0.059872072
-0.05382595 0.04922425 -0.013448769 -0.043808673 0.008965772 0.035175618 0.07703819 0.040499177
0.026966425 0.078553304 0.01318177 0.022216816 -0.029086482 0.021565236 0.009653802 -0.03609716
-0.06117193 0.017597541 -0.055884972 -0.074080385 -0.057103757 0.03803273 -0.0754463 0.019668726
-0.038634684 -0.067150034 0.064226195 -0.06764104 0.00015235056 0.06481154 -0.10501098 0.13161108
-0.036087245 0.022245886 -0.0065822923 0.06481633 0.009476143 -0.058433276 -0.020383026 0.043311294
0.047696467 -0.027447624 -0.05438406 -0.07896115 0.022931635 -0.05570704 0.004240864 0.06513746
0.15314658 0.02958525 0.07603521 -0.03611204 -0.03327343 -0.03733741 0.1390808 -0.20594108
0.0021102608 -0.069062084 0.06396433 0.057827123 -0.073928624 -0.06714177 0.041251052 -0.18924251
-0.01101547 -0.07425084 0.052628003 -0.03893248 0.010886121 0.041134167 -0.04538583 0.06171651
-0.0989258 -0.043778956 0.07530738 0.05778098 -0.0051215165 -0.021220446 -0.024093432 -0.05705575
-0.054092176 -0.046824887 0.052536376 0.064355366 0.045867022 -0.01598418 -0.042638265 -0.0031564103
-0.01611082 0.02903919 0.014474947 -0.036179576 0.0056240647 -0.013601324 -0.026516827 0.06622985
0.046150044 -0.08458235 0.017930383 -0.034781277 0.009144445 0.046196125 -0.021980511 0.006883533
-0.034137663 -0.04517005 -0.00026421665 0.0049030315 0.05409686 -0.0020617654 -0.018640388 -0.022007057
0.16413336 -0.00620401 0.0681559 0.10271213 0.05305723 -0.041821666 0.056426257 -0.11342867
0.054419227 0.01684756 0.10300477 -0.05305256 0.051276367 0.0063673817 0.11007165 -0.05020166
0.020609599 0.019582942 -0.060882054 0.044867855 0.04861004 0.012400486 0.09383708 -0.043841727
-0.033759184 -0.0045832866 -0.048744183 0.095035814 -0.08980557 0.08190785 -0.054708008 1.7255445e-05
0.04082805 -0.059074212 -0.021982588 -0.0026050967 0.08444046 -0.04004628 -0.0056711086 -0.034001447
0.058122274 -0.050932564 -0.0019980238 -0.003478193 -0.032335725 0.039978817 -0.034797378 0.10026123
0.05848307 -0.038258668 -0.0034566836 0.014901304 0.078123435 -0.014190209 -0.028906832 0.048604146
0.015110635 0.063099094 0.019269172 0.030041879 0.12585515 -0.04241876 -0.022360994 -0.0029942957
-0.03452632 -0.056891434 -0.088119574 0.00917692 0.06772552 0.049301904 0.047542673 -0.078308776
-0.004486869 -0.03042823 0.051368155 -0.026410837 0.022338208 -0.020070532 0.07432082 -0.11580851
-0.07655333 0.084001206 0.044944916 0.03382793 0.030469636 0.06475662 0.098516606 0.050325133
-0.03145185 -0.10001551 -0.03617529 0.09188774 -0.1357156 -0.027031485 0.01870219 0.053257074
-0.24721779 0.08676555 -0.023377782 -0.077356555 -0.07135208 -0.026825577 -0.16526267 0.15919861
-0.027569706 0.061053373 -0.03106813 -0.12997054 0.011543818 -0.013989267 0.08575523 0.14719827
-0.00944697 0.084698424 -0.111610115 0.04041218 0.009233552 -0.19575082 0.07650072 -0.037788544
-0.054110013 -0.029497446 0.108523265 -0.12763861 0.056137998 0.062018853 -0.021887552 0.015427798
00000000: 7963 6fbd bb5d 49bd 05f2 413d a057 69bd
00000010: 4ae7 883d f934 09bd 3362 cabc 9490 af3c
00000020: 5896 3e3d 28bf 0a3c a5e7 713d e8be 3bbd
00000030: 4699 69bd c79b f23d 7110 db3d 6b3c 75bd
00000040: 9978 5cbd 5e9f 493d 3a58 5cbc b970 33bd
00000050: 2ce5 123c 4f14 103d 33c6 9d3d 77e2 253d
00000060: b1e8 dc3c 8ee0 a03d 5af8 573c 0a00 b63c
00000070: c646 eebc 94a9 b03c fb2a 1e3c 9eda 13bd
00000080: 6b8f 7abd b828 903c a4e7 64bd 75b7 97bd
00000090: a1e5 69bd 35c8 1b3d 9783 9abd 4f20 a13c
000000a0: 673f 1ebd f585 89bd 0689 833d 6387 8abd
000000b0: 4bc0 1f39 eabb 843d ff0f d7bd 0ec5 063e
000000c0: 38d0 13bd 013d b63c 45b0 d7bb 6dbe 843d
000000d0: d341 1b3c bb57 6fbd 4efa a6bc 2f67 313d
000000e0: 5f5d 433d d7d9 e0bc d2c1 5ebd 62b6 a1bd
000000f0: 20db bb3c 112d 64bd f2f6 8a3b ca66 853d
00000100: 75d2 1c3e c45c f23c 59b8 9b3d 38ea 13bd
00000110: b849 08bd 1def 18bd 326b 0e3e 38e2 52be
00000120: 4d4c 0a3b 6c70 8dbd bbff 823d 22dc 6c3d
00000130: e467 97bd a081 89bd ddf6 283d cac8 41be
00000140: 3b7a 34bc d310 98bd 7690 573d aa77 1fbd
00000150: b35b 323c 4d7c 283d 7ee6 39bd 74ca 7c3d
00000160: 9c99 cabd 9051 33bd c13a 9a3d c0ab 6c3d
00000170: 65d2 a7bb 80d6 adbc 975f c5bc 4ab3 69bd
00000180: c28f 5dbd 74cb 3fbd 6230 573d bfcc 833d
00000190: 0fdf 3b3d 41f1 82bc 76a5 2ebd c7db 4ebb
000001a0: d7fa 83bc 98e3 ed3c 5428 6d3c 0931 14bd
000001b0: 134a b83b 16d8 5ebc d139 d9bc 84a3 873d
000001c0: d407 3d3d 8339 adbd bde2 923c d076 0ebd
000001d0: 95d2 153c 2638 3d3d 7910 b4bc 438f e13b
000001e0: efd3 0bbd 3b04 39bd 8f86 8ab9 9ca9 a03b
000001f0: ab94 5d3d af1e 07bb bab3 98bc 2548 b4bc
00000200: 9312 283e 024b cbbb 5295 8b3d bd5a d23d
00000210: 8a52 593d 324d 2bbd 381f 673d 4a4d e8bd
00000220: b2e6 5e3d e503 8a3c 2af4 d23d a44d 59bd
00000230: 2b07 523d 78a5 d03b 3f6d e13d 41a0 4dbd
00000240: 76d5 a83c 686c a03c 765f 79bd 5bc7 373d
00000250: 521b 473d 682b 4b3c a82d c03d 6293 33bd
00000260: 1247 0abd 652f 96bb fba7 47bd 23a2 c23d
00000270: fceb b7bd 4ebf a73d 8115 60bd c9bf 9037
00000280: 503b 273d cdf7 71bd d414 b4bc 45ba 2abb
00000290: 1fef ac3d 9107 24bd b5d4 b9bb 1a45 0bbd
000002a0: 9f11 6e3d aa9e 50bd 47f1 02bb 65f2 63bb
000002b0: 7772 04bd d4c0 233d b287 0ebd c255 cd3d
000002c0: f28b 6f3d 1fb5 1cbd 8789 62bb 9924 743c
000002d0: 2eff 9f3d 0d7e 68bc 05ce ecbc 2415 473d
000002e0: 9992 773c 193a 813d 62da 9d3c 631a f63c
000002f0: 2ce0 003e 4bbf 2dbd 672e b7bc f23b 44bb
00000300: 786b 0dbd fe06 69bd 0978 b4bd cb5a 163c
00000310: adb3 8a3d cbf0 493d 1bbc 423d 5a60 a0bd
00000320: 9606 93bb a044 f9bc 6a67 523d 8a5b d8bc
00000330: 9efe b63c f56a a4bc 8435 983d 032d edbd
00000340: fec7 9cbd d308 ac3d 2918 383d 288f 0a3d
00000350: 759b f93c 1e9f 843d 13c3 c93d ba21 4e3d
00000360: a8d3 00bd efd4 ccbd 8a2c 14bd a42f bc3d
00000370: 08f9 0abe 2271 ddbc 5635 993c 1724 5a3d
00000380: a926 7dbe 23b2 b13d c382 bfbc 1d6d 9ebd
00000390: 0a21 92bd 50c1 dbbc 9e3a 29be f604 233e
000003a0: ddd9 e1bc 1a13 7a3d 9782 febc ff16 05be
000003b0: 4822 3d3c 3d33 65bc 70a0 af3d 25bb 163e
000003c0: 77c7 1abc 5e76 ad3d d893 e4bd 3e87 253d
000003d0: 5348 173c e772 48be 69ac 9c3d 29c8 1abd
000003e0: 76a2 5dbd a1a4 f1bc 7241 de3d b2b3 02be
000003f0: f5f0 653d 7b07 7e3d 864d b3bc e0c4 7c3c

convs.1.att f4 [10, 4]
0.051294297 0.09608568 -0.18983707 -0.077403545 0.11790089 0.10678813 -0.23338021 -0.027739387
0.15729798 0.07827758 -0.20907646 -0.046127032 0.1199257 0.04054156 -0.13288012 -0.11591304
0.11985508 -0.004162258 -0.085984394 -0.069727734 -0.012632866 0.023706106 -0.058387414 -0.06156193
-0.004388492 -0.088008955 -0.052533552 0.030001614 0.018029885 -0.060363147 0.04028341 0.038456604
-0.051186122 -0.023314716 0.031122664 0.06589268 -0.084202506 -0.0688578 0.06647913 0.030302705
00000000: f819 523d 92c8 c43d a664 42be c085 9ebd
00000010: 0676 f13d bcb3 da3d 39fb 6ebe b63d e3bc
00000020: b912 213e ff4f a03d 2418 56be b3ef 3cbd
00000030: 9b9b f53d e80e 263d ba11 08be d163 edbd
00000040: 9576 f53d 8d63 88bb 9618 b0bd 6acd 8ebd
00000050: 15fa 4ebc 4f33 c23c a427 6fbd 5d28 7cbd
00000060: 57cd 8fbb 0a3e b4bd 6c2d 57bd f2c5 f53c
00000070: 69b3 933c 593f 77bd 3800 253d ac84 1d3d
00000080: 8aa8 51bd 81fe bebc f5f4 fe3c bef2 863d
00000090: 5d72 acbd 5105 8dbd 3626 883d 613d f83c

convs.1.root f4 [32, 32]
-0.041327585 0.05232295 -0.012990426 0.03265893 0.006694117 -0.011317869 -0.19667098 0.056882627
0.01086174 -0.043909952 0.070674695 -0.019433137 -0.094306804 -0.033136375 -0.008717173 0.03667838
0.04379086 -0.035382442 -0.10029743 -0.008182035 0.01769699 0.018808015 0.040763844 0.020285625
-0.07657954 -0.030247387 -0.01676775 0.09911709 -0.06576909 -0.076763205 -0.003042792 0.06056111
-0.030957472 -0.0080968 0.064704485 -0.063007884 0.026230978 0.0015580227 0.07254642 0.06576446
0.06783592 -0.07949845 0.048201133 -0.0045968653 -0.116494894 -0.08938733 0.026816279 -0.027760237
2.3994651e-05 -0.010168226 0.041739825 0.032167364 -0.02812417 0.03712914 0.03668115 -0.12098682
0.029871274 0.022247877 0.09363133 -0.08517405 -0.04828948 -0.034956507 -0.028486593 0.04806116
-0.017902378 -0.009030105 0.072482124 5.6774825e-05 -0.024681712 -0.0874716 0.11215429 0.11844343
0.010466876 -0.03268357 0.008687012 -0.07444933 0.026708104 -0.056251377 -0.031405177 -0.043339238
-0.027853027 -0.08635901 -0.056940224 -0.07068662 -0.08348216 0.0022207308 0.0391771 0.058106802
0.04969413 -0.03301922 0.036759574 -0.029956564 0.044808645 -0.040995687 -0.04464965 -0.00034250246
0.08036103 0.08323793 -0.02578635 -0.06670132 -0.058839023 0.054989606 -0.016724845 -0.05495664
-0.059787337 0.07243664 0.09193505 0.07041441 0.052925453 -0.036706932 -0.0076604756 0.04921182
0.042382818 -0.07037416 0.06714428 0.056956593 -0.027487777 0.02648046 0.09458429 0.025030477
-0.033766974 0.021568725 0.098580584 0.10606379 0.05572951 -0.059166484 -0.009955179 0.05210943
0.05527412 0.09259691 0.029715268 -0.07353611 0.07717525 0.07240587 0.028520623 -0.07343194
-0.030703166 -0.05782928 -0.0690186 -0.026486719 0.118500985 0.0192325 -0.051637527 0.007374625
0.040234927 -0.076145165 -0.06300769 0.013044207 0.11921273 0.050885953 0.03215556 -0.011385548
0.0070963465 0.062099498 0.038150832 -0.0415477 -0.05423485 -0.00640464 0.075739175 -0.10870293
0.086222306 0.015810201 0.069449544 0.07171013 0.082064256 0.027075829 -0.025576275 0.09056231
0.07806541 0.013680393 0.08010213 -0.08484994 -0.0564579 -0.062533356 0.0040396024 -0.05275825
-0.11528938 0.044383183 -0.067347296 0.06186057 -0.04988825 0.023285914 0.044658005 -0.04144914
-0.06280526 -0.058659524 0.032410335 0.121921405 -0.07261148 -0.077342466 -0.0045961733 -0.022852832
-0.0059442893 0.014557394 0.042989537 -0.0044541657 -0.07633098 -0.013641445 -0.064197995 -0.091932185
0.08725874 -0.06453792 0.01080772 0.06887496 -0.06317112 0.024715804 -0.05151869 -0.008887793
-0.011238966 -0.030044515 -0.08336315 -0.027047027 -0.03468762 0.07847217 0.08560786 -0.07818196
-0.01158239 0.029497422 -0.036675252 -0.044976715 -0.04710051 0.070040084 0.0052339383 0.05786369
0.025972918 0.057145346 -0.058287557 -0.016090475 -0.04993292 -0.046721715 -0.13706896 -0.08672674
0.005979909 0.05676719 0.023638146 -0.018674385 0.011382325 0.09609076 -0.07590975 -0.09477011
-0.011746551 0.024640394 0.066488214 0.05704801 0.06487283 0.004229422 -0.030699873 -0.0073385593
-0.060816843 0.0027987896 -0.006560601 0.02847505 0.028121335 0.024415184 -0.033204403 -0.036516465
00000000: 1d47 29bd 9750 563d ccd5 54bc 5fc5 053d
00000010: 535a db3b 956e 39bc 1e64 49be c2fd 683d
00000020: 71f5 313c ecda 33bd e5bd 903d 3e32 9fbc
00000030: ed23 c1bd 02ba 07bd 79d2 0ebc 123c 163d
00000040: 0b5e 333d 2eed 10bd bd68 cdbd f10d 06bc
00000050: 47f9 903c 4413 9a3c fdf7 263d 0a2e a63c
00000060: bcd5 9cbd 5ec9 f7bc 855c 89bc e7fd ca3d
00000070: f2b1 86bd 0736 9dbd 9469 47bb ed0e 783d
00000080: 869a fdbc 71a8 04bc c983 843d 470a 81bd
00000090: 59e2 d63c 9136 cc3a 3893 943d 84af 863d
000000a0: 8fed 8a3d 15d0 a2bd 8d6e 453d 4da1 96bb
000000b0: e094 eebd b410 b7bd d0ad db3c 7069 e3bc
000000c0: 1f48 c937 a298 26bc 61f7 2a3d edc1 033d
000000d0: a964 e6bc ba14 183d f93e 163d f0c7 f7bd
000000e0: 9ab4 f43c 2e41 b63c c8c1 bf3d bb6f aebd
000000f0: 31cb 45bd 8e2e 0fbd b75c e9bc c7db 443d
00000100: 02a8 92bc 01f3 13bc 8271 943d 8121 6e38
00000110: 4d31 cabc 4f24 b3bd 26b1 e53d 7892 f23d
00000120: 437d 2b3c 35df 05bd f853 0e3c e478 98bd
00000130: f4ca da3c d867 66bd b7a2 00bd 7c84 31bd
00000140: 082c e4bc fedc b0bd 273a 69bd 26c4 90bd
00000150: b2f8 aabd ae89 113b 2b78 203d 6601 6e3d
00000160: 128c 4b3d 293f 07bd 3591 163d 7867 f5bc
00000170: 4589 373d 18eb 27bd 8de2 36bd e791 b3b9
00000180: 5394 a43d a678 aa3d e53d d3bc b49a 88bd
00000190: 3001 71bd c83c 613d 8b02 89bc 371a 61bd
000001a0: 91e3 74bd a959 943d 7248 bc3d 6e35 903d
000001b0: 5cc8 583d 025a 16bd ba04 fbbb 5592 493d
000001c0: 9b99 2d3d 5420 90bd f182 893d 514b 693d
000001d0: 0c2e e1bc 8ded d83c 69b5 c13d b70c cd3c
000001e0: 3d4f 0abd e5b0 b03c 9ee4 c93d f937 d93d
000001f0: a044 643d 8e58 72bd 0c1b 23bc b370 553d
00000200: 1e67 623d 73a3 bd3d 6f6d f33c 1a9a 96bd
00000210: 0f0e 9e3d 8749 943d 15a4 e93c 7c63 96bd
00000220: 3585 fbbc 65de 6cbd a059 8dbd adfa d8bc
00000230: a5b0 f23d 7a8d 9d3c df81 53bd d7a6 f13b
00000240: 61cd 243d fff1 9bbd 2d0a 81bd 5fb7 553c
00000250: ce25 f43d ca6d 503d 8cb5 033d 738a 3abc
00000260: 7888 e83b 0b5c 7e3d 0c44 1c3d ec2d 2abd
00000270: 5d25 5ebd 04de d1bb 241d 9b3d a49f debd
00000280: 5295 b03d 6584 813c 903b 8e3d c3dc 923d
00000290: 4e11 a83d 21ce dd3c 5685 d1bc bb78 b93d
000002a0: c2e0 9f3d ba23 603c 960c a43d cec5 adbd
000002b0: 6640 67bd 7d11 80bd a45e 843b 0919 58bd
000002c0: d71c ecbd 24cb 353d 61ed 89bd 8261 7d3d
000002d0: 9f57 4cbd 1ac2 be3c 50eb 363d 93c6 29bd
000002e0: 0ba0 80bd f844 70bd b3c0 043d eeb1 f93d
000002f0: 54b5 94bd ba65 9ebd 7f9b 96bb dd35 bbbc
00000300: 50c8 c2bb 2382 6e3c cc15 303d 40f4 91bb
00000310: 6b53 9cbd 5e80 5fbc 3d7a 83bd f146 bcbd
00000320: b6b4 b23d 752c 84bd dd12 313c 510e 8d3d
00000330: dc5f 81bd cc78 ca3c 4305 53bd 1b9e 11bc
00000340: a423 38bc ea1f f6bc 4dba aabd ba91 ddbc
00000350: 9b14 0ebd 04b6 a03d 2c53 af3d dd1d a0bd
00000360: 11c4 3dbc 94a4 f13c ca38 16bd 8139 38bd
00000370: 77ec 40bd 2d71 8f3d 7581 ab3b 7a02 6d3d
00000380: 28c5 d43c 3d11 6a3d efbe 6ebd 2cd0 83bc
00000390: 7686 4cbd 455f 3fbd ce5b 0cbe ca9d b1bd
000003a0: 1df3 c33b b784 683d c9a4 c13c 06fb 98bc
000003b0: ee7c 3a3c 3bcb c43d 9276 9bbd d516 c2bd
000003c0: 9b74 40bc a7da c93c f92a 883d 2dab 693d
000003d0: 0cdc 843d f796 8a3b 4d7e fbbc 4c78 f0bb
000003e0: 151b 79bd e66b 373b 4ffa d6bb 8244 e93c
000003f0: b75e e63c 5a02 c83c 5701 08bd 4a92 15bd

convs.1.bias f4 [32]
-0.04379039 -0.06903152 -0.029732417 -0.05381638 -0.040247675 -0.0913363 -0.08388888 0.019952657
0.009899968 -0.027735926 0.053053178 -0.096562974 -0.088362314 0.075948015 0.1112771 0.08753174
-0.037711017 0.08633383 0.059115443 0.056218907 -0.029586626 -0.06338239 -0.00624959 -0.07900418
-0.063706554 0.07101485 0.012662577 -0.082329854 -0.09522742 0.03238372 -0.059158746 0.048601735
00000000: 8d5d 33bd 6660 8dbd 6691 f3bc 916e 5cbd
00000010: bfda 24bd 870e bbbd efcd abbd c173 a33c
00000020: 7a33 223c 7436 e3bc 4a4e 593d cfc2 c5bd
00000030: 4df7 b4bd a28a 9b3d 40e5 e33d d743 b33d
00000040: de76 1abd cbcf b03d 0923 723d cc45 663d
00000050: a75f f2bc a0ce 81bd 5cc9 ccbb f2cc a1bd
00000060: 9578 82bd 3c70 913d b376 4f3c 8e9c a8bd
00000070: 9806 c3bd cba4 043d 7150 72bd 9d12 473d

convs.2.basis f4 [4, 32, 32]
0.042623125 -0.048902754 -0.015820233 0.024802841 -0.061895877 -0.024202397 0.04437401 -0.0036383837
0.010228322 0.010481872 -0.077135004 -0.003203112 0.043536354 0.013095173 0.060218062 0.017059539
0.008736573 0.06337259 -0.061406434 0.03538386 -0.037291996 -0.017731389 0.068391174 -0.061078805
-0.030074624 -0.06642699 0.040924106 -0.017534846 -0.052457627 0.00017143585 -0.01055337 -0.08012806
-0.024151077 0.0940479 0.0503673 -0.0491674 -0.030894753 -0.04130948 -0.050529998 0.060810838
0.06760359 -0.019013891 0.05578735 -0.024786491 -0.0015732228 -0.05106834 -0.01588905 0.05938139
-0.044446483 0.0018148242 -0.05166102 0.07894619 0.056484353 0.017313076 -0.011781451 0.02883779
-0.0271182 0.004557408 -0.027060345 0.051424727 0.03888289 -0.025180295 -0.042983577 0.0042647677
-0.03839769 0.0023217804 -0.082035355 0.040752698 -0.015191712 -0.06802235 0.023958083 0.027386963
-0.04860814 0.07430687 0.01461697 0.054036047 -0.026496524 0.05486312 0.08110805 -0.054288853
0.013516964 0.06402513 0.055998437 -0.0020196228 0.052782886 0.083459616 0.041409962 0.037950724
0.036175054 0.012922017 -0.07689527 0.006301099 0.023876093 0.024366202 -0.013935852 -0.013241348
-0.042875264 -0.06097782 0.04566186 0.05108263 0.055805817 0.005847412 0.069026016 0.07773135
-0.08672481 -0.07677139 -0.005891506 0.064786166 0.00503392 -0.06964848 -0.059040356 0.029793667
-0.02363067 -0.04012846 0.08080716 -0.026363418 -0.017420636 -0.08323553 -0.038364086 0.05160128
-0.048306473 -0.031627405 -0.037573446 -0.007190468 -0.0042023542 -0.023564534 -0.060517423 0.0063685845
0.06816377 0.049365424 -0.074649535 -0.03899151 0.03238052 -0.06748414 -0.06634151 0.059900746
-0.059097894 -0.047418382 -0.06764132 -0.06420037 -0.0101963645 -0.05141761 0.003936152 0.022727601
0.04610083 0.0199506 -0.054684743 0.06666555 0.007287147 0.0940643 -0.014840407 0.017742705
-0.035880964 -0.0057456326 0.0039243065 -0.062186085 0.021335771 -0.022822686 -0.029275993 -0.051469527
0.010028587 -0.012351396 0.015755108 -0.011984686 -0.04571684 0.037103392 0.059893146 -0.024505503
0.015780643 0.053684387 0.0018502519 0.006186086 -0.04613838 0.0061316285 0.093569666 0.087012015
-0.024561308 0.06804528 0.08492213 0.010625965 0.0012261553 -0.04595036 -0.027051609 0.02126784
0.03410692 0.019592894 0.040293314 0.05694123 -0.06162949 0.054346945 0.026008764 0.0031162768
-0.04300127 0.0036880453 -0.084052145 0.07171742 0.08755859 -0.015702443 -0.006694765 -0.047271788
-0.011418944 -0.020769944 -0.05787749 0.054668903 -0.01424975 -0.08313645 0.0022132173 0.024950217
0.05154119 0.03779178 -0.0050574625 0.015517149 0.009392056 -0.013735758 0.07997112 -0.023333501
0.050400946 0.06969475 -0.021322595 -0.054457396 -0.06356998 -0.07005046 0.044272855 -0.07116499
0.03644412 0.0466699 0.05856358 0.042639315 0.014169056 -0.0019515735 0.07617203 0.017387902
-0.07047297 0.01620181 0.017544974 0.07636782 -0.0075781723 -0.027415596 -0.046315297 -0.05467741
-0.10875653 0.05921907 -0.018409196 -0.04743707 0.0041953446 0.02905267 -0.030172478 -0.009943524
0.03650536 0.0468934 -0.024681456 0.033113338 0.088978685 0.027681695 -0.051632166 -0.028789515
00000000: 9695 2e3d 414e 48bd 6f99 81bc 542f cb3c
00000010: 8886 7dbd 1b44 c6bc 86c1 353d f371 6ebb
00000020: b194 273c 28bc 2b3c f5f8 9dbd 4deb 51bb
00000030: 2d53 323d 238d 563c 37a7 763d 72c0 8b3c
00000040: d823 0f3c 7dc9 813d 5085 7bbd abee 103d
00000050: 7ebf 18bd 6b41 91bc ac10 8c3d c52d 7abd
00000060: 0f5f f6bc e00a 88bd 09a0 273d 3da5 8fbc
00000070: cfdd 56bd 76c3 3339 0be8 2cbc 2e1a a4bd
00000080: 7bd8 c5bc 2f9c c03d f14d 4e3d c163 49bd
00000090: fe16 fdbc 2134 29bd 8bf8 4ebd c914 793d
000000a0: c073 8a3d 05c3 9bbc 4781 643d 0a0d cbbc
000000b0: 9934 ceba 092d 51bd c129 82bc e739 733d
000000c0: 840d 36bd 65df ed3a 819a 53bd 8aae a13d
000000d0: 235c 673d 27d4 8d3c fd06 41bc 3b3d ec3c
000000e0: fd26 debc 4f56 953b a8ad ddbc bca2 523d
000000f0: aa43 1f3d e846 cebc 8c0f 30bd 77bf 8b3b
00000100: e546 1dbd 0329 183b 2702 a8bd 4dec 263d
00000110: a9e6 78bc 4d4f 8bbd be43 c43c a05a e03c
00000120: 5419 47bd 332e 983d 047c 6f3c e754 5d3d
00000130: 3d0f d9bc 27b8 603d fa1b a63d fd5d 5ebd
00000140: 4276 5d3c 9b1f 833d 9e5e 653d a65b 04bb
00000150: de32 583d e0ec aa3d 7e9d 293d 3872 1b3d
00000160: 4b2c 143d deb6 533c 447b 9dbd 7379 ce3b
00000170: cc97 c33c a19b c73c 3353 64bc 3df2 58bc
00000180: f99d 2fbd e1c3 79bd ee07 3b3d 053c 513d
00000190: a494 643d a69b bf3b 835d 8d3d 9d31 9f3d
000001a0: c79c b1bd 523a 9dbd 890d c1bb 9cae 843d
000001b0: 95f3 a43b dda3 8ebd 4dd4 71bd d911 f43c
000001c0: 1b95 c1bc bd5d 24bd 397e a53d 18f8 d7bc
000001d0: b9b5 8ebc 6477 aabd a923 1dbd dd5b 533d
000001e0: 02dd 45bd bd8b 01bd 9de6 19bd 049e ebbb
000001f0: e7b3 89bb 690a c1bc 1ee1 77bd 8faf d03b
00000200: 7299 8b3d 6633 4a3d dbe1 98bd 90b5 1fbd
00000210: 70a1 043d 2035 8abd 0fde 87bd 7c5a 753d
00000220: a210 72bd c739 42bd 8887 8abd 7c7b 83bd
00000230: a70e 27bc 469b 52bd d6fa 803b 3c2f ba3c
00000240: 39d4 3c3d 716f a33c 1cfd 5fbd f387 883d
00000250: 05c9 ee3b c9a4 c03d 2e25 73bc 2659 913c
00000260: ebf7 12bd dc45 bcbb 7897 803b d6b6 7ebd
00000270: 5bc8 ae3c a4f6 babc 35d4 efbc b6d1 52bd
00000280: f14e 243c 825d 4abc db10 813c 6b5b 44bc
00000290: 9541 3bbd baf9 173d 8452 753d c4bf c8bc
000002a0: 6846 813c 29e4 5b3d 2784 f23a a7b4 ca3b
000002b0: 99fb 3cbd d4eb c83b 74a1 bf3d 5b33 b23d
000002c0: cc34 c9bc 535b 8b3d a7eb ad3d 8718 2e3c
000002d0: f2b6 a03a 7236 3cbd 569b ddbc e539 ae3c
000002e0: b3b3 0b3d 4781 a03c 9a0a 253d 353b 693d
000002f0: 346f 7cbd e79a 5e3d 5510 d53c 733a 4c3b
00000300: 1a22 30bd 22b3 713b 8823 acbd 95e0 923d
00000310: eb51 b33d 69a2 80bc c25f dbbb 10a0 41bd
00000320: 8616 3bbc bb25 aabc f210 6dbd 80ec 5f3d
00000330: c977 69bc 7143 aabd a00b 113b 6664 cc3c
00000340: db1c 533d 8ecb 1a3d 12b9 a5bb a43b 7e3c
00000350: 23e1 193c f20b 61bc e6c7 a33d e625 bfbc
00000360: 3971 4e3d 1fbc 8e3d b9ac aebc b80e 5fbd
00000370: fa30 82bd 9e76 8fbd 7457 353d f3be 91bd
00000380: 6e46 153d f028 3f3d 5de0 6f3d 90a6 2e3d
00000390: 5425 683c f1cb ffba 1500 9c3d 1371 8e3c
000003a0: 2254 90bd a9b9 843c 7aba 8f3c bb66 9c3d
000003b0: 5152 f8bb ac96 e0bc 1cb5 3dbd 6bf5 5fbd
000003c0: bebb debd b28f 723d e2ce 96bc 604d 42bd
000003d0: 1a79 893b ddff ed3c 462c f7bc 2aea 22bc
000003e0: a586 153d 4b13 403d c430 cabc daa1 073d
000003f0: 753a b63d b9c4 e23c 407c 53bd fdd7 ebbc

convs.2.att f4 [10, 4]
0.029117925 0.012562051 0.0408477 -0.019005213 0.03132691 0.005746272 0.020742372 0.029459842
0.02333788 0.024480026 0.052478887 0.0023917924 -0.0018887338 0.0017862107 -0.0005326037 -0.0031950276
-0.031897318 -0.034008343 -0.008332317 -0.051021747 -0.0022380697 -0.0037560882 -0.03153541 -0.023230774
0.013774507 0.008891838 0.017428257 0.028934637 -0.022230215 0.0044245366 -0.0019599728 -0.007891019
0.017156765 -0.015792917 -0.012858109 -0.022138296 -0.0054840744 0.009182023 0.011134754 -0.03163508
00000000: b788 ee3c 10d1 4d3c eb4f 273d d2b0 9bbc
00000010: a550 003d 394b bc3b e8eb a93c c455 f13c
00000020: 152f bf3c 568a c83c 1af4 563d 9ebf 1c3b
00000030: 648f f7ba 491f ea3a 6e9e 0bba ab63 51bb
00000040: c3a6 02bd 554c 0bbd 4584 08bc 2efc 50bd
00000050: 94ac 12bb b428 76bb 462b 01bd 774e bebc
00000060: 78ae 613c 12af 113c b4c5 8e3c 5508 ed3c
00000070: 241c b6bc b4fb 903b e372 00bb 5549 01bc
00000080: 588c 8c3c 2660 81bc d1aa 52bc 5f5b b5bc
00000090: c0b3 b3bb 3270 163c 8b6e 363c c993 01bd

convs.2.root f4 [32, 32]
-0.03530869 -0.025120923 0.0127570415 -0.013233619 0.00042303393 -0.057753887 -0.055261105 -0.018166175
0.051263634 -0.06380929 -0.004768256 -0.0060832873 -0.023092056 0.1047151 -0.06258423 -0.07784451
0.025178572 -0.02270251 0.011288361 0.018878935 -0.007400916 0.010366419 -0.021990933 0.047338385
-0.046750695 -0.049154032 0.029415954 0.01298732 0.019890418 0.03659189 -0.03434994 -0.014605908
-0.014379268 0.0021046416 -0.064295426 0.061281197 0.028275376 0.08203561 -0.009886726 -0.06568146
0.037672132 -0.054847676 -0.09491254 0.07019695 0.09070499 0.061835125 0.06406896 0.048997015
0.07589819 -0.01321486 -0.042326193 -0.06894958 -0.041407842 -0.042540494 -0.03771223 -0.07544936
-0.105497964 -0.05023668 0.09137239 0.022165757 -0.037701417 0.037730433 -0.069256485 -0.06492021
-0.017411431 -0.09966338 0.09195094 -0.039364677 -0.074489705 -0.095628 -0.03345388 -0.0385446
0.0643836 -0.07843962 -0.046319492 -0.049166348 -0.04783325 -0.049445234 -0.00851086 -0.026911356
-0.010740513 0.048717167 0.009000239 -0.0807848 -0.11103364 0.01273367 -0.0035326793 0.038596325
0.018206714 0.005650276 0.042698976 0.04985776 0.06855598 0.0072599812 -0.07193112 -0.03547045
0.027314823 -0.010108253 -0.0822064 -0.0048108385 0.06428627 -0.07100122 -0.006334594 -0.008044218
-0.005923943 0.008740831 0.007107539 0.0046210624 -0.07806834 -0.062377617 -0.050680313 -0.04422242
-0.082281835 0.04859402 -0.021479718 -0.009748979 0.056637514 -0.050597854 -0.05117496 -0.054850135
0.060498994 -0.024846233 0.03824397 -0.04391548 -0.036616918 0.05336576 -0.041131347 0.07822606
0.034698926 0.06930946 0.075603195 0.05120086 0.027449513 -0.06437629 0.06240834 0.05211376
-0.043957956 -0.015068823 -0.05252318 0.055152036 0.083775096 -0.040056124 -0.044799287 0.025895977
0.027962904 0.099537216 0.090877324 -0.0806539 0.037602726 -0.050404616 0.069849364 -0.047407188
-0.01800351 -0.05637951 0.0067200204 0.069598116 -0.005112395 0.012828651 0.034224406 -0.07479668
-0.058540486 -0.11352759 -0.08117684 0.057308372 0.04589796 0.033119686 -0.07971042 -0.06415247
0.0514213 0.014379441 0.040819507 -0.0014381986 0.013831608 -0.024157757 -0.021166956 -0.008582291
0.036560424 0.04030384 0.022338593 -0.066227876 -0.04791939 -0.057146046 0.018346196 -0.057911403
-0.029345974 -0.034528505 0.09099307 -0.061681584 0.030634092 0.017668417 0.0703785 -0.023695713
0.03032628 0.14690402 -0.12385488 0.111663565 0.039645273 0.09464291 -0.017859066 0.015671926
0.048203103 0.028335903 -0.14793359 -0.15206376 0.04818839 -0.0075682933 -0.062199548 -0.043586344
0.13116212 0.03123937 -0.06116195 0.022689652 0.07973859 0.18495126 0.060017798 0.03592223
0.17930552 -0.054476164 -0.084750004 -9.8724486e-05 -0.009452982 -0.040478423 0.05382121 0.09059218
-0.02160905 -0.046954617 0.06942863 0.035634726 0.051092304 -0.08350061 -0.019721003 -0.037117604
0.09058669 0.0054481495 -0.009573078 0.0034405226 -0.008732106 -0.007315635 -0.04959032 -0.03459265
-0.054562096 0.036602315 0.04473841 0.025388999 0.033991612 -0.102676176 -0.08350753 0.051374268
-0.07235596 0.0461435 -0.043276675 -0.028724784 0.024347186 -0.013349854 -0.007263142 0.005062361
00000000: d89f 10bd 65ca cdbc e902 513c d2d1 58bc
00000010: a7ca dd39 578f 6cbd 7859 62bd 3bd1 94bc
00000020: d1f9 513d 72ae 82bd 083f 9cbb 5056 c7bb
00000030: 8d2b bdbc df74 d63d 292c 80bd f16c 9fbd
00000040: 4b43 ce3c 9dfa b9bc d1f2 383c ffa7 9a3c
00000050: 6283 f2bb ead7 293c 5426 b4bc e5e5 413d
00000060: a87d 3fbd bd55 49bd baf9 f03c c5c8 543c
00000070: 3bf1 a23c 61e1 153d 86b2 0cbd 9e4d 6fbc
00000080: 0597 6bbc 07ee 093b 52ad 83bd fe01 7b3d
00000090: c3a1 e73c 4902 a83d effb 21bc 0084 86bd
000000a0: 184e 1a3d f5a7 60bd 8161 c2bd 6bc3 8f3d
000000b0: 8ac3 b93d d446 7d3d 9636 833d 18b1 483d
000000c0: 8370 9b3d 2483 58bc 3b5e 2dbd 7035 8dbd
000000d0: 459b 29bd f13e 2ebd 2478 1abd 3285 9abd
000000e0: 510f d8bd fac4 4dbd 7321 bb3d f694 b53c
000000f0: cd6c 1abd 3a8b 1a3d 58d6 8dbd e3f4 84bd
00000100: 6ba2 8ebc 501c ccbd c650 bc3d db3c 21bd
00000110: 0f8e 98bd 9dd8 c3bd f006 09bd f1e0 1dbd
00000120: 8ddb 833d f4a4 a0bd 82b9 3dbd a762 49bd
00000130: ccec 43bd 1687 4abd 2271 0bbc 3475 dcbc
00000140: faf8 2fbc a78b 473d bd75 133c 8072 a5bd
00000150: 9b65 e3bd e2a0 503c 8684 67bb 2e17 1e3d
00000160: 3f26 953c f325 b93b 1fe5 2e3d a737 4c3d
00000170: 1467 8c3d 23e5 ed3b 9f50 93bd 7649 11bd
00000180: 56c3 df3c 169d 25bc d45b a8bd 3da4 9dbb
00000190: 85a8 833d 1669 91bd 6d92 cfbb e5cb 03bc
000001a0: a31d c2bb b435 0f3c 5ce6 e83b 486c 973b
000001b0: 4be2 9fbd ac7f 7fbd 2996 4fbd 9122 35bd
000001c0: 6183 a8bd 860a 473d 3cf6 afbc 2eba 1fbc
000001d0: bdfc 673d b23f 4fbd d69c 51bd 89aa 60bd
000001e0: cbcd 773d 548a cbbc b6a5 1c3d b8e0 33bd
000001f0: 9ffb 15bd 0e96 5a3d 5879 28bd fc34 a03d
00000200: 7620 0e3d 1ef2 8d3d d9d5 9a3d feb7 513d
00000210: cddd e03c b7d7 83bd e39f 7f3d 3d75 553d
00000220: 420d 34bd 39e3 76bc 8c22 57bd 1ae7 613d
00000230: 4792 ab3d e411 24bd 757f 37bd cd23 d43c
00000240: 7612 e53c 2bda cb3d e41d ba3d df2d a5bd
00000250: 5105 1a3d 1275 4ebd 2f0d 8f3d 0a2e 42bd
00000260: 197c 93bc 33ee 66bd 9e33 dc3b 7589 8e3d
00000270: e185 a7bb 432f 523c e42e 0c3d 002f 99bd
00000280: 26c8 6fbd 2781 e8bd 0b40 a6bd 2fbc 6a3d
00000290: 80ff 3b3d 82a8 073d 373f a3bd 5f62 83bd
000002a0: 249f 523d bf97 6b3c 5b32 273d f081 bcba
000002b0: f89d 623c 7de6 c5bc 5366 adbc bd9c 0cbc
000002c0: 62c0 153d a415 253d 6dff b63c 7ba2 87bd
000002d0: 1f47 44bd f911 6abd c34a 963c 8234 6dbd
000002e0: f866 f0bc c36d 0dbd 935a ba3d d4a5 7cbd
000002f0: 59f4 fa3c 5bbd 903c 9a22 903d 831d c2bc
00000300: d26e f83c 026e 163e a1a7 fdbd deaf e43d
00000310: 1563 223d 24d4 c13d 2d4d 92bc 6962 803c
00000320: 9e70 453d b220 e83c e77b 17be 9ab6 1bbe
00000330: 3061 453d 72ff f7bb f4c4 7ebd 9887 32bd
00000340: 5d4f 063e b5e9 ff3c f484 7abd a6df b93c
00000350: fc4d a33d dd63 3d3e 39d5 753d 3023 133d
00000360: de9b 373e 6622 5fbd 6991 adbd 4e0a cfb8
00000370: aee0 1abc b4cc 25bd a173 5c3d 6588 b93d
00000380: 7605 b1bc 7c53 40bd 9930 8e3d b8f5 113d
00000390: 2a46 513d 5e02 abbd f18d a1bc a108 18bd
000003a0: 8485 b93d 6486 b23b 66d8 1cbc 647a 613b
000003b0: 1b11 0fbc ffb7 efbb 381f 4bbd 06b1 0dbd
000003c0: 817c 5fbd 4fec 153d 9f3f 373d 97fc cf3c
000003d0: ca3a 0b3d e347 d2bd ff05 abbd d36d 523d
000003e0: 5d2f 94bd f700 3d3d e242 31bd 3d50 ebbc
000003f0: c073 c73c 59b9 5abc a7ff edbb 29e2 a53b

convs.2.bias f4 [32]
0.005275189 -0.054432433 0.05279727 -0.10849828 -0.053160828 -0.106783345 0.010354932 -0.09757345
-0.08258078 -0.04580153 0.09320873 0.08752136 -0.06538338 0.04188329 0.022012934 0.07576632
-0.06879241 -0.07806388 0.056925513 -0.09506292 -0.09146711 -0.105681844 -0.056058843 -0.052707836
-0.06262431 0.07769659 0.026826033 0.0833773 0.044084422 0.03295435 -0.0804621 6.331556e-05
00000000: 7edb ac3b 8bf4 5ebd f341 583d 5934 debd
00000010: 2bbf 59bd 3ab1 dabd bca7 293c 97d4 c7bd
00000020: 1d20 a9bd 639a 3bbd 38e4 be3d 663e b33d
00000030: b9e7 85bd d08d 2b3d 7854 b43c 5f2b 9b3d
00000040: 09e3 8cbd f5df 9fbd ba2a 693d 59b0 c2bd
00000050: 1c53 bbbd b96f d8bd f59d 65bd 2ce4 57bd
00000060: 2d41 80bd 641f 9f3d 45c2 db3c b8c1 aa3d
00000070: de91 343d 24fb 063d 50c9 a4bd 48c8 8438

convs.3.basis f4 [4, 32, 32]
-0.036847856 0.08411962 -0.050323576 0.054942124 0.014063287 -0.032877583 0.07200768 0.04226344
-0.020425037 -0.0566595 -0.08089208 0.1001636 -0.08602709 0.035145346 0.031700023 -0.053038914
-0.01829291 0.0007933505 -0.0008646321 0.020699747 0.02406511 0.03885034 0.10757167 0.049111396
0.091993086 -0.008260752 -0.103945054 -0.11057077 0.029017307 -0.10025053 0.030151362 -0.005773557
0.0859482 -0.0645967 0.06469208 0.072664976 0.031094695 0.026165565 -0.07914972 0.015790699
0.12428769 0.03905431 -0.013276397 0.051590815 -0.00646391 0.08425481 -0.07980033 0.07634972
-0.034968562 -0.008889934 0.01721338 -0.0026142392 0.08539724 -0.08233952 -0.02637487 -0.039997716
-0.061769612 0.09222217 -0.051268656 0.07296372 -0.009402948 0.082155444 0.061255082 -0.07845004
-0.04364903 -0.045040134 0.026412366 -0.04660332 -0.05013012 0.06794826 0.08785412 -0.02968299
-0.11173417 -0.04912954 -0.034378305 0.029853264 -0.0007651718 0.008903221 0.11004971 0.057980772
-0.014667985 -0.032445997 -0.0048774984 -0.037439413 -0.063001424 0.0789582 -0.0030697454 0.026471144
-0.013747229 0.049296595 -0.04524933 -0.016678847 0.058516167 -0.09646702 0.046180896 0.008909096
-0.016867323 0.06432551 0.04615903 0.07563075 0.034319796 -0.008570064 -0.051074684 -0.016093453
-0.0210877 0.07280449 -0.0022314915 -0.022157112 -0.06669005 0.05986422 -0.013111731 -0.07286329
-0.016530087 0.06526685 -0.057814904 0.07315392 -0.081340976 -0.07278065 0.00900085 -0.05482661
0.04102622 0.0415222 -0.04353716 -0.039940055 0.09023126 0.053118005 0.029120296 -0.09785408
-0.040872656 0.0020746079 -0.0026568454 -0.045332655 0.02899002 -0.014739974 -0.061534 -0.054923836
0.066030554 -0.00018681942 0.05927354 -0.0025677898 -0.031242989 -0.015166444 -0.07949576 -0.04097216
-0.046010908 0.057308074 -0.013698104 -0.043134537 -0.026517875 -0.053521458 -0.040198382 0.063057125
-0.058803517 -0.06435866 -0.0510881 -0.0059763007 0.01820529 0.023800975 -0.003875629 -0.08082441
-0.0079915365 -0.05547282 -0.06722671 -0.0073293266 0.03388259 -0.013763021 0.04397105 0.011750184
0.075283125 -0.01887268 0.04213815 -0.06910452 0.0404237 0.0629089 0.029602233 -0.030174706
-0.0062509924 -0.008952917 -0.07132642 -0.024672782 -0.0021734482 0.028238365 -0.0079179285 0.00019590705
0.047459878 -0.027604982 -0.028226485 -0.015500313 -0.0042350017 -0.011027322 0.061955195 -0.10133603
-0.062297158 -0.01165303 0.034644462 -0.062428836 0.021842668 0.03431202 -0.076819025 0.058655288
-0.058336772 0.023868848 -0.03785055 0.028270992 0.02050739 -0.045124274 0.094410226 0.037369635
0.04533551 -0.028942106 0.0002889377 0.03451606 0.015226282 0.0016587874 0.011844379 -0.071240954
-0.05212939 -0.014379123 0.023713198 -0.086114235 -0.052874304 -0.039460935 -0.03514684 0.06694145
0.06729574 -0.04635655 0.026946198 0.030412098 0.014311771 -0.012742701 -0.03587828 -0.011887263
0.1063938 -0.019702505 0.0031680411 0.035715695 0.0021842807 0.033504155 0.04407565 0.015323384
0.058158986 0.07711617 0.07251001 -0.037105955 0.018231727 0.05565107 0.07209352 0.07006269
-0.020738238 0.0846015 0.031547595 0.011613101 0.040330775 -0.0021957294 0.09838746 -0.058946308
00000000: c7ed 16bd e846 ac3d 1820 4ebd fe0a 613d
00000010: b369 663c a5aa 06bd c378 933d 6e1c 2d3d
00000020: 6852 a7bc cb13 68bd bfaa a5bd 9322 cd3d
00000030: f92e b0bd 91f4 0f3d e2d7 013d 553f 59bd
00000040: 03db 95bc daf8 4f3a 7aa8 62ba 8492 a93c
00000050: 3224 c53c 8921 1f3d 894e dc3d 0829 493d
00000060: df66 bc3d 1b58 07bc 25e1 d4bd ee72 e2bd
00000070: b4b5 ed3c 2650 cdbd fdff f63c 1b30 bdbb
00000080: 9c05 b03d 464b 84bd 487d 843d 60d1 943d
00000090: 4dba fe3c 2b59 d63c 4019 a2bd 7f5b 813c
000000a0: 8b8a fe3d 6af7 1f3d 3f85 59bc e450 533d
000000b0: 35cf d3bb c98d ac3d 5b6e a3bd 3e5d 9c3d
000000c0: 323b 0fbd 16a7 11bc 1303 8d3c a853 2bbb
000000d0: c0e4 ae3d 9fa1 a8bd 1d10 d8bc a5d4 23bd
000000e0: 2202 7dbd fade bc3d 15ff 51bd 016e 953d
000000f0: d30e 1abc 1d41 a83d 9ce6 7a3d 6aaa a0bd
00000100: 53c9 32bd 017c 38bd bf5e d83c 1fe3 3ebd
00000110: 3e55 4dbd 7528 8b3d dcec b33d be29 f3bc
00000120: e2d4 e4bd 0e3c 49bd 44d0 0cbd d58e f43c
00000130: cf95 48ba d1de 113c be61 e13d 3f7d 6d3d
00000140: fd51 70bc 18e6 04bd 6cd3 9fbb 125a 19bd
00000150: e406 81bd d6b4 a13d c82d 49bb 03da d83c
00000160: 0f3c 61bc 3aeb 493d 5d57 39bd 14a2 88bc
00000170: a6ae 6f3d 8090 c5bd 2e28 3d3d 75f7 113c
00000180: 572d 8abc 18bd 833d 4011 3d3d 4be4 9a3d
00000190: ea92 0c3d 7469 0cbc b033 51bd 6bd6 83bc
000001a0: 1dc0 acbc 851a 953d 373e 12bb d582 b5bc
000001b0: cb94 88bd 2f34 753d 96d2 56bc 5939 95bd
000001c0: 1b6a 87bc a0aa 853d 52cf 6cbd b9d1 953d
000001d0: 1996 a6bd 050e 95bd 4d78 133c de91 60bd
000001e0: 1c0b 283d 2f13 2a3d 0554 32bd 2f98 23bd
000001f0: 2bcb b83d 4492 593d b08d ee3c b867 c8bd
00000200: 166a 27bd 25f6 073b 781e 2ebb bcae 39bd
00000210: 7a7c ed3c ef7f 71bc 130b 7cbd d1f7 60bd
00000220: 073b 873d f5e4 43b9 d0c8 723d 5d48 28bb
00000230: 4cf1 ffbc ad7c 78bc acce a2bd 6cd2 27bd
00000240: ef75 3cbd dfbb 6a3d 036e 60bc d7ad 30bd
00000250: 043c d9bc 5139 5bbd 0fa7 24bd 1824 813d
00000260: f5db 70bd 79ce 83bd c141 51bd d8d4 c3bb
00000270: 4323 953c 43fa c23c 44fe 7dbb 4587 a5bd
00000280: efee 02bc 7837 63bd 28ae 89bd d92a f0bb
00000290: 78c8 0a3d 4b7e 61bc fd1a 343d d883 403c
000002a0: 0a2e 9a3d e19a 9abc 0e99 2c3d ac86 8dbd
000002b0: 5293 253d 62d6 803d 6280 f23c f230 f7bc
000002c0: 20d5 ccbb 41af 12bc 9613 92bd 931e cabc
000002d0: 6970 0ebb 2554 e73c 33ba 01bc 666c 4d39
000002e0: 4a65 423d d823 e2bc 3b3b e7bc 06f5 7dbc
000002f0: c5c5 8abb f1ab 34bc bbc4 7d3d 4489 cfbd
00000300: 4e2b 7fbd 5aec 3ebc 5ae7 0d3d 61b5 7fbd
00000310: 65ef b23c c38a 0c3d 4b53 9dbd 8740 703d
00000320: 8af2 6ebd 9a88 c33c 2e09 1bbd 9198 e73c
00000330: 1dff a73c 3bd4 38bd 265a c13d e710 193d
00000340: bab1 393d ff17 edbc 907c 9739 b660 0d3d
00000350: a877 793c ab6b d93a ed0e 423c c7e6 91bd
00000360: a185 55bd 6a96 6bbc 2e42 c23c a95c b0bd
00000370: ba92 58bd caa1 21bd 22f6 0fbd 9918 893d
00000380: 59d2 893d 5ee0 3dbd 46be dc3c cb22 f93c
00000390: eb7b 6a3c c3c6 50bc 1af5 12bd cbc2 42bc
000003a0: fee4 d93d 2667 a1bc e99e 4f3b 9f4a 123d
000003b0: 2626 0f3b a73b 093d ab88 343d ee0e 7b3c
000003c0: 1e38 6e3d 15ef 9d3d 2180 943d 6afc 17bd
000003d0: b45a 953c 60f2 633d c4a5 933d 077d 8f3d
000003e0: 3de3 a9bc 8d43 ad3d 0d38 013d e044 3e3c
000003f0: e231 253d 3ae6 0fbb 5d7f c93d af71 71bd

convs.3.att f4 [10, 4]
-0.034882333 -0.008452259 0.05557288 0.12343491 -0.036689736 0.004117853 0.069733955 0.117387205
-0.0022964778 0.00011964985 0.013138474 0.08287126 0.009249091 -0.002623676 -0.024830071 0.03252664
0.009383924 -0.012322729 9.2353264e-05 -0.0036869256 0.024762612 -0.007637485 -0.04074587 -0.045806758
0.0073546236 -0.0014931168 -0.0077679977 -0.009775547 -0.023197394 0.010160246 0.03686578 0.022014808
0.015074352 0.0018641208 -0.0018094932 -0.018813323 0.0014802977 -0.008116423 -0.026385091 0.053467996
00000000: c7e0 0ebd 587b 0abc 63a0 633d 71cb fc3d
00000010: fa47 16bd 0eef 863b add0 8e3d b468 f03d
00000020: 8180 16bb 86ec fa38 c142 573c 68b8 a93d
00000030: 8089 173c fbf1 2bbb 6f68 cbbc a73a 053d
00000040: 08bf 193c 46e5 49bc c8ad c138 59a0 71bb
00000050: f6da ca3c de43 fabb 24e5 26bd de9f 3bbd
00000060: 0eff f03b b0b4 c3ba b08a febb 9e29 20bc
00000070: 7608 bebc 2977 263c 9200 173d 6658 b43c
00000080: 6afa 763c 8455 f43a 842c edba 661e 9abc
00000090: 8c06 c23a bffa 04bc 8c25 d8bc 4201 5b3d
