results/flixster_testmode/model_checkpoint36.pth (torch_old, 199981 bytes, 19 tensors)

convs.0.basis f4 [4, 4, 32]
000000 5f fe 41 3c 61 08 0c 3c 7f 1c d0 3c 41 78 dd 3c
       0.011840432 0.00854692 0.025404213 0.02703488
000010 50 3d 9a bd ee 29 45 3e 6f a8 f9 bd ea 23 e7 bd
       -0.07531226 0.19254276 -0.12190329 -0.11286147
000020 41 e8 b5 3d 46 c2 47 be dc 68 bc 3d 1b 46 ca bd
       0.088821895 -0.19507703 0.09199688 -0.09876653
000030 15 92 4e be d3 c3 aa 3d 89 df 17 3e 18 39 de bd
       -0.20172913 0.08338132 0.14831366 -0.108507335
000040 5f e3 6e bd 9f 80 ac bd 31 9c 4b be f9 f8 1c bc
       -0.058322307 -0.0842297 -0.19883801 -0.009580844
000050 66 25 4f 3d 69 08 43 3e 5f 36 60 3d 5a ff 9e bd
       0.050572775 0.19046177 0.054739352 -0.07763548
000060 8c 02 8e 3d e7 5b ee bd 8d 46 ec 3d d4 2e 84 3c
       0.069340795 -0.11638623 0.11536894 0.01613561
000070 eb 43 19 3e 03 d1 8b 3e 7a 61 17 be 7a c3 15 3d
       0.14967315 0.273079 -0.14783278 0.036563374
000080 5e a6 3f be 66 09 03 be 85 52 dd bd e9 c0 07 3d
       -0.18715808 -0.12796554 -0.10806755 0.033142958
000090 df 00 04 3d d1 4a 7b 3e 0f 82 dd 3b 93 a6 b8 bd
       0.032227393 0.24540259 0.006759889 -0.090161465
0000a0 5e 94 6d be ee 99 9f bd 9c 6d de 3d 04 1d 60 be
       -0.23201129 -0.07793032 0.1086075 -0.21886069
0000b0 2d 2e a5 3c 98 41 56 bb 8b 4b b4 3c 2a 8c d4 bd
       0.02016362 -0.0032692906 0.022008678 -0.10378297
0000c0 f5 77 0e bd 27 35 5f be 06 6f c1 3d 1e e0 e7 bd
       -0.03478237 -0.2179762 0.09445004 -0.11322044
0000d0 3c 80 a1 bd 66 fe 03 3e 7d da ce bd 6a 1a db bd
       -0.07885787 0.12890014 -0.10100267 -0.106983975
0000e0 5e e8 99 ba bf 80 93 bd 68 07 92 bc 84 bf 58 3d
       -0.0011742224 -0.07202291 -0.017825797 0.05291702
0000f0 ad 94 a3 3d 74 5d f4 3d f5 f0 7b be 27 61 3c bc
       0.07987342 0.11931887 -0.24603637 -0.011497772
000100 a6 94 88 bd 3e 7a be bd 07 f4 a0 3c de 68 e1 3c
       -0.066689774 -0.093006596 0.019647611 0.027515825
000110 14 6b e6 3b 1e 91 a6 bd e6 ad 00 3d ff e1 a5 be
       0.0070318077 -0.08133148 0.031415842 -0.32398984
000120 61 f8 da be 23 c1 06 3d b3 7b 70 3c 9f 4f 9a 3d
       -0.42767623 0.032899033 0.01467793 0.07534718
000130 93 c3 84 3e 7a 71 55 3d ea 08 57 3d 74 ea 37 be
       0.2593046 0.052110173 0.052498735 -0.1796053
000140 d1 88 5c 3c 3f 40 90 bd ee b4 29 3d 83 36 90 3d
       0.013460354 -0.07043504 0.041432314 0.07041647
000150 d5 6e 29 3d 4a 9f ce 3d 70 91 39 bf 34 16 ed be
       0.041365463 0.10088976 -0.72487545 -0.46306002
000160 42 35 c7 be ca dd ff 3c a3 ed 89 bd 93 c8 15 3d
       -0.3890782 0.031233687 -0.06734779 0.036568236
000170 cf 33 6d bd ec 29 03 3d 5d d0 05 bc c2 1c f6 3d
       -0.057910737 0.0320224 -0.008167353 0.12017204
000180 b8 ad e1 3d 57 12 60 bd e5 7e 54 bc eb dd 22 3c
       0.11019462 -0.05470499 -0.012969707 0.009940605
000190 ef c6 02 be 5d 7e 98 be 00 30 1d bd 95 b3 9b 3d
       -0.127712 -0.29783908 -0.038375854 0.07602612
0001a0 2c 9c bd 3e 58 ff 21 3f f3 02 27 3f 57 8d 1c 3e
       0.37033212 0.6328025 0.65238875 0.15288292
0001b0 90 29 86 3d 98 e0 18 3d 18 33 99 3c d9 d8 fc bc
       0.06550896 0.037323564 0.018701121 -0.03086512
0001c0 42 b3 e2 be 40 a7 ea bb f8 d2 36 be 75 36 16 bd
       -0.44277388 -0.007161051 -0.17853916 -0.036673028
0001d0 ce b2 8e bd 80 f5 15 bf cb 59 cf bd ae 67 e4 3c
       -0.06967698 -0.5857773 -0.101245485 0.02788147
0001e0 19 76 42 bd 96 55 8d 3e 4c 91 24 be 43 93 52 be
       -0.047475908 0.2760436 -0.16071051 -0.20563988
0001f0 30 4d 15 bc 10 af 03 3d 87 48 31 3e 60 d7 6d 3d
       -0.009112641 0.032149374 0.17312823 0.058066726
000200 8d 11 83 3c 5d 90 fc 3c 09 94 7c 3c fd 22 65 3b
       0.01599958 0.030830557 0.015416154 0.0034963482
000210 ab 49 8a bd d8 01 8c 3d 6b b7 db bc 23 04 90 bd
       -0.06752332 0.06836289 -0.026820859 -0.07032039
000220 42 63 94 bc 5d 3f 0b be 94 11 5f 3d fc 27 71 3c
       -0.018113736 -0.1359839 0.054460123 0.014719006
000230 79 17 0c be 68 1f e6 3c ad e8 11 3e 60 63 2c be
       -0.13680829 0.028091148 0.14248915 -0.16834784
000240 10 9f 91 bd 9a 33 bb bc 3c 9c c2 bd 7d 57 5a bd
       -0.07110417 -0.022851754 -0.095024556 -0.05330609
000250 54 e9 70 3c e9 7d 1e 3e 72 f8 dd 3d a4 b3 bb bd
       0.014704067 0.15477718 0.10838403 -0.09165123
000260 e0 d0 5b 3d c0 2d 5f bd 1e 80 dc 3d ca 80 be bb
       0.053665996 -0.05448699 0.10766624 -0.0058136927
000270 d8 bb b2 3d e4 a6 3f 3e b7 30 82 bd ad 01 16 3d
       0.087272346 0.18716007 -0.06356948 0.036622692
000280 46 88 08 be 5d 47 ef bd 92 4f 04 be 51 cb 00 3e
       -0.13333234 -0.11683533 -0.12920979 0.12577559
000290 2c 61 99 3c 03 6a 4f 3e 07 ee f4 bc 45 f6 db bc
       0.018723093 0.20255284 -0.029898657 -0.026850829
0002a0 04 23 02 be bb 00 d8 bd d0 73 c3 3d 60 57 56 be
       -0.1270867 -0.10547014 0.09543574 -0.20931768
0002b0 11 1c 10 3b 06 33 48 bc 19 7a bb 3d 90 e0 8c bd
       0.0021989385 -0.012219196 0.09154148 -0.068787694
0002c0 db 30 09 bd fb be 12 be f0 30 95 3c f9 0f c2 bd
       -0.033493858 -0.14330666 0.018211812 -0.09475703
0002d0 57 06 93 bd 85 45 df 3d d8 ec 6e bc 57 9b 66 bd
       -0.071789436 0.10901932 -0.014582835 -0.056300487
0002e0 bc e9 c2 3c 19 37 32 bd 61 ca 2f bc 9e 91 94 3c
       0.023793094 -0.043509576 -0.010729403 0.018135842
0002f0 ae 5b 0c 3e 2b b8 50 3e ff 2d 53 be 7f d2 5e 3c
       0.13706848 0.20382755 -0.20623015 0.013599991
000300 be 15 84 bc 92 c6 da 3c 58 37 e4 bd cc 36 9d 3c
       -0.016123649 0.026706014 -0.111433685 0.019191168
000310 61 5f 83 3d 13 a3 c8 3d db fb c7 3c cf e5 56 be
       0.064146765 0.09796729 0.024412086 -0.20986103
000320 20 a4 13 bf e2 92 76 3d d2 5a da bd e3 80 e6 bd
       -0.5767231 0.060198672 -0.10661854 -0.11255052
000330 f2 23 8d 3e 5b 47 27 3c 75 56 1c be e2 38 5b be
       0.27566487 0.010209884 -0.15267356 -0.21408418
000340 88 d0 16 3e 9b fa 1a bd 65 6a c7 3d fb 20 f4 3d
       0.14727986 -0.037836652 0.0973709 0.11920353
000350 f8 42 c6 bd 47 4a ea bc 9b f8 1b bf 3b 10 d5 be
       -0.09680742 -0.028599871 -0.60926217 -0.41613945
000360 f2 80 ad be e6 1a 6c 3c 21 b8 51 3d e4 6f 4a bd
       -0.3388744 0.01441071 0.05120099 -0.049423113
000370 f1 47 63 3c 90 a7 97 bd 88 bd 87 bd b6 4d 51 3c
       0.013872133 -0.07405007 -0.06627947 0.012774875
000380 3e 54 b3 bb a9 63 08 3e 23 bb de 3b e7 27 34 3c
       -0.005472689 0.13319267 0.006797211 0.010995842
000390 62 e4 0c 3e 66 57 b5 bd 0e 08 1c 3d 4e 48 aa bd
       0.13758996 -0.088545606 0.03809362 -0.08314572
0003a0 cb 93 89 3e 87 ba fd 3e 9e f7 c6 3e 46 cb 19 bf
       0.2687057 0.49556372 0.38860792 -0.60075796
0003b0 a9 36 b6 bd 70 e0 33 bd 93 40 de bc f7 f4 c9 3c
       -0.08897144 -0.043915212 -0.0271304 0.024652941
0003c0 62 7f 75 be 16 27 c6 bd 57 bf 52 be f9 ac 57 bc
       -0.23974374 -0.09675424 -0.20580803 -0.0131637985
0003d0 56 c5 b8 3c 30 a3 c2 be 0f 59 3f 3e 3d dc ef 3a
       0.022555035 -0.38015127 0.18686317 0.0018299889
0003e0 83 de 8b 3d 55 27 1d 3e 98 9d a5 3d 22 9c b2 bb
       0.0682955 0.15347035 0.08086699 -0.0054507414
0003f0 91 51 ab 3c 30 34 34 3c 60 45 f8 bd b8 96 18 be
       0.020912917 0.010998771 -0.12122607 -0.14901245

convs.0.att f4 [10, 4]
000000 07 60 cb bd c4 c2 44 be 46 3a 98 3e a9 73 39 3e
       -0.09930425 -0.19214922 0.2973196 0.18110527
000010 34 a2 5e be 6b 2a 36 bd c7 a9 c1 3e c4 bf 36 3e
       -0.21741563 -0.044474047 0.37824842 0.1784659
000020 75 66 78 be 59 ce f0 3d da 7f c7 3e 66 30 18 3e
       -0.24257834 0.11758108 0.3896473 0.14862213
000030 c8 10 46 be b9 2b 36 3e 2b b7 bf 3e 40 2b df 3d
       -0.19342339 0.17790116 0.37444434 0.10896921
000040 19 ff 85 bd 0e 2c a8 3d 94 55 9a 3e eb 1f 46 3e
       -0.06542797 0.08211528 0.30143416 0.19348113
000050 63 6e 03 bd a5 60 23 3e a8 37 8c 3e 3a 6a 2f 3e
       -0.032087695 0.15954836 0.27386212 0.17130366
000060 48 ac d1 3a ae 6a 67 3e 3a 2b 48 3e ab b0 c4 3d
       0.0015996778 0.22599289 0.1954774 0.09604009
000070 45 b2 cc 3d ef 21 5d 3e d2 fd 1c 3e d2 c3 f2 3c
       0.0999494 0.21594976 0.153312 0.02963439
000080 54 2a 32 3e 46 55 4d 3e a0 81 a3 3d 4c 93 22 bd
       0.1739896 0.2005206 0.079837084 -0.039691254
000090 2d d7 ab 3e 1d ba 20 3e eb 3a 8b 3c da ff cb bd
       0.33562604 0.15695997 0.016995868 -0.09960909

convs.0.root f4 [4, 32]
000000 d1 ce d7 bd d5 69 9f 3c 96 3f 8a bd b9 77 53 3e
       -0.10537494 0.019459644 -0.06750409 0.2065114
000010 f5 c2 60 3d ed 79 b8 3c 96 b3 e7 bd e3 53 4b be
       0.054873426 0.022519076 -0.1131355 -0.19856219
000020 58 01 4f 3e b6 f4 bf 3e 01 4a a7 3e 7a 0a cd bd
       0.20215356 0.37491387 0.32673648 -0.10011764
000030 3f 7a 7f 3d c8 0c 25 3e 67 cd 3f bc 79 44 65 bd
       0.062372442 0.16118157 -0.011706687 -0.055973504
000040 cd c4 53 be b2 0b 4b 3e f9 a5 d2 3c 38 b5 6f be
       -0.20680542 0.1982868 0.025713908 -0.23408973
000050 aa 03 21 bd bd f7 f8 bd de fa 43 bc f2 bb 0d 3e
       -0.039310135 -0.12156627 -0.011961667 0.13841227
000060 28 fb 6a 3c f5 ec 47 3e 8f d1 b3 bb 6e 33 5c be
       0.014342107 0.19523986 -0.005487628 -0.21503994
000070 0a 34 8f 3c c3 2a 67 be 71 5a 9c 3d dc 8b 00 be
       0.017480869 -0.22574906 0.07634438 -0.12553352
000080 97 e1 21 3e 90 06 7c 3d cf a1 1e be 77 8b 57 3e
       0.15808712 0.061529696 -0.15491413 0.21049295
000090 8e e1 bb bd 76 fb 39 bd 94 ac ec bd 8b fa b4 bd
       -0.091738805 -0.045405827 -0.11556354 -0.0883685
0000a0 62 c4 e7 3c 1d ec 1b be 79 f3 cd bc dd 89 f6 3d
       0.028291885 -0.15226789 -0.02514051 0.12038014
0000b0 88 6c 70 3e d4 b2 25 3e 22 75 60 bd 34 16 af 3e
       0.23478901 0.16181499 -0.054799207 0.34196627
0000c0 71 93 84 bd 03 c7 92 3d 53 86 86 bc a0 cb 42 bb
       -0.06473435 0.07166865 -0.016421473 -0.002972342
0000d0 a8 bd 8c bd 72 c6 11 be 65 17 1c be f2 fa a3 be
       -0.068721116 -0.14235857 -0.152433 -0.32027394
0000e0 d8 f2 35 be 3e 1b 12 3d 3a a8 c1 3d 33 dd c2 bc
       -0.17768419 0.03567051 0.09455915 -0.023787117
0000f0 bf a1 53 3c a7 2c 0f bb c0 d3 40 3e 19 f3 80 3e
       0.012916981 -0.0021846683 0.18830776 0.2518547
000100 4c 2f 33 bd 75 d5 0f 3e 50 53 73 bc 0d 5f 93 bc
       -0.043746278 0.14046271 -0.014851406 -0.01798966
000110 26 eb 8a bd b2 6b 48 be a5 1d b6 bd 78 88 22 be
       -0.06783132 -0.19572333 -0.08892373 -0.15872371
000120 37 74 a2 bd a7 bb 88 3d f8 d1 05 be cd ea 34 bd
       -0.079323225 0.06676417 -0.13068378 -0.044169236
000130 cc 71 4c 3d f9 18 35 3e b2 cc ae bc c2 50 25 bd
       0.049913213 0.17685308 -0.02133784 -0.04036022
000140 87 cd 01 be f1 d4 03 be c2 69 13 be 6a cd 4f 3e
       -0.12676059 -0.128742 -0.14395812 0.20293203
000150 ea 27 99 bc ae 05 83 3d 29 74 0f be 2d 1b 12 3d
       -0.01869579 0.06397568 -0.14009155 0.035670448
000160 4a ca 21 3d f8 f7 8a 3d 88 05 c0 3d c1 4b 1c bd
       0.03949956 0.067855775 0.09376055 -0.038158182
000170 fd bb 21 be f8 8a df bd aa 8e a2 bc 46 cc 2b bd
       -0.15794368 -0.10915178 -0.019843418 -0.041942857
000180 da 49 fa bd f2 9a 5a bc 42 b5 a0 bd 65 c5 4d 3e
       -0.12221117 -0.013342606 -0.07847072 0.20094831
000190 89 a6 39 bd 06 49 89 bd 04 ac 68 bd a1 8e 1e be
       -0.045324836 -0.06703381 -0.056804672 -0.15484096
0001a0 84 49 23 be ba a2 81 3d f3 be 5a bd 15 96 05 be
       -0.15946013 0.06329866 -0.05340476 -0.13045533
0001b0 ad b2 1c 3e 6d 38 19 3e c7 9d 9f 3d f0 48 9a 3b
       0.15302534 0.14962931 0.077937655 0.004708402
0001c0 9b 5a 9a 3c 07 62 28 be 1e 8d 7f bd fd 35 f2 3d
       0.018842032 -0.16443644 -0.06239044 0.11826704
0001d0 33 b2 6a bd 3a 58 14 3e 59 cd 39 be 4c d3 e0 bd
       -0.05729885 0.14486781 -0.1814474 -0.10977802
0001e0 b8 b8 45 bd 4d 99 e0 3d 6d 04 cf 3c 06 87 3e bd
       -0.048271865 0.1096674 0.025270665 -0.046515487
0001f0 f9 4a 17 be 1a 92 fe bc 1c 7c f4 bd fd 3c 48 bd
       -0.14774694 -0.031075526 -0.119377345 -0.048886288

convs.0.bias f4 [32]
000000 5b d3 fc 3d 67 71 fd bb d1 16 9d 3d 8f f1 4a be
       0.12345 -0.007734466 0.076703675 -0.1981871
000010 5c ca 99 3d 1c 84 f6 3c cd 86 b2 3d e4 9a 1b 3e
       0.075093 0.030092292 0.087171175 0.15195805
000020 fc 8a 36 3e 27 d9 9e bc 98 e0 ad 3c 74 eb 09 3e
       0.17826456 -0.019390656 0.021225259 0.13468724
000030 4f ed b6 bd 35 09 37 be ec 3b 05 be 02 89 57 3d
       -0.08931982 -0.17874606 -0.1301114 0.052620895
000040 87 52 69 3d 9b da 43 3e 8a e1 03 3e 12 bf d1 bd
       0.05696347 0.1912636 0.12879005 -0.10241522
000050 cf 24 d9 3c ef a9 65 be 5d 70 20 3e 01 79 db 3c
       0.02650681 -0.22428106 0.15667863 0.026791098
000060 e6 f6 b6 3c 1c 63 b1 bd 74 5b a1 bd 00 cb 4b 3d
       0.022334527 -0.08661482 -0.078787714 0.049754143
000070 b5 5b bd 3d bd 71 bd bd 4a 6b 14 3e 7d db a9 3c
       0.09246007 -0.092502095 0.14494053 0.020734543

convs.1.basis f4 [4, 32, 32]
000000 a6 f9 90 bd 79 f7 60 bd 78 7c b3 bd 46 52 71 bd
       -0.07078867 -0.05492351 -0.08763975 -0.058916353
000010 3a 3e 8f bd 92 da 83 bd d4 a7 63 be 01 2c 38 3d
       -0.06994291 -0.06438173 -0.2223199 0.04496384
000020 e4 d8 82 3d c3 f0 94 3c 84 66 a9 bc f2 1c 44 3d
       0.06389025 0.01818121 -0.020678766 0.047879167
000030 ff 97 b9 bd 73 10 94 bd 5d f9 0f 3c e1 fe bb 3c
       -0.09062194 -0.072297 0.00878748 0.022948684
000040 2e 27 76 3d a8 d9 b1 3c 6d df 47 3d 2e b0 2b bc
       0.06009596 0.021710232 0.04879706 -0.010479016
000050 f3 d5 43 3c 4e 27 0f be 48 03 3c bd fd 9d 57 bd
       0.011952865 -0.13979837 -0.045901567 -0.052640904
000060 0b 88 33 bd 0c 8e 69 3d b6 fc f1 bc bc 8c 2c 3d
       -0.043830913 0.057020232 -0.029539447 0.042126402
000070 0a 11 7b 3d 73 c0 5b 3b 92 26 1e 3c b2 4d 5c bc
       0.061295547 0.0033531457 0.009652751 -0.013446258
000080 69 ff 95 3c 5a 4f 46 3c f4 e9 42 bc f6 9e 1e 3c
       0.018310266 0.01210388 -0.011896599 0.009681454
000090 61 da 46 bc 10 b6 51 ba 50 29 fd bd d3 45 bc bc
       -0.0121370265 -0.0007999847 -0.12361395 -0.022982514
0000a0 e3 4a 58 3c 29 6f cd 3b 1e f2 36 3d b5 3b d9 3c
       0.013201448 0.006269355 0.044664495 0.026517728
0000b0 fa a7 9d bc be 55 8b 3a b9 8f be 3b 8f 9f a4 3c
       -0.019245137 0.0010630412 0.005815473 0.020095615
0000c0 46 1b b4 3b ed 9c e4 3c f4 2a 0e bc cd 45 ba 3c
       0.0054964153 0.02790686 -0.008677233 0.022738362
0000d0 eb 05 78 bb a0 cd 89 bd 75 da 75 bc 79 4a d3 bc
       -0.0037845324 -0.06728673 -0.0150056975 -0.025792347
0000e0 61 64 87 bc 65 7a 1b 3c 1b 9a 04 3c 5f c7 b5 bd
       -0.016527357 0.00948963 0.008093382 -0.08875918
0000f0 2b ac 49 bb 16 55 6a 3c 85 a6 10 3d 6c 4f 12 bc
       -0.0030772786 0.014302513 0.035315055 -0.008930068
000100 5a 2a 9e bb f1 84 36 3c 3e 97 26 3b f6 9f e6 bc
       -0.004826826 0.011140094 0.0025419737 -0.028152447
000110 24 6e c7 bc 6a 1d c0 3c e9 8e 95 3d d6 37 72 bd
       -0.024344511 0.023451526 0.073026486 -0.05913528
000120 d9 94 3b 3c d4 46 c1 ba e0 4b ba 3c 55 4d 14 ba
       0.011449062 -0.001474584 0.022741258 -0.00056572753
000130 d0 92 3a bb 63 42 e2 bb ed 96 d5 3c 62 a7 8b bd
       -0.0028468855 -0.0069048866 0.026072944 -0.06819035
000140 ba ed 01 3c a9 c0 62 3c f5 59 66 3c 91 7f a5 3c
       0.007930214 0.013839879 0.014059533 0.02020243
000150 a9 2b d3 3b c0 2e a9 3c 80 ed 4a 3b 50 44 6a 3c
       0.0064444137 0.020652175 0.0030964315 0.0142985135
000160 b3 62 51 bc 6b 75 0f 3c e5 76 8b bb a7 cb 52 3d
       -0.012779879 0.008756022 -0.0042561167 0.05146375
000170 3c bc c6 bb 6b c0 4f 3c 58 4a 0b 3c 82 00 d3 bb
       -0.0060649198 0.012680153 0.008501612 -0.0064392695
000180 52 d2 24 bd a7 1d 26 bc c9 17 cd bb 6e f2 92 3b
       -0.04023964 -0.010138906 -0.006258939 0.0044844663
000190 ef da 12 3d a3 f3 83 bc 28 2c ab 3d f1 99 13 3d
       0.035853323 -0.016107386 0.083580315 0.03603548
0001a0 c0 e5 43 bc e4 dd 23 3d d6 ed f8 bc 19 a5 50 bd
       -0.011956632 0.040006533 -0.030386847 -0.0509387
0001b0 d7 ed 53 3d 68 36 0a bd 71 6c cb bc ff f4 23 3d
       0.051740494 -0.033743292 -0.024831982 0.04002857
0001c0 d2 33 12 bc 91 66 eb bc 48 7d 4b 3c 5e ed 86 bc
       -0.008923488 -0.02873543 0.012420006 -0.016470607
0001d0 e0 e6 05 ba 4d 58 3a 3d bc 20 a5 bc 1c 70 79 3c
       -0.00051079504 0.045494366 -0.02015721 0.015224483
0001e0 66 13 3b 3d 3f 5b 68 bc 69 73 ea bc 38 64 0d 3d
       0.045672797 -0.014181911 -0.028619485 0.034519404
0001f0 b8 7f c6 bc 57 cc 46 3c a2 b4 92 bc 55 21 1e 3d
       -0.024230823 0.012133679 -0.017908398 0.038606007
000200 98 5c a4 bc 5b 9c 88 bc 51 d7 8d 3c 0d 9f 38 3b
       -0.020063683 -0.016676119 0.017314585 0.0028170974
000210 1d 73 cf bb 62 0d 51 bc 51 51 4a 3d 9e 34 a0 3d
       -0.0063308612 -0.012759538 0.049393956 0.07822536
000220 74 31 cc 3b 17 8d d6 3b b1 12 6e bb c0 84 49 bc
       0.006231481 0.006547581 -0.003632706 -0.0122997165
000230 31 58 3d 3d c6 5f dc 3b 1d cf 98 3c 51 65 9c bc
       0.046226684 0.0067252843 0.018653447 -0.01909128
000240 a5 17 11 bc 16 49 0b bc 78 6d bc bb 93 a5 79 b9
       -0.008855735 -0.008501312 -0.0057503544 -0.00023808172
000250 59 37 3c 3c 96 bb a1 bd 32 7f 2a 3d 0d 24 7a bc
       0.011487805 -0.07897107 0.04162521 -0.015267384
000260 ad 20 17 bc e1 35 3c 3c c5 18 55 3b de d7 89 3d
       -0.009224099 0.011487455 0.0032515984 0.067306265
000270 75 5f f7 bc 42 5e d3 3c 10 cf db 3b 6f 2d 8d 3b
       -0.030196885 0.025801782 0.0067080334 0.0043083946
000280 8e ab da bc 43 a2 15 bc 45 e5 09 3c 29 d7 96 bd
       -0.026693132 -0.0091329245 0.0084164785 -0.07365257
000290 55 05 fa 3c e8 9b 3e 3d bb 29 87 3e 9b 8e 00 3d
       0.03052012 0.046535403 0.26399025 0.031386
0002a0 77 01 fd 3b e1 1c ad 3b 84 50 e1 bc 35 07 8a 3b
       0.007721122 0.0052829836 -0.027504213 0.004212285
0002b0 a1 8d eb 3d 40 63 a4 3b d7 89 a4 bd ef 5e 91 3d
       0.11501623 0.0050167143 -0.08034103 0.07098185
0002c0 4c 08 24 ba 94 e7 05 bd 8b 73 57 3b e6 1e 82 3b
       -0.000625734 -0.032691553 0.0032875265 0.0039709685
0002d0 14 1b 24 bd 13 57 4a 3d 5d a8 35 bd 8e 21 b7 3b
       -0.040064886 0.049399447 -0.044350017 0.005588717
0002e0 fb ea ce 3d 21 23 6f bc 99 4a cd 38 2b e2 5f 3d
       0.10103413 -0.014595778 9.789057e-05 0.05465905
0002f0 17 c1 96 bc d3 f2 69 3c 57 e8 a1 3c b7 ed 64 3d
       -0.01840262 0.014279085 0.019764109 0.055890765
000300 22 7b ce bc 5d 3f ce 3a 72 59 92 3c 42 91 88 3c
       -0.025205199 0.0015735436 0.017864916 0.016670827
000310 82 37 27 3c 6b 54 91 bb 27 c3 52 bc e4 18 3f 3c
       0.010206105 -0.0044351122 -0.012863911 0.011663649
000320 ef 9f 6e bb 5b a6 3e 3c dd a8 98 bb 28 6e b0 bc
       -0.0036411246 0.011636342 -0.004658802 -0.021536902
000330 db 97 49 bc 1f af b7 3a 20 c9 5a bc 99 10 ab 3c
       -0.012304272 0.0014013982 -0.013353616 0.020881938
000340 1b 2d bc bc 9c ab 7c 3b 06 23 4a 3c fc 70 43 3c
       -0.022970727 0.0038554436 0.012337452 0.011928793
000350 9a 0d aa 3c da b0 1c 3c 57 83 18 bc ae 41 88 3c
       0.020758439 0.009563649 -0.009308658 0.016632881
000360 11 6c 7b 3b 60 2f 65 bb 52 e9 45 bc cf 8e cd 3c
       0.0038363973 -0.0034970865 -0.012079554 0.02509251
000370 de b9 8c ba c4 e5 b4 bc 74 31 e7 3a 6b 96 8d bc
       -0.0010736545 -0.022082217 0.001763864 -0.017283639
000380 8b 1d 48 be 3d a2 92 bd 04 69 cf bd b4 6a 23 bd
       -0.1954252 -0.07159851 -0.10127452 -0.039896682
000390 5f cf 87 bd 19 7b 30 be 37 0f 48 be 72 64 1d 3e
       -0.0663135 -0.17234458 -0.19537054 0.15370348
0003a0 2d d4 88 3d c5 48 b4 3c 94 30 85 bd c4 62 f6 3c
       0.06681094 0.022007355 -0.06503406 0.030076392
0003b0 aa 09 bd bd a9 30 d1 bd a9 06 5d bb c3 e4 4d 3e
       -0.09230359 -0.10214359 -0.0033725894 0.20106797
0003c0 e1 7e 8f 3d d3 6e 66 bc 7a 6b 41 3d ad a7 cb bc
       0.07006622 -0.0140645085 0.04722164 -0.024860227
0003d0 0d b7 92 3c da 4a 95 be 72 b5 9a bc 4b 63 28 bd
       0.017909551 -0.2915867 -0.018885348 -0.04111032
0003e0 c2 57 da bc 53 6b e5 3c 72 ac 1b bd 01 99 d9 bd
       -0.026653174 0.028005278 -0.038006254 -0.10624886
0003f0 92 0a c8 3d ac ea ab bc 8b 57 b1 bc e5 63 15 bc
       0.09767641 -0.020985924 -0.021648189 -0.009118055

convs.1.att f4 [10, 4]
000000 1f 49 c1 bd fa 92 36 3e 99 4a 9a be f9 63 cc 3b
       -0.09437775 0.17829505 -0.30135038 0.0062375036
000010 64 89 1c 3d e1 83 0c 3e 19 42 8c be 56 91 c6 ba
       0.038216963 0.13722183 -0.27394179 -0.0015149515
000020 d4 b0 07 3e 5c 96 d0 3d e1 65 85 be 4c 12 63 bd
       0.13251048 0.10184929 -0.2605429 -0.05543737
000030 68 a2 e5 3d 93 29 99 3c f6 f7 56 be 44 ac 8b bd
       0.11212617 0.018696582 -0.20993027 -0.068199664
000040 09 d4 e3 3d 75 7d 61 bd f1 56 14 be fd 08 95 bd
       0.11124427 -0.055051286 -0.1448629 -0.07277105
000050 36 2b 84 3d 00 04 fa bd af 3e f2 bd aa 59 cb bd
       0.06453554 -0.12207794 -0.11828362 -0.099292114
000060 01 d4 60 3d 24 af 1a be 7e 78 93 bd b2 55 47 3d
       0.054889683 -0.15105873 -0.072007164 0.04866571
000070 2d 4e c0 3c f1 8a 3b be 4e 18 d5 3b 5b 3f cb 3d
       0.023474777 -0.1831472 0.0065031415 0.099241935
000080 62 8a 21 bd 53 cf 2f be ac cd 03 3d 63 7d b6 3d
       -0.039438613 -0.17168932 0.032178566 0.08910634
000090 e7 20 3f be 9e cb 2a be 3b 81 94 3d d9 3b 0a 3d
       -0.18664895 -0.16679236 0.07251211 0.03374848

convs.1.root f4 [32, 32]
000000 d4 29 3f bd e8 9f e1 3c c0 ec ce 3c e2 4b cf bb
       -0.04667075 0.02754207 0.025259376 -0.0063261846
000010 96 67 06 3d f8 c6 09 bd 76 d7 27 be 7a d4 ad 3d
       0.03281363 -0.033637017 -0.16390786 0.08487792
000020 ba fc e6 bc 47 96 b0 bc 3f 56 21 bc 03 24 18 bc
       -0.028196681 -0.021556033 -0.009847223 -0.00928593
000030 d6 62 78 bd 51 8a 82 bc 91 d1 63 bd 6f db e6 3c
       -0.060641132 -0.015935095 -0.05561978 0.028180806
000040 ed d1 cc 3b b0 72 63 bd f3 1c 81 bd b2 2e 24 3c
       0.006250611 -0.055529296 -0.0630435 0.010020899
000050 ca a9 37 bd fe 05 b9 bb 58 6a ac bc 50 d3 16 3d
       -0.044839658 -0.0056464663 -0.021046802 0.036822617
000060 73 80 65 bc 16 d9 48 bd d3 fb 89 bd fd 80 28 3e
       -0.014007675 -0.049035154 -0.06737485 0.16455455
000070 5a 27 bc bc d0 c1 d4 bd 71 91 94 bd 10 68 da 3c
       -0.022967983 -0.10388529 -0.07254303 0.026660949
000080 85 cf 43 bc c0 f2 33 bd 05 f6 9a 3d 1e 81 65 3d
       -0.011951332 -0.043932676 0.07566456 0.05603134
000090 aa 32 64 bb 78 6b 3c bc 8f 19 e8 3d a4 05 95 3d
       -0.0034820237 -0.011500232 0.11333 0.072764665
0000a0 c1 66 66 3d ab ff d9 bd 2d e2 14 3d 4a 62 7e 3d
       0.056250338 -0.10644468 0.03634851 0.062105455
0000b0 04 20 20 bd f3 54 ae bd 6b c1 39 ba 19 4b 97 bd
       -0.039093032 -0.085122965 -0.00070860115 -0.073873706
0000c0 47 4f 25 3c 1c 6d d4 bc 4e 43 f0 3d 88 4d 61 3d
       0.010089702 -0.025930934 0.11731587 0.05500558
0000d0 3c 44 b0 3b 9f 09 6f 3d b2 c2 fc bc ad e2 b5 bd
       0.005379228 0.058358785 -0.030854557 -0.088811256
0000e0 2c 3d 07 3d fc da 4a 3d 12 b9 80 bd fa a6 56 bc
       0.033017322 0.049525246 -0.06285299 -0.013101334
0000f0 05 b8 59 3c 03 c8 94 bd 87 20 42 bc c7 e4 ca bd
       0.013288503 -0.07264712 -0.011848575 -0.09906917
000100 d5 43 a3 3c 1d 4b a5 3d c4 44 f5 bb 4c cb 97 3d
       0.019929806 0.08070967 -0.007485004 0.07411823
000110 f9 66 08 3d d8 c2 83 bd 04 e2 82 3d a5 c6 48 3d
       0.033301327 -0.06433648 0.06390765 0.049017567
000120 c4 20 33 3b 0a 64 3c bc 11 fb 7a 3c 92 89 2a 3d
       0.0027332762 -0.011498461 0.015318648 0.041635104
000130 93 5d 0c 3c 4b b0 30 bc 6e ca 12 bd 68 7b d7 bc
       0.008567232 -0.010784219 -0.035837583 -0.026303962
000140 40 7a 72 3b b6 07 55 bd 73 93 ab bc 1d 5c 28 bd
       0.0036999136 -0.052009307 -0.020944333 -0.04110347
000150 6d fe a9 3c 97 44 01 bd 68 92 f0 ba 5b a8 6f 3a
       0.020751202 -0.031559553 -0.0018354179 0.00091422134
000160 ca 0b b8 3c c4 eb 66 3d 41 4a 8f 3d aa c8 43 3d
       0.022466559 0.056377187 0.06996585 0.04779879
000170 f5 5f 19 3d 19 d6 b6 bd 5e 25 2b bc a1 b1 46 3a
       0.037445027 -0.08927555 -0.010445921 0.00075795694
000180 5a 1b a6 3c 09 56 49 3d 6f bb a5 3c c2 8a c2 bd
       0.020276714 0.049154315 0.020230977 -0.09499122
000190 2c b4 2c bd d8 9b 13 3d 26 51 01 bc 74 57 2d bc
       -0.042164013 0.036037296 -0.007892882 -0.0105799325
0001a0 b6 7f d3 bc 7c 21 b6 3d 59 ef 80 3d b6 92 ec bc
       -0.025817733 0.088931054 0.06295652 -0.028878551
0001b0 c3 f0 54 3d 2d bf 84 bc 25 12 fa bb d9 45 37 3d
       0.05198742 -0.016204441 -0.0076315575 0.044744346
0001c0 ef 6c a4 bb ea 54 a9 3c 21 77 b4 3d 7b bc b9 3d
       -0.0050178687 0.020670373 0.088117845 0.09069153
0001d0 40 72 02 bd 22 c5 4c 3c f3 d0 b4 3d c0 33 ed bb
       -0.03184724 0.012498172 0.088289164 -0.007238835
0001e0 10 3b 47 bd 97 6b d7 3c d0 12 7f 3d 78 f8 b5 3d
       -0.04864031 0.02629642 0.0622738 0.08885282
0001f0 c0 e5 3d 3d 0b 73 ad 3a 72 26 18 3c 8e 67 03 3e
       0.046361685 0.0013233138 0.00928651 0.12832472
000200 6e d5 16 3d d1 3b da 3d ca 37 99 3d 36 8e 47 3c
       0.036824636 0.1065594 0.07481344 0.012179902
000210 83 92 9b 3d 60 66 b3 3c 79 96 b2 3d 29 3d 82 bd
       0.07596304 0.021899402 0.08720107 -0.063593216
000220 ba 56 10 bd 87 54 62 bd 06 1d 9b bd 1f cc 04 bc
       -0.03523896 -0.055256393 -0.07573895 -0.008105307
000230 5d bd b5 3d 12 44 1f bc d0 0b d8 bd 95 30 0e 3d
       0.08874009 -0.009720819 -0.10549128 0.0347143
000240 d1 5f 1a 3b 8c 22 a3 bc 51 8b 03 bd d1 92 7c 3d
       0.0023555646 -0.019913934 -0.032115284 0.061663453
000250 63 ac 9a 3d ef 5a 1c 3e b1 ba d4 bc 99 54 ad bc
       0.075524114 0.15269063 -0.025967928 -0.021158503
000260 5a 9b 32 bc f9 46 74 3d 37 3b 3f 3c 80 9c 4d bd
       -0.0109012965 0.059637997 0.011671833 -0.05019808
000270 94 cf 32 bb ba 6a 56 bd c6 02 b4 3d 7a c7 5f bd
       -0.002728437 -0.052347876 0.087895915 -0.054633595
000280 fa 22 9d 3d 96 77 21 3c c7 b1 12 3d 26 96 9d 3d
       0.07672687 0.009855172 0.035814073 0.07694654
000290 59 20 0a 3d 7d 2b f4 3c f4 64 4e bc bb 28 90 3d
       0.033722255 0.029805893 -0.012597311 0.07039019
0002a0 44 e0 82 3d ef fa d6 3c 90 b1 c9 3d df 59 d6 bd
       0.063904315 0.026242701 0.098483205 -0.1046636
0002b0 85 52 9c bd 97 b9 96 bd 59 98 60 3d 3c 9f e8 bb
       -0.07632927 -0.07359617 0.05483279 -0.0070990603
0002c0 09 d8 c5 bd 89 95 22 3d 55 86 72 bd 93 a7 31 3d
       -0.09660346 0.03969339 -0.05921014 0.0433727
0002d0 54 d4 ca bc bf f4 66 3d 89 4b 91 3d d1 cd 1e bd
       -0.024759449 0.05638575 0.07094485 -0.0387705
0002e0 f4 7a 04 be 51 32 28 bd b8 ac 46 bc 46 8b 41 3e
       -0.12937528 -0.04106361 -0.01212614 0.18900785
0002f0 3f c1 db bd 72 1c de bc 24 d0 95 bb ff c9 61 bd
       -0.10730218 -0.027113173 -0.0045719314 -0.05512428
000300 cb 15 23 bd 33 dd 2f bd ae 77 03 3e 90 13 30 bd
       -0.039815705 -0.04293556 0.12838623 -0.042987406
000310 c4 95 72 bd 87 5b 19 bd 5c 5b 1d bd 7f fd 55 bd
       -0.05922486 -0.037440803 -0.038417205 -0.052243706
000320 8c 0b cd bb 13 c2 2d bb 68 37 9d bd 62 94 cd bb
       -0.00625748 -0.0026513382 -0.076765835 -0.006273792
000330 57 3b c9 3b 93 7f 56 3d 46 0f a6 bd 98 f3 bc bc
       0.006141107 0.052367758 -0.08108382 -0.023065373
000340 92 36 57 bd 76 45 e4 3b 1b 03 00 be 88 16 99 3b
       -0.052542277 0.006966288 -0.12501185 0.0046718754
000350 23 fd 44 bb 6b 8d b1 3d ba 40 fb 3d c4 c9 9a 3c
       -0.0030058108 0.086695515 0.12268205 0.018895037
000360 be e7 0f 3d ba 37 8b 3c f1 8f d6 bc 7e 31 8b bd
       0.035133116 0.016994346 -0.026191683 -0.06796549
000370 06 48 ee bd 3d af ac bc fe 15 16 3d 2d 6b 01 3e
       -0.11634831 -0.021079654 0.036642067 0.1263854
000380 fc c6 06 bc 1a 62 46 3d 95 b3 49 bd c1 4c 57 bd
       -0.0082261525 0.0484334 -0.04924353 -0.052563433
000390 f8 00 95 bc 56 1c 7d bd ca ce 30 be 27 67 32 bd
       -0.018188938 -0.0617946 -0.17266384 -0.043555405
0003a0 fa 39 52 bc 3e e6 4e 3d 73 08 21 3d 45 5b 13 bd
       -0.0128312055 0.050512545 0.0393147 -0.035975713
0003b0 77 5b 06 bd eb b2 a0 3d 75 d3 6a bd c0 fd 1b bd
       -0.03280207 0.07846626 -0.057330567 -0.03808379
0003c0 5a 65 73 bc 1c dd f2 3b 4b 4a 08 3d 15 f0 9c 3d
       -0.014855707 0.007411612 0.033273976 0.076629795
0003d0 ab 21 42 3d 2a 9f 1e bd fd 7d 10 3c db 46 45 bc
       0.04739539 -0.03872601 0.0088191 -0.012040819
0003e0 0f 61 7e bd 38 32 9e bc 54 a0 62 3c 9b bc 38 3d
       -0.06210428 -0.019311056 0.0138321705 0.045101743
0003f0 0f e9 da 3a 8c 0c 96 3d 5e 47 10 bd df 2d 26 bd
       0.0016701537 0.07326612 -0.03522431 -0.04057109

convs.1.bias f4 [32]
000000 9e fd 95 bd e8 31 17 bd 4a 88 e8 bc ad 62 34 bd
       -0.07323764 -0.03691283 -0.0283853 -0.044039417
000010 66 e6 a9 bc aa 56 fa bd b2 40 34 bd 34 7c 8a 3d
       -0.020739745 -0.12223561 -0.04400701 0.06761971
000020 68 48 3e 3c e7 7c bd bc a0 32 92 3c 6d 36 1c bd
       0.011613943 -0.023130847 0.017846406 -0.038137842
000030 51 88 9d bd eb 6c bb 3c 65 07 b5 3d 59 b3 f6 3d
       -0.07692016 0.022879085 0.08839301 0.120459266
000040 4e a7 58 bc 30 df 44 3d 09 4a 85 3d 30 5e b7 3c
       -0.013223482 0.04806441 0.06508262 0.02238378
000050 06 8d 56 bc c6 2b f7 bc d8 ee e1 bc 78 5d 75 bd
       -0.013095146 -0.03017224 -0.02757971 -0.059903592
000060 2b e0 15 bd 0d ec 9b 3d 75 58 e9 bb ca 95 cf bd
       -0.036590736 0.076133825 -0.0071211406 -0.10135992
000070 03 1b 00 bd c4 ec 00 3c 88 fb f5 bc be 74 3a 3d
       -0.03127576 0.007868949 -0.030027166 0.04552149

convs.2.basis f4 [4, 32, 32]
000000 19 5c a1 3c 01 85 ae bb 2a b3 99 3c ec d6 43 3d
       0.019697236 -0.005325914 0.01876219 0.047812387
000010 a5 b5 77 bd 7b 5e 3b 39 91 b3 ab 3a 43 eb 95 3d
       -0.060475964 0.00017868906 0.001309978 0.07320263
000020 61 ce 3d bb da e2 de 3c 94 5a 83 bd c0 f9 d1 3c
       -0.0028962123 0.02720778 -0.06413761 0.025631785
000030 97 17 4a 3d c7 19 ff 3b 19 7d 91 3a 28 50 2c bd
       0.049338903 0.0077850553 0.0011099904 -0.04206863
000040 d3 f9 1b 3c b0 d3 4c 3d 4d 9d 30 bd 78 30 33 bc
       0.009520012 0.05000657 -0.043118764 -0.010936849
000050 0e bd 90 bc 8b 80 c9 3c ed 74 62 3d bf a6 a6 3b
       -0.017668273 0.024597427 0.05528729 0.0050857957
000060 ef 64 35 bd 96 e8 15 3d dc 47 5a 3b 8e cc d5 3c
       -0.04428571 0.036598764 0.0033306992 0.026098516
000070 73 de 00 3d 0e e8 cf bc f3 4e 88 3b 7e 2b 69 bd
       0.031462144 -0.025379207 0.004159802 -0.056926243
000080 a7 c3 82 bc 22 e4 34 3d 1f 43 9d 3b e1 da 90 3a
       -0.015962435 0.044162877 0.004799261 0.0011051559
000090 e2 85 07 bc 47 e5 25 bd ea 43 68 3b 8d a3 c4 3a
       -0.008271666 -0.04050186 0.003544087 0.0015002355
0000a0 ee 4e 0a 3d 14 70 fa 3b 3a 1b 0a 3d 5b 74 af bc
       0.03376668 0.0076427553 0.03371737 -0.021417787
0000b0 63 fc 08 bd be 9a fd bc 63 7b 0e 3d 8a 2c 1a 3d
       -0.03344382 -0.030957576 0.03478564 0.037640132
0000c0 38 b3 2d bc ce 1c 3e 3b 42 06 20 bd 32 82 65 3c
       -0.010601811 0.0029008868 -0.039068468 0.014008092
0000d0 c1 19 55 3d 85 a1 66 3d d1 7b 5e 3d 5e 17 4b bc
       0.052026514 0.05630638 0.0543173 -0.012395708
0000e0 1d 77 78 3d b4 31 ed bd b1 2e 08 bd 6a 90 27 3b
       0.06066047 -0.11581746 -0.033247653 0.0025568255
0000f0 ee 62 1b 3d 7d 97 8b bd 85 da 39 3b 8b 26 fb 3c
       0.037936144 -0.068160035 0.0028359008 0.030658027
000100 94 82 ca bc 82 63 32 3d 7c 5c ef bc 5b 1e af 3c
       -0.024720468 0.04355193 -0.029218905 0.02137678
000110 27 34 de bc 00 7a c1 bc 64 76 3e bc 83 98 7d bd
       -0.027124478 -0.023617744 -0.011624906 -0.061913025
000120 6a 4a 5e bb 07 cf 41 3b 6b 2f 73 3d 51 f8 81 3d
       -0.0033918866 0.002957286 0.059371393 0.06346191
000130 46 69 06 bc ac 88 6e 3d 55 41 83 3d f3 a6 58 bc
       -0.00820381 0.05823581 0.064089455 -0.013223398
000140 f6 85 10 3b ef 70 91 3d 66 ae ef 3b 9f 75 e7 bc
       0.0022052503 0.071016185 0.007314491 -0.028254328
000150 70 94 cd bb a0 99 93 3d 0c d2 66 3d 15 c3 9f bc
       -0.0062737986 0.07207036 0.05635266 -0.019502202
000160 6d 70 e6 3d 40 a3 0e be d4 d1 13 bd ee 10 b9 3c
       0.11251912 -0.13929462 -0.03608878 0.02259108
000170 2a 84 0a bb 3e 0b 70 bb d6 a8 bc 3b 2e b0 8e 3d
       -0.0021135905 -0.0036627795 0.0057574315 0.06967197
000180 3b c8 28 bc 91 d8 3d bc d9 75 d8 3c 77 8c 9d 3c
       -0.010301645 -0.011587278 0.026423382 0.019232018
000190 51 10 1b 3d 22 be 0c bd 53 b9 54 3d 9d d9 bd 3d
       0.037857357 -0.034361012 0.05193455 0.09270022
0001a0 6d d9 27 bd 5b ac 9c bd 56 53 41 3c 44 81 ae bc
       -0.040978838 -0.07650062 0.011799654 -0.021301873
0001b0 2b bb 99 bc d6 f5 84 bd 2b 3c 41 bd 9b ab ed 3c
       -0.018766006 -0.06492202 -0.04717652 0.029012492
0001c0 ca fd cb 3c 55 cd 94 bd fe ea 83 3d 33 d7 02 3d
       0.02490129 -0.072657265 0.064413056 0.03194351
0001d0 da 38 9e bb 41 19 ea bd 06 b9 e6 bc 8e 46 de 3c
       -0.0048285546 -0.11430598 -0.028164398 0.027133252
0001e0 c2 62 0c bd ff de ee 3c 83 5d 9f bd af 2f 70 3c
       -0.03427387 0.029159067 -0.07781508 0.014659806
0001f0 03 e7 15 3d 15 da 07 3d 66 5b 04 be 1e 26 42 3d
       0.036597263 0.033166964 -0.1292549 0.047399633
000200 f0 03 91 bb 38 5e bf 3d f5 29 a2 bc 4f f5 e6 bc
       -0.004425518 0.09344143 -0.019795397 -0.028193144
000210 2f 92 0a 3d 5f d7 26 bd ae aa 97 bd fe 9d c6 3b
       0.033830818 -0.040732738 -0.074056014 0.0060613146
000220 07 75 d7 bc 08 43 c0 3c 42 e6 96 bc 6f e7 d0 3b
       -0.02630092 0.023469463 -0.018420342 0.0063752453
000230 e7 b1 dc 3c 2d ef 42 3d 13 ed d1 3c cd bf df 3c
       0.0269403 0.047591377 0.025625741 0.027313137
000240 59 2b 15 bc 7e 87 75 3b a2 5c 25 bc 88 bb 26 bb
       -0.009104573 0.0037464793 -0.010092886 -0.0025441367
000250 28 4f 64 bd fc c9 b2 3d 3d 71 15 bb cb 70 e1 3a
       -0.05573955 0.08729932 -0.002280309 0.0017199753
000260 25 e9 d4 3b c5 cd f0 bb 47 c6 16 bd 75 45 18 bc
       0.0064975196 -0.0073487484 -0.036810186 -0.009293904
000270 11 38 96 3d 16 80 35 bc e8 d0 81 bb 67 f8 65 3b
       0.073349126 -0.011077901 -0.003961671 0.0035090686
000280 67 78 b8 3c ba 18 a7 bb 8f 4e c1 3b d1 e6 2e 3d
       0.02251835 -0.005099383 0.0058992575 0.042700592
000290 b7 2f 4c bc 35 00 8c 3c 85 0a 62 3d e2 fc da 3c
       -0.012462548 0.017089942 0.055185813 0.026731912
0002a0 ca aa 38 3d 18 e4 ab 3d 1e 70 d5 bc e7 e6 e1 3c
       0.045084752 0.08393115 -0.026054438 0.027575923
0002b0 ea 53 2d bd 46 01 f1 bc 94 50 17 3d 88 4b 87 3c
       -0.042316355 -0.029419553 0.03694208 0.016515508
0002c0 c6 24 6a bc aa 6f 9c 3d 20 10 62 3c 04 17 d4 bb
       -0.014290994 0.07638486 0.01379779 -0.0064724702
0002d0 75 76 2e 3d 1e 58 3f 3d ee cb b9 3c d0 2b d1 bc
       0.04259344 0.046714894 0.022680249 -0.025533587
0002e0 ac 44 12 3d d7 2c 87 3b cc b4 3c 3c d9 0e b6 3c
       0.03571002 0.0041252184 0.011517715 0.022223877
0002f0 f6 a2 f8 3c 78 e5 08 bd 2c a0 9c 3d 50 74 c2 3c
       0.030351143 -0.033421963 0.07647738 0.023737103
000300 e6 17 54 3d 24 8e 70 3d c0 68 9f bd d3 f4 13 3d
       0.051780604 0.058729306 -0.07783651 0.036122154
000310 a2 54 1c 3d 31 6b dc 3b 17 b0 cb bd a2 22 d7 bd
       0.03816665 0.0067266454 -0.09945696 -0.105046526
000320 17 7a 47 bd 7e fb 09 bc 61 30 b5 3c 5d 5d dd 3d
       -0.04870042 -0.008421777 0.022117795 0.10808823
000330 55 9d a4 bb 36 42 0a bc 00 ca 63 3c 32 3f 22 3d
       -0.0050236383 -0.0084386375 0.013903141 0.03961105
000340 9f 1f 79 3b e3 aa 4c 3d 9a 1b c3 3c 89 7b 2d bd
       0.0038013232 0.049967658 0.023816872 -0.04235414
000350 75 2f a9 bd 05 eb b7 bc 97 89 01 3d 1e 57 b5 bc
       -0.08261005 -0.022450933 0.031625357 -0.022136267
000360 ac 37 83 3c 53 4a fb bc 04 f0 bc 3d 46 95 ef 39
       0.016017757 -0.030675089 0.09225467 0.0004569685
000370 b0 c8 95 bd c9 cd a7 bc de 44 36 3c a8 d2 19 3b
       -0.07313669 -0.020483868 0.011124818 0.0023471508
000380 23 1c b4 3d d9 3a f7 b9 1f 0a 8d bc 16 01 81 bb
       0.08794429 -0.00047155356 -0.01721674 -0.003936897
000390 20 88 2e 3d 58 c9 20 bd 32 61 91 3d 67 b0 81 bd
       0.042610288 -0.039254516 0.07098617 -0.06332474
0003a0 1b c9 e4 bc a6 44 7b bc d1 bb 69 3c 05 60 44 3c
       -0.027927926 -0.015336191 0.01426597 0.011985783
0003b0 b4 16 f1 bc 12 ba a7 bc f3 b3 2e 3d 5d 37 35 3c
       -0.029429771 -0.020474467 0.04265208 0.011060563
0003c0 cf 3e 95 bd 81 4a ce 3c 81 26 2f bd 86 12 23 3c
       -0.072873704 0.02518201 -0.04276133 0.009953147
0003d0 03 d9 3a bd 9b 4f a2 bc 88 ba 89 3c 13 cc e4 bd
       -0.045617115 -0.01981335 0.016812578 -0.111717366
0003e0 c4 51 aa 3d 01 54 9c bd b7 bc 4b 3c 11 1d bd bb
       0.08316377 -0.0763321 0.01243513 -0.0057712873
0003f0 41 69 26 3d 15 01 1b 3d f3 0b c7 bd 0c 65 04 3d
       0.04062772 0.03784283 -0.09719076 0.03232293

convs.2.att f4 [10, 4]
000000 f0 1a 81 3c db 63 06 3c 66 05 0d 3c 83 5c 9c 3c
       0.015759915 0.008202518 0.008607244 0.019087082
000010 83 7b 92 3b f2 2d b6 3b 86 b2 6c 3a b6 88 5a 3c
       0.00447029 0.0055596763 0.00090292876 0.0133382585
000020 a6 aa 6d 3c 70 3b 14 bc 46 fa 9a 3b 9b fd af 3c
       0.014506018 -0.009047374 0.004729542 0.021483233
000030 b6 42 bc 3c ac e5 82 ba cf c6 64 3c a8 cc ee 3c
       0.022981029 -0.000998666 0.013963415 0.029150322
000040 d2 2a 23 bc 86 ab 1b 3b 91 cb 74 bc 34 78 df bb
       -0.00995894 0.002375336 -0.014941112 -0.0068197493
000050 a4 ec 18 bc 3a f9 47 3c 15 23 97 bc 28 e3 40 bc
       -0.009333763 0.012205416 -0.018449346 -0.011772908
000060 f2 72 0c 3c 3c 88 f1 3a c4 d8 65 ba f3 0c 82 ba
       0.008572327 0.0018427442 -0.00087679573 -0.0009922072
000070 ca 6d 57 3c 60 9e 1b bc eb 67 c1 3a 40 f5 73 3c
       0.013148734 -0.009498209 0.0014755701 0.014890015
000080 84 a2 44 3c a6 2d 6c bb f0 29 f7 3b 0f 60 6c 3c
       0.012001637 -0.003603795 0.007542841 0.014427199
000090 04 73 d3 3b 1e f4 21 3c 1e 79 0a 3b fe 12 48 3a
       0.00645292 0.009884862 0.002112932 0.00076322246

convs.2.root f4 [32, 32]
000000 d8 f7 00 bd 7f 60 aa bd 8a c4 e3 3d c8 71 2b bd
       -0.031486362 -0.083191864 0.11121471 -0.041856557
000010 6f 4e 11 3d 5b 23 f1 bd 3f b3 51 bd 47 b7 c0 bb
       0.03547519 -0.11774322 -0.051196333 -0.0058812234
000020 a8 fa 49 3d e1 c3 28 bc d9 a7 1b 3d ab 11 c8 3c
       0.04931131 -0.010300607 0.03800187 0.024422487
000030 b3 7e 1e bb 49 a0 32 3d 68 d9 94 bd aa 7f 38 bd
       -0.0024184405 0.04360989 -0.072680295 -0.045043625
000040 8c 61 4a 3b f5 fe c8 3c 22 71 90 3c 25 fa 31 3d
       0.0030880896 0.024535635 0.01763207 0.043451447
000050 a2 95 6e bc 95 a2 a9 bd a4 62 30 bd e8 83 c7 3c
       -0.014562042 -0.08282963 -0.04306282 0.02435489
000060 b7 5b 05 be d8 65 a7 3c 8a 5c 75 3d 15 f8 4f 3b
       -0.13023268 0.020434305 0.059902705 0.0031733562
000070 16 d9 09 3d 93 57 ad 3b fa 01 89 bd e9 7c 13 bd
       0.033654295 0.0052899807 -0.0668983 -0.036007795
000080 b4 9b 0c bd d7 c9 27 bd 35 6b 64 bd d9 9a 79 3d
       -0.034328178 -0.040963974 -0.055766303 0.06093869
000090 d9 24 57 bd 74 b5 b7 bb 47 43 12 bc a6 9f b0 bd
       -0.052525375 -0.0056063477 -0.008927173 -0.086242005
0000a0 9f 5e 08 bd 79 97 36 3d c3 c1 f4 bc 1a aa 8e bd
       -0.033293363 0.04457805 -0.029877549 -0.06966038
0000b0 98 14 50 bd dd 55 00 3d 49 19 e5 bc 6c 0f 07 3c
       -0.05080089 0.031331886 -0.027966158 0.008243423
0000c0 ca 27 62 bd 98 e1 c2 b9 58 56 0b bc 39 46 85 bd
       -0.055213727 -0.00037170644 -0.008504473 -0.065075345
0000d0 0a 1d 3e 3d 81 71 42 3d 79 18 41 bc d6 a4 12 3d
       0.046414413 0.047471527 -0.01178562 0.03580173
0000e0 14 59 fe bb cc 4f b6 bd a5 51 45 bd 27 22 15 bd
       -0.007762084 -0.08901939 -0.048173565 -0.036409523
0000f0 3a 98 b4 bc 74 fe 23 bc 97 c4 1b 3b 8b 16 06 3d
       -0.022045244 -0.010009397 0.00237683 0.032736342
000100 51 15 e6 bc da ad c9 bd 46 4f 9c 3c 98 f7 c4 bc
       -0.028086336 -0.09847613 0.01908077 -0.024043843
000110 5a 02 aa 3c b6 4e f2 bd 2a 50 b6 bc f1 16 c2 3c
       0.020753074 -0.11831419 -0.022255022 0.02369258
000120 74 3f 48 3d 3d 2e 9f bb 60 a1 8f 3d 92 cd 43 bd
       0.04888864 -0.004857807 0.07013202 -0.04780347
000130 a7 8d 50 bb 30 d3 c1 bd 8c a0 5d 3c 59 d1 21 bd
       -0.0031822713 -0.09464109 0.013527047 -0.03950629
000140 17 8f 6e bc 16 e8 0a 3d f0 0b f8 3c c5 3d 5c 3b
       -0.014560482 0.03391274 0.03027913 0.0033606153
000150 3f e1 c7 bc 14 78 96 bd 38 53 8e bc c9 a6 27 3d
       -0.024399398 -0.07347122 -0.017373666 0.040930543
000160 9f 0d 67 bd 8d f3 f9 3c ae 20 82 3c c2 fe 0c 3d
       -0.056409474 0.030511642 0.015884724 0.034422643
000170 18 75 b8 bb 1f 7a 22 3c 61 9f e5 bb 02 e0 60 bd
       -0.005629193 0.009916811 -0.007007525 -0.05490113
000180 04 ed 05 3d 45 42 75 bd 31 e4 39 3d 18 89 7a bd
       0.03269674 -0.059877653 0.045383636 -0.0611659
000190 1d f1 d2 3a 3e 59 bd bb 8a 41 8c 3b 02 35 0a 3b
       0.0016093586 -0.0057784608 0.004280274 0.0021088724
0001a0 05 fb d0 bc 03 aa eb 3c 2c d4 a8 3d fb 7f 3a 3d
       -0.02551032 0.028767591 0.082435936 0.045532208
0001b0 f4 49 53 3c 64 ac 0e bc ec 3a f7 3c 19 6f ff bb
       0.01289605 -0.008708093 0.030179463 -0.0077952263
0001c0 15 de 82 3c 76 4e dc 3b 2b ce db bc 66 7e 3c bd
       0.015975038 0.0067232205 -0.026831707 -0.04601898
0001d0 98 f6 a5 bc a3 c6 ac bd 45 64 66 3d c2 8c 7b bd
       -0.020259187 -0.084363244 0.05624797 -0.061413534
0001e0 6e d4 9b bc f5 51 fc bb 4f f0 e9 3c 06 4c 15 3d
       -0.019022193 -0.0077001997 0.02855697 0.036449455
0001f0 58 db a9 bb 73 68 04 bd b3 ec e4 bc a0 0d 4c 3c
       -0.0051836185 -0.032326173 -0.027944898 0.01245442
000200 6c 81 6b 3c c9 f9 a2 3d 1a fe bc bc 29 10 4e bb
       0.014374118 0.07957799 -0.023070384 -0.0031442738
000210 fd e4 5a bc 74 28 f9 3c c8 71 0e 3d 15 e2 dd 3b
       -0.013360259 0.030414797 0.03477648 0.006771336
000220 23 17 e0 3b 72 a5 1c bc ac 39 1e 3c 00 5c 87 bb
       0.0068386956 -0.00956093 0.009657305 -0.0041308403
000230 2f d4 3c 3d bb 3d c6 3c 75 68 cf 3c b5 2e 10 3d
       0.04610079 0.024199357 0.025318364 0.035200793
000240 07 58 b4 3c df 64 6b 3c 47 6e 16 bd 22 a5 4f bc
       0.022014631 0.014367311 -0.036726262 -0.012673648
000250 f3 8a 2f 3d 73 94 80 bd fe 3f 21 3d af f9 31 3d
       0.04285712 -0.062783144 0.03936767 0.043451007
000260 b7 b1 69 3d 1a 4d 10 3c 36 f7 0f bd d6 db 9d bb
       0.057054248 0.008807445 -0.035147868 -0.0048174663
000270 74 68 b2 3a 4b 6c ea 3c 5d 34 4a 3c 52 07 62 bc
       0.0013611452 0.028616091 0.012341586 -0.013795691
000280 65 e7 8f bd ff 26 d7 bd b8 2f 2c bd d7 60 df 3c
       -0.07026557 -0.10505485 -0.042037696 0.027267857
000290 38 64 92 3c d8 ff 5a 3b 36 6c 89 bd cb 1a fa bc
       0.017870054 0.0033416655 -0.06710093 -0.030530354
0002a0 42 cd c1 3b f7 0b 0d 3d ff 13 a6 3d 69 21 10 3d
       0.005914361 0.03443524 0.08109283 0.035188112
0002b0 3c a5 4d ba 92 c7 c0 bc f4 52 62 bd 9f e9 2f bd
       -0.0007844751 -0.023532663 -0.05525489 -0.042947408
0002c0 73 a1 8f 3b 27 32 41 3c 68 58 93 3c 04 56 33 bd
       0.00438326 0.011791742 0.017986491 -0.043783203
0002d0 9d d4 61 bc bc 01 a8 bd fb 66 3d 3a ad bd 5a bd
       -0.013783601 -0.08203456 0.0007225123 -0.053403545
0002e0 49 32 69 bd 6b c9 26 3c a8 fc a1 3d a8 60 82 bc
       -0.05693272 0.010179858 0.079095185 -0.01591523
0002f0 67 a5 1c 3d f1 31 38 bc 9c 36 32 3b 87 80 28 bd
       0.038243677 -0.011242376 0.0027193194 -0.0411382
000300 a5 fe ad bc 1a 41 6e 3d ec 28 81 bd f9 6e a3 3d
       -0.021239588 0.058167554 -0.06306633 0.07980151
000310 61 ce 0a 3d 57 79 74 3d 66 86 04 3d 95 a7 b1 bb
       0.033888225 0.05968603 0.032354735 -0.0054215887
000320 f4 c7 53 bb b9 82 32 bc 54 21 84 bd 76 99 0a bd
       -0.0032315226 -0.0108954245 -0.06451669 -0.033837758
000330 50 c9 bd bc 7e de b1 3c 84 46 51 bb 71 de 75 bb
       -0.023167282 0.021712538 -0.00319329 -0.0037516619
000340 1d 44 e5 3c 64 de f9 3b 1a 58 2d bb b9 d7 cd 3c
       0.02798658 0.007625388 -0.0026450218 0.025127279
000350 03 99 56 3d 82 54 40 3e bb 06 cf bc 20 1e 6c bb
       0.052392017 0.18782237 -0.025271764 -0.0036028698
000360 b6 dc c2 3d a7 33 62 bd 4d 5d d2 bb 4c c3 2e bc
       0.095147535 -0.05522504 -0.0064198137 -0.01066668
000370 09 a0 c9 3c e5 ff d3 ba f4 a0 e3 3c 07 cf a3 3a
       0.024612444 -0.0016174285 0.02778671 0.0012497612
000380 8e eb 60 3b 8c 05 6e bd c5 3c eb bb b0 f3 ac 3b
       0.003432009 -0.05811076 -0.007178875 0.0052780733
000390 b2 03 26 3b 67 67 b3 bc 7a 88 c7 bb 0f 87 4b bd
       0.0025331792 -0.021899892 -0.0060892673 -0.04968935
0003a0 91 3c 69 3d 9a 49 ee bc 48 00 8b bb 11 fe 0c 3d
       0.056942526 -0.02908783 -0.004241977 0.034421984
0003b0 7f ce dc bc 80 d6 03 3d 76 3f a3 3b a1 75 8a bc
       -0.026953934 0.032186985 0.0049819304 -0.016901793
0003c0 bb 48 6a bd e4 99 83 bc 38 05 ce 3c 09 a6 9b bc
       -0.057198267 -0.016064592 0.025148973 -0.01900007
0003d0 ae 24 b2 bc 5d 01 79 bc 60 3f 4f bd 71 7b 9c 3c
       -0.021746006 -0.015198079 -0.05059755 0.01910183
0003e0 79 3a af bc 3c 2c c3 bc 4f 4d 8f ba 83 ee 47 3a
       -0.021390187 -0.023824804 -0.0010933074 0.00076267886
0003f0 1e c5 fd 3c e0 80 45 bc 39 53 8c 3c 25 9d 3f 3c
       0.030977782 -0.012054652 0.017129527 0.011695181

convs.2.bias f4 [32]
000000 69 a9 05 3c 98 ff 89 bc 13 f1 fa 3b 91 fe ed bc
       0.008158066 -0.01684551 0.007658133 -0.02905205
000010 ca 66 17 bb 95 54 74 bc 77 5a 92 3b 15 3f 8b bc
       -0.0023102039 -0.014912744 0.0044663507 -0.016997853
000020 97 07 92 bb ca 87 0c 3b 07 94 f6 3c 76 71 d0 3c
       -0.004456471 0.0021443241 0.030099882 0.025444727
000030 b8 f2 c4 3b 42 5a 12 3c a1 63 b6 3c f2 27 45 3c
       0.0060103796 0.008932652 0.022264304 0.0120334495
000040 69 46 2d bc 43 c5 7d 3c b0 e6 c6 bb a4 46 95 bc
       -0.010575869 0.015488925 -0.0060699806 -0.01822216
000050 c3 62 10 bd 00 f1 8c bd 0f 51 5b 3b c3 5d 83 3a
       -0.035250437 -0.068819046 0.0033465063 0.001002245
000060 8c 7c b6 bc 87 78 31 39 83 6f 94 3b 15 fd 00 3c
       -0.022276185 0.00016924935 0.004529895 0.007872839
000070 44 9b 7c 3c c2 b8 32 bc c4 e3 bb 3a 78 6b 64 3c
       0.015417878 -0.0109083075 0.0014334847 0.013941638
