results/flixster_testmode/model_checkpoint22.pth (torch_old, 199981 bytes, 19 tensors)

convs.0.basis f4 [4, 4, 32]
0.05585957 -0.0005279581 0.06629751 0.06421292 -0.07176984 0.22188534 -0.15146962 -0.12847096
0.10039223 -0.21147725 0.12496521 -0.14943708 -0.21067472 0.11903335 0.13824566 -0.10164469
-0.046949506 -0.082783975 -0.20789786 -0.00041960875 0.038501807 0.17914648 0.05444685 -0.0905226
0.06993875 -0.14021611 0.11349552 0.034099374 0.14213619 0.26869363 -0.23251648 0.026313895
-0.19226544 -0.13279548 -0.1296332 0.0123154605 -0.019167444 0.27538007 -0.05686789 -0.08057869
-0.24303965 -0.105639905 0.13436298 -0.21300493 -0.024857398 0.0014162381 0.023705183 -0.13142055
-0.094727285 -0.22159798 0.08606518 -0.12872009 -0.14087021 0.14377867 -0.10572739 -0.08195641
0.025398005 -0.06450529 0.021981707 0.03847512 0.1183859 0.14374052 -0.24781995 0.027365092
-0.07593543 -0.10844575 0.046968233 0.07710137 0.0008294068 -0.10990835 0.03655798 -0.26636308
-0.31658897 -0.034139585 -0.019048383 0.07124858 0.2521964 0.039587937 0.03985456 -0.14745325
0.04306657 -0.068823144 0.10832252 0.101614706 0.048617363 0.09629208 -0.6255766 -0.4514262
-0.36221892 0.015299157 -0.09562079 0.023093864 -0.061432432 0.04961424 0.015327219 0.09374336
0.13123067 -0.061518207 -0.0044426764 -0.068102404 -0.16894402 -0.28306 -0.057027068 0.039582614
0.35471815 0.49645483 0.49966177 0.15369217 0.11637732 0.05346652 -0.098014876 -0.04028456
-0.37245473 -0.11950799 -0.10112523 -0.015349114 -0.05913438 -0.48556018 -0.13840303 0.07911433
-0.08500159 0.19757934 -0.18458803 -0.17902122 0.015775094 0.121689424 0.15194374 0.07543373
0.006517919 0.0016334786 0.047410805 0.06996885 -0.083056614 0.14755978 -0.042223454 -0.08500929
-0.025030397 -0.15461981 0.059852596 -0.043145116 -0.14308214 0.075232014 0.1301765 -0.18814331
-0.06516514 -0.07127391 -0.093466826 -0.03316993 0.028355904 0.15670705 0.10434 -0.11714348
0.053798366 -0.086634286 0.10193623 0.009863727 0.04912777 0.2088361 -0.15873076 0.017454077
-0.14091828 -0.07728074 -0.15544479 0.09295392 -0.03331224 0.22037573 -0.07018182 -0.017709108
-0.12712051 -0.10638763 0.13268442 -0.22221196 -0.053701892 -0.016249241 0.10728953 -0.06926031
-0.102679566 -0.16437303 -7.109651e-05 -0.0731429 -0.13476117 0.13074905 -0.008891629 -0.036634516
0.071364634 -0.06323217 0.035874262 0.026014302 0.12081119 0.20798564 -0.19651859 0.036559187
-0.035198055 -0.013605447 -0.09770416 0.04066786 0.07596831 0.13361076 0.024055736 -0.18283801
-0.5580885 0.06138005 -0.15142518 -0.09030761 0.24769378 -0.013744892 -0.18299279 -0.24382894
0.18081528 -0.063357286 0.13598707 0.15269944 -0.12376591 -0.058702078 -0.6092632 -0.39422682
-0.29005563 0.03102568 0.046277083 -0.06687066 -0.023958048 -0.04483322 -0.035440743 0.004587767
0.0020812391 0.15564755 0.013284004 0.03345903 0.13788566 -0.15091568 0.037410904 -0.1416854
0.23300183 0.37364542 0.3683745 -0.5028915 -0.12494263 -0.046247277 -0.08877668 0.04381008
-0.20592496 -0.17021489 -0.19141467 -0.044590056 0.0033621995 -0.36249432 0.19969746 0.04402349
0.08648414 0.12853137 0.10725915 -0.02337374 0.020334287 0.090576 -0.12417035 -0.14318235
00000000: 01cd 643d ab66 0aba fdc6 873d 1082 833d
00000010: 11fc 92bd e935 633e da1a 1bbe e48d 03be
00000020: 719a cd3d 7e8d 58be c3ed ff3d 0906 19be
00000030: 1dbb 57be c2c7 f33d 4590 0d3e 172b d0bd
00000040: 204e 40bd a58a a9bd 2de3 54be effe dbb9
00000050: 12b4 1d3d 2d72 373e a903 5f3d ea63 b9bd
00000060: 0c3c 8f3d d094 0fbe 5770 e83d c9ab 0b3d
00000070: 268c 113e 3692 893e cd18 6ebe 3d90 d73c
00000080: 3be1 44be 8afb 07be 91be 04be c9c6 493c
00000090: 0b05 9dbc 9efe 8c3e 4eee 68bd 7106 a5bd
000000a0: 63df 78be bc59 d8bd 7396 093e f71d 5abe
000000b0: bea1 cbbc 11a1 b93a 5f31 c23c 1c93 06be
000000c0: 6100 c2bd 95ea 62be f142 b03d 33cf 03be
000000d0: 4840 10be b73a 133e 9a87 d8bd c3d8 a7bd
000000e0: 7a0f d03c 591b 84bd fb12 b43c 1698 1d3d
000000f0: 4f74 f23d b730 133e 83c4 7dbe c22c e03c
00000100: 0984 9bbd ce18 debd c361 403d 53e7 9d3d
00000110: 8c6c 593a a117 e1bd d2bd 153d be60 88be
00000120: f317 a2be f3d5 0bbd 5b0b 9cbc c7ea 913d
00000130: e31f 813e f626 223d 893e 233d fcfd 16be
00000140: 9266 303d 26f3 8cbd 33d8 dd3d 5f1b d03d
00000150: 0023 473d c834 c53d ca25 20bf 5621 e7be
00000160: c274 b9be 51a9 7a3c d5d4 c3bd 582f bd3c
00000170: 93a0 7bbd 4d38 4b3d 041f 7b3c 85fc bf3d
00000180: 5561 063e 84fa 7bbd df93 91bb 4679 8bbd
00000190: a9ff 2cbe 3eed 90be 3795 69bd 6121 223d
000001a0: 9e9d b53e 542f fe3e abd3 ff3e 7b61 1d3e
000001b0: 3b57 ee3d b6ff 5a3d 06bc c8bd 6c01 25bd
000001c0: 63b2 bebe 9bc0 f4bd bf1a cfbd da7a 7bbc
000001d0: e436 72bd 589b f8be 86b9 0dbe b206 a23d
000001e0: 5015 aebd 3d52 4a3e a504 3dbe 5751 37be
000001f0: c53a 813c 4e38 f93d 2497 1b3e 007d 9a3d
00000200: 4494 d53b 721a d63a d531 423d d44b 8f3d
00000210: 9619 aabd e919 173e 80f2 2cbd 5a19 aebd
00000220: 8c0c cdbc a854 1ebe ff27 753d efb8 30bd
00000230: 2084 12be 3e13 9a3d fd4c 053e a4a8 40be
00000240: 4d75 85bd 0ef8 91bd 896b bfbd 31dd 07bd
00000250: a44a e83c d077 203e 36b0 d53d ece8 efbd
00000260: ad5b 5c3d 516d b1bd f1c3 d03d 789b 213c
00000270: 333a 493d 21d9 553e 518a 22be dafb 8e3c
00000280: e24c 10be 5d45 9ebd eb2c 1fbe a05e be3d
00000290: 6a72 08bd 2daa 613e 7cbb 8fbd b112 91bc
000002a0: e12b 02be c2e1 d9bd 6dde 073e 888b 63be
000002b0: 84f6 5bbd 211d 85bc 9dba db3d 59d8 8dbd
000002c0: aa49 d2bd 6751 28be a619 95b8 f2cb 95bd
000002d0: d5fe 09be 14e3 053e 32ae 11bc 130e 16bd
000002e0: 9f27 923d de7f 81bd e4f0 123d f21b d53c
000002f0: db6b f73d 30fa 543e 2b3c 49be 16bf 153d
00000300: d62b 10bd 61e9 5ebc 1e19 c8bd 5893 263d
00000310: 4695 9b3d 42d1 083e 8910 c53c e339 3bbe
00000320: e3de 0ebf a669 7b3d 340f 1bbe 32f3 b8bd
00000330: 70a3 7d3e 4132 61bc 7662 3bbe 4bae 79be
00000340: a427 393e 77c1 81bd 3240 0b3e 3e5d 1c3e
00000350: fb78 fdbd 9771 70bd acf8 1bbf 19d8 c9be
00000360: 2c82 94be 9129 fe3c 0a8d 3d3d 7cf3 88bd
00000370: ab43 c4bc 0aa3 37bd 502a 11bd fb54 963b
00000380: 6665 083b 1262 1f3e 27a5 593c 560c 093d
00000390: e631 0d3e a489 1abe 2d3c 193d fa15 11be
000003a0: 0898 6e3e 744e bf3e 959b bc3e 7fbd 00bf
000003b0: ece1 ffbd c96d 3dbd 8cd0 b5bd 3372 333d
000003c0: fedd 52be d04c 2ebe 3502 44be 10a4 36bd
000003d0: 5958 5c3b db98 b9be 7e7d 4c3e fa51 343d
000003e0: 991e b13d ba9d 033e afaa db3d 497a bfbc
000003f0: 1794 a63c e97f b93d 064d febd 659e 12be

convs.0.att f4 [10, 4]
-0.07128234 -0.15668336 0.26520503 0.109143704 -0.14425622 -0.04546665 0.2832177 0.10002094
-0.2131409 0.119314015 0.30868068 0.10842101 -0.18430582 0.18785484 0.32148868 0.07956294
-0.022005545 0.051399954 0.30088177 0.1454717 -0.045367558 0.22284827 0.2817314 0.15100062
-0.0033296328 0.23157257 0.20984319 0.10502626 0.08756406 0.20885469 0.17765877 0.08776411
0.17952888 0.175777 0.07992305 -0.0050575337 0.3339232 0.1491728 0.03804009 -0.121322356
00000000: 7afc 91bd 9a71 20be f4c8 873e bc86 df3d
00000010: e7b7 13be 3d3b 3abd e901 913e c7d7 cc3d
00000020: 9c41 5abe e85a f43d 650b 9e3e d60b de3d
00000030: aaba 3cbe 055d 403e 2a9a a43e e5f1 a23d
00000040: f944 b4bc c288 523d 2d0d 9a3e 89f6 143e
00000050: 55d3 39bd 5632 643e 193f 903e e89f 1a3e
00000060: f835 5abb 5c21 6d3e 22e1 563e 0218 d73d
00000070: c954 b33d 01de 553e 2eec 353e abbd b33d
00000080: 6bd6 373e e3fe 333e b2ae a33d abb9 a5bb
00000090: fbf7 aa3e c1c0 183e edcf 1b3d db77 f8bd

convs.0.root f4 [4, 32]
-0.08105712 0.015733372 -0.004352157 0.19189093 0.12078865 -0.007442522 -0.12579949 -0.23753846
0.22552502 0.40736157 0.3552559 -0.07495426 0.06338152 0.17111777 -0.10455804 -0.07024576
-0.22126582 0.19223219 0.028766735 -0.23451176 0.051686693 -0.12951402 0.068076365 0.22046527
-0.013082874 0.21763328 -0.048057713 -0.26313555 0.101871215 -0.26044458 0.069512516 -0.17875448
0.1602248 0.18448333 -0.23724265 0.15334184 -0.101419024 -0.1698887 -0.105261825 -0.22938505
0.052956764 -0.20957692 0.08682674 0.1780987 0.31079665 0.19660588 -0.13839057 0.3133869
-0.006193328 0.09614233 0.07029649 -0.064129904 -0.06443564 -0.22724241 -0.24041428 -0.3794494
-0.24826439 -0.015615204 0.18869978 0.06895664 0.11529785 -0.07476113 0.25269127 0.2758446
-0.053480323 0.12598422 0.022244671 -0.027933365 -0.13166575 -0.155063 -0.10291072 -0.11615881
-0.11059066 -0.00022263758 -0.17364694 -0.016977163 0.040094312 0.16670474 -0.004577779 -0.049306452
-0.12167556 -0.114936 -0.16422454 0.17907912 -0.018524569 0.13526613 -0.14898695 0.04951009
0.03945923 0.07912007 0.09691346 -0.037589498 -0.1478721 -0.113727055 0.014223269 -0.0076403646
-0.11519447 -0.029124942 -0.05452889 0.21878552 -0.017999234 -0.04419755 -0.04252976 -0.15218948
-0.15913054 0.09579971 -0.06692439 -0.1751104 0.13774078 0.13508865 0.055021953 0.012634184
0.016468924 -0.17059717 -0.057322834 0.13943835 -0.081711724 0.12510303 -0.18132925 -0.12240731
-0.027959825 0.106576435 0.0004906082 -0.03115002 -0.19124234 -0.062523656 -0.12931934 -0.08419375
00000000: 4601 a6bd 46e3 803c 8a9c 8ebb 0e7f 443e
00000010: 0a60 f73d 66e0 f3bb 95d1 00be 483d 73be
00000020: 08f0 663e b291 d03e 1ae4 b53e 9e81 99bd
00000030: 2cce 813d 7f39 2f3e 8722 d6bd 02dd 8fbd
00000040: 8293 62be 84d8 443e 37a8 eb3c da23 70be
00000050: 6db5 533d 539f 04be 9f6b 8b3d a6c1 613e
00000060: 8d59 56bc 42db 5e3e 2ad8 44bd b4b9 86be
00000070: dba1 d03d fe58 85be 945c 8e3d 6a0b 37be
00000080: f811 243e 33e9 3c3e bdef 72be a505 1d3e
00000090: c7b4 cfbd 4ef7 2dbe 8393 d7bd eae3 6abe
000000a0: 31e9 583d 559b 56be 38d2 b13d 815f 363e
000000b0: bd20 9f3e 0d53 493e 42b6 0dbe 3f74 a03e
000000c0: 67f1 cabb 45e6 c43d 9bf7 8f3d 8a56 83bd
000000d0: d5f6 83bd 3cb2 68be 292f 76be 3147 c2be
000000e0: 0539 7ebe ead6 7fbc 843a 413e 2439 8d3d
000000f0: 4721 ec3d 5d1c 99bd c060 813e 813b 8d3e
00000100: 2f0e 5bbd 0202 013e 753a b63c 83d4 e4bc
00000110: 63d3 06be d6c8 1ebe dbc2 d2bd ace4 edbd
00000120: 5b7d e2bd d273 69b9 81d0 31be b113 8bbc
00000130: ef39 243d a6b4 2a3e 3201 96bb 90f5 49bd
00000140: 0931 f9bd 9163 ebbd 7a2a 28be 8460 373e
00000150: d6c0 97bc 3483 0a3e 0990 18be 18cb 4a3d
00000160: 00a0 213d b409 a23d 907a c63d 72f7 19bd
00000170: c96b 17be bbe9 e8bd b708 693c 065c fabb
00000180: 14eb ebbd 6e97 eebc af59 5fbd 5009 603e
00000190: 2173 93bc 7d08 35bd b033 2ebd 8fd7 1bbe
000001a0: 1ef3 22be a332 c43d a80f 89bd 2450 33be
000001b0: eb0b 0d3e ae54 0a3e b35e 613d 9cff 4e3c
000001c0: d6e9 863c 06b1 2ebe 59cb 6abd edc8 0e3e
000001d0: 7a58 a7bd 021b 003e 60ae 39be afb0 fabd
000001e0: 010c e5bc bf44 da3d 299c 003a 542e ffbc
000001f0: 08d5 43be 670c 80bd 4a6c 04be c66d acbd

convs.0.bias f4 [32]
0.13492146 -0.00033846954 0.10189425 -0.2164572 0.10944607 -0.0022570689 0.0988868 0.1333279
0.18080163 -0.018512886 0.04236532 0.19841759 -0.06535547 -0.17577012 -0.20654167 0.050744515
0.08039752 0.21131983 0.17942126 -0.11075862 0.062136114 -0.269963 0.15921992 0.021673804
0.009562114 -0.06760752 -0.10157252 0.03164781 0.10771376 -0.14631714 0.19014162 0.010165427
00000000: da28 0a3e 9d74 b1b9 efad d03d f5a6 5dbe
00000010: 4325 e03d 55eb 13bb 2a85 ca3d 1c87 083e
00000020: 1024 393e 56a8 97bc 4287 2d3d fb2d 4b3e
00000030: 17d9 85bd 15fd 33be a97f 53be 7bd9 4f3d
00000040: 74a7 a43d 3a64 583e 35ba 373e 6ad5 e2bd
00000050: 7082 7e3d 9738 8abe 8c0a 233e 438d b13c
00000060: 6aaa 1c3c d075 8abd 4105 d0bd 22a1 013d
00000070: 0899 dc3d 29d4 15be 7cb4 423e e48c 263c

convs.1.basis f4 [4, 32, 32]
-0.1309185 -0.06744393 -0.0037268724 -0.041073926 -0.031372443 -0.038103875 -0.059743594 0.11899742
0.03394308 -0.014544673 0.007143617 0.031578816 -0.038088154 -0.004916337 0.07381558 -0.005683126
-0.010087494 -0.0052040024 0.028689036 -0.07733686 0.03222109 -0.0873609 0.059226535 -0.019557053
-0.02108506 0.061700072 -0.01981139 0.085258044 -0.0012239595 0.032030247 0.001436122 -0.022523172
-0.025953397 -0.023488596 -0.0589639 0.0070912573 -0.050119493 -0.026642926 -0.09197117 0.0049892482
0.010486541 -0.0369504 0.021001006 -0.00322069 -0.015898317 -0.00020080205 -0.05635763 0.10443049
0.033389337 -0.00057794416 0.032637116 0.014748298 0.034653995 -0.102953695 -0.017011825 0.0076837065
-0.0049836896 0.01231949 -0.01901204 -0.09674191 0.0262835 -0.025794553 0.019775081 -0.005540945
0.09092125 0.03708662 0.04111368 -0.06423751 -0.027335098 -0.0029283683 0.12026868 -0.14955488
-0.03271309 -0.02202234 0.054673355 0.008302423 -0.043149114 -0.011380904 0.046652913 -0.1428963
-0.03998349 -0.030546168 0.0035646188 -0.012016716 0.013053408 0.07347384 0.0037869355 0.046124022
-0.10012413 -0.05090592 0.061550785 0.07605016 -0.0010755779 0.011890504 -0.018932804 -0.022704346
-0.026301922 0.0042749327 0.04924687 0.06381911 0.05430337 0.006005112 0.022108655 0.014153645
-0.0042440854 0.039648622 0.0077993744 -0.03043692 0.044037838 -0.009885329 -0.050968505 0.039045263
-0.008372226 -0.03351508 0.029567804 -0.008158077 -0.045502696 0.08006821 -0.0503836 0.004105292
0.036493022 0.0007283267 -0.0116197225 0.022075513 -0.0078030583 -0.0074761077 -0.02840828 0.019590981
0.094293214 0.013988587 0.049756724 -0.0048853396 0.03046852 -0.0117454855 0.09601786 -0.017426586
0.011580882 0.019456306 0.04954165 -0.05740686 0.06800362 0.0059648734 0.07891036 -0.06704087
-0.019339375 0.010907134 -0.0786223 0.025395988 0.021522691 0.0018179072 0.11426817 -0.013139601
-0.008573875 -0.012635491 -0.022432424 0.12906462 -0.094430424 0.10334879 -0.0345042 0.0027462023
0.001990658 0.023276541 -0.0075937235 -0.022814717 0.04650743 -0.032822628 0.15967366 -0.010707567
0.0375588 -0.024283232 -0.018106123 -0.0007371061 0.030838538 -0.0171169 -0.108121336 0.1312982
0.01821567 -0.052240808 0.01824047 -0.022746833 -0.007814256 0.083058015 -0.099308796 0.04867042
0.075449415 0.025921034 -0.0091222 0.0135152135 0.07011714 -0.050721973 0.0032842073 -0.0044764043
-0.04577222 -0.018253531 -0.024123432 -0.040638015 0.004150801 0.046190366 0.032114163 -0.005944237
-0.013765222 0.021291152 0.0066361 -0.040356945 0.00916823 0.00620846 0.056782547 -0.10121
-0.057378158 0.03015998 -0.0009965701 -0.001029837 0.012869484 0.036351833 0.10077005 0.013853047
-0.005725039 -0.02330686 -0.020550206 0.10710668 -0.106659904 0.008997055 -0.0055932268 0.036348622
-0.2357776 -0.051845755 -0.041338935 -0.03304983 -0.056459635 -0.08962678 -0.16216059 0.18504865
0.042421952 -0.0036990335 -0.034925733 -0.009584152 -0.017903158 -0.07758612 0.05757126 0.16340055
0.065536186 -0.02971768 0.012450483 -0.018711023 0.021864634 -0.28629953 0.027492097 -0.041255523
-0.01911357 0.027040862 -0.037464574 -0.0854048 0.0454551 0.01410196 0.011372781 -0.040515125
00000000: 800f 06be 0b20 8abd 8b3e 74bb 223d 28bd
00000010: 6480 00bd cf12 1cbd b3b5 74bd ebb4 f33d
00000020: e607 0b3d c84c 6ebc 0115 ea3b ca58 013d
00000030: 5302 1cbd 3919 a1bb 9f2c 973d 8439 babb
00000040: 0446 25bc 5686 aabb 4505 eb3c ca62 9ebd
00000050: 43fa 033d 46ea b2bd 8697 723d 1d36 a0bc
00000060: 93ba acbc 37b9 7c3d 7f4b a2bc c59b ae3d
00000070: 446d a0ba 2632 033d 423c bc3a 8482 b8bc
00000080: 389c d4bc 286b c0bc 2184 71bd c75d e83b
00000090: 194a 4dbd 4442 dabc 615b bcbd d97c a33b
000000a0: becf 2b3c 4d59 17bd 4d0a ac3c 3612 53bb
000000b0: 303d 82bc 648e 52b9 42d7 66bd a7df d53d
000000c0: 42c3 083d 2d81 17ba 7fae 053d d8a2 713c
000000d0: 59f1 0d3d 63d9 d2bd 625c 8bbc 9ac7 fb3b
000000e0: 384e a3bb b0d7 493c 23bf 9bbc 9f20 c6bd
000000f0: 7f50 d73c 194f d3bc 5aff a13c d190 b5bb
00000100: ec34 ba3d 24e8 173d d166 283d f58e 83bd
00000110: dbed dfbc dee9 3fbb 6d4f f63d ea24 19be
00000120: 29fe 05bd 3268 b4bc 2bf1 5f3d e306 083c
00000130: 20bd 30bd f976 3abc 2017 3f3d 6853 12be
00000140: bac5 23bd f53b fabc 619c 693b c3e1 44bc
00000150: f6dd 553c 7479 963d 3c2e 783b 8bec 3c3d
00000160: e10d cdbd ba82 50bd ad1c 7c3d 30c0 9b3d
00000170: 68fa 8cba 63d0 423c f818 9bbc 77fe b9bc
00000180: 2177 d7bc bc14 8c3b 16b7 493d 98b3 823d
00000190: 366d 5e3d 88c6 c43b 361d b53c b1e4 673c
000001a0: f811 8bbb 9866 223d e591 ff3b d956 f9bc
000001b0: 0561 343d 13f6 21bc 5ac4 50bd eded 1f3d
000001c0: a92b 09bc 1c47 09bd 2e38 f23c 74a9 05bc
000001d0: 0961 3abd cdfa a33d 095f 4ebd af85 863b
000001e0: b579 153d 2ded 3e3a a660 3ebc b5d7 b43c
000001f0: ccb0 ffbb 23fa f4bb 7bb8 e8bc 447d a03c
00000200: cd1c c13d 6330 653c b5cd 4b3d 3315 a0bb
00000210: 1e99 f93c 2370 40bc 03a5 c43d 33c2 8ebc
00000220: bdbd 3d3c d562 9f3c 2fec 4a3d 7523 6bbd
00000230: 7b45 8b3d fc74 c33b c19b a13d b94c 89bd
00000240: 9c6d 9ebc d6b3 323c ba04 a1bd 3f0b d03c
00000250: 5b50 b03c d846 ee3a 6e05 ea3d 7b47 57bc
00000260: 7079 0cbc 1705 4fbc 34c4 b7bc 8429 043e
00000270: bd64 c1bd 88a8 d33d 4754 0dbd a1f9 333b
00000280: b375 023b 72ae be3c c5d4 f8bb eee5 babc
00000290: 937e 3e3d 0571 06bd 7e81 233e cb6e 2fbc
000002a0: 42d7 193d a1ed c6bc 4b53 94bc 5a3a 41ba
000002b0: 1aa1 fc3c be38 8cbc b86e ddbd 0973 063e
000002c0: 0739 953c 75fa 55bd 0a6d 953c 9157 babc
000002d0: 5d07 00bc 521a aa3d 6962 cbbd a25a 473d
000002e0: 3985 9a3d 5958 d43c 4875 15bc ea6e 5d3c
000002f0: 9399 8f3d d8c1 4fbd db3b 573b cdae 92bb
00000300: a77b 3bbd 6e88 95bc 819e c5bc 0c74 26bd
00000310: 7103 883b 1c32 3d3d 248a 033d e0c7 c2bb
00000320: 8787 61bc c86a ae3c a473 d93b 534d 25bd
00000330: 5836 163c 5670 cb3b d194 683d 3047 cfbd
00000340: 5c05 6bbd 1012 f73c 589f 82ba 98fb 86ba
00000350: 87da 523c a9e5 143d 8760 ce3d e4f7 623c
00000360: 1c99 bbbb 07ee bebc e858 a8bc bf5a db3d
00000370: 8270 dabd 6268 133c 6347 b7bb 4be2 143d
00000380: af6f 71be 375c 54bd 0453 29bd 425f 07bd
00000390: 3842 67bd 3f8e b7bd 6d0d 26be 657d 3d3e
000003a0: a4c2 2d3d 7c6b 72bb 490e 0fbd d906 1dbc
000003b0: a5a9 92bc 79e5 9ebd d7cf 6b3d 7952 273e
000003c0: d637 863d 7e72 f3bc 1cfd 4b3c dc47 99bc
000003d0: 761d b33c da95 92be 1b37 e13c 8dfb 28bd
000003e0: 1094 9cbc cc84 dd3c 7474 19bd b6e8 aebd
000003f0: 202f 3a3d e80b 673c e754 3a3c 30f3 25bd

convs.1.att f4 [10, 4]
-0.048435 0.16276701 -0.25453156 0.008706615 0.057585746 0.13554333 -0.22616455 0.005425596
0.123240896 0.07572213 -0.22352976 -0.040058676 0.10050134 -0.011113252 -0.18381043 -0.08687735
0.10897546 -0.052233234 -0.13587491 -0.082707 0.031018596 -0.092929766 -0.120285474 -0.07112021
0.039960697 -0.1274145 -0.071929805 0.048640296 0.03808104 -0.17045963 0.012337487 0.08775162
-0.04503751 -0.17644942 0.03153712 0.09575401 -0.16383515 -0.16392393 0.084320694 0.043164376
00000000: c763 46bd 65ac 263e f651 82be 31a6 0e3c
00000010: 08df 6b3d dfcb 0a3e ae97 67be 33c9 b13b
00000020: b965 fc3d 3414 9b3d fce4 64be 9114 24bd
00000030: a6d3 cd3d 5b14 36bc cd38 3cbe c1ec b1bd
00000040: 872e df3d 84f2 55bd cb22 0bbe 4a62 a9bd
00000050: b61a fe3c f651 bebd 3b58 f6bd 79a7 91bd
00000060: d4ad 233d f278 02be ef4f 93bd 0c3b 473d
00000070: ddfa 1b3d f88c 2ebe 2c23 4a3c 1fb7 b33d
00000080: 4179 38bd 28af 34be 112d 013d ae1a c43d
00000090: 67c4 27be addb 27be 54b0 ac3d 21cd 303d

convs.1.root f4 [32, 32]
-0.038327016 0.068136185 0.012101022 0.021529064 0.01914725 -0.038594604 -0.20463096 0.07630217
-0.0030058066 0.0003784965 0.013511195 0.015221096 -0.10344677 -0.018794911 -0.003311934 0.048614632
0.002001563 -0.0351312 -0.061615672 -0.023461776 -0.007625868 0.04110039 0.026598662 0.046869602
-0.0432509 -0.019331248 -0.02304561 0.0877032 -0.041326597 -0.14379543 -0.03140703 0.04124797
0.006359191 -0.018328223 0.089235894 0.007033475 0.041449975 -0.0046090283 0.11249245 0.032511782
0.037332173 -0.04562506 0.036214076 0.09589457 -0.057503384 -0.10431805 -0.015569771 -0.04447815
-0.048975788 -0.05091665 0.10652358 -0.017121838 -8.486544e-05 0.10778683 -0.0061383094 -0.05978924
0.05788224 0.024968645 0.02842815 -0.106911145 0.001413564 -0.1095709 -0.017789833 -0.009675716
0.013214423 -0.024093157 0.034859084 0.028954778 -0.009027216 -0.085427284 0.13100587 0.07557388
0.047265954 -0.03325198 -0.012022818 -0.013093197 0.025729034 -0.050463047 -0.06474432 -0.029340748
-0.02262822 -0.072869964 -0.011575056 -0.022334851 -0.051032476 0.010958876 -0.0012784525 0.01902159
0.044786192 -0.013142531 0.05597719 -0.020531517 0.059037898 -0.0669823 -0.06569937 0.01756706
0.0439154 0.09430433 -0.015137398 -0.107629575 -0.045228988 0.029846545 -0.04024959 -0.036380295
-0.050069865 0.072562754 0.09826928 0.05450086 0.02167088 -0.017856464 0.025633566 0.080592
-0.005171895 -0.04725599 0.056274455 0.07693388 -0.03961493 0.011235977 0.12590179 -0.0055288654
-0.04915671 0.015249415 0.110677876 0.13112882 0.024001908 -0.007422992 -0.009470239 0.06406744
0.07295418 0.0873492 0.062672906 -0.017304309 0.09307313 0.04982255 0.08123507 -0.09435656
-0.026103366 -0.060705334 -0.0427755 0.04090683 0.056534622 -0.028832737 -0.13924506 0.032789666
0.013233971 -0.086408176 -0.014990467 -0.04723215 0.1206072 0.16122189 -0.019268896 -0.036350768
-0.0539048 0.055323724 0.08860412 -0.05335096 0.03748828 -0.042304 0.070088625 -0.078089654
0.07121059 0.0077327187 0.0038276333 0.07081105 0.033579253 0.035120275 -0.0409522 0.0951021
0.08811666 -0.0139837805 0.11448155 -0.09532825 -0.099624045 -0.079030536 0.02304245 -0.044530496
-0.06304782 0.06088157 -0.06310814 0.07612352 -0.017403482 0.018493194 0.0604226 -0.04623519
-0.14178133 -0.06070681 0.026053304 0.14515135 -0.08055388 -0.044035118 -0.0055998196 -0.020616796
-0.03136653 -0.023149485 0.07720237 -0.050717276 -0.03272942 -0.023408927 -0.061435867 -0.054895416
0.045179017 -0.01973273 -0.04861007 0.050771076 -0.063191384 0.029652966 -0.03802671 -0.013745752
-0.001635095 -0.038239893 -0.08905787 0.0013048563 -0.011153925 0.056406543 0.09973769 -0.07282474
0.015087875 0.0804499 -0.015341576 -0.013916857 -0.09710612 0.055307966 0.0043543256 0.06945812
-0.00059978885 0.052823287 -0.06513077 -0.04715558 -0.052047078 -0.047768783 -0.1755723 -0.04185858
0.010210822 0.048400626 0.03536149 -0.044088658 -0.026741503 0.08340604 -0.045269426 -0.086885735
0.00030461172 0.032461002 0.061923813 0.07983162 0.06499221 -0.025193412 -0.009780038 -0.009825656
-0.073621474 -0.0008714683 -0.0050112014 0.052422594 0.0021409446 0.06072431 -0.021728387 -0.04557411
00000000: cafc 1cbd fc8a 8b3d 5d43 463c b85d b03c
00000010: b2da 9c3c 6015 1ebd c78a 51be 5044 9c3d
00000020: 11fd 44bb f170 c639 0f5e 5d3c e761 793c
00000030: e6db d3bd c9f7 99bc 080d 59bb 2320 473d
00000040: a82c 033b bce5 0fbd b760 7cbd e932 c0bc
00000050: 6be2 f9bb e258 283d 70e5 d93c 57fa 3f3d
00000060: db27 31bd 915c 9ebc 26ca bcbc bc9d b33d
00000070: 1446 29bd 1c3f 13be a8a4 00bd a2f3 283d
00000080: c360 d03b 1225 96bc 4fc1 b63d 1179 e63b
00000090: 73c7 293d 5507 97bb 7162 e63d 132b 053d
000000a0: 9fe9 183d 58e1 3abd 3655 143d 5f64 c43d
000000b0: ab88 6bbd b4a4 d5bd 5a18 7fbc b82e 36bd
000000c0: d69a 48bd fa8d 50bd 0929 da3d 1943 8cbc
000000d0: c9f9 b1b8 57bf dc3d df23 c9bb 90e5 74bd
000000e0: ed15 6d3d 0b8b cc3c 27e2 e83c 3bf4 dabd
000000f0: 5647 b93a b566 e0bd fcbb 91bc e586 1ebc
00000100: 4f81 583c 035f c5bc 66c8 0e3d 9232 ed3c
00000110: e3e6 13bc 80f4 aebd 6726 063e 7ac6 9a3d
00000120: f299 413d 3a33 08bd 5bfb 44bc d984 56bc
00000130: b2c5 d23c 57b2 4ebd ac98 84bd 025c f0bc
00000140: d15e b9bc d93c 95bd 4ea5 3dbc 94f7 b6bc
00000150: 6e07 51bd dc8c 333c bf91 a7ba 2ad3 9b3c
00000160: ba71 373d c553 57bc 5748 653d b631 a8bc
00000170: b9d1 713d 042e 89bd 648d 86bd cce8 8f3c
00000180: a2e0 333d a122 c13d d902 78bc e56c dcbd
00000190: 0842 39bd be80 f43c c1dc 24bd 8103 15bd
000001a0: 0f16 4dbd c89b 943d 6741 c93d 4b3c 5f3d
000001b0: 2187 b13c b847 92bc 7cfd d13c 6b0d a53d
000001c0: 0079 a9bb 7f8f 41bd 0b80 663d 838f 9d3d
000001d0: 4443 22bd 1a17 383c 66ec 003e 7c2b b5bb
000001e0: 8c58 49bd afd8 793c 15ab e23d a246 063e
000001f0: a69f c43c 923c f3bb 1029 1bbc ca35 833d
00000200: 0069 953d 23e4 b23d a75a 803d c4c1 8dbc
00000210: 209d be3d bb12 4c3d 935e a63d 033e c1bd
00000220: bad6 d5bc 28a6 78bd 5d35 2fbd ec8d 273d
00000230: d990 673d a232 ecbc 4296 0ebe 754e 063d
00000240: 4cd3 583c c5f6 b0bd 939a 75bc 8076 41bd
00000250: e800 f73d 5a17 253e ced9 9dbc 8be4 14bd
00000260: 48cb 5cbd 219b 623d 1476 b53d 8986 5abd
00000270: 508d 193d f646 2dbd a08a 8f3d 78ed 9fbd
00000280: dcd6 913d bf62 fd3b 08d9 7a3b 6205 913d
00000290: 668a 093d 47da 0f3d 7ebd 27bd e4c4 c23d
000002a0: 8276 b43d 3a1c 65bc 4e75 ea3d 753b c3bd
000002b0: b107 ccbd c3da a1bd 85c3 bc3c 9c65 36bd
000002c0: 371f 81bd f45e 793d d73e 81bd a6e6 9b3d
000002d0: bf91 8ebc 0a7f 973c b07d 773d 1c61 3dbd
000002e0: 202f 11be b4a7 78bd bd6d d53c 8ea2 143e
000002f0: 6ff9 a4bd 2b5e 34bd b17e b7bb 8ee4 a8bc
00000300: 317a 00bd fda3 bdbc 471c 9e3d ebbc 4fbd
00000310: 490f 06bd 14c4 bfbc 2da4 7bbd 04da 60bd
00000320: a20d 393d 89a6 a1bc 5a1b 47bd 55f5 4f3d
00000330: 7c6a 81bd c7ea f23c e5c1 1bbd dd35 61bc
00000340: af50 d6ba 6fa1 1cbd f963 b6bd b607 ab3a
00000350: f4be 36bc 8c0a 673d 4643 cc3d 2325 95bd
00000360: 2233 773c ebc2 a43d 3c5b 7bbc 8703 64bc
00000370: 93df c6bd 9b8a 623d bbae 8e3b 0f40 8e3d
00000380: 263b 1dba 3b5d 583d 4863 85bd 3626 41bd
00000390: 512f 55bd 33a9 43bd 3ac9 33be e773 2bbd
000003a0: 4b4b 273c bc3f 463d 36d7 103d 4f96 34bd
000003b0: ff10 dbbc c9d0 aa3d 6f6c 39bd 26f1 b1bd
000003c0: 4bb4 9f39 d4f5 043d d3a3 7d3d c37e a33d
000003d0: a31a 853d 6a62 cebc 743c 20bc cafb 20bc
000003e0: dbc6 96bd 3f73 64ba 0135 a4bb 13b9 563d
000003f0: 174f 0c3b 0eba 783d bbff b1bc ebab 3abd

convs.1.bias f4 [32]
-0.061335377 -0.058577508 -0.027343433 -0.042379122 -0.030249232 -0.1294198 -0.07033757 0.044769686
0.01450446 -0.022788754 0.043345682 -0.08009227 -0.08796118 0.077268675 0.09910493 0.12377707
-0.025056554 0.08497177 0.07357526 0.03165614 -0.03438099 -0.05260063 -0.0047516706 -0.066608414
-0.066077426 0.074523255 0.026241852 -0.114971265 -0.06886793 0.01059969 -0.055153053 0.056897298
00000000: ce3a 7bbd f8ee 6fbd 56ff dfbc bb95 2dbd
00000010: 3dcd f7bc a086 04be 250d 90bd 6b60 373d
00000020: 1da4 6d3c 7baf babc 3e8b 313d 6b07 a4bd
00000030: fe24 b4bd 0a3f 9e3d 87f7 ca3d d57e fd3d
00000040: 6743 cdbc ae05 ae3d a0ae 963d dea9 013d
00000050: 15d3 0cbd c273 57bd e7b3 9bbb fe69 88bd
00000060: 9a53 87bd a69f 983d 27f9 d63c 0e76 ebbd
00000070: a10a 8dbd 52aa 2d3c 2be8 61bd 240d 693d

convs.2.basis f4 [4, 32, 32]
-0.012738744 -0.034764793 0.040023047 0.047129203 -0.10059487 -0.012069716 0.0630408 0.03656366
-0.03914286 -0.020123594 -0.07502506 0.01304834 0.0313248 -0.052075744 0.018344915 -0.003342135
-0.0073469407 0.066045225 -0.06039874 0.013306969 -0.0006487003 0.0051559485 0.03499092 -0.04334568
-0.067188345 -0.02565969 0.034810245 -0.006760159 -0.016306791 0.0105435485 -0.034207154 -0.09584802
0.016387433 0.116858445 -0.012279219 -0.03345631 -0.004626229 -0.022580765 -0.046482965 0.02331622
0.032589305 0.06859434 0.06870052 -0.027119098 -0.07573911 -0.015902633 0.07663667 0.063384846
-0.0017913365 -0.024022011 0.0072113755 0.010421309 -0.006721784 0.047288623 0.03662472 -0.08463026
0.021603957 -0.07337245 -0.020588782 0.04385957 0.096973866 -0.09065203 -0.004597498 0.06287024
0.022914965 0.025299799 -0.09625878 0.026293967 0.0105791995 -0.0678108 -0.02396822 -0.026675893
-0.041305434 0.12749147 0.047977664 0.059324563 -0.04525077 0.023231324 0.101024024 -0.034579806
0.0047976268 0.056590132 0.051691752 -0.039875045 -0.013450877 0.07290397 0.078455664 -0.08439241
0.092789285 -0.06514465 -0.028334547 0.009602273 -0.0109783225 -0.008295582 0.044362593 0.098631
-0.061689794 -0.06656182 0.022073293 0.016870247 0.03179089 0.037190437 0.031011919 0.13886377
-0.067128494 -0.13352814 -0.01712421 0.0782755 0.046109166 -0.03696748 0.009462282 -0.023194088
0.0075098607 -0.057064146 0.046659436 0.030534513 6.0910334e-05 -0.081077926 -0.03219928 0.07468267
-0.03947798 -0.0053499737 -0.06729657 -0.014850694 0.019888805 0.009575466 -0.075401336 0.03148843
0.04120698 0.026235 -0.09318876 -0.055422142 0.030430907 -0.046286196 -0.094054475 0.07266468
-0.07324594 -0.046916332 -0.051163424 -0.01468475 0.0014578365 -0.010840752 0.07813398 0.008380615
0.037650004 -0.0037866703 -0.04380284 0.062531225 -0.01943907 0.09519763 -0.019036183 -0.0034195618
-0.026989376 0.0009390812 0.012500942 -0.060450844 0.06390239 -0.020707536 -0.029611398 -0.0041191354
-0.0067107747 0.036981698 0.021850059 0.03174874 -0.060042214 0.04603412 0.06450016 0.020776745
0.0017960216 0.036821622 -0.020396296 0.007796716 -0.052489255 -0.07123012 0.061209638 0.05958656
-0.017107464 0.083189026 0.03217067 0.017705245 0.035261173 -0.00032827334 -0.0040707476 -0.011345088
0.026251351 0.008393103 0.014837617 0.027843693 0.00027622702 0.031346105 0.013969703 -0.017671783
0.024810022 0.0018877946 -0.101087384 0.073491596 0.08424004 -0.024486737 -0.038280234 -0.081509545
-0.022751423 -0.007830061 -0.04872247 0.08042351 0.0068183844 -0.091031425 0.012505258 0.016978493
-0.013061942 0.07343189 0.007629363 -0.00057962537 0.007978099 0.00074741413 0.045280356 -0.030513851
0.06674884 0.032701816 0.043576784 -0.029082231 -0.10419999 -0.0350954 0.06647908 0.02156368
0.0993057 0.027869577 -0.041908458 0.008127553 0.04506152 -0.00029904558 0.015994977 -0.0064554554
-0.010333558 0.011809 0.010241165 0.06413755 0.014828227 0.06009697 0.06133086 -0.052226845
-0.08180211 0.03543974 -0.033625077 -0.013671631 -0.044685274 0.023275055 0.019876607 -0.04635681
0.09559297 -0.018032726 -0.018466119 0.025521021 0.07735424 0.018638102 -0.04130945 0.038150392
00000000: 2ab6 50bc 8765 0ebd 35ef 233d 8d0a 413d
00000010: af04 cebd 0fc0 45bc 891b 813d c7c3 153d
00000020: 4354 20bd 3cda a4bc bda6 99bd b4c8 553c
00000030: 6f4e 003d 604d 55bd 1348 963c b907 5bbb
00000040: 9bbe f0bb b842 873d ab64 77bd 7905 5a3c
00000050: 8a0d 2aba 3bf3 a83b a452 0f3d 3d8b 31bd
00000060: 0b9a 89bd 4534 d2bc 3095 0e3d 5384 ddbb
00000070: d295 85bc d9be 2c3c cd1c 0cbd f74b c4bd
00000080: f03e 863c 7b53 ef3d c72e 49bc 7c09 09bd
00000090: 9f97 97bb 4cfb b8bc ec64 3ebd a801 bf3c
000000a0: 5d7c 053d 307b 8c3d dcb2 8c3d df28 debc
000000b0: 1b1d 9bbd 3d46 82bc b0f3 9c3d eacf 813d
000000c0: 47cb eaba cfc9 c4bc 674d ec3b 23be 2a3c
000000d0: 6942 dcbb b7b1 413d cd03 163d a152 adbd
000000e0: c8fa b03c 4c44 96bd cea9 a8bc 18a6 333d
000000f0: 3c9a c63d c6a7 b9bd 9ca6 96bb 1dc2 803d
00000100: 2ab8 bb3c 8641 cf3c 5323 c5bd 7266 d73c
00000110: 6154 2d3c 64e0 8abd 0059 c4bc 6787 dabc
00000120: e32f 29bd 208d 023e 3a84 443d 50fe 723d
00000130: df58 39bd 9e4f be3c afe5 ce3d 8ea3 0dbd
00000140: 6935 9d3b 0ecb 673d bbba 533d 0454 23bd
00000150: 1161 5cbc ad4e 953d 5dad a03d eed5 acbd
00000160: 4f08 be3d 8f6a 85bd da1d e8bc da52 1d3c
00000170: 6cde 33bc 31ea 07bc 8db5 353d 0dff c93d
00000180: 70ae 7cbd 9051 88bd 0dd3 b43c 7933 8a3c
00000190: 2a37 023d 0055 183d b50c fe3c 4e32 0e3e
000001a0: aa7a 89bd 9abb 08be 1248 8cbc e84e a03d
000001b0: f7dc 3c3d 366b 17bd b007 1b3c 8701 bebc
000001c0: 4715 f63b 18bc 69bd f71d 3f3d 8423 fa3c
000001d0: f979 7f38 2f0c a6bd 64e3 03bd 3af3 983d
000001e0: aab3 21bd d54e afbb c9d2 89bd 5350 73bc
000001f0: d9ed a23c 6ae2 1c3c 046c 9abd 03fa 003d
00000200: a6c8 283d c8ea d63c c0d9 bebd 5402 63bd
00000210: 3d4a f93c 9896 3dbd a29f c0bd 38d1 943d
00000220: f801 96bd 572b 40bd bd90 51bd 4e98 70bc
00000230: e014 bf3a 699d 31bc b504 a03d d94e 093c
00000240: e436 1a3d c929 78bb 9b6a 33bd 5f10 803d
00000250: af3e 9fbc faf6 c23d c5f1 9bbc ba1a 60bb
00000260: d318 ddbc ac2c 763a c0d0 4c3c 4e9b 77bd
00000270: 42df 823d daa2 a9bc 9a93 f2bc d0f9 86bb
00000280: 0fe6 dbbb 1f7a 173d e5fe b23c f70a 023d
00000290: d3ee 75bd 468e 3c3d a918 843d fe33 aa3c
000002a0: 7c68 eb3a 45d2 163d 2216 a7bc 987b ff3b
000002b0: f9fe 56bd 19e1 91bd f5b6 7a3d 0911 743d
000002c0: f424 8cbc 025f aa3d 64c5 033d 970a 913c
000002d0: 056e 103d 1a1c acb9 e863 85bb bfe0 39bc
000002e0: 130d d73c 3a83 093c 7a19 733c 7518 e43c
000002f0: 90d2 9039 c664 003d 2ee1 643c 6ac4 90bc
00000300: 633e cb3c e06f f73a e706 cfbd c382 963d
00000310: 0b86 ac3d 6998 c8bc bccb 1cbd 7aee a6bd
00000320: 3161 babc a849 00bc 3691 47bd 15b5 a43d
00000330: c16c df3b af6e babd dbe2 4c3c 7b16 8b3c
00000340: c101 56bc 7563 963d bcff f93b 00f2 17ba
00000350: 93b6 023c 1dee 433a e577 393d 2ff8 f9bc
00000360: 9eb3 883d 57f2 053d 927d 323d dc3d eebc
00000370: ce66 d5bd 32c0 0fbd 2f26 883d 51a6 b03c
00000380: c960 cb3d bd4e e43c 34a8 2bbd 6e29 053c
00000390: 6e92 383d 38c9 9cb9 e607 833c 4988 d3bb
000003a0: 154e 29bc 897a 413c 8fca 273c 8c5a 833d
000003b0: 18f2 723c 3e28 763d 1136 7b3d d1eb 55bd
000003c0: dd87 a7bd 4329 113d 73ba 09bd fafe 5fbc
000003d0: e807 37bd 54ab be3c 44d4 a23c a3e0 3dbd
000003e0: 3fc6 c33d 5eb9 93bc 4246 97bc 7611 d13c
000003f0: e66b 9e3d efae 983c 1934 29bd 9643 1c3d

convs.2.att f4 [10, 4]
0.044230737 0.012517776 0.028787859 0.029039554 0.027885808 -0.0065458408 0.011596786 0.027861824
0.008735837 0.0020401487 0.0036638465 0.007382896 -0.0058147637 -0.0017365027 -0.002636406 -0.0039282474
-0.0021447293 0.0059152143 -0.007773571 -0.0032773325 -0.0076337685 0.0033031697 0.0030568368 -0.0076440074
-0.005132842 0.008751521 -0.032824356 -0.027911836 0.0018313368 -0.0056807585 0.009701806 0.008560412
0.006232476 -0.013584311 0.0017635701 0.0055770907 -0.0042783334 0.010549973 -0.010619771 -0.011329501
00000000: 4a2b 353d 5c17 4d3c 84d4 eb3c 5ce4 ed3c
00000010: c770 e43c 7e7e d6bb 7200 3e3c 7b3e e43c
00000020: c220 0f3c 04b4 053b 251d 703b 38ec f13b
00000030: c689 bebb 5d9b e3ba 8ec7 2cbb 87b8 80bb
00000040: 968e 0cbb 6ad4 c13b 71b9 febb 84c8 56bb
00000050: b124 fabb fe79 583b 3655 483b 957a fabb
00000060: 6631 a8bb 8a62 0f3c d572 06bd 5da7 e4bc
00000070: 7709 f03a a825 babb 53f4 1e3c f840 0c3c
00000080: cc39 cc3b bb90 5ebc 9827 e73a 07c0 b63b
00000090: 4331 8cbb cbd9 2c3c 8cfe 2dbc 5f9f 39bc

convs.2.root f4 [32, 32]
-0.028342362 -0.0647513 0.10493014 -0.02759215 -0.0038186226 -0.11698475 -0.06278357 -0.04831739
0.04767194 -0.050881818 0.031077623 0.025328306 -0.02660612 0.08757146 -0.07562635 -0.04756165
-0.01257921 -0.013486344 0.046421405 0.0071643894 0.0071920436 -0.04332858 -0.06385536 0.03599343
-0.11214301 0.017866522 0.04024909 0.015040479 0.04549911 0.024862837 -0.067941815 -0.035950016
0.026162468 -0.018024476 -0.038334124 0.026168318 -0.018884607 0.0639199 -0.07938779 -0.0911741
0.04231295 9.179457e-05 -0.03905117 -0.006672169 0.009369186 0.07479358 0.0013089512 0.03873791
0.0091480315 0.009166369 0.021859687 -0.0845445 -0.04000378 -0.043175954 0.011575132 0.022422748
-0.077923805 -0.05414568 0.07274826 -0.065174036 -0.019031705 -0.0016018177 -0.054203827 -0.035130415
-0.041967362 -0.11977679 0.087244906 -0.07740392 -0.0031542284 -0.10645874 -0.038160328 0.04253716
0.055897236 0.025363818 0.051480114 -0.027213965 -0.04342045 -0.08872462 0.008856574 0.010117424
-0.010440652 0.06525055 0.016869422 -0.025851762 -0.114951976 -0.04373804 -0.018022386 0.052917533
-0.05841623 0.02550696 0.022649294 -0.014652885 -0.011188674 -0.017593648 -0.07844871 -0.094420314
0.0070914384 -0.037598 -0.0022570372 -0.04942025 0.011549948 -0.10433215 0.008243769 -0.038911782
-0.048325095 -0.020506091 0.05900704 0.047386672 -0.061510272 -0.07056955 0.019661155 0.016531648
-0.0636134 0.025613092 0.0040121824 -0.057501584 0.00040426265 -0.08693331 -0.023621421 -0.050337803
0.0052037835 0.0047842395 0.024972938 -0.024645962 -0.029149124 0.025265193 -0.043266132 0.032509733
-0.031512544 0.08875074 0.014693166 0.052752133 -0.013738786 0.01619138 0.025671868 0.038118083
0.016228411 0.028799985 -0.014999334 -0.0019502997 0.092041254 0.077330075 -0.048847802 0.031227106
0.05234363 0.045588125 0.040360104 0.016592594 0.054481767 -0.03160879 0.04314639 0.055042047
0.0057730624 -0.028893031 -0.12696296 0.04757941 0.039894827 0.028366163 0.017125815 0.011223155
-0.04895917 -0.0999223 -0.045792263 0.04707696 0.019782817 0.014111712 -0.071561955 -0.037618414
0.030528396 0.02778148 0.07291755 0.011970565 0.008061173 -0.012782952 -0.040669728 -0.030123597
0.0071491376 0.014692871 0.013638984 -0.046462346 -0.015574374 -0.072424375 -0.00018364158 -0.05206713
-0.036425512 -0.0072472678 0.08514386 -0.031232718 0.031842284 -0.00612311 0.01344914 -0.022326196
0.018549338 0.109320395 -0.10464532 0.13580808 0.030971093 0.087591805 -0.0077167903 0.035851393
0.033071633 0.026849255 -0.1487401 -0.10119268 0.023616819 -0.0035751734 -0.037679993 -0.020204296
0.056545082 0.05448964 -0.04160367 0.062011704 0.111125775 0.21480404 0.012382306 0.008736144
0.14888826 -0.05479632 -0.041727103 -0.047455702 -0.01746404 -0.0017280626 0.053845864 0.029782597
-0.014866336 -0.02626047 -0.012828735 0.010998931 0.020088736 -0.03178127 -0.005815175 -0.015950885
0.054082427 -0.014687116 -0.010501281 0.03383428 -0.012565064 -0.027088897 -0.014159643 -0.027922308
-0.04110071 0.012555491 0.01692464 0.022897474 -0.025205478 -0.058147013 -0.04621615 0.03189346
-0.026159247 -0.0153781865 -0.015784077 -0.021489082 0.0035283028 -0.0032048842 0.005672577 0.005911888
00000000: 3e2e e8bc 549c 84bd 9de5 d63d ef08 e2bc
00000010: db41 7abb b395 efbd ac94 80bd 75e8 45bd
00000020: a743 433d 7469 50bd 8096 fe3c 4f7d cf3c
00000030: 14f5 d9bc aa58 b33d fde1 9abd 01d0 42bd
00000040: 0819 4ebc d4f5 5cbc 5f24 3e3d 41c3 ea3b
00000050: 3cab eb3b 4f79 31bd 99c6 82bd d96d 133d
00000060: 3cab e5bd d05c 923c 3bdc 243d 576c 763c
00000070: 465d 3a3d 26ad cb3c 1425 8bbd 5340 13bd
00000080: ac52 d63c 11a8 93bc 3e04 1dbd f15e d63c
00000090: e4b3 9abc 70e8 823d 1196 a2bd 7db9 babd
000000a0: 5850 2d3d d681 c038 1ff4 1fbd 36a2 dabb
000000b0: 3781 193c 602d 993d 1d91 ab3a a5ab 1e3d
000000c0: a0e1 153c 8a2e 163c 1613 b33c ab25 adbd
000000d0: 01db 23bd 45d9 30bd 9fa5 3d3c e9af b73c
000000e0: 8496 9fbd dcc7 5dbd 0afd 943d f779 85bd
000000f0: 61e8 9bbc 15f4 d1ba d504 5ebd e9e4 0fbd
00000100: f8e5 2bbd 894d f5bd 75ad b23d f285 9ebd
00000110: 2cb7 4ebb 0a07 dabd 014e 1cbd 723b 2e3d
00000120: 80f4 643d c8c7 cf3c d0dc 523d d2ef debc
00000130: a4d9 31bd 41b5 b5bd 2a1b 113c 8dc3 253c
00000140: 450f 2bbc 15a2 853d be31 8a3c 13c7 d3bc
00000150: f16b ebbd a926 33bd afa3 93bc 0ec0 583d
00000160: db45 6fbd f9f3 d03c 038b b93c a712 70bc
00000170: b350 37bc 8e20 90bc b8a9 a0bd 705f c1bd
00000180: 4c5f e83b 5c00 1abd cdea 13bb e36c 4abd
00000190: fe3b 3d3c 18ac d5bd e010 073c f661 1fbd
000001a0: 89f0 45bd 64fc a7bc 5eb1 713d 8718 423d
000001b0: 32f2 7bbd c586 90bd 6e10 a13c 616d 873c
000001c0: be47 82bd 8cd2 d13c a078 833b c886 6bbd
000001d0: 37f3 d339 170a b2bd b681 c1bc 032f 4ebd
000001e0: 8084 aa3b 1cc5 9c3b 0c94 cc3c 54e6 c9bc
000001f0: 25ca eebc f3f8 ce3c d437 31bd ed28 053d
00000200: 4c13 01bd f3c2 b53d 9bbb 703c 9f12 583d
00000210: a518 61bc c9a3 843c cf4d d23c b521 1c3d
00000220: 72f1 843c f2ed eb3c c4bf 75bc 33a1 ffba
00000230: 2080 bc3d 3b5f 9e3d a214 48bd fdcf ff3c
00000240: 4666 563d 9dba 3a3d a350 253d 31ed 873c
00000250: 4628 5f3d 3878 01bd 45ba 303d c573 613d
00000260: f52b bd3b 14b1 ecbc 9402 02be a1e2 423d
00000270: c268 233d 2860 e83c 704b 8c3c 53e1 373c
00000280: 6989 48bd 10a4 ccbd ab90 3bbd c5d3 403d
00000290: 930f a23c cf34 673c 138f 92bd c415 1abd
000002a0: b016 fa3c fd95 e33c cc55 953d 3020 443c
000002b0: 0313 043c 966f 51bc 4d95 26bd c3c5 f6bc
000002c0: 5043 ea3b 5eba 703c 0c76 5f3c 4d4f 3ebd
000002d0: a92b 7fbc 3b53 94bd e98f 40b9 5844 55bd
000002e0: eb32 15bd 7d7a edbb e75f ae3d c2db ffbc
000002f0: 0e6d 023d 5fa4 c8bb c859 5c3c 6de5 b6bc
00000300: c8f4 973c 5fe3 df3d 4950 d6bd 4611 0b3e
00000310: 17b7 fd3c 5563 b33d 21dd fcbb e9d8 123d
00000320: 1f76 073d f8f2 db3c 534f 18be 1c3e cfbd
00000330: 0f78 c13c 754d 6abb 5656 1abd 7b83 a5bc
00000340: d19b 673d 8730 5f3d 9c68 2abd fcff 7d3d
00000350: e995 e33d 97f5 5b3e 28df 4a3c 0b22 0f3c
00000360: 2a76 183e 1b72 60bd 0aea 2abd e960 42bd
00000370: bf10 8fbc 2980 e2ba 7b8d 5c3d a2fa f33c
00000380: ef91 73bc 3220 d7bc 9d2f 52bc dc34 343c
00000390: 2291 a43c 142d 02bd 398d bebb 6eab 82bc
000003a0: 8985 5d3d 3ba2 70bc 910d 2cbc d095 0a3d
000003b0: b3dd 4dbc 89e9 ddbc d9fd 67bc 53bd e4bc
000003c0: 3859 28bd 8cb5 4d3c 8ba5 8a3c 7c93 bb3c
000003d0: b87b cebc 902b 6ebd 254d 3dbd b7a2 023d
000003e0: eb4b d6bc caf4 7bbc 9c4d 81bc df09 b0bc
000003f0: 193b 673b 0909 52bb 06e1 b93b 83b8 c13b

convs.2.bias f4 [32]
-0.0060208817 -0.047934562 0.036912903 -0.07450671 -0.022359129 -0.080777876 -0.010057286 -0.037095815
-0.038887575 -0.019329226 0.074999966 0.0640629 -0.02002395 0.009704449 0.010856994 0.027207838
-0.057475332 -0.016500719 0.01580397 -0.045097314 -0.05437669 -0.09895121 -0.03492533 -0.015663298
-0.063027635 0.052722286 0.020232435 0.035671238 0.016699182 0.020558251 -0.043977715 -0.0019118267
00000000: d14a c5bb 0857 44bd fc31 173d f996 98bd
00000010: 7e2a b7bc df6e a5bd 51c7 24bc c8f1 17bd
00000020: 9448 1fbd 5358 9ebc 9599 993d 6933 833d
00000030: 4409 a4bc 69ff 1e3c 89e1 313c f9e2 de3c
00000040: 416b 6bbd 842c 87bc 5477 813c f6b7 38bd
00000050: 18ba 5ebd efa6 cabd dd0d 0fbd 5150 80bc
00000060: a214 81bd 53f3 573d 7ebe a53c 011c 123d
00000070: b9cc 883c c769 a83c fa21 34bd 4296 faba

convs.3.basis f4 [4, 32, 32]
-0.0032297256 0.040214967 -0.055531792 0.03853457 0.011313938 -0.017426306 0.06620475 0.04801018
-0.0040224567 -0.04612964 -0.049100786 0.09646986 -0.07180087 0.022414956 0.03246235 -0.046052027
-0.014346766 0.005858662 0.010323319 0.020198409 0.026371565 0.041004155 0.08418954 0.05690112
0.09254998 -0.019336296 -0.08031436 -0.09961149 0.023856297 -0.09016371 0.025662446 -0.0069199763
0.093518436 -0.120809294 0.038238168 0.04830036 0.03995015 0.011961135 -0.07863832 0.035091523
0.13486575 0.0115267625 -0.025502464 0.06657316 -0.026179343 0.0651916 -0.034810707 0.064649485
-0.03104154 -0.027757064 0.014307399 0.01361845 0.084798254 -0.052329343 -0.021285493 -0.040490136
-0.04948093 0.074126855 -0.044223577 0.053435 -0.015574619 0.06964823 0.068628184 -0.10171975
-0.07603237 -0.007850177 0.037058968 -0.03217281 -0.028942734 0.07157717 0.08284584 -0.018715238
-0.09289516 -0.06431173 -0.037499763 0.02477423 0.0057492796 -0.0035687492 0.053333905 0.059453007
-0.042750593 -0.014821472 0.016662335 -0.018583898 0.0035928623 0.07264826 0.023936773 0.052224606
-0.0007214829 0.051895265 -0.02583748 0.017043222 0.058922406 -0.09871711 0.04573446 0.008743298
0.029759066 -0.0011231898 0.0048337947 0.062509924 0.021721512 -0.013626293 -0.058562335 0.00645812
-0.0017591041 0.056555264 -0.002184852 -0.008204655 -0.07228399 0.047051422 -0.006493519 -0.07208325
-0.017835043 0.04070392 -0.05445329 0.061614163 -0.0881611 -0.047594663 0.007664875 -0.04976309
0.02499882 0.02465324 -0.056467496 -0.04419336 0.096808076 0.033883568 0.01415531 -0.11520012
0.003368444 -0.03972682 0.019669244 -0.028081393 0.05471179 -0.04563481 -0.03749856 -0.05623216
0.07733789 0.017956203 0.06494805 -0.0072175544 -0.01978985 -0.017849088 -0.0050075073 -0.014907017
-0.014663404 0.050794393 -0.062427685 -0.026421465 -0.03081421 -0.04548506 -0.053175233 0.057439443
-0.074277945 -0.06170504 -0.00994415 -0.024873763 0.039061558 0.03611106 0.011580157 -0.058022223
0.038448427 -0.103302345 -0.087507 -0.017772563 0.029866884 -0.02262595 0.0022772185 0.04528607
0.081427366 -0.021940561 0.049865447 -0.050763298 0.022931673 0.05963039 0.05207644 -0.020655751
-0.0032184555 -0.028713826 -0.04550823 -0.022562385 -0.0035231882 0.049879275 0.0026578754 0.0016729069
0.026209498 -0.035838768 -0.0335762 -0.03100285 0.0020187183 -0.018035885 0.04916516 -0.12517594
-0.038753103 0.0015354161 0.055046327 -0.029011844 0.03134938 0.03299726 -0.081664644 0.018592425
-0.073302455 0.046485163 -0.027849998 -0.01002974 0.026366727 -0.050912287 0.052640397 0.024301166
0.060337905 -0.01647247 0.0061021945 0.017606175 0.0011873463 0.010246096 0.0024509667 -0.065846
-0.03445216 -0.007960032 -0.02094044 -0.05120553 -0.0372337 -0.025031094 -0.026642738 0.08823686
0.08068546 -0.05457359 -0.014199562 0.026031217 0.023643134 -0.029054057 -0.026823133 -0.019801596
0.10297777 -0.0063192663 0.020944506 0.02585435 0.015596104 0.02139887 0.052086063 0.02355799
0.058053 0.07080347 0.049190708 -0.019509934 0.03734452 0.06016695 0.05155136 0.056336377
-0.035480242 0.085219935 0.016259901 -0.019072035 0.04217114 0.0026431154 0.09078433 -0.05561208
00000000: cea9 53bb 73b8 243d 4e75 63bd 6dd6 1d3d
00000010: 185e 393c 9dc1 8ebc 5b96 873d 53a6 443d
00000020: d0ce 83bb 6ff2 3cbd e81d 49bd fd91 c53d
00000030: 560c 93bd 929f b73c 3ef7 043d 0da1 3cbd
00000040: b30e 6bbc 05fa bf3b 2323 293c 2277 a53c
00000050: 2e09 d83c f9f3 273d 916b ac3d 2611 693d
00000060: d88a bd3d 2767 9ebc db7b a4bd 1c01 ccbd
00000070: 486e c33c c0a7 b8bd 0d3a d23c f8c0 e2bb
00000080: 9886 bf3d dd6a f7bd a09f 1c3d 99d6 453d
00000090: c5a2 233d a3f8 433c 210d a1bd 21bc 0f3d
000000a0: 3f1a 0a3e bfda 3c3c 8bea d0bc 8257 883d
000000b0: 1076 d6bc 2c83 853d ac95 0ebd f366 843d
000000c0: d44a febc c862 e3bc 9569 6a3c eb1f 5f3c
000000d0: b5aa ad3d 4b57 56bd ea5e aebc fcd8 25bd
000000e0: 84ac 4abd d2cf 973d c823 35bd a9de 5a3d
000000f0: b02c 7fbc bba3 8e3d ef8c 8c3d 7252 d0bd
00000100: dcb6 9bbd 079e 00bc 25cb 173d a3c7 03bd
00000110: 5019 edbc 0d97 923d 14ab a93d b350 99bc
00000120: d13f bebd deb5 83bd 5a99 19bd 53f3 ca3c
00000130: 7464 bc3b ade1 69bb a774 5a3d ff84 733d
00000140: 3f1b 2fbd c2d5 72bc 737f 883c 423d 98bc
00000150: 3a76 6b3b 9cc8 943d 0d17 c43c 78e9 553d
00000160: e621 3dba 2190 543d 1fa9 d3bc 3a9e 8b3c
00000170: 9f58 713d 322c cabd 0f54 3b3d 0d40 0f3c
00000180: 49c9 f33c ff37 93ba cf64 9e3b 3405 803d
00000190: 50f1 b13c d140 5fbc 0fdf 6fbd a39e d33b
000001a0: bd91 e6ba 7ea6 673d bc2f 0fbb d16c 06bc
000001b0: a109 94bd feb8 403d 96c7 d4bb 62a0 93bd
000001c0: cc1a 92bc 27b9 263d 6a0a 5fbd 225f 7c3d
000001d0: cf8d b4bd 9ff2 42bd a229 fb3b 62d4 4bbd
000001e0: 53ca cc3c 97f5 c93c 764a 67bd 1904 35bd
000001f0: 5043 c63d 7fc9 0a3d aceb 673c 0aee ebbd
00000200: 1dc1 5c3b 97b8 22bd 6521 a13c f30a e6bc
00000210: 7819 603d 91eb 3abd 1798 19bd b253 66bd
00000220: 5463 9e3d e318 933c 7c03 853d 3c81 ecbb
00000230: 531e a2bc 4038 92bc 0416 a4bb 903c 74bc
00000240: c63e 70bc c80d 503d 2cb4 7fbd d471 d8bc
00000250: 156e fcbc 8b4e 3abd 46ce 59bd 9f45 6b3d
00000260: 091f 98bd 6dbe 7cbd caec 22bc 10c4 cbbc
00000270: 03ff 1f3d 31e9 133d b3ba 3d3c b6a8 6dbd
00000280: 197c 1d3d 2e90 d3bd df36 b3bd c497 91bc
00000290: 65ab f43c 0e5a b9bc 633d 153b e37d 393d
000002a0: 64c3 a63d b1bc b3bc b63f 4c3d 2ded 4fbd
000002b0: 34db bb3c ff3e 743d 1b4e 553d 4036 a9bc
000002c0: b9ec 52bb 4239 ebbc d666 3abd c0d4 b8bc
000002d0: 4ae5 66bb 364e 4c3d c02f 2e3b 7145 db3a
000002e0: 4db5 d63c accb 12bd 3387 09bd b0f9 fdbc
000002f0: 794c 043b febf 93bc 6861 493d 1f2e 00be
00000300: 93bb 1ebd 0440 c93a 4278 613d 3faa edbc
00000310: 3568 003d 2328 073d cb3f a7bd 244f 983c
00000320: 991f 96bd 3a67 3e3d ae25 e4bc c753 24bc
00000330: 09ff d73c 6789 50bd 759d 573d 3d13 c73c
00000340: e124 773d 46f1 86bc ebf4 c73b d33a 903c
00000350: bba0 9b3a 3edf 273c 66a0 203b 45da 86bd
00000360: b51d 0dbd cb6a 02bc 498b abbc e4bc 51bd
00000370: 5d82 18bd 020e cdbc df41 dabc 87b5 b43d
00000380: 6b3e a53d 8f88 5fbd 48a5 68bc 6b3f d53c
00000390: 3faf c13c c602 eebc 30bc dbbc f536 a2bc
000003a0: 02e6 d23d d911 cfbb d093 ab3c 80cc d33c
000003b0: cd86 7f3c af4c af3c 3258 553d b0fc c03c
000003c0: fcc8 6d3d 6901 913d 327c 493d 4cd3 9fbc
000003d0: 91f6 183d 9f71 763d 8527 533d f9c0 663d
000003e0: bb53 11bd ca87 ae3d 7c33 853c f53c 9cbc
000003f0: a5bb 2c3d 1e38 2d3b 23ed b93d 7ec9 63bd

convs.3.att f4 [10, 4]
-0.004115915 -0.0020813737 0.0076239193 0.032857146 -0.010041196 -0.0038178118 0.008047869 0.022893492
-0.007833522 0.0034838018 0.012184399 0.023206247 -0.0049815094 -0.0011400438 0.0020241607 0.008890676
-0.004095121 -0.0014384219 -0.0023889202 -0.0023072907 0.0054164696 -0.006285241 -0.020318337 -0.021814073
-0.016149605 0.010104762 0.017362708 0.014022539 -0.002569891 0.0011235187 0.0046498035 0.0026787901
0.0037844689 -0.00075964024 -0.010976557 0.0074788486 -0.0039409595 -0.005154893 -0.0049682977 0.010083104
00000000: ccde 86bb a867 08bb 12d2 f93b 3795 063d
00000010: d483 24bc 4134 7abb 36db 033c 228b bb3c
00000020: 2c58 00bc 7f50 643b 13a1 473c 071b be3c
00000030: ee3b a3bb 866d 95ba c8a7 043b 33aa 113c
00000040: 5d30 86bb 6e89 bcba 6e8f 1cbb ea35 17bb
00000050: a47c b13b 6cf4 cdbb a472 a6bc 6db3 b2bc
00000060: 2d4c 84bc 728e 253c 3d3c 8e3c cbbe 653c
00000070: 9e6b 28bb 0843 933a 615d 983b a48e 2f3b
00000080: da04 783b 9822 47ba 04d7 33bc 2111 f53b
00000090: 2a23 81bb 60ea a8bb 1acd a2bb 9a33 253c
