results/flixster_testmode/model_checkpoint12.pth (torch_old, 199981 bytes, 19 tensors)

convs.0.basis f4 [4, 4, 32]
000000 47 84 fa 3d 56 14 94 bd 9a 9e d5 3d 52 a1 95 3d
       0.12232261 -0.07230441 0.104306415 0.0730616
000010 fd ea ef bb f7 93 75 3e bd bd ae bd f2 55 1a be
       -0.007321714 0.23982225 -0.085322835 -0.15071848
000020 2c ab c4 3d ba de 1f be d6 ba 14 3e 88 57 16 be
       0.09602961 -0.15612307 0.14524397 -0.14681828
000030 b6 47 4c be 91 34 07 3e c0 83 f7 3d 18 63 db bd
       -0.1994923 0.13203646 0.12085676 -0.1071226
000040 e2 75 92 bc 15 45 d4 bd 02 a1 53 be ac 32 cd 3c
       -0.017878477 -0.10364739 -0.20666888 0.025048576
000050 17 21 2e 3d b4 cd 1b 3e 90 ba 08 3d 35 e8 f2 bd
       0.042512026 0.15215188 0.033381045 -0.11860696
000060 4e a5 26 3d a4 76 32 be 3c d0 1f 3d 5b 26 55 3d
       0.04068499 -0.1742807 0.039016947 0.05203853
000070 57 5b 09 3e 08 20 8e 3e d6 7e 76 be 1f b8 5a bc
       0.1341375 0.27758813 -0.24071822 -0.013349562
000080 29 25 1e be 83 9d da bd c0 a3 bc bd 0c 2f 83 bd
       -0.15443863 -0.10674574 -0.0921092 -0.06405458
000090 2c 1a de bc fd 02 82 3e c2 99 04 be 12 68 c6 bd
       -0.02711209 0.25392905 -0.12949279 -0.096878186
0000a0 72 52 5a be 75 30 13 be 62 35 04 3e de 2f 65 be
       -0.21320513 -0.14373954 0.12910989 -0.22381541
0000b0 3d 0d ca bd 72 1e 61 3d 1d 5c a1 bc 0f e5 08 be
       -0.09865806 0.054960676 -0.019697243 -0.13368629
0000c0 59 9a 2a be d0 db 6c be a0 8f 0a 3e b3 6c 04 be
       -0.16660441 -0.23130727 0.13531351 -0.1293209
0000d0 bc f6 4b be 1a 33 ea 3d dd e0 9b bd 19 0d 7f bd
       -0.1991834 0.11435528 -0.07611249 -0.06226835
0000e0 0c 9d 89 3d b1 2a 68 bd a3 65 15 3c 8f 55 d1 3c
       0.067194074 -0.05668134 0.00911847 0.025553493
0000f0 1c 33 fe 3d 08 f7 eb 3d c6 9a 29 be 90 c1 a7 3c
       0.12412092 0.11521727 -0.16562948 0.02047804
000100 27 89 ad bd 1e f9 d7 bd 80 76 32 3e 4a 34 24 3e
       -0.08473425 -0.10545562 0.17428017 0.16035572
000110 29 aa cf 3b 23 66 05 be 90 69 ca 3d 24 f8 46 be
       0.0063374233 -0.13027243 0.09883416 -0.19430596
000120 da 9c 36 be 42 fe a3 bd 5f e8 8f bd 63 f3 85 3d
       -0.17833272 -0.0800748 -0.07026743 0.06540563
000130 9f 98 59 3e 02 77 90 3d f2 87 61 3d 33 9c 41 be
       0.21249627 0.07053949 0.05506129 -0.18907242
000140 ba 1d 6f 3d f2 65 89 bd ee e9 01 3e 33 4d 18 3e
       0.05837796 -0.06708898 0.12686893 0.14873199
000150 77 3a 96 3d 3b ac e3 3d 39 d6 e8 be e6 86 b8 be
       0.0733537 0.11116835 -0.4547594 -0.3604042
000160 c0 23 98 be 2e 2d 41 bd 29 ab 11 be 05 77 f0 3b
       -0.29714775 -0.047162227 -0.14225449 0.007338407
000170 21 61 c7 bd 22 19 56 3d 86 79 13 3c 1e d8 a7 3d
       -0.09735323 0.052270062 0.009001141 0.08195518
000180 6b 3e 26 3e ac 45 90 3d 22 f4 43 3c 8c 5c 03 be
       0.16234748 0.07044539 0.011960061 -0.12828273
000190 d1 43 4c be dc 4e 94 be 2b 61 9b bd 57 0c 49 bd
       -0.19947745 -0.28966415 -0.07586893 -0.049084034
0001a0 ca b7 a6 3e 32 bd e3 3e 6b d0 f1 3e 27 da 22 3e
       0.32562095 0.44480282 0.47229323 0.15903531
0001b0 c5 35 38 3d 17 8d bc 3c 8f 6d b7 bd 94 4a 9a bc
       0.044973154 0.023016496 -0.089564435 -0.01883439
0001c0 f3 a3 a1 be a0 72 32 be fd 1b e0 bd 9e ad d3 bb
       -0.31570396 -0.17426538 -0.10942838 -0.0064599058
0001d0 71 f2 9c 3c 46 51 cd be 83 e9 17 be d7 c8 a5 3d
       0.019158574 -0.4010107 -0.14835171 0.08094948
0001e0 8c b1 0d be 7a 89 1d 3e b5 c9 25 be ff 74 30 be
       -0.1383726 0.15384474 -0.16190226 -0.1723213
0001f0 97 fd ca bb 12 12 48 3e d9 97 fe 3d 4d f5 20 3d
       -0.006194781 0.19538143 0.124313064 0.039296437
000200 16 13 ec 3c 2f eb 5a bd f7 7a 8b 3d cb 30 e5 3d
       0.028817695 -0.053446945 0.06810563 0.11190947
000210 84 e4 d2 bb 8e 5b 3e 3e ee 86 11 3b 21 3d bc bd
       -0.0064359326 0.18589613 0.0022205669 -0.09191347
000220 0e bf 8f bc 1a 5a c6 bd d0 6a 0f 3d 5a d4 44 bd
       -0.017547157 -0.09685154 0.035013974 -0.048054077
000230 04 1d 10 be 00 e9 a7 3d 66 db e2 3d 3e e0 2e be
       -0.14073569 0.08198738 0.11077003 -0.17077729
000240 80 1a 42 bd 11 c3 c8 bd 0c 9a 96 bd 91 1d 09 bc
       -0.047388554 -0.09802831 -0.07353601 -0.008368866
000250 80 c7 16 bc 82 72 09 3e 6c e6 e1 3d 6f 5d 17 be
       -0.009202838 0.13422588 0.110302776 -0.14781736
000260 ce 74 49 3d 77 52 0b be 95 9c 1c 3d ad 67 84 3c
       0.04918366 -0.13605677 0.038235266 0.016162718
000270 38 f8 a8 3c 42 80 3e 3e bc f9 37 be 63 d3 41 bd
       0.020626172 0.18603614 -0.1796636 -0.047320735
000280 cb c4 ad bd a5 de f7 bc 39 6b 04 be d2 b4 5f 3d
       -0.08484801 -0.030257532 -0.12931527 0.054615803
000290 3f 7f be bc b8 c5 56 3e 03 bb e8 bd ce 3c fd bb
       -0.023254035 0.20973861 -0.11363795 -0.0077281957
0002a0 73 ad bf bd 52 1f e9 bd 94 d8 f0 3d d4 bb 66 be
       -0.09359255 -0.11382927 0.11760059 -0.22532588
0002b0 58 67 dd bd 5d c4 ad 3c c0 a0 b6 3d c1 c2 65 bd
       -0.10810727 0.021211797 0.089173794 -0.056093935
0002c0 2d e6 19 be d2 b3 31 be 04 56 5f 3d af 03 d0 bc
       -0.15029211 -0.17353752 0.05452539 -0.025392381
0002d0 e3 d5 36 be a0 35 ab 3d 32 6a 25 3c 7e 29 ed bc
       -0.17855029 0.083598375 0.01009612 -0.02895045
0002e0 91 e8 d9 3d 98 16 82 bd b3 08 f2 3c 1b b2 9e 3c
       0.10640062 -0.06351966 0.029545164 0.019372037
0002f0 b9 db d4 3d bf 71 3b 3e c2 0e e9 bd a5 b1 9d 3d
       0.10393471 0.1830511 -0.11379768 0.07699899
000300 e9 ff 0f bd 31 4c 42 3c 3e 9f 7f bd 97 64 49 3d
       -0.035156164 0.011858986 -0.062407725 0.049168196
000310 78 7c ab 3d 0f 98 0d 3e 58 40 01 ba 9a 2f 0f be
       0.0837335 0.13827537 -0.00049305474 -0.13983002
000320 02 5f bb be 27 c2 57 3c 07 2b 2a be ee 93 a3 bd
       -0.36595923 0.013168848 -0.16617976 -0.079872
000330 3b 94 65 3e e1 ea 37 bc 2a 3f 46 be e3 2a 84 be
       0.22419827 -0.011225433 -0.19360033 -0.2581397
000340 9c 7c 57 3e c2 3d 6d bd 64 69 12 3e a0 5f 3e 3e
       0.21043628 -0.057920225 0.14298016 0.18591166
000350 4d fa 13 be 5e 7c 8f bd f6 17 cc be 5c c5 b0 be
       -0.14450951 -0.07006143 -0.3986203 -0.34525573
000360 6d b1 7f be 59 62 67 3c cc c4 94 3d 7d 61 67 bd
       -0.24970026 0.014122569 0.072640985 -0.056489456
000370 de 1e 78 bd 13 93 51 bd b3 30 ca bc c8 27 01 3c
       -0.060576312 -0.05116565 -0.024681425 0.00788302
000380 fa 50 7c bc c9 4a 64 3e 61 4c b9 3a 30 4c fb bc
       -0.015400166 0.22294153 0.0014137143 -0.030675977
000390 f4 ee 19 3e cd 04 33 be 75 68 1a 3d cd f9 61 be
       0.1503256 -0.174823 0.037697274 -0.22067948
0003a0 aa 67 74 3e 92 c2 a6 3e c9 5c ad 3e 6a ae d0 be
       0.2386767 0.3257032 0.33859852 -0.40758067
0003b0 12 41 24 be e8 2d 6e bd 42 fa fb bd 22 4b 05 3d
       -0.16040447 -0.05814925 -0.12303592 0.032542355
0003c0 d5 1d 4c be 7a 77 3b be 51 0e 36 be 04 7a 9e bd
       -0.19933255 -0.18307295 -0.17778899 -0.077381164
0003d0 5d a4 49 3d 25 85 b9 be 10 2f 59 3e 62 ed a9 3d
       0.049229015 -0.36234394 0.21209359 0.0829723
0003e0 ac 26 b3 3d db 10 0a 3e 22 8e 26 3e 71 e4 f7 bc
       0.087476104 0.13482992 0.16265157 -0.030260297
0003f0 15 5a f4 bb e5 49 07 3e e0 c9 16 be b4 28 15 be
       -0.0074570277 0.13211782 -0.14725447 -0.14566308

convs.0.att f4 [10, 4]
000000 6a 1c ad bd af ce 2c be d6 1d 4d 3e 26 e5 c6 3d
       -0.08452685 -0.16875719 0.20030913 0.09711675
000010 0f 48 f4 bd b1 5c 8c bd 36 3f 34 3e 31 d6 89 3d
       -0.119278066 -0.06853617 0.17602238 0.06730307
000020 cd 01 3b be f5 e2 04 3e ad 5d 5b 3e f1 0e 37 3d
       -0.18262406 0.12977202 0.21422453 0.044691984
000030 b9 c1 42 be 63 1f 36 3e 2f a3 5c 3e 5a 87 88 3b
       -0.19019212 0.1778541 0.21546625 0.004166526
000040 29 d9 04 3d fd 85 a8 bc 14 a4 57 3e 62 cc b1 3d
       0.032433663 -0.020571703 0.21058685 0.08681561
000050 9c 5c 87 bd fd f0 82 3e 25 90 8b 3e dc 18 2c 3e
       -0.06609461 0.25574484 0.2725841 0.16806358
000060 ee 3f 89 3a f7 b5 51 3e b2 0c 27 3e fc cb b1 3d
       0.0010471323 0.2047957 0.16313437 0.08681485
000070 ae d6 b7 3d 11 6a 75 3e 8a 97 3e 3e c7 93 f8 3d
       0.08976494 0.23966242 0.18612495 0.12137561
000080 a7 42 3b 3e 0b b8 3f 3e 05 10 d0 3d 3f 92 92 bc
       0.18287145 0.1872255 0.101593055 -0.017892001
000090 b2 b2 a8 3e f2 00 0b 3e d6 1b 14 3d ff fa 04 be
       0.32948834 0.1357458 0.03615936 -0.12986372

convs.0.root f4 [4, 32]
000000 23 2f a3 bd 11 2d 2a 3d 3a 68 6e 3d ba a1 12 3e
       -0.07967975 0.041546885 0.058204867 0.14319506
000010 4c 36 32 3e 8e df f7 3b 06 ea ea bd be 35 88 be
       0.17403525 0.0075644916 -0.11470418 -0.26603502
000020 34 90 5b 3e d2 9c c2 3e 46 aa a9 3e f8 22 63 bd
       0.21441728 0.3801027 0.3313772 -0.05545327
000030 08 58 e9 3d 3c 48 f7 3d d2 94 dc bd 07 80 c9 bd
       0.11393744 0.120743245 -0.10770573 -0.098388724
000040 fe d1 1e be 58 c8 4b 3e 45 58 6b 3d b9 f9 5f be
       -0.15509793 0.19900644 0.057457227 -0.21872605
000050 ab 21 ed 3d e2 40 e9 bd 58 bc c7 3d 89 ce 6a 3e
       0.11578687 -0.113893285 0.097527206 0.2293035
000060 1e 0f 78 bd cb 08 5d 3e 76 87 8c bc 7d 2d 97 be
       -0.060561292 0.21585386 -0.017154437 -0.29526892
000070 5d bd da 3d b8 79 6c be 9b 3a 42 3d a2 8b 50 be
       0.106806494 -0.23093307 0.04741917 -0.20365766
000080 c6 3b 19 3e ff 00 7b 3e 78 8e 46 be a6 d6 d8 3d
       0.14964208 0.24512099 -0.19390285 0.10587816
000090 bf e7 1a be d5 72 46 be 77 b6 6b bd c7 a0 89 be
       -0.15127467 -0.19379742 -0.05754706 -0.26880476
0000a0 c1 c8 b4 3c 40 c8 78 be 91 41 43 3e 46 23 42 3e
       0.022068383 -0.2429514 0.1906798 0.18958768
0000b0 cf 06 a7 3e 52 67 76 3e 3b e3 1e be e5 d8 8d 3e
       0.32622382 0.24062851 -0.15516369 0.2770454
0000c0 95 8d a7 3c b6 e5 cc 3d 7b 53 bd 3d fe 94 e0 bd
       0.020453254 0.100047514 0.09244438 -0.10965918
0000d0 9a 62 75 bb ec 9f 75 be c8 6d 54 be 42 07 c0 be
       -0.0037442804 -0.23986787 -0.20745003 -0.37505537
0000e0 08 27 87 be e3 de 81 bd 55 5a 74 3e 87 9a e4 3d
       -0.26396966 -0.063413404 0.23862584 0.11162286
0000f0 d6 4c 01 3e 47 5b bb bd a4 95 87 3e 21 04 8d 3e
       0.12626967 -0.09148269 0.26481354 0.27542213
000100 d3 1c 74 3c 55 50 0c 3e 8b 3a bc 3d 47 ec 8b bd
       0.01489945 0.13702519 0.09190854 -0.06832176
000110 26 da 2c be 58 e7 35 be e3 9f 14 be a2 30 ba bd
       -0.16880092 -0.17764032 -0.14514117 -0.09091307
000120 7f 8a b4 bd 5a c3 96 bd 0c 06 70 be b0 d4 89 3c
       -0.088154785 -0.07361479 -0.23439807 0.01682505
000130 23 08 2b 3c 50 43 6d 3e 63 dd f1 bc 70 b9 88 bd
       0.010438952 0.23170209 -0.02952451 -0.066759944
000140 63 e3 0b be 25 53 bc bd 0f f7 21 be ae ca 2a 3e
       -0.1366096 -0.09195546 -0.15816902 0.16678879
000150 06 b5 f1 ba ee fd 06 3e 7b ba 10 be f8 4b c2 3d
       -0.001844079 0.13182804 -0.14133637 0.09487146
000160 f4 75 49 3d de 02 ca 3d 0d 54 86 3d 52 c5 6d bd
       0.049184754 0.09863828 0.06559 -0.058049507
000170 75 45 e7 bd 49 7d 03 be 33 89 be 3d c8 1a 02 3d
       -0.11292545 -0.12840761 0.093035124 0.03176382
000180 ab 80 ad bd 01 d1 9f bd bb dc 1a bd 14 35 5f 3e
       -0.08471807 -0.07803536 -0.03780816 0.21797591
000190 5b 10 9e 3d 11 2a 65 bd 92 d7 0c 3a d7 dd 25 be
       0.07717963 -0.05594832 0.00053726987 -0.16197906
0001a0 d4 c1 1c be 6b ca 39 3e 18 55 c9 bd 80 ae 2e be
       -0.15308315 0.18143623 -0.098306835 -0.17058754
0001b0 7f ac 12 3e 4c a8 cb 3d 53 20 b4 3c cf 7f 71 3d
       0.14323615 0.099442095 0.02198807 0.05895978
0001c0 c6 98 49 3d 95 71 1f be 38 eb 33 bd 30 18 21 3e
       0.04921796 -0.15570672 -0.043925494 0.15731883
0001d0 5e c7 f0 bd 2b 24 b4 3d fa de 42 be 28 4e 1e be
       -0.11756776 0.08795961 -0.19030371 -0.15459502
0001e0 1e 8f 09 bd bb 4e 04 3e 5b ae 8c bd ea 68 5c bc
       -0.033583753 0.12920658 -0.06869193 -0.013452748
0001f0 a6 85 5b be f5 3d e9 bd a5 f0 85 bd c0 90 23 be
       -0.21437702 -0.113887705 -0.0654004 -0.15973186

convs.0.bias f4 [32]
000000 5e 18 11 3e 25 20 a6 3b 3f 02 28 3e 72 bd 89 be
       0.14169452 0.00506975 0.16407107 -0.26902348
000010 f2 0c 2f 3e a8 90 c9 bc 14 8e 0a 3e 99 20 f2 3d
       0.17094782 -0.02460511 0.13530761 0.11822624
000020 5e 25 3c 3e c2 74 f3 bc da 60 ad 3c e3 b1 6d 3e
       0.1837363 -0.02971876 0.021164346 0.2321239
000030 cb b5 5f bd a5 8d 3d be 71 3c 71 be e0 01 a3 3d
       -0.05461673 -0.18511064 -0.23558213 0.07959342
000040 f0 67 0c 3e 1b 3d 67 3e a8 39 53 3e f4 63 bf bd
       0.13711524 0.22581904 0.20627463 -0.093452364
000050 5b d2 f6 3d 49 4b 93 be 1c 7b 23 3e 3e 0f 0a 3c
       0.12051841 -0.28768376 0.15964931 0.008426486
000060 c3 84 bc bb 69 b1 75 bd fc 17 fa bd 37 c0 47 3c
       -0.005753131 -0.059983645 -0.12211606 0.012191824
000070 2c ce d0 3d bb 96 2c be 8b 66 52 3e ab 87 ad bc
       0.10195574 -0.16854374 0.2054693 -0.021182856

convs.1.basis f4 [4, 32, 32]
000000 b8 c8 d0 bd 32 60 14 bd 94 e3 60 3d 07 fd 83 bd
       -0.10194534 -0.03622455 0.054904535 -0.064447455
000010 7a f1 8f 3d 93 a1 bf bc 8e 58 e6 bc f4 a3 b6 3d
       0.0702848 -0.023392474 -0.028118398 0.0891799
000020 e0 62 e4 3c a3 50 16 3c 68 2a 03 3d 39 88 77 bd
       0.027879179 0.009174499 0.032022864 -0.060432646
000030 ee 9e 26 bd fb 10 c4 3d 34 2c d7 3d 1c 14 09 bd
       -0.04067891 0.09573551 0.10506478 -0.033466443
000040 35 76 78 bd bd f3 bb 3c b6 3c ea bc 42 5c 2a bd
       -0.060659606 0.022943372 -0.028593402 -0.04159189
000050 35 e4 bd 3b d9 23 f6 3b f3 ae a3 3d 48 31 28 3d
       0.0057950267 0.0075115976 0.07992353 0.041062623
000060 41 0b 95 3c 88 54 5e 3d 0f c9 0b 3b b3 cb 5e 3d
       0.018193843 0.054279834 0.0021329557 0.05439348
000070 61 f0 00 bd 86 70 32 3d b4 9b 3d bc 3e ec 56 bd
       -0.031479243 0.043564342 -0.011572767 -0.05247139
000080 08 35 5d bd af 58 65 3c 47 9c 1a bd 0a e9 1c bd
       -0.054005653 0.013998195 -0.037746694 -0.03830818
000090 38 ad 5f bd 71 0b 25 3d b7 b3 9e bd b4 d3 3d 3c
       -0.054608554 0.040294115 -0.07749122 0.0115861185
0000a0 02 8b 10 bd 68 01 7e bd c8 b5 8c 3d a7 71 9d bc
       -0.03528882 -0.06201306 0.068706095 -0.019219233
0000b0 1c 63 e8 ba 30 69 93 3d bb 7e c0 bd ff b6 ed 3d
       -0.0017729732 0.07197797 -0.09399172 0.11607169
0000c0 a6 c6 44 bc eb 7d 2c 3c 58 4c 00 3c 88 24 82 3d
       -0.012010252 0.010528068 0.007830702 0.06354624
0000d0 fd a4 0f 3d ad a3 90 bd 01 82 86 bc 59 34 f1 3c
       0.035069454 -0.07062469 -0.016419413 0.029443907
0000e0 51 bf fc 3c 22 f9 ab bc dd 2d 30 bd 43 af a9 bd
       0.030852946 -0.02099282 -0.04301249 -0.08285382
0000f0 6a ef ad 3c 44 15 96 bd 4f a0 58 bb 0e 9f 8d 3d
       0.021232326 -0.07328275 -0.0033054536 0.06915103
000100 a1 1e 22 3e d1 ca 20 3d af 6f 91 3d bc f6 65 bd
       0.15831997 0.03925592 0.0710138 -0.056143507
000110 c2 87 37 bc 7f 6d b1 bc da 8c fb 3d 86 c3 53 be
       -0.011201801 -0.021658657 0.12282725 -0.20680055
000120 e5 81 b8 bc 9c 53 56 bd 80 4d 2d 3d d2 72 16 3d
       -0.022522876 -0.05232583 0.042310238 0.036730595
000130 b6 ca 92 bd df 9c 80 bd 63 44 44 3d 18 7f 38 be
       -0.0716757 -0.06279921 0.04791678 -0.18017232
000140 6f c2 cd bc d2 39 aa bd 5f 01 d6 3c e1 8c 1a bd
       -0.025117127 -0.083118096 0.0261237 -0.03773201
000150 b6 45 b6 ba a4 8d 8d 3d 1b 75 d3 bc a5 50 6e 3d
       -0.0013906274 0.069117814 -0.025812676 0.058182377
000160 69 05 c8 bd 51 db 68 bd 0c e6 80 3d 2d 72 a3 3d
       -0.09766657 -0.05684978 0.06293878 0.07980762
000170 f8 55 b5 bb e1 7f a7 3b 33 d1 0c bd ea 94 9d bd
       -0.00553393 0.00511168 -0.034379195 -0.07694419
000180 73 8f 18 bd a4 2f 1f bd ef a0 3c 3d 74 cd 91 3d
       -0.03724618 -0.038863793 0.046051916 0.07119265
000190 0c 8d f9 3c ff 06 00 bd a8 f7 eb bc 19 87 48 3b
       0.030462764 -0.031256672 -0.028804615 0.0030598103
0001a0 96 8c 2e bc b8 cf 30 3d 2b de 29 3d bb 3b 58 bd
       -0.0106536355 0.043166846 0.04147164 -0.05279134
0001b0 6f f5 9b 3c 20 86 d9 bc ba 45 01 bd a7 2d 57 3d
       0.01903793 -0.026553214 -0.031560637 0.05253377
0001c0 d8 af 11 3d 3e d7 49 bd b8 86 1e 3d 84 e9 48 bd
       0.03556809 -0.049277537 0.038702697 -0.049050823
0001d0 bd 12 a9 bc 39 79 4f 3d 34 a8 0f bd 5b 95 76 3c
       -0.020638818 0.050652716 -0.03507252 0.015050258
0001e0 48 bf 57 bc ad 10 2c bd af 1d 8a bb 9f 7d a2 bc
       -0.013168164 -0.04200809 -0.0042149643 -0.019835291
0001f0 25 ac 41 3d 5a c1 38 bc 8d f4 4b ba 9f 40 8e bb
       0.04728331 -0.011276567 -0.00077802764 -0.0043411995
000200 67 5e 24 3e 85 fd d8 bb d2 39 89 3d 1c 19 92 3d
       0.16051637 -0.0066220188 0.067004815 0.071336955
000210 d0 76 8f 3d 99 1d 1b bd 3d 60 91 3d 6a b1 ad bd
       0.070050836 -0.037870023 0.07098434 -0.08481105
000220 a2 4e 4a 3d 61 2c 2d 3c 52 0c 91 3d 5b 68 a0 bd
       0.049391396 0.010569663 0.07082428 -0.07832404
000230 4f 28 72 3d d1 bc c6 bb eb c6 cf 3d eb 38 44 bd
       0.059120473 -0.006064989 0.101453625 -0.047905844
000240 f5 cd 8e bb 44 ca 66 3c ea c0 b4 bd b4 b3 36 3d
       -0.004358048 0.01408631 -0.08825858 0.044604972
000250 1d de b7 3c f3 a8 9f 3c ab df b7 3d 03 95 bf bc
       0.022444779 0.019489741 0.08978208 -0.023386484
000260 85 db 6c bc 49 4c 73 bc 47 c1 74 bd 7e 2c ee 3d
       -0.014456634 -0.014849731 -0.059754636 0.1162958
000270 f0 46 b9 bd 10 ec d4 3d a3 6f 32 bd fa 61 da bc
       -0.090467334 0.10396588 -0.043563496 -0.026658047
000280 63 f0 25 3d fe 4c 16 bd a7 d9 84 bc 67 d9 97 3b
       0.040512454 -0.03669452 -0.016217066 0.0046340707
000290 74 b3 98 3d 93 0d 19 bd 74 bf 2c 3d f7 3c a9 bc
       0.07456103 -0.03736646 0.04217477 -0.020658953
0002a0 3e 41 f5 3c fc f8 e0 bc 06 7b 15 3c d4 36 2f bc
       0.029938336 -0.027462475 0.009123569 -0.010694224
0002b0 c8 4d 7e bc f9 59 ad 3b 30 ae 9e bd 0d 12 c0 3d
       -0.015521474 0.0052902666 -0.077480674 0.09378443
0002c0 b2 d6 65 3d de 81 2e bd e0 6d b0 3c 2f 03 0a bd
       0.056112953 -0.04260432 0.021536767 -0.033694442
0002d0 71 f0 4e 3d 71 c5 23 3d ca 38 a1 bd 35 8c 59 3d
       0.05052227 0.039983217 -0.0787216 0.053112227
0002e0 0e ff 24 3d 1e 8d 30 3d 4d e8 cf 3c 31 be a3 3c
       0.0402823 0.04310333 0.025379324 0.019988151
0002f0 36 1a 1b 3e f1 1b 58 bd a3 7c 64 bc af c0 57 3c
       0.15146717 -0.052761022 -0.013945731 0.013168498
000300 38 ca 11 bd 01 b7 6a bd 85 4f a0 bd 3d bd 96 bc
       -0.03559324 -0.057303432 -0.07827667 -0.018400783
000310 a4 95 6a 3d d2 16 48 3d af 59 47 3d 3f 97 50 bd
       0.057271615 0.04884989 0.048669513 -0.05092549
000320 81 3b 02 3c 3e 71 c3 bc fa 61 c8 3c 80 51 4b bd
       0.007948757 -0.023857709 0.024460781 -0.04963827
000330 28 5f a3 3c f4 40 cf bc 1f 82 9e 3d cf b7 dd bd
       0.019942835 -0.025299527 0.077396624 -0.10826074
000340 43 9c b0 bd b9 f2 9e 3d c4 92 9d 3c 84 f2 12 3d
       -0.086235546 0.077611394 0.019235022 0.035875812
000350 9d 34 1b 3c 88 5c 56 3d 91 82 d1 3d 91 28 54 3d
       0.009472993 0.05233434 0.10229982 0.0517965
000360 c9 99 c9 bc 13 92 b3 bd 3a 73 47 bd 1f 1c db 3d
       -0.024609463 -0.08768096 -0.048693873 0.10698723
000370 ed 12 0b be 3e 14 60 bb db 06 bb 3c 40 66 ad 3c
       -0.13581438 -0.0034191753 0.022830417 0.02116692
000380 9a 7c 8f be 30 e4 13 3d 80 e5 82 bc 0e 98 90 bd
       -0.2802475 0.03610629 -0.015978575 -0.07060252
000390 f5 e8 86 bd 79 83 24 bd 49 4a 18 be 39 04 54 3e
       -0.06587402 -0.040164445 -0.14872088 0.20704736
0003a0 63 e9 86 3c 00 8e 75 3c 07 83 95 bc d7 cf a6 bd
       0.01646871 0.014987469 -0.018250955 -0.08145111
0003b0 78 e3 a0 3a 04 ea 21 bc 3c 7c a6 3d b0 9b 24 3e
       0.0012274822 -0.009882454 0.081291646 0.16075015
0003c0 de cf 25 3c 56 e4 61 3d e6 16 91 bd c2 f1 20 3d
       0.01012036 0.0551494 -0.07084446 0.03929306
0003d0 09 6c 19 3d b6 d5 79 be 24 8e 69 3d 28 d3 0c bd
       0.037456546 -0.2439793 0.05702032 -0.03438106
0003e0 bf 69 8d bd 51 9e e1 3a 41 42 a6 3d 61 dd 0f be
       -0.06904935 0.001721332 0.08118106 -0.14049293
0003f0 b5 fb 57 3d 55 6b ab 3c 4a ce 2c bc a9 3c ed 3c
       0.05273028 0.020925203 -0.01054723 0.02895959

convs.1.att f4 [10, 4]
000000 24 6a 86 3c 27 84 1f 3e e4 56 50 be 0f e9 20 bd
       0.016408034 0.15577756 -0.20345646 -0.039284762
000010 b7 5f e7 3d 52 16 03 3e e1 a8 5c be 62 69 83 bc
       0.11297553 0.12801483 -0.21548797 -0.016041461
000020 3f 66 08 3e 5d c5 8b 3d 3b 00 5d be c1 42 06 bd
       0.13320254 0.068247534 -0.21582119 -0.032778505
000030 dc 44 d9 3d 45 94 4f bb 6c c2 15 be 7c b0 c6 bd
       0.10608837 -0.003167407 -0.14624947 -0.097016305
000040 b7 4e da 3d 62 cf d8 bc 70 4e ec bd ac f3 b2 bd
       0.10659545 -0.026466075 -0.11538398 -0.08737883
000050 6b b9 49 ba b8 fa c7 bc 45 ea 91 bd b5 83 85 bd
       -0.0007695171 -0.024411544 -0.071247615 -0.06519262
000060 02 62 a6 bb 96 5d cc bd b7 b0 63 bd ef 03 15 3d
       -0.0050776014 -0.099787876 -0.05558845 0.036380704
000070 96 ad 99 3c 17 0e d9 bd c2 69 2b 3d 29 8f 7d 3d
       0.01875953 -0.105983905 0.041848905 0.061904106
000080 1e 11 57 bd 4f 8f b7 bd 81 03 07 3d 93 52 bb 3d
       -0.05250656 -0.08962881 0.032962326 0.09146609
000090 31 0a f4 bd 83 e9 f5 bd fd 06 9d 3d 68 77 20 3d
       -0.11916006 -0.120074295 0.076673485 0.039176375

convs.1.root f4 [32, 32]
000000 01 81 56 bd 0e 38 8e 3d 55 8e 96 bc 69 b3 fe 3c
       -0.05236912 0.06944285 -0.018378416 0.031091409
000010 26 65 d9 3c 08 08 3c bc aa f2 6a be 30 5e 94 3d
       0.02653749 -0.011476524 -0.22944131 0.07244527
000020 4a e2 99 bc ab 15 69 bc f2 6d 91 3d 65 a2 8f bc
       -0.01878466 -0.014226357 0.071010485 -0.01753349
000030 1f a7 cf bd c4 96 4c bd ed 3a 1e bc b9 a8 1c 3d
       -0.10139298 -0.04994847 -0.009657604 0.038246844
000040 8a c6 44 3d 0a 51 17 bd 80 fb be bd 99 01 f9 bc
       0.048040904 -0.03694252 -0.093253136 -0.03039627
000050 2f 00 7c 3c 55 28 92 3c 03 bb 25 3d a7 cc 08 3d
       0.015380903 0.017841497 0.04046155 0.033398297
000060 8f 26 84 bd 23 25 cb bc 0b b9 b3 bb 65 eb e2 3d
       -0.06452667 -0.024797982 -0.0054847053 0.11080054
000070 06 55 7d bd 1a 04 bf bd 82 b2 a3 bc 28 ce 81 3d
       -0.061848663 -0.09326954 -0.01998258 0.06338149
000080 b5 52 1d bc 40 e4 4a bc 49 e3 a4 3d e5 f7 72 bd
       -0.009602238 -0.012383521 0.08051164 -0.059318442
000090 0e 60 0b 3d a6 29 6e 3b b5 94 a6 3d cf 76 2a 3d
       0.03402715 0.0036340742 0.08133832 0.04161721
0000a0 54 50 59 3d 91 ab 82 bd 81 80 47 3d 53 17 a9 3c
       0.053055122 -0.0638038 0.048706535 0.020641005
0000b0 af 80 b6 bd c1 ff bd bd c6 83 82 3c 97 8c 3f bd
       -0.08911263 -0.09277297 0.015931975 -0.046764936
0000c0 28 a9 3a bc cd c8 f5 bc e1 8d 6e 3d d5 db 3c 3c
       -0.011392869 -0.030002976 0.058240775 0.011527021
0000d0 06 b4 aa bc 49 bf 49 3d b8 6b d8 3c 4f ae cc bd
       -0.020837795 0.04925469 0.026418552 -0.09994184
0000e0 8b 90 75 3d f3 5e 7b 3c d6 73 98 3d 50 db dd bd
       0.0599523 0.015342462 0.07443969 -0.10832846
0000f0 a0 0c 22 bd 2d c4 8a bd 5b 28 28 bd 5c de 38 3d
       -0.03956282 -0.06775699 -0.04105411 0.045133933
000100 6b 00 ef bb 90 90 b6 bc fd d5 a2 3d b3 76 91 3c
       -0.007293751 -0.02228573 0.07950971 0.017756796
000110 fb df e5 bc 4d 90 a7 bd a9 1d 05 3e c0 5e ef 3d
       -0.028060904 -0.0818182 0.12999596 0.11687994
000120 1c 0e 28 3c 86 ef e8 bc 2a 3a d8 3a 65 67 78 bd
       0.01025727 -0.028434526 0.0016496826 -0.06064548
000130 d3 3d 26 3d ba 54 71 bd db 74 43 bd 24 c7 2d bd
       0.040586304 -0.058918692 -0.047718864 -0.042426243
000140 93 00 df bc 5f aa b5 bd 5f 22 1c bd 00 5b 6c bd
       -0.027221953 -0.08870386 -0.038118716 -0.057703972
000150 47 43 b2 bd 37 e7 bf 3b c7 6d b5 3c 93 2a 81 3d
       -0.087042384 0.0058564204 0.022147072 0.063069485
000160 bc fe 72 3d 3d e5 03 bd c0 a7 d2 3c 61 82 1d bd
       0.059324965 -0.03220104 0.025714755 -0.038454417
000170 6f 47 6d 3d 86 9f 6b bd e4 69 28 bd d5 fd 9a 3a
       0.057929453 -0.05752518 -0.04111661 0.0011824915
000180 3b 53 81 3d 57 ed bd 3d e1 b4 2b bd 72 ec 92 bd
       0.06314703 0.092737846 -0.041920546 -0.071740046
000190 12 c5 87 bd b8 af 4f 3d 5b 3f fb bc b9 c9 19 bd
       -0.06629385 0.050704688 -0.030669859 -0.037545893
0001a0 90 57 63 bd dd 4c 8e 3d 59 00 c5 3d 52 16 44 3d
       -0.055503428 0.06948254 0.09619207 0.04787285
0001b0 ed e4 10 3d 1f ea 1b bd 9e e7 84 3b a2 cc 78 3d
       0.03537457 -0.038065072 0.0040559312 0.060742028
0001c0 d1 50 48 3d 6e 13 5e bd a6 c5 6b 3d 53 5c 74 3d
       0.048905198 -0.05421775 0.05756154 0.05965836
0001d0 8d 5e dd bc db 97 78 3c 05 38 d9 3d c8 47 a6 3c
       -0.027022624 0.015172924 0.10606388 0.0202979
0001e0 fb c6 52 bd 9f ad b3 3c 8b 1d ee 3d 09 29 ee 3d
       -0.051459294 0.021933375 0.116267286 0.116289206
0001f0 ae 03 40 3d af 39 10 bd 74 ec 03 bc 88 ec 6b 3d
       0.04687851 -0.03521126 -0.00805198 0.05759862
000200 4a 82 86 3d da 12 e1 3d 84 0a 23 3d d3 f0 ab bd
       0.065678194 0.10989924 0.03980495 -0.08395543
000210 df 21 8e 3d d4 68 83 3d f9 a8 27 3d 58 51 a6 bd
       0.06940054 0.06416479 0.04093263 -0.08120984
000220 b6 ab 07 bd 8d 3f 4f bd 4f 0d 8a bd 5d 68 ae bc
       -0.03312274 -0.050597716 -0.0674082 -0.021289999
000230 55 e3 e3 3d 15 58 d3 3a 80 a5 91 bd 7f 14 25 3c
       0.111273445 0.0016124273 -0.07111645 0.010075687
000240 31 f0 30 3d cb ec a3 bd 9f ae 4f bd b7 e5 b7 bb
       0.043197814 -0.08004149 -0.05070364 -0.005612101
000250 c4 36 bf 3d 7f b9 b8 3d 89 28 a0 3c 6e 8c 1e bd
       0.093366176 0.090197556 0.019550579 -0.038708143
000260 54 56 8d 3c 20 66 58 3d 92 14 82 3d 5d 34 70 bd
       0.017253079 0.05283177 0.0635158 -0.058643688
000270 fd 0e eb bc 8b b2 32 39 ba ac b1 3d 41 17 f3 bd
       -0.02869367 0.00017041915 0.08675523 -0.1186967
000280 86 1c 93 3d 9f bc bd 3c fc 54 5f 3d df 6a 98 3d
       0.07183175 0.02316123 0.054524407 0.07442259
000290 34 5a 96 3d f3 88 16 3d 50 a9 23 bd a9 c7 ce 3d
       0.07341424 0.0367517 -0.03995639 0.10096676
0002a0 92 68 96 3d b2 82 19 3c c7 ae a8 3d 2a c4 c7 bd
       0.07344164 0.009369539 0.08236461 -0.09754212
0002b0 f1 e6 87 bd f3 45 7b bd f7 d2 7c 3c a0 4a 43 bd
       -0.066358455 -0.061346006 0.015431157 -0.04767859
0002c0 47 0c d5 bd 78 cd 32 3d 9c 71 8d bd cd 33 8d 3d
       -0.10402732 0.04365298 -0.06906435 0.06894646
0002d0 d4 42 da bc df 21 31 3c 09 03 6d 3d 07 83 1f bd
       -0.026643194 0.010811298 0.057864223 -0.038943317
0002e0 63 67 b6 bd 3e 98 46 bd 0a 11 10 3d ae 86 17 3e
       -0.08906438 -0.048485033 0.0351725 0.1479747
0002f0 a8 52 a0 bd 78 4f 7b bd 4a 26 8f bc 49 71 8e bc
       -0.078282654 -0.061355084 -0.017474312 -0.017388003
000300 b2 9b 30 3c be 51 29 3c d8 2b 1c 3d 94 09 c2 bb
       0.010779308 0.01033443 0.03812775 -0.005921552
000310 78 ea 88 bd 3e 95 ad bc f1 64 7d bd c7 2e bc bd
       -0.06685346 -0.021189328 -0.061863843 -0.091886096
000320 9d 7c a2 3d c6 53 60 bd 74 34 0d 3c 1c 62 6a 3d
       0.07933924 -0.054767393 0.008618463 0.05722247
000330 cb 92 87 bd 00 10 95 3c 7f 31 6d bd 1a b1 18 bd
       -0.066197954 0.018196106 -0.05790853 -0.037278272
000340 df 45 11 bc 18 12 38 bc 39 78 c1 bd aa 0c 70 bc
       -0.008866756 -0.011234783 -0.09446759 -0.014651457
000350 61 46 29 bd ef 80 a3 3d 86 7e 97 3d d6 02 9b bd
       -0.041326884 0.079835765 0.07397179 -0.075689
000360 57 55 b3 bb d6 bd ee 3c c2 ec cb bc 2b 6b 25 bd
       -0.00547282 0.029143255 -0.024893168 -0.040385406
000370 64 24 49 bd 62 58 93 3d c0 c6 ba 3c 9d b0 8b 3d
       -0.04910697 0.07194592 0.02279985 0.06820796
000380 1a fd 2c 3c c6 45 85 3d 09 39 88 bd 5a 95 b3 bc
       0.010558391 0.06507449 -0.066515036 -0.021921802
000390 44 63 32 bd b7 a1 37 bd 7c 71 1e be f9 1f 89 bd
       -0.0435517 -0.044831958 -0.15472978 -0.066955514
0003a0 be e6 ad 3b 52 bf 64 3d 64 ea bd 3c 39 ac 0d bd
       0.0053070476 0.05584652 0.023183055 -0.034588072
0003b0 88 71 d6 bb 6b 52 bb 3d 8f 17 89 bd 92 71 bc bd
       -0.0065442957 0.09146579 -0.066939466 -0.09201349
0003c0 33 4f e9 ba 2e 83 04 3d 49 7a 82 3d ac df 88 3d
       -0.0017800092 0.032351665 0.0637098 0.06683287
0003d0 1b 53 91 3d 2b 3b 8d bb 20 45 ad bc 4a 73 62 bc
       0.07095929 -0.004310032 -0.021151125 -0.013821432
0003e0 95 3e 95 bd ac 6e 4b 3c 62 a6 ef 3b 16 b8 47 3d
       -0.07287327 0.012416523 0.0073135355 0.048759542
0003f0 17 d8 a8 3c 0e 9d 25 3d 0d c4 29 bd 51 b7 16 bd
       0.020610852 0.040432982 -0.041446734 -0.036795918

convs.1.bias f4 [32]
000000 89 2f 3a bd cf 66 91 bd 8a d1 ef bc 0b 95 62 bd
       -0.04545549 -0.07099687 -0.02927472 -0.05531792
000010 38 05 2b bd 57 80 d4 bd e3 7b a8 bd 92 79 ab 3c
       -0.041753024 -0.103760414 -0.082267545 0.020931993
000020 28 1f 09 3c 57 50 9b bc 64 9a 59 3d b7 65 b9 bd
       0.008369245 -0.018959207 0.053125754 -0.09052604
000030 46 3a b7 bd 43 96 9c 3d 67 4c e9 3d c6 62 c5 3d
       -0.08946662 0.07645848 0.11391526 0.0963798
000040 07 4c 21 bd 2d d4 b1 3d 90 5a 8a 3d 91 b3 43 3d
       -0.039379146 0.086830474 0.06755555 0.04777867
000050 d8 a2 1d bd 4e cd 85 bd 44 9c 4b bb 7f 57 a0 bd
       -0.038485378 -0.065332994 -0.0031068483 -0.078291886
000060 3e 69 7f bd 37 4d 9f 3d b0 7d 51 3c c6 43 c7 bd
       -0.062356226 0.077783994 0.012786314 -0.09729724
000070 e9 8a c2 bd 33 d5 d1 3c 20 2f 45 bd f9 f1 4e 3d
       -0.09499151 0.025614357 -0.048140645 0.05052373

convs.2.basis f4 [4, 32, 32]
000000 a2 29 17 3d c9 50 3e bd b6 78 a1 bb 84 8e ca 3c
       0.03690494 -0.04646376 -0.00492772 0.02472616
000010 ab 0d 93 bd ad 12 b3 bc 45 75 3f 3d f4 d6 e1 39
       -0.07180341 -0.021859491 0.046742696 0.00043075497
000020 20 6c 19 3b 38 a8 90 3c 59 8d 8d bd 5a 56 43 bc
       0.0023410395 0.017658338 -0.069117256 -0.011922443
000030 d5 4d 0e 3d 03 62 ac 3b 92 35 61 3d 9a 81 ec 3b
       0.034742195 0.0052607073 0.05498273 0.007217598
000040 75 c1 51 bb 4b 07 86 3d de 5c 8f bd 4d e3 11 3d
       -0.0032006179 0.0654436 -0.07000135 0.03561716
000050 40 70 eb bc c7 85 a7 bc b4 37 7a 3d 55 3f 38 bd
       -0.028740048 -0.020449532 0.06108828 -0.044982273
000060 3c ba e5 bc ef 98 85 bd f9 dc 4c 3d 89 e2 62 bc
       -0.028042905 -0.065233104 0.050015423 -0.0138479555
000070 9c a5 74 bd 3d 75 89 3c c2 06 1f bc 19 50 a5 bd
       -0.05972825 0.016779536 -0.009706201 -0.08071918
000080 1e 13 1d bc 9a 70 c5 3d 31 66 c5 3c 04 32 2c bd
       -0.009587077 0.09640618 0.02409658 -0.042039886
000090 46 64 ca bc 8a 5f f0 bc b1 3c 62 bd 5d 4f 57 3d
       -0.024706017 -0.029342432 -0.05523366 0.05256592
0000a0 dd 0b 89 3d 32 96 39 bc d8 92 4a 3d 43 73 eb bc
       0.06691716 -0.011327313 0.049456447 -0.028741485
0000b0 73 28 1b 3b 1a 63 68 bd 31 94 29 ba a8 fe 64 3d
       0.0023675233 -0.056735136 -0.00064689206 0.05590692
0000c0 5b 8e 0c bd dd e9 13 bb 62 06 6c bd 22 e8 94 3d
       -0.03431545 -0.0022569813 -0.057623275 0.07270838
0000d0 24 97 43 3d 95 7c 07 3d 85 6c 2a ba 9e 91 cc 3c
       0.04775156 0.033077795 -0.0006501156 0.02497178
0000e0 81 07 49 bc be d5 f4 bb bc f9 2f bd a2 0e 84 3d
       -0.0122698555 -0.007471769 -0.042962775 0.064481035
0000f0 2f a3 15 3d 3e 3d f7 bc 4a 1a ec bc 8f 33 7d 3c
       0.036532577 -0.03018057 -0.02882113 0.015454187
000100 10 7a fe bc 40 84 2e 3b 2c 78 a9 bd 28 fa 28 3d
       -0.031064063 0.002662912 -0.08274874 0.041254193
000110 71 b4 c1 bc fc 6c 81 bd eb e7 b6 3c 24 5e cd 3c
       -0.023645611 -0.06319615 0.022327384 0.025069304
000120 86 32 3b bd 52 6c 95 3d 81 41 8a 3c 08 5a 55 3d
       -0.04570248 0.07296051 0.016876938 0.052087814
000130 57 f4 e4 bc 4b 9f 60 3d d4 cb a9 3d c0 09 76 bd
       -0.027948542 0.054839414 0.0829083 -0.060067892
000140 97 f2 c8 3b 2c 32 87 3d 28 a8 43 3d fc dd e1 bb
       0.0061324346 0.066013664 0.04776779 -0.0068929177
000150 dd 38 3b 3d b3 b4 b4 3d 6a 15 31 3d 8d 6a e5 3c
       0.045708526 0.08823528 0.043233313 0.028004909
000160 13 d8 38 3d cb d5 c4 3b e1 8a 97 bd 44 4b f2 3b
       0.04512794 0.0060069314 -0.07399536 0.0073942263
000170 92 f1 94 3c 39 91 eb 3c a1 50 07 bc 2c 98 92 bb
       0.018181596 0.028755771 -0.0082589695 -0.0044737067
000180 a3 4b 21 bd 14 2c 81 bd 55 00 57 3d 87 05 42 3d
       -0.039378773 -0.06307235 0.05249055 0.047368553
000190 70 03 43 3d 67 0c 8d 3b 0c e1 8a 3d e1 29 a6 3d
       0.0476107 0.004304457 0.067812055 0.081134565
0001a0 7f 4d b4 bd b2 78 9b bd 36 40 49 3b f1 35 88 3d
       -0.08803844 -0.0759138 0.0030708439 0.066509135
0001b0 a4 9e b6 3a 23 70 99 bd f4 40 5f bd 0f 30 c0 3c
       0.0013932777 -0.074920915 -0.054505304 0.023460416
0001c0 dd 0c f6 bc ef 85 19 bd 2b d8 8a 3d 2d 6e d1 bc
       -0.03003543 -0.037481245 0.06779512 -0.025565231
0001d0 34 f3 9b bc 79 68 b0 bd b0 4a 25 bd e4 72 48 3d
       -0.019036867 -0.086136766 -0.04035443 0.048937693
0001e0 ca 30 4e bd fd fe f5 bc 05 c9 27 bd b3 f6 81 bb
       -0.050339498 -0.030028814 -0.04096319 -0.0039661764
0001f0 5b 21 f1 bb 3e 10 15 bc cc 5f 76 bd f5 ec 83 3c
       -0.0073587126 -0.009098111 -0.060149953 0.0161042
000200 da 64 88 3d 68 d8 2a 3d 8b f3 8a bd 4b a4 2e bd
       0.06659861 0.041710287 -0.067847334 -0.04263715
000210 49 42 c7 3c 15 90 8d bd e1 2d 86 bd a4 33 7c 3d
       0.0243236 -0.06912247 -0.065517195 0.061572686
000220 36 f5 83 bd 45 c2 42 bd 36 b9 6e bd 55 6f 6d bd
       -0.06443255 -0.04754855 -0.0582821 -0.057967503
000230 fb 60 d4 bb 36 db 3e bd 47 80 50 3c a9 a6 bc 3c
       -0.0064812875 -0.046595775 0.012725896 0.023028689
000240 bb 31 20 3d 8c 6c a5 3c 2f db 76 bd 7f 9a 82 3d
       0.039109927 0.02019336 -0.060267624 0.06377124
000250 a2 f8 9c bb e2 dc b1 3d 7b 12 6a bc 01 6e 33 3c
       -0.0047903815 0.08684708 -0.014286633 0.01095152
000260 5d 43 29 bd b6 e2 d1 ba 55 4a 1d b9 d9 bf 7a bd
       -0.04132401 -0.0016013 -0.00015000378 -0.061218116
000270 d8 8d 84 3c eb a0 15 bc e4 6d fb bc 3a 9c 3e bd
       0.016180918 -0.009132604 -0.030692048 -0.046535708
000280 6c 61 0b 3c 2c b3 30 bc 26 fd 58 3c 0c 67 34 bc
       0.008507114 -0.010784905 0.013243949 -0.011010896
000290 4b 30 56 bd 6a f6 1f 3d 28 2f 69 3d 25 03 b9 bc
       -0.05229215 0.03905336 0.056929737 -0.022584507
0002a0 d4 41 6a 3c 0b db 64 3d 62 85 97 3b 4b c6 e1 3a
       0.014297921 0.05587296 0.004624055 0.0017225234
0002b0 23 a1 5b bd 79 b0 51 bb 46 cd bc 3d 8b 44 a4 3d
       -0.05362047 -0.0031996055 0.0921884 0.08020886
0002c0 31 fe ee bc 88 8b 8f 3d 5f 32 97 3d 5e 43 34 3c
       -0.029173942 0.07009035 0.073826544 0.01100239
0002d0 4f ad b4 3b 74 a4 30 bd fa 28 ec bc c2 3a fb 3c
       0.005513824 -0.043125585 -0.028828133 0.030667666
0002e0 43 d0 1e 3d 0c 39 8a 3c 63 a3 27 3d d9 1d 7a 3d
       0.038772833 0.016872905 0.040927302 0.06106362
0002f0 9f b3 6f bd ed f2 7e 3d 7a e6 f8 3c 1a 37 82 3a
       -0.05852091 0.06224339 0.030383337 0.0009934634
000300 d4 c9 15 bd 8f f7 3b 3c 9a 0c b2 bd 46 61 a5 3d
       -0.03656943 0.011472597 -0.0869381 0.08075194
000310 d0 43 a7 3d 49 e6 b6 bb e7 ad 31 bb 27 e0 2a bd
       0.08167231 -0.0055816513 -0.002711171 -0.041717675
000320 e5 bb 93 bb be 91 71 bc cb d2 71 bd f1 7c 30 3d
       -0.0045084828 -0.01474422 -0.05903892 0.043087903
000330 52 a4 74 bc 65 15 b9 bd 75 69 36 3c 32 5d 21 3c
       -0.014931755 -0.09037284 0.011133541 0.00984888
000340 7b 0f 50 3d 85 cc 45 3d e2 4d 9f bc 79 dd ad 3c
       0.050796013 0.04829075 -0.019446317 0.02122377
000350 03 7e 7e 3c 07 c8 5b 3a 0c bb a9 3d 3e 9e b2 bc
       0.015532973 0.00083839934 0.082876295 -0.021803971
000360 08 33 7d 3d cf ea 6d 3d 19 f3 a8 bc f8 45 50 bd
       0.061816245 0.05808526 -0.02062373 -0.050847977
000370 9e 0e 90 bd 0f 00 7f bd 7f 2d 56 3d f9 51 6e bd
       -0.07034038 -0.062255915 0.052289482 -0.058183644
000380 5a 92 40 3d 6a d9 2a 3d 25 62 17 3d a7 23 1f 3d
       0.04701457 0.04171125 0.036958832 0.03885236
000390 14 16 c3 3c 1d 61 58 bb 49 d2 89 3d f2 80 3f 3c
       0.023814239 -0.0033016868 0.06729562 0.011688458
0003a0 1e a9 78 bd 5f 02 8b b9 3c 7e 2a 3c ca 93 ad 3d
       -0.060708158 -0.00026513913 0.010406073 0.08475454
0003b0 7b b1 f5 3b 3a b6 3a bc 3f 9b 23 bc 26 b7 33 bd
       0.007497964 -0.011395985 -0.009985744 -0.043875836
0003c0 e0 1e b9 bd f3 90 64 3d 9c 17 8e bc 30 5a 4f bd
       -0.09039092 0.055802297 -0.017345242 -0.05062312
0003d0 1c f1 60 bc 0b 5c 0d 3d d2 79 5d bc 59 8d f8 bc
       -0.01372936 0.034511607 -0.013517814 -0.030340837
0003e0 a1 61 0f 3d ac e0 1b 3d f1 d4 09 bd d7 56 fb 3c
       0.035005216 0.03805606 -0.033650342 0.030681057
0003f0 eb 94 be 3d de bd 97 3c 7d 73 4f bd 0d 1c 88 bc
       0.093057476 0.018523153 -0.050647248 -0.016614938

convs.2.att f4 [10, 4]
000000 40 b3 d7 3c af c9 18 3c 59 b5 bc 3c b0 bd 30 bc
       0.02633059 0.009325429 0.023035692 -0.0107874125
000010 22 78 9e 3c 26 97 4f bb 37 e9 cd 3c 39 60 8b 3c
       0.019344393 -0.0031675785 0.02513562 0.017013656
000020 01 fe 9e 3b b0 a5 47 3c d5 7c a9 3c e2 83 85 3c
       0.004852057 0.012185499 0.020689407 0.016298238
000030 6d b4 42 bc ff c0 cd 3a e8 22 87 bb af 7c bf 3a
       -0.011883837 0.0015697776 -0.004124034 0.0014609302
000040 07 89 e3 ba b9 c4 04 bd dd 4e a2 bc d3 4f 00 bd
       -0.0017359563 -0.03241417 -0.019812996 -0.031326126
000050 d2 dd 6d bb d8 02 e2 ba 17 7e 8d bc d4 5e 9d bc
       -0.0036295545 -0.0017243279 -0.017272038 -0.019210257
000060 5b 24 fe bb 58 2c 86 3c 10 db e8 3b 18 6e 8e 39
       -0.0077557988 0.016378567 0.0071061924 0.00027166377
000070 5c fa 20 bc 92 77 20 3b d9 26 07 bc 7c 9f cf bb
       -0.009825315 0.0024485332 -0.008249008 -0.0063361507
000080 9e 73 3f bb 4f 5a b7 3b 0c d9 85 3c fd 07 8f 3b
       -0.00292132 0.0055954824 0.016338848 0.004364966
000090 04 64 1b bb 55 56 54 3b d3 14 c0 3b e0 e6 1a bb
       -0.0023710737 0.003240009 0.0058618574 -0.0023636147

convs.2.root f4 [32, 32]
000000 4e d7 4c bd fd 4d 11 bd a9 6e 3c 3d 5d d1 a5 bc
       -0.050010018 -0.035474766 0.04600397 -0.020241434
000010 ba c3 98 39 4e 4f 90 bd 3c 89 69 bd 91 0f 14 bd
       0.00029137527 -0.07046376 -0.057015643 -0.036147658
000020 d2 80 36 3d 0b 0d 5a bd 74 ed 9a 3b a2 0b 2e 3c
       0.044556446 -0.053235095 0.0047280136 0.010622891
000030 71 ba de bc 6e 04 a3 3d c4 48 ac bd f7 ef 84 bd
       -0.027188512 0.07959829 -0.084123164 -0.06491082
000040 11 78 81 3c 6b 21 9f bc aa 46 f0 3c fa b4 9b 3b
       0.015804322 -0.019425115 0.02933057 0.0047517987
000050 a9 52 8e ba 52 3f e4 bb c4 dc 2e bd ed 9f 51 3d
       -0.0010858375 -0.006965556 -0.042691007 0.051177908
000060 b6 d1 6a bd a7 3d 00 bd ed 23 da 3c 38 a6 6b 3c
       -0.057328902 -0.031308796 0.026628459 0.014382891
000070 66 86 06 3d e1 d7 40 3c ce 34 19 bd 04 63 6d bc
       0.032843016 0.01177022 -0.037403874 -0.014488939
000080 ca d5 41 bc b8 29 f4 bb d7 25 a0 bd f2 c8 84 3d
       -0.011830756 -0.0074512623 -0.078197174 0.0648364
000090 86 7e bc 3b e4 cf be 3d 95 3d d7 bc 7f 4b 76 bd
       0.0057523875 0.09316996 -0.026274482 -0.060130592
0000a0 50 93 f9 3c 06 87 63 bd 49 07 c7 bd d8 06 64 3d
       0.030465752 -0.05554869 -0.097181864 0.05567059
0000b0 b1 0d af 3d 20 6b 69 3d 5a be 4f 3d 19 e9 34 3d
       0.08547533 0.056986928 0.050718643 0.04416761
0000c0 89 9b a3 3d 64 49 9c 3a b0 e1 80 bd 96 ae 3a bd
       0.0798865 0.0011923728 -0.062930465 -0.045576654
0000d0 af b9 1a bd 49 7a 0b bd 18 9c fd bc c6 05 2d bd
       -0.037774738 -0.034052167 -0.03095822 -0.042241834
0000e0 9d 18 c9 bd f3 16 65 bd 7f 9c d3 3d 3c 04 06 3c
       -0.09819148 -0.05593009 0.10332584 0.0081797205
0000f0 12 bd 96 bd 9a fb 87 3c 9d f2 81 bd 3b 03 39 bd
       -0.07360281 0.016599465 -0.06345103 -0.045169096
000100 9c 83 ab bc c6 25 f3 bd ba 20 dd 3d bc cb 83 bd
       -0.02093678 -0.11872439 0.10797258 -0.064353436
000110 95 96 b8 bd 4b 0a ea bd 63 52 0f bd 53 f2 20 bd
       -0.09013096 -0.114277445 -0.03499068 -0.0392936
000120 44 08 22 3d 15 21 84 bd af 2a 5a bc ec 3c d7 bc
       0.039558664 -0.064516224 -0.013315841 -0.026274167
000130 30 8e 68 bd 4a fa a0 bd cb 4a 98 3b d0 6e 60 bb
       -0.056776226 -0.07860239 0.004647588 -0.0034245737
000140 26 d9 28 bd 0d 64 03 3d 9f d8 72 3c d8 ad 8f bd
       -0.041222714 0.032077838 0.014822154 -0.0701558
000150 19 5c f4 bd 55 5d 2d bc 0e c2 c5 bc 15 0d 82 3c
       -0.11931629 -0.010581334 -0.024140384 0.015875379
000160 58 1f 09 ba 38 1e 01 3d 22 fa 84 3d 23 c8 17 3d
       -0.0005230806 0.03152296 0.064930215 0.0370561
000170 2e 12 e8 3c eb 9b 96 3b dc 79 bb bd 59 b8 90 bd
       0.028328981 0.0045962236 -0.09154102 -0.070664115
000180 a9 17 d2 3c 9b 37 29 bd be 8c 0c bd ae 22 ce bc
       0.025646048 -0.041312795 -0.03431391 -0.025163021
000190 27 ff 42 3d f4 f0 c3 bd ec 50 69 3b 82 24 18 bd
       0.047606613 -0.095674425 0.0035601212 -0.03714419
0001a0 d6 50 87 bc c5 23 77 bc 2e 73 18 3d 45 c9 0d 3d
       -0.016518038 -0.015084212 0.03721922 0.034615774
0001b0 64 3d b1 bd f4 09 2c bd 80 d4 c7 bc 91 c1 a9 bc
       -0.086542875 -0.04200168 -0.02439332 -0.020722182
0001c0 60 86 ce bd c0 b2 f5 3c c6 6d 83 3c 4f 50 24 bd
       -0.10084224 0.029992461 0.016043555 -0.04011565
0001d0 7f 51 07 3d b0 0e a2 bd 3b 4e a5 bd 5a a0 49 bd
       0.033036705 -0.07912958 -0.08071562 -0.04922519
0001e0 0e bb df 3c 0e 94 88 3c 86 b5 c3 3c 1f d5 fe bc
       0.027310874 0.01667216 0.023890268 -0.031107483
0001f0 54 52 c4 bb 0f 3e 4f 3d 32 7e 63 bd c2 ed 7d 3d
       -0.0059912596 0.050596293 -0.05554027 0.06199432
000200 4f ac 1f 3d 2b 21 8f 3d 5c a0 a0 3d 0f d1 63 3d
       0.038982686 0.06988748 0.07843086 0.055619296
000210 89 e4 de 3b 5c ac 66 bd 9f 88 65 3d 93 6b 83 3d
       0.006802146 -0.05631672 0.056038495 0.064170025
000220 e5 11 48 bd 93 b2 95 bc 5c e8 29 bd 54 b0 68 3d
       -0.04884519 -0.018273627 -0.04148136 0.056808785
000230 19 43 ab 3d 55 79 9e bc 73 c7 99 bc dd 71 bf 3c
       0.08362407 -0.019344965 -0.018771863 0.023369724
000240 1d 58 85 3c a8 08 d0 3d 25 39 80 3d b6 08 6a bd
       0.016277367 0.10157901 0.062608995 -0.057137214
000250 43 3b 53 3d c9 33 4a bd 45 a2 89 3d f9 c1 54 3b
       0.05157019 -0.049365792 0.067204036 0.003246425
000260 9c b7 65 bc f6 17 6f bd 5b ed 09 3d f5 25 3e 3d
       -0.014020827 -0.05837246 0.033673625 0.046422917
000270 2b c2 73 bd 67 dd 3e 3b 23 03 1c 3d 2e f4 75 bd
       -0.059511345 0.0029123665 0.03808893 -0.06004732
000280 2b 5e 4d bd a7 d5 d5 bd 4d 22 86 bd 1b 2b 2f 3d
       -0.050138634 -0.104411416 -0.06549511 0.042765718
000290 90 11 d5 3c e2 0d c7 3c 10 56 aa bd 2b 90 7c bd
       0.026009351 0.024298612 -0.08317196 -0.061660927
0002a0 5a 31 db 3c b6 1d f6 3c a6 67 4e 3d ad 47 97 bb
       0.026756931 0.030043464 0.050391816 -0.0046166987
0002b0 57 7a dd 3b e7 02 fa bc 7d 22 01 bd 98 1e b5 bc
       0.006758969 -0.030518962 -0.03152703 -0.022109315
0002c0 f5 a4 cf 3c 3b bd ff 3c bd 9e 88 3c 7c e4 76 bd
       0.025347212 0.031218162 0.016677255 -0.060276493
0002d0 94 cf 29 bd 3c 20 91 bd 75 45 15 3c 38 ad 7d bd
       -0.041457728 -0.07086226 0.009110798 -0.061932772
0002e0 63 05 05 bd 59 4a ae bc 5d ac cf 3d 4a bd 17 bd
       -0.03247584 -0.021275686 0.101402976 -0.037045754
0002f0 be 44 d1 3c 6f c9 88 bc 89 9f 4b 3d 61 46 d7 3a
       0.025545474 -0.016697614 0.04971269 0.0016424173
000300 c3 fd 8a 3c 44 fc 13 3e fb d3 ef bd 05 5d 06 3e
       0.016966706 0.144517 -0.11710354 0.13121422
000310 ff f5 2e 3d b8 e5 d7 3d 60 2b 50 bc 2f 5d 8d 3c
       0.04271507 0.10541862 -0.012705654 0.017256347
000320 9b e3 7a 3d 9b f8 10 3d 1c 1a 21 be ec a4 0b be
       0.061252218 0.03539334 -0.15732616 -0.13637131
000330 89 bc 19 3d 6a 53 cb bc c0 4e 34 bd b4 d4 38 bd
       0.037533317 -0.024820048 -0.044020414 -0.045124725
000340 45 af eb 3d 18 6c 49 3d 43 0c 1e bd 1b c9 04 3d
       0.115080394 0.04917535 -0.038585912 0.03241835
000350 69 c5 ba 3d 48 29 4b 3e 4e b1 1b 3d 61 02 28 3d
       0.09119684 0.19839966 0.038010888 0.041017894
000360 7c c3 3e 3e 1d a4 7d bd 0d 80 87 bd 59 4e 30 bd
       0.18629259 -0.06192409 -0.066162206 -0.04304347
000370 57 99 b8 bc 6e 03 ca bc 2d e4 b7 3d f1 05 87 3d
       -0.022534056 -0.024659839 0.08979068 0.0659293
000380 75 44 ec bb fc ab 47 bd 07 e3 2f 3d 0e 16 e0 3c
       -0.007210309 -0.048748 0.04294112 0.027354266
000390 32 49 23 3d 70 fc a8 bd 65 95 ce bc d2 a9 ed bc
       0.039864726 -0.08251274 -0.025217721 -0.02901164
0003a0 b6 a3 b2 3d fc b2 2f bb 3e 47 0a bc 37 35 cf ba
       0.08722632 -0.0026809564 -0.008439837 -0.0015808706
0003b0 a8 22 7a bc c5 c8 eb 3b 6c f2 f2 bc 30 79 09 bd
       -0.015267052 0.0071955645 -0.029656611 -0.03356284
0003c0 40 dd 5d bd d4 c8 b4 3c 24 07 cc 3c df 27 0f 3d
       -0.05416608 0.022068419 0.024905749 0.034950133
0003d0 8a 47 ac 3b 1a 59 c2 bd 75 c0 86 bd 70 a8 1f 3d
       0.0052575516 -0.09489651 -0.06579677 0.038978994
0003e0 28 fd 8c bd a1 f9 05 3d b0 bd 86 bc b9 ee e7 bc
       -0.06884223 0.032708768 -0.016447872 -0.028312074
0003f0 00 d8 2a 3c 6e a4 dd 3c 68 3d 8c bc 24 b5 f3 ba
       0.010427475 0.027055945 -0.017119125 -0.0018593413

convs.2.bias f4 [32]
000000 0e a3 2e 3a b8 61 62 bd 16 20 67 3d fd 0a d0 bd
       0.000666187 -0.055268973 0.056427084 -0.10158346
000010 f0 1f 33 bd 02 58 d2 bd da cc bd 3b 4a ef a7 bd
       -0.04373163 -0.102706924 0.0057922425 -0.08199938
000020 89 ab 98 bd e4 39 22 bd 37 5d bc 3d 6f 31 b9 3d
       -0.07454593 -0.03960599 0.09197467 0.09042632
000030 8a 8e 6e bd 61 04 f1 3c 59 fe 94 3c 74 a0 8e 3d
       -0.058241405 0.029421033 0.018187689 0.06964198
000040 38 f9 92 bd cf 5e 8b bd 6d a8 69 3d 53 17 b9 bd
       -0.07176441 -0.06805193 0.05704539 -0.09037652
000050 b9 6a b0 bd ec 6f db bd 3a 16 55 bd aa 87 23 bd
       -0.08614106 -0.10714707 -0.05202315 -0.0399243
000060 bd d2 83 bd 70 a5 87 3d a9 7c da 3c 65 6d 75 3d
       -0.064366795 0.066233516 0.02667077 0.05991878
000070 42 06 da 3c 70 79 06 3d fa 66 80 bd 94 37 9b 3b
       0.026614312 0.032830656 -0.06269641 0.00473685
