results/flixster_testmode/model_checkpoint19.pth (torch_old, 199981 bytes, 19 tensors)

convs.0.basis f4 [4, 4, 32]
0	0x3dbd805a	0.09252997
1	0xbc4485bd	-0.011994776
2	0x3d895076	0.067048
3	0x3d6d6fcd	0.05796795
4	0xbd724259	-0.059145305
5	0x3e4c8bb7	0.19975172
6	0xbde66548	-0.112497866
7	0xbdfba764	-0.122877866
8	0x3deaf849	0.11473138
9	0xbe335567	-0.17513047
10	0x3e0cb923	0.13742499
11	0xbe2592bb	-0.16169254
12	0xbe5f1c32	-0.217881
13	0x3e02f58d	0.12788983
14	0x3e1151f5	0.1419142
15	0xbdb4e0a5	-0.0883191
16	0xbd4df3f2	-0.050281473
17	0xbd9722ef	-0.0737971
18	0xbe5b7a73	-0.2143343
19	0x3a90a81a	0.0011036426
20	0x3cf45401	0.029825212
21	0x3e368550	0.17824292
22	0x3d83987e	0.0642557
23	0xbdacebf6	-0.084434435
24	0x3d9b0415	0.07569138
25	0xbe1f5498	-0.15559614
26	0x3dd2bc22	0.1028979
27	0x3d4982b8	0.04919693
28	0x3e17b27d	0.14814182
29	0x3e8bfd94	0.27341902
30	0xbe7662d2	-0.24061134
31	0x3cbb8c7a	0.022894133
32	0xbe4342d5	-0.19068463
33	0xbe09b85f	-0.13449238
34	0xbe014c22	-0.12626699
35	0xbbb569d3	-0.005536297
36	0xbcabdf7c	-0.02098059
37	0x3e8acd64	0.27109826
38	0xbd99fd8d	-0.07519064
39	0xbd9f0dc0	-0.077662945
40	0xbe7842b8	-0.24244201
41	0xbddb42a2	-0.107060686
42	0x3deb57fe	0.114913926
43	0xbe53bd73	-0.20677738
44	0xbd4547ec	-0.048164293
45	0xbb6ac4c1	-0.003582284
46	0x3c882f37	0.016624076
47	0xbdf85ac2	-0.12126686
48	0xbdc3ef97	-0.095671825
49	0xbe56f045	-0.20990093
50	0x3dcf6c0b	0.101280294
51	0xbe05edf3	-0.13079052
52	0xbe3b75c7	-0.18306647
53	0x3e09eb68	0.13468707
54	0xbdd385af	-0.103282325
55	0xbd9ef5ed	-0.0776175
56	0x3d03886a	0.032112516
57	0xbd6706c8	-0.05640295
58	0x3b8f9177	0.0043813544
59	0x3d0503cb	0.03247432
60	0x3e00c547	0.12575255
61	0x3e0b96a5	0.13631685
62	0xbe64503b	-0.2229623
63	0x3ce679a4	0.028134175
64	0xbdab6813	-0.0836946
65	0xbde07b47	-0.10961013
66	0x3dbbf99b	0.09178468
67	0x3e0d13cd	0.13777085
68	0x3bf19f51	0.0073737283
69	0xbe033c3b	-0.12815945
70	0x3d5e8d38	0.054333895
71	0xbe824a59	-0.25447348
72	0xbea71c4a	-0.3263877
73	0xbd4b7e42	-0.049680956
74	0xbcc06bd9	-0.023488926
75	0x3d8c72ca	0.06857832
76	0x3e77d8e0	0.24203825
77	0x3d2d40b8	0.04229805
78	0x3d3c8f69	0.046035204
79	0xbe2d309a	-0.16913071
80	0x3d4d1d13	0.050076555
81	0xbd973e16	-0.07384889
82	0x3de553f0	0.111976504
83	0x3e071ee0	0.13195372
84	0x3d8d0827	0.068863206
85	0x3dc7b938	0.097521245
86	0xbf1eeb76	-0.62078035
87	0xbee1b58a	-0.44083816
88	0xbeb1eed7	-0.34752533
89	0x3955c974	0.0002038831
90	0xbe01c36b	-0.12672202
91	0xba73db7d	-0.00093024207
92	0xbdd12700	-0.10212517
93	0x3d6212d7	0.05519375
94	0x3c52a45d	0.01285657
95	0x3dae2149	0.085024424
96	0x3e07c941	0.13260366
97	0xbd16f0ae	-0.036850624
98	0xbc08260e	-0.008309854
99	0xbdb073db	-0.08615848
100	0xbe2c9f09	-0.16857542
101	0xbe93354d	-0.28751603
102	0xbd510fb6	-0.051040374
103	0x3c4e71ac	0.012600344
104	0x3eb81025	0.35949817
105	0x3ef557db	0.4791859
106	0x3efb8568	0.49125218
107	0x3e207ecb	0.15673368
108	0x3ddbdb32	0.107351676
109	0x3d5f069c	0.054449663
110	0xbdb97653	-0.09055772
111	0xbd5c6446	-0.053806566
112	0xbeb9f82a	-0.36322147
113	0xbe0916d7	-0.13387619
114	0xbdba8c0a	-0.091087416
115	0xbb85907f	-0.004076063
116	0xbd5e28b7	-0.054238047
117	0xbeefee60	-0.46861553
118	0xbe136e03	-0.14397435
119	0x3d8d0ac2	0.068868175
120	0xbd8dbe68	-0.06921083
121	0x3e2ffbe4	0.17185932
122	0xbe302e5d	-0.17205186
123	0xbe2ee819	-0.17080726
124	0x3ba78749	0.005112563
125	0x3e1c9476	0.15291008
126	0x3e08d1d5	0.13361295
127	0x3da0028c	0.07812986
128	0x3c2537cc	0.010084104
129	0xbcb30501	-0.021852972
130	0x3d45ede6	0.04832258
131	0x3d95523a	0.07291074
132	0xbd9513f0	-0.072791934
133	0x3e115c02	0.14195254
134	0xbcde7714	-0.02715639
135	0xbdac3726	-0.08408956
136	0xbcc6c897	-0.02426557
137	0xbe0bcfb1	-0.13653447
138	0x3d5b5df2	0.05355639
139	0xbd31d236	-0.043413363
140	0xbe0ff56e	-0.14058468
141	0x3d8d8e33	0.06911888
142	0x3e10d68a	0.1414434
143	0xbe3d267d	-0.18471713
144	0xbd97ce84	-0.074124366
145	0xbdb6c7c5	-0.08924822
146	0xbdd5005a	-0.10400458
147	0xbce6f83e	-0.028194543
148	0x3ca76855	0.020435492
149	0x3e260861	0.16214134
150	0x3dd43ebe	0.103635296
151	0xbdfc3b2d	-0.123159744
152	0x3d36ac7b	0.044598084
153	0xbdafe1e4	-0.08588007
154	0x3db4e662	0.088330045
155	0x3b389667	0.0028165819
156	0x3d3e653e	0.04648327
157	0x3e59235a	0.21204892
158	0xbe2cccf7	-0.16875063
159	0x3bd4927a	0.006487188
160	0xbe0a5a19	-0.13510932
161	0xbd7ddaa4	-0.06197609
162	0xbe164ac1	-0.14676954
163	0x3d9b427e	0.07581042
164	0xbcd9df04	-0.0265956
165	0x3e5998d6	0.21249709
166	0xbdb7d8fa	-0.08976932
167	0xbc6ec9be	-0.014574466
168	0xbe013bc0	-0.12620449
169	0xbddf21e9	-0.1089514
170	0x3dde8a43	0.10866215
171	0xbe5f3ce8	-0.21800578
172	0xbd8c0ffb	-0.068389855
173	0xbbbc3e36	-0.005744721
174	0x3dc57f35	0.096434034
175	0xbd8209c4	-0.06349519
176	0xbdde3e5f	-0.1085174
177	0xbe216c2a	-0.15763918
178	0x3c468244	0.012116019
179	0xbd7fbedd	-0.06243788
180	0xbe1ca00d	-0.1529543
181	0x3df2d526	0.11857061
182	0xbbde53a4	-0.006784873
183	0xbd0d3a89	-0.03447965
184	0x3da7dbae	0.081961975
185	0xbd804e92	-0.06264986
186	0x3d0da942	0.034585245
187	0x3cf623d2	0.030046377
188	0x3dee0b85	0.11623291
189	0x3e463c36	0.19358906
190	0xbe333c49	-0.17503466
191	0x3d1cbe28	0.038267285
192	0xbd175666	-0.03694763
193	0xb9ecad40	-0.0004514251
194	0xbdd072d1	-0.101781495
195	0x3d64df60	0.05587709
196	0x3d9a7b6c	0.07543072
197	0x3e079b3a	0.13242808
198	0x3cda02ce	0.026612666
199	0xbe37b5b2	-0.17940405
200	0xbf0d49dd	-0.5519083
201	0x3d2e8c52	0.04261429
202	0xbe13d00a	-0.1443483
203	0xbdb0ef40	-0.08639383
204	0x3e7eb904	0.24875265
205	0xbc31ce74	-0.010852445
206	0xbe3f5934	-0.18686372
207	0xbe7f3ed5	-0.24926312
208	0x3e445ec9	0.19176783
209	0xbd810e71	-0.063015826
210	0x3e0cc48a	0.13746849
211	0x3e245333	0.16047363
212	0xbdfc440e	-0.12317668
213	0xbd8cf002	-0.06881715
214	0xbf1b23e2	-0.6060163
215	0xbecff4a7	-0.40616342
216	0xbe936e6c	-0.28795183
217	0x3cb3c8a2	0.021946255
218	0x3d481534	0.048848346
219	0xbd84c1b5	-0.06482259
220	0xbd12c29b	-0.03583012
221	0xbd3884c7	-0.0450485
222	0xbd004ed5	-0.03132518
223	0x3b1ed20d	0.0024234087
224	0xbb3f40d5	-0.002918293
225	0x3e3420c0	0.17590618
226	0x3accd81d	0.0015628372
227	0x3ca284d7	0.019838734
228	0x3e19e78d	0.15029736
229	0xbe2a41b3	-0.16626625
230	0x3d198ffd	0.037490834
231	0xbe33cddf	-0.17559002
232	0x3e70da3e	0.23520753
233	0x3ebb2f82	0.36559683
234	0x3ebd7134	0.3700043
235	0xbeef3ea5	-0.4672748
236	0xbdff73dd	-0.12473271
237	0xbd3ec32f	-0.04657286
238	0xbdcb41e9	-0.09924681
239	0x3d0f54b3	0.034992885
240	0xbe5cbf16	-0.21557269
241	0xbe2e251f	-0.17006348
242	0xbe33e52c	-0.17567891
243	0xbd4dee89	-0.050276313
244	0x3c268a8e	0.01016487
245	0xbeb5ee22	-0.35533243
246	0x3e57c8cd	0.21072693
247	0x3d790ef6	0.060805283
248	0x3dd7b57c	0.10532662
249	0x3e017dc9	0.1264564
250	0x3e0a8b39	0.13529672
251	0xbcda664d	-0.026660109
252	0xba1ead05	-0.00060530036
253	0x3dde744f	0.10862028
254	0xbe09f6b1	-0.13473012
255	0xbe1ddcd0	-0.15416265

convs.0.att f4 [10, 4]
0	0xbdb7905b	-0.089630805
1	0xbe30f626	-0.17281398
2	0x3e80f40e	0.251862
3	0x3dd65e0e	0.10467158
4	0xbe0c8eb7	-0.13726316
5	0xbd45715f	-0.048203822
6	0x3e84182c	0.25799692
7	0x3da72fd4	0.08163419
8	0xbe4de580	-0.20107079
9	0x3df6a7d4	0.120437294
10	0x3e92e701	0.28691867
11	0x3dc9137b	0.09818169
12	0xbe4320c1	-0.19055463
13	0x3e3f5135	0.18683322
14	0x3e9b8e05	0.3038179
15	0x3d805004	0.06265262
16	0x39690381	0.00022221917
17	0x3d4565f7	0.048192944
18	0x3e91e99b	0.2849854
19	0x3e0d1fa2	0.13781598
20	0xbd4a389f	-0.049370404
21	0x3e72c2e0	0.23707151
22	0x3e94c627	0.29057428
23	0x3e0f0b0b	0.13969056
24	0x3a572ad6	0.0008207982
25	0x3e729611	0.23690058
26	0x3e48e0eb	0.1961705
27	0x3de247cd	0.11048851
28	0x3db30a72	0.08742227
29	0x3e66e87e	0.22549626
30	0x3e3180fd	0.17334361
31	0x3dc6086f	0.09669577
32	0x3e391885	0.1807576
33	0x3e357ebd	0.17724128
34	0x3daa2bbd	0.08309124
35	0xbb9f94a7	-0.0048700157
36	0x3eade67a	0.33964902
37	0x3e1cf13d	0.153264
38	0x3d560759	0.0522531
39	0xbdf7deaa	-0.12103017

convs.0.root f4 [4, 32]
0	0xbda03b9a	-0.07823868
1	0x3c84379e	0.016139802
2	0x3c75b826	0.014997518
3	0x3e3831e1	0.17987777
4	0x3e0fb0ca	0.14032283
5	0xbb3048ac	-0.0026898785
6	0xbdf44469	-0.11927111
7	0xbe83f372	-0.25771672
8	0x3e65320f	0.22382377
9	0x3ecc2e51	0.39879087
10	0x3eb2b40b	0.34902987
11	0xbd8cdc89	-0.06878001
12	0x3d927c27	0.071525864
13	0x3e2a2b10	0.1661799
14	0xbdda0ede	-0.10647367
15	0xbd99c056	-0.07507388
16	0xbe5336b0	-0.2062633
17	0x3e498947	0.19681273
18	0x3d356c85	0.044292945
19	0xbe65b644	-0.2243281
20	0x3d989d26	0.07451849
21	0xbe005157	-0.12531029
22	0x3d9625bf	0.07331418
23	0x3e67f9f3	0.22653942
24	0xbc198a6b	-0.00937138
25	0x3e5fc6bf	0.2185316
26	0xbd0fb0df	-0.035080787
27	0xbe8cac74	-0.2747532
28	0x3dd1d7a8	0.10246211
29	0xbe7d2458	-0.24720895
30	0x3d78138a	0.06056551
31	0xbe384d2e	-0.17998192
32	0x3e223561	0.15840675
33	0x3e5974cc	0.2123596
34	0xbe76ffdb	-0.24121039
35	0x3e1fa377	0.155897
36	0xbdfd196f	-0.12358367
37	0xbe38115d	-0.17975374
38	0xbdabf3a6	-0.083960816
39	0xbe7953d4	-0.24348384
40	0x3d0c4f08	0.034255058
41	0xbe67e3dc	-0.22645515
42	0x3e05a44d	0.13050957
43	0x3e3a3dd4	0.18187648
44	0x3ea2cd5d	0.31797305
45	0x3e718aed	0.23588152
46	0xbe14da82	-0.14536479
47	0x3e9c6c75	0.30551496
48	0x3be93b3a	0.007117656
49	0x3dc627af	0.09675538
50	0x3d9fe54d	0.078074075
51	0xbdafdf1e	-0.08587478
52	0xbd44b214	-0.04802139
53	0xbe6ed9dc	-0.23325294
54	0xbe66409f	-0.22485588
55	0xbec25836	-0.37957925
56	0xbe839772	-0.2570148
57	0xbd345a83	-0.04403163
58	0x3e533166	0.20624313
59	0x3db1bd89	0.08678729
60	0x3e0bea0f	0.13663505
61	0xbda3033a	-0.079596
62	0x3e841632	0.25798184
63	0x3e8d795c	0.27631652
64	0xbd3cc626	-0.046087407
65	0x3e07ce4a	0.13262287
66	0x3d1fbf0f	0.039000567
67	0xbd35bbdc	-0.04436861
68	0xbe132b89	-0.14372076
69	0xbe288c5e	-0.16459796
70	0xbe00f1fe	-0.12592313
71	0xbdcc4d7a	-0.09975715
72	0xbddbeda8	-0.10738689
73	0xbca5b5ae	-0.020228233
74	0xbe556fd0	-0.20843434
75	0xbbba8ac0	-0.00569281
76	0x3ce2ead1	0.02769986
77	0x3e40ff4c	0.18847388
78	0xbc1aacc7	-0.009440607
79	0xbd36c14f	-0.044617947
80	0xbdfea4ac	-0.124337524
81	0xbdd3e46a	-0.10346301
82	0xbe28a58a	-0.16469398
83	0x3e3232e5	0.17402227
84	0xbcd26bfb	-0.025686255
85	0x3e0ea500	0.1393013
86	0xbe12ac96	-0.14323649
87	0x3d8ebdc5	0.069697894
88	0x3d3e67bd	0.04648565
89	0x3dab9f48	0.0837999
90	0x3db70be8	0.08937818
91	0xbd190548	-0.037358552
92	0xbe0799a6	-0.13242206
93	0xbdf85590	-0.12125695
94	0x3d087a6f	0.033319887
95	0x3c05264f	0.008126809
96	0xbde8971f	-0.11356949
97	0xbd1ba08a	-0.0379949
98	0xbd6ba0ab	-0.05752627
99	0x3e5d337a	0.21601668
100	0xbbb27aeb	-0.005446782
101	0xbd4af048	-0.049545556
102	0xbd064d9a	-0.03278885
103	0xbe193110	-0.14960122
104	0xbe23d3f5	-0.15998824
105	0x3def5237	0.11685603
106	0xbd9fff2c	-0.07812342
107	0xbe32c18e	-0.17456648
108	0x3e097c30	0.1342628
109	0x3e00e7ed	0.12588473
110	0x3d6c712b	0.057725113
111	0x3cd27eaf	0.025695173
112	0x3c734e1b	0.014850165
113	0xbe2f6454	-0.17128116
114	0xbd868bf9	-0.065696664
115	0x3e0eb281	0.13935281
116	0xbdb5801e	-0.08862327
117	0x3e00f822	0.12594655
118	0xbe3b41a3	-0.18286757
119	0xbe01d5b9	-0.12679185
120	0xbcf789c0	-0.030217052
121	0x3ddfe6c1	0.10932685
122	0xbbce0446	-0.0062871305
123	0xbcc25421	-0.023721756
124	0xbe44ae76	-0.19207177
125	0xbd9490a7	-0.07254153
126	0xbdef48e8	-0.11683828
127	0xbdc8d5a9	-0.098063774

convs.0.bias f4 [32]
0	0x3e0ad629	0.13558258
1	0x3b745794	0.0037283646
2	0x3ddc7630	0.1076473
3	0xbe6bd91c	-0.2303204
4	0x3df59757	0.119917564
5	0xbc509cab	-0.012732665
6	0x3dd8684f	0.1056677
7	0x3e08ae2e	0.13347694
8	0x3e374d8c	0.17900676
9	0xbce6a633	-0.028155422
10	0x3d0650a0	0.032791734
11	0x3e58e921	0.21182682
12	0xbd8bdb71	-0.068289645
13	0xbe29297f	-0.16519736
14	0xbe56c4bf	-0.2097349
15	0x3d810a67	0.06300812
16	0x3dc03cde	0.093866095
17	0x3e5f5b95	0.2181228
18	0x3e3ad951	0.18246962
19	0xbddada38	-0.10686153
20	0x3da34f39	0.07974095
21	0xbe8a9599	-0.2706726
22	0x3e2467da	0.16055241
23	0x3cc65f5b	0.02421539
24	0x3c04d727	0.008107937
25	0xbd8ae18c	-0.06781301
26	0xbdc4e83e	-0.09614609
27	0x3ce95979	0.028485047
28	0x3defd5df	0.117107145
29	0xbe1c309d	-0.1525292
30	0x3e4741c7	0.19458686
31	0x3bc22330	0.005924605

convs.1.basis f4 [4, 32, 32]
0	0xbe1f1e90	-0.15539002
1	0xbd5832b0	-0.052782714
2	0x3b9a9180	0.004717052
3	0xbd6a258e	-0.05716472
4	0x3bdebc72	0.006797367
5	0xbd494d76	-0.049146138
6	0xbd1b3b7c	-0.037898526
7	0x3e0e89f2	0.1391981
8	0x3d350559	0.044194553
9	0x3c7ca9ec	0.015421372
10	0x3ca18d27	0.019720627
11	0x3c78307e	0.01514828
12	0xbd3de49e	-0.046360604
13	0x3d33d59f	0.043904897
14	0x3dcb7a47	0.09935432
15	0xbc4625b4	-0.01209395
16	0xbc9d6c78	-0.019216761
17	0x3d0cadb9	0.034345362
18	0xbb973c13	-0.0046153157
19	0xbcf7dd60	-0.030256927
20	0x3c64ecc3	0.013972464
21	0xbda7230b	-0.08160981
22	0x3d8dd174	0.06924716
23	0xbd0411cf	-0.032243546
24	0x3b0dc3d8	0.0021631625
25	0x3cf729c0	0.030171275
26	0x3c1e7f87	0.00967396
27	0x3d912b4f	0.070883386
28	0xbcda4ca4	-0.026647873
29	0x3bf1eaba	0.007382718
30	0xba125545	-0.0005582164
31	0xbcb81740	-0.022472024
32	0xbceeb2f7	-0.029138071
33	0xbc4e41f3	-0.012588966
34	0xbd35375b	-0.044242244
35	0x3bb7cb16	0.0056089265
36	0xbd28cc79	-0.041210625
37	0xbbb88502	-0.00563109
38	0xbdb0172b	-0.08598169
39	0x3c1f2f78	0.009715907
40	0xbc71c69c	-0.014756825
41	0xbcc9a10b	-0.024612924
42	0x3d1282bb	0.035769206
43	0x3b2abfeb	0.0026054333
44	0xbc65e06e	-0.014030559
45	0x3d0b48df	0.034005042
46	0xbd8dbfed	-0.069213726
47	0x3dd2864f	0.102795236
48	0x3c7261dc	0.014793839
49	0xbb5c072d	-0.0033573613
50	0x3d1d8f91	0.038466994
51	0x3ce05c63	0.027387803
52	0x3d1cc9d6	0.038278423
53	0xbdd14dfa	-0.10219951
54	0xbce8f812	-0.028438602
55	0x3c147b44	0.009062592
56	0x3c7705e7	0.015077091
57	0xbc24d0c1	-0.010059536
58	0xbcba6c41	-0.022756698
59	0xbd917927	-0.07103186
60	0x3ce1ad0d	0.027548337
61	0xbd4bdfdf	-0.049774047
62	0x3c75a0c4	0.014991943
63	0xbbfe19e9	-0.0077545536
64	0x3dc08a38	0.09401363
65	0x3d64eb59	0.055888508
66	0x3c4ff7b8	0.012693338
67	0xbdaecce7	-0.08535176
68	0xbc91e99b	-0.017811587
69	0xbc89d50d	-0.016825223
70	0x3dfb27f0	0.12263477
71	0xbe14acf7	-0.14519106
72	0xbc4b519c	-0.012409594
73	0xbca036f3	-0.019557452
74	0x3d50bdeb	0.05096237
75	0x3c90d6a3	0.017680472
76	0xbd6686a0	-0.056280732
77	0xbcc5be8c	-0.024138711
78	0x3d7a2ad7	0.06107601
79	0xbe1daf3e	-0.15398881
80	0xbc91ee5e	-0.017813858
81	0xbd41ad67	-0.04728451
82	0xbc9725bc	-0.01845061
83	0xbc209147	-0.009800262
84	0x3bb36230	0.0054743513
85	0x3d6ff7c6	0.058585905
86	0x3c4b77e8	0.012418725
87	0x3cd9dfc7	0.026595963
88	0xbdd03bd4	-0.10167661
89	0xbd928123	-0.07153537
90	0x3d79fff2	0.061035104
91	0x3d94d9ea	0.07268126
92	0xbc2c022d	-0.010498566
93	0x3792d1ff	1.7502343e-05
94	0xbd0587bd	-0.032600153
95	0xbce026ee	-0.027362313
96	0xbb2dc808	-0.0026516933
97	0xbcb978ec	-0.022640668
98	0x3d977351	0.07395042
99	0x3d9bf18d	0.076144315
100	0x3d14e712	0.03635318
101	0x3aac78b5	0.0013158532
102	0x3ab3bca1	0.0013712832
103	0xb9b1dfd9	-0.0003392685
104	0xbc37268f	-0.011178627
105	0x3c8d8a75	0.017277936
106	0x3cb40258	0.021973774
107	0xbd155782	-0.036460407
108	0x3d41e823	0.047340523
109	0xbccc4214	-0.024933852
110	0xbd69ea96	-0.057108484
111	0x3d6a4a31	0.05719966
112	0xbc88621e	-0.016648348
113	0xbcc6a2c0	-0.024247527
114	0x3d182f37	0.037154403
115	0x3c835c7a	0.016035307
116	0xbd24e697	-0.04025897
117	0x3defc648	0.11707741
118	0xbd6eee20	-0.058332562
119	0x3ca2bdad	0.019865835
120	0x3ccd1bb2	0.02503762
121	0xbbeef6b2	-0.007292592
122	0xbce3098a	-0.02771451
123	0x3aec44f1	0.0018025917
124	0x3ca4d580	0.020121336
125	0xbc0f7894	-0.008756775
126	0xbc069970	-0.008215293
127	0x3b1f57ac	0.002431373
128	0x3dedf4ef	0.11618983
129	0x3c67d705	0.014150386
130	0x3d1fe3d2	0.039035626
131	0x3aaf53f4	0.001337646
132	0x3d26dff3	0.04074092
133	0xbca19bd8	-0.019727632
134	0x3dc26109	0.09491164
135	0xbcefefdc	-0.029289179
136	0x3d4460c4	0.047943845
137	0x3ba68e8a	0.00508291
138	0x3d6c0fff	0.057632443
139	0xbd90c377	-0.07068532
140	0x3d8ac1f3	0.06775274
141	0xbc1bc859	-0.009508216
142	0x3dad0c00	0.084495544
143	0xbd7ca251	-0.061678234
144	0xbc3719e1	-0.011175604
145	0x3c8d8f21	0.017280163
146	0xbdc12553	-0.09430947
147	0x3d4c8ce3	0.049939048
148	0x3d0446c4	0.03229405
149	0xba9b2de5	-0.0011839239
150	0x3ddb90cb	0.107209764
151	0xbcc26ffc	-0.023735039
152	0xbc335a84	-0.010946874
153	0xbcc8f172	-0.024529193
154	0xbd5b020b	-0.053468745
155	0x3df11855	0.11772219
156	0xbdc475fe	-0.09592818
157	0x3db1b66c	0.08677372
158	0xbd3cb3d5	-0.04606994
159	0x3b0fba19	0.0021930991
160	0x3c8cf836	0.0172082
161	0xbcb000b8	-0.021484718
162	0x3b15e672	0.0022872952
163	0xbbcc6ad8	-0.0062383227
164	0x3d1550ef	0.036454137
165	0xbce38bd1	-0.02777663
166	0x3dfcc706	0.12342648
167	0xbbfb2230	-0.0076639876
168	0x3cff5635	0.031169036
169	0xbce2f2cd	-0.027703667
170	0xbcf51812	-0.029918704
171	0xbcde182e	-0.02711114
172	0x3d089ef7	0.033354726
173	0xbc98612c	-0.018601023
174	0xbdea1e27	-0.11431532
175	0x3dfc92f3	0.12332716
176	0x3b9a50e9	0.0047093523
177	0xbd123668	-0.035696417
178	0x3cb9f302	0.022698883
179	0xbb4d3d7d	-0.0031317167
180	0x3c0b001e	0.008483915
181	0x3daa4c88	0.083153784
182	0xbde8a3de	-0.1135938
183	0x3d5bacd1	0.053631607
184	0x3d9d2b55	0.076742806
185	0x3d04bbef	0.03240579
186	0xbcdac2d6	-0.026704233
187	0x3c7e653b	0.015527065
188	0x3debb1ae	0.11508499
189	0xbd05119f	-0.032487508
190	0x3c8422bc	0.016129844
191	0xba0b17ec	-0.0005305994
192	0xbd32cbcc	-0.043651387
193	0xbceab76c	-0.028651915
194	0xbd57cd93	-0.052686285
195	0xbd50abe2	-0.05094517
196	0x3c88036b	0.016603192
197	0x3d52f635	0.051504333
198	0x3d2c69a0	0.04209292
199	0xbc8f2f81	-0.017478706
200	0x3c37e0b2	0.011223005
201	0xbc02451b	-0.007951046
202	0x3c9f4bcd	0.019445324
203	0xbd108f0c	-0.03529267
204	0x3c098012	0.008392351
205	0xbc4c6f29	-0.0124776745
206	0x3d85bd57	0.06530254
207	0xbdd453d6	-0.10367553
208	0xbd8af8e6	-0.06785755
209	0x3d66cfaa	0.056350388
210	0x3b06d775	0.00205752
211	0x3d018806	0.031623863
212	0x3ce84172	0.02835152
213	0x3d2cbcb1	0.042172138
214	0x3de2c731	0.11073149
215	0x3c98acc6	0.018637072
216	0xbc8546b1	-0.01626906
217	0xbd3097b1	-0.043113414
218	0xbd222dac	-0.039594337
219	0x3dd94ea6	0.10610704
220	0xbdfe5f9d	-0.124205805
221	0xbc5320cd	-0.012886238
222	0xbb8178fd	-0.0039511905
223	0x3d2c9ab5	0.042139728
224	0xbe72ef52	-0.23724106
225	0xbd3db735	-0.046317298
226	0x3b813143	0.00394264
227	0xbd06b124	-0.03288378
228	0xbd67df92	-0.056609698
229	0xbd93b4e1	-0.07212234
230	0xbe21774e	-0.15768167
231	0x3e2fdbff	0.17173766
232	0x3cd85c6a	0.026411254
233	0x3ab64a17	0.0013907579
234	0xbcf88bb9	-0.030340062
235	0xbd1cdc02	-0.038295753
236	0xbcd62089	-0.02613856
237	0xbd61520c	-0.055009887
238	0x3d6fa913	0.05851085
239	0x3e192c3e	0.14958283
240	0x3d13d0a2	0.03608764
241	0x3c0b8a5f	0.008516877
242	0x3cb05b72	0.02152798
243	0x39952cb5	0.00028452804
244	0x3d1a05b8	0.03760311
245	0xbe8ce949	-0.27521732
246	0x3c463965	0.012098645
247	0xbcf45cf2	-0.029829476
248	0xbcbf2f2b	-0.023337921
249	0x3ce6a08b	0.028152725
250	0x3c928adb	0.017888477
251	0xbddbc2a0	-0.10730481
252	0x3d5b705d	0.053573955
253	0x3c59aac6	0.0132853445
254	0x3be7d4be	0.0070749214
255	0xbd183e61	-0.037168864

convs.1.att f4 [10, 4]
0	0xbc83ab72	-0.016072962
1	0x3e31133f	0.17292498
2	0xbe7b860f	-0.24562858
3	0xbcabf04e	-0.02098861
4	0x3d90dcf8	0.070733964
5	0x3df5ee07	0.12008291
6	0xbe67d75f	-0.22640751
7	0xbb7e497e	-0.003880113
8	0x3e03033d	0.12794204
9	0x3d9487c3	0.07252457
10	0xbe701dba	-0.2344884
11	0xbd572c1f	-0.05253231
12	0x3de1ed37	0.11031573
13	0xbc2bf059	-0.010494315
14	0xbe3e822f	-0.18604349
15	0xbdc3c1e1	-0.09558464
16	0x3dce1cba	0.10064073
17	0xbd665483	-0.05623294
18	0xbe0b62ef	-0.13611959
19	0xbd9deaa6	-0.07710771
20	0x3cb55559	0.022135423
21	0xbdb7aaa3	-0.08968093
22	0xbde58381	-0.11206723
23	0xbd901129	-0.07034523
24	0x3cea05a3	0.02856714
25	0xbe0518ab	-0.12997691
26	0xbd852faf	-0.065032355
27	0x3d5c2b53	0.053752255
28	0x3d2b516e	0.041825704
29	0xbe26b4b3	-0.16279869
30	0x3c77f6a9	0.015134492
31	0x3da7fddb	0.08202716
32	0xbd3820c5	-0.044953126
33	0xbe20196f	-0.15634702
34	0x3d0531e4	0.032518283
35	0x3dc4fad0	0.09618151
36	0xbe1f3adf	-0.15549801
37	0xbe2117a4	-0.15731674
38	0x3d9f1580	0.07767773
39	0x3d287f6d	0.041137148

convs.1.root f4 [32, 32]
0	0xbd550939	-0.05201075
1	0x3d900990	0.07033074
2	0xb985ae67	-0.00025497677
3	0x3caf6786	0.021411669
4	0x3cee0fea	0.029060323
5	0xbd1b2c26	-0.0378839
6	0xbe5d5613	-0.21614866
7	0x3da2e1d8	0.079532325
8	0xbc04fd3a	-0.008117015
9	0xbb1d4867	-0.0023999454
10	0x3d1665d2	0.036718197
11	0x3b89d525	0.004206317
12	0xbdde6624	-0.108593255
13	0xbd23aa8b	-0.039957564
14	0x3828f7de	4.0285166e-05
15	0x3d3631ad	0.04448097
16	0xbb884cef	-0.004159562
17	0xbd26b2bb	-0.040697794
18	0xbdc3718a	-0.0954314
19	0xbc84785d	-0.016170675
20	0xbd0cc8fe	-0.03437137
21	0x3d53356a	0.05156461
22	0x3d1da9e8	0.038492113
23	0x3d0cbfa1	0.03436244
24	0xbd55385f	-0.052055713
25	0xbd046713	-0.03232486
26	0xbcc9c45b	-0.024629762
27	0x3dccf060	0.100067854
28	0xbd6afefb	-0.057372075
29	0xbdf2c0f3	-0.118532084
30	0xbbdf796f	-0.006819896
31	0x3d38294d	0.044961262
32	0xbc01a792	-0.007913487
33	0x3c55cbe8	0.013049103
34	0x3d8a7906	0.06761365
35	0xbd00c580	-0.03143835
36	0x3d7238e0	0.05913627
37	0x3b2d5928	0.0026450846
38	0x3dd21755	0.102583565
39	0x3d5e7110	0.054307044
40	0x3c60dc46	0.013724392
41	0xbccbeede	-0.024894174
42	0x3d87787f	0.0661478
43	0x3d6cc850	0.05780822
44	0xbd27a045	-0.04092433
45	0xbda5dc3b	-0.08098646
46	0xba92a234	-0.0011187256
47	0xbd3fa13a	-0.046784617
48	0xbd4e4be0	-0.05036533
49	0xbd3cc18f	-0.04608303
50	0x3d471055	0.04859956
51	0xba514b7e	-0.00079839665
52	0xbd33eb67	-0.04392567
53	0x3da83400	0.08213043
54	0x3c6804ba	0.014161283
55	0xbdb9233e	-0.09039925
56	0x3d9f5e25	0.077816285
57	0xbc8822a9	-0.01661809
58	0x3d7251a6	0.059159897
59	0xbde6f398	-0.112769306
60	0xbcb82a88	-0.022481218
61	0xbdaae748	-0.08344895
62	0xbcf6ef72	-0.030143473
63	0x3d684e3c	0.056715235
64	0x3c3357c5	0.010946219
65	0xbcc69138	-0.024239168
66	0x3da4192d	0.080126144
67	0x3d0d9177	0.034562554
68	0xbcd4b1fd	-0.025963778
69	0xbdaf0c1e	-0.08547233
70	0x3e07192c	0.13193196
71	0x3dc123ac	0.09430632
72	0x3ccc2387	0.024919285
73	0xbd1a9067	-0.03773537
74	0xbb1da981	-0.002405733
75	0xbb646a79	-0.0034853502
76	0x3d5b6939	0.053567145
77	0xbd3019ba	-0.042993285
78	0xbd7f2524	-0.06229128
79	0xbceb254f	-0.028704314
80	0xbd2bd92b	-0.041955154
81	0xbda246b2	-0.0792364
82	0xbccacc75	-0.024755696
83	0xbca713bb	-0.02039515
84	0xbd809d5d	-0.06280015
85	0x3c4b8de2	0.012423964
86	0x3b9b1e86	0.0047338633
87	0x3d2f3d28	0.042782933
88	0x3d80d89d	0.06291316
89	0xbcbd75a3	-0.023127383
90	0x3d33a919	0.043862436
91	0xbce95a76	-0.028485518
92	0x3d852114	0.0650045
93	0xbdb19f2b	-0.08672937
94	0xbd409879	-0.04702041
95	0xbbcd493e	-0.0062648347
96	0x3d437cc2	0.0477264
97	0x3dbc0571	0.09180725
98	0xbcfe2b43	-0.031026488
99	0xbdbde446	-0.09272055
100	0xbd961439	-0.07328076
101	0x3ce20ef3	0.027595019
102	0xbd257e56	-0.040403686
103	0xbd04ecf6	-0.032452546
104	0xbd3d7ef4	-0.04626365
105	0x3d97172f	0.07377469
106	0x3db831b5	0.08993856
107	0x3d2c6d79	0.04209659
108	0x3ca82871	0.020527096
109	0xbce6c1a4	-0.028168507
110	0x3cbac3c1	0.02279842
111	0x3dab7df2	0.083736315
112	0x3c8394cf	0.016062168
113	0xbce68e66	-0.028144073
114	0x3d5f3c88	0.054501086
115	0x3dafadcb	0.0857807
116	0xbcf0a53e	-0.029375669
117	0x3aa2b72f	0.0012414212
118	0x3df8697a	0.12129493
119	0x3bd631f6	0.0065367175
120	0xbd5aebd9	-0.053447578
121	0x3c64195e	0.013922064
122	0x3df69fbb	0.12042185
123	0x3ddb1d7b	0.10698982
124	0x3ce704f9	0.028200613
125	0xbcf976bd	-0.030452127
126	0xbcca2a81	-0.02467847
127	0x3d7d31dd	0.06181513
128	0x3d6e7f35	0.058226783
129	0x3df12b82	0.117758766
130	0x3cf228f6	0.029560547
131	0xbd9d989c	-0.076951236
132	0x3d89f8a5	0.06736878
133	0x3d7604e6	0.060063265
134	0x3d9593f9	0.07303614
135	0xbd95bedd	-0.07311795
136	0xbc3a130b	-0.011357079
137	0xbd873420	-0.06601739
138	0xbd5dee70	-0.05418247
139	0x3c4fe67c	0.012689229
140	0x3dc2a3de	0.095039114
141	0xbcb328be	-0.021870013
142	0xbdd09340	-0.10184336
143	0x3cb1e5bc	0.021715991
144	0x3d085f1f	0.03329384
145	0xbd7645dc	-0.060125217
146	0xbd8b344d	-0.06797085
147	0xbca8e391	-0.020616325
148	0x3df7cf21	0.121000536
149	0x3e04b3d4	0.12959224
150	0x3b0554a1	0.0020344632
151	0xbd8372ca	-0.06418379
152	0xbcb07526	-0.021540236
153	0x3d1ccd0c	0.038281485
154	0x3d9e2bbc	0.077231854
155	0xbd5534b8	-0.05205223
156	0x3c1438cc	0.009046745
157	0xbd0d3a78	-0.03447959
158	0x3d9ddbe5	0.07707957
159	0xbd947e5b	-0.07250663
160	0x3d844a9e	0.064595446
161	0x3c5029b4	0.012705255
162	0x3b3cc1b0	0.002880197
163	0x3d96e607	0.07368093
164	0x3d581d09	0.052762065
165	0x3d0bf113	0.034165453
166	0xbd26502c	-0.0406038
167	0x3dd40493	0.10352435
168	0x3db2de31	0.08733786
169	0x3c373104	0.01118112
170	0x3dd20f09	0.10256774
171	0xbdd6eb37	-0.104940824
172	0xbdc0416c	-0.09387478
173	0xbd77e344	-0.06051947
174	0x3cdab57a	0.026697863
175	0xbd37decc	-0.04489021
176	0xbd96e478	-0.07367796
177	0x3d7937e6	0.060844325
178	0xbd94cb3b	-0.07265326
179	0x3daaa5e3	0.08332422
180	0xbcc92b57	-0.024556799
181	0x3acad764	0.0015475568
182	0x3d85e4d2	0.06537785
183	0xbd422249	-0.047395978
184	0xbe098c28	-0.13432372
185	0xbd89d827	-0.06730681
186	0x3d02be96	0.03192004
187	0x3e1ee266	0.15516052
188	0xbdb08833	-0.08619728
189	0xbd21ff04	-0.039549842
190	0xbc7f9bab	-0.015601079
191	0xbcc4666e	-0.023974624
192	0xbc5ba256	-0.013405403
193	0xbc4898c5	-0.012243454
194	0x3da7a801	0.08186341
195	0xbcedab3a	-0.029012311
196	0xbd3923dc	-0.045200214
197	0xbc8130ec	-0.015770398
198	0xbd85c49e	-0.065316424
199	0xbd937d22	-0.072016016
200	0x3d4fabfd	0.05070113
201	0xbd851e35	-0.06499902
202	0xbd5e8657	-0.054327335
203	0x3d6a672f	0.05722731
204	0xbd84e08e	-0.06488143
205	0x3c38063b	0.011231954
206	0xbd350f04	-0.044203773
207	0xbc18bf83	-0.009323004
208	0xbcb8ec3e	-0.022573587
209	0xbcb415d9	-0.021983074
210	0xbd86fd5f	-0.065912955
211	0x3bfdf84c	0.0077505466
212	0x3b881bf4	0.004153723
213	0x3d92fe20	0.07177377
214	0x3dac37c8	0.08409077
215	0xbd97277d	-0.07380579
216	0x3be12862	0.006871269
217	0x3d9cf3f1	0.07663716
218	0xbc83b713	-0.016078508
219	0xbcf7c93d	-0.030247325
220	0xbd9ea6bb	-0.07746645
221	0x3d6d4099	0.057922933
222	0xbafbc639	-0.0019208855
223	0x3d058d7f	0.032605644
224	0xba300097	-0.0006713955
225	0x3d6435cd	0.05571537
226	0xbd956a1b	-0.07295629
227	0xbd23af0e	-0.039961867
228	0xbd5f0756	-0.054450355
229	0xbd417f98	-0.047240824
230	0xbe2bac64	-0.1676498
231	0xbd47a1d1	-0.048738305
232	0x3cc3e421	0.023912491
233	0x3d3c25c1	0.045934442
234	0x3cf46278	0.02983211
235	0xbd5ee965	-0.0544218
236	0xbcf5f0dc	-0.030022077
237	0x3dbbfd2d	0.09179149
238	0xbd4a3dfb	-0.049375515
239	0xbdbe4373	-0.09290209
240	0x3b82b5f6	0.0039889766
241	0x3d394699	0.045233343
242	0x3d6b309c	0.057419404
243	0x3d967651	0.07346786
244	0x3d831bfe	0.064018235
245	0xbccbe88e	-0.024891164
246	0xbc2d4364	-0.010575149
247	0xbc545a12	-0.012960928
248	0xbdaf9245	-0.085728206
249	0xbb6ce69d	-0.0036148198
250	0xbb3d869c	-0.0028919345
251	0x3d6e6c5a	0.0582088
252	0x3b93f89e	0.0045157215
253	0x3d6e3dba	0.058164336
254	0xbcd33cce	-0.02578583
255	0xbd38bdac	-0.04510276

convs.1.bias f4 [32]
0	0xbd57c48e	-0.052677684
1	0xbd657f57	-0.056029644
2	0xbcca315a	-0.024681736
3	0xbd41e3da	-0.047336437
4	0xbce42f64	-0.027854629
5	0xbdf69b7b	-0.12041374
6	0xbd9a8467	-0.07544785
7	0x3d102f92	0.035201617
8	0x3ca07fd9	0.019592213
9	0xbd0c2505	-0.034214992
10	0x3d61a329	0.055087242
11	0xbd91d273	-0.07120218
12	0xbda718db	-0.08159038
13	0x3d7eed45	0.062237997
14	0x3dd5833e	0.10425423
15	0x3de9cf29	0.11416466
16	0xbd2b90f9	-0.041886304
17	0x3da7136c	0.08158001
18	0x3d89689d	0.067094065
19	0x3d2473b6	0.040149413
20	0xbd25063a	-0.04028914
21	0xbd5a4519	-0.053288553
22	0xbbac5d41	-0.00526014
23	0xbda4f60c	-0.08054742
24	0xbd8057f5	-0.062667765
25	0x3d97c83f	0.07411241
26	0x3c568182	0.0130924005
27	0xbde15ec2	-0.11004402
28	0xbda6a8a5	-0.08137635
29	0x3c97c7db	0.018527916
30	0xbcf9d66f	-0.030497758
31	0x3d6892fb	0.056780796

convs.2.basis f4 [4, 32, 32]
0	0xbc109724	-0.008825097
1	0xbd0e525c	-0.034746513
2	0x3cf2cf54	0.029639877
3	0x3d5bc7de	0.053657405
4	0xbd8ab08f	-0.06771957
5	0xbbd9d4ba	-0.0066476734
6	0x3ddd557c	0.108073205
7	0x3cacf5ce	0.021113303
8	0xbc93c3eb	-0.018037757
9	0xbd0c337c	-0.034228787
10	0xbdab75f1	-0.08372105
11	0xb916fc1a	-0.0001439903
12	0x3d034b0a	0.032053985
13	0xbd871893	-0.06596484
14	0x3d39349d	0.04521619
15	0xbbc47a8d	-0.0059960545
16	0xbce1a2a4	-0.027543373
17	0x3d449934	0.04799767
18	0xbd702b07	-0.058634784
19	0x3d1e526e	0.03865283
20	0x3b054eeb	0.0020341228
21	0x3c10a641	0.0088287005
22	0x3d056915	0.032570917
23	0xbd8a9507	-0.06766706
24	0xbd3482fc	-0.04407023
25	0xbce72040	-0.02821362
26	0x3d3a1bcc	0.045436665
27	0xbcb73279	-0.022362934
28	0xbcb290a2	-0.021797482
29	0x3be99f9a	0.0071296217
30	0xbd0b3616	-0.033987127
31	0xbdd022a3	-0.101628564
32	0x3cf48bff	0.029851912
33	0x3dc02eb1	0.09383906
34	0xbc0a152f	-0.008427902
35	0xbce5b4c0	-0.02804029
36	0xbd2f901d	-0.042862047
37	0xbccbec21	-0.024892868
38	0xbdb2455d	-0.08704636
39	0x3cf552a3	0.02994663
40	0x3d50e375	0.05099817
41	0x3d54038d	0.0517612
42	0x3d402374	0.04690881
43	0xbd5cf1f9	-0.0539417
44	0xbcd2d194	-0.0257347
45	0x3ca62df7	0.02028559
46	0x3d9f25a4	0.07770851
47	0x3d699c0b	0.05703358
48	0xbd0c2721	-0.034217004
49	0x3c430fa4	0.0119055845
50	0xbd06f1b0	-0.032945335
51	0x3d249bfd	0.040187825
52	0x3c882d0a	0.016623039
53	0x3d62e040	0.055389643
54	0x3d607455	0.054798443
55	0xbd222ed9	-0.03959546
56	0x3c314406	0.010819441
57	0xbd446cbe	-0.047955267
58	0xbd342973	-0.04398484
59	0x3d84fb38	0.06493229
60	0x3d81e3b4	0.06342259
61	0xbd23f68f	-0.04003006
62	0xbcf577a7	-0.029964281
63	0x3d90a13a	0.070620015
64	0x3c8f6950	0.017506272
65	0x3b939de2	0.004504905
66	0xbd99556e	-0.074869975
67	0x3cf847e9	0.030307727
68	0xbd283347	-0.041064527
69	0xbdb39707	-0.087690406
70	0xbc166680	-0.009179711
71	0x3a0197be	0.0004943571
72	0xbd5f9428	-0.054584652
73	0x3deb562f	0.114910476
74	0x3d26f9a0	0.040765405
75	0x3d51d180	0.051225185
76	0xbcb42971	-0.021992417
77	0x3d9789d5	0.07399336
78	0x3d918c95	0.07106892
79	0xbd525823	-0.051353585
80	0xbd039d87	-0.03213265
81	0x3d6bf2b1	0.057604495
82	0x3d52c507	0.05145743
83	0xbcdf2ab9	-0.027242051
84	0x3c149ab2	0.009070085
85	0x3d94d7dd	0.07267735
86	0x3d712843	0.058876287
87	0xbd645c14	-0.055751875
88	0x3d6a3945	0.057183523
89	0xbc1bba56	-0.009504875
90	0xbda7a95b	-0.08186599
91	0x3d17d5cc	0.037069127
92	0xbc42efdf	-0.01189801
93	0x3d001840	0.031273127
94	0xba3f11c2	-0.0007288718
95	0x3d690ec1	0.056898836
96	0xbd804690	-0.06263459
97	0xbd9d59fc	-0.07683179
98	0x3d608383	0.05481292
99	0x3d1a8d9f	0.037732717
100	0x3d015d11	0.031582896
101	0x3c5407c5	0.0129413055
102	0x3d892a22	0.06697489
103	0x3dbec9fb	0.093158685
104	0xbda7405d	-0.08166573
105	0xbdf6827a	-0.12036605
106	0x3bfd48b7	0.0077296156
107	0x3d9c2f74	0.076262385
108	0x3cb42a1f	0.021992741
109	0xbd213f55	-0.03936704
110	0xbbe26dc0	-0.006910056
111	0x39cf150a	0.00039497792
112	0xbc74d9ee	-0.014944537
113	0xbd0de124	-0.03463854
114	0x3da331e7	0.079685025
115	0xbcebcb2e	-0.028783407
116	0xbcb79749	-0.022411006
117	0xbda71b1b	-0.08159467
118	0xbd78d3ee	-0.060748987
119	0x3d91eb66	0.07124977
120	0xbd587313	-0.05284412
121	0xbc8ee77d	-0.017444367
122	0xbd41ccd8	-0.047314495
123	0xbcc9b839	-0.024623977
124	0x3c75360e	0.014966501
125	0x3cb8539e	0.02250081
126	0xbdbfdc75	-0.09368221
127	0x3cc79be0	0.02436632
128	0x3d767324	0.0601684
129	0x3ce06e50	0.027396351
130	0xbd982468	-0.07428819
131	0xbd1e674b	-0.038672727
132	0x3ca772cb	0.02044048
133	0xbd82df81	-0.06390286
134	0xbda3e870	-0.08003318
135	0x3d8437fb	0.0645599
136	0xbd84f51a	-0.06492062
137	0xbd50994c	-0.050927445
138	0xbd664d3b	-0.056225996
139	0xbd053e20	-0.03252995
140	0x3b9150de	0.004434689
141	0xbc611487	-0.013737804
142	0x3d63cf47	0.055617597
143	0x3c86b609	0.016444223
144	0x3d07e64c	0.033178613
145	0x3c893ad6	0.016751688
146	0xbd3dfaca	-0.04638175
147	0x3d6b4dfe	0.057447426
148	0xbc670023	-0.014099154
149	0x3dcd8184	0.10034469
150	0xbcb7b29a	-0.022424031
151	0x3c449e51	0.012000636
152	0xbd13eb32	-0.03611297
153	0x3b9bc2a7	0.004753429
154	0xbc71790c	-0.0147383325
155	0xbd875c4f	-0.06609403
156	0x3d243c2a	0.04009644
157	0xbbf3e7ed	-0.007443419
158	0xbd55c5ff	-0.052190777
159	0xbc73c4f9	-0.014878505
160	0xbc0a2417	-0.008431456
161	0x3be078aa	0.006850322
162	0x3c6ce601	0.014459134
163	0x3d120e18	0.035657972
164	0xbd26c674	-0.040716603
165	0x3d5695b2	0.052388854
166	0x3dae68cb	0.085160814
167	0xb872b1c3	-5.786285e-05
168	0x3c4b462c	0.012406867
169	0x3d4ad798	0.049522012
170	0xbc96d9bd	-0.018414373
171	0xbb32f2ad	-0.002730529
172	0xbd259bbb	-0.04043172
173	0xbdb0fdf8	-0.08642191
174	0x3dab1158	0.083529174
175	0x3d6b1f67	0.057402994
176	0xbd7cceb6	-0.061720572
177	0x3da06bec	0.078330845
178	0x3d43bd7e	0.047788136
179	0x3d012046	0.03152492
180	0x3d2a83d4	0.041629627
181	0x3ac65872	0.001513256
182	0xbc8750e7	-0.01651807
183	0xbc71ce6b	-0.014758687
184	0x3d2db820	0.042411923
185	0x3c951d14	0.018202342
186	0x3cc32b14	0.023824252
187	0x3cebd3ca	0.028787512
188	0xbcbe30c8	-0.02321662
189	0x3cee92f1	0.029122801
190	0x3cca5fd4	0.024703898
191	0x3abcceeb	0.0014404928
192	0xbbd08626	-0.006363648
193	0x3bd237e2	0.006415353
194	0xbd9e75d5	-0.077373184
195	0x3d9623c4	0.073310405
196	0x3d9e32f8	0.07724565
197	0xbcad21be	-0.021134254
198	0xbb83d6e0	-0.004023418
199	0xbd887217	-0.06662386
200	0xbc161557	-0.009160361
201	0xbcc694fd	-0.024240965
202	0xbd375cd5	-0.044766266
203	0x3da1f0b8	0.079072416
204	0xbbd704a9	-0.006561835
205	0xbda36c26	-0.07979612
206	0x3c1a396a	0.009413103
207	0xbad64a57	-0.0016349059
208	0x3c849508	0.016184345
209	0x3d0f47a8	0.034980446
210	0xbbd52039	-0.0065040854
211	0x3cbf11e7	0.023323966
212	0x3c47be4b	0.0121913655
213	0xbb21a10b	-0.002466264
214	0x3d3f1f10	0.046660483
215	0xbd69aa03	-0.0570469
216	0x3d6981bc	0.05700849
217	0x3d859427	0.065223984
218	0xbc844387	-0.01614548
219	0xbca334c6	-0.019922625
220	0xbdc2c897	-0.09510916
221	0xbd683c2d	-0.056698013
222	0x3d26ddc4	0.040738836
223	0xbcfe08c2	-0.031010035
224	0x3dccd01e	0.10000633
225	0x3cd57eb0	0.026061386
226	0xbca29206	-0.01984502
227	0x3c46f58d	0.012143505
228	0x3c30e6e6	0.010797238
229	0xbc5611fd	-0.013065812
230	0xbc4100b0	-0.011779949
231	0xbc55265e	-0.013009636
232	0xbcdde943	-0.027088767
233	0x3d1a97d3	0.037742447
234	0x3ce84d07	0.028357042
235	0x3d999150	0.07498419
236	0x3c5161dc	0.012779679
237	0x3d9b258f	0.07575523
238	0x3d02d02a	0.031936802
239	0xbd34596d	-0.044030596
240	0xbd963e0e	-0.07336055
241	0x3d992d05	0.0747929
242	0xbce9b3c7	-0.028528107
243	0xbd6603a1	-0.056155805
244	0xbd5089f1	-0.0509128
245	0x3cb1953e	0.02167761
246	0x3b6987b4	0.0035633864
247	0xbce554f1	-0.027994605
248	0x3d843c35	0.06456796
249	0xbc72844f	-0.014802053
250	0xbcdb19dc	-0.02674573
251	0x3d0c17b8	0.034202307
252	0x3da3239c	0.07965776
253	0x3cfb8b48	0.030706063
254	0xbd4262c9	-0.04745749
255	0x3d12f329	0.035876427

convs.2.att f4 [10, 4]
0	0x3cf7ab92	0.030233178
1	0x3c8f6a7c	0.01750683
2	0x3cc55009	0.024086015
3	0x3cb55515	0.022135297
4	0x3cfcee78	0.03087543
5	0xbba6d1ce	-0.0050909286
6	0x3c073107	0.008251435
7	0x3c9033f5	0.0176029
8	0x3c925141	0.01786101
9	0xbc8f0aac	-0.017461143
10	0xbb83b167	-0.0040189507
11	0xb92ae3f5	-0.00016297384
12	0x3b1a1e4d	0.0023516596
13	0xbc136408	-0.008996017
14	0xbbf3cd93	-0.007440278
15	0xbb1295d9	-0.0022367148
16	0x3a658062	0.0008754787
17	0x3c15128c	0.00909866
18	0x3bb4acf4	0.0055137817
19	0xbc2f117d	-0.010685322
20	0xba907a43	-0.0011022765
21	0x3b76a9a0	0.0037637725
22	0x3b8a0c9d	0.0042129294
23	0xbc89c173	-0.016815877
24	0x3c0c7dfa	0.008574957
25	0x3b89aa4e	0.00420121
26	0xbad9261c	-0.0016567144
27	0x3c0743f5	0.008255948
28	0x3c1f9064	0.009739015
29	0xbc2d9f3d	-0.010597047
30	0xbbb1638a	-0.0054134773
31	0x3bf088fe	0.0073405495
32	0x3c0e9653	0.008702832
33	0xbb3be120	-0.002866812
34	0x3be682b4	0.007034624
35	0x3c58b1a7	0.013225949
36	0xbc908f6c	-0.017646514
37	0x3c24989e	0.010046152
38	0xbc3b4961	-0.011431069
39	0xbc95a36a	-0.018266398

convs.2.root f4 [32, 32]
0	0xbcd2f499	-0.025751399
1	0xbd9856dd	-0.07438443
2	0x3db511bb	0.088412724
3	0xbcee4e20	-0.029089987
4	0x3c718b72	0.014742719
5	0xbde1a13c	-0.11017081
6	0xbd5531d3	-0.05204947
7	0xbd77311d	-0.060349572
8	0x3d5b27b5	0.053504664
9	0xbd40dad1	-0.04708368
10	0x3d080803	0.033210766
11	0x3ce61e5c	0.028090648
12	0xbd03ad28	-0.032147557
13	0x3d88978e	0.06669532
14	0xbd8575ee	-0.06516634
15	0xbcfb1062	-0.03064746
16	0xbc111f6e	-0.008857591
17	0xbcfddaeb	-0.030988177
18	0x3cecbe18	0.028899238
19	0x3c39c676	0.011338821
20	0xbbcd8b90	-0.0062727407
21	0xbd02b89e	-0.031914346
22	0xbd406fdf	-0.04698169
23	0x3d1caad8	0.038248867
24	0xbdc6bdb0	-0.09704149
25	0x3bddad1f	0.0067650224
26	0x3cb2ace6	0.02181096
27	0x3b8a608e	0.004222936
28	0x3d1f8e56	0.0389541
29	0x3d1fe841	0.039039854
30	0xbd84d772	-0.064864054
31	0xbd121e4b	-0.03567342
32	0x3c2a4067	0.010391331
33	0xbce6600f	-0.028121976
34	0xbd95bc3e	-0.07311295
35	0x3d009e80	0.031401157
36	0xbcf40ca1	-0.029791178
37	0x3daadd23	0.0834296
38	0xbd8709f3	-0.065936945
39	0xbd88dc75	-0.06682674
40	0x3c9ad11e	0.018898543
41	0xbb8a0ea6	-0.004213172
42	0xbd82968b	-0.0637637
43	0x3d03ceeb	0.032179754
44	0x3ccbf473	0.024896836
45	0x3c953462	0.018213455
46	0x3cdcd570	0.026957244
47	0x3cc87086	0.024467718
48	0x3d26f2cf	0.040758904
49	0x3adef560	0.0017010383
50	0xbbe42356	-0.00696222
51	0xbd4bc5e5	-0.049749274
52	0xbcdcd58f	-0.026957301
53	0xbd0d203b	-0.034454565
54	0xbc523add	-0.012831417
55	0x3bff7a11	0.007796534
56	0xbd936041	-0.07196093
57	0xbd410a1c	-0.04712878
58	0x3d87be6d	0.06628118
59	0xbbe7c80d	-0.0070734085
60	0xbc45384f	-0.012037351
61	0xbc97bd31	-0.01852283
62	0xbd8e4fa1	-0.06948782
63	0xbccd97ce	-0.0250968
64	0xbdb50052	-0.08837952
65	0xbe1386d6	-0.14406905
66	0x3dd5a38a	0.10431583
67	0xbda08327	-0.07837515
68	0xbd506d13	-0.05088527
69	0xbde9c0fa	-0.114137605
70	0xbc8fd419	-0.01755719
71	0x3d6229e9	0.05521575
72	0x3c90820e	0.01764014
73	0xbd1321ec	-0.035921022
74	0x3ce23493	0.02761296
75	0xbc5a4628	-0.013322391
76	0xbd8032c9	-0.062596865
77	0xbdbe725b	-0.09299155
78	0x3b9946d4	0.004677633
79	0x3cf63b42	0.030057553
80	0xbd7e165c	-0.062033042
81	0x3d171774	0.0368876
82	0x3ce3c69b	0.027804663
83	0xbd6996c1	-0.057028536
84	0xbde98513	-0.11402335
85	0xbd23f654	-0.04002984
86	0xbd461080	-0.04835558
87	0x3d0bde14	0.034147337
88	0xbd3ef0de	-0.046616428
89	0x3d5dd798	0.054160684
90	0x3cc88784	0.024478681
91	0x3c37fc1b	0.01122954
92	0xb86e79d8	-5.6857098e-05
93	0xbcc93734	-0.024562456
94	0xbdea8af4	-0.114522845
95	0xbdd97635	-0.10618249
96	0x3cbdffb0	0.02319321
97	0xbd33623f	-0.043794867
98	0xbc8c065f	-0.017092882
99	0xbd442fa7	-0.047897007
100	0x3bd66e8e	0.006543941
101	0xbddd36c9	-0.10801465
102	0x3cb908a4	0.022587128
103	0xbd2c69e6	-0.04209318
104	0xbd38dc02	-0.04513169
105	0xbcd91e9e	-0.026503857
106	0x3d5d962c	0.054098293
107	0x3d3b1c4c	0.045681283
108	0xbd9a803d	-0.07543991
109	0xbcbaf0ca	-0.022819895
110	0xbcb11288	-0.021615282
111	0x3c36524b	0.011128019
112	0xbdabad24	-0.08382633
113	0x3cd34d04	0.02579356
114	0x3d09d75f	0.03365266
115	0xbd90b871	-0.070664294
116	0x3a82992e	0.0009963864
117	0xbdc6c66c	-0.09705815
118	0xbd2e1f8c	-0.042510554
119	0xbd426042	-0.04745508
120	0x3be8ef90	0.007108636
121	0x3c9a36a2	0.01882488
122	0x3cdb407f	0.026764153
123	0xbcb0736c	-0.021539412
124	0xbc53b52f	-0.0129216155
125	0x3cf75c6d	0.03019544
126	0xbd6429a3	-0.05570377
127	0x3cd80cd3	0.026373303
128	0xbb829f38	-0.0039862655
129	0x3d9904d5	0.07471625
130	0x3d62b74a	0.05535058
131	0x3d24be9b	0.040220838
132	0xbceedb43	-0.029157287
133	0xbcbd1db4	-0.023085453
134	0x3cb4f0e3	0.02208752
135	0x3d94fe8e	0.07275115
136	0xbd4aaf2d	-0.049483467
137	0x3b8f7c6c	0.004378846
138	0xbb268e3d	-0.002541437
139	0x3c5277fa	0.012845987
140	0x3d5d0fef	0.053970274
141	0x3cc960aa	0.024582226
142	0xbd1993f2	-0.037494607
143	0x3c810a26	0.01575191
144	0x3cda7ae6	0.02666993
145	0x3d965c24	0.07341793
146	0x3da58b5c	0.08083221
147	0xbd5cb1b5	-0.053880412
148	0x3d5b75e7	0.053579237
149	0xbd3a6525	-0.045506615
150	0x3db88baf	0.090110175
151	0x3cae3f9a	0.021270562
152	0xbc698650	-0.014253214
153	0xbd73a5ab	-0.059484165
154	0xbc3bd4eb	-0.011464338
155	0x3d16dbe7	0.03683081
156	0x3c6c10dc	0.014408316
157	0x3b19b52b	0.0023453932
158	0x3cb11e47	0.021620883
159	0xbcc8418a	-0.024445314
160	0xbd579f31	-0.05264205
161	0xbdd9f048	-0.10641533
162	0xbd551af9	-0.052027676
163	0x3d369a9e	0.04458105
164	0x3cbbe735	0.022937397
165	0x3c8bc9b3	0.017063951
166	0xbd92237c	-0.07135674
167	0xbd08e4e3	-0.03342141
168	0x3d26df92	0.040740557
169	0x3d14b08b	0.036301177
170	0x3d879e9d	0.0662205
171	0xbab14595	-0.0013524765
172	0x3bc72a66	0.0060780523
173	0xbd3678b9	-0.044548724
174	0xbd048dff	-0.03236198
175	0xbd320580	-0.043462276
176	0x3c2b77dc	0.010465588
177	0x3d008c62	0.03138388
178	0x3c23d6de	0.009999959
179	0xbd529763	-0.051413905
180	0xbcf12644	-0.029437192
181	0xbd997b1a	-0.07494183
182	0x3c15432e	0.009110255
183	0xbd677625	-0.056509156
184	0xbd106bb3	-0.03525896
185	0xbc8f5a51	-0.01749912
186	0x3dad76c7	0.084699206
187	0xbd3cc144	-0.04608275
188	0x3c45d35e	0.01207432
189	0xbc6a0b9f	-0.014284997
190	0x3d19779a	0.037467577
191	0xbc6a475f	-0.014299243
192	0x3c3272b2	0.010891603
193	0x3df83fb7	0.12121528
194	0xbde9e8d5	-0.11421362
195	0x3e0efb54	0.13963062
196	0x3d457f71	0.04821724
197	0x3dcdd0a5	0.100495614
198	0xbc482beb	-0.012217502
199	0x3d1b912c	0.037980244
200	0x3d5026e1	0.050818328
201	0x3d28ec95	0.041241247
202	0xbe18990a	-0.1490213
203	0xbde60af1	-0.11232556
204	0x3c9a68bf	0.018848775
205	0xbc15ed42	-0.009150805
206	0xbd2c97e8	-0.042137057
207	0xbc0f1587	-0.00873316
208	0x3d96cfe7	0.07363873
209	0x3d334711	0.043768946
210	0xbd28454c	-0.04108171
211	0x3d69b7f6	0.057060204
212	0x3ddc33dc	0.10752079
213	0x3e5a64ef	0.21327566
214	0x3ced324e	0.028954651
215	0x3c8989c3	0.016789323
216	0x3e2a856d	0.1665246
217	0xbd5de571	-0.05417389
218	0xbd853744	-0.06504682
219	0xbd5f476d	-0.054511476
220	0xbcc9c659	-0.024630712
221	0xbc98d259	-0.01865499
222	0x3d8b7991	0.06810296
223	0x3d3803de	0.044925563
224	0xbc98f80c	-0.018672965
225	0xbcbd1724	-0.023082323
226	0xbad391c6	-0.0016141466
227	0x3c989e15	0.018630067
228	0x3c73fe5d	0.014892188
229	0xbd2ef28b	-0.042711776
230	0xbcb6c169	-0.022309022
231	0xbbe56fbb	-0.0070018447
232	0x3d81261d	0.06306098
233	0xbc7f61e9	-0.015587308
234	0xbc9e755a	-0.019343067
235	0x3c2a9d1c	0.010413434
236	0xbc581522	-0.013188632
237	0x3c690cec	0.014224272
238	0xbd20e1a8	-0.039277703
239	0xbd6eb325	-0.058276314
240	0xbd125ef6	-0.035735093
241	0x3d0094e3	0.03139199
242	0x3d2e42df	0.042544242
243	0x3c9ff1c7	0.019524468
244	0xbbb930fa	-0.0056515904
245	0xbd981744	-0.074263126
246	0xbd53b1c3	-0.0516832
247	0x3d07968d	0.03310256
248	0xbd1123b5	-0.035434444
249	0xbb075c8f	-0.0020654534
250	0xbbf0c7fd	-0.007348059
251	0xbc28c143	-0.010299983
252	0x3c513ae4	0.012770388
253	0xbca0ad22	-0.019613806
254	0x3a8b19af	0.0010612513
255	0x3c42157f	0.011845945

convs.2.bias f4 [32]
0	0xbc6ce881	-0.01445973
1	0xbd3dfbe4	-0.0463828
2	0x3d575344	0.052569643
3	0xbda4ee2a	-0.08053239
4	0xbca09db1	-0.019606443
5	0xbdb45a7c	-0.08806321
6	0x390a65b0	0.00013198587
7	0xbd6bd411	-0.05757529
8	0xbd374f2c	-0.04475324
9	0xbcb8e33a	-0.022569288
10	0x3daabd11	0.08336843
11	0x3d98eeae	0.074673995
12	0xbd24915f	-0.0401777
13	0x3c5ac2fa	0.01335215
14	0x3ca026a3	0.019549673
15	0x3d44d71d	0.04805671
16	0xbd7cb112	-0.061692305
17	0xbd18cd9d	-0.037305463
18	0x3d15f067	0.03660622
19	0xbd67734f	-0.05650645
20	0xbd80641c	-0.06269094
21	0xbdcc6024	-0.09979275
22	0xbd112207	-0.03543284
23	0xbc9cab36	-0.019124608
24	0xbd857aff	-0.065176
25	0x3d5875e2	0.052846797
26	0x3cb22896	0.021747869
27	0x3d14d964	0.036340132
28	0x3cc6be1c	0.024260573
29	0x3c302cc3	0.0107528595
30	0xbd694d91	-0.05695874
31	0xbbb7d75c	-0.0056103896

convs.3.basis f4 [4, 32, 32]
0	0xbc6be9df	-0.014399021
1	0x3d8ebac9	0.0696922
2	0xbd6ab36f	-0.057300027
3	0x3d260af6	0.040537797
4	0x3bfcc891	0.007714339
5	0xbcda626b	-0.026658257
6	0x3d7e004e	0.06201201
7	0x3d5a153f	0.053242918
8	0xbb2c5ee5	-0.0026301679
9	0xbd565987	-0.052331474
10	0xbd7a665e	-0.06113278
11	0x3dd62216	0.1045572
12	0xbda47827	-0.0803073
13	0x3cc1843b	0.023622623
14	0x3d4186f9	0.04724786
15	0xbd4b8d52	-0.04969532
16	0xbcad9bdd	-0.021192485
17	0x3af3ebcd	0.0018609703
18	0x3c6f0dd7	0.014590702
19	0x3c8467ad	0.016162718
20	0x3ccd978e	0.025096681
21	0x3d3d1032	0.046158023
22	0x3dc36a06	0.09541707
23	0x3d61084a	0.054939546
24	0x3dc1e233	0.09466972
25	0xbc8cc9de	-0.017186102
26	0xbdd1584e	-0.10221921
27	0xbde28868	-0.11061174
28	0x3ca9480e	0.020664241
29	0xbdc52c0c	-0.09627542
30	0x3d113b38	0.035456866
31	0xbc17a307	-0.009255177
32	0x3db86c18	0.09004992
33	0xbdbc47d0	-0.09193385
34	0x3d165bab	0.036708515
35	0x3d501400	0.050800323
36	0x3ceb86a5	0.028750727
37	0x3d16ada0	0.036786675
38	0xbda87c4d	-0.082268335
39	0x3ccea835	0.025226692
40	0x3e0877cc	0.13326949
41	0x3c865fe4	0.016403146
42	0xbc726317	-0.014794133
43	0x3d7e6b34	0.062113956
44	0xbccb871e	-0.024844702
45	0x3d8a2c96	0.06746785
46	0xbd56a198	-0.0524002
47	0x3d818917	0.06324976
48	0xbd2bf35e	-0.04198014
49	0xbcf9505d	-0.030433828
50	0x3cf64131	0.030060383
51	0x3bebb19f	0.007192805
52	0x3dab7164	0.08371237
53	0xbd65472b	-0.055976074
54	0xbc4e9301	-0.012608291
55	0xbd3a961a	-0.045553304
56	0xbd534e7d	-0.051588524
57	0x3da37efb	0.07983204
58	0xbd407e37	-0.046995368
59	0x3d82cfc7	0.06387287
60	0xbcccf834	-0.025020696
61	0x3d97acd1	0.07406009
62	0x3d8880f5	0.066652216
63	0xbdd4dff8	-0.10394281
64	0xbd840f1b	-0.06448194
65	0xbcf2971f	-0.029613076
66	0x3d093088	0.03349355
67	0xbcea0f29	-0.028571682
68	0xbce9ac30	-0.028524488
69	0x3d65748c	0.05601935
70	0x3db6754a	0.0890909
71	0xbcc0a205	-0.023514757
72	0xbdd01ebe	-0.101621136
73	0xbd7c15fa	-0.061544396
74	0xbd55198f	-0.052026328
75	0x3cc6e8b7	0.024280889
76	0x3a923594	0.0011154884
77	0x3b637718	0.0034708437
78	0x3da8da41	0.08244754
79	0x3d767e10	0.060178816
80	0xbce65707	-0.02811767
81	0xbc8b461a	-0.0170012
82	0xbc0b068a	-0.008485446
83	0xbc415280	-0.011799455
84	0xbc54cfb0	-0.01298897
85	0x3d8f6674	0.07001963
86	0x3c13dc10	0.009024635
87	0x3d435ab6	0.04769393
88	0xbb9573d0	-0.004560925
89	0x3d42b480	0.04753542
90	0xbcfdbaa0	-0.030972779
91	0xbb3fb746	-0.0029253527
92	0x3d85e427	0.06537657
93	0xbdcdbf85	-0.10046295
94	0x3d441ee8	0.047881037
95	0x3c8475b4	0.016169406
96	0x3c36b327	0.011151112
97	0x3d1cca49	0.03827885
98	0x3c72fc0a	0.014830599
99	0x3d74c4da	0.059758045
100	0x3cd79538	0.02631627
101	0x3c2450de	0.010029046
102	0xbd5d9c13	-0.054103922
103	0xbbf686f7	-0.0075234133
104	0xbbdb55a1	-0.0066935574
105	0x3d872976	0.06599705
106	0xbb0c4ad3	-0.0021406903
107	0xbc9ea669	-0.01936646
108	0xbd8b60ff	-0.0680561
109	0x3d5926a5	0.05301537
110	0xbc2b5c3a	-0.010459
111	0xbd8f1961	-0.069872625
112	0xbc8aa06e	-0.016922202
113	0x3d446b44	0.04795386
114	0xbd34bac9	-0.044123445
115	0x3d80ad1a	0.062830165
116	0xbdc049bc	-0.09389064
117	0xbd611013	-0.05494697
118	0x3c1b5a35	0.009481956
119	0xbd81be1a	-0.06335087
120	0x3cce40f5	0.025177458
121	0x3d130676	0.035894834
122	0xbd796cd5	-0.060894806
123	0xbd32acc2	-0.043621786
124	0x3dc638e4	0.0967882
125	0x3d3c50c6	0.04597547
126	0x3cb3c8a0	0.021946251
127	0xbde127d9	-0.109939285
128	0xbca764ca	-0.020433802
129	0xbc3b86a7	-0.011445678
130	0xbc267055	-0.010158618
131	0xbd03ace8	-0.032147318
132	0x3d26cbcc	0.0407217
133	0xbc9d23c8	-0.0191821
134	0xbd265768	-0.0406107
135	0xbd747190	-0.059678614
136	0x3da41745	0.08012251
137	0x3b43deeb	0.0029887508
138	0x3d802ee3	0.06258943
139	0xbb9129fb	-0.0044300533
140	0xbce20ed5	-0.027594963
141	0xbcb2635a	-0.02177589
142	0xbd142519	-0.03616819
143	0xbcd968f0	-0.026539296
144	0xbd0ecf30	-0.03486556
145	0x3d2f000f	0.042724665
146	0xbd25622a	-0.04037682
147	0xbc121957	-0.008917174
148	0xbd0907cc	-0.0334547
149	0xbd20fd8c	-0.0393043
150	0xbd1839a9	-0.037164364
151	0x3d6aba56	0.05730661
152	0xbd8d6292	-0.069035664
153	0xbd87b789	-0.066268034
154	0xbd0e56c2	-0.034750707
155	0xbce30aa4	-0.027715035
156	0x3cb97367	0.022638036
157	0x3d086e7a	0.033308484
158	0x3c38d60a	0.0112815
159	0xbd99683a	-0.07490583
160	0x3cf24890	0.029575616
161	0xbd934823	-0.07191493
162	0xbd9e76ee	-0.07737528
163	0xbcb0bac4	-0.021573432
164	0x3d1e8cd6	0.03870853
165	0x3bc5090d	0.006013042
166	0x3cb2d5ca	0.021830458
167	0x3cb852d9	0.022500442
168	0x3d990f0c	0.07473573
169	0xbc12a1d0	-0.008949712
170	0x3d4cd764	0.0500101
171	0xbd8eba6f	-0.06969153
172	0x3d19dbe4	0.03756322
173	0x3d8f0776	0.06983845
174	0x3d5190ff	0.05116367
175	0xbc73fc12	-0.014891641
176	0x3bb9d62d	0.0056712837
177	0xbc873f38	-0.016509637
178	0xbd344307	-0.044009235
179	0xbceb132f	-0.02869567
180	0xbc2c9552	-0.010533648
181	0x3d17ff09	0.037108455
182	0xbb393e1c	-0.002826578
183	0xbc4b667c	-0.012414571
184	0x3cbf504d	0.02335372
185	0xbc9e1824	-0.01929862
186	0xbd0ec666	-0.034857176
187	0xbcae5b57	-0.021283789
188	0x3b8dca22	0.0043270746
189	0xbb12bc7c	-0.0022390177
190	0x3d4fffa2	0.0507809
191	0xbde7f2e7	-0.11325627
192	0xbd8c5a3b	-0.068531476
193	0x3bb75a3d	0.005595474
194	0x3d398378	0.045291394
195	0xbcf28a7d	-0.029607052
196	0x3cb2b266	0.021813583
197	0x3c845a3e	0.016156312
198	0xbda7055f	-0.08155321
199	0x3d27c6c7	0.040961053
200	0xbd726a77	-0.059183564
201	0x3cf6f563	0.030146306
202	0xbca54a10	-0.020176917
203	0x3c5c289f	0.013437419
204	0x3c45f519	0.012082362
205	0xbd762b47	-0.060099866
206	0x3d7d1577	0.06178805
207	0x3c93aaa4	0.018025704
208	0x3d275b92	0.040858813
209	0xbcd8f6c2	-0.02648485
210	0x3a7b659b	0.00095900305
211	0x3cdf2e29	0.02724369
212	0x3c207b1f	0.009794979
213	0x3c2b1fba	0.010444576
214	0x3be0a342	0.0068553993
215	0xbd845340	-0.06461191
216	0xbd0beca1	-0.034161214
217	0xbcac671f	-0.021045266
218	0xbb1cea0a	-0.002394321
219	0xbd911ac6	-0.07085185
220	0xbd39f6de	-0.045401447
221	0xbd37fad5	-0.044916946
222	0xbcb29340	-0.02179873
223	0x3da19883	0.078904174
224	0x3dad4254	0.08459917
225	0xbd36a234	-0.044588283
226	0xbb17cd3e	-0.0023163105
227	0x3cab7414	0.020929374
228	0x3cad7242	0.021172646
229	0xbc24a19e	-0.010048298
230	0xbcff5c7c	-0.03117203
231	0xbcbeb85e	-0.023281273
232	0x3dd0e026	0.10199003
233	0xbba7ceb7	-0.005121078
234	0x3cd5029d	0.026002223
235	0x3cb6d73f	0.022319434
236	0x3c8412aa	0.016122181
237	0x3cd93457	0.026514215
238	0x3d393e95	0.0452257
239	0x3cb3897f	0.02191615
240	0x3d7185c1	0.05896545
241	0x3d96da03	0.07365801
242	0x3d8da44b	0.06916102
243	0xbcd066e8	-0.025439695
244	0x3cffa181	0.03120494
245	0x3d77dfd8	0.06051621
246	0x3d7a75a3	0.061147343
247	0x3d5a6def	0.053327497
248	0xbd1045f7	-0.035222974
249	0x3dbbeb34	0.09175721
250	0x3cca81e1	0.024720134
251	0xbc05aaba	-0.00815838
252	0x3d2dc65e	0.042425506
253	0x3bdb1dfd	0.0066869245
254	0x3dbccb38	0.092184484
255	0xbd6c0ee7	-0.0576314
