results/flixster_testmode/model_checkpoint18.pth (torch_old, 199981 bytes, 19 tensors)

convs.0.basis f4 [4, 4, 32]
0.09619378 -0.021860195 0.07013319 0.07072638 -0.054609604 0.20938066 -0.10694946 -0.12548968
0.111986905 -0.176746 0.14088835 -0.15671384 -0.21539645 0.12873977 0.1414035 -0.09151892
-0.048880592 -0.08367288 -0.21500118 0.002724114 0.028884772 0.17612648 0.060865983 -0.088244535
0.06889882 -0.15368412 0.09789043 0.047381915 0.14747524 0.27873728 -0.24523646 0.020489555
-0.17978972 -0.12632678 -0.12097501 -0.018700542 -0.017744055 0.26490602 -0.0798034 -0.08518359
-0.23534964 -0.10340561 0.113772094 -0.21610191 -0.056654003 0.0015132009 0.006218486 -0.12375551
-0.11013796 -0.22114898 0.11151109 -0.12480563 -0.19334379 0.12755048 -0.09654851 -0.08078406
0.040177185 -0.06485256 0.012672098 0.03972884 0.11971521 0.12848109 -0.21520084 0.021197433
-0.08026851 -0.11648833 0.08963967 0.14510688 0.016858473 -0.12989937 0.074636176 -0.23982404
-0.29906338 -0.058598474 -0.03792594 0.07419738 0.23517443 0.04591436 0.0442393 -0.17398593
0.05104908 -0.06899945 0.115088694 0.13179214 0.06998916 0.09577062 -0.59147847 -0.42329293
-0.33909228 0.016124109 -0.12551504 -0.011750589 -0.084658615 0.054874733 0.017689396 0.08578703
0.13961537 -0.021209883 -0.02141788 -0.09845188 -0.17585212 -0.28634182 -0.037083473 0.0033241357
0.35616246 0.46736008 0.4787576 0.15164344 0.10061663 0.05156786 -0.08868541 -0.038884338
-0.35083836 -0.14264289 -0.095122494 -0.010389884 -0.034181252 -0.45263538 -0.13399796 0.0778544
-0.07832919 0.16182698 -0.17577673 -0.17096736 0.0014883551 0.15936401 0.13784096 0.067099184
0.020860992 -0.018447066 0.03764949 0.09145708 -0.08304955 0.16826165 -0.027728017 -0.07417865
-0.014134169 -0.13710131 0.06694469 -0.04617606 -0.15410995 0.08227394 0.14707084 -0.17485759
-0.082036644 -0.080651276 -0.111399636 -0.039053787 0.008687045 0.17123422 0.115563996 -0.113647506
0.057879914 -0.10303529 0.096170574 0.017238425 0.056551214 0.21577016 -0.1912644 0.021375714
-0.12208192 -0.05388455 -0.14604628 0.06329993 -0.019952511 0.19772594 -0.09301388 -0.01583377
-0.116899475 -0.09389103 0.10719638 -0.22396615 -0.074721515 -0.008772213 0.08882451 -0.062306594
-0.12114111 -0.16945001 0.021062579 -0.048715245 -0.15573741 0.102781706 -0.0017735437 -0.034156773
0.08769514 -0.07022687 0.036137782 0.03490259 0.10730259 0.18792956 -0.1702448 0.035978008
-0.033643205 -0.007035005 -0.10536644 0.059668746 0.071974844 0.13252135 0.033641182 -0.17367844
-0.52568114 0.037815522 -0.15774 -0.08149646 0.24568994 -0.0074866284 -0.18860869 -0.24851848
0.19413707 -0.06042075 0.13714261 0.1519015 -0.13342103 -0.070676014 -0.58099556 -0.4003954
-0.28482807 0.036750887 0.05767202 -0.06812043 -0.020738967 -0.044054683 -0.02827268 0.0028790252
-0.00699903 0.16573681 0.0049327607 0.017412415 0.14283067 -0.16405526 0.033376046 -0.18524764
0.23770207 0.3574024 0.36591893 -0.4619828 -0.14124581 -0.050504956 -0.10369235 0.04428552
-0.21532185 -0.1696848 -0.17935026 -0.06369033 0.015391515 -0.3588966 0.21894182 0.059942298
0.09524387 0.12190766 0.13299358 -0.023657158 -0.0023291497 0.10953546 -0.13008565 -0.1405242
00000000: 3f01 c53d 2714 b3bc fda1 8f3d fed8 903d
00000010: 52ae 5fbd e267 563e 5208 dbbd 5e80 00be
00000020: 6459 e53d e7fc 34be 0945 103e 9879 20be
00000030: e390 5cbe 5cd4 033e 14cc 103e 466e bbbd
00000040: 0437 48bd b05c abbd 4529 5cbe 0d87 323b
00000050: c29f ec3c 805a 343e 9c4e 793d 8db9 b4bd
00000060: d31a 8d3d 5f5f 1dbe c77a c83d 8a13 423d
00000070: c003 173e a7b6 8e3e 441f 7bbe b6d9 a73c
00000080: cc1a 38be cf5b 01be bfc1 f7bd e131 99bc
00000090: fb5b 91bc c3a1 873e f76f a3bd bc74 aebd
000000a0: 7fff 70be 52c6 d3bd 5801 e93d d249 5dbe
000000b0: 070e 68bd 9956 c63a 71c4 cb3b 8773 fdbd
000000c0: 0390 e1bd e174 62be ed5f e43d 189a ffbd
000000d0: eafb 45be 989c 023e 3abb c5bd 1d72 a5bd
000000e0: d590 243d 6bd1 84bd a29e 4f3c b5ba 223d
000000f0: 3f2d f53d 8c90 033e 9c5d 5cbe 3da6 ad3c
00000100: d163 a4bd 6f91 eebd 0195 b73d e696 143e
00000110: c81a 8a3c 5704 05be dada 983d 6f94 75be
00000120: d61e 99be f404 70bd 3b58 1bbd ccf4 973d
00000130: 91d1 703e b210 3c3d 4534 353d 5e29 32be
00000140: d718 513d 954f 8dbd 9fb3 eb3d 85f4 063e
00000150: 7a56 8f3d 6323 c43d 226b 17bf dab9 d8be
00000160: 819d adbe b516 843c 0487 00be 8b85 40bc
00000170: 7f61 adbd 54c4 603d 5ae9 903c 1cb1 af3d
00000180: 55f7 0e3e 59c0 adbc 8d74 afbc 24a1 c9bd
00000190: 9412 34be 659b 92be d7e4 17bd bed9 593b
000001a0: ed5a b63e d249 ef3e b71f f53e 6b48 1b3e
000001b0: 1710 ce3d d238 533d b2a0 b5bd 2f45 1fbd
000001c0: 16a1 b3be fa10 12be 95cf c2bd 553a 2abc
000001d0: a401 0cbd d3bf e7be c336 09be 2172 9f3d
000001e0: 0e6b a0bd f9b5 253e d1fe 33be 1112 2fbe
000001f0: e914 c33a 5230 233e 2e26 0d3e 4c6b 893d
00000200: ace4 aa3c 4d1e 97bc 5a36 1a3d d94d bb3d
00000210: e215 aabd c84c 2c3e de25 e3bc faea 97bd
00000220: 0093 67bc 4964 0cbe 4c1a 893d 1c23 3dbd
00000230: 00cf 1dbe 3d7f a83d bd99 163e de0d 33be
00000240: d402 a8bd 7f2c a5bd 7e25 e4bd ddf6 1fbd
00000250: 1c54 0e3c 0658 2f3e d1ac ec3d 06c0 e8bd
00000260: 7d13 6d3d 2b04 d3bd 14f5 c43d 9937 8d3c
00000270: 3fa2 673d daf2 5c3e d1da 43be 1f1c af3c
00000280: 1606 fabd 0cb6 5cbd 288d 15be 65a3 813d
00000290: 7373 a3bc ab78 4a3e 107e bebd d3b5 81bc
000002a0: fe68 efbd f149 c0bd c789 db3d 6257 65be
000002b0: 9807 99bd 54b9 0fbc a0e9 b53d 3335 7fbd
000002c0: d518 f8bd 4e84 2dbe 6e8b ac3c a389 47bd
000002d0: a179 1fbe 377f d23d 4076 e8ba f9e7 0bbd
000002e0: 8299 b33d 1bd3 8fbd 3605 143d 05f6 0e3d
000002f0: 76c1 db3d 9b70 403e a754 2ebe ad5d 133d
00000300: 75cd 09bd e685 e6bb 5cca d7bd 3767 743d
00000310: 8c67 933d adb3 073e 56cb 093d c3d8 31be
00000320: 0a93 06bf 73e4 1a3d 9886 21be 9ee7 a6bd
00000330: 2596 7b3e 6452 f5bb a322 41be a17b 7ebe
00000340: decb 463e c07b 77bd 1d6f 0c3e 118c 1b3e
00000350: 869f 08be 96be 90bd 20bc 14bf a000 cdbe
00000360: fcd4 91be 1988 163d 7f39 6c3d b982 8bbd
00000370: c4e4 a9bc af72 34bd 1b9c e7bc 07ae 3c3b
00000380: 1e58 e5bb e9b6 293e ffa2 a13b 7ba4 8e3c
00000390: 3442 123e 1afe 27be 52b5 083d 8fb1 3dbe
000003a0: 2c68 733e 73fd b63e ba59 bb3e 0289 ecbe
000003b0: bea2 10be 49de 4ebd a85c d4bd bc64 353d
000003c0: 557d 5cbe dac1 2dbe 98a7 37be 1370 82bd
000003d0: b12c 7c3c 4cc1 b7be 4932 603e 0e86 753d
000003e0: 380f c33d b9aa f93d 782f 083e a8cc c1bc
000003f0: a6a4 18bb 2154 e03d 2c35 05be 93e5 0fbe

convs.0.att f4 [10, 4]
-0.09540717 -0.17226586 0.25843638 0.11996525 -0.13943245 -0.05960838 0.26086968 0.062372245
-0.197606 0.12231886 0.2691296 0.069023065 -0.17997803 0.1916735 0.2937859 0.048691384
0.00066672807 0.03390715 0.2710976 0.13657916 -0.054954883 0.23442863 0.29496238 0.14409873
0.0010215812 0.23276171 0.1980693 0.10744349 0.09178939 0.22279027 0.164977 0.099728286
0.17577115 0.19239804 0.09290084 0.006803111 0.33113602 0.1476997 0.050134677 -0.11935361
00000000: d664 c3bd 7666 30be c651 843e 57b0 f53d
00000010: 61c7 0ebe eb27 74bd b690 853e 0a7a 7f3d
00000020: 3a59 4abe 4f82 fa3d 5bcb 893e f75b 8d3d
00000030: 294c 38be 0f46 443e 1b6b 963e 9e70 473d
00000040: 5dc7 2e3a 39e2 0a3d 4ecd 8a3e 68db 0b3e
00000050: 5f18 61bd 0f0e 703e 4f05 973e 9e8e 133e
00000060: 94e6 853a 1659 6e3e aed2 4a3e 550b dc3d
00000070: 13fc bb3d 2223 643e bbef 283e 583e cc3d
00000080: 5afd 333e fe03 453e cc42 be3d a2ec de3b
00000090: a98a a93e 973e 173e 055a 4d3d aa6f f4bd

convs.0.root f4 [4, 32]
-0.07462964 0.025786277 0.025646778 0.16844489 0.13960615 0.0037347255 -0.11864694 -0.26280028
0.2202006 0.39504763 0.34511346 -0.07333743 0.06903817 0.16306229 -0.10846465 -0.071536355
-0.19619597 0.19352876 0.042667534 -0.22700864 0.08256617 -0.12099288 0.080687426 0.22820653
-0.025275303 0.21663386 -0.038391788 -0.27883184 0.10703604 -0.2482862 0.060424533 -0.18467367
0.15615152 0.21481223 -0.24088474 0.14643018 -0.120144956 -0.18349996 -0.08078108 -0.24425577
0.021368477 -0.22790907 0.14508955 0.18267137 0.31488165 0.23812045 -0.14448053 0.29999205
0.0068245204 0.09677125 0.07645121 -0.11026985 -0.043845132 -0.23332734 -0.20459373 -0.37127218
-0.25518748 -0.03469215 0.21094625 0.09122578 0.14261469 -0.079703145 0.25925174 0.2751448
-0.03998401 0.13914604 0.043543875 -0.054721463 -0.14481297 -0.17644106 -0.13098067 -0.1047744
-0.10190276 -0.015987761 -0.21188314 -0.010717594 0.024803534 0.19022271 -0.016946658 -0.048637617
-0.13239789 -0.11382712 -0.16007909 0.18094388 -0.026094938 0.13199177 -0.13951221 0.068618625
0.050720003 0.07550383 0.09229942 -0.031798895 -0.13713095 -0.12665269 0.03385961 0.005686008
-0.10876931 -0.040883217 -0.05052461 0.22179681 0.0038909118 -0.04426344 -0.030513657 -0.1552928
-0.16079529 0.12707908 -0.07837715 -0.17450309 0.14043936 0.11777553 0.04714952 0.026723206
0.023928137 -0.16675465 -0.056236833 0.14627269 -0.104501985 0.11330167 -0.18411253 -0.13455823
-0.030501308 0.10324789 -0.019053467 -0.01833242 -0.19648401 -0.08117503 -0.11068873 -0.104159735
00000000: 6dd7 98bd be3d d33c 3119 d23c d17c 2c3e
00000010: eaf4 0e3e 4cc2 743b 2bfd f2bd c28d 86be
00000020: 447c 613e af43 ca3e b6b2 b03e ef31 96bd
00000030: e263 8d3d cdf9 263e b722 debd a781 92bd
00000040: 99e7 48be 672c 463e 27c4 2e3d f474 68be
00000050: 7418 a93d 1dcb f7bd 733f a53d f9ae 693e
00000060: 270e cfbc 44d5 5d3e b540 1dbd 0cc3 8ebe
00000070: b635 db3d bd3e 7ebe b77f 773d 181b 3dbe
00000080: 2fe6 1f3e bdf7 5b3e 7daa 76be cbf1 153e
00000090: 8f0e f6bd 6ae7 3bbe 8d70 a5bd 2f1e 7abe
000000a0: f20c af3c ff60 69be 5b92 143e 340e 3b3e
000000b0: 2b38 a13e d9d5 733e b4f2 13be 8f98 993e
000000c0: 3aa0 df3b 0130 c63d 7492 9c3d 29d5 e1bd
000000d0: f496 33bd 5ded 6ebe 0581 51be 6317 bebe
000000e0: efa7 82be 5b19 0ebd 4b02 583e 95d4 ba3d
000000f0: 9609 123e 673b a3bd a5bc 843e c7df 8c3e
00000100: 46c6 23bd 4d7c 0e3e 105b 323d 9d23 60bd
00000110: da49 14be f7ac 34be cc1f 06be f693 d6bd
00000120: 65b2 d0bd c4f8 82bc e5f7 58be d998 2fbc
00000130: c830 cb3c bec9 423e b8d3 8abc 3d38 47bd
00000140: 5093 07be 311e e9bd c6eb 23be 5a49 393e
00000150: 0dc5 d5bc da28 073e 4adc 0ebe ec87 8c3d
00000160: c7bf 4f3d c1a1 9a3d 7a07 bd3d 8f3f 02bd
00000170: 0e6c 0cbe 3eb1 01be 60b0 0a3d b151 ba3b
00000180: 72c2 debd 2975 27bd e5f2 4ebd b41e 633e
00000190: abfe 7e3b 954d 35bd c7f7 f9bc 1305 1fbe
000001a0: 85a7 24be 0521 023e 3384 a0bd f0b0 32be
000001b0: 56cf 0f3e 4c34 f13d db1f 413d a0ea da3c
000001c0: f104 c43c bbc1 2abe 9858 66bd 82c8 153e
000001d0: 2305 d6bd b50a e83d ff87 3cbe a2c9 09be
000001e0: e1dd f9bc a173 d33d 0416 9cbc df2d 96bc
000001f0: 1b33 49be 183f a6bd c6b0 e2bd b351 d5bd

convs.0.bias f4 [32]
0.13712524 0.0072740926 0.11881917 -0.23973185 0.12739937 -0.013768236 0.106623404 0.12658677
0.17717485 -0.026142443 0.03191547 0.20708336 -0.066656895 -0.17140475 -0.21661235 0.061591785
0.100365624 0.21526262 0.18779261 -0.105519764 0.07837267 -0.2760546 0.16269206 0.020811332
0.009697006 -0.078174286 -0.10544403 0.030481389 0.11368137 -0.15678181 0.19639556 -0.00038134854
00000000: 8f6a 0c3e 835b ee3b 7757 f33d 447c 75be
00000010: fb74 023e 2b94 61bc 5f5d da3d f69f 013e
00000020: 536d 353e ad28 d6bc ccb9 023d a90d 543e
00000030: 6983 88bd ba84 2fbe a1cf 5dbe ab47 7c3d
00000040: 7e8c cd3d ce6d 5c3e b54c 403e bf1a d8bd
00000050: da81 a03d 0757 8dbe bf98 263e 877c aa3c
00000060: 31e0 1e3c d719 a0bd 0af3 d7bd 1bb4 f93c
00000070: c7d1 e83d 698b 20be eb1b 493e bcef c7b9

convs.1.basis f4 [4, 32, 32]
-0.15425892 -0.04009508 0.024719363 -0.05612567 0.019776085 -0.03778048 -0.029193655 0.1385199
0.028661203 0.018372428 0.017872935 -0.014859465 -0.031182818 0.050017018 0.101070456 -0.017235154
-0.03111268 0.030420177 -0.007739922 -0.052756216 0.0040995535 -0.058175817 0.07315249 -0.020529715
0.009724893 0.029239543 0.008628435 0.06863849 -0.031650163 0.018996902 0.006979526 -0.02137455
-0.044478063 -0.00028773886 -0.057500206 0.01467541 -0.039127454 0.0071452525 -0.07916296 0.02237345
-0.02200583 -0.042870756 0.035901487 -0.010503828 0.0013784361 0.017224798 -0.08291851 0.10609979
-0.003105521 0.005633922 0.027218534 0.021827994 0.03891469 -0.09195862 -0.029275293 0.008445567
0.027157022 -0.013461359 -0.031396236 -0.06591148 0.025790362 -0.039781775 0.016881123 0.036482334
0.11237962 0.049699515 0.032896973 -0.07521141 -0.012676221 -0.0016579742 0.120037846 -0.15937972
-0.030736715 -0.02113915 0.039042175 0.015323177 -0.05507154 -0.039501227 0.054797255 -0.17353809
-0.021827245 -0.05725809 0.0028507826 -0.024409676 0.0033943693 0.060129896 0.00063761236 0.03589425
-0.09172441 -0.053428046 0.05926289 0.07900946 -0.0059138476 0.010921738 -0.028967394 -0.049334478
-0.010699134 -0.020808123 0.089113675 0.066896565 0.029863685 -0.023573332 -0.008008386 -0.0076463954
0.0100047495 0.030940216 0.050984815 -0.032446526 0.040369153 0.0056941747 -0.044297643 0.073239304
0.0055743568 -0.031493593 0.026075585 0.016073529 -0.03847593 0.10004945 -0.047415122 0.022574611
0.01547523 -0.03016845 -0.017651785 -0.026089555 0.016034337 -0.021974918 -0.008398686 -0.010684729
0.13258518 0.008228452 0.06038622 0.014257074 0.05333692 -0.01283582 0.09006316 -0.04771585
0.039669726 0.017863747 0.062437687 -0.07350442 0.06472967 -0.00034109625 0.084723905 -0.06794268
-0.0023149084 0.0073368577 -0.08499634 0.043469436 0.027818415 0.002239986 0.09276 -0.01770283
-0.008451123 -0.018599097 -0.050242815 0.11912617 -0.09139135 0.09054426 -0.042057417 -0.023869766
0.009508446 -0.031833507 0.027604563 -0.0037202293 0.03691711 -0.031047162 0.111258075 -0.008086849
0.045963176 -0.021913607 0.0064477874 -0.008548841 0.0298815 0.0022658913 -0.11216746 0.11698306
0.026243245 -0.047281496 0.017316006 -0.008256171 0.010017999 0.078397535 -0.110967636 0.059025742
0.08210492 0.02201134 -0.030261358 0.00078687724 0.11989636 -0.03858784 0.015573231 0.002608974
-0.028322522 -0.030524615 -0.044929978 -0.052550197 0.028604044 0.05730066 0.04431892 -0.038232487
0.006266243 0.0017438296 0.022203397 -0.0389165 0.0039807293 -0.0034676578 0.06842427 -0.11159337
-0.06351023 0.053734336 0.013414013 0.03041983 0.027393816 0.043521162 0.10121085 0.02674318
-0.024223603 -0.04991377 -0.03047377 0.10791976 -0.12159316 -0.014884269 -0.0024966372 0.01725118
-0.25464708 -0.020508742 -0.013426034 -0.030118674 -0.053002335 -0.07430056 -0.14566563 0.18985625
0.035213307 0.004871647 -0.02509603 -0.047551174 -0.015066387 -0.045862634 0.06082436 0.15891176
0.032205857 0.013659219 -0.0063473107 0.00011294942 0.036693554 -0.2621748 0.019011134 -0.036753353
-0.037326258 0.009727035 0.030977363 -0.1109927 0.051478 0.008554329 0.0021669255 -0.002158109
00000000: 0df6 1dbe bd3a 24bd 4380 ca3c 08e4 65bd
00000010: 7501 a23c b4bf 1abd 8827 efbc 29d8 0d3e
00000020: e6ca ea3c c681 963c 436a 923c 1d75 73bc
00000030: 1c73 ffbc a5de 4c3d 07fe ce3d bd30 8dbc
00000040: 05e0 febc bc33 f93c 2c9f fdbb e716 58bd
00000050: 8c55 863b c449 6ebd f9d0 953d ef2d a8bc
00000060: 2855 1f3c c487 ef3c 485e 0d3c 5692 8c3d
00000070: 9aa3 01bd 649f 9b3c 82b4 e43b ae19 afbc
00000080: a12e 36bd a8db 96b9 5685 6bbd 2271 703c
00000090: 1c44 20bd b922 ea3b 3120 a2bd 8748 b73c
000000a0: 9245 b4bc 3f99 2fbd 700d 133d 3f18 2cbc
000000b0: a4ac b43a 051b 8d3c 2ed1 a9bd d94a d93d
000000c0: ff85 4bbb c39c b83b 67f9 de3c 9fd0 b23c
000000d0: 0365 1f3d cd54 bcbd bdd2 efbc 475f 0a3c
000000e0: 6778 de3c 088d 5cbc 5799 00bd 99fc 86bd
000000f0: 4f46 d33c 37f2 22bd 484a 8a3c 806e 153d
00000100: 4927 e63d b891 4b3d fabe 063d 7108 9abd
00000110: edaf 4fbc 6250 d9ba 67d6 f53d 7034 23be
00000120: 90cb fbbc 032c adbc b0ea 1f3d 100e 7b3c
00000130: b292 61bd 0acc 21bd 1673 603d f8b3 31be
00000140: 0dcf b2bc 7587 6abd 32d4 3a3b cdf6 c7bc
00000150: 1174 5e3b c44a 763d 7125 273a d905 133d
00000160: 02da bbbd 5ed7 5abd a5bd 723d b6cf a13d
00000170: f3c8 c1bb 17f1 323c 074d edbc f312 4abd
00000180: 6c4b 2fbc cc75 aabc 3b81 b63d 1101 893d
00000190: b0a4 f43c dc1c c1bc 9b35 03bc 9d8e fabb
000001a0: f6ea 233c 5676 fd3c 74d5 503d a6e6 04bd
000001b0: 205a 253d 3396 ba3b 7271 35bd 7dfe 953d
000001c0: 18a9 b63b 6dff 00bd 779c d53c a2ac 833c
000001d0: f098 1dbd bae6 cc3d 5c36 42bd 64ee b83c
000001e0: d28b 7d3c d323 f7bc 7a9a 90bc c3b9 d5bc
000001f0: 715a 833c be04 b4bc a49a 09bc 000f 2fbc
00000200: 69c4 073e a1d0 063c 8b57 773d 8196 693c
00000210: d077 5a3d 554d 52bc 0973 b83d b271 43bd
00000220: b97c 223d fe56 923c a9be 7f3d 7c89 96bd
00000230: fd90 843d 2ad5 b2b9 ba83 ad3d 8825 8bbd
00000240: b8b5 17bb 066a f03b 9012 aebd 020d 323d
00000250: 72e3 e33c bbcc 123b f4f8 bd3d 8605 91bc
00000260: 9476 0abc 225d 98bc 69cb 4dbd 6cf8 f33d
00000270: 632b bbbd 456f b93d 6644 2cbd 878a c3bc
00000280: 50c9 1b3c da63 02bd f722 e23c 17cf 73bb
00000290: 6536 173d 9e56 febc 46db e33d b47e 04bc
000002a0: e243 3c3d 2a84 b3bc f647 d33b 7010 0cbc
000002b0: 0cca f43c 597f 143b 0eb8 e5bd d194 ef3d
000002c0: 13fc d63c 3eaa 41bd 4cda 8d3c e444 07bc
000002d0: 8922 243c e38e a03d 0043 e3bd fac4 713d
000002e0: a026 a83d 2051 b43c abe6 f7bc 7046 4e3a
000002f0: 398c f53d 480e 1ebd dd26 7f3c 52fb 2a3b
00000300: a204 e8bc c20e fabc 7f08 38bd e03e 57bd
00000310: 0753 ea3c 19b4 6a3d c187 353d ab99 1cbd
00000320: 0e55 cd3b 3691 e43a e6e3 b53c e866 1fbd
00000330: c770 823b a541 63bb 0622 8c3d 118b e4bd
00000340: a711 82bd 8918 5c3d 73c6 5b3c 0233 f93c
00000350: ff68 e03c 3f43 323d a247 cf3d 8314 db3c
00000360: 9470 c6bc 6272 4cbd 21a4 f9bc 0905 dd3d
00000370: d605 f9bd 26dd 73bc 9f9e 23bb 5952 8d3c
00000380: 1a61 82be f301 a8bc def8 5bbc 70bb f6bc
00000390: fa18 59bd e42a 98bd 5f29 15be ad69 423e
000003a0: d43b 103d 56a2 9f3b 3196 cdbc 05c5 42bd
000003b0: 02d9 76bc 75da 3bbd f722 793d c4b9 223e
000003c0: 4aea 033d ebca 5f3c 1afd cfbb 42df ec38
000003d0: fb4b 163d c63b 86be 3dbd 9b3c af8a 16bd
000003e0: 6be3 18bd 245e 1f3c 3dc4 fd3c 2450 e3bd
000003f0: 98da 523d 7527 0c3c fa02 0e3b 106f 0dbb

convs.1.att f4 [10, 4]
0.012209099 0.18753837 -0.2549549 -0.03927741 0.09346854 0.13382675 -0.23428035 -0.017998606
0.13594006 0.070993066 -0.23755786 -0.05564495 0.09868587 -0.0031719017 -0.17157726 -0.08485594
0.09315532 -0.052113663 -0.12620805 -0.07595938 0.01944964 -0.0836283 -0.10561592 -0.067885354
0.033955943 -0.121823564 -0.06985327 0.04935898 0.04598825 -0.14927486 0.017999949 0.08044804
-0.03880532 -0.16105969 0.028995486 0.103113346 -0.14932676 -0.1629334 0.07889536 0.05022043
00000000: ac08 483c 0f0a 403e 7389 82be 59e1 20bd
00000010: 6f6c bf3d e109 093e 30e7 6fbe d071 93bc
00000020: df33 0b3e d064 913d 5e42 73be f6eb 63bd
00000030: d11b ca3d aedf 4fbb f3b1 2fbe f3c8 adbd
00000040: 37c8 be3d 2375 55bd af3c 01be 9790 9bbd
00000050: da54 9f3c 5045 abbd 294d d8bd 7a07 8bbd
00000060: 6315 0b3d a27e f9bd 3b0f 8fbd a42c 4a3d
00000070: 2d5e 3c3d 82db 18be a174 933c f1c1 a43d
00000080: 54f2 1ebd d5ec 24be f187 ed3c 172d d33d
00000090: 1de9 18be 03d8 26be e493 a13d f0b3 4d3d

convs.1.root f4 [32, 32]
-0.044055298 0.043458063 0.0064867344 0.029676639 0.025696145 -0.037877757 -0.21408884 0.08685392
-0.014914006 -0.009234469 0.03910835 0.005363433 -0.10056389 -0.03431783 -0.0056001116 0.053053916
0.0074636484 -0.050434135 -0.09419441 0.006913375 -0.030063266 0.048948765 0.04394376 0.04238914
-0.048175998 -0.044730105 -0.032614768 0.10143164 -0.05672844 -0.13071471 -0.010784479 0.034505565
-0.0030716264 -0.015563867 0.083137654 -0.025933608 0.048774 0.006288925 0.09492882 0.05179299
0.0073475493 -0.027343227 0.047207538 0.050820474 -0.032219533 -0.08639216 -0.0055030873 -0.043661352
-0.036136493 -0.056999892 0.055144824 0.010367695 -0.034314644 0.080803916 0.0138762845 -0.08900941
0.08377522 -0.015635837 0.05751317 -0.10979679 -0.018599913 -0.09111996 -0.03713739 0.042745106
-0.0072284006 -0.012526433 0.08841296 0.026476284 -0.03280571 -0.0867472 0.13151486 0.106338084
0.053795584 -0.04445813 0.014803432 -0.015334502 0.04677751 -0.058619443 -0.06050574 -0.03520927
-0.045924246 -0.08707217 -0.03356674 -0.032585595 -0.0678898 0.011079559 0.0063195196 0.043101735
0.061028387 -0.02685929 0.045335792 -0.034237344 0.06330076 -0.0809845 -0.044439364 0.006559652
0.055208877 0.09977181 -0.020522444 -0.098329864 -0.07684635 0.027419709 -0.041483063 -0.043403212
-0.046487883 0.073789954 0.09666297 0.044893973 0.017408062 -0.020329649 0.024491249 0.07958386
0.022934595 -0.03253168 0.051731955 0.081517175 -0.02488383 0.003563333 0.119537935 0.005876317
-0.054275032 0.019698927 0.1279275 0.100747935 0.028315721 -0.029321391 -0.02895204 0.052220188
0.055446528 0.1036485 0.06534589 -0.08049558 0.07331171 0.06434717 0.06843952 -0.072117165
-0.0150077725 -0.06879216 -0.06988426 0.012602679 0.08535533 -0.016789332 -0.09762815 0.015924783
0.032020196 -0.08994265 -0.05874174 -0.023895497 0.11818219 0.12015408 0.0021693672 -0.05948258
-0.0069281906 0.07411907 0.0835045 -0.05120079 0.002737472 -0.028564563 0.061144635 -0.10828089
0.073054224 0.026463367 0.018925017 0.0708318 0.060423814 0.030343432 -0.039788842 0.09276974
0.07899043 0.009331053 0.096210435 -0.115459494 -0.07957241 -0.07402892 0.027143631 -0.044633836
-0.08029583 0.06589278 -0.07128826 0.06863229 -0.02463047 0.007089542 0.0649835 -0.051734954
-0.114217125 -0.060054883 0.025810488 0.14393756 -0.08781855 -0.03305257 -0.0050231605 -0.012416531
-0.013234246 0.008907248 0.07400131 -0.027979486 -0.03533768 -0.021017104 -0.065105006 -0.075242795
0.0540219 -0.052287485 -0.04176165 0.06289949 -0.067826115 0.034930624 -0.04022689 -0.014991599
-0.027793054 -0.023490148 -0.073174044 0.03033444 -0.0028803113 0.06497137 0.08787647 -0.06890876
-0.0027420435 0.062050197 -0.02034625 -0.038374674 -0.07830438 0.053588245 -0.019837784 0.028392276
0.009918425 0.05909917 -0.06493065 -0.038210656 -0.047955345 -0.048046425 -0.16153629 -0.06212213
0.018576808 0.03553283 0.033412993 -0.057299964 -0.02464022 0.0928049 -0.05254487 -0.091930725
-0.005589445 0.042274147 0.059313808 0.07735886 0.057852995 -0.019756537 -0.010665765 -0.0123793725
-0.07875949 -0.009499189 -0.008982349 0.053032205 0.0034323528 0.057656527 -0.022493562 -0.03929611
00000000: 5473 34bd 1501 323d ac8e d43b 6c1c f33c
00000010: b980 d23c b525 1bbd 1b3a 5bbe 78e0 b13d
00000020: e059 74bc 2c4c 17bc 1430 203d bdbf af3b
00000030: 71f4 cdbd da90 0cbd 2481 b7bb 104f 593d
00000040: 9f91 f43b 0694 4ebd 00e9 c0bd 9889 e23b
00000050: 3d47 f6bc 807e 483d 5ffe 333d 3ca0 2d3d
00000060: 3254 45bd ea36 37bd 1097 05bd 64bb cf3d
00000070: 155c 68bd 14da 05be 62b1 30bc b555 0d3d
00000080: 574d 49bb 97ff 7ebc 1344 aa3d b872 d4bc
00000090: 3fc7 473d 5413 ce3b 0b6a c23d e324 543d
000000a0: b6c3 f03b e7fe dfbc b15c 413d 2129 503d
000000b0: a1f8 03bd 5fee b0bd 3e53 b4bb 3fd6 32bd
000000c0: dc03 14bd b878 69bd 8adf 613d 44dd 293c
000000d0: 838d 0cbd 867c a53d 5b59 633c 914a b6bd
000000e0: 5892 ab3d ba16 80bc ee92 6b3d 24dd e0bd
000000f0: d85e 98bc 1a9d babd 601d 18bd 7e15 2f3d
00000100: 38dc ecbb ab3b 4dbc db11 b53d cbe4 d83c
00000110: 485f 06bd 84a8 b1bd d5ab 063e c8c7 d93d
00000120: c258 5c3d ba19 36bd 188a 723c 903d 7bbc
00000130: c699 3f3d f11a 70bd ded4 77bd 9837 10bd
00000140: 101b 3cbd e552 b2bd 477d 09bd 7978 05bd
00000150: cf09 8bbd 0a87 353c f913 cf3b 728b 303d
00000160: e7f8 793d 0408 dcbc 06b2 393d 753c 0cbd
00000170: d4a3 813d 34db a5bd 0d06 36bd 59f2 d63b
00000180: b422 623d 2a55 cc3d af1e a8bc 2b61 c9bd
00000190: 9f61 9dbd 4c9f e03c 25ea 29bd 91c7 31bd
000001a0: 146a 3ebd 301f 973d 3cf7 c53d bee2 373d
000001b0: 5a9b 8e3c 5d8a a6bc dfa1 c83c ddfc a23d
000001c0: 55e1 bb3c f03f 05bd e3e4 533d 7af2 a63d
000001d0: 2dd9 cbbc cf86 693b 4ed0 f43d 1f8e c03b
000001e0: 7f4f 5ebd a55f a13c 6dff 023e ef54 ce3d
000001f0: 5ff6 e73c 6a33 f0bc d42c edbc d6e4 553d
00000200: e61b 633d aa45 d43d 11d4 853d deda a4bd
00000210: 7324 963d 73c8 833d 052a 8c3d 2ab2 93bd
00000220: 29e3 75bc e7e2 8cbd 7b1f 8fbd 787b 4e3c
00000230: c6ce ae3d c889 89bc 44f1 c7bd b174 823c
00000240: 9c27 033d da33 b8bd 2e9b 70bd 7dc0 c3bc
00000250: 8109 f23d 5813 f63d f12b 0e3b 01a4 73bd
00000260: e005 e3bb bdcb 973d 6804 ab3d ebb7 51bd
00000270: 2967 333b 3b00 eabc cc72 7a3d 5fc2 ddbd
00000280: 749d 953d b4c9 d83c a308 9b3c 4310 913d
00000290: f67e 773d ca92 f83c a0f9 22bd 10fe bd3d
000002a0: bcc5 a13d 46e1 183c fa09 c53d 0776 ecbd
000002b0: dcf6 a2bd 799c 97bd 525c de3c f8d1 36bd
000002c0: 2472 a4bd cbf2 863d 94ff 91bd 168f 8c3d
000002d0: d7c5 c9bc 644f e83b 1216 853d 08e8 53bd
000002e0: abea e9bd 1cfc 75bd 8470 d33c 5e64 133e
000002f0: 36da b3bd 2262 07bd 5399 a4bb b56e 4bbc
00000300: 73d4 58bc b5ef 113c 008e 973d 3c35 e5bc
00000310: 3ebe 10bd 102c acbc c655 85bd e518 9abd
00000320: 1146 5d3d 672b 56bd 440e 2bbd 73d1 803d
00000330: 6be8 8abd 6a13 0f3d f4c4 24bd 539f 75bc
00000340: 42ae e3bc 696e c0bc 46dc 95bd ee7f f83c
00000350: 9bc3 3cbb b60f 853d 94f8 b33d 0920 8dbd
00000360: dbb3 33bb 5928 7e3d 2ead a6bc c32e 1dbd
00000370: 0c5e a0bd 597f 5b3d d982 a2bc eb96 e83c
00000380: e480 223c f911 723d 5cfa 84bd c782 1cbd
00000390: d36c 44bd 54cc 44bd c569 25be c673 7ebd
000003a0: 642e 983c df8a 113d 10dc 083d 5eb3 6abd
000003b0: 49da c9bc 7f10 be3d 4a39 57bd 2d46 bcbd
000003c0: aa27 b7bb a827 2d3d 09f3 723d 526e 9e3d
000003d0: 43f7 6c3d 76d8 a1bc 76bf 2ebc dad2 4abc
000003e0: a84c a1bd 7da2 1bbc b42a 13bc 4c38 593d
000003f0: 53f1 603b 4029 6c3d 6b44 b8bc f5f4 20bd

convs.1.bias f4 [32]
-0.059414912 -0.06822494 -0.023794852 -0.045574844 -0.027656222 -0.11489965 -0.07672158 0.045955546
0.019484462 -0.028183166 0.04791668 -0.068133876 -0.08403361 0.06400091 0.1042695 0.110017836
-0.0379878 0.069964044 0.066688865 0.04442108 -0.04053864 -0.056823175 -0.007161932 -0.07918724
-0.06525549 0.08932157 0.02053216 -0.10392921 -0.07902826 0.013910983 -0.037574865 0.050369654
00000000: 0d5d 73bd 84b9 8bbd 6ced c2bc b0ac 3abd
00000010: 4d8f e2bc 8250 ebbd 3420 9dbd e23b 3c3d
00000020: e19d 9f3c 62e0 e6bc 4844 443d c689 8bbd
00000030: d019 acbd e912 833d 3f8b d53d 0851 e13d
00000040: 1899 1bbd 4f49 8f3d 2c94 883d e1f2 353d
00000050: d80b 26bd 6bbf 68bd a4ae eabb eb2c a2bd
00000060: aca4 85bd 3aee b63d 0f33 a83c d6d8 d4bd
00000070: 92d9 a1bd e4ea 633c 1ae8 19bd 6950 4e3d

convs.2.basis f4 [4, 32, 32]
0.007958785 -0.04522133 0.022383142 0.04024062 -0.07081628 -0.017479533 0.09516943 0.0029482488
-0.016874287 -0.009435576 -0.058720686 0.0005698075 0.03302973 0.009077979 0.025068218 -0.007261349
-0.007672335 0.047533147 -0.046810232 0.04757079 -0.010559569 -0.008602472 0.04110721 -0.06169594
-0.045377612 -0.023342537 0.050485034 -0.009878291 -0.0128144985 0.0148063 -0.022184735 -0.09604034
0.01255876 0.09174195 -0.011661932 -0.021834686 -0.03976176 -0.016626865 -0.09430813 0.042869758
0.074805476 0.025817597 0.037777822 -0.05637819 -0.024670385 0.00774851 0.066494495 0.05300259
-0.024780825 0.020775406 -0.042770147 0.056742776 0.027276635 0.05991464 0.05557689 -0.032521356
0.010832162 -0.0557666 -0.06316339 0.06854066 0.060745243 -0.0419597 -0.030906023 0.067000136
0.005157022 -0.004900048 -0.06958435 0.030331468 -0.037562277 -0.080507696 -0.016657367 0.008296239
-0.05014532 0.09677241 0.034413636 0.04856971 -0.029930122 0.037259858 0.082187064 -0.054185264
-0.021984717 0.055781536 0.025753746 -0.013522393 0.019015765 0.07450706 0.062873915 -0.05417225
0.047504634 -0.0061664465 -0.09291276 0.039505195 -0.006849936 0.025735563 -0.0155893685 0.058036134
-0.037692234 -0.07595498 0.059426505 0.04640989 0.051883392 0.026391208 0.076414414 0.08019256
-0.06861407 -0.11873698 0.004922798 0.065628976 0.017053317 -0.018974444 0.014080885 0.0189519
-0.0060968576 -0.020480927 0.073876485 -0.03713765 -0.047534004 -0.07580476 -0.039568387 0.03305533
-0.04583895 -0.047030803 -0.010795738 -0.03834339 0.0054507437 0.014957141 -0.07904235 0.037500486
0.072766446 0.030190455 -0.063643165 -0.032370053 0.030977901 -0.05442774 -0.073128365 0.058679894
-0.052217107 -0.057769 -0.06016401 -0.0471738 0.0017116626 -0.011169332 0.062357467 0.025777357
0.04653177 0.027428403 -0.059541315 0.058136348 -0.022194974 0.101830855 -0.002696201 -0.011438703
-0.038203016 -0.017746082 0.00061120745 -0.074765556 0.02259848 -0.014354352 -0.043049842 -0.013111347
-0.00039021135 -0.004655345 -0.00026431514 0.02564607 -0.031824604 0.045144495 0.074142255 -0.01539753
0.021933772 0.058362707 -0.0020944544 -0.0024627964 -0.048985846 0.00022114022 0.054470923 0.064700335
-0.031845137 0.07962236 0.065773085 0.03981073 0.029004047 -0.014449574 -0.010596049 0.002920257
0.040750463 0.02140733 0.017833196 0.05643918 -0.0049121846 0.03448494 0.032118216 0.014705915
-0.012138759 0.002240294 -0.05247912 0.06375107 0.072479695 -0.014277933 0.006493357 -0.064379394
-0.0077522146 -0.03009229 -0.036618825 0.063214794 -0.009139343 -0.08255733 0.01647364 0.008899938
0.030279372 0.03050162 -0.024096007 0.018467847 -9.0283706e-05 -0.013596746 0.06471683 -0.0614493
0.04553058 0.06423325 0.004649384 -0.026600905 -0.09695027 -0.05230685 0.037229136 -0.035856325
0.09097328 0.037942216 -0.011912073 0.030201012 0.029055154 0.00517381 0.008859768 0.0036893026
-0.016534453 0.008946089 -0.0021295226 0.06746585 0.00965918 0.019450184 0.055744432 -0.03350878
-0.08171404 0.086883366 -0.043345034 -0.06537239 -0.04216694 0.040244848 0.004408167 -0.04429458
0.067642264 -0.030467361 -0.022725498 0.018255295 0.06819179 0.01973988 -0.05163089 0.035337433
00000000: 9065 023c 003a 39bd da5c b73c 59d3 243d
00000010: 2008 91bd 3d31 8fbc 31e8 c23d 6837 413b
00000020: f23b 8abc ad97 1abc 1a85 70bd 225f 153a
00000030: 2f4a 073d cebb 143c dd5b cd3c 9cf0 edbb
00000040: 3668 fbbb 1eb2 423d 16bc 3fbd 97d9 423d
00000050: 0b02 2dbc 62f1 0cbc 0960 283d e2b4 7cbd
00000060: e0dd 39bd d938 bfbc 65c9 4e3d 8ed8 21bc
00000070: e7f3 51bc 2096 723c c3bc b5bc ccb0 c4bd
00000080: 42c3 4d3c 34e3 bb3d b011 3fbc a8de b2bc
00000090: 3add 22bd 1035 88bc 9f24 c1bd 3398 2f3d
000000a0: 9d33 993d 6d7f d33c ebbc 1a3d d1ec 66bd
000000b0: 8c19 cabc 37e7 fd3b 442e 883d 3e19 593d
000000c0: 2801 cbbc 2f31 aa3c c02f 2fbd 1d6b 683d
000000d0: 4073 df3c 0e69 753d 98a4 633d 1d35 05bd
000000e0: 6179 313c 856b 64bd cf5b 81bd 0c5f 8c3d
000000f0: 01d0 783d efdd 2bbd a12e fdbc 5e37 893d
00000100: 3cfc a83b 9590 a0bb 3d82 8ebd b379 f83c
00000110: e7da 19bd 38e1 a4bd 0875 88bc f3ec 073c
00000120: 2e65 4dbd 9d30 c63d 50f5 0c3d 08f1 463d
00000130: 0430 f5bc cb9d 183d b151 a83d 5ef1 5dbd
00000140: 4b19 b4bc 2e7b 643d 85f9 d23c 078d 5dbc
00000150: f3c6 9b3c 2897 983d 0ac4 803d b9e3 5dbd
00000160: 3894 423d e70f cabb 0c49 bebd 33d0 213d
00000170: 6e75 e0bb 63d3 d23c 8d6a 7fbc 4cb7 6d3d
00000180: 2c63 1abd 498e 9bbd 3569 733d 4c18 3e3d
00000190: ae83 543d 6032 d83c 297f 9c3d ff3b a43d
000001a0: 8985 8cbd 602c f3bd 6c4f a13b 7c68 863d
000001b0: 66b3 8b3c 4b70 9bbc 83b3 663c 0441 9b3c
000001c0: 26c8 c7bb 9ec7 a7bc 8e4c 973d a61d 18bd
000001d0: 04b3 42bd 873f 9bbd 7612 22bd 0765 073d
000001e0: 9fc1 3bbd 5fa3 40bd 9be0 30bc f50d 1dbd
000001f0: 279c b23b cc0e 753c f5e0 a1bd 1c9a 193d
00000200: 9306 953d f951 f73c 5957 82bd 7696 04bd
00000210: 5ec5 fd3c 9fef 5ebd 53c4 95bd 545a 703d
00000220: 9be1 55bd 309f 6cbd 896e 76bd 5139 41bd
00000230: de59 e03a 93ff 36bc 8b6a 7f3d 092b d33c
00000240: 1998 3e3d 88b1 e03c 98e1 73bd 6120 6e3d
00000250: 3cd2 b5bc b28c d03d bfb2 30bb 6669 3bbc
00000260: c47a 1cbd 3b60 91bc 7039 203a af1e 99bd
00000270: 7320 b93c 842e 6bbc 0855 30bd fad0 56bc
00000280: 4895 ccb9 dd8b 98bb c793 8ab9 b517 d23c
00000290: 845a 02bd 6fe9 383d e5d7 973d ec45 7cbc
000002a0: 74ae b33c bc0d 6f3d 1d43 09bb de66 21bb
000002b0: 62a5 48bd e0e1 6739 e71c 5f3d 9c81 843d
000002c0: 0c70 02bd 0c11 a33d 0ab4 863d 9310 233d
000002d0: e599 ed3c e8bd 6cbc 0d9b 2dbc c861 3f3b
000002e0: f5e9 263d 6d5e af3c ec16 923c c52c 673d
000002f0: 64f6 a0bb 1540 0d3d 648e 033d 14f1 703c
00000300: a5e1 46bc e5d1 123b 59f4 56bd ec8f 823d
00000310: 3c70 943d feed 69bc 3ac6 d43b 58d9 83bd
00000320: 4a06 febb 1b84 f6bc 9ffd 15bd c276 813d
00000330: 2fbd 15bc d113 a9bd baf3 863c 0cd1 113c
00000340: 720c f83c 89de f93c fd64 c5bc e249 973c
00000350: b256 bdb8 e3c4 5ebc 428a 843d 43b2 7bbd
00000360: 467e 3a3d b98c 833d dc59 983b 24ea d9bc
00000370: dd8d c6bd b53f 56bd 947d 183d 15de 12bd
00000380: 3350 ba3d 4c69 1b3d db2a 43bc 1d68 f73c
00000390: 1305 ee3c 1089 a93b 8f28 113c 3ac8 713b
000003a0: 4373 87bc 9e92 123c 768f 0bbb 892b 8a3d
000003b0: 8a41 1e3c fe55 9f3c 4654 643d 8140 09bd
000003c0: b159 a7bd e8ef b13d 908a 31bd f6e1 85bd
000003d0: 3eb7 2cbd c8d7 243d 6372 903b 3c6e 35bd
000003e0: 0788 8a3d b096 f9bc d32a babc 218c 953c
000003f0: 23a8 8b3d 87b5 a13c ea7a 53bd fcbd 103d

convs.2.att f4 [10, 4]
0.032746557 0.009758489 0.03300225 0.020192396 0.029331358 -0.01042303 0.007840308 0.010339926
0.017745325 -0.003423359 -0.0016722298 0.011888878 0.00906917 0.0068033864 0.004787985 0.0018499333
0.0047705383 0.002594062 -0.004523898 -0.0053422046 -0.006531355 -0.0039426484 -0.0030427533 -0.01632582
-0.003980904 0.0067899935 -0.009126087 0.004406473 0.0015234773 -0.0061966497 0.001514271 0.0074650436
0.009296642 -0.0042740335 0.00063872506 -0.0045512677 -0.0056196116 0.0015871288 0.0109174205 0.00050963304
00000000: 4121 063d 12e2 1f3c 5e2d 073d 866a a53c
00000010: 5148 f03c 5bc5 2abc a374 003c cb68 293c
00000020: a55e 913c 6f5a 60bb b92e dbba 92c9 423c
00000030: db96 143c f1ee de3b 87e4 9c3b 7679 f23a
00000040: 2d52 9c3b 2301 2a3b 353d 94bb a90d afbb
00000050: fa04 d6bb 5531 81bb ee68 47bb babd 85bc
00000060: 3e72 82bb 987e de3b 9585 15bc 2d64 903b
00000070: 6aaf c73a 440d cbbb 817a c63a 539d f43b
00000080: f150 183c 310d 8cbb 1d70 273a cd22 95bb
00000090: b824 b8bb 3507 d03a fbde 323c e598 053a

convs.2.root f4 [32, 32]
-0.043475207 -0.05725652 0.08093951 -0.027398674 -0.0016964913 -0.09563711 -0.046749424 -0.043993924
0.044020798 -0.05329811 0.020876631 0.021177681 -0.04362171 0.08115846 -0.06371665 -0.032957092
-0.00508729 -0.019861268 0.044886485 0.006514992 -0.011343821 -0.024742557 -0.05050601 0.03759742
-0.087623574 0.0036939436 0.027908694 0.00015152509 0.043247543 0.030140774 -0.06954276 -0.026661031
0.016314566 -0.0054552373 -0.0744603 0.035476986 -0.018862456 0.082442164 -0.059709776 -0.055226285
-0.008132706 -0.00091242394 -0.06706379 0.037907615 0.039970774 0.02885077 0.013465911 0.032341994
0.03953265 0.028199147 -0.013478002 -0.06356022 -0.03688941 -0.035178393 -0.022218334 -0.0046816613
-0.07490145 -0.057481438 0.07847361 0.010212249 -0.031846862 0.0022106962 -0.071719825 -0.02695713
-0.050393116 -0.15376064 0.118813634 -0.08632715 -0.044147268 -0.124155395 -0.02145313 0.016499609
0.027708488 -0.039096676 0.03881744 -0.014248784 -0.08734803 -0.10331701 0.026369665 0.031478383
-0.063613735 0.030700386 0.028164977 -0.064978 -0.13245983 -0.048482142 -0.039501254 0.020980379
-0.048158947 0.04927397 0.057006687 0.014856953 0.00014834148 -0.011924348 -0.11324922 -0.09642515
0.028895026 -0.044492688 -0.010454083 -0.048517235 0.01888416 -0.113406576 0.013744199 -0.048314814
-0.036685485 -0.03627912 0.05714872 0.041444477 -0.09490238 -0.033255022 -0.0019906894 0.006717836
-0.08612328 0.024521312 0.03899227 -0.07261869 -0.0028653506 -0.099791504 -0.05127985 -0.039514653
0.004984193 0.011858084 0.024883416 -0.037176043 -0.007748116 0.038910188 -0.05524905 0.038812634
0.004251968 0.07632629 0.068864584 0.034054853 -0.026525253 -0.044166066 0.046229884 0.06918634
-0.0585632 -0.016324999 -0.006765174 0.038371086 0.052165277 0.008105931 -0.0336663 0.0026049383
-0.00077043107 0.08205746 0.090520024 -0.06656762 0.055490434 -0.050177194 0.052461654 0.01017662
-0.021003636 -0.05129535 -0.02770488 0.016654335 0.0051468303 -0.012661339 0.029667791 -0.044928294
-0.05421928 -0.09885078 -0.048845384 0.041245673 0.021500349 0.016464852 -0.07355729 -0.027907211
0.033613823 0.034240514 0.06070769 -0.001441647 0.00924252 -0.03466057 -0.03195593 -0.033916954
0.015330599 0.037602972 0.015094296 -0.056255464 -0.030387167 -0.075913064 -0.0037026366 -0.060099304
-0.03557306 -0.012435977 0.0904339 -0.046060015 0.017787397 -0.012805136 0.033028584 -0.0068966146
0.012402506 0.12816513 -0.119972855 0.14215562 0.0503693 0.109327696 -0.0008111726 0.038536347
0.053793866 0.044853095 -0.15000753 -0.118319325 0.017172795 -0.007914184 -0.037656356 -0.016144132
0.08763054 0.05926202 -0.041506246 0.055342175 0.09938401 0.21143956 0.038437653 0.025354244
0.17134047 -0.06150778 -0.06336921 -0.06450342 -0.03456642 -0.022811905 0.07505707 0.037220947
-7.003878e-05 -0.03138847 0.0056962934 0.01849167 0.040068768 -0.057419285 -0.030811856 -0.02311086
0.07795621 -0.00723752 -0.009703945 0.0065695513 -8.261539e-05 -0.002662499 -0.042678952 -0.058651414
-0.03668499 0.020773727 0.029119475 0.023061002 -0.006944927 -0.081439525 -0.048729002 0.04762899
-0.04303031 -0.003622998 -0.017597256 -0.014323697 0.0014369865 -0.00897674 0.013684783 0.006538482
00000000: 0f13 32bd d085 6abd 9dc3 a53d 2f73 e0bc
00000010: cd5c deba 64dd c3bd 537c 3fbd f932 34bd
00000020: 274f 343d 1e4f 5abd 7805 ab3c d17c ad3c
00000030: aeac 32bd 6836 a63d e07d 82bd 04fe 06bd
00000040: 48b3 a6bb 19b4 a2bc e4da 373d b77b d53b
00000050: 6fdb 39bc e7b0 cabc 64df 4ebd c1ff 193d
00000060: fd73 b3bd 1716 723b c6a0 e43c b5e2 1e39
00000070: 5624 313d c9e9 f63c 6f6c 8ebd 3c68 dabc
00000080: 20a6 853c d9c1 b2bb a47e 98bd 5150 113d
00000090: 7085 9abc 70d7 a83d 3d92 74bd f534 62bd
000000a0: 0b3f 05bc bc2f 6fba be58 89bd 0445 1b3d
000000b0: 65b8 233d 7358 ec3c 20a0 5c3c 0a79 043d
000000c0: fdec 213d e601 e73c d6d2 5cbc dc2b 82bd
000000d0: 5a19 17bd 3817 10bd 3903 b6bc 9f68 99bb
000000e0: ee65 99bd a871 6bbd c6b6 a03d 4751 273c
000000f0: db71 02bd 54e1 103b d8e1 92bd 33d5 dcbc
00000100: 0369 4ebd 6e73 1dbe 9054 f33d 4acc b0bd
00000110: c4d3 34bd 2f45 febd 79be afbc 302a 873c
00000120: e9fc e23c d623 20bd 09ff 1e3d bb73 69bc
00000130: 86e3 b2bd de97 d3bd 3205 d83c 7aef 003d
00000140: eb47 82bd 607f fb3c 3dba e63c 3013 85bd
00000150: 8da3 07be 3695 46bd 11cc 21bd 0bdf ab3c
00000160: 5142 45bd 81d3 493d d87f 693d 946a 733c
00000170: 1d8c 1b39 575e 43bc 35ef e7bd 8d7a c5bd
00000180: 43b5 ec3c f73d 36bd 9a47 2bbc 02ba 46bd
00000190: f4b2 9a3c b541 e8bd 592f 613c c1e5 45bd
000001a0: 8543 16bd 6a99 14bd c714 6a3d afc1 293d
000001b0: 2e5c c2bd 6b36 08bd 3a76 02bb 4b21 dc3b
000001c0: 6761 b0bd ebe0 c83c 5cb6 1f3d 1cb9 94bd
000001d0: 9bc8 3bbb 7d5f ccbd d20a 52bd 1eda 21bd
000001e0: 7152 a33b 6948 423c 4ed8 cb3c e845 18bd
000001f0: e8e3 fdbb 4a60 1f3d d44c 62bd fff9 1e3d
00000200: 1854 8b3b f550 9c3d e008 8d3d 1a7d 0b3d
00000210: 7d4b d9bc 7ae7 34bd 8c5b 3d3d 91b1 8d3d
00000220: f7df 6fbd 01bc 85bc 65ae ddbb 002b 1d3d
00000230: 42ab 553d bdce 043c ade5 09bd 9db7 2a3b
00000240: c1f6 49ba be0d a83d 9062 b93d 9b54 88bd
00000250: f049 633d 9a86 4dbd 08e2 563d d7bb 263c
00000260: d10f acbc 131b 52bd 58f5 e2bc ac6e 883c
00000270: bea6 a83b 8171 4fbc de09 f33c bb06 38bd
00000280: 0915 5ebd 4772 cabd 1912 48bd 39f1 283d
00000290: 8021 b03c 4ce1 863c 34a5 96bd aa9d e4bc
000002a0: a6ae 093d c83f 0c3d a0a8 783d a5f5 bcba
000002b0: f06d 173c 3ef8 0dbd 39e4 02bd 81ec 0abd
000002c0: 312d 7b3c 9305 1a3d 114e 773c 216c 66bd
000002d0: 82ee f8bc 4f78 9bbd efa7 72bb b02a 76bd
000002e0: 0fb5 11bd 45c0 4bbc 6935 b93d 6da9 3cbd
000002f0: e0b6 913c a2cc 51bc fb48 073d fffc e1bb
00000300: e133 4b3c b83d 033e 54b4 f5bd 3e91 113e
00000310: 0a50 4e3d 33e7 df3d dfa4 54ba 4ad8 1d3d
00000320: f556 5c3d e1b7 373d 939b 19be 6751 f2bd
00000330: f6ad 8c3c 7eaa 01bc 8d3d 1abd b340 84bc
00000340: a477 b33d bbbc 723d 7402 2abd 7aae 623d
00000350: d889 cb3d 9d83 583e cd70 1d3d b4b3 cf3c
00000360: e073 2f3e 95ef 7bbd b7c7 81bd 5e1a 84bd
00000370: 8595 0dbd 08e0 babc 85b7 993d fe74 183d
00000380: c9e1 92b8 3291 00bd f9a7 ba3b d87b 973c
00000390: 261f 243d 7c30 6bbd 2569 fcbc fc52 bdbc
000003a0: 81a7 9f3d b828 edbb 4cfd 1ebc 6445 d73b
000003b0: cd41 adb8 527d 2ebb 20d0 2ebd 773c 70bd
000003c0: 0043 16bd aa2d aa3c f78b ee3c 6dea bc3c
000003d0: 4592 e3bb c4c9 a6bd 1098 47bd 9e16 433d
000003e0: 8d40 30bd d26f 6dbb 1f28 90bc f1ad 6abc
000003f0: 4459 bc3a 2d13 13bc 2436 603c c340 d63b

convs.2.bias f4 [32]
-0.011412157 -0.051699057 0.05269535 -0.08155225 -0.024254424 -0.08930162 0.0130281085 -0.059337102
-0.050981637 -0.026253298 0.08320384 0.08014874 -0.050533663 0.01642239 0.017628035 0.05165167
-0.064795695 -0.03711217 0.039891534 -0.05940585 -0.06058006 -0.09928166 -0.03538342 -0.028087873
-0.063865244 0.05498154 0.02828614 0.038017765 0.022308914 0.004034439 -0.05949781 -0.018573694
00000000: 0efa 3abc 64c2 53bd 14d7 573d de04 a7bd
00000010: 37b1 c6bc c5e3 b6bd d973 553c 760b 73bd
00000020: 1fd2 50bd 2811 d7bc c666 aa3d 0625 a43d
00000030: 63fc 4ebd 3f88 863c ab68 903c b490 533d
00000040: 9bb3 84bd ee02 18bd 4e65 233d 8c53 73bd
00000050: cc22 78bd 2f54 cbbd 34ee 10bd 8a18 e6bc
00000060: c8cb 82bd 5334 613d 56b8 e73c 84b8 1b3d
00000070: 2fc1 b63c 5433 843b fab3 73bd dc27 98bc

convs.3.basis f4 [4, 32, 32]
-0.028529815 0.07932997 -0.056195393 0.044049602 0.009310588 -0.025294634 0.06519108 0.053536806
-0.003078066 -0.056135725 -0.05996435 0.10482592 -0.08269685 0.02074601 0.037904903 -0.053986043
-0.02129754 -0.00037001938 0.011439424 0.013627897 0.028174732 0.04705736 0.09682122 0.05273974
0.0975585 -0.021882037 -0.10334747 -0.11269917 0.021803187 -0.10011842 0.038412068 -0.012061173
0.08307182 -0.07858808 0.04297918 0.05655799 0.026462382 0.03512411 -0.07869723 0.022519177
0.12933116 0.020688318 -0.019420344 0.056189846 -0.01564195 0.06960578 -0.061908424 0.06350643
-0.03765849 -0.025432648 0.028577175 -0.003512468 0.08011938 -0.06340086 -0.01865336 -0.045698233
-0.055487975 0.08154915 -0.04858536 0.06463365 -0.017225888 0.077648185 0.07065186 -0.09770841
-0.044804692 -0.042594146 0.031446792 -0.032974526 -0.031325605 0.05634802 0.087581545 -0.024724547
-0.101647586 -0.06182194 -0.047047388 0.028762393 -0.0036829582 0.0038982364 0.09027238 0.061737195
-0.028870938 -0.018691028 -0.0057830336 -0.0022558025 -0.018771961 0.0727314 0.012568284 0.047724877
-0.0063444655 0.05092414 -0.034251846 -0.0049221134 0.06385611 -0.10119791 0.045748897 0.01641294
0.0022582607 0.054744896 0.02061744 0.064225055 0.023507308 0.009414622 -0.0503762 -0.008929153
-0.010772862 0.06671237 -0.0089085875 -0.022977166 -0.06243325 0.05422941 -0.022493493 -0.07378478
-0.014810419 0.050951567 -0.045816526 0.054212954 -0.09176997 -0.060205426 0.005357631 -0.062318493
0.026637753 0.033800226 -0.057829298 -0.042548083 0.09861751 0.04937885 0.028043194 -0.10693447
-0.02105195 0.004993946 -0.008482611 -0.030935178 0.03661643 -0.018536866 -0.039785262 -0.059687164
0.07899278 0.0013875881 0.057076752 -0.0055736783 -0.0252885 -0.021309739 -0.045542996 -0.03226251
-0.034031462 0.04422521 -0.040776357 -0.019140804 -0.034455672 -0.043427005 -0.039688498 0.059015702
-0.06870883 -0.06908752 -0.03342764 -0.02361467 0.02334319 0.033191644 0.014596956 -0.075326145
0.021065703 -0.056969382 -0.07318308 -0.017164957 0.032278758 0.0029057206 0.02762588 0.01868742
0.07106832 -0.008239792 0.041451674 -0.0747556 0.045018956 0.06989681 0.040350404 -0.019234117
0.0075972616 -0.013274502 -0.04711465 -0.04142836 -0.011354387 0.031209618 -0.010587193 -0.011443955
0.024512313 -0.020934789 -0.035702657 -0.01854395 0.0072973995 -0.00034576238 0.056206483 -0.109674074
-0.06683702 0.0010817043 0.044435523 -0.038117092 0.0255559 0.019643916 -0.08085548 0.041021585
-0.060483307 0.03501806 -0.02197884 0.013626059 0.015223315 -0.05171236 0.06931851 0.025179202
0.04593569 -0.024132129 -0.0050861263 0.039559513 0.00874315 0.00907805 0.005511823 -0.065779306
-0.039106872 -0.014881093 0.0039890464 -0.07995168 -0.046082668 -0.038888175 -0.029887792 0.08274074
0.07897816 -0.035784975 0.0046907663 0.022590777 0.01691474 -0.011460084 -0.029618608 -0.025476696
0.099428535 -0.004031091 0.019703208 0.017761225 0.02255563 0.029512813 0.03412917 0.021488035
0.06463284 0.07766346 0.070702694 -0.03584881 0.025991406 0.05443845 0.059129115 0.05576432
-0.037089106 0.091589354 0.026902162 -0.0041372683 0.045116704 0.01118772 0.09597084 -0.054232065
00000000: 5cb7 e9bc c077 a23d 242d 66bd 5b6d 343d
00000010: 708b 183c b136 cfbc e782 853d 6949 5b3d
00000020: 61b9 49bb 93ee 65bd 2e9d 75bd f9ae d63d
00000030: f75c a9bd 89f3 a93c 2c42 1b3d 7820 5dbd
00000040: 2e78 aebc 29ff c1b9 6c6c 3b3c 8b47 5f3c
00000050: b2ce e63c 38bf 403d 344a c63d a005 583d
00000060: c0cc c73d f541 b3bc d7a7 d3bd d3ce e6bd
00000070: 999c b23c e30a cdbd f955 1d3d 3a9c 45bc
00000080: 8f21 aa3d caf2 a0bd f00a 303d 5aa9 673d
00000090: a3c7 d83c 4cde 0f3d 032c a1bd 237a b83c
000000a0: 636f 043e 8c7a a93c 6a17 9fbc 5327 663d
000000b0: 8c23 80bc 7a8d 8e3d b093 7dbd a90f 823d
000000c0: ca3f 1abd 2158 d0bc ae1a ea3c 6f31 66bb
000000d0: a115 a43d 4fd8 81bd eece 98bc 122e 3bbd
000000e0: 5c47 63bd 3e03 a73d 7101 47bd a65e 843d
000000f0: 4e1d 8dbc 0306 9f3d ecb1 903d 591b c8bd
00000100: 2085 37bd 3377 2ebd 5ace 003d 4c10 07bd
00000110: 474f 00bd 2ecd 663d f45d b33d 228b cabc
00000120: 9c2c d0bd 0139 7dbd c3b4 40bd 1c9f eb3c
00000130: c95d 71bb 8e79 7f3b bae0 b83d 24e0 7c3d
00000140: bf82 ecbc ed1d 99bc 9a7f bdbb 16d6 13bb
00000150: a8c7 99bc 33f4 943d 34eb 4d3c 297b 433d
00000160: 3ce5 cfbb d595 503d aa4b 0cbd ae49 a1bb
00000170: fec6 823d da40 cfbd 3263 3b3d 6e74 863c
00000180: 54ff 133b 2f3c 603d e8e5 a83c 6d88 833d
00000190: 6692 c03c c93f 1a3c 4657 4ebd 954b 12bc
000001a0: a880 30bc 7fa0 883d 53f5 11bc 9c3a bcbc
000001b0: 02ba 7fbd a81f 5e3d 4644 b8bc 7a1c 97bd
000001c0: 66a7 72bc 97b2 503d 1caa 3bbd 670e 5e3d
000001d0: e5f1 bbbd f799 76bd 118f af3b ad41 7fbd
000001e0: 6b37 da3c 1b72 0a3d 6ade 6cbd e646 2ebd
000001f0: faf7 c93d 7a41 4a3d d7ba e53c 7600 dbbd
00000200: 2475 acbc 41a4 a33b a6fa 0abc c56b fdbc
00000210: 1cfb 153d a0da 97bc dff5 22bd 877a 74bd
00000220: f7c6 a13d bbdf b53a 50c9 693d 67a3 b6bb
00000230: d429 cfbc c391 aebc 4b8b 3abd b225 04bd
00000240: 9364 0bbd 7e25 353d 1c05 27bd 2dcd 9cbc
00000250: 6421 0dbd 84e0 31bd 6890 22bd 73ba 713d
00000260: 37b7 8cbd c27d 8dbd 6ceb 08bd 8d73 c1bc
00000270: 383a bf3c f6f3 073d 1228 6f3c 9844 9abd
00000280: fb91 ac3c ba58 69bd 03e1 95bd 869d 8cbc
00000290: bb36 043d e76d 3e3b ab4f e23c 5c16 993c
000002a0: 448c 913d 3100 07bc 3bc9 293d 7719 99bd
000002b0: cc65 383d 0f26 8f3d 7746 253d de90 9dbc
000002c0: 73f2 f83b 4c7d 59bc 4bfb 40bd c9b0 29bd
000002d0: c007 3abc 50ab ff3c e875 2dbc 6d7f 3bbc
000002e0: 0cce c83c 6f7f abbc f33c 12bd 7be9 97bc
000002f0: 061f ef3b 7147 b5b9 c538 663d cd9c e0bd
00000300: d9e1 88bd f9c7 8d3a 0602 363d ab20 1cbd
00000310: 9b5a d13c 47ec a03c 8f97 a5bd 4006 283d
00000320: 58bd 77bd 196f 0f3d f80c b4bc d53f 5f3c
00000330: 366b 793c 57d0 53bd ddf6 8d3d 9d44 ce3c
00000340: 1027 3c3d beb0 c5bc 85a9 a6bb 2809 223d
00000350: 6e3f 0f3c 1abc 143c 869c b43b 4db7 86bd
00000360: 872e 20bd d4cf 73bc 8cb6 823b b5bd a3bd
00000370: 2ec1 3cbd 3549 1fbd 3ed7 f4bc fa73 a93d
00000380: 4dbf a13d 4493 12bd 00b5 993b 4b10 b93c
00000390: c890 8a3c 13c3 3bbc b9a2 f2bc 81b4 d0bc
000003a0: 30a1 cb3d 3e17 84bb 9f68 a13c fd7f 913c
000003b0: 96c6 b83c dbc4 f13c 07cb 0b3d ad07 b03c
000003c0: 395e 843d 050e 9f3d 93cc 903d 34d6 12bd
000003d0: eeeb d43c dafa 5e3d 5f31 723d 2169 643d
000003e0: bfea 17bd 3393 bb3d ec61 dc3c ec91 87bb
000003f0: 4bcc 383d b34c 373c 5c8c c43d 7122 5ebd

convs.3.att f4 [10, 4]
-0.013644261 -0.011552767 0.002249015 0.042033102 -0.01993207 -0.009396846 0.010943626 0.035109557
-0.026766842 -0.0049475306 0.008249652 0.031376623 -0.010273693 -0.004594568 -0.009051869 0.014945038
0.006358686 0.0003817922 -0.0030804072 -0.0065069874 0.013069555 -0.0046617156 -0.020044588 -0.018063048
-0.009549638 0.0030423796 0.014001317 0.005521379 -0.014328355 -0.00655164 0.014901655 0.006148556
-0.00030210832 0.00075074215 -0.004467248 0.0045797303 -0.002579952 -0.0033044058 -0.0032527016 0.023842027
00000000: 2e8c 5fbc d147 3dbc 3664 133b e72a 2c3d
00000010: 9548 a3bc 3bf5 19bc e54c 333c 0acf 0f3d
00000020: 2346 dbbc e51e a2bb 8c29 073c c684 003d
00000030: fe52 28bc 088e 96bb 4a4e 14bc 08dc 743c
00000040: 865c d03b 482b c839 a8e0 49bb 9138 d5bb
00000050: b021 563c 4ec1 98bb 8c34 a4bc f5f8 93bc
00000060: 1676 1cbc a962 473b c865 653c afec b43b
00000070: 7ac1 6abc 24af d6bb 1226 743c d379 c93b
00000080: 4b64 9eb9 74cd 443a fe61 92bb 9011 963b
00000090: 6914 29bb bb8e 58bb 472b 55bb 5b50 c33c
