results/flixster_testmode/model_checkpoint35.pth (torch_old, 199981 bytes, 19 tensors)

convs.0.basis f4 [4, 4, 32]
0	0x3be6635b	0.007030887
1	0x3bd0d8a3	0.0063734814
2	0x3d021126	0.031754635
3	0x3cab7d22	0.020933691
4	0xbd8e84d5	-0.069589294
5	0x3e4f7411	0.2025912
6	0xbdfdaee7	-0.123868756
7	0xbdf166c6	-0.117871806
8	0x3dafc199	0.08581848
9	0xbe48fd54	-0.19627887
10	0x3dac2b08	0.08406645
11	0xbdd2f4a5	-0.103005685
12	0xbe4b5478	-0.19856441
13	0x3d9ece96	0.07754247
14	0x3e14ac04	0.14518744
15	0xbde495e6	-0.11161403
16	0xbd52acdc	-0.051434383
17	0xbdaaa649	-0.083324976
18	0xbe472356	-0.19447073
19	0xbbda2107	-0.006656769
20	0x3d528214	0.051393583
21	0x3e3f2992	0.18668202
22	0x3d534391	0.05157811
23	0xbda9b922	-0.082872644
24	0x3d87ea7d	0.06636522
25	0xbdf7195a	-0.12065382
26	0x3de75d25	0.11297063
27	0x3ccd9c07	0.025098814
28	0x3e158453	0.14601259
29	0x3e87a9c5	0.2649671
30	0xbe1cdda0	-0.15318918
31	0x3cf9085a	0.03039949
32	0xbe34b0f7	-0.17645632
33	0xbe023560	-0.12715673
34	0xbde52352	-0.111883774
35	0x3d0027c6	0.03128793
36	0x3c88f413	0.016717946
37	0x3e77575d	0.2415442
38	0x3c05db39	0.008169943
39	0xbd9a7b0c	-0.075430006
40	0xbe654233	-0.22388534
41	0xbdadd2f1	-0.084874995
42	0x3dda90a9	0.10672123
43	0xbe56613d	-0.20935531
44	0xba345053	-0.00068784243
45	0xb9d7ec07	-0.0004118385
46	0x3cf17129	0.029472904
47	0xbdb89e93	-0.09014621
48	0xbd3564a7	-0.044285443
49	0xbe54f913	-0.2079814
50	0x3d9ad18e	0.07559501
51	0xbdfacd93	-0.122462414
52	0xbd9be659	-0.07612295
53	0x3e0be25d	0.1366057
54	0xbdb939e8	-0.09044248
55	0xbdaeaf86	-0.08529572
56	0x3c212941	0.009836496
57	0xbd7ffe5c	-0.062498435
58	0xb6465dcf	-2.9558903e-06
59	0x3d1caa11	0.038248125
60	0x3db99a73	0.09062662
61	0x3e03f88d	0.12887783
62	0xbe697fe0	-0.22802687
63	0xbb23cc99	-0.0024993776
64	0xbd8edb05	-0.069753684
65	0xbdc42ee4	-0.09579256
66	0x3c33a874	0.010965455
67	0x3d0bb966	0.034112357
68	0xbb705989	-0.003667446
69	0xbdbf1934	-0.09330979
70	0x3cf6017b	0.030030003
71	0xbea6337e	-0.3246116
72	0xbed2dcbc	-0.41184032
73	0x3cd13ce8	0.025541738
74	0x3d0fae5c	0.03507839
75	0x3d8f7294	0.07004276
76	0x3e86b5fd	0.2631072
77	0x3d39b5fe	0.045339577
78	0x3d5f6832	0.054542728
79	0xbe27d447	-0.16389571
80	0x3bb7c53f	0.0056082304
81	0xbd7c5dff	-0.06161308
82	0x3d1215d4	0.03566535
83	0x3d50e189	0.050996337
84	0x3d6d8748	0.057990342
85	0x3dcb3ebf	0.09924077
86	0xbf38a318	-0.7212386
87	0xbef031f0	-0.469131
88	0xbeca7ef7	-0.3954999
89	0x3d01bbb9	0.031673167
90	0xbd80f49e	-0.06296657
91	0x3d3bd65f	0.045858737
92	0xbd26afaf	-0.04069489
93	0x3d35e412	0.044406958
94	0xbc3c4ec4	-0.011493389
95	0x3deffa8c	0.1171771
96	0x3dfc1cca	0.123101786
97	0xbd0e965f	-0.034811374
98	0xba91de0d	-0.0011128798
99	0xbb1898f5	-0.002328453
100	0xbe00686c	-0.12539834
101	0xbe97bb58	-0.2963512
102	0xbd5499eb	-0.0519046
103	0x3da8b293	0.08237185
104	0x3ebf1c84	0.37326443
105	0x3f1d99b7	0.61562675
106	0x3f238c63	0.6388609
107	0x3e1e92b4	0.1548565
108	0x3da1ca42	0.07899906
109	0x3d5fdce7	0.05465403
110	0x3c6bac23	0.014384302
111	0xbd14685c	-0.036232337
112	0xbedfce0e	-0.43711895
113	0xbc1c7109	-0.009548434
114	0xbe2f2cf9	-0.17107
115	0xbd226331	-0.039645378
116	0xbd9ef176	-0.07760899
117	0xbf17780c	-0.5916755
118	0xbdd60512	-0.10450186
119	0x3d2b1a13	0.041772913
120	0xbd397083	-0.045273315
121	0x3e850077	0.25976917
122	0xbe28a8bb	-0.16470616
123	0xbe50f777	-0.204069
124	0xbc25a772	-0.010110723
125	0x3d26082b	0.040535133
126	0x3e3490de	0.17633387
127	0x3d3c910d	0.04603677
128	0x3ac4b945	0.0015008828
129	0x3cd1aaf5	0.025594214
130	0x3cd7dcdb	0.02635043
131	0x3b5da55e	0.003382049
132	0xbd88c1e0	-0.06677604
133	0x3da0f2f7	0.07858842
134	0xbcc55436	-0.024088006
135	0xbdb07b67	-0.08617287
136	0xbcea619b	-0.028610995
137	0xbe07f9ed	-0.13278933
138	0x3d4dc56c	0.050237104
139	0x3bff3d6c	0.0077893045
140	0xbdff8f6e	-0.12478529
141	0x3cb0cf11	0.021583112
142	0x3e071ca2	0.13194516
143	0xbe3b97bc	-0.18319601
144	0xbd73a5ec	-0.059484407
145	0xbd3240a9	-0.043518696
146	0xbdb13dde	-0.08654378
147	0xbd37d56b	-0.044881266
148	0x3c8ea51b	0.017412713
149	0x3e131508	0.14363492
150	0x3dcac8c3	0.099015735
151	0xbddd63d5	-0.10810057
152	0x3d2afc3a	0.04174445
153	0xbd6b471d	-0.057440866
154	0x3de28a51	0.11061538
155	0xba83ff28	-0.0010070549
156	0x3da0ebbf	0.07857465
157	0x3e3b4995	0.18289788
158	0xbd9f2867	-0.07771378
159	0x3ce64d37	0.02811299
160	0xbe035787	-0.12826358
161	0xbdee3f1e	-0.116331324
162	0xbe0625a5	-0.13100298
163	0x3dfc859a	0.1233017
164	0x3b13bbf3	0.0022542446
165	0x3e4e0cff	0.20122145
166	0xbcf6d647	-0.030131472
167	0xbc5f7abb	-0.013640101
168	0xbdfd8d11	-0.12380422
169	0xbdebcfd8	-0.115142524
170	0x3db2debe	0.08733891
171	0xbe4ebc63	-0.20189051
172	0xbc06fca5	-0.008238946
173	0xbcaafc83	-0.02087236
174	0x3dcbb4c8	0.09946591
175	0xbd75eab3	-0.06003828
176	0xbd1ca1e4	-0.03824033
177	0xbe0dbbed	-0.13841219
178	0x3c2c2e12	0.010509031
179	0xbdce7640	-0.10081148
180	0xbd99cd47	-0.07509857
181	0x3df69dd4	0.12041822
182	0xbbed8eef	-0.007249705
183	0xbd260ec7	-0.040541437
184	0x3cf58233	0.02996931
185	0xbd26f0df	-0.040757056
186	0xbb7843b3	-0.0037882149
187	0x3c69a2ad	0.014259976
188	0x3e14b6ea	0.14522901
189	0x3e5a4e88	0.2131902
190	0xbe4ce57f	-0.20009421
191	0x3cd435f1	0.025904628
192	0xbc93934f	-0.018014578
193	0x3c6e66b8	0.014550857
194	0xbdef252f	-0.11677014
195	0x3cd866cc	0.026416205
196	0x3d6ae7e6	0.05735006
197	0x3dbadc60	0.091240644
198	0x3d05f459	0.03270373
199	0xbe5a2986	-0.21304902
200	0xbf12eb6a	-0.57390463
201	0x3d91f09d	0.071259715
202	0xbdd21dea	-0.10259612
203	0xbde7f240	-0.113255024
204	0x3e8fbfd2	0.28076035
205	0x3c049b15	0.008093615
206	0xbe1e6131	-0.15466763
207	0xbe542c4d	-0.20720024
208	0x3e1a97e8	0.1509701
209	0xbd171967	-0.03688946
210	0x3dc9a682	0.09846212
211	0x3df1573d	0.117842175
212	0xbdb50597	-0.08838957
213	0xbd0a41c5	-0.03375413
214	0xbf1b5ef3	-0.60691756
215	0xbed42775	-0.41436353
216	0xbeaf2f84	-0.3421594
217	0x3d05b33d	0.032641638
218	0x3d4ddc0c	0.05025868
219	0xbd35638b	-0.044284385
220	0x3c87c1c3	0.016571885
221	0xbd6c245b	-0.05765186
222	0xbd8bd744	-0.06828168
223	0x3c2cfe94	0.010558743
224	0xbc05b571	-0.008160935
225	0x3e2644b5	0.16237147
226	0x3cbeb14c	0.023277901
227	0x3bda960f	0.0066707204
228	0x3e163103	0.14667134
229	0xbdb19ab2	-0.08672084
230	0x3d233226	0.039842747
231	0xbdb515fe	-0.08842085
232	0x3e896288	0.26832986
233	0x3ef90b28	0.48641324
234	0x3ecc5284	0.39906704
235	0xbf178c8c	-0.5919883
236	0xbdb883fb	-0.09009548
237	0xbd007e59	-0.031370495
238	0xbcfdc177	-0.03097604
239	0x3ce77c60	0.028257549
240	0xbe78edf4	-0.24309522
241	0xbdccb5f7	-0.099956445
242	0xbe577706	-0.21041498
243	0xbca4a90f	-0.020100145
244	0x3cdc4a48	0.026890889
245	0xbebd76ca	-0.3700469
246	0x3e30bf90	0.17260575
247	0x379ce5e6	1.8703704e-05
248	0x3d927984	0.071520835
249	0x3e11b0d2	0.14227608
250	0x3dc19abd	0.09453342
251	0xbb9db037	-0.004812266
252	0x3b9b1407	0.004732612
253	0x3cc03ba1	0.023465933
254	0xbdf39180	-0.11892986
255	0xbe123c8a	-0.14280906

convs.0.att f4 [10, 4]
0	0xbdc5c70e	-0.09657107
1	0xbe3dc5c8	-0.18532479
2	0x3e99f911	0.30072835
3	0x3e25c341	0.16187765
4	0xbe50d8bf	-0.20395182
5	0xbd04c5d2	-0.03241522
6	0x3ebd997f	0.3703117
7	0x3e1395b8	0.14412582
8	0xbe6da001	-0.23205568
9	0x3e0db0dd	0.13836999
10	0x3ecc3795	0.39886156
11	0x3e0430bd	0.12909217
12	0xbe4defda	-0.20111027
13	0x3e2e2ed1	0.17010047
14	0x3ebacdaa	0.36485034
15	0x3df41544	0.119181186
16	0xbd9f2cc5	-0.07772211
17	0x3d99ab44	0.075033695
18	0x3e9fd278	0.31215262
19	0x3e4081f8	0.18799579
20	0xbd06c0de	-0.032898776
21	0x3e26cf54	0.16290027
22	0x3e8a6455	0.27029672
23	0x3e21dcaa	0.15806833
24	0x37a22232	1.9327828e-05
25	0x3e69e24b	0.2284023
26	0x3e4f409c	0.2023949
27	0x3dc82d83	0.09774306
28	0x3dc31459	0.095253654
29	0x3e5bd163	0.21466593
30	0x3e1cbb43	0.1530581
31	0x3d23a65c	0.039953575
32	0x3e358038	0.17724693
33	0x3e3d60e8	0.18493998
34	0x3d995384	0.074866325
35	0xbd3977f4	-0.04528041
36	0x3eaa87c8	0.33306718
37	0x3e216fcc	0.15765303
38	0x3c6bbeec	0.014388781
39	0xbdcdc655	-0.100475945

convs.0.root f4 [4, 32]
0	0xbded11f3	-0.11575689
1	0x3ce02220	0.027360022
2	0xbd7c8b2c	-0.061656162
3	0x3e52c38a	0.20582405
4	0x3d7edbb7	0.062221255
5	0x3c8dc822	0.017307345
6	0xbde56fed	-0.11202989
7	0xbe5b11cb	-0.21393506
8	0x3e579d8c	0.21056193
9	0x3ec51f2c	0.38500345
10	0x3eab6a9c	0.33479774
11	0xbdc44a33	-0.09584465
12	0x3d914de3	0.07094934
13	0x3e329763	0.17440562
14	0xbcb8c8a2	-0.022556607
15	0xbd8e4d04	-0.06948283
16	0xbe5f05ee	-0.21779606
17	0x3e4c3097	0.1994041
18	0x3ca4cbf0	0.020116776
19	0xbe73ced4	-0.23809367
20	0xbca4095e	-0.020023998
21	0xbe011c21	-0.12608387
22	0xbc2638dc	-0.010145392
23	0x3e10de18	0.14147222
24	0x3ba1327f	0.0049193497
25	0x3e501459	0.20320262
26	0x390aff3f	0.00013255792
27	0xbe610760	-0.2197547
28	0x3c51970e	0.012792362
29	0xbe605637	-0.21907888
30	0x3d9ce508	0.07660872
31	0xbdfe64b1	-0.12421549
32	0x3e247071	0.16058518
33	0x3d674bb2	0.056468673
34	0xbe276b32	-0.16349486
35	0x3e50d1d4	0.20392543
36	0xbdd8a7aa	-0.105788544
37	0xbd8bda87	-0.0682879
38	0xbde344b3	-0.11097088
39	0xbdd90983	-0.10597517
40	0x3d18f99e	0.03734743
41	0xbe19c634	-0.15017015
42	0xbc3c1801	-0.011480332
43	0x3e04be38	0.12963188
44	0x3e7bbc59	0.24583568
45	0x3e3053ea	0.1721951
46	0xbd87fb8e	-0.06639777
47	0x3eaec057	0.3413112
48	0xbd689b31	-0.056788627
49	0x3d9ec332	0.07752074
50	0xbba9d135	-0.00518241
51	0xbbccd59c	-0.00625105
52	0xbd5dc1ac	-0.054139778
53	0xbe21a20e	-0.15784475
54	0xbe23b930	-0.15988612
55	0xbea5e837	-0.32403728
56	0xbe4194af	-0.18904375
57	0x3d456333	0.048190307
58	0x3dd71bc6	0.10503344
59	0xbcb95cc8	-0.02262725
60	0x3ca368b5	0.01994739
61	0x3b28dc86	0.0025766208
62	0x3e489511	0.19588114
63	0x3e836dcb	0.25669703
64	0xbd1cdb10	-0.03829485
65	0x3e0c189c	0.13681263
66	0xbbfb6813	-0.0076723187
67	0xbca0c3fc	-0.019624703
68	0xbda109c0	-0.07863188
69	0xbe47178a	-0.19442573
70	0xbdb23a48	-0.087025225
71	0xbe16f26e	-0.14740917
72	0xbd9f8fd6	-0.077911064
73	0x3d75c3a8	0.060001045
74	0xbe0d72f2	-0.1381338
75	0xbd16ff0b	-0.03686432
76	0x3d392962	0.04520548
77	0x3e2d6d5e	0.16936252
78	0xbc9bdc91	-0.019026073
79	0xbd0be7b4	-0.034156516
80	0xbe03fce2	-0.12889436
81	0xbdfd67e3	-0.123733304
82	0xbe1a3319	-0.15058555
83	0x3e498f31	0.1968353
84	0xbc88d24d	-0.016701842
85	0x3d934527	0.07190924
86	0xbe0b5c71	-0.13609482
87	0x3d3500c7	0.044190194
88	0x3d2d2e42	0.042280443
89	0x3d94fb62	0.0727451
90	0x3dc24067	0.0948494
91	0xbd36d5bc	-0.044637427
92	0xbe1dd140	-0.15411854
93	0xbdd8cd9c	-0.10586092
94	0xbc6d8efa	-0.01449942
95	0xbd10786e	-0.0352711
96	0xbdfbfebe	-0.123044476
97	0xbc652af7	-0.013987294
98	0xbd9ec206	-0.07751851
99	0x3e50cd5c	0.20390838
100	0xbd3b8ba9	-0.045787487
101	0xbd813baf	-0.06310212
102	0xbd747d26	-0.059689663
103	0xbe24bf72	-0.16088656
104	0xbe29781c	-0.16549724
105	0x3d802465	0.06256942
106	0xbd712607	-0.058874156
107	0xbe099307	-0.13434993
108	0x3e24f89e	0.16110465
109	0x3e14d83e	0.14535615
110	0x3d915659	0.07096548
111	0x3ad750b7	0.0016427253
112	0x3ccc3279	0.024926411
113	0xbe34a2ea	-0.17640272
114	0xbd5c668f	-0.053808745
115	0x3dfe786f	0.12425315
116	0xbd6acaff	-0.0573225
117	0x3e0b31c8	0.13593209
118	0xbe3e5d92	-0.18590382
119	0xbdf23ba6	-0.11827783
120	0xbd66853c	-0.056279406
121	0x3ddcdcbd	0.1078429
122	0x3ce73269	0.02822228
123	0xbd32aee0	-0.043623805
124	0xbe1daf20	-0.15398836
125	0xbd25f946	-0.04052093
126	0xbdf9e906	-0.12202649
127	0xbd43abd8	-0.047771305

convs.0.bias f4 [32]
0	0x3dfd8ff7	0.12380975
1	0xbc14d7db	-0.009084667
2	0x3da13bae	0.07872711
3	0xbe4c0f93	-0.19927816
4	0x3d8ebbe4	0.06969431
5	0x3cc3250d	0.023821378
6	0x3db4ac21	0.088218935
7	0x3e11f5b3	0.14253883
8	0x3e332803	0.17495732
9	0xbc64881e	-0.0139484685
10	0x3cc874b7	0.024469716
11	0x3e185225	0.14875086
12	0xbd9d7c7b	-0.076897584
13	0xbe321903	-0.17392354
14	0xbe12f9f5	-0.14353164
15	0x3d4a089e	0.049324624
16	0x3d792fda	0.06083665
17	0x3e44affd	0.19207759
18	0x3e09095f	0.13382481
19	0xbdd96f4c	-0.10616931
20	0x3d33a3a9	0.04385725
21	0xbe74073c	-0.23830885
22	0x3e1c8fdb	0.15289252
23	0x3ca36d9f	0.019949732
24	0x3c339dab	0.010962884
25	0xbd98751a	-0.0744421
26	0xbd8e510a	-0.06949051
27	0x3d3773ff	0.044788357
28	0x3db6086f	0.08888327
29	0xbdc6633e	-0.09686898
30	0x3e1a41f1	0.15064217
31	0x3ce9ba13	0.02853111

convs.1.basis f4 [4, 32, 32]
0	0xbd8b44f9	-0.06800265
1	0xbd541b6f	-0.051783975
2	0xbd944e36	-0.0724148
3	0xbce35a33	-0.027752971
4	0xbd4f9444	-0.050678506
5	0xbd54146e	-0.051777296
6	0xbe4deafa	-0.20109168
7	0x3d553dba	0.05206082
8	0x3d65dcc5	0.056118745
9	0x3cccb11d	0.024986798
10	0xbcec62d7	-0.028855724
11	0x3d2adc99	0.041714285
12	0xbdacb399	-0.08432693
13	0xbd895d35	-0.06707231
14	0x3c5b252b	0.013375561
15	0x3c679663	0.014134976
16	0x3d508999	0.050912473
17	0x3c640030	0.01391606
18	0x3d6df6a6	0.05809655
19	0xbc76fb35	-0.015074541
20	0x3bc88ff3	0.0061206757
21	0xbe0cd68f	-0.13753723
22	0xbcf9ba4e	-0.030484345
23	0xbd40bed3	-0.047056984
24	0xbd5039dc	-0.05083643
25	0x3d3752e1	0.044756774
26	0xbd0e869d	-0.034796346
27	0x3d50c585	0.05096962
28	0x3d6c375f	0.057669993
29	0x3b957f8d	0.0045623244
30	0xbc7cb966	-0.015425062
31	0xbd0004b2	-0.031254478
32	0x3b1c669e	0.0023864876
33	0x3c3750e2	0.011188718
34	0x3a473c8d	0.00076002703
35	0x3c8e8c26	0.017400812
36	0xbc89098d	-0.016728187
37	0xbcef6821	-0.029224457
38	0xbdf850ff	-0.12124824
39	0xbc8ebcc6	-0.017423999
40	0x3c3b2bf7	0.011424056
41	0x3bb30252	0.005462923
42	0x3d0588aa	0.032601036
43	0x3cc60847	0.024173869
44	0xbd2aab2a	-0.04166714
45	0xbbcbe31d	-0.0062221424
46	0x3cad9b6c	0.021192275
47	0x3d333c18	0.04375848
48	0x3c2246a9	0.009904542
49	0xbc08704b	-0.008327554
50	0x3be9b0df	0.0071316804
51	0x3ba46c90	0.0050178245
52	0xbc42d434	-0.0118914135
53	0xbd930483	-0.07178595
54	0xbb58f8d6	-0.0033107302
55	0xbd2817fc	-0.0410385
56	0xbd0aeb2b	-0.03391568
57	0xbbb2d82f	-0.0054579
58	0xbcf9491d	-0.030430371
59	0xbda15f70	-0.078795314
60	0x3a976680	0.0011550933
61	0x3a6d3f44	0.000905026
62	0xbad9b86b	-0.0016610747
63	0xbcd360ce	-0.025802996
64	0x3a306910	0.0006729523
65	0x3ce30f4b	0.027717253
66	0x3c982cdc	0.018576078
67	0xbc9f7f40	-0.019469857
68	0xbccbea5c	-0.024892025
69	0x3ca1d87b	0.019756546
70	0x3da5d440	0.08097124
71	0xbd8396cc	-0.064252466
72	0xb9568ce0	-0.0002046111
73	0xbcb8db88	-0.022565618
74	0x3cf7492a	0.030186255
75	0xba3d69f6	-0.0007225567
76	0xbc643f7d	-0.013931152
77	0x3bb621de	0.0055582365
78	0x3d3385d8	0.043828815
79	0xbda7bbe4	-0.08190134
80	0x3ba17dd6	0.004928331
81	0xbbb8adb6	-0.0056359423
82	0xbbc1db42	-0.00591603
83	0xba825df3	-0.0009946212
84	0xbc64817f	-0.01394689
85	0x3cdf1272	0.027230475
86	0x3ca05e11	0.019576104
87	0xbb5b1bc2	-0.0033433293
88	0xbcdd33e0	-0.027002275
89	0xbc116b4f	-0.008875682
90	0xbb169fc6	-0.0022983416
91	0x3d7f78e2	0.062371142
92	0xbc8f60f8	-0.017502293
93	0x3c92660b	0.017870924
94	0xbb7f813d	-0.0038986944
95	0xbb42795d	-0.002967439
96	0xbcc18dc3	-0.023627168
97	0xbc38d8fa	-0.0112822
98	0xbc7d241e	-0.015450506
99	0x3c0b54b1	0.008504079
100	0x3d2483f0	0.040164888
101	0x3c7eb889	0.015546926
102	0x3db2e3d7	0.08734863
103	0x3d2aaaa5	0.041666646
104	0xba009c76	-0.0004906127
105	0x3d37ed8c	0.044904277
106	0xbcad7098	-0.021171853
107	0xbd600ffd	-0.054702748
108	0x3d9d5995	0.07683102
109	0xbce5cdac	-0.028052174
110	0xbd4cf002	-0.050033577
111	0x3d21b2d6	0.039477192
112	0xbc6947d8	-0.01423832
113	0xba726bd9	-0.0009247638
114	0x39c933dc	0.00038376346
115	0x3b06c5af	0.0020564606
116	0x3c8fa7eb	0.017536124
117	0x3d6218e5	0.055199523
118	0xbcfded64	-0.030996986
119	0x3ca135d5	0.01967899
120	0x3d79d1fe	0.06099128
121	0x3c027dae	0.007964535
122	0x3b4a8cbb	0.0030906636
123	0x3ce471eb	0.027886352
124	0xbce90692	-0.028445516
125	0x3d069f61	0.03286684
126	0x3c8b51df	0.017006813
127	0x3d3ca5d0	0.04605657
128	0xbc6257fb	-0.0138149215
129	0xbc96ae3e	-0.018393632
130	0x3cca6863	0.024707979
131	0xbc987eeb	-0.018615207
132	0xbc6bf1bd	-0.014400897
133	0xbc832ba9	-0.01601203
134	0x3d589efc	0.052885994
135	0x3d8ccbdb	0.0687482
136	0xbad8b5cb	-0.0016533671
137	0x3be32939	0.0069324044
138	0xbbcd33bc	-0.0062622707
139	0xbc9eba01	-0.019375803
140	0x3d67445a	0.05646167
141	0x3c76e581	0.015069366
142	0x3ccb438f	0.024812488
143	0xbcedd2c3	-0.029031163
144	0xbc83698f	-0.016041545
145	0x39dd90f4	0.00042260403
146	0xbc955787	-0.018230213
147	0x3beeeb8f	0.0072912644
148	0x3c2063c3	0.00978941
149	0xbda87bad	-0.08226714
150	0x3d643123	0.055710923
151	0xbc3dde1e	-0.011588601
152	0x3b341a2e	0.0027481425
153	0x3c7f9521	0.01559952
154	0x3c70b673	0.014691937
155	0x3d8d4232	0.068973914
156	0xbd0d6903	-0.034523975
157	0x3cd75803	0.026287084
158	0x3c5149e6	0.012773966
159	0x3c703619	0.014661335
160	0xbc7ad445	-0.015309398
161	0xba0afc60	-0.0005301889
162	0x3b816307	0.0039485726
163	0xbda236a1	-0.07920576
164	0x3ba625ca	0.005070423
165	0x3d6966fe	0.056982987
166	0x3e87ce78	0.2652471
167	0x3cb45923	0.02201516
168	0x3b2a5568	0.0025990847
169	0x3c4c8a89	0.012484201
170	0xbc88e54f	-0.016710905
171	0xbc99d025	-0.018776009
172	0x3e0cf428	0.13765013
173	0x3c335bbc	0.010947164
174	0xbdd3890f	-0.10328876
175	0x3dbc5f49	0.09197862
176	0xbb7fdcd3	-0.0039041534
177	0xbbe79025	-0.007066744
178	0xbbf52425	-0.0074811154
179	0x3b31ed5a	0.002714953
180	0x3b1ae0b0	0.002363246
181	0x3d840145	0.06445555
182	0xbd78cba3	-0.060741078
183	0x3cc545e4	0.024081178
184	0x3dde879b	0.108657084
185	0x3bc2e84a	0.005948101
186	0x3c820c38	0.015874967
187	0x3d31d632	0.043417163
188	0xbbf6caf1	-0.0075315167
189	0x3ce86236	0.028367143
190	0x3d2d1fb8	0.042266577
191	0x3d697220	0.056993604
192	0xbd291c82	-0.041286953
193	0x3adae3d3	0.0016699977
194	0x3c9a725f	0.018853365
195	0x3bbaa2cd	0.005695677
196	0x3c375546	0.011189764
197	0x3a903166	0.001100105
198	0xbce6ea09	-0.028187769
199	0x3cdc13ed	0.02686497
200	0xbb5dc1c4	-0.0033837417
201	0x3c4f4b34	0.012652207
202	0xbb6982d4	-0.0035630958
203	0xbc9abcc5	-0.01888884
204	0xbc60173d	-0.013677415
205	0xb982719a	-0.00024880172
206	0xbbfe4f31	-0.007760905
207	0x3b9ec920	0.0048457533
208	0xbcb2d0d7	-0.021828098
209	0x3c192d9f	0.009349256
210	0x3c7c8937	0.015413574
211	0x3c8ac429	0.01693924
212	0x3cbaf949	0.022823947
213	0xbb8c9f98	-0.004291486
214	0x3aaae0d7	0.0013036978
215	0x3c9cfee8	0.019164518
216	0x3cc75c3d	0.024335975
217	0x3c907415	0.017633477
218	0x3be5ea4b	0.0070164553
219	0x3c8aaa75	0.016926983
220	0xbc0a4d2f	-0.008441254
221	0xbc97edd7	-0.018546028
222	0x3b930510	0.0044866875
223	0x3c19dad9	0.009390556
224	0xbe4efa92	-0.20212772
225	0xbd96caaa	-0.07362874
226	0xbdc144f5	-0.09436981
227	0xbc596f8a	-0.013271222
228	0xbd6da592	-0.05801923
229	0xbe1712fd	-0.14753337
230	0xbe430774	-0.19045812
231	0x3e2e7af4	0.1703909
232	0x3d9c6318	0.07636088
233	0x3d1fb4d8	0.038990825
234	0xbd8dd655	-0.06925646
235	0x3c9ae491	0.018907817
236	0xbd981dfd	-0.07427595
237	0xbdd4480a	-0.10365303
238	0x3b7ae8b6	0.003828568
239	0x3e456900	0.19278336
240	0x3d7c3da7	0.061582234
241	0xbc34bfcc	-0.011032056
242	0x3d6fe7f4	0.058570817
243	0xbc06e51d	-0.008233336
244	0x3ca9a8f6	0.02071045
245	0xbe982b8b	-0.2972072
246	0xbc91912d	-0.01776942
247	0xbd1b5a90	-0.037928164
248	0xbc1a012c	-0.009399693
249	0x3d0240ef	0.031800207
250	0xbd3a347c	-0.04546021
251	0xbdceb351	-0.10092796
252	0x3db84be7	0.08998852
253	0xbc2a4613	-0.010392684
254	0xbcb1433f	-0.02163851
255	0xbce2eef4	-0.027701832

convs.1.att f4 [10, 4]
0	0xbdaf103a	-0.08548017
1	0x3e2da552	0.16957596
2	0xbe98f218	-0.29872203
3	0xbae90e77	-0.00177808
4	0x3d1c48f2	0.038155504
5	0x3df358ae	0.11882149
6	0xbe829228	-0.25502133
7	0xbaa6dd89	-0.0012730818
8	0x3e04bb10	0.12961984
9	0x3db40048	0.08789116
10	0xbe80b104	-0.25135052
11	0xbd36cec6	-0.04463079
12	0x3de0f216	0.10983674
13	0x3d02ee3d	0.031965483
14	0xbe5e1fd0	-0.21691823
15	0xbd934ef6	-0.07192795
16	0x3de8a06e	0.113587245
17	0xbd6cbcac	-0.05779712
18	0xbe1f1159	-0.15533961
19	0xbd8a0ad6	-0.06740348
20	0x3d7543a8	0.059878975
21	0xbe0292cc	-0.12751311
22	0xbdea0ae4	-0.114278585
23	0xbdb62fb0	-0.088958144
24	0x3d5d8972	0.054086156
25	0xbe1e8303	-0.15479665
26	0xbd97d97a	-0.07414527
27	0x3d1c16d2	0.0381077
28	0x3d211237	0.03932401
29	0xbe411f72	-0.18859652
30	0x3ac7a8e7	0.0015232832
31	0x3dc6785c	0.096909255
32	0xbd40f25f	-0.047106143
33	0xbe2941b5	-0.16528971
34	0x3d212dc1	0.039350275
35	0x3db570bf	0.08859395
36	0xbe3a5e55	-0.18200047
37	0xbe28f5a5	-0.16499956
38	0x3d92270a	0.07136352
39	0x3d1d1bab	0.038356464

convs.1.root f4 [32, 32]
0	0xbd0f6c2a	-0.035015263
1	0x3d25e3df	0.040500518
2	0x3d13bf0d	0.036070872
3	0xbc2eb9a0	-0.010664374
4	0x3c2a0e26	0.01037935
5	0xbcd93331	-0.026513668
6	0xbe2997e7	-0.16561852
7	0x3da5e7f1	0.0810088
8	0xbd0f0ba2	-0.034923203
9	0xbce1bd98	-0.027556226
10	0xbbf779a2	-0.0075523416
11	0xbc4597cc	-0.012060117
12	0xbd666064	-0.05624427
13	0xbc42c126	-0.0118868705
14	0xbd60d68b	-0.054892104
15	0x3cb39588	0.021921888
16	0x3aad36a0	0.0013215132
17	0xbd27d395	-0.040973265
18	0xbd783f92	-0.0606075
19	0x3c6b3752	0.014356451
20	0xbd13ba11	-0.03606612
21	0x3c0cf95d	0.008604375
22	0xbce2279f	-0.027606783
23	0x3d51247a	0.051060177
24	0xbc08e553	-0.008355456
25	0xbd264e22	-0.040601857
26	0xbd81764c	-0.063213915
27	0x3e228136	0.15869603
28	0xbc9e41ce	-0.019318487
29	0xbde25a5f	-0.11052393
30	0xbd8ade4f	-0.06780683
31	0x3d1af7d7	0.037834015
32	0xbbecba42	-0.007224352
33	0xbd21026d	-0.039308954
34	0x3d9e2d6c	0.07723507
35	0x3d2e1feb	0.042510908
36	0xbc1cd798	-0.009572886
37	0xbc94a737	-0.01814614
38	0x3df03664	0.11729124
39	0x3d88762d	0.06663165
40	0x3d1d9a00	0.038476944
41	0xbdcf90c1	-0.101350315
42	0x3d2109ab	0.03931586
43	0x3d90d185	0.07071213
44	0xbd483766	-0.048880957
45	0xbda09c20	-0.078422785
46	0x3c0bf793	0.008542913
47	0xbda37bac	-0.07982573
48	0x3b27532c	0.0025531752
49	0xbd0cc181	-0.034364227
50	0x3de65094	0.11245838
51	0x3d7d04e1	0.06177223
52	0x3b2767e1	0.0025544094
53	0x3d7e15a7	0.062032368
54	0xbcdf32a9	-0.027245836
55	0xbdb90996	-0.090350315
56	0x3ca88287	0.020570053
57	0x3d10621a	0.035249807
58	0xbd3ebbe8	-0.04656592
59	0xbc843c15	-0.01614193
60	0x3c247e47	0.0100398725
61	0xbda9ad22	-0.082849756
62	0xbbc62f04	-0.006048085
63	0xbdb1b3d8	-0.086768806
64	0x3c709220	0.014683276
65	0x3d8e97c4	0.06962541
66	0xbc363fb3	-0.0111235855
67	0x3da5ccbc	0.080956906
68	0x3cf6a99f	0.030110179
69	0xbd95c77c	-0.07313439
70	0x3d831309	0.06400115
71	0x3d5d2547	0.05399063
72	0xba4eedb8	-0.0007893699
73	0x3cca39b0	0.02468571
74	0xbba70f9a	-0.0050982954
75	0x3d17f7f3	0.037101697
76	0x3c814c7d	0.015783543
77	0xbc3ac628	-0.011399783
78	0xbc9cbf3c	-0.019134156
79	0xbcb40077	-0.021972878
80	0xbb27aeb7	-0.0025586316
81	0xbd63fe98	-0.05566272
82	0xbc266cf0	-0.010157809
83	0xbd127ece	-0.03576546
84	0x3c8b7ff1	0.01702878
85	0xbcdbc707	-0.026828302
86	0xbbf19128	-0.0073720403
87	0xbc58076b	-0.013185362
88	0x3c99113b	0.018684974
89	0x3d7c7aa7	0.061640408
90	0x3d8e4a3c	0.06947753
91	0x3d19298e	0.037393145
92	0x3d08966c	0.03334658
93	0xbda54a08	-0.08070761
94	0xbcbfad94	-0.023398198
95	0xbc00179c	-0.007818129
96	0x3cf79cc7	0.030226124
97	0x3d8b03a0	0.06787801
98	0x3d1973fe	0.037464134
99	0xbdd42d79	-0.10360236
100	0xbc5ffc67	-0.013671017
101	0x3d14c586	0.036321186
102	0xbc1137d7	-0.008863411
103	0xbcc49e1f	-0.02400118
104	0xbcfafd35	-0.030638317
105	0x3d6a1e73	0.057157945
106	0x3db35c89	0.08757884
107	0xbd054a6f	-0.03254169
108	0x3d6f0235	0.058351714
109	0xbbe27b03	-0.006911637
110	0xbc2fb1a2	-0.010723503
111	0x3d4238d4	0.047417477
112	0xbca9438b	-0.02066209
113	0x3cc89393	0.024484431
114	0x3d992def	0.07479464
115	0x3daf7468	0.085671246
116	0xbd7ab155	-0.061204273
117	0x3c4af35f	0.012387126
118	0x3dd23760	0.10264468
119	0xbb26ea41	-0.0025469216
120	0xbd286d67	-0.04111996
121	0x3b59a246	0.0033208295
122	0x3d83d751	0.06437553
123	0x3dc6a68f	0.09699737
124	0x3d00f535	0.031483848
125	0x3c097ed3	0.008392054
126	0x3d095b55	0.033534367
127	0x3e0cfc07	0.13768016
128	0x3d25e77d	0.040503968
129	0x3e0eed02	0.13957599
130	0x3d98b045	0.07455496
131	0x3b906d3c	0.004407553
132	0x3d85927b	0.065220796
133	0x3cc6b419	0.0242558
134	0x3db970e0	0.09054732
135	0xbd870d60	-0.06594348
136	0xbd0bf30e	-0.034167342
137	0xbdb165d1	-0.08661998
138	0xbd947ac8	-0.07249981
139	0xbbb053fb	-0.005381105
140	0x3dbc2265	0.09186248
141	0xbb9fe850	-0.0048799887
142	0xbddc2219	-0.10748691
143	0x3d1c8594	0.038213328
144	0xbb590f75	-0.0033120785
145	0xbc56af03	-0.0131032495
146	0xbd1b0d9c	-0.037854776
147	0x3d2d3073	0.042282533
148	0x3da577a2	0.08079459
149	0x3e1a1238	0.15046012
150	0xbd02a21b	-0.031892877
151	0xbccc108b	-0.024910232
152	0xbcb44062	-0.022003356
153	0x3d51b469	0.051197443
154	0x3ca1ec47	0.019765986
155	0xbd5d56c6	-0.05403783
156	0xb940a81f	-0.00018373177
157	0xbd4f4c60	-0.050609946
158	0x3dc892ca	0.09793623
159	0xbd51f2e8	-0.051257044
160	0x3da010fe	0.07815741
161	0x3c62de0c	0.013846885
162	0x3d4115c6	0.047139905
163	0x3da8c8b9	0.0824141
164	0x3d3bd573	0.045857858
165	0x3d07fc9d	0.033199895
166	0xbc7ac290	-0.015305176
167	0x3d8f30c0	0.0699172
168	0x3d56b5ac	0.05241935
169	0x3c57ee6d	0.013179404
170	0x3dddeb4b	0.10835894
171	0xbdec0dd9	-0.11526079
172	0xbd9f21ed	-0.07770143
173	0xbd67c575	-0.056584794
174	0x3d459528	0.04823795
175	0xbc36039d	-0.01110926
176	0xbdcaed94	-0.09908596
177	0x3d234033	0.039856147
178	0xbd9b96a2	-0.0759709
179	0x3d46c31c	0.048525915
180	0xbcfa83a2	-0.030580346
181	0x3d54cebf	0.05195498
182	0x3d96843c	0.073494405
183	0xbd38052e	-0.044926815
184	0xbe008c1d	-0.12553449
185	0xbd104d4f	-0.035229977
186	0x3c7e1fef	0.015510543
187	0x3e3de6c1	0.18545057
188	0xbde6013a	-0.11230703
189	0xbc96baf0	-0.018399686
190	0xba7d8827	-0.00096714724
191	0xbcc13e06	-0.023589145
192	0xbd415a2b	-0.04720513
193	0xbd07a0fc	-0.03311251
194	0x3df9f262	0.12204434
195	0xbd1b9200	-0.037981033
196	0xbd69bdb4	-0.05706568
197	0xbcdc0459	-0.026857542
198	0xbd3c5f44	-0.04598929
199	0xbd42025e	-0.04736554
200	0x3b241651	0.0025037716
201	0xbbfe790b	-0.0077658943
202	0xbd5a9975	-0.053369004
203	0x3c2444b7	0.0100261485
204	0xbb0e1722	-0.0021681269
205	0x3d539586	0.05165627
206	0xbda5ad18	-0.08089656
207	0xbccbd238	-0.024880514
208	0xbd1ee6ae	-0.038794212
209	0x3b499696	0.0030759922
210	0xbe02867a	-0.12746611
211	0xbc9d093c	-0.019169442
212	0xbc6219bc	-0.013800081
213	0x3d8353c0	0.064124584
214	0x3df3c01b	0.119018756
215	0x3c05e403	0.008172038
216	0x3d015ec1	0.031584505
217	0x3bbd811e	0.0057832142
218	0xbd0c7e25	-0.03429999
219	0xbd853765	-0.06504706
220	0xbde2f77b	-0.110823594
221	0xbb504733	-0.003178072
222	0x3d9cba3c	0.07652709
223	0x3df27ca9	0.11840183
224	0xbc37cfa0	-0.011218935
225	0x3d5abfd4	0.053405598
226	0xbd2dfad8	-0.04247555
227	0xbd50e0db	-0.05099569
228	0xbd0de7cf	-0.034644898
229	0xbd686bb7	-0.05674335
230	0xbe2fb0be	-0.17157266
231	0xbd2202b6	-0.039553367
232	0xbc847dea	-0.016173322
233	0x3d76cb61	0.06025255
234	0x3d0246dd	0.03180586
235	0xbd27a0e3	-0.040924918
236	0xbcd31ff5	-0.025772074
237	0x3da5b5ec	0.080913395
238	0xbd6ae71d	-0.057349313
239	0xbd29da24	-0.0414678
240	0xbc746ba9	-0.014918246
241	0x3ca5a04e	0.02021804
242	0x3d19b940	0.037530184
243	0x3d9e3a05	0.0772591
244	0x3d427777	0.04747721
245	0xbd1ce2da	-0.03830228
246	0xbbb9fd4c	-0.0056759473
247	0x3babc6e8	0.0052422173
248	0xbd55988e	-0.05214744
249	0xbc8aef96	-0.016959947
250	0xbb156666	-0.002279663
251	0x3d4f6ada	0.05063901
252	0x3c03cb18	0.008044027
253	0x3d9434a8	0.07236606
254	0xbd0c79d2	-0.034295864
255	0xbcdf0204	-0.02722264

convs.1.bias f4 [32]
0	0xbd94ec14	-0.07271591
1	0xbcf770b0	-0.0302051
2	0xbccda7b5	-0.025104383
3	0xbd46a4c5	-0.04849698
4	0xbc748fa9	-0.014926829
5	0xbe06e5f5	-0.13173659
6	0xbd448686	-0.047979854
7	0x3d8849e8	0.066547215
8	0x3c470713	0.012147683
9	0xbd187026	-0.037216328
10	0x3c8d9977	0.017285092
11	0xbd4e1946	-0.05031707
12	0xbd988b36	-0.074484274
13	0x3cfc5ee6	0.03080697
14	0x3dc17863	0.0944679
15	0x3e039565	0.12849958
16	0xbce628bb	-0.028095594
17	0x3d4c2854	0.049843147
18	0x3d83fce5	0.0644472
19	0x3cf0746d	0.029352391
20	0xbc88a8a0	-0.01668197
21	0xbd0d6ad4	-0.034525707
22	0xbc6c649f	-0.014428287
23	0xbd85ebfe	-0.065391526
24	0xbd1a4f5a	-0.03767333
25	0x3d944b21	0.07240892
26	0x39559ed5	0.00020372432
27	0xbdec1181	-0.11526776
28	0xbd30a1bf	-0.043123003
29	0xbbca7efe	-0.0061796894
30	0xbd192680	-0.037390232
31	0x3d027f40	0.031859636

convs.2.basis f4 [4, 32, 32]
0	0x3cebe6c4	0.028796561
1	0x3c4fd23a	0.012684399
2	0xbc66585a	-0.014059151
3	0x3d84c266	0.06482391
4	0xbda9862f	-0.082775466
5	0x3923698b	0.00015584209
6	0x3c27ba99	0.010237359
7	0x3d96967e	0.07352923
8	0xbc2b60db	-0.010460104
9	0x3c01a8a7	0.007913745
10	0xbd9eb971	-0.07750214
11	0x3c5fb215	0.013653298
12	0x3d1417f1	0.036155645
13	0x3c617b6a	0.013762334
14	0x3bd71850	0.0065641776
15	0xbd128c08	-0.035778075
16	0x3c5ba764	0.013406608
17	0x3d50fb4a	0.051020898
18	0xbd11513d	-0.035477865
19	0xbca7dc96	-0.020490926
20	0x3aec6c68	0.0018037679
21	0x3d3af321	0.045642022
22	0x3d525af5	0.051356275
23	0x3a355415	0.0006917131
24	0xbc8b6e7e	-0.01702046
25	0x3cda9395	0.0266817
26	0x3b25fa60	0.0025326237
27	0x3c916e75	0.017752865
28	0x3cf6bb0e	0.030118492
29	0x3ba5a76b	0.005055358
30	0x3b984c42	0.0046477625
31	0xbd637516	-0.055531584
32	0xbc95d4a6	-0.018289875
33	0x3d55c2c6	0.052187704
34	0x3bb1911b	0.0054189092
35	0x3b496bf4	0.003073451
36	0x3c4c98f6	0.012487641
37	0xbd2003ac	-0.039066
38	0x3c2a434e	0.010392023
39	0x3c074edd	0.008258549
40	0x3d30ee6a	0.04319612
41	0x3cb1b0d2	0.02169076
42	0x3d1cd7c5	0.03829171
43	0xbc741dbb	-0.014899666
44	0xbcf4931a	-0.0298553
45	0xbd3d4e93	-0.046217512
46	0x3cf765d5	0.030199924
47	0x3d24dc65	0.040249247
48	0xbb42dbe6	-0.002973312
49	0x3bd4f772	0.0064992243
50	0xbd6d55cc	-0.05794315
51	0x3d0cbf30	0.034362018
52	0x3d533ea5	0.051573414
53	0x3d78815c	0.06067024
54	0x3d69b453	0.057056736
55	0xbcd1a99d	-0.025593573
56	0x3d7c709b	0.061630826
57	0xbdfdd8aa	-0.12394841
58	0xbcee8ca9	-0.029119806
59	0x3af45a61	0.0018642658
60	0x3d1efdcf	0.03881627
61	0xbdac8156	-0.08423106
62	0x3c1f3be0	0.009718865
63	0x3d254587	0.04034951
64	0xbced6f28	-0.028983667
65	0x3d74056e	0.05957549
66	0xbd3bdad4	-0.045862988
67	0x3ce99883	0.028515106
68	0xbb236eae	-0.0024937796
69	0xbcb3a38b	-0.02192857
70	0xbc4ec433	-0.01262002
71	0xbd70b93f	-0.058770414
72	0xbacf65c5	-0.0015823176
73	0x3ca69ea0	0.02033931
74	0x3d82570a	0.06364258
75	0x3da83fda	0.08215304
76	0x3b6263e9	0.0034544414
77	0x3d48ca8a	0.04902128
78	0x3d8681b3	0.06567707
79	0xbbaf3b57	-0.00534765
80	0x3c50ad26	0.012736594
81	0x3da0453e	0.07825707
82	0xbc49e58e	-0.0123227965
83	0xbbbe1ff3	-0.0058021485
84	0xbce06c01	-0.02739525
85	0x3da324a2	0.079659715
86	0x3d834efa	0.06411548
87	0xbd2d16ae	-0.042257957
88	0x3de5a622	0.11213328
89	0xbe14b379	-0.14521588
90	0xbd0cff0a	-0.03442291
91	0x3cfe5326	0.031045508
92	0x3c203bc2	0.009779872
93	0xbcafddde	-0.0214681
94	0x3b9030b1	0.0044003357
95	0x3da84483	0.082161926
96	0xbc70642e	-0.014672322
97	0xbc618ec9	-0.013766953
98	0x3d0a1460	0.033710837
99	0x3c8f1be0	0.017469347
100	0x3d23b04a	0.039963044
101	0xbc179c58	-0.009253584
102	0x3d3d97e6	0.04628744
103	0x3dc207bb	0.09474131
104	0xbcc1e633	-0.023669338
105	0xbda55729	-0.08073265
106	0xbb4b5965	-0.0031028625
107	0xbce6a8b0	-0.028156608
108	0xbd012925	-0.03153338
109	0xbd963dd6	-0.07336013
110	0xbd717a54	-0.05895455
111	0x3c588456	0.013215145
112	0x3c883a6b	0.016629418
113	0xbd9a52ef	-0.075353496
114	0x3d95811f	0.073000185
115	0x3d0131a5	0.031541485
116	0x3d05e37b	0.032687645
117	0xbde69a6e	-0.11259924
118	0xbd0f9a1d	-0.035059083
119	0x3d3bb3c3	0.04582573
120	0xbc5567ff	-0.013025283
121	0x3ca2f5ba	0.019892562
122	0xbd880ac7	-0.066426806
123	0xbc1c4ccb	-0.009539793
124	0x3bc960a7	0.006145555
125	0x3caea768	0.02132006
126	0xbddf1ca6	-0.10894136
127	0x3d2aa576	0.041661702
128	0xb993044c	-0.00028041226
129	0x3dfcb271	0.123387225
130	0xbd03099a	-0.03199158
131	0xbc830427	-0.01599319
132	0x3cc9d5b1	0.024638029
133	0xbd4ed441	-0.05049539
134	0xbd86d6c8	-0.06583935
135	0x3b600f04	0.0034188638
136	0xbd26bbb6	-0.04070636
137	0x3c06aa18	0.008219264
138	0xbcb03b9c	-0.021512799
139	0x3b3becc7	0.0028675066
140	0x3c7270ad	0.014797372
141	0x3d5eedc8	0.054425985
142	0x3c94d99d	0.018170172
143	0x3d0613ae	0.03273361
144	0xbc016029	-0.0078964615
145	0x3c661131	0.014042185
146	0xbbc06a2d	-0.005872032
147	0x3b2eca03	0.0026670701
148	0xbd0f9893	-0.035057615
149	0x3dd094a6	0.101846024
150	0xbc9cd320	-0.019143641
151	0xbbe5c07f	-0.0070114727
152	0x3cb97e3f	0.022643207
153	0xbca80288	-0.02050902
154	0xbd407bc5	-0.046993036
155	0xbc02385a	-0.007948006
156	0x3d89ba74	0.06725016
157	0x3c2171fe	0.009853838
158	0xbba49977	-0.0050231772
159	0x3c741bf5	0.014899244
160	0x3d14cce2	0.036328204
161	0x3be3b4bb	0.006949035
162	0xbcd43319	-0.025903272
163	0x3d6f27a6	0.05838742
164	0xbc9161b9	-0.017746793
165	0x3cee506d	0.029091084
166	0x3d728732	0.059210964
167	0x3d0d21d6	0.034456097
168	0x3d40cddb	0.04707132
169	0x3d8bfdba	0.06835504
170	0xbd183cf6	-0.037167512
171	0x3c87bb62	0.016568843
172	0xbd53a7f1	-0.051673833
173	0xbcd3717a	-0.025810946
174	0x3d310f18	0.043227285
175	0x3ca9bd42	0.020720128
176	0xbbddb47c	-0.0067659
177	0x3d97cb32	0.07411803
178	0x3cfe4f72	0.031043742
179	0xbc832526	-0.016008925
180	0x3d7aaea4	0.061201707
181	0x3d6fe30b	0.058566134
182	0x3cc1f91f	0.02367836
183	0xbcc4407c	-0.02395653
184	0x3d6f00ab	0.058350246
185	0xbb55aff2	-0.0032606092
186	0x3ceb22a9	0.02870305
187	0x3c5df01f	0.013546019
188	0x3ccb6567	0.024828626
189	0xbc902024	-0.01759345
190	0x3db2c2f7	0.08728593
191	0x3c6a7621	0.014310391
192	0x3d0ab825	0.03386702
193	0x3d688757	0.056769695
194	0xbd9e9d2f	-0.07744824
195	0x3d1d491e	0.038399808
196	0x3d2f71c9	0.042833123
197	0x3c4087bf	0.011751114
198	0xbdef98d4	-0.116990715
199	0xbe01a60d	-0.12661
200	0xbd2d915a	-0.042374946
201	0x397b3c1c	0.00023959618
202	0x3c84b067	0.016197396
203	0x3dfbbe4e	0.12292157
204	0x3c36be28	0.011153735
205	0xbb4c5346	-0.0031177565
206	0x3c91b689	0.017787235
207	0x3d15984c	0.036522195
208	0xb9102fa3	-0.00013750656
209	0x3d936d46	0.07198577
210	0x3c3bd38b	0.01146401
211	0xbd100d8e	-0.035169177
212	0xbdd597b1	-0.104293235
213	0xbc646f2c	-0.013942521
214	0x3d1b80c3	0.037964594
215	0xbd1a28f2	-0.037636705
216	0x3c335b26	0.010947024
217	0xbd3e4a69	-0.04645768
218	0x3dab425a	0.08362265
219	0xbb976ed1	-0.0046213646
220	0xbd9d7a56	-0.07689349
221	0xbcc44a6f	-0.023961274
222	0x3cbe0ce4	0.023199506
223	0x3c5246ab	0.012834231
224	0x3da5d5db	0.0809743
225	0xbc68a4ba	-0.01419943
226	0x3c3989b3	0.011324334
227	0xbc7c9692	-0.015416758
228	0x3d84cb1d	0.06484053
229	0xbcbdd36a	-0.0231721
230	0x3d6c696f	0.057717737
231	0xbd7a2f2c	-0.061080143
232	0xbbbeb9e2	-0.005820499
233	0x3a99f924	0.0011747223
234	0x3c58fe06	0.013244158
235	0x3c8d7161	0.017265977
236	0xbcb2b87b	-0.021816483
237	0xbcfdb341	-0.030969264
238	0x3d0773bc	0.033069357
239	0xbb93f93a	-0.004515794
240	0xbda0a1c3	-0.078433536
241	0x3cd7e890	0.026356012
242	0xbd3ca093	-0.046051573
243	0x3c8dea28	0.017323568
244	0xbd2bb130	-0.041917026
245	0xbd100fff	-0.035171505
246	0x3cabc17c	0.020966284
247	0xbdce74ff	-0.10080909
248	0x3d9943b1	0.07483614
249	0xbd9c650a	-0.07636459
250	0x3cb4742a	0.022028048
251	0xbc80282c	-0.015644155
252	0x3cba64e1	0.022753181
253	0x3a153e23	0.0005693158
254	0xbdaa3f76	-0.083128855
255	0x3cda22a4	0.026627846

convs.2.att f4 [10, 4]
0	0x3ca88133	0.02056942
1	0x3b7feadd	0.0039049902
2	0x3c0155ee	0.007894022
3	0x3cff9a90	0.03120163
4	0xbbcbcbd3	-0.006219366
5	0x3bbb3a7f	0.0057137604
6	0xbade8832	-0.0016977845
7	0x3c6b7eed	0.014373523
8	0x3c0397d7	0.008031807
9	0xb9dc6be7	-0.00042042063
10	0x3a83b15d	0.0010047365
11	0x3cba9d57	0.022780104
12	0x3ccfa4f4	0.02534721
13	0x3b508aee	0.003182109
14	0x3c2f911d	0.01071575
15	0x3ce8bdc4	0.0284108
16	0xbc3f9a68	-0.011694528
17	0x3c40fa98	0.011778496
18	0xbc0c1dfb	-0.00855207
19	0xbc33d332	-0.010975646
20	0xbb981975	-0.0046417066
21	0x3b9cca94	0.0047848914
22	0xbc9b1bcf	-0.018934159
23	0xbc29d255	-0.0103650885
24	0xb9f781f7	-0.00047208343
25	0xb9acdd37	-0.00032971214
26	0xbb12a14c	-0.0022373972
27	0xbb16c792	-0.0023007137
28	0x3c53cef1	0.012927757
29	0x3b9f8741	0.0048684184
30	0x3c35e78b	0.011102567
31	0x3c7fcd19	0.015612864
32	0x3b3d9adb	0.0028931412
33	0xbc516095	-0.012779375
34	0x389ddcc5	7.527465e-05
35	0x3b0f2575	0.0021842394
36	0x3c5e5530	0.013570115
37	0x3c8fae9e	0.017539319
38	0xbc9a965e	-0.018870529
39	0xbbd93255	-0.0066283145

convs.2.root f4 [32, 32]
0	0xbd1044db	-0.035221916
1	0xbdac35a8	-0.084086716
2	0x3df5aaa7	0.1199544
3	0xbd2b66c2	-0.041846044
4	0x3cc4acca	0.024008173
5	0xbdd92995	-0.10603634
6	0xbd47f217	-0.04881486
7	0xbb91926d	-0.004442504
8	0x3d56b04d	0.052414227
9	0xbc4168eb	-0.0118048
10	0x3cdecda4	0.027197666
11	0x3cbbde53	0.02293316
12	0xbcca9016	-0.024726909
13	0x3d40002e	0.04687517
14	0xbd8ea7f8	-0.06965631
15	0xbd4af600	-0.04955101
16	0xbc4a013a	-0.012329394
17	0x3cae0ccb	0.021246335
18	0x3d34f853	0.044182133
19	0x3c9bb671	0.019007893
20	0xba6625a1	-0.0008779411
21	0xbdabb30c	-0.0838376
22	0xbd876c9c	-0.066125125
23	0x3d2aa5d7	0.041662063
24	0xbe046c86	-0.12932023
25	0x3d1ec8f2	0.038765855
26	0x3d60e115	0.054902155
27	0x3c16b3ea	0.009198168
28	0x3c515c2e	0.012778325
29	0x3be2ae73	0.0069177686
30	0xbd2b9bf5	-0.04189678
31	0xbd35b22c	-0.04435937
32	0xbd5d093d	-0.05396389
33	0xbd11a651	-0.035559002
34	0xbd895284	-0.06705192
35	0x3d596ac1	0.053080324
36	0xbcb1611e	-0.021652754
37	0xbc098de6	-0.008395648
38	0xbca6f091	-0.020378383
39	0xbdd78af4	-0.1052455
40	0xbcd1dece	-0.025618937
41	0x3d97b6ed	0.07407937
42	0xbd511c36	-0.051052295
43	0xbd6e52a2	-0.058184274
44	0xbcef9541	-0.029245974
45	0x3c205415	0.009785672
46	0xbd068071	-0.032837335
47	0x3cde3f59	0.027129816
48	0xbd90b34b	-0.070654474
49	0x3ce1b9de	0.027554449
50	0xbcfe61ce	-0.031052496
51	0xbd403a90	-0.04693085
52	0x3d64a93d	0.05582546
53	0x3d380f4c	0.044936463
54	0xbbad3ee7	-0.0052870396
55	0x3cc2dcef	0.02378699
56	0x3cadd0a9	0.021217661
57	0xbde2d072	-0.11074914
58	0xbd7f3bb4	-0.062312797
59	0xbd4f2686	-0.05057385
60	0xbd0a22fb	-0.033724766
61	0xbc20cf46	-0.009815043
62	0x3cdc07e0	0.026859224
63	0x3d42dd73	0.04757447
64	0xbd0eb83c	-0.03484367
65	0xbddde0fa	-0.108339265
66	0x3c855b04	0.016278751
67	0xbd0ce611	-0.034399096
68	0x3c64dd2f	0.01396875
69	0xbddc31ca	-0.10751684
70	0xbc360ce2	-0.01111147
71	0x3c7730c2	0.015087308
72	0x3d7dd4e7	0.061970618
73	0xbbd376b6	-0.0064533604
74	0x3d2e9181	0.042619232
75	0xbd839ffc	-0.06426999
76	0xbc1b3395	-0.009472747
77	0xbdb7c9f9	-0.0897407
78	0x3c406d4c	0.011744808
79	0xbcf6ad15	-0.030111829
80	0xbcbfaf01	-0.023398878
81	0x3cf2d3e2	0.02964205
82	0x3d046f6a	0.032332815
83	0xbc11d7ce	-0.0089015495
84	0xbccda25f	-0.025101839
85	0xbd8046ff	-0.062635414
86	0xbc8f6390	-0.01750353
87	0x3d51d927	0.051232483
88	0xbd1917ca	-0.037376203
89	0x3ca96c01	0.020681383
90	0x3b466882	0.0030274694
91	0x3c2ab740	0.010419667
92	0xbc2e95bc	-0.010655817
93	0x3c287cdf	0.010283678
94	0x3bc9009f	0.0061341072
95	0xbd69e750	-0.057105362
96	0x3c45e008	0.012077339
97	0xbd3f0653	-0.04663689
98	0x3d023267	0.03178635
99	0xbd28f863	-0.041252505
100	0xbcc86744	-0.024463303
101	0x3cdc808e	0.026916768
102	0xbc41810c	-0.011810552
103	0x3c5b8dac	0.013400476
104	0xbc37c629	-0.011216679
105	0x3d07c48f	0.033146437
106	0x3d3536a5	0.044241566
107	0x3cd47d62	0.025938693
108	0x3cd43d78	0.025908217
109	0xbc3beefe	-0.011470554
110	0x3d26890e	0.04065805
111	0xbc47c69f	-0.012193351
112	0x3c7fee0c	0.01562072
113	0xb99960e0	-0.00029254612
114	0xbcfae95d	-0.030628854
115	0xbd2dbd34	-0.042416766
116	0xbc9d0bcf	-0.01917067
117	0xbd9374fc	-0.072000474
118	0x3d72e0a1	0.059296254
119	0xbceadb99	-0.028669165
120	0xbc07e413	-0.008294123
121	0xbc8e4c7d	-0.017370457
122	0x3b09e494	0.0021040784
123	0x3cfae7a3	0.030628031
124	0xbc99e812	-0.018787418
125	0xbcdada1a	-0.026715327
126	0x3bc638fa	0.0060492726
127	0x3ce887a6	0.028384995
128	0x3bbb91cb	0.005724167
129	0x3d8551c3	0.065097354
130	0xbc029cd5	-0.007971962
131	0xbc8205ce	-0.015871909
132	0xbd1aa4d7	-0.03775486
133	0x3d05feac	0.032713577
134	0x3d10d772	0.035361715
135	0x3bc397ce	0.0059690243
136	0x3bdaf979	0.0066825715
137	0xbab0e008	-0.0013494501
138	0xbbdeefda	-0.006803495
139	0xbc55cf53	-0.013049918
140	0x3d0475a8	0.03233877
141	0x3ce49216	0.02790169
142	0x3c29cea9	0.010364213
143	0x3d0a5232	0.033769794
144	0x3ba87145	0.005140456
145	0x3c36abe4	0.01114938
146	0xbc693d7f	-0.014235853
147	0xbd0f61b7	-0.035005298
148	0x3d0b8953	0.03406651
149	0xbd80453f	-0.06263208
150	0x3d026475	0.031834085
151	0x3d48103b	0.048843604
152	0x3d3849a9	0.044992123
153	0x3c6b2f10	0.014354482
154	0xbd4d8612	-0.050176688
155	0xbcb71e92	-0.022353444
156	0xbca5b712	-0.020228896
157	0x3d1242fd	0.035708416
158	0x3cb5746d	0.022150243
159	0xbcb53cc4	-0.022123702
160	0xbd861221	-0.065464266
161	0xbdc3e8c6	-0.095658824
162	0xbd2555bc	-0.040364966
163	0x3ce042c1	0.02737558
164	0x3c4a7711	0.012357489
165	0x3c2e8d86	0.010653859
166	0xbd71c584	-0.059026256
167	0xbd302830	-0.043007076
168	0x3cf3fed2	0.029784594
169	0x3c93f40d	0.018060708
170	0x3da45985	0.08024887
171	0x3ceb96fe	0.028758522
172	0xbc2c98ef	-0.010534509
173	0xbc586f7a	-0.013210172
174	0xbd125b80	-0.035731792
175	0xbd218a82	-0.039438732
176	0xb9972fd4	-0.000288366
177	0x3c6e19bc	0.014532503
178	0x3cecd641	0.028910758
179	0xbd74fff3	-0.059814405
180	0xbcd1df03	-0.025619036
181	0xbda32fd6	-0.07968108
182	0xbc7fd56d	-0.0156148495
183	0xbd326da3	-0.04356159
184	0xbd41cead	-0.047316242
185	0x3cca991e	0.024731215
186	0x3d96d4c3	0.073648
187	0xbcafbc3b	-0.02145206
188	0x3d00c6b1	0.031439487
189	0xbbd8de74	-0.0066183154
190	0x3cbe8c08	0.023260131
191	0xbcf002d6	-0.029298227
192	0xbcd04b5f	-0.025426565
193	0x3d4cbdde	0.04998576
194	0xbd4089bb	-0.04700635
195	0x3d8ff0ee	0.070283756
196	0x3c55827e	0.0130316
197	0x3d4f9b85	0.050685424
198	0x3c25c925	0.010118757
199	0x3c3cd1e1	0.011524648
200	0xbbd386ec	-0.006455293
201	0xbb1107a3	-0.0022129796
202	0xbd9cd5fc	-0.07658002
203	0xbcf03bc2	-0.02932537
204	0xbc4aad93	-0.012370485
205	0x3ca3963e	0.019969102
206	0xbcad447c	-0.02115082
207	0xbc0429ca	-0.008066604
208	0x3cecaea8	0.028891876
209	0xbc0ba439	-0.00852304
210	0x3c84ffda	0.01623528
211	0x3c6d453d	0.01448184
212	0x3d925030	0.07144201
213	0x3e2e979d	0.17050023
214	0xbc5bf6eb	-0.013425569
215	0x398e5f66	0.00027155428
216	0x3da0d461	0.07853008
217	0xbd454d3d	-0.048169363
218	0xbc1c073b	-0.009523208
219	0xbc45a1dd	-0.012062517
220	0x3b6b8886	0.0035939529
221	0x3c34352b	0.010999004
222	0x3c5761c7	0.0131458705
223	0xbc8ae33c	-0.016954057
224	0xbb88ce60	-0.0041749924
225	0xbd4a8a23	-0.049448144
226	0xbc8ee135	-0.017441371
227	0x3c86f248	0.01647295
228	0x3ab15663	0.0013529774
229	0xbc5fae1e	-0.013652353
230	0xbc57cd88	-0.013171561
231	0xbd3e3c50	-0.046444237
232	0x3d8447da	0.06459017
233	0xbce8097c	-0.028324835
234	0xbc255325	-0.010090624
235	0x3cf4e3eb	0.029893836
236	0xbb4b0247	-0.00309767
237	0x3cf163e4	0.029466577
238	0x3c1b047f	0.009461521
239	0xbc8ba50f	-0.01704648
240	0xbd179bd6	-0.03701385
241	0xbc329de4	-0.010901902
242	0xbad9e1f1	-0.0016623122
243	0x3b8b967c	0.0042598825
244	0xbd22d397	-0.03975257
245	0xbc128064	-0.0089417435
246	0xbce1399c	-0.02749329
247	0x3c6d5f87	0.0144881075
248	0xbcb7867c	-0.022402994
249	0xbd24ee83	-0.040266525
250	0xbbc6a6c7	-0.006062362
251	0xbbdf6fa2	-0.0068187276
252	0x3d45cb84	0.04828979
253	0xbc740bc3	-0.014895382
254	0x3beb839e	0.007187321
255	0x3cc26809	0.023731248

convs.2.bias f4 [32]
0	0x3b8133ae	0.0039429283
1	0xbca814dd	-0.02051776
2	0x3cea5d93	0.028609073
3	0xbd2452c4	-0.040117994
4	0xbc45e32c	-0.012078088
5	0xbd049b3b	-0.0323746
6	0xbc77300a	-0.015087137
7	0xbc8c472a	-0.017123777
8	0x3b21965b	0.002465627
9	0xbab2f7ed	-0.001365421
10	0x3d039fe4	0.032134905
11	0x3cbeada8	0.023276165
12	0x3c16664e	0.009179665
13	0x3c1b83a7	0.009491838
14	0x3b1710d9	0.0023050813
15	0x3b7b1155	0.0038309891
16	0xbc3c4449	-0.01149089
17	0x3c8d63fd	0.017259592
18	0x3c0bb128	0.008526124
19	0xbc9062f1	-0.017625304
20	0xbc965c4e	-0.018354561
21	0xbdb403f2	-0.08789815
22	0x3bd409fe	0.0064709177
23	0x3bcf1980	0.0063201785
24	0xbd2b27b4	-0.04178591
25	0x3c136088	0.008995183
26	0x3c3b8e53	0.011447507
27	0x3a536ff6	0.0008065695
28	0xbca0f1ee	-0.019646611
29	0x3b8d4f90	0.004312463
30	0xbc20180c	-0.009771358
31	0xbaf6419f	-0.0018787867
