results/flixster_testmode/model_checkpoint31.pth (torch_old, 199981 bytes, 19 tensors)

convs.0.basis f4 [4, 4, 32]
0	0x3ca0a7bb	0.01961123
1	0xbb66f908	-0.003524365
2	0x3d26bbb7	0.040706363
3	0x3d32bb38	0.043635577
4	0xbda36e38	-0.07980007
5	0x3e4f4760	0.20242071
6	0xbdf01b76	-0.11723988
7	0xbdf18823	-0.11793544
8	0x3dbf4af3	0.09340467
9	0xbe48f859	-0.19625987
10	0x3dc1b598	0.094584644
11	0xbdce1cb9	-0.10064072
12	0xbe4ff3f3	-0.20307903
13	0x3da3c965	0.07997397
14	0x3e16bb47	0.14719878
15	0xbdd5ad1d	-0.10433409
16	0xbd5c090e	-0.053719573
17	0xbda42175	-0.08014194
18	0xbe4e18bb	-0.20126621
19	0xbc08e375	-0.008355011
20	0x3d640a46	0.05567386
21	0x3e3e8500	0.18605423
22	0x3d5fc4e8	0.054631144
23	0xbda7e6be	-0.081983075
24	0x3d8be801	0.068313606
25	0xbdec9e79	-0.11553664
26	0x3de6b1dc	0.11264393
27	0x3caa37aa	0.020778496
28	0x3e18a71b	0.14907496
29	0x3e8b287e	0.2717933
30	0xbe27d1af	-0.16388582
31	0x3d11bfc1	0.03558326
32	0xbe3e7a1a	-0.18601266
33	0xbe0ce34a	-0.13758579
34	0xbe0716d5	-0.13192303
35	0x3d1c0334	0.038088992
36	0x3b86a3c9	0.00410888
37	0x3e8572b1	0.26064065
38	0xbbd857c6	-0.0066022603
39	0xbd91d715	-0.07121102
40	0xbe76bf2e	-0.24096367
41	0xbdcca808	-0.09992987
42	0x3dde3f2e	0.10851894
43	0xbe564f3f	-0.20928667
44	0x3b8db9fa	0.0043251486
45	0xb9722402	-0.00023092332
46	0x3d1dd92a	0.038537182
47	0xbdd5bb9b	-0.104361735
48	0xbd403fc7	-0.046935823
49	0xbe59b688	-0.21261036
50	0x3d91d000	0.07119751
51	0xbe03cd8f	-0.12871383
52	0xbdbbbd28	-0.09166938
53	0x3e1b11e1	0.15143539
54	0xbdd7a6b0	-0.1052984
55	0xbdb64fbe	-0.08901928
56	0x3b815211	0.0039465507
57	0xbd811140	-0.06302118
58	0x3c695681	0.014241816
59	0x3d15a5dc	0.03653513
60	0x3de0188b	0.10942181
61	0x3e15d8de	0.1463351
62	0xbe843bda	-0.25826913
63	0x3c72b2c5	0.01481313
64	0xbd83d31c	-0.0643675
65	0xbdcf9515	-0.10135857
66	0x3baec18e	0.005333132
67	0x3cf7a092	0.030227933
68	0xbc82b44a	-0.01595511
69	0xbd9a93c2	-0.07547714
70	0x3ca0fd11	0.019651921
71	0xbe98e3af	-0.2986121
72	0xbec49944	-0.38398182
73	0x3b02afd0	0.0019941218
74	0x3c4e1319	0.012577795
75	0x3d941a90	0.07231629
76	0x3e7d6cd6	0.24748549
77	0x3d6f5844	0.058433786
78	0x3d23e97a	0.040017582
79	0xbe197bb4	-0.14988595
80	0x3c92f72f	0.017940132
81	0xbd7f1b8c	-0.06228213
82	0x3d8503ab	0.0649484
83	0x3d8f3947	0.06993347
84	0x3d0120e7	0.03152552
85	0x3dcb1152	0.09915413
86	0xbf35b881	-0.70984656
87	0xbeee8048	-0.46582246
88	0xbec0945c	-0.3761319
89	0x3d3d2b8e	0.046184115
90	0xbd86228b	-0.06549557
91	0x3d2e432d	0.042544533
92	0xbd60f238	-0.054918498
93	0x3d02ab64	0.031901732
94	0x3b1a691a	0.002356118
95	0x3de4d1f8	0.11172861
96	0x3e006cba	0.12541476
97	0xbd4e772d	-0.050406624
98	0xbbcab471	-0.006186061
99	0xbba7ac0b	-0.0051169447
100	0xbe195641	-0.1497431
101	0xbe9fe9af	-0.31232974
102	0xbd5486ef	-0.051886495
103	0x3da8c8de	0.082414374
104	0x3ec7c5bc	0.39018047
105	0x3f166c43	0.58758944
106	0x3f17d248	0.5930524
107	0x3e1f894a	0.15579715
108	0x3dac8c50	0.084252
109	0x3d6e52db	0.058184486
110	0xbd20716c	-0.039170668
111	0xbd3bb1c6	-0.045823835
112	0xbedf1c37	-0.43576214
113	0xbd41baa4	-0.047297135
114	0xbe2007a1	-0.1562791
115	0xbce67e5f	-0.02813643
116	0xbdae3ef1	-0.08508099
117	0xbf0e8d6e	-0.55684555
118	0xbe0d61fe	-0.13806912
119	0x3d649ac7	0.05581167
120	0xbd4fc7c1	-0.05072761
121	0x3e808030	0.250978
122	0xbe2f316d	-0.17108698
123	0xbe48e195	-0.19617303
124	0xbcabec3c	-0.020986669
125	0x3db45896	0.08805959
126	0x3e2c915d	0.16852327
127	0x3da8b954	0.082384735
128	0x3c3fd39a	0.011708165
129	0x3cb1f3d8	0.02172272
130	0x3d2b2980	0.041787624
131	0x3ba98b7a	0.0051740976
132	0xbd94e63a	-0.07270475
133	0x3dc52fc6	0.09628253
134	0xbcf4d17b	-0.029885044
135	0xbdb2301d	-0.08700583
136	0xbcedb629	-0.029017525
137	0xbe065ca7	-0.13121282
138	0x3d4479b2	0.04796762
139	0xbb17195a	-0.0023055882
140	0xbe03c032	-0.12866285
141	0x3cf9a324	0.0304733
142	0x3e03e474	0.12880117
143	0xbe3ce585	-0.1844693
144	0xbd70264c	-0.058630273
145	0xbd226666	-0.039648436
146	0xbda340c1	-0.07971335
147	0xbd245a6d	-0.0401253
148	0x3c95d50e	0.018290069
149	0x3e0bdb69	0.13657917
150	0x3dcd8597	0.10035246
151	0xbde352b8	-0.11099762
152	0x3d3b6449	0.045749936
153	0xbd8db8df	-0.06920027
154	0x3dcd3b5c	0.100210875
155	0x3c2f4e5d	0.010699836
156	0x3d9037f3	0.070419215
157	0x3e40378a	0.18771186
158	0xbdb6f353	-0.08933129
159	0x3cc107ff	0.023563383
160	0xbe04b536	-0.12959751
161	0xbdd0a2ee	-0.10187326
162	0xbe037096	-0.12835917
163	0x3de71b5f	0.112845175
164	0xbb07fae2	-0.0020748903
165	0x3e481f24	0.19543129
166	0xbd2c716d	-0.04210036
167	0xbd0bca90	-0.034128726
168	0xbe0bf60b	-0.13668077
169	0xbdcf55f6	-0.101238176
170	0x3dde6a97	0.10860174
171	0xbe572f3c	-0.21014112
172	0xbc193d76	-0.009353032
173	0xbc414242	-0.011795582
174	0x3dc4ee0f	0.096157186
175	0xbda8b1a2	-0.08237006
176	0xbd63b797	-0.055595007
177	0xbe169e61	-0.14708854
178	0x3b5060af	0.003179591
179	0xbdb7bc97	-0.089715175
180	0xbdbca26f	-0.09210669
181	0x3df4a2f5	0.11945144
182	0xbcc541d5	-0.024079243
183	0xbd46ae42	-0.04850603
184	0x3cf4a6e7	0.029864741
185	0xbd263e72	-0.040586896
186	0x3c1abc2c	0.009444278
187	0x3b7a8ce0	0.003823094
188	0x3e00c0e1	0.12573577
189	0x3e5c519a	0.21515504
190	0xbe4a0d9d	-0.19731756
191	0x3ca604fc	0.020266049
192	0xbcc5824f	-0.024109988
193	0x3c630abe	0.013857542
194	0xbdeaf5fd	-0.114727
195	0x3d02e503	0.031956684
196	0x3d6f1b96	0.058375917
197	0x3ded1f9e	0.11578296
198	0x3cd124c0	0.02553022
199	0xbe57d884	-0.21078688
200	0xbf12fe0e	-0.57418907
201	0x3d939e33	0.072079085
202	0xbdee9b51	-0.11650718
203	0xbddd5681	-0.10807515
204	0x3e8bf97e	0.27338785
205	0x3c88ee67	0.016715242
206	0xbe2c34ca	-0.16817012
207	0xbe6219a5	-0.22080095
208	0x3e1e9ad0	0.15488744
209	0xbd5072e4	-0.05089082
210	0x3de8035e	0.11328767
211	0x3e02d51d	0.12776609
212	0xbde2d68f	-0.1107608
213	0xbd1d1b43	-0.038356077
214	0xbf1f2d08	-0.6217809
215	0xbed7eae3	-0.42171392
216	0xbeaa525d	-0.33265963
217	0x3cd0abf9	0.025472628
218	0x3d75e066	0.060028456
219	0xbd3f2dd4	-0.046674564
220	0x3c0847d4	0.008317906
221	0xbd96f7c4	-0.07371476
222	0xbd6c15a5	-0.05763783
223	0x3bc397ee	0.005969039
224	0x3b884d9a	0.0041596415
225	0x3e1db9ea	0.15402952
226	0x3c18d31c	0.009327676
227	0x3c76938c	0.015049826
228	0x3e18944f	0.14900325
229	0xbdc1c901	-0.094621666
230	0x3d36e154	0.044648483
231	0xbdb4b90c	-0.088243574
232	0x3e771981	0.24130823
233	0x3ee02819	0.43780592
234	0x3ec71e59	0.3889034
235	0xbf103383	-0.563286
236	0xbddd286a	-0.10798724
237	0xbd24eb17	-0.04026326
238	0xbd297d9d	-0.04137956
239	0x3d0ad52b	0.0338947
240	0xbe5c40f4	-0.21509153
241	0xbe05b550	-0.13057446
242	0xbe461ff7	-0.19348131
243	0xbcab11a4	-0.020882435
244	0x3c0f738e	0.008755578
245	0xbebac92d	-0.3648161
246	0x3e3e64c7	0.18593131
247	0x3c44b59f	0.0120061925
248	0x3da9f9b4	0.0829958
249	0x3e0c9b75	0.13731177
250	0x3dd55dd5	0.10418288
251	0xbc0d7011	-0.008632676
252	0x3c23acb9	0.009989911
253	0x3d61b102	0.05510045
254	0xbdfe86b0	-0.12428033
255	0xbe160a5b	-0.14652388

convs.0.att f4 [10, 4]
0	0xbd8ad367	-0.06778603
1	0xbe1f8721	-0.15578891
2	0x3e94d1cd	0.29066315
3	0x3e12b13b	0.1432542
4	0xbe3f51a8	-0.18683493
5	0xbd0f925b	-0.035051685
6	0x3ebc2593	0.36747417
7	0x3e1b5e3c	0.15172666
8	0xbe74815d	-0.23877473
9	0x3e03d689	0.12874807
10	0x3ec0d6ae	0.37663788
11	0x3e1ebda9	0.15502037
12	0xbe5469c9	-0.20743479
13	0x3e35412e	0.17700645
14	0x3ebc87ca	0.3682235
15	0x3e0b1756	0.1358312
16	0xbd9bda2f	-0.076099746
17	0x3d8d4c5a	0.068993285
18	0x3ea0caa5	0.31404606
19	0x3e3001d0	0.17188191
20	0xbd480c2e	-0.04883974
21	0x3e2e7155	0.1703542
22	0x3e86c977	0.2632558
23	0x3e1d8224	0.15381676
24	0xbb2c998e	-0.0026336643
25	0x3e6d8a96	0.23197398
26	0x3e59f5f4	0.2128523
27	0x3dc5db60	0.09660983
28	0x3dc53b18	0.09630412
29	0x3e5489a5	0.20755632
30	0x3e1e104a	0.15435901
31	0x3d427abd	0.047480334
32	0x3e4207b6	0.18948254
33	0x3e3a0743	0.18166833
34	0x3da087f9	0.07838435
35	0xbd0fc181	-0.03509665
36	0x3ea58611	0.32328847
37	0x3e219e80	0.15783119
38	0x3cc2774a	0.023738522
39	0xbdd36faf	-0.10324036

convs.0.root f4 [4, 32]
0	0xbdc5b98a	-0.096545294
1	0x3cd76078	0.026291117
2	0xbd7794d0	-0.060444653
3	0x3e5c853e	0.21535203
4	0x3da90858	0.082535446
5	0x393cb925	0.00017998049
6	0xbdea9b8d	-0.1145545
7	0xbe47906d	-0.19488688
8	0x3e6215a8	0.22078574
9	0x3ecd3f86	0.40087527
10	0x3eb30909	0.3496783
11	0xbda182ca	-0.07886274
12	0x3d8664e6	0.065622136
13	0x3e2fc089	0.1716329
14	0xbd5c6ca4	-0.053814545
15	0xbd600b1e	-0.054698102
16	0xbe625db1	-0.22106053
17	0x3e4c4d21	0.19951297
18	0x3ca2d4d7	0.01987688
19	0xbe738b47	-0.23783599
20	0xbc47d30c	-0.012196314
21	0xbe03b9cb	-0.12863843
22	0x3b2f43fa	0.0026743398
23	0x3e3525c6	0.1769019
24	0xbb31d0d7	-0.0027132535
25	0x3e528ba6	0.20561084
26	0xbcc93c7d	-0.024564976
27	0xbe703718	-0.23458517
28	0x3d4ef123	0.050522935
29	0xbe661fe3	-0.22473101
30	0x3d9bbd74	0.07604495
31	0xbe1925f6	-0.14955887
32	0x3e24c6bd	0.16091438
33	0x3dc4ef02	0.096158996
34	0xbe347df7	-0.17626177
35	0x3e518715	0.20461686
36	0xbdbd5e11	-0.09246457
37	0xbdcce384	-0.10004333
38	0xbdd68228	-0.10474044
39	0xbe19d653	-0.15023164
40	0x3d643c24	0.055721417
41	0xbe2eed8a	-0.17082801
42	0x3b8846bc	0.004158823
43	0x3e161bd0	0.14659047
44	0x3e8ba61b	0.27275166
45	0x3e3b71dd	0.18305154
46	0xbdc68662	-0.096936
47	0x3eaa9976	0.33320206
48	0xbd1e0d55	-0.038586933
49	0x3db16d82	0.08663465
50	0x3ce055e5	0.027384708
51	0xbc41b174	-0.011822093
52	0xbd988445	-0.074471034
53	0xbe3e8962	-0.18607095
54	0xbe4e173a	-0.20126048
55	0xbeb2d884	-0.34930813
56	0xbe5b5284	-0.21418196
57	0x3cf28657	0.029605074
58	0x3dfd527c	0.12369248
59	0x3c096f23	0.008388313
60	0x3cd5e30f	0.026109247
61	0xbd2fdc8b	-0.042934936
62	0x3e600286	0.21875963
63	0x3e865499	0.26236418
64	0xbd1ab804	-0.037773147
65	0x3e124792	0.14285114
66	0x3abfdd35	0.0014638068
67	0xbcd932d8	-0.026513502
68	0xbdb3940b	-0.08768471
69	0xbe41b287	-0.18915759
70	0xbdb7bbce	-0.08971368
71	0xbe152112	-0.14563397
72	0xbdb5470c	-0.08851442
73	0x3d59a289	0.05313352
74	0xbe08170b	-0.1329004
75	0xbd1d712e	-0.038438015
76	0x3d3320d4	0.04373248
77	0x3e305eac	0.17223614
78	0xbc74b071	-0.014934645
79	0xbd288102	-0.041138656
80	0xbe04ff63	-0.12988047
81	0xbe003014	-0.1251834
82	0xbe2ac6ce	-0.166774
83	0x3e47e4ce	0.19520876
84	0xbc3601ca	-0.011108825
85	0x3dc34a54	0.09535661
86	0xbe130a5b	-0.14359419
87	0x3d2ce145	0.04220702
88	0x3d2a2f3a	0.041548945
89	0x3d96a2d8	0.07355279
90	0x3dd5121e	0.10403846
91	0xbd3ba007	-0.04580691
92	0xbe273c5e	-0.16331622
93	0xbde62896	-0.1123821
94	0xbc096b90	-0.008387461
95	0xbd17cfd0	-0.03706342
96	0xbdf875eb	-0.12131866
97	0xbc76dee1	-0.015067787
98	0xbd86a826	-0.065750405
99	0x3e4731ca	0.19452587
100	0xbd3939c0	-0.04522109
101	0xbd6e580d	-0.05818944
102	0xbd513a1f	-0.05108082
103	0xbe22056c	-0.15822381
104	0xbe263434	-0.16230851
105	0x3d8fece9	0.07027609
106	0xbd77f6d0	-0.060538113
107	0xbe135178	-0.14386547
108	0x3e1796a2	0.14803556
109	0x3e13138d	0.14362927
110	0x3d961aa6	0.073293015
111	0x3b3eddd3	0.0029123917
112	0x3c715d91	0.014731781
113	0xbe2c5d90	-0.16832566
114	0xbd7b6cef	-0.061383184
115	0x3dfb2657	0.12263172
116	0xbd82ae4d	-0.063809015
117	0x3e06b9c2	0.13156798
118	0xbe3819fb	-0.17978661
119	0xbdea080d	-0.11427317
120	0xbd37adff	-0.04484367
121	0x3dd1a89b	0.10237237
122	0x3ca8d0f9	0.020607458
123	0xbd0acdf7	-0.03388783
124	0xbe279da9	-0.16368736
125	0xbd1d93da	-0.03847108
126	0xbdfaa91a	-0.12239285
127	0xbd7e9f52	-0.06216366

convs.0.bias f4 [32]
0	0x3e051ae7	0.12998544
1	0x3b6879e5	0.0035473045
2	0x3db55b5e	0.088553175
3	0xbe53fa5a	-0.2070097
4	0x3da875ad	0.0822557
5	0x3c1901fa	0.00933885
6	0x3dc211d8	0.0947606
7	0x3e11a14e	0.14221689
8	0x3e384793	0.17996053
9	0xbb6755c6	-0.0035298928
10	0x3d19bdfb	0.037534695
11	0x3e2d230a	0.16907898
12	0xbd9e4cc6	-0.07729487
13	0xbe2ed67e	-0.1707401
14	0xbe26fc97	-0.16307293
15	0x3d48248c	0.04886298
16	0x3d674aa8	0.056467682
17	0x3e4e27af	0.20132326
18	0x3e0f7b5b	0.140119
19	0xbdde80d0	-0.10864413
20	0x3d0ba65b	0.034094196
21	0xbe809c03	-0.25119027
22	0x3e20e373	0.15711765
23	0x3cbf7213	0.023369825
24	0x3c3f6e93	0.011684078
25	0xbda1a473	-0.07892694
26	0xbda8e1e7	-0.082462125
27	0x3d2db1c7	0.04240587
28	0x3dbb56b5	0.091473974
29	0xbde2afbe	-0.110686764
30	0x3e2b1e1f	0.16710709
31	0x3c61f64f	0.013791635

convs.1.basis f4 [4, 32, 32]
0	0xbdb95b22	-0.09050585
1	0xbd65a22f	-0.056062873
2	0xbda378ca	-0.07982023
3	0x3b8747c4	0.004128428
4	0xbda1d1d6	-0.07901351
5	0xbd0a2d79	-0.033734772
6	0xbe08af51	-0.13348128
7	0x3db5b6b4	0.088727385
8	0x3d9ac766	0.075575635
9	0xbc649ef2	-0.013953911
10	0xbcc7647d	-0.024339909
11	0x3d607bd4	0.05480559
12	0xbd88dbf3	-0.06682577
13	0xbd9d3887	-0.07676797
14	0x3c2e8fa9	0.010654368
15	0x3b89e827	0.004208583
16	0x3d94c102	0.07263376
17	0x3c2de693	0.010614055
18	0x3dc442b6	0.095830366
19	0xbd90588b	-0.07048138
20	0x3d682bf8	0.056682557
21	0xbdfa7f95	-0.122313656
22	0xbd54aa82	-0.05192042
23	0x3b5bcc60	0.0033538565
24	0xbcf24698	-0.029574677
25	0x3d814db6	0.0631365
26	0xbd12b68b	-0.035818618
27	0x3d80c9aa	0.06288464
28	0x3deb51d2	0.11490215
29	0x3a2a2d7f	0.0006491765
30	0xbc161df6	-0.009162417
31	0xbd5445a2	-0.05182422
32	0x3b3ae4bd	0.0028517686
33	0xbba3b3db	-0.0049958057
34	0xbc8e063b	-0.017336955
35	0x3ce62e73	0.02809832
36	0xbd23780a	-0.0399094
37	0xbc24128f	-0.01001419
38	0xbdc24ffb	-0.09487911
39	0x3bb9419f	0.0056535746
40	0xbae383f9	-0.0017358057
41	0x3ca6fa61	0.020383062
42	0x3bee36c7	0.0072697136
43	0x3cbfbbe3	0.023405021
44	0xbc3bc7e5	-0.011461233
45	0x3c7e5045	0.015522067
46	0xbc72034c	-0.014771294
47	0x3d810b50	0.06300986
48	0x3c89fe59	0.016844915
49	0x3d37b26e	0.0448479
50	0x3c336c94	0.01095118
51	0xbc5255a1	-0.012837798
52	0x3d11f714	0.035636023
53	0xbdac2982	-0.084063545
54	0xbcc601c9	-0.024170773
55	0x3c7c76b4	0.01540916
56	0x3b86ffd3	0.004119852
57	0x3cac6080	0.021042109
58	0x3d1c95f9	0.038228963
59	0xbd4ad5fe	-0.049520485
60	0x3d1a3ce2	0.03765572
61	0x3c101fe9	0.0087966705
62	0x3bcd6705	0.0062683844
63	0x3d2aa24a	0.041658677
64	0x3beb945b	0.007189316
65	0x3c6e8941	0.014559091
66	0x3cb9db01	0.022687437
67	0xbc137a45	-0.009001319
68	0xbb21bfcd	-0.0024680973
69	0x3c25d2d4	0.010121066
70	0x3dc17edc	0.09448025
71	0xbd894e64	-0.06704405
72	0xbd045ac1	-0.032313112
73	0x3c468931	0.01211767
74	0x3d06bc7e	0.032894604
75	0xbb578ef6	-0.0032891608
76	0xbc1f068b	-0.00970615
77	0x3c9e660c	0.01933577
78	0x3d6ba55c	0.057530746
79	0xbd9a8096	-0.07544057
80	0xbc5a4455	-0.013321956
81	0xbc382946	-0.011240309
82	0xbc83e7a6	-0.01610167
83	0x3c944135	0.0180975
84	0x3c2a2372	0.010384427
85	0x3d1ac9cc	0.037790105
86	0x3ca5c585	0.020235786
87	0x3ccd2ae5	0.025044868
88	0xbca4c9fa	-0.020115841
89	0xbc6e9816	-0.014562627
90	0x3ce480ea	0.027893502
91	0x3d877794	0.066146046
92	0xbcd65d78	-0.026167616
93	0x3cdf9722	0.027293745
94	0x3b8212cf	0.0039695273
95	0xbca001fb	-0.019532194
96	0xbcd56971	-0.026051255
97	0x3c85f5ee	0.01635262
98	0x3b2e1394	0.0026561962
99	0x3c93b416	0.018030208
100	0x3d2c337e	0.042041294
101	0x3a4a6a44	0.0007721523
102	0x3d4eb8cd	0.05046921
103	0x3c7c2dc1	0.015391768
104	0x3c5868d7	0.0132085895
105	0x3bfe14f1	0.0077539613
106	0xbbc9eb45	-0.0061620795
107	0xbcc5dc17	-0.024152799
108	0x3d256d9a	0.040387727
109	0xbd70ffe8	-0.0588378
110	0xbd09b789	-0.0336223
111	0x3ca8361e	0.020533618
112	0xbc144149	-0.009048768
113	0xbd488a97	-0.048960295
114	0x3c98b8b3	0.018642759
115	0x3cc05347	0.02347721
116	0xbc50515c	-0.01271471
117	0x3d372389	0.044711623
118	0xbca942b0	-0.020661682
119	0xbc9349ce	-0.017979529
120	0x3c85e7f1	0.01634595
121	0xbc945115	-0.01810507
122	0xbd95e094	-0.073182255
123	0x3cf91370	0.030404776
124	0xbcda38f8	-0.026638493
125	0x3c661c6b	0.014044861
126	0xbc104a38	-0.008806758
127	0xbd307b79	-0.043086503
128	0x3bbd9273	0.0057852804
129	0xbb9e5834	-0.004832292
130	0x3d0791af	0.03309792
131	0xbca4d804	-0.020122536
132	0x3bc71b5f	0.006076261
133	0xbbdd4fab	-0.006753882
134	0x3d92d0a0	0.07168698
135	0x3d87c41d	0.066292025
136	0x3ac3883d	0.0014917922
137	0xba68cecf	-0.00088809145
138	0x3c7ad114	0.015308637
139	0xbcb6c572	-0.022310946
140	0x3d669c4a	0.056301393
141	0x3ba13a50	0.0049202815
142	0x3d178350	0.036990464
143	0xbd6a83d4	-0.057254627
144	0xbc9bd72a	-0.019023497
145	0x3a6fd6d7	0.000914914
146	0xbcd8270a	-0.026385803
147	0x3c1a748d	0.009427202
148	0x3d01e5c5	0.031713266
149	0xbd641efd	-0.055693615
150	0x3da87ff6	0.082275316
151	0x3a8de181	0.0010824652
152	0xbbdff5a4	-0.0068347026
153	0x3bebabb6	0.0071921004
154	0x3c25a9ba	0.010111267
155	0x3dd2e6a0	0.102978945
156	0xbd2a513f	-0.04158139
157	0x3d863add	0.06554196
158	0x3b296e29	0.0025853014
159	0xbb7f5c09	-0.003896477
160	0xbc6354e5	-0.013875221
161	0x3c945984	0.01810909
162	0xbc7e4aab	-0.015520732
163	0xbd9cd3b6	-0.07657568
164	0x3c6f5f63	0.014610144
165	0x3cd3f4b4	0.02587352
166	0x3e69610b	0.22790925
167	0xbadc5a84	-0.0016811644
168	0xbbbb9453	-0.0057244687
169	0xbbd41433	-0.0064721345
170	0x3c853cf8	0.016264424
171	0x3c5b098b	0.013368974
172	0x3daf3383	0.08554747
173	0xbce75dac	-0.028242908
174	0xbdaa7995	-0.08323971
175	0x3db4ba17	0.08824556
176	0xbc45bac6	-0.012068456
177	0xbd29dab9	-0.041468356
178	0xba75335f	-0.0009353663
179	0x3d12fba1	0.035884503
180	0xbbb08d00	-0.0053879023
181	0x3d354f3a	0.04426501
182	0xbd922d86	-0.07137589
183	0x3cf5546e	0.029947486
184	0x3da9d3c1	0.08292342
185	0xbb9713fd	-0.004610537
186	0xbc9ae59e	-0.018908318
187	0x3d58a617	0.05289277
188	0x3c401157	0.011722884
189	0x3d3bfeff	0.04589748
190	0x3c907703	0.017634874
191	0xbbe62e9b	-0.007024599
192	0xbd8a6ca2	-0.06759001
193	0xbc1ce77f	-0.009576677
194	0x3bb127df	0.0054063643
195	0xbb832825	-0.0040025883
196	0x3c05a4c3	0.008156958
197	0x3c0a38e8	0.008436419
198	0xbca0f0e1	-0.01964611
199	0x3d35e2c5	0.044405717
200	0x3c4522c4	0.012032215
201	0xbb981e9b	-0.0046423203
202	0xbc517b52	-0.0127857495
203	0xbca1053b	-0.019655814
204	0xbc4c80e9	-0.012481906
205	0xbc2a9243	-0.010410848
206	0xbc480476	-0.012208095
207	0xbd101383	-0.035174858
208	0xbc0392d8	-0.008030616
209	0x3cb4d8e5	0.02207608
210	0x3c7054c1	0.014668644
211	0x3c434a02	0.0119195
212	0xbbbfb78c	-0.005850738
213	0xbca34036	-0.01992808
214	0x3ccd56fc	0.025065891
215	0x3c317807	0.010831839
216	0x39a586f3	0.00031571797
217	0x3be8cd4c	0.0071045514
218	0x3aa36ae5	0.001246777
219	0x3d365f1d	0.0445243
220	0xbbe0447a	-0.0068441005
221	0xbc38aed6	-0.011272153
222	0xbc265df5	-0.010154237
223	0x3c915eb0	0.017745346
224	0xbe55e94c	-0.20889777
225	0xbd2782cc	-0.040896222
226	0xbda290f7	-0.07937806
227	0xbc4b94f1	-0.012425647
228	0xbda33b6a	-0.07970317
229	0xbe047ca6	-0.12938175
230	0xbe292c49	-0.165208
231	0x3e2fd17d	0.17169757
232	0x3db038b8	0.08604568
233	0xbcfbdce4	-0.030744977
234	0xbd78c8c8	-0.060738355
235	0x3cb292a2	0.021798436
236	0xbd66900b	-0.056289714
237	0xbdd6ee4b	-0.104946695
238	0x3cc50df0	0.024054497
239	0x3e376508	0.17909634
240	0x3d93088a	0.07179363
241	0x3b6dd293	0.0036288842
242	0x3dab92a5	0.083775796
243	0xbd689b5f	-0.0567888
244	0x3cd1e317	0.02562098
245	0xbe9375fe	-0.28800958
246	0x3c4ed8ea	0.0126249585
247	0xbc9f558e	-0.019449975
248	0xbd1a4aa6	-0.037668847
249	0x3d3a1c17	0.045436945
250	0xbd2ffbf7	-0.0429649
251	0xbdba0310	-0.090826154
252	0x3de682e4	0.11255434
253	0xbca5b428	-0.020227507
254	0xbce7a6e3	-0.02827782
255	0xbcde3dbc	-0.027129047

convs.1.att f4 [10, 4]
0	0xbdcc5309	-0.09976775
1	0x3e2ea6b8	0.17055786
2	0xbe93c49c	-0.2886094
3	0x3cccee48	0.025015965
4	0x3cd4d66d	0.025981152
5	0x3e0b5399	0.13606109
6	0xbe841096	-0.25793904
7	0x3bd08e85	0.006364646
8	0x3e066ce7	0.1312748
9	0x3d9a652f	0.075388305
10	0xbe72e532	-0.23720244
11	0xbd6f9f4a	-0.05850152
12	0x3decb19c	0.11557314
13	0x3cc83c60	0.024442852
14	0xbe5f5d69	-0.21812977
15	0xbda45802	-0.08024599
16	0x3df5b14b	0.119967066
17	0xbd674656	-0.056463562
18	0xbe18962f	-0.1490104
19	0xbda58b71	-0.08083237
20	0x3d7544e0	0.059880137
21	0xbdef8f86	-0.11697297
22	0xbdf6136b	-0.120154224
23	0xbdc00e05	-0.09377674
24	0x3d470f5e	0.04859864
25	0xbe1cffe2	-0.15331987
26	0xbd9e55f0	-0.07731235
27	0x3d04d5c6	0.032430433
28	0x3d1d9619	0.038473222
29	0xbe38c659	-0.18044414
30	0x3b0f6c01	0.0021884444
31	0x3dc52223	0.09625652
32	0xbd3196c1	-0.04335666
33	0xbe341f38	-0.17590034
34	0x3ce1b4d5	0.027552048
35	0x3da2a3f9	0.079414316
36	0xbe2a892b	-0.16653888
37	0xbe3676ff	-0.17818831
38	0x3d95682c	0.0729526
39	0x3d36d285	0.04463436

convs.1.root f4 [32, 32]
0	0xbd008700	-0.031378746
1	0x3da292d2	0.0793816
2	0x3d2d2e54	0.04228051
3	0x3a426185	0.0007415044
4	0x3ce1769a	0.027522374
5	0xbd26d4f7	-0.040730443
6	0xbe3897d4	-0.18026668
7	0x3da7f133	0.08200302
8	0xbcd67c10	-0.026182204
9	0xbd03e2af	-0.032198604
10	0x3d050d7b	0.03248356
11	0xbc8ec498	-0.017427728
12	0xbd6e2eb4	-0.05815001
13	0xbcd0efda	-0.025504995
14	0xbd00dad1	-0.03145868
15	0x3c8fabcf	0.01753798
16	0xbbfa9828	-0.007647533
17	0xbd8fd531	-0.07023085
18	0xbd755de9	-0.059904013
19	0xbbc341d3	-0.0059587746
20	0xbcfde15e	-0.030991253
21	0x3d1b546e	0.037922315
22	0x3a9a0ba1	0.0011752733
23	0x3d176407	0.036960628
24	0xbd057115	-0.032578547
25	0xbd605c0d	-0.054775286
26	0xbd9a0d88	-0.07522112
27	0x3dcc71a9	0.099826165
28	0xbcce8922	-0.025211874
29	0xbdcbdbe5	-0.09954051
30	0xbd7213bc	-0.05910085
31	0x3c06eb6f	0.008234843
32	0xbb891437	-0.004183318
33	0xbd181275	-0.037126977
34	0x3dbd2095	0.0923473
35	0x3d0ebcf6	0.034848176
36	0xbbdce1f6	-0.006740804
37	0xbcc75ab7	-0.024335248
38	0x3dfaa3bd	0.12238262
39	0x3d80d305	0.06290249
40	0x3c7c9ddd	0.015418497
41	0xbd4bea2d	-0.049783874
42	0x3d49be30	0.049253643
43	0x3d959e50	0.07305586
44	0xbd20dcdd	-0.03927313
45	0xbd8c411d	-0.06848357
46	0x3c78d1e5	0.0151867615
47	0xbd8cae75	-0.068692125
48	0xbd010a15	-0.031503756
49	0xbdc1beef	-0.09460246
50	0x3dd62672	0.104565516
51	0x3ce7ab50	0.02827993
52	0x3c96e3a0	0.018419087
53	0x3dce233e	0.10065316
54	0xbcbc61d6	-0.02299587
55	0xbd783fc7	-0.060607698
56	0x3d383bba	0.044978835
57	0x3c9c4d02	0.019079689
58	0xbd016828	-0.03159347
59	0xbd4a2cf0	-0.049359262
60	0xbb09e881	-0.0021043124
61	0xbd71b2e7	-0.059008505
62	0xbbd8bdc5	-0.006614419
63	0xbdaaa539	-0.08332295
64	0x3cb1b629	0.021693306
65	0x3d1f73e7	0.038928892
66	0x3c4685cf	0.012116863
67	0x3d821f3e	0.06353615
68	0x3d621723	0.055197846
69	0xbd837554	-0.06418863
70	0x3dbaba56	0.09117572
71	0x3d4faa13	0.050699305
72	0xbbb0d089	-0.005395953
73	0xbb24849e	-0.002510346
74	0xbcc51f27	-0.024062706
75	0x3ca5d795	0.0202444
76	0x3c76d596	0.015065571
77	0x3c32f9aa	0.010923782
78	0xbd15f3f4	-0.036609605
79	0xbb97066a	-0.004608919
80	0xbb2b2223	-0.0026112876
81	0xbd772554	-0.060338333
82	0xbcb24201	-0.021759989
83	0xbcd8ede1	-0.026480617
84	0xbcb0be4e	-0.02157512
85	0xbca5b99c	-0.020230107
86	0xba2dcf23	-0.0006630292
87	0xbc643671	-0.0139289955
88	0x3ca23e6c	0.019805156
89	0xbae2561c	-0.0017268094
90	0x3db59358	0.08865994
91	0x39e520b1	0.0004370264
92	0x3c883535	0.016626934
93	0xbdeda2aa	-0.11603291
94	0xbc012a9e	-0.007883696
95	0x3ca3e067	0.020004464
96	0x3c978b33	0.018498993
97	0x3d895ece	0.06707536
98	0xbcb34e44	-0.021887906
99	0xbddffcbd	-0.10936878
100	0xbda9888b	-0.08277997
101	0x3c920b97	0.017827792
102	0xbd1d83e8	-0.038455874
103	0xbc977b7f	-0.018491505
104	0xbc96d1ba	-0.018410552
105	0x3d791ba4	0.060817376
106	0x3d90519c	0.07046816
107	0x3d6e011a	0.05810652
108	0x3cf98972	0.030461047
109	0xbd260e5d	-0.04054104
110	0xb87e9a64	-6.0702107e-05
111	0x3d6b3093	0.05741937
112	0xbb8abd83	-0.0042340173
113	0xbc9f1133	-0.01941738
114	0x3dc97880	0.09837437
115	0x3ddf45c4	0.109019786
116	0xbcd0c551	-0.025484713
117	0xbc3e2d86	-0.011607533
118	0x3de87701	0.11350823
119	0xbc6098f9	-0.0137083465
120	0xbd3f4d99	-0.046704862
121	0x3d40548d	0.046955634
122	0x3d567c23	0.05236448
123	0x3e028e93	0.127497
124	0x3d1a7e0e	0.03771787
125	0x3ca5c8ac	0.02023729
126	0x3c4aa9eb	0.012369613
127	0x3d6aa129	0.0572826
128	0x3d2c85a7	0.04211965
129	0x3d90b79b	0.0706627
130	0x3d0ebea1	0.034849767
131	0xbbb8ee40	-0.005643636
132	0x3d4946de	0.04913985
133	0x3cba9541	0.022776248
134	0x3da96619	0.08271427
135	0xbd8be06e	-0.06829916
136	0xbcc233d5	-0.023706356
137	0xbd995e3e	-0.074886784
138	0xbdacc270	-0.084355235
139	0x3d85af81	0.06527615
140	0x3d689121	0.05677903
141	0xbcc98617	-0.024600072
142	0xbdd6c1f8	-0.10486215
143	0x3d5b1381	0.053485397
144	0x3c527544	0.012845341
145	0xbdc2336e	-0.09482466
146	0xbd2aa8f8	-0.041665047
147	0x3d06a53e	0.03287243
148	0x3df6ec51	0.120567925
149	0x3e1caa17	0.15299259
150	0xbd3a9360	-0.045550704
151	0xbd02e9b9	-0.031961177
152	0xbc8a21e3	-0.016861862
153	0x3d6cb2b5	0.057787616
154	0x3b78eaad	0.0037981675
155	0xbd0b89c5	-0.034066934
156	0xbb343dc0	-0.0027502626
157	0xbd344c85	-0.044018287
158	0x3dafd2a3	0.08585098
159	0xbdeff2f0	-0.117162585
160	0x3d9c3bf7	0.07628625
161	0xbad607bc	-0.0016329209
162	0x3bc7a9a0	0.006093219
163	0x3d8c2076	0.06842129
164	0x3d385b8f	0.045009192
165	0x3d11de91	0.035612646
166	0xbcec760f	-0.028864888
167	0x3d9dfff5	0.077148356
168	0x3d8647d7	0.06556671
169	0x3cd5ec94	0.026113786
170	0x3dcddf55	0.10052363
171	0xbdc44e58	-0.095852554
172	0xbdc14c4d	-0.09438381
173	0xbd980d50	-0.07424414
174	0x3cf810aa	0.030281384
175	0xbca67c4c	-0.020322941
176	0xbd99ba64	-0.07506254
177	0x3d73f88f	0.059563216
178	0xbd8e2242	-0.06940128
179	0x3d786339	0.0606415
180	0xbcb5a3b9	-0.022172796
181	0x3d115535	0.03548165
182	0x3d84b966	0.064806744
183	0xbcf514a1	-0.029917063
184	0xbdf3ae55	-0.118984856
185	0xbd052294	-0.03250368
186	0x3cb6429e	0.022248562
187	0x3e2812f5	0.16413482
188	0xbdaef05c	-0.08541939
189	0xbd4aa513	-0.049473833
190	0xba9cff3c	-0.0011977921
191	0xbd273322	-0.04082025
192	0xbd79a775	-0.060950715
193	0xbd9ebc2c	-0.07750735
194	0x3dac5825	0.0841525
195	0xbd2c1733	-0.042014312
196	0xbd975451	-0.07389129
197	0xbcccbb51	-0.024991663
198	0xbd181771	-0.03713173
199	0xbd0cb5d0	-0.034353077
200	0xb7578890	-1.2846795e-05
201	0x3cb72ba8	0.022359684
202	0xbd89b0c7	-0.06723171
203	0x3d576130	0.05258292
204	0xbd163a86	-0.036676906
205	0x3d5b8417	0.053592768
206	0xbdac68ca	-0.084184244
207	0xbc19aafa	-0.009379143
208	0xbcb46320	-0.022019923
209	0xbd951de0	-0.07281089
210	0xbdf36367	-0.11884194
211	0xbcbd561b	-0.023112347
212	0x3c1142e6	0.0088660475
213	0x3d713266	0.058885954
214	0x3dbb741e	0.09153007
215	0xbc839110	-0.016060382
216	0x3d853896	0.065049335
217	0x3d81787e	0.0632181
218	0xbd550fde	-0.052017085
219	0xbbe747d7	-0.0070581245
220	0xbde1418d	-0.10998831
221	0xba27da9e	-0.0006403121
222	0x3d2f2bc6	0.042766355
223	0x3d414d2b	0.047192734
224	0xbbc9c831	-0.006157898
225	0x3d5a1289	0.053240333
226	0xbd4d81a5	-0.050172467
227	0xbd5a17e7	-0.05324545
228	0xbd108330	-0.03528136
229	0xbd3e12c8	-0.04640463
230	0xbe3a5715	-0.18197282
231	0xbd182104	-0.03714086
232	0x3bba694b	0.0056888214
233	0x3d3079e2	0.043084987
234	0x3d16ad2f	0.036786254
235	0xbd5faf98	-0.05461082
236	0xbca99269	-0.020699697
237	0x3dae5320	0.085119486
238	0xbd7a8e11	-0.06117064
239	0xbd80153c	-0.0625405
240	0xbbb2f240	-0.0054610074
241	0x3d340626	0.043951176
242	0x3d451369	0.048114214
243	0x3d925a97	0.07146185
244	0x3d25d4d6	0.04048618
245	0xbd1d0304	-0.038332954
246	0x3b82e754	0.0039948616
247	0xbc6dfea2	-0.014526041
248	0xbd88effe	-0.066864
249	0xbc6e2a60	-0.01453647
250	0x3c716007	0.014732367
251	0x3d27d81b	0.04097758
252	0x3b5b782d	0.0033488378
253	0x3d86c7c1	0.06581069
254	0xbce09c7b	-0.027418366
255	0xbcb97363	-0.022638028

convs.1.bias f4 [32]
0	0xbd8f2afa	-0.06990619
1	0xbd2a4226	-0.04156699
2	0xbd09ee01	-0.033674244
3	0xbd3d6460	-0.046238303
4	0xbcd296ad	-0.025706613
5	0xbe0d3442	-0.13789466
6	0xbd5d910e	-0.054093413
7	0x3d73c4a6	0.05951371
8	0x3c806764	0.0156743
9	0xbd00cb0a	-0.031443633
10	0x3caceb78	0.021108374
11	0xbd4473eb	-0.04796211
12	0xbda7af93	-0.08187785
13	0x3cadd434	0.02121935
14	0x3dcab8b2	0.09898509
15	0x3e02c73f	0.12771319
16	0xbcd6e246	-0.026230942
17	0x3d5f7707	0.054556873
18	0x3d822ed2	0.063565865
19	0x3c8cb3e3	0.01717562
20	0xbc03c4f6	-0.008042565
21	0xbd1b5c56	-0.037929855
22	0xbcbddd42	-0.023176793
23	0xbd79a1c6	-0.060945295
24	0xbd1ce221	-0.03830159
25	0x3d930257	0.07178181
26	0xbbc7938e	-0.006090588
27	0xbdedb03f	-0.11605882
28	0xbd2f744d	-0.042835522
29	0x3c661836	0.014043858
30	0xbd55f55a	-0.05223594
31	0x3d3a0555	0.04541524

convs.2.basis f4 [4, 32, 32]
0	0x3c035e0d	0.008018029
1	0xbd6dcf87	-0.05805924
2	0x3c15ed11	0.009150759
3	0x3d056a63	0.03257216
4	0xbdab4d11	-0.083643086
5	0xbca4df46	-0.020125996
6	0x3cae78a7	0.021297766
7	0x3d90a742	0.07063152
8	0xbb4d1112	-0.0031290692
9	0xbc6516b9	-0.013982468
10	0xbd29d17a	-0.041459538
11	0x3beb19fc	0.0071747284
12	0x3bee8af0	0.0072797462
13	0xbce41cf3	-0.027845835
14	0x3d0ca217	0.03433427
15	0xbd53fb48	-0.051753312
16	0x3ce9c366	0.028535556
17	0x3cad923b	0.021187892
18	0xbd3686b6	-0.044562064
19	0xbc367bcf	-0.011137917
20	0xbbd60afb	-0.0065320707
21	0x3ca4ae66	0.02010269
22	0x3d28adda	0.041181423
23	0xbc54e429	-0.012993851
24	0xbd298925	-0.041390557
25	0x3b52dda8	0.0032175574
26	0x3d130822	0.035896428
27	0xbc8b0292	-0.016968999
28	0x3d4ac80e	0.049507193
29	0x3cbaf7c1	0.022823216
30	0xbccf1b96	-0.025281709
31	0xbd49142c	-0.049091503
32	0x3a344851	0.0006877231
33	0x3dbe6f6c	0.09298596
34	0xbd0f3778	-0.03496501
35	0x3c3318db	0.010931219
36	0x3b8c4e8a	0.0042818235
37	0xbd2e2d71	-0.042523805
38	0xbc3acfd6	-0.011402091
39	0x3c52a9ae	0.012857838
40	0x3cdaafba	0.026695121
41	0x3d1a0c37	0.037609305
42	0x3d2e6f6b	0.042586725
43	0xbc5ea3e8	-0.013588883
44	0xbcc2a1bf	-0.023758767
45	0xbd33cd0f	-0.04389673
46	0x3d4873ae	0.048938446
47	0x3db13b71	0.08653916
48	0x3c464dda	0.012103522
49	0x3d5d0663	0.05396117
50	0xbd549cd8	-0.05190739
51	0x3bd92bc6	0.0066275327
52	0x3d5e532e	0.054278545
53	0x3d930760	0.07179141
54	0x3d89cc8a	0.06728466
55	0xbd19ac7a	-0.037518002
56	0x3da702f0	0.08154857
57	0xbe05ad60	-0.13054419
58	0xbcdf0d5f	-0.027228056
59	0xbc4658d3	-0.012106138
60	0x3d16d621	0.036825303
61	0xbdc8f810	-0.09812939
62	0x3c97475f	0.01846665
63	0x3d6afb5e	0.05736863
64	0x3b9d348c	0.004797524
65	0x3db0b527	0.08628302
66	0xbdad5341	-0.08463145
67	0x3d4a742f	0.049427208
68	0xbbf3ef53	-0.007444301
69	0xbaee0517	-0.0018159476
70	0xbd047178	-0.032334775
71	0xbd27a58b	-0.04092936
72	0x3ba12f0f	0.00491894
73	0x3d5a6a47	0.05332401
74	0x3d66a0a7	0.056305554
75	0x3d990720	0.07472062
76	0x3c540695	0.012941022
77	0x3d902ca9	0.07039768
78	0x3d97be2c	0.07409319
79	0x3c343525	0.010998999
80	0x3c9e66ff	0.019336222
81	0x3de6ec6f	0.11275565
82	0x3c04ee3a	0.008113438
83	0xbd1d488e	-0.03839927
84	0x3c8a2b26	0.016866278
85	0x3dbdec0a	0.092735365
86	0x3d9df94a	0.07713564
87	0xbd0626e2	-0.032751925
88	0x3df2fad5	0.11864249
89	0xbe05b672	-0.13057879
90	0xbbf880fd	-0.007583736
91	0x3c994816	0.018711131
92	0x3ab390e5	0.0013699798
93	0xbccd4823	-0.025058812
94	0x3d02373b	0.031790953
95	0x3db06520	0.08613038
96	0x3b5ecfd3	0.0033998385
97	0x3c51d631	0.012807415
98	0xbc9981f6	-0.018738728
99	0x3d233267	0.03984299
100	0x3cd3e069	0.025863843
101	0xbc152e15	-0.009105225
102	0x3ce65a00	0.028119087
103	0x3dc51a2e	0.09624134
104	0xbd456035	-0.048187453
105	0xbd80401a	-0.062622264
106	0xbc6a4cc3	-0.014300528
107	0xbc8ea561	-0.017412843
108	0xbc6551c0	-0.0139965415
109	0xbd34c64e	-0.04413443
110	0xbd203296	-0.039110743
111	0x3d503374	0.05083032
112	0x3d4d5c74	0.050137
113	0xbd9cd561	-0.07657886
114	0x3d31aed3	0.043379616
115	0x3cedd375	0.029031495
116	0x3d4098c5	0.047020692
117	0xbd731a2d	-0.059351135
118	0xbc6f5220	-0.0146069825
119	0x3d479be7	0.048732664
120	0x3c84cd30	0.016211122
121	0xbcda74c4	-0.026667006
122	0xbd42d6d3	-0.047568154
123	0xbbf2fbfd	-0.0074152933
124	0x3d20b431	0.039234344
125	0xbd10a16f	-0.035310205
126	0xbd94ccca	-0.07265623
127	0x3d8bec10	0.06832135
128	0x3ca723d4	0.020402826
129	0x3dfc4355	0.1231753
130	0xbd923b79	-0.0714025
131	0xbd0bca9c	-0.03412877
132	0x3cd6a316	0.026200812
133	0xbd7c1d71	-0.061551515
134	0xbda9a247	-0.08282905
135	0x3b6ddfd8	0.0036296751
136	0xbd389913	-0.045067858
137	0xbd1ee1a3	-0.038789403
138	0xbcb82e96	-0.022483151
139	0xbc76ac16	-0.015055677
140	0x3934e195	0.00017250174
141	0x3d3e4a58	0.04645762
142	0x3d1700a8	0.03686586
143	0x3d7e5e29	0.062101517
144	0x3c843fad	0.016143644
145	0x3c7bcdce	0.015368892
146	0xbcc16545	-0.02360786
147	0xbb6e6b4c	-0.0036379872
148	0x3c048873	0.008089173
149	0x3dd9e7f4	0.10639945
150	0xbcc1e1f8	-0.02366732
151	0xbb8e5890	-0.0043440536
152	0x3cd64d39	0.02615987
153	0xbd36e60e	-0.04465299
154	0x3b493d16	0.0030706576
155	0xbd6e767c	-0.058218464
156	0x3dc4a3c5	0.09601549
157	0x3b3edb23	0.0029122315
158	0xbcb6731f	-0.02227169
159	0x3cb65f70	0.022262305
160	0x3bb4988a	0.005511348
161	0xbd1f02e2	-0.03882111
162	0x3c771825	0.01508144
163	0x3c2dda8a	0.010611186
164	0xbcf4719a	-0.029839326
165	0x3cba47a9	0.022739248
166	0x3d71f459	0.05907092
167	0x3d4a0c13	0.04932792
168	0x3cd4818a	0.025940675
169	0x3d5f86a7	0.054571774
170	0x3c72dc57	0.014823041
171	0x3ca467fc	0.020069115
172	0xbda0db21	-0.078542955
173	0xbd29903d	-0.041397322
174	0x3d831bca	0.06401785
175	0x3d0a49d1	0.033761803
176	0xbbf22174	-0.007389242
177	0x3d55c845	0.052192945
178	0x3caaf1f4	0.020867325
179	0x3c194a73	0.009356129
180	0x3d4b334a	0.04960946
181	0x3c1af4bb	0.009457762
182	0x3c10282c	0.00879864
183	0xbcb1c787	-0.021701587
184	0x3ca8ff62	0.020629589
185	0x3cbb8cb2	0.022894237
186	0x3ced74a7	0.028986288
187	0x3c384961	0.011247964
188	0x3d1b9091	0.037979666
189	0x3c20b115	0.009807845
190	0xbaf4306a	-0.0018630151
191	0xba9e68e6	-0.0012085706
192	0x3d953d94	0.07287136
193	0x3dd48557	0.10376995
194	0xbddbab8c	-0.10726079
195	0x3d7d9dd0	0.06191808
196	0x3d3ea5b5	0.04654475
197	0xbbf414c2	-0.0074487636
198	0xbdfddfaa	-0.12396176
199	0xbe16f163	-0.14740519
200	0xbd28c2fb	-0.041201573
201	0xbc735f16	-0.014854213
202	0x3c0a5da0	0.0084451735
203	0x3deaaa16	0.114582226
204	0x3c58d3a9	0.013234057
205	0xbcdceb80	-0.026967764
206	0x3b3665df	0.0027831716
207	0x3d8cbf70	0.06872451
208	0xbb9d91bd	-0.004808633
209	0x3dcf4dd3	0.10122266
210	0x3b6fe85d	0.0036607005
211	0xbd77d97b	-0.06051014
212	0xbd37f133	-0.04490776
213	0xbc2f071b	-0.010682846
214	0x3cf93cdb	0.030424526
215	0xbd0bfc60	-0.03417623
216	0x3d699bed	0.057033468
217	0xbd17d446	-0.037067674
218	0x3db171b3	0.086642645
219	0xbc3ad25d	-0.011402694
220	0xbde3589c	-0.11100885
221	0x3c5cae91	0.013469354
222	0x3d879b48	0.066214144
223	0x3ca6c254	0.020356335
224	0x3de1e36b	0.11029705
225	0x3d7a3726	0.06108775
226	0xbd1e10f9	-0.038590405
227	0x3cfbd7ae	0.030742493
228	0x3d309339	0.043109152
229	0xbcc07aae	-0.023495998
230	0x3d3b00ae	0.045654945
231	0xbd67aa62	-0.056558974
232	0xbcfa28d1	-0.03053704
233	0x3d1e30a4	0.038620606
234	0xbcc4248e	-0.023943212
235	0x3cbf002f	0.023315517
236	0x3b7bed23	0.0038440905
237	0x3cc43679	0.023951756
238	0x3cd6f032	0.02623758
239	0x3d17b503	0.03703786
240	0xbda5483b	-0.080704175
241	0x3d5223da	0.051303722
242	0xbd6aba99	-0.05730686
243	0x395e3c4d	0.00021194034
244	0xbc6492b6	-0.013950994
245	0x3cc60925	0.024174282
246	0x3d09b938	0.033623904
247	0xbdb1b967	-0.08677941
248	0x3de40ab5	0.11134855
249	0xbd9982ba	-0.07495637
250	0xba5dcb3b	-0.00084607647
251	0x3c7b594e	0.015341116
252	0x3cd283ce	0.025697615
253	0xbd08b369	-0.033374224
254	0xbd367d2e	-0.044552974
255	0x3d1ac448	0.037784845

convs.2.att f4 [10, 4]
0	0x3cba4f76	0.022742968
1	0x3b92dbd9	0.0044817743
2	0x3c8a04fb	0.016848078
3	0x3d18e083	0.037323486
4	0x3cd6c39e	0.026216324
5	0x3bdf1c4a	0.0068087922
6	0x3ca84b6e	0.02054378
7	0x3d250157	0.04028448
8	0x3c92cbe1	0.017919483
9	0xbc9cdcd1	-0.019148262
10	0x3c9c9178	0.019112334
11	0x3d2f3662	0.042776473
12	0x3cb95b8d	0.022626663
13	0xbc601404	-0.013676647
14	0x3c2abd22	0.010421069
15	0x3cbc1e2c	0.022963606
16	0x3c194551	0.009354905
17	0x3c2b19cc	0.010443162
18	0x3c123545	0.008923833
19	0x3c8c697e	0.017140146
20	0xbc3f791b	-0.011686589
21	0xbbbb3db6	-0.0057141436
22	0xbca30af7	-0.01990269
23	0xbbd56ba3	-0.0065130754
24	0x3b1a5c70	0.0023553632
25	0xbcb17f7b	-0.021667233
26	0xbaf11f80	-0.0018396229
27	0x3c10232e	0.00879745
28	0xbba0fac0	-0.004912704
29	0xbb5ce13e	-0.003370359
30	0x3bb170dc	0.005415065
31	0x398f1fbb	0.00027298726
32	0x3c131970	0.008978233
33	0xbb6de061	-0.003629707
34	0x3b80f36f	0.0039352695
35	0x3bffa166	0.0078012226
36	0x3c99eb40	0.018788934
37	0xbba260f3	-0.004955405
38	0x3bc9d379	0.0061592427
39	0x3cc5c84c	0.02414336

convs.2.root f4 [32, 32]
0	0xbd002175	-0.031281907
1	0xbd837c33	-0.064201735
2	0x3ddacfd7	0.106841736
3	0xbd0bab62	-0.03409899
4	0x3cb1a119	0.021683263
5	0xbde4bcb4	-0.11168805
6	0xbd9308c4	-0.07179406
7	0xbc1d1ca6	-0.00958935
8	0x3d3f8312	0.046755858
9	0xbc8c0271	-0.017091008
10	0x3bf2149a	0.00738771
11	0x3c8a1d1d	0.016859585
12	0xbc8f659c	-0.017504506
13	0x3d5037fd	0.050834645
14	0xbd89d332	-0.067297354
15	0xbd6553ce	-0.055988126
16	0x3afe18cb	0.0019386051
17	0x3d101c55	0.03518327
18	0x3d37e2c4	0.044893995
19	0x3c400a6b	0.011721234
20	0x3c2a0557	0.01037725
21	0xbd84a53f	-0.06476831
22	0xbd674077	-0.056457963
23	0x3d2bf41e	0.041980855
24	0xbdfa9136	-0.12234728
25	0x3cfe2c33	0.031026935
26	0x3d315f1e	0.0433036
27	0x3bc61f42	0.0060462067
28	0x3cc16d17	0.023611588
29	0x3b0c04c7	0.0021365152
30	0xbd243442	-0.0400889
31	0xbd08a2a9	-0.03335825
32	0xbd156946	-0.03647735
33	0xbd653906	-0.055962585
34	0xbd902515	-0.07038323
35	0x3d862522	0.06550051
36	0x3be647d1	0.007027604
37	0xbb94b54d	-0.0045382143
38	0xbcf06c06	-0.029348385
39	0xbda6f401	-0.08152009
40	0x3c4501bc	0.012024339
41	0x3d2eecdd	0.04270636
42	0xbd8710b9	-0.065949865
43	0xbd44ff84	-0.04809524
44	0xbd0edbce	-0.03487759
45	0xbbcdf61e	-0.006285443
46	0xbcf15680	-0.029460192
47	0xbc804785	-0.015659103
48	0xbd77b9ca	-0.060479917
49	0x3cef8cfb	0.02924203
50	0x39f3c938	0.0004649849
51	0xbd2b3142	-0.041795023
52	0x3cf2bbe8	0.029630616
53	0x3c1607c1	0.009157122
54	0xbc11a2f3	-0.008888948
55	0x3c8ae2a8	0.016953781
56	0xbba6be71	-0.0050886204
57	0xbdbe6a66	-0.09297638
58	0xbc0788c7	-0.008272356
59	0xbd710588	-0.058843166
60	0xbb9360ff	-0.004497647
61	0xbd13d475	-0.036091287
62	0x3cf76c63	0.03020305
63	0x3d2b3eb4	0.041807845
64	0xbc1e4324	-0.009659562
65	0xbe1bde07	-0.15221415
66	0xb9ac0742	-0.00032811804
67	0xbc580dc7	-0.0131868785
68	0xba8a7cd8	-0.0010565771
69	0xbdf02a7a	-0.11726852
70	0xbaa7f21a	-0.0012813241
71	0x3d20d2a0	0.039263368
72	0x3d4815be	0.04884886
73	0x3c2637c4	0.0101451315
74	0x3d6c0812	0.057624884
75	0xbdafa841	-0.08577014
76	0xbd4e6b8e	-0.05039554
77	0xbdb70cdd	-0.08938
78	0x3c971c53	0.018446123
79	0xbcfc3ff7	-0.03079222
80	0xbcb10945	-0.021610865
81	0x3d07e3e3	0.033176314
82	0x3d33c06f	0.04388469
83	0xbc2c9aff	-0.010535001
84	0xbd903705	-0.07041744
85	0xbd898910	-0.06715596
86	0xbc0af69f	-0.008481651
87	0x3d3564b3	0.044285487
88	0xbd4118df	-0.04714286
89	0x3d307c0d	0.043087054
90	0x3cd1eb6e	0.025624957
91	0x3c0323e4	0.008004162
92	0x3c42f7c1	0.011899889
93	0xbb3eda00	-0.0029121637
94	0xbc952aa4	-0.01820881
95	0xbd236171	-0.03988785
96	0x3c154600	0.009110928
97	0xbd127f3c	-0.03576587
98	0xbb8bce01	-0.004266501
99	0xbd887712	-0.06663336
100	0x3cf8a4bf	0.030351995
101	0xbcd2e37a	-0.025743235
102	0xbd25f4c3	-0.040516626
103	0xbc4fa55e	-0.012673704
104	0xbd25f07f	-0.040512558
105	0xbbc58dff	-0.00602889
106	0x3d59b51d	0.05315124
107	0x3d523e7e	0.05132913
108	0x3c539549	0.01291401
109	0xbd1e8cd7	-0.038708534
110	0x3c5e20f9	0.013557666
111	0xbccd7cb4	-0.025083877
112	0x3c0a75d9	0.008450949
113	0xbc41dfab	-0.011833112
114	0x3c3d5e6a	0.011558155
115	0xbd29556a	-0.041341223
116	0xbcdd338a	-0.027002115
117	0xbd9706c9	-0.07374341
118	0x3cd2ef0e	0.025748756
119	0xbd598445	-0.053104658
120	0xbc3ed3a1	-0.011647136
121	0x3d00c2ba	0.031435706
122	0x3d6326cf	0.055456933
123	0x3c59c89d	0.013292459
124	0x3c70351e	0.014661102
125	0xbd4898ef	-0.048973974
126	0xbcfa80c7	-0.030578984
127	0xbc8bd5fc	-0.01706981
128	0x3cc4b59f	0.024012385
129	0x3d2c060e	0.04199796
130	0xbce3ca9f	-0.027806578
131	0x3cd2563c	0.025675885
132	0xbd9ef9da	-0.07762499
133	0x3c38061a	0.0112319235
134	0x3d1c300a	0.03813175
135	0x3c25c2c3	0.010117236
136	0xbc98b38e	-0.018640306
137	0x3b636fe2	0.0034704139
138	0xbb8e86c0	-0.0043495595
139	0xbd64abcd	-0.055827904
140	0x3b5351df	0.0032244844
141	0x3cf4a01b	0.0298615
142	0xbb8d2f04	-0.004308583
143	0x3d10af55	0.03532346
144	0x3d046f37	0.032332625
145	0xbd0c2dc4	-0.034223333
146	0x3d24bb03	0.04021741
147	0xbcd1f5be	-0.025629874
148	0x3d56c26f	0.05243152
149	0xbd887b17	-0.066641025
150	0x3d3c95a0	0.04604113
151	0x3d715856	0.058922134
152	0x3b071331	0.0020610804
153	0x3ce87823	0.028377598
154	0xbd887d15	-0.066644825
155	0xba23251f	-0.0006223488
156	0xbc2fa4b7	-0.010720423
157	0x3ce049fd	0.02737903
158	0x3b6f6d52	0.0036533666
159	0xbcb9b8d3	-0.022671139
160	0xbd6aaffb	-0.057296734
161	0xbdcd5588	-0.100260794
162	0xbd02d5d7	-0.031942215
163	0x3ce7403d	0.028228873
164	0x3cc4382d	0.023952568
165	0xbac40a6b	-0.0014956718
166	0xbd805551	-0.06266273
167	0xbccc4674	-0.024935938
168	0x3ccbd57d	0.024882073
169	0x3d0e8c1e	0.034801595
170	0x3dad9335	0.08475343
171	0x3d050937	0.03247949
172	0xba547fc0	-0.00081061944
173	0xbc8bc48a	-0.01706149
174	0xbd3c7689	-0.04601148
175	0xbcf72252	-0.030167732
176	0x3c2d3ab3	0.010573077
177	0x3c7c0500	0.0153820515
178	0x3c69f876	0.014280429
179	0xbd273167	-0.040818598
180	0xbca94306	-0.020661842
181	0xbda58fd7	-0.08084076
182	0xbb426b7c	-0.0029666116
183	0xbd3f1175	-0.046647508
184	0xbd518536	-0.05115243
185	0x3c6ed8c2	0.014578046
186	0x3d91713a	0.071016744
187	0xbcbbf0b5	-0.022941926
188	0x3d2ad5f7	0.04170796
189	0xbc59fef2	-0.013305413
190	0x3a3b88c2	0.00071538624
191	0xbd1b4724	-0.03790964
192	0x3b8bd32f	0.0042671184
193	0x3d8e0570	0.06934631
194	0xbd979039	-0.07400555
195	0x3de42482	0.11139776
196	0x3d0ed728	0.034873158
197	0x3d82ef30	0.06393278
198	0x3cd767d1	0.02629462
199	0x3c70d7cb	0.014699887
200	0x3c9252b3	0.0178617
201	0x3c69dc24	0.014273677
202	0xbdc346a1	-0.09534956
203	0xbd4f9c30	-0.05068606
204	0xbc8fba9d	-0.017545039
205	0x3a9b9cc4	0.0011872281
206	0xbc8abe7f	-0.016936539
207	0x3b08ed9e	0.0020893584
208	0x3d154d74	0.03645082
209	0x3c675de0	0.014121503
210	0xbc7539bb	-0.014967377
211	0x3ccec2f8	0.025239453
212	0x3d9125c2	0.0708728
213	0x3e523425	0.20527704
214	0xbc57757f	-0.013150572
215	0xbc79f8df	-0.015257089
216	0x3ded2d75	0.11580936
217	0xbd5c6030	-0.05380267
218	0xbce79fb6	-0.028274398
219	0xbd093366	-0.033496283
220	0x3cc1c937	0.023655517
221	0xba953825	-0.001138453
222	0x3d341d67	0.043973353
223	0x3d162df3	0.036664914
224	0xbbd34f69	-0.0064486754
225	0xbd8cc629	-0.068737336
226	0xbbdbbddc	-0.0067059826
227	0xbbe71700	-0.0070523024
228	0x3c97c626	0.018527102
229	0xbcf7801e	-0.030212458
230	0xbc3f5023	-0.011676821
231	0xbd29f3d6	-0.041492306
232	0x3d57a26c	0.052645132
233	0xbd2748e9	-0.040841017
234	0x3ca0c3a9	0.019624548
235	0x3d362d8e	0.044477038
236	0xbc0bd563	-0.008534762
237	0x3c1bd472	0.0095111
238	0xbc14083f	-0.009035169
239	0xbc8c7de3	-0.017149871
240	0xbd21ede6	-0.03953352
241	0xbd2333fc	-0.039844498
242	0x3cc54c7c	0.024084322
243	0x3c88b03b	0.016685596
244	0xbd5df088	-0.054184467
245	0xbd16ab24	-0.036784306
246	0xbd30fa0e	-0.04320722
247	0x3c355c5c	0.0110693835
248	0xbd207c9c	-0.039181337
249	0xbc9b0f22	-0.018928114
250	0x3c88f2f3	0.01671741
251	0xbba14b9f	-0.004922345
252	0x3d382a89	0.04496244
253	0xbc6f87c5	-0.014619772
254	0xbc838e6f	-0.016059129
255	0xbc8d90d6	-0.017280977

convs.2.bias f4 [32]
0	0x3c964819	0.018344926
1	0xbd18b6ef	-0.037283834
2	0x3d04fb6d	0.03246634
3	0xbd3c04f6	-0.04590317
4	0xbc045e06	-0.008079058
5	0xbd53ea58	-0.05173716
6	0x3be634a1	0.007025317
7	0xbd12bfd8	-0.035827488
8	0xbbb2e34b	-0.0054592243
9	0xbb984236	-0.004646565
10	0x3d5915ac	0.052999184
11	0x3d080744	0.033210054
12	0x3ad7c1b1	0.0016460923
13	0xbc3e4abe	-0.0116145
14	0x3cb3698a	0.02190091
15	0x3caa30bd	0.020775193
16	0xbcbb1bb9	-0.022840368
17	0xbba66016	-0.0050773723
18	0xbc811b59	-0.01576011
19	0xbc9573f7	-0.018243773
20	0xbd28f3b2	-0.04124803
21	0xbdb2350f	-0.087015264
22	0xbbee7fdc	-0.0072784256
23	0xbc97e4ab	-0.018541655
24	0xbd1fd6bd	-0.03902315
25	0x3af4f230	0.00186879
26	0x3c86051d	0.01635986
27	0x3b064d3d	0.0020492815
28	0x3a87052a	0.0010301222
29	0xbbcc135c	-0.0062278938
30	0x39d20bcc	0.0004006311
31	0x3ca188ca	0.019718546

convs.3.basis f4 [4, 32, 32]
0	0xbd5c60b0	-0.053803146
1	0xbd16bf8f	-0.03680378
2	0xbda9e498	-0.08295554
3	0x3cdd1655	0.026988188
4	0xbcdb2762	-0.026752178
5	0xbc3ea095	-0.011634965
6	0x3d61a8ad	0.055092502
7	0x3d4b5cf5	0.049649198
8	0xbcc774c6	-0.024347674
9	0xbd2a00ce	-0.041504674
10	0xbd806992	-0.06270136
11	0x3d96ca1f	0.0736277
12	0xbd307a01	-0.043085102
13	0x3cfffbfa	0.031248081
14	0x3b6c1154	0.003602107
15	0xbd9b43e0	-0.075813055
16	0xbc251bae	-0.0100774
17	0x3c96413a	0.01834165
18	0x3d08e823	0.033424508
19	0x3da61d61	0.08111072
20	0x3cafcab9	0.02145897
21	0x3c8e49b3	0.017369127
22	0x3d8edc01	0.06975556
23	0x3d214f00	0.03938198
24	0x3dce6859	0.100784965
25	0xbcd55fd4	-0.026046671
26	0xbe097669	-0.13424076
27	0xbd531739	-0.05153582
28	0x3ca3d2f2	0.019998048
29	0xbd66b79d	-0.05632745
30	0x3c641b99	0.013922595
31	0xbcc1c20e	-0.023652103
32	0x3cfd83a8	0.030946568
33	0xbd4d06f7	-0.05005547
34	0x3d38194d	0.044946004
35	0x3d921e24	0.07134655
36	0x3c58832d	0.0132148685
37	0x3cecd95e	0.028912243
38	0xbd91a60a	-0.071117476
39	0x3cfcaf2d	0.03084525
40	0x3dfeddc0	0.12444639
41	0x3a3b479a	0.00071441534
42	0xbd4cfefb	-0.050047856
43	0x3dc75291	0.09732545
44	0xbd1bae52	-0.03800804
45	0x3c751969	0.014959672
46	0xbc383666	-0.011243438
47	0x3d7b6a4b	0.061380666
48	0xbd04467c	-0.03229378
49	0xbd2f2ef8	-0.042769402
50	0x3d66bdcd	0.056333352
51	0xbb34e0dd	-0.002759985
52	0x3d979369	0.07401163
53	0x3c23665e	0.009973137
54	0xbb01767a	-0.0019754455
55	0xbd38d5d9	-0.045125816
56	0xbcd29583	-0.025706058
57	0x3dc4f269	0.096165486
58	0xbc81049d	-0.01574927
59	0x3db95cd3	0.09050908
60	0xbd55e459	-0.052219722
61	0x3d0e796f	0.034783777
62	0x3da5864f	0.08082258
63	0xbddefc8b	-0.108880125
64	0xbc94effc	-0.01818084
65	0xbd0993f5	-0.03358837
66	0xbd0fedf8	-0.035139054
67	0xbdb1d431	-0.086830504
68	0xbd12775f	-0.035758372
69	0x3dadc113	0.084840916
70	0x3a00e2f5	0.0004916632
71	0x3c9db0bd	0.019249314
72	0xbd5fc639	-0.0546324
73	0xbd9667e5	-0.07344035
74	0x3af25a6e	0.0018490085
75	0x3c457d38	0.01205378
76	0x3c600b36	0.013674548
77	0x3c907895	0.017635623
78	0x3d15f272	0.036608167
79	0x3d23e046	0.040008806
80	0xbca3c620	-0.019991934
81	0x3c4b7075	0.012416949
82	0x3db64d0f	0.089014165
83	0xbd07936f	-0.033099588
84	0x3c890cc8	0.016729727
85	0x3d7dc70e	0.06195741
86	0x3d3a5a61	0.04549635
87	0x3dce9c62	0.100884214
88	0x3baff694	0.0053699706
89	0x3cce4a7b	0.025182
90	0xbd27e935	-0.040993888
91	0xbc75c278	-0.014999978
92	0x3d07c7a5	0.03314938
93	0xbdabb929	-0.08384926
94	0xbc2715cc	-0.010198068
95	0xbc9771dc	-0.01848691
96	0xbc9a4585	-0.018831978
97	0x3d4c379d	0.049857724
98	0x3c871e8b	0.016494056
99	0x3dba8ad6	0.09108512
100	0xbc979bfa	-0.018506993
101	0x3cf47768	0.029842094
102	0xbd08435f	-0.033267375
103	0xba49c464	-0.0007696806
104	0xbd051ff7	-0.032501187
105	0x3d64262d	0.05570047
106	0xbd804bae	-0.06264435
107	0x3ca88e60	0.020575702
108	0xbd81efa3	-0.06344535
109	0x3cb2113e	0.021736737
110	0xbc4827ce	-0.012216521
111	0xbd7c0ef2	-0.06153769
112	0xbca8cf16	-0.020606559
113	0x3cf502c3	0.029908543
114	0x3c010797	0.007875345
115	0x3d9c057b	0.07618233
116	0xbd870965	-0.06593589
117	0xbb8bf48d	-0.004271096
118	0x3c25a76d	0.010110718
119	0xbd41bf40	-0.04730153
120	0x3cee865e	0.029116806
121	0x3d47178f	0.04860645
122	0xbd497b5d	-0.049189914
123	0xbbe82a08	-0.0070850886
124	0x3d99a72c	0.07502589
125	0x3bcdfd4c	0.006286299
126	0xbc8a2ba7	-0.016866518
127	0xbdd0137f	-0.101599686
128	0xbaddca66	-0.0016921281
129	0x3cae5c32	0.021284197
130	0xbc9fc8ad	-0.01950487
131	0xbcf0970a	-0.029368896
132	0x3db55b01	0.08855248
133	0x3bcc1a01	0.006228686
134	0xbc6b02bc	-0.014343914
135	0xbd9a6b14	-0.07539955
136	0x3d91ec4b	0.071251474
137	0x3d21351f	0.0393573
138	0xbc433467	-0.011914349
139	0xbca15b71	-0.019696923
140	0xbbc8d878	-0.0061293207
141	0x3c0ebe1c	0.008712318
142	0xbc9f4500	-0.019442081
143	0x3c970964	0.018437095
144	0x3c608015	0.013702412
145	0x3d6b344c	0.05742292
146	0xbdb3d88c	-0.087815374
147	0xbb8e394c	-0.0043403264
148	0x3b1f7982	0.00243339
149	0xbd3bb5f8	-0.045827836
150	0xbd244911	-0.040108744
151	0x3cd66e18	0.026175544
152	0xbd7d193c	-0.061791644
153	0xbce2a3c8	-0.027665988
154	0xbc8648d2	-0.016392145
155	0xbbb97dea	-0.005660762
156	0x3d124ac1	0.035715822
157	0x3daa747a	0.083229974
158	0xbc2aae69	-0.010417559
159	0xbcd2ed0d	-0.0257478
160	0xbb8b0dc9	-0.0042435867
161	0xbd830056	-0.063965484
162	0xbd460a51	-0.048349682
163	0xbc9200a3	-0.01782257
164	0x3c2cfce7	0.0105583435
165	0x3b3b7946	0.002860622
166	0x3d096b53	0.033549618
167	0x3d5af52b	0.053456467
168	0x3ce590b3	0.0280231
169	0xbcc21f3f	-0.02369654
170	0x3ca3160e	0.019907977
171	0xbced6326	-0.028977942
172	0x3cb0e03d	0.0215913
173	0x3d163f00	0.036681175
174	0x3db4de2d	0.08831439
175	0xbc46d588	-0.012135871
176	0x3bb8aa8e	0.005635566
177	0xbcc75853	-0.024334108
178	0x3b8829f4	0.004155392
179	0xbc7665d2	-0.015038924
180	0xb92e89d2	-0.00016645275
181	0x3da4819d	0.08032534
182	0x3c5d29fb	0.013498778
183	0xbc841d63	-0.016127294
184	0x3d1ae240	0.037813425
185	0xbc9c2b37	-0.019063575
186	0xbd121d13	-0.03567226
187	0xbbfbb78b	-0.007681792
188	0x3a86c6a9	0.0010282594
189	0xbd0db852	-0.03459961
190	0x3cfa7103	0.030571466
191	0xbdfd3bf3	-0.1236495
192	0xbcbced9f	-0.023062525
193	0x3db42819	0.087967105
194	0x3caa3fad	0.020782316
195	0xbcd43377	-0.025903447
196	0xbc8388b8	-0.016056404
197	0x3c6aa22a	0.0143208895
198	0xbd8e2be9	-0.06941969
199	0x3cf4f9fe	0.029904362
200	0x3c827fef	0.015930144
201	0x3d14cfec	0.036331102
202	0xbda1ecc6	-0.07906489
203	0x3c7629a4	0.015024576
204	0x3c2f8ad9	0.010714256
205	0xbd9055f4	-0.07047644
206	0x3d3380cf	0.043824013
207	0xbbedf170	-0.0072614476
208	0x3d04f544	0.032460466
209	0xbd472265	-0.048616786
210	0x3d12aba7	0.03580823
211	0x3d0b4e5b	0.034010272
212	0x3b011f37	0.0019702443
213	0x3d8f8637	0.07008021
214	0x3c921b20	0.0178352
215	0xbd475562	-0.04866541
216	0xbb5bb505	-0.0033524644
217	0xbbfe615f	-0.0077630724
218	0xbc4e6f8b	-0.012599836
219	0xbcb6960f	-0.02228835
220	0xbd340b0f	-0.04395586
221	0xbcb64963	-0.02225179
222	0x3d3d5e65	0.0462326
223	0x3d870cac	0.06594214
224	0x3d63ce06	0.0556164
225	0x3cfb6975	0.030689934
226	0x3aa7d5bb	0.0012804786
227	0x3cfd14aa	0.030893642
228	0xbccc94f7	-0.024973376
229	0xbcfbf475	-0.030756215
230	0xbbea7145	-0.007154616
231	0xbbac78c0	-0.005263418
232	0x3d5d4c61	0.05402792
233	0xbbc6b83e	-0.006064444
234	0xbcc8e6ff	-0.02452421
235	0x3d8213d6	0.0635144
236	0xb91a40df	-0.00014710751
237	0xbcd2db93	-0.025739467
238	0x3d84a255	0.06476275
239	0x3c012c4b	0.007884095
240	0x3d0fbddf	0.035093185
241	0x3d6a2978	0.057168454
242	0x3dda0aef	0.10646617
243	0x3ccda537	0.025103195
244	0x3d28167f	0.04103708
245	0x3db4c4d3	0.08826604
246	0x3d89e03f	0.06732225
247	0x3d834947	0.06410461
248	0xbc969c47	-0.018385066
249	0x3da094c4	0.07840875
250	0x3d1b2b85	0.0378833
251	0x3a51dc0a	0.00080055057
252	0xbc4ca995	-0.012491603
253	0xbd58bbf9	-0.05291364
254	0x3d956057	0.07293766
255	0xbd580c9f	-0.05274641
