results/flixster_testmode/model_checkpoint33.pth (torch_old, 199981 bytes, 19 tensors)

convs.0.basis f4 [4, 4, 32]
00000000: 2cbf 113c 547b abba c262 253d 6a2c e93c
00000010: a660 9cbd 1118 4d3e 9687 f7bd 35a4 f7bd
00000020: 9efc b13d b439 46be f604 b93d 26f2 bebd
00000030: 9e12 4abe 5d99 b13d bf92 123e 8975 e4bd
00000040: 33b7 52bd f9f6 abbd 9a70 48be ea88 f4bb
00000050: 6a25 6b3d 442f 3c3e bddf 4c3d 2c7b aebd
00000060: 2aca 813d 0f74 e6bd 3cf7 e53d 5bd0 923c
00000070: e54d 143e 5595 8a3e 874f 1abe 165a ee3c
00000080: e0e8 34be 22f5 02be a9b7 f4bd a853 013d
00000090: 8d42 a33c 3f38 813e 52ec fe3a af30 97bd
000000a0: d5ba 69be e038 bfbd e7f0 c23d 9a59 5bbe
000000b0: 9d1e 54bb bed0 43bb af58 f83c d9bf b6bd
000000c0: 58e8 29bd c364 56be 5da5 ac3d 5627 f8bd
000000d0: 672d 8cbd f93b 123e 3b84 b4bd 967f b4bd
000000e0: 19c7 733c 88c2 92bd 5716 1a3c 0961 5a3d
000000f0: 196a c43d 731a 053e 21dd 76be 797e 4bbb
00000100: 4173 82bd 09a4 f5bd e933 933b 4a43 4a3d
00000110: 5f0c 92bc f63d b4bd 0f8e 3a3d 4772 a0be
00000120: 9d9e cfbe 6a95 e93c 803d de3c 67d5 a03d
00000130: dbee 813e 7cc0 683d b72d 3b3d e9ac 1fbe
00000140: b7fd 8d3c cd7b 78bd 5104 5c3d 1650 7b3d
00000150: 9f97 4c3d 5ddf c53d 919e 39bf 4b42 edbe
00000160: 3274 c2be 7025 3e3d e029 95bd cadf 353d
00000170: 0f35 61bd ef51 6f3d a927 28ba 669d ee3d
00000180: da9a fa3d d3c7 1bbd fb7f faba 979f 1fbc
00000190: 1669 fdbd a8bc 94be 3424 1bbd 6a46 a03d
000001a0: 699b b93e 56eb 193f ce1f 1b3f 0c79 1d3e
000001b0: cfa4 a93d eb99 2e3d 566e a7bc ef1f 47bd
000001c0: c3e1 ddbe adb9 f0bc 3bec 2abe 387f 00bd
000001d0: cf48 96bd c60e 13bf 993f 07be 7440 4f3d
000001e0: 55fa 4abd 0c1f 823e 7c45 30be f925 4bbe
000001f0: c83f b5bc be93 833d 13fb 2d3e 02fa 863d
00000200: aded e6bb 1eb1 bd3c 98bb 1e3d 5b3a 053c
00000210: 52e2 a3bd fb82 b23d 8066 fdbc adda b5bd
00000220: 53f7 f2bc a6d6 00be d393 683d c2f5 713b
00000230: 37ee 03be 6709 283d 1501 043e 7922 41be
00000240: 9d38 7dbd 7a83 53bd 16f0 b5bd c755 42bd
00000250: a2ce 0f3d fce3 103e ae4f cb3d e2a0 e0bd
00000260: 35c5 343d f5e9 5cbd e22f e23d 60d1 16bc
00000270: 03d2 953d 1533 423e 1eef b6bd 7321 993c
00000280: 9de8 0ebe e0e7 e5bd 820e 0abe a402 ff3d
00000290: 78ef c13b 8a41 593e f8f0 17bd 8788 b4bc
000002a0: 3a85 09be 9dff fdbd dcf8 9b3d 726f 56be
000002b0: ce74 43bc c793 b6bc fccd d43d 2916 8bbd
000002c0: 476e 28bd bdc4 13be 90b7 383c 6ba4 bfbd
000002d0: 602e acbd 055c 103e b135 60bc 9f50 3dbd
000002e0: c3d2 093d babe 4bbd 9500 de3b acfd 043d
000002f0: 46ef 103e e6c5 5e3e 1622 56be d15b ea3c
00000300: 1f35 abbc 65e9 ce3b 3fe6 00be 70f4 2b3d
00000310: d804 8e3d 2727 da3d 0266 433d 71a6 61be
00000320: fe39 14bf ab21 ac3d 8ab8 febd 267f e0bd
00000330: 5f8f 8e3e c034 293b 123d 26be 9e83 5dbe
00000340: b3dd 213e b1dd 3cbd 333b dd3d adc5 003e
00000350: d7d9 e9bd 957b 1cbd 8cc5 1dbf 989e d5be
00000360: b755 adbe d253 0c3d d118 443d 9b8e 4abd
00000370: efba a3ba a0a4 64bd f9ba 7cbd 53c3 e13b
00000380: 3f1d 843b 1394 1b3e 7a41 083c 5c6a 803c
00000390: 6e71 1a3e 57d6 c0bd 122b 093d 2e85 a2bd
000003a0: fe69 883e 31e0 e73e 70de ca3e be26 15bf
000003b0: 1367 acbd 40d8 0abd 0038 d3bc 196c ec3c
000003c0: 2f73 68be d7c1 eabd f026 55be 709e a7bc
000003d0: 334c 8e3c 5780 bcbe 3e83 393e b58d 2b3c
000003e0: f938 a43d ab09 0e3e 2fcb b93d 6440 3dbc
000003f0: 8626 2d3c f905 063d 75cd f2bd a2a2 0fbe
0.008895677 -0.0013083019 0.040377386 0.028463561 -0.07635622 0.20028712 -0.12086408 -0.12091867
0.08690761 -0.1935795 0.09034149 -0.0932353 -0.19733664 0.0867183 0.14313792 -0.111552306
-0.051444244 -0.08396716 -0.19574204 -0.0074626105 0.057408728 0.18377405 0.05001806 -0.08519587
0.06337388 -0.11252605 0.11228797 0.017921617 0.1448284 0.27067056 -0.150694 0.02909569
-0.1766696 -0.12788823 -0.11949093 0.03157392 0.019929195 0.25238225 0.0019449091 -0.073823325
-0.22825177 -0.0933702 0.09518605 -0.21420899 -0.003236688 -0.0029879059 0.030315725 -0.08923311
-0.041481346 -0.20936875 0.08429978 -0.12116878 -0.06844597 0.1428069 -0.088142835 -0.088133976
0.014879012 -0.0716601 0.00940474 0.053315196 0.09590549 0.12998371 -0.24107791 -0.0031050725
-0.06369639 -0.11994178 0.004492272 0.049380578 -0.017828165 -0.088008806 0.045545634 -0.31337187
-0.405507 0.028513629 0.027128935 0.07853203 0.25377545 0.056824192 0.045697894 -0.15593304
0.017332895 -0.06066494 0.053715054 0.061355673 0.049949285 0.09661744 -0.7250758 -0.4633964
-0.37979275 0.046422422 -0.07283378 0.044402875 -0.05498224 0.058427747 -0.0006414601 0.11651115
0.12236567 -0.038032364 -0.0019111627 -0.009742639 -0.12373559 -0.29050183 -0.037876323 0.078259304
0.3625138 0.6012472 0.60595405 0.15378207 0.08283388 0.042627256 -0.020438354 -0.04861444
-0.43336305 -0.029385412 -0.16691677 -0.031371325 -0.07338106 -0.5744442 -0.13207854 0.050598577
-0.04955514 0.25414312 -0.17214006 -0.19838704 -0.02212514 0.06424664 0.16990308 0.06590654
-0.007047376 0.023155745 0.038753122 0.008131589 -0.080021515 0.08716389 -0.030932665 -0.088796
-0.029658949 -0.12581882 0.0567816 0.0036920165 -0.1288384 0.04102459 0.12891038 -0.18860807
-0.06182157 -0.051639058 -0.088836834 -0.047445085 0.03510917 0.14149469 0.09927307 -0.10968186
0.044133384 -0.053934056 0.11044289 -0.009205192 0.07315447 0.18964799 -0.08932327 0.018692708
-0.13955922 -0.11225867 -0.13482097 0.124516755 0.0059184395 0.21216407 -0.03709504 -0.022037758
-0.13429728 -0.1240227 0.076158255 -0.2094095 -0.011929704 -0.022287263 0.10390851 -0.06791336
-0.041120794 -0.14430518 0.011274233 -0.09357532 -0.08407283 0.14097603 -0.013684676 -0.046219464
0.033648264 -0.049742438 0.0067749717 0.032468483 0.14153776 0.2175518 -0.2091144 0.028608235
-0.020899354 0.006314444 -0.12587832 0.04198116 0.069345176 0.10651999 0.047704704 -0.22036149
-0.5790099 0.08404859 -0.12437542 -0.10961752 0.27843758 0.0025818795 -0.16234234 -0.21632239
0.15807228 -0.04610986 0.10802307 0.12575407 -0.11418503 -0.038203795 -0.6162956 -0.4172256
-0.33854458 0.034259625 0.04787523 -0.049452405 -0.0012491624 -0.05582106 -0.06170175 0.0068897395
0.0040318067 0.15193205 0.008316392 0.015675716 0.15082332 -0.09415882 0.03348834 -0.07935558
0.26643366 0.45288232 0.3962283 -0.5826224 -0.08418097 -0.03389764 -0.025783539 0.028860139
-0.22700189 -0.11462753 -0.20815635 -0.020461291 0.017370319 -0.36816666 0.18116471 0.010470797
0.08018679 0.13870876 0.09071957 -0.011550996 0.010568267 0.03272054 -0.11855594 -0.14026883

convs.0.att f4 [10, 4]
00000000: 502e 9fbd 5fb8 29be 8ae8 9b3e c2d9 1c3e
00000010: 552f 55be 4e7a 35bd 6d7a c83e f870 193e
00000020: a286 66be fb9f 0d3e 8a67 b93e 1ab8 0a3e
00000030: f1e0 45be cdcd 3a3e e634 b73e 3abd 073e
00000040: 152b 87bd 9e6e a23d 4bd2 9f3e 6c5a 433e
00000050: 3f76 28bd f4d5 2d3e 3be8 8a3e 4368 223e
00000060: bf88 093c f0c2 723e 2a2b 533e bcad c73d
00000070: ba53 c43d c71b 5a3e 1613 233e 109f 3c3d
00000080: 8b56 2e3e 7967 363e d498 af3d 9b4b 04bd
00000090: 4b5f a93e 8028 233e f3c4 943c 7282 d4bd
-0.07772505 -0.16574238 0.3045085 0.15317443 -0.20818837 -0.044306092 0.39155903 0.149845
-0.22512296 0.13830559 0.36211807 0.13546792 -0.1932409 0.1824257 0.35782546 0.13255778
-0.06600014 0.07931255 0.31215128 0.19077462 -0.041128393 0.16976148 0.27130303 0.15860085
0.008394419 0.23707175 0.20621935 0.09749934 0.09586282 0.21299659 0.1592525 0.04605013
0.17025201 0.17812909 0.085740715 -0.032298665 0.33080515 0.15933418 0.018160319 -0.10376443

convs.0.root f4 [4, 32]
00000000: 8b09 e6bd f2cd c93c 15d5 87bd 134e 4d3e
00000010: 894e 9c3d bcd0 673c 93b5 debd 6ae5 52be
00000020: 2558 573e 6119 c43e a907 ab3e 8ffb cfbd
00000030: dec4 bb3d 1d8d 2a3e bbcd 0bbd bc20 93bd
00000040: daa7 59be e089 483e b839 c73c 6937 6dbe
00000050: cc2c 16bc 0a8a f8bd 4bfc 5cbc 870d 243e
00000060: 2224 793c 6c35 493e 1291 c5bb a7a4 63be
00000070: b998 db3c fe83 71be 99e7 933d 5496 04be
00000080: bf1d 243e e60c 933d 5540 39be f0b4 523e
00000090: ce0d a2bd f3d2 94bd d87b cbbd 80a8 febd
000000a0: fc7b 2a3d 2679 25be 02d6 0dbc 6e9f 0b3e
000000b0: 6cfd 813e 1106 223e eac5 a3bd b452 ab3e
000000c0: 1881 41bd 12bb a43d 6dd5 143c 3975 5abc
000000d0: d66e 70bd f40c 2ebe 7935 2fbe 7ec8 a9be
000000e0: f2b2 48be ec98 283d f368 d73d 624b 22bc
000000f0: 0c76 ea3c 316b 95bc 24ed 533e 6196 833e
00000100: 8ac8 29bd fa90 0f3e cc6c ad3a aed2 bfbc
00000110: 644f 9fbd 11d8 3cbe 6e64 b0bd 89c2 16be
00000120: 3ed1 aebd 452b 2f3d 56ba 21be 85f4 17bd
00000130: 87c0 263d fc12 2b3e 9d4d 9dbc 73a5 14bd
00000140: a0bf f9bd 54d3 f5bd fa95 1dbe d330 493e
00000150: 624e fdbb fc7c c43d fed8 09be e488 2e3d
00000160: e98f 403d dc12 8e3d 4934 d53d 7e70 f3bc
00000170: 64b1 24be 78b7 e6bd 7f28 2cbc 611b 29bd
00000180: a43d febd 117a dfbc ccdd 9dbd 9757 5c3e
00000190: fc9d 46bd 43dd 7bbd c93b 69bd c8cc 1dbe
000001a0: fbfc 24be 362a 943d af06 62bd 2387 0abe
000001b0: ea9a 1e3e 2890 263e 5375 963d 0bfb af3b
000001c0: 6d10 b63c a424 34be 0e0b 69bd 18cc f13d
000001d0: 7e98 53bd a399 0a3e e8c1 38be 5e87 e9bd
000001e0: 3153 51bd 3e82 f23d ae71 a33c 24fb 5dbd
000001f0: ccf0 21be 12c8 1bbd f595 00be 527d 5cbd
-0.11232289 0.024634335 -0.06632439 0.20049314 0.07632167 0.014148887 -0.10874476 -0.20595327
0.21029718 0.38300613 0.33404282 -0.10155403 0.09168409 0.16655393 -0.034131747 -0.07183978
-0.21255437 0.19583845 0.024319515 -0.23165669 -0.009165954 -0.12135704 -0.013487886 0.16020785
0.015206369 0.19649285 -0.0060292566 -0.22230779 0.026806222 -0.23585507 0.07221908 -0.1294797
0.16026972 0.071801946 -0.18090947 0.20576835 -0.07912789 -0.07266798 -0.09935731 -0.124344826
0.041622147 -0.16159496 -0.0086569805 0.13635036 0.25388658 0.15822627 -0.079967335 0.33461535
-0.047242254 0.08043493 0.009084088 -0.013333612 -0.05869945 -0.16997129 -0.17110242 -0.33160776
-0.19599512 0.041161463 0.10518064 -0.009905668 0.028620742 -0.01823959 0.2069593 0.25700668
-0.041451015 0.14020148 0.0013231277 -0.02341589 -0.077788144 -0.18441798 -0.086129054 -0.14722647
-0.085360035 0.042765874 -0.15793738 -0.037098426 0.040710952 0.1670646 -0.019202048 -0.036290597
-0.12194753 -0.12003198 -0.15389243 0.19647531 -0.007730291 0.095941514 -0.13461682 0.042611018
0.047012243 0.06937191 0.10410363 -0.029716726 -0.16083294 -0.11265463 -0.010507702 -0.041285876
-0.12414101 -0.027279885 -0.0770832 0.21517788 -0.04849051 -0.06149031 -0.05694178 -0.15410149
-0.1611213 0.072346136 -0.055182155 -0.13528113 0.15488783 0.16265929 0.073465966 0.005370503
0.02222463 -0.17592102 -0.05689531 0.11806506 -0.0516591 0.1353517 -0.1804272 -0.11402772
-0.051104728 0.11841248 0.019951668 -0.054194584 -0.15814513 -0.0380326 -0.12557204 -0.053830452

convs.0.bias f4 [32]
00000000: c0a8 fb3d cba6 63bc 9801 9a3d 14ae 46be
00000010: c197 ab3d f5e3 cf3c 96d5 c33d dae0 173e
00000020: 8c95 363e 2de0 9ebc 004d b03c 8a22 163e
00000030: 1b39 a0bd b592 2cbe 6136 1abe 3a82 523d
00000040: 5894 843d 7c51 473e a302 0f3e 5f7f d6bd
00000050: fca4 523d a832 71be a2fd 213e bdca cb3c
00000060: f678 833c 7af2 9fbd e46c 9dbd 69a3 343d
00000070: 30ca b73d b85e dbbd c754 1e3e ddf4 a83c
0.12288046 -0.013894747 0.07519835 -0.19402343 0.08378554 0.025377253 0.09562223 0.14831868
0.17830485 -0.019394005 0.021521091 0.14661613 -0.07823392 -0.1685284 -0.15059806 0.051393725
0.06473607 0.19464678 0.1396585 -0.10473513 0.051426873 -0.2355448 0.1581941 0.024876947
0.01604889 -0.078099206 -0.07686785 0.044101153 0.08974111 -0.107114255 0.15462027 0.020624572

convs.1.basis f4 [4, 32, 32]
00000000: ad4e acbd 7e64 67bd a264 91bd bfee dcba
00000010: 59db 74bd c039 1cbd 95c7 27be aafb a13d
00000020: e791 923d 80be 853c 4efb 3dbd 9e34 513d
00000030: 313e 76bd cc13 a1bd 1314 3b3c 0e32 153c
00000040: f1cf 813d f553 893c e158 7e3d 2b63 1fbc
00000050: f88b ce3c 515a 09be 8877 0bbd 0036 3fbd
00000060: 84bc eabc cff7 943d fd12 10bd 30f9 5b3d
00000070: 8901 c73d d869 7abb e9e7 df3b 4750 44bd
00000080: cf7b 11bc 7aa5 fdba 7a29 03ba 87b8 cc3c
00000090: fd69 d3bb 082f 1cbc a35c cbbd 7717 63bb
000000a0: 6008 683b d7c8 fdbb 683a 3b3c f84c 093d
000000b0: b256 23bd 97e5 98bb 0b78 c0bb 2155 473d
000000c0: 3b3c 173d 1579 293c 1c4c d7bb 320c 063c
000000d0: 27cd b5bc 8d19 b0bd a6dc c6bb 896f 85bc
000000e0: 6338 7fbc ea91 043d 9921 0c3b 9679 06bd
000000f0: c2fb 683d c8c5 a9bc cbe6 6abc e27d 2bbc
00000100: 0546 253c 78d5 cd3c c08e 0e3d 2bad 69bc
00000110: 133d 5a3c 6a84 d43c 9b1a b33d b513 8dbd
00000120: ba69 adbc 575f f2bc 0a4b 663c f598 f33c
00000130: 25c0 4fbc ee29 1a3c 75a1 3a3d 17a8 a1bd
00000140: 33d9 ea3a 3897 8fbb a6e4 efbb d988 863c
00000150: df13 c8bc 5427 153d 43df 8e3c 73d2 593c
00000160: 9511 86bc c02c 1b3b 6b3c 233c 25f4 893d
00000170: dd0b 4538 4e33 2e3c ed5e a2bc 48f3 97bc
00000180: 8e65 4cbc b031 ed3b cb9b aebc 3012 6b3c
00000190: 7d37 553c faae e6bb fb00 6b3d 53ec cb3c
000001a0: c1fb 913c 092c 493d 92ea 773b 9904 96bd
000001b0: 080c 833d 2ab8 f4bc 7316 12bd 281d dd3c
000001c0: c9a0 05bd cf55 e03a 3e59 8a3c 8304 6f3b
000001d0: 980e f13c 9991 523d 8325 03bd a595 8ebb
000001e0: fec9 013d ad6b 08bd 917e fbbc b08e 5a3c
000001f0: 8362 8cbd 1f4d 433d 4e0f d93c d777 cf3c
00000200: cecf 28bb f818 1cbc 404c 9c3c 86b2 e8bc
00000210: f665 7c3b 1f8f e3bb f01e 373d 8c47 873d
00000220: 61b3 bf3c 4b19 62bc 51e2 99bc 6541 ccbb
00000230: 295a 103d 7852 7fbc a104 093d 1675 3fbd
00000240: 8ccb 9ebb 8a72 a53c e662 74bc d37f 993b
00000250: c69f fa3c 6074 8ebd 7d7f 723d 6374 a8bc
00000260: 9927 dabc 73ea a13c 24cb ea3b d01a a43d
00000270: 7152 cfbc 6dd7 ca3c 4857 af3c 8adf 87bb
00000280: f7fb 7bbc 687d 763c 5928 1bbc 2e5e 9fbd
00000290: aca6 953a c9fd c93c 8eb8 713e 7290 df3b
000002a0: 9964 2d3c de67 823c a445 e33b 90d9 16bd
000002b0: 4316 da3d 177e 9ebb 1796 adbd f0a2 cd3d
000002c0: 2344 c2bc 9e38 f139 e9cf 113c c449 a2bb
000002d0: 0111 baba 73be 303d 5369 6fbd 78c0 443c
000002e0: 89e9 9d3d b003 43bc f132 403c c061 613d
000002f0: 52de 1dbd 7060 3b3d eecd d43c d397 203d
00000300: 12ab 1bbd 3f97 63bb 6540 823c bc7b 823c
00000310: fe95 ffbb 3567 caba 6b5e cdbc de97 a73c
00000320: 04d7 1f3c 6e86 07b9 931e b63b c607 85bc
00000330: f295 103b 545d 14bb d3dc 1cbc 5401 30bc
00000340: cdfe 69bc 2ff5 8f3c a93f 353c 1547 c53c
00000350: 5fb9 bbbb 3008 3c3c 8ea5 8f3c 2d13 89bb
00000360: dcb2 0c3c 41e5 953c 10ed 863b 0285 803c
00000370: 194f 65bc 942f 99bc 0003 073d 15dd a039
00000380: 851f 53be 33dd 94bd 5669 cfbd 53ee 0d3c
00000390: 3da9 9ebd 0c49 10be edc3 2fbe a5ec 323e
000003a0: 26b8 cc3d 7b2e a73c 515f 92bd 1202 923b
000003b0: d706 83bd d3e9 edbd 1d90 a23a 2264 393e
000003c0: e467 a53d bc81 713a 50a3 903d 82f6 96bc
000003d0: 8e56 683d 78ff 96be 3fa0 a7bb 4cf4 08bd
000003e0: e46d 5abc 41b8 663d 372e 41bd be30 9fbd
000003f0: d049 f83d 898d b1bc f75d 3ebc f766 9abc
-0.08413444 -0.05649232 -0.07099272 -0.001685582 -0.0597795 -0.038141012 -0.16384728 0.07909329
0.07156735 0.016326189 -0.04638224 0.05107557 -0.060117904 -0.07865104 0.01141836 0.009106172
0.0633849 0.016763667 0.06209648 -0.009728233 0.025213227 -0.13413359 -0.03404954 -0.046682358
-0.028654344 0.07273828 -0.03517436 0.05370444 0.0971709 -0.003821006 0.0068330658 -0.04792812
-0.008879616 -0.0019351684 -0.0005003434 0.024990333 -0.006451844 -0.0095326975 -0.099297784 -0.0034651437
0.0035405383 -0.0077448892 0.011427499 0.03352067 -0.0398776 -0.004666041 -0.0058736852 0.04866517
0.036922675 0.01034381 -0.0065703522 0.0081816185 -0.02219255 -0.085986234 -0.006068784 -0.016288536
-0.0155774085 0.032365717 0.002138233 -0.032830797 0.05688072 -0.020724192 -0.014337252 -0.0104670245
0.010087495 0.025126204 0.034804106 -0.014262478 0.013320225 0.025942046 0.08745309 -0.068885244
-0.021168578 -0.029586477 0.014055977 0.029736022 -0.012680088 0.009409411 0.045564134 -0.07893389
0.0017917514 -0.0043820404 -0.007320958 0.016422676 -0.024423538 0.03641446 0.017440444 0.013294804
-0.016365806 0.0023677796 0.009963135 0.0673602 4.697951e-05 0.010632349 -0.019820655 -0.018548623
-0.012475384 0.007238589 -0.021314522 0.014347598 0.013013718 -0.007039902 0.057373982 0.024892962
0.01782024 0.04911426 0.0037829024 -0.07325096 0.06398779 -0.029872973 -0.03566594 0.026991442
-0.03262404 0.0017115417 0.016888257 0.0036471195 0.029425904 0.051408384 -0.032018196 -0.004351335
0.031686775 -0.033305813 -0.0307 0.013339683 -0.06854727 0.04768097 0.026496556 0.025325699
-0.0025758627 -0.009527437 0.019079328 -0.02840544 0.0038512922 -0.0069445516 0.04470724 0.06605443
0.023400964 -0.013799976 -0.018784674 -0.0062333816 0.035242233 -0.015583627 0.03345168 -0.04674252
-0.004846042 0.020196218 -0.014916157 0.0046844273 0.030593764 -0.069557905 0.059203614 -0.02056331
-0.02663021 0.019765114 0.0071653295 0.080129266 -0.025307866 0.024760926 0.021403924 -0.004146521
-0.015379897 0.015044548 -0.009470069 -0.07781635 0.001141747 0.024657147 0.23605558 0.006822639
0.010583066 0.015918668 0.006935792 -0.036828578 0.10648777 -0.0048368084 -0.08475893 0.100408435
-0.02371413 0.00046009285 0.008899667 -0.004952641 -0.0014195741 0.043150377 -0.058450054 0.012008779
0.07710559 -0.011902735 0.011730895 0.055024862 -0.0385421 0.045746267 0.025977101 0.03920729
-0.038004942 -0.00347276 0.015899846 0.015928142 -0.007799863 -0.0015442135 -0.025069436 0.020458158
0.009755854 -0.00012924682 0.005557844 -0.016239058 0.002206203 -0.0022638636 -0.009574133 -0.010742504
-0.014281941 0.017572967 0.011062541 0.024081746 -0.005728885 0.011476561 0.017534997 -0.004183194
0.008587565 0.018297793 0.0041176155 0.015688423 -0.013995909 -0.018699445 0.032961845 0.00030682297
-0.20617492 -0.07268753 -0.10127513 0.008662778 -0.077471234 -0.14090365 -0.17164584 0.17473085
0.09996061 0.020407906 -0.071470864 0.004455813 -0.06397789 -0.11616864 0.0012402568 0.18104604
0.08076456 0.00092127523 0.070623994 -0.018428091 0.05672317 -0.29491782 -0.0051155384 -0.033436105
-0.013331864 0.056328062 -0.047163215 -0.07772969 0.121234536 -0.021673935 -0.011619083 -0.018847926

convs.1.att f4 [10, 4]
00000000: de3b abbd 2cd8 2f3e a8b9 96be 20dd ae3b
00000010: 5da4 163d 9c0e 033e b8bd 86be 0deb bcb5
00000020: 0d8e f23d f301 ac3d 3b20 75be 7109 05bd
00000030: b3f8 e93d 8160 263c ab71 54be 85fb a7bd
00000040: 7fdc e63d 7646 2dbd b327 1cbe f150 83bd
00000050: 4aab 6b3d eca8 00be 5e38 edbd 5b43 c2bd
00000060: 619f 783d f36c 20be bbf4 a3bd 3a75 093d
00000070: 4bbb fd3c fe4b 41be 80ef 993b ff78 c03d
00000080: a3e3 1fbd cd3d 3ebe 307e f53c 7951 b43d
00000090: 2b0b 35be 63ff 33be 9bad 9c3d b70f 5d3d
-0.08361028 0.17172307 -0.2943852 0.0053364187 0.036777843 0.12798542 -0.2631662 -1.40755e-06
0.118435 0.08398809 -0.23938076 -0.032479707 0.11424389 0.010154844 -0.20746486 -0.082022704
0.11272525 -0.042303525 -0.15249519 -0.06411923 0.0575364 -0.12564439 -0.11583017 -0.09485503
0.06069887 -0.15666561 -0.08005663 0.03355906 0.030973097 -0.18876645 0.00469774 0.09398078
-0.03903545 -0.18578263 0.029967397 0.08804602 -0.17680041 -0.17577891 0.076503 0.053970065

convs.1.root f4 [32, 32]
00000000: 3cd8 03bd 1852 913d 2c4f 5b3d 3144 cdbb
00000010: bd4f d43c 1211 18bd 6aea 2fbe eb9c ab3d
00000020: 8af1 06bd 178d df3a c61b cd3c 97b7 56bc
00000030: d1e7 3bbd 4dfc fabc ea09 46bd 524b b83c
00000040: 5a19 97bc b0b1 7dbd 9407 35bd 98f8 ad3b
00000050: 0cf8 cebc 8c66 a83c 71cc 49bc 97e1 2f3d
00000060: 1c43 7fbc b730 86bd b92b 9abd c204 f73d
00000070: b563 5cbd 9446 9dbd 6243 54bd 7d9a b53c
00000080: 1c25 eabb 060c 96bd 5744 b33d dec7 373d
00000090: d661 453b 6082 0fbc f063 f83d 0498 8f3d
000000a0: 74b8 103d 5778 a7bd 16e2 983c 2c9e ef3d
000000b0: f19e 15bd eb59 bebd ab8b eebb 9ce1 90bd
000000c0: 9b8e 533a 1100 cabd 9e27 fa3d 4101 5f3d
000000d0: bbd3 173c c1e6 a43d 289a 08bd a612 f5bd
000000e0: b60c 003d 8a2a 1c3d 1d5f 49bd 94c6 d3bc
000000f0: b701 543c f02d 9cbd 9bc5 473c 6d8c dfbd
00000100: 7b0f 5a3c 3ff6 023d 37d9 aabc 8d52 953d
00000110: 35b7 323d e7b9 93bd 9c52 a73d f5c4 593d
00000120: 8a94 65bc d028 f83c aa94 19bd 151a 813d
00000130: 2ab2 4b3c 2633 50bc 78d8 c6bc e6bf 75bc
00000140: 531f b43c cf49 88bd a19b 93bc 1859 0cbd
00000150: f95a f33c 28e2 9cbc 699b f6bc e5b1 903b
00000160: cff0 dc3c e5f4 5e3d 1de4 a53d e8d2 883c
00000170: 7964 8d3d 5b67 dfbd e30e 27bd d397 be3b
00000180: 78e4 0e3d 06e1 b43d 8733 353d 7e96 cbbd
00000190: 16c0 27bd b193 ce3c c5c0 eabc 1a16 cbbc
000001a0: 7016 8abc 44f0 bc3c ed83 d33d b0b4 35bc
000001b0: 0303 843d e868 683a 585c 883c e4a9 3a3d
000001c0: e541 34bd 418c 6a3c 481b 863d 0ba0 de3d
000001d0: 66bb b8bd f76a e7bb 54af 053e 9947 02bd
000001e0: a82c 90bd 559e 20bc 0c4a 483d 7cc7 d53d
000001f0: 7fe5 31bb 1168 f93c d281 823d 75cb c63d
00000200: e5db 253d d6ab bb3d e34a 7e3d ae98 17bb
00000210: 3fef 903d 066d e73c ca44 b83d c8dc 84bd
00000220: e303 e0bc 2a37 bdbd 84fd bcbd 4b04 373d
00000230: 86c8 bb3d 9fcd 7fbc a522 dfbd 450b 473d
00000240: 4487 ac3b 7407 56bd 3ef8 1dbd ff2a 5a3d
00000250: b910 a03d f914 193e bddb f0bc 399c 47bd
00000260: 3393 ccbc 8404 7e3d b741 5c3c 4bb7 05bd
00000270: 614f 72bb d80e 56bd ceed cb3d 50e3 9cbd
00000280: 5001 a53d 57eb 9c3c f82f a33c cc33 913d
00000290: 6888 3b3d 5888 f13c 4049 d0bc b249 903d
000002a0: d2e4 463d 9cae e93c 4330 e13d 6299 e4bd
000002b0: 3f58 aabd de49 57bd 6646 313d b75c 7bbc
000002c0: b713 bbbd 59d7 7e3d a176 8abd b291 3c3d
000002d0: 0e8a 0dbd 20d7 433d 8ae7 943d ded2 b0bc
000002e0: d43d 00be 9e84 10bd 84c5 d73c 1ef2 2b3e
000002f0: fe79 b6bd 30fc 1dbd 8c8a 63bc 827b ffbc
00000300: ee32 38bd 0564 67bd bc71 ee3d 04fb 2ebd
00000310: f9e6 32bd bd70 0fbd 40c5 1abd bd22 5bbd
00000320: 6357 823c 3800 cabc ced8 8abd 261a 453c
00000330: b6a8 bbbc a3cb 753d af05 97bd b645 71bc
00000340: 0498 1bbd 3508 0dbd 79b0 0fbe 14d3 9cbb
00000350: 79e7 d2bc 43ce 8c3d 0692 f73d 94ac 49bc
00000360: d5c8 173d ea61 d03c 9eaf 31bd d085 19bd
00000370: 30a1 f9bd f73d 89bc 5888 6e3d edf9 cf3d
00000380: 16d4 32bc 556e 803d fae1 3dbd ed73 69bd
00000390: 41ed 11bd b82f 5cbd 8124 34be 759b 11bd
000003a0: b1b2 44bc b4aa 8c3d 652d 3e3d 9993 5bbd
000003b0: 36e3 93bc 607d 9a3d 1f14 83bd 3718 4fbd
000003c0: 06a2 25bb 713f d93c 1593 513d 66df 903d
000003d0: 3afc 383d 471e 13bd e7d2 09bc 6c0e 723c
000003e0: 70d7 4bbd 7396 88bc b592 e2bb 6e0f 303d
000003f0: e206 973b 72d9 a63d dc8c f4bc 547f bebc
-0.03218864 0.07095736 0.0535423 -0.0062642326 0.025916928 -0.037125655 -0.17179266 0.08379539
-0.032945193 0.0017055598 0.025037657 -0.013105295 -0.045875374 -0.030637885 -0.0483493 0.022496853
-0.018444706 -0.061937034 -0.04419668 0.0053091757 -0.025264762 0.02055671 -0.012316809 0.04293975
-0.015579965 -0.0655226 -0.07527871 0.12061454 -0.053806026 -0.07679477 -0.051822074 0.022168392
-0.007145537 -0.07326512 0.08753269 0.044868343 0.003011813 -0.008759111 0.121284366 0.070114166
0.03533216 -0.0817725 0.018662494 0.11700091 -0.03652853 -0.09294494 -0.0072798333 -0.070742816
0.0008070261 -0.09863294 0.12214588 0.054444555 0.009266789 0.08051825 -0.03335014 -0.119664475
0.031262122 0.038126506 -0.049162973 -0.025851525 0.012939862 -0.076259494 0.012193109 -0.10915456
0.013309355 0.03197312 -0.02085553 0.07291136 0.04363175 -0.072131924 0.08170053 0.05316635
-0.014012465 0.030292898 -0.037495293 0.06303803 0.012432614 -0.012707507 -0.024273142 -0.014999365
0.021987593 -0.06654703 -0.018018546 -0.034264654 0.029706465 -0.019150808 -0.030103402 0.004415738
0.026970295 0.05443277 0.0810015 0.01670213 0.06903929 -0.10908385 -0.04078568 0.0058164387
0.034885854 0.08831982 0.044238593 -0.099408135 -0.04095467 0.02521691 -0.028656373 -0.024790812
-0.016856402 0.023063786 0.10327897 -0.011090443 0.06445887 0.000886573 0.016645595 0.045572177
-0.044008154 0.014315666 0.06548172 0.108703695 -0.090201184 -0.0070623117 0.13055164 -0.031806562
-0.070397675 -0.009803374 0.04889874 0.10438439 -0.0027144847 0.03044513 0.063724175 0.09706775
0.04049291 0.091636345 0.062083136 -0.0023131776 0.070768826 0.028250229 0.089974955 -0.06487423
-0.027345603 -0.09239037 -0.09228042 0.04468183 0.09169106 -0.015612989 -0.1089528 0.04859473
0.0052651484 -0.0522532 -0.03856682 0.05326366 0.078156896 0.14949407 -0.029401654 -0.04873297
-0.024972534 0.062016025 0.013443402 -0.032645505 -0.0036973583 -0.05226025 0.09957467 -0.07660544
0.08056891 0.019155188 0.019920334 0.070899576 0.045784384 0.02948396 -0.025425553 0.07045306
0.048558064 0.028525643 0.10995533 -0.11162068 -0.08317613 -0.05256068 0.043280028 -0.015341929
-0.0913462 0.06221709 -0.06760908 0.046037383 -0.034555487 0.04781258 0.07270725 -0.021584924
-0.12523586 -0.035282724 0.0263393 0.16791579 -0.08909987 -0.038570583 -0.013888013 -0.031186823
-0.044970445 -0.05649187 0.11642787 -0.042719856 -0.043677304 -0.035019625 -0.03778577 -0.053499926
0.01591081 -0.024658307 -0.067796335 0.01203016 -0.022907596 0.060008656 -0.07374131 -0.014726093
-0.03798677 -0.034431655 -0.14032163 -0.0047859047 -0.02574514 0.06875279 0.12088399 -0.012309212
0.037056763 0.025437314 -0.043380372 -0.03748113 -0.12188947 -0.01675318 0.058235496 0.101550914
-0.010914823 0.06271044 -0.046358086 -0.05699532 -0.035626654 -0.053756446 -0.1759205 -0.035548646
-0.012005494 0.068684965 0.04643001 -0.053607557 -0.018052679 0.07543445 -0.06400322 -0.050560202
-0.0025273575 0.026519509 0.05116566 0.0707386 0.045162417 -0.035917547 -0.008412099 0.014773946
-0.049766004 -0.016673302 -0.0069144615 0.042983465 0.004608975 0.08146943 -0.029852323 -0.023254074

convs.1.bias f4 [32]
00000000: ec0b 90bd ea0b d7bc 1f05 9abc 0e00 2abd
00000010: eb48 8dbc b9f1 01be 2bc7 39bd b1fb 7a3d
00000020: 9a7f 993c 531a 1cbd 9135 b13c 7ed9 4fbd
00000030: f690 9abd 7a6f e93c 77ef b63d 4e45 fc3d
00000040: aa75 f4bc ea86 5f3d b737 673d 9d0d c13c
00000050: 53b0 cdbc 0b05 06bd 0033 69bc eae4 9dbd
00000060: ac7e 2cbd b6b7 6e3d e2b1 693b 1cd7 e1bd
00000070: 61d4 44bd 50e0 e6bb 75f0 15bd 279d 273d
-0.07033524 -0.026250798 -0.01880127 -0.04150396 -0.017246684 -0.12689866 -0.045355957 0.061275188
0.018737603 -0.038111042 0.021631988 -0.050744526 -0.0754718 0.028495539 0.08932393 0.12317906
-0.029841263 0.054572023 0.05644962 0.023566062 -0.025108492 -0.032719653 -0.014233351 -0.077096775
-0.04211299 0.05828067 0.0035659005 -0.11027357 -0.048054103 -0.007045783 -0.03660627 0.040921357

convs.2.basis f4 [4, 32, 32]
00000000: 78fc 513c 7dd2 a6bc 2425 dd39 fc18 463d
00000010: fd06 efbd f590 9ebc 5f41 2c3b 0e51 8d3d
00000020: 3c0c 48bd ba37 2ebb 877d 3bbd b20d 293c
00000030: df3a fc3c 8020 9a3b 1b1b c73c 6c70 2ebc
00000040: 13bd 663b e73f 743d ea25 1dbd 0a30 b0bc
00000050: 70e9 f3bc 0a87 e13c f488 013d e7f3 acba
00000060: d3f5 76bd 7592 253c e38b fd3c 3a4d 273b
00000070: d697 133a 57ce 873c c1bb 5abc 6021 54bd
00000080: 41cb 63bc bb30 553d e4b3 32ba dd5f 9abc
00000090: 6b51 ab3c b5aa 1fbd b905 1abb 34fc 003c
000000a0: fd64 3a3d 25ef 8e3c 0ec2 713d 7d5a 0ebc
000000b0: 63ac afbc c9df 2ebd 0876 fd3c c91a 733d
000000c0: ee87 9c3c 4a47 643c 64ee 62bd 7d0f c43c
000000d0: 134b 103d 2d4d 483d ae81 873d 74fa 2cbd
000000e0: e6ce 843d df8d 11be b17d 8fbc 286d 8c3b
000000f0: 61f0 593d 7503 c8bd 5280 12bc 9ade 393d
00000100: 10d8 8dbc b868 433d 4afc 61bd 853c 943c
00000110: 7140 ed3b 88d7 1bbc 8263 b0bc 6ef0 40bd
00000120: d1ab a93b c80d e73c 44c1 883d 46ec b23d
00000130: 39e3 623c 6e90 623d 60d2 953d 76b5 84bb
00000140: 0b2a cc3c a122 b63d 6572 3dbb b67a 7abc
00000150: c446 28bd 2d1a a23d ebe4 943d 9482 56bd
00000160: 9c54 e33d 8010 21be 506c 65bc addf b33c
00000170: cff5 723c ff17 adbc 40bf 3e3c a1e8 b33d
00000180: b901 ceba 460d 60bc 910e e43c 3899 713c
00000190: 848b ee3c fa7c eabb daa4 5eba 06ec 9c3d
000001a0: 793a 33bc 02ba 99bd b6e0 78bc e2d3 11bd
000001b0: 888b 373c ede9 92bd e678 53bd 08cc 523c
000001c0: e477 8e3d e5cb 89bd 50bc 9b3c 5170 053d
000001d0: bbe9 f93c 55a1 e2bd fbbb 933c 4300 b23c
000001e0: 03a3 08bc 5f74 a3bc 6527 f3bc 097c f3bc
000001f0: e805 b43c c311 a138 e6cd d5bd d8a3 4d3d
00000200: 2242 32bc 6281 e03d 0d69 bcbc 661f 5cbd
00000210: 9ccb 193c b4cc 62bd 0110 c9bd 16e0 a7bc
00000220: 902b aebd ef94 5bbc cf22 28bc 0573 c73c
00000230: da25 1c3d 73aa 893d a850 4c3d 2e60 6a3d
00000240: f844 8cbb 8495 053d be77 02bd 1394 2c3c
00000250: 4601 b5bd e7f7 9e3d 28a3 9ebc e9be bfbc
00000260: e8dd 503a 065f 5bbd 1e21 a7bc 72d8 c5bc
00000270: 51c1 6c3d 16d2 a93c 920c a4bc 94a9 813c
00000280: ac9b 163d 2110 27bc b246 83bc b586 1b3d
00000290: d242 04bd cfa4 cb3c d9bc 313d daa5 5e3d
000002a0: d6d1 0c3d 0e58 933d 4247 31bc 8135 003c
000002b0: 67c1 6fbd deaa 66bd 2140 003d ac70 fa3c
000002c0: 11df cdbb d1ea 793d 5163 193d 0dcb ddbc
000002d0: c519 8c3d a56a 013d b0ed b23c 0a8c e4bc
000002e0: 46d6 9e3c 8411 d53b 65c0 743d 5046 f7bb
000002f0: 1679 5b3c 0425 15bd 559e 153d 3952 ef3b
00000300: 7838 ce3c ccd1 a53d d6fb 61bd 74e9 033d
00000310: edae 2c3d 4dba 28bc 89ab d7bd 9437 1dbe
00000320: c1f8 8cbd e608 35bc cd55 633c c0eb 0e3e
00000330: cbac d23c 8a9e 72bc 9e53 253d 2fb5 4d3d
00000340: 9e75 d0bc 774d ee3d 0844 80bc 2e07 44bc
00000350: f099 f3bd 9049 73bc 0514 a13c bf4b f3bc
00000360: 7bbd 003d dbd1 5bbd 9293 893d bf9f a9b7
00000370: 8f64 f4bd a640 d23c 5098 693d 5c19 883c
00000380: 6fc0 cf3d 01f3 773c 73f3 69bb 350c 90bb
00000390: 1d8a aa3d c1d3 49bc e6fb 0b3d 2e85 90bd
000003a0: a8b7 083d ac2e 8a3c a126 b4bc c9ee 753c
000003b0: 60bd 263c f280 f7bc 2b9a b23c a275 e0bc
000003c0: aeef 34bd 6ecf c73c 430e a9bd e238 5d3c
000003d0: 60f8 4ebc d8ea 99bc 6677 933d e913 f3bd
000003e0: b216 e63d 2648 b4bd d4ee c43c 2cfb a3bc
000003f0: c383 593d e08d a5bc 4a93 8ebd 1bbf fb3c
0.012816541 -0.02036404 0.00042180077 0.04836367 -0.11671255 -0.01935623 0.0026284081 0.069002256
-0.048839793 -0.0026583509 -0.04577401 0.010318207 0.03078979 0.0047035813 0.024304917 -0.010646921
0.0035207912 0.059631255 -0.038366236 -0.021507282 -0.029774398 0.027530212 0.03162475 -0.0013195247
-0.06029303 0.010105719 0.030950492 0.0025528208 0.00056302303 0.016577883 -0.013350428 -0.05178964
-0.01390344 0.052048426 -0.0006816967 -0.01884454 0.020912847 -0.03898116 -0.0023501946 0.00787263
0.045506466 0.017448017 0.059022956 -0.008688566 -0.021444505 -0.042693887 0.03094007 0.059351716
0.019107785 0.013933012 -0.05540313 0.023933167 0.035227846 0.048901726 0.06616531 -0.04223104
0.06484775 -0.14214276 -0.017515989 0.0042854734 0.05320776 -0.097662844 -0.008941727 0.045378305
-0.01731494 0.04770729 -0.055172242 0.018095264 0.007240348 -0.009511836 -0.021531824 -0.04710429
0.005177953 0.028204814 0.066774875 0.08736472 0.013848119 0.05531352 0.073155165 -0.004049952
0.024922391 0.08893324 -0.0028907296 -0.015288046 -0.041083112 0.07915149 0.07270225 -0.052370623
0.11100122 -0.1572895 -0.0140028745 0.021957243 0.014829113 -0.021129606 0.011642277 0.08784605
-0.0015717066 -0.01367504 0.027838977 0.014746003 0.02911926 -0.0071560116 -0.0008493193 0.076622054
-0.010939234 -0.07506181 -0.015190294 -0.035602458 0.0112027 -0.07173524 -0.05162897 0.012866028
0.06956461 -0.06728343 0.019010693 0.032577816 0.03050696 -0.11065928 0.018033972 0.02172864
-0.008339646 -0.019952951 -0.02968187 -0.02972223 0.021975473 7.6803866e-05 -0.10439663 0.05020508
-0.010880025 0.10962178 -0.02299931 -0.05374088 0.009386923 -0.055371 -0.09817506 -0.020492595
-0.08504403 -0.013402208 -0.010262205 0.024346838 0.038122036 0.06721964 0.049881607 0.05722063
-0.0042806827 0.032613292 -0.031852476 0.0105333505 -0.088381335 0.07762127 -0.019364908 -0.023406463
0.0007967637 -0.05355742 -0.020401534 -0.02415106 0.05780155 0.02073006 -0.020025525 0.015827931
0.036769554 -0.0101967165 -0.016024921 0.037970264 -0.032290287 0.02485886 0.04339299 0.054357387
0.034379803 0.071945295 -0.010820212 0.007825256 -0.058534052 -0.056315295 0.031311158 0.030571304
-0.006282695 0.061014954 0.03744823 -0.027074361 0.06840853 0.031595845 0.021841854 -0.027898807
0.019389283 0.006502332 0.059753794 -0.0075462237 0.013395568 -0.036412254 0.03652795 0.007303503
0.02517341 0.08096656 -0.05517181 0.03220506 0.04215901 -0.010298324 -0.105307646 -0.15353233
-0.068833835 -0.011049485 0.013875437 0.13957119 0.02571716 -0.0148083065 0.040362947 0.05022162
-0.02544671 0.11635869 -0.01565744 -0.011964602 -0.118945956 -0.014849082 0.019662866 -0.029699204
0.031430703 -0.05366693 0.067176 -2.0220758e-05 -0.119332425 0.025665592 0.057030022 0.016613655
0.10144126 0.01513362 -0.0035698086 -0.0043959864 0.08327124 -0.0123185525 0.034175776 -0.07056652
0.033378273 0.016867958 -0.021991076 0.015010544 0.010176986 -0.030212853 0.021802029 -0.027399842
-0.04417389 0.024390902 -0.08254673 0.013502331 -0.012632459 -0.01878874 0.07200508 -0.11869032
0.112347975 -0.08802824 0.024039663 -0.020017229 0.053104173 -0.020209253 -0.06961687 0.030730775

convs.2.att f4 [10, 4]
00000000: 9573 c93c 31a6 7a3c 6f96 833c 630c f53c
00000010: 6482 893c eaff 27bb 7062 583c af60 0c3d
00000020: e4d9 9a3c 8fa1 4fbc 413e 773c 9720 413d
00000030: c8e1 bb3c 7236 d0bc 85c8 853c 5ea9 0e3d
00000040: 4881 ebbb fe14 2f3c c69b 3e3c e5a3 d9bb
00000050: e13f b2bc bb61 523c 7356 05bd 8b7e e6bc
00000060: f404 2f3c b6cc ba3b f055 cf3c b8aa 90bb
00000070: 4df9 483c 6d77 43bb d6b5 763b e26c bf3b
00000080: bbd8 303c 832a 3bbc 8eee 7d3c 899e a53c
00000090: 7297 d2ba e29d 243c 3fac 86bc 9c7e 12bc
0.024591247 0.015298412 0.016062943 0.029913133 0.016785808 -0.0025634714 0.013207063 0.034271892
0.018902726 -0.012672796 0.015090526 0.04715022 0.02293481 -0.025416587 0.016330967 0.03482949
-0.0071870424 0.010686157 0.011633819 -0.006641852 -0.021758975 0.012840684 -0.032553148 -0.028136512
0.010682333 0.005700673 0.025309533 -0.0044148825 0.012266469 -0.0029825822 0.0037645004 0.0058418373
0.01079386 -0.01142371 0.01549877 0.020217197 -0.0016066863 0.010047408 -0.016439555 -0.008941319

convs.2.root f4 [32, 32]
00000000: 8104 02bd 660d a9bd 201a f23d a270 4cbd
00000010: db4f 843c 484e d9bd 674d 90bd 9926 3dbc
00000020: 80b2 7e3d 6863 c6bc 7b30 5c3c ac32 cc3c
00000030: f621 c4bb d932 ed3c 85a8 6fbd 4c02 84bd
00000040: 0b1c a03a 07c3 ec3c 34fb 953c 167b b93c
00000050: bb2b 32bc dcfa abbd 25f6 3fbd 286f da3c
00000060: 7072 f9bd 2461 b33c 5996 733d 4083 14bc
00000070: 0383 703c 9a62 063c b132 31bd 3425 23bd
00000080: 470a 34bd d7b8 93bc 2919 68bd 8333 453d
00000090: e9d1 c73c 6842 7d3c 7666 19bd 5305 b0bd
000000a0: 9643 26bc d938 923d 637c 8bbd c93d b7bc
000000b0: 5ac2 9fbc 2658 a0bc ab42 05bd 94c3 023c
000000c0: 3971 60bd 7679 6b3d fbc6 1bbd 4a1e 93bd
000000d0: 0dc4 fb3c b7ab a63c c1c1 8dbc 15eb 6d3a
000000e0: 57e5 883c 16e5 d0bd 4276 31bd 41da 6bbd
000000f0: 7ed8 7aba 0db2 0fbd 0ea5 133d 1294 7a3d
00000100: e952 0bbd f2e1 f0bd b909 9d3c 2171 22bd
00000110: 0f31 5d3b cf2b edbd c0f2 9dbc f714 cb3c
00000120: da85 743d 0aab e03c aae9 9b3d e1ba 95bd
00000130: f82e a7bc dd02 f3bd dab5 85ba 1ca9 7fbc
00000140: 7347 debc b1c3 233d e66d ec3c 3ecb d5bc
00000150: d53a a4bd 495a 86bd 1d14 f33b 7b66 0c3d
00000160: 661b 18bd f7e0 ee3c bf7c 853c 909f 30bc
00000170: 0b71 7abc de98 02bd 0ae4 fbbb 4faf 22bd
00000180: 1ddf 443d e98a 16bd aa36 6b3d cddb 32bd
00000190: fbed 4cbb 32bb a43c a9ef 6bbd 2188 9f3b
000001a0: 7d6a 55bc 9046 a43c 43a0 2f3d d2bf a7ba
000001b0: 4c66 553d 7ce2 e5bc a4d3 693c 8a96 c3bc
000001c0: 6c84 4d3d ddb3 f93c 0ebe a2bc e740 e0bc
000001d0: 605b 40bd 0bec b8bd faa4 a43d 15e2 43bd
000001e0: ba3d c0bc d459 79bc dc66 5b3d 46f8 5bba
000001f0: 19b8 d7bc 5a03 10bd b5d1 06bc 2f64 743c
00000200: 83b6 9fbb 18b5 683d e191 1abc a9aa 10bc
00000210: 6a21 80bd b328 8e3c 1265 8f3c 36d3 153a
00000220: 1080 98bb 80ba a33c b222 833a 3b11 4bbc
00000230: d8b9 793c 6a9d c93a ca13 c2bc 6293 2f3d
00000240: 73a8 0d3c 3451 ccbb 5554 d53b 1c81 08bd
00000250: 7a19 e03c edfc 71bd 7d83 373d 86e8 343d
00000260: ff6e 083d f51c aa3c 2b71 86bd 0059 d2bc
00000270: 3ff7 d8bc 44bc 9c3c c299 b03c 4792 aebc
00000280: d04c 72bd 6dca b7bd ab13 00bd 1060 b53c
00000290: ac51 ae3c 0c3b 183c 63fc 93bd 2f7e 22bd
000002a0: 1f57 053d 3bd4 873c f09a 963d 35b2 083d
000002b0: c29f 7d3b fa29 d1bc e431 0ebd 8222 2dbd
000002c0: c283 473c 9e58 a93c 9d79 1b3c 045d 55bd
000002d0: 8b5d 07bd 9e41 adbd cce0 ebbb 07e8 4ebd
000002e0: da3f 5fbd d9c2 823c 2c28 a53d bad3 e2bc
000002f0: 908f 063d 7118 34bc a7e1 3b3c 9cd7 f1bc
00000300: 1911 0ebc 1410 4b3d 9d17 69bd d91f bd3d
00000310: 8ee5 ea3b c824 753d 05e1 af3c 78e5 473c
00000320: 6e0a 893c 13f0 963a bd9b a0bd 3bac 5fbd
00000330: 98ee 5bbc 9298 293c 0ee2 31bc 8067 efbb
00000340: f78e 153d c175 6fbc deb2 933a 1215 f63c
00000350: e712 8a3d 8067 423e 121f dd3a 5486 30bb
00000360: 0243 b73d 7b53 4abd 033f 1bbc d883 d0bc
00000370: 3d22 9e3b 8806 773b 237a 903c 9023 e0bb
00000380: 74d6 6d3b 6f01 3dbd cf10 54bb 2259 9e3c
00000390: e709 733c d077 c5bc e658 66bc d1be 28bd
000003a0: 7009 463d 0460 a4bc 1db4 153c b715 bc3c
000003b0: 1152 39bc 52b5 e93c 3ae7 bcbc 0f2f a5bb
000003c0: ed33 08bd ce99 5dbc f98f 013d 5762 803b
000003d0: ef5f 2cbd ef75 85bc 8bc3 19bd d8f3 b83c
000003e0: bc14 08bd d033 c1bc b92b 363b 2dae 503b
000003f0: b0e1 2a3d 72bf a7bc 1a97 9d3a a69d fc3b
-0.031742577 -0.08254509 0.11821389 -0.049912103 0.01615136 -0.10610634 -0.07046013 -0.011544847
0.06218195 -0.024217322 0.013439293 0.024926506 -0.005985494 0.02895491 -0.058510322 -0.064457506
0.0012215389 0.02890159 0.01830826 0.0226417 -0.010874684 -0.08397457 -0.0468656 0.026664332
-0.1218003 0.021896906 0.059469555 -0.009064496 0.014679673 0.008202219 -0.043261234 -0.0398304
-0.043955114 -0.018032474 -0.05666462 0.04814483 0.024392085 0.015457727 -0.03745123 -0.085947655
-0.01014795 0.07139749 -0.06810834 -0.022368329 -0.019501854 -0.019573282 -0.032534283 0.0079812
-0.054795478 0.05748888 -0.03803156 -0.071835116 0.030733133 0.020345552 -0.017304303 0.00090758625
0.01671092 -0.10199945 -0.04332567 -0.05758119 -0.0009569003 -0.03508191 0.03604608 0.061176367
-0.034014616 -0.11761846 0.019169675 -0.03965867 0.0033751165 -0.115806215 -0.019280791 0.02479027
0.059697963 0.027425308 0.07612927 -0.07311035 -0.020408139 -0.118657805 -0.0010201291 -0.015604284
-0.027133679 0.039981548 0.028860997 -0.02609789 -0.08019034 -0.06560189 0.007418169 0.03427742
-0.037135504 0.029160006 0.016294835 -0.01078023 -0.015285741 -0.031884067 -0.0076870965 -0.03971797
0.04806434 -0.03675357 0.05742518 -0.04366665 -0.0031269777 0.020108793 -0.057601605 0.0048685228
-0.013025877 0.020053178 0.042877447 -0.0012798256 0.05209951 -0.028062098 0.01427165 -0.023875494
0.050175115 0.030481273 -0.019866016 -0.027374698 -0.046962142 -0.090293966 0.08039279 -0.04782303
-0.023466934 -0.015219171 0.05356489 -0.00083911826 -0.026332902 -0.035159446 -0.008228709 0.014916464
-0.004874052 0.05681333 -0.009434194 -0.008829751 -0.06256373 0.017353391 0.017504249 0.0005715372
-0.004653938 0.019986391 0.0010004847 -0.012394245 0.0152420625 0.0015381996 -0.023691077 0.042865165
0.008646118 -0.006235266 0.0065102973 -0.033326253 0.027355898 -0.0590791 0.04480313 0.044167064
0.03330898 0.02076576 -0.06564554 -0.025677204 -0.026485084 0.01913274 0.021557692 -0.021309985
-0.059155285 -0.089741565 -0.031268757 0.022140533 0.021279179 0.009291422 -0.07225873 -0.03967112
0.03255379 0.016580692 0.07353771 0.033373076 0.003869996 -0.025532711 -0.03471555 -0.042269237
0.01217741 0.020672139 0.009489444 -0.05209066 -0.033048194 -0.08459781 -0.0071984287 -0.050514247
-0.054504253 0.015962051 0.08064303 -0.02768885 0.032851756 -0.010992155 0.011467374 -0.029521756
-0.008671069 0.04957588 -0.056907285 0.0923459 0.0071684783 0.05984953 0.021469602 0.012200706
0.016728606 0.001151564 -0.07842205 -0.05460761 -0.013423584 0.010351317 -0.010857118 -0.0073060393
0.036513295 -0.014615477 0.0011268517 0.030039344 0.067418866 0.18984795 0.0016870222 -0.0026935535
0.089483276 -0.04939602 -0.009475472 -0.025453493 0.004825859 0.0037693102 0.017636364 -0.006840177
0.0036291154 -0.046143945 -0.0032358652 0.019329611 0.014833904 -0.024104983 -0.014059281 -0.0411976
0.048348844 -0.020065315 0.009137181 0.022959573 -0.01131107 0.028528843 -0.023059476 -0.00504101
-0.033252645 -0.013525439 0.031631444 0.003917973 -0.042083677 -0.016291587 -0.03754 0.022577211
-0.0332229 -0.023584276 0.0027797057 0.0031842098 0.04171914 -0.02047703 0.0012023181 0.007709223

convs.2.bias f4 [32]
00000000: b2b2 cf39 ce19 0fbd e337 d23c ba5c 2fbd
00000010: 77b6 33bc e0cf 0cbd 19e6 e93b 4aab bfbc
00000020: 8dea 733b e0d8 7e3b e775 423d 4706 c93c
00000030: 0bd5 96ba d694 b8ba 9af6 ad3b c5a8 bc3b
00000040: 9afa 6fbc cc18 29bc 5a51 223c 01d2 01bc
00000050: 4e3c 96bc 37b3 b1bd 4ca2 dcba 9257 333c
00000060: 7099 2abd 0a76 653c 9467 b43b 2a14 a53c
00000070: 106e 5dba fe07 d4bb 8fd6 22bc d63d 963a
0.00039615255 -0.03493672 0.025661414 -0.04281304 -0.010968796 -0.034377933 0.0071380255 -0.023397107
0.003721866 0.0038886592 0.04747572 0.024539126 -0.0011507584 -0.0014082443 0.005308938 0.0057574236
-0.01464715 -0.010320853 0.009907091 -0.007923604 -0.018339302 -0.08676761 -0.0016833036 0.010946171
-0.041650236 0.0140051935 0.0055055115 0.020151217 -0.00084468815 -0.0064706793 -0.00993885 0.001146252

convs.3.basis f4 [4, 32, 32]
00000000: 1f51 40bd e802 99bc e9de a0bd aa53 de3c
00000010: a38b 79bd ccdb c4bc 0f9a 1e3d 11f6 3f3d
00000020: 7f29 4dbc 3e1e 1fbd 48ff 39bd 2fc8 8b3d
00000030: b9b3 e3bc c25b 163d d405 883c 1bcc 5cbd
00000040: f517 71bb b1b6 fd3c 92bb f13c 8ba9 503d
00000050: 54db 873c 0b1f 343c de75 6c3d d83b 243d
00000060: 22c6 ab3d edb8 cfbc 58de d4bd 81f6 69bd
00000070: 42d2 b13c a95a 86bd 8e65 473d e975 89bc
00000080: 7642 243d 6c95 88bd 471a 243d 12c9 7e3d
00000090: a7f4 7e3b 7083 9a3c 0810 b1bd 5110 123d
000000a0: 17e1 f83d 9927 13bc 056d 61bd ff42 be3d
000000b0: 553a 15bd 5cea b53c 5748 45bc 8b0c 663d
000000c0: 20ff ecbc a7da 3dbd 1049 be3c 8ca7 a3bc
000000d0: 8a35 973d 916c 3e3a c223 953c 4859 9bbc
000000e0: 008d 0cbc 861d b53d 46c9 a6bc 5b98 c33d
000000f0: 394e 79bd 06d8 183d cb63 973d 7df0 e2bd
00000100: feed 40bc 0ccc bbbc 642d 26bd 0d58 bebd
00000110: 3e75 22bc 3308 ab3d e174 293c 546c f23c
00000120: 8390 00bd dda7 98bd 47ff 0dbc f007 793c
00000130: 7c43 f23b b6bf 2f3c 2449 5c3d e20d 043d
00000140: 3115 cdbc fbe8 db3b a9db be3d 7b3b aabc
00000150: f8de c9bb d6f1 933d 462d 4d3d 0a31 ab3d
00000160: 4a57 5c3c bfd9 cc3c c360 52bd 935a 4abc
00000170: e792 bf3c 4b05 b8bd 0cf9 34b7 7cae 52bc
00000180: b2e2 81bc b10d 263d 7584 a83c 3e27 ae3d
00000190: 4953 1bbd 6c8e 893c 2ea6 19bd b9e4 68bb
000001a0: 3bf8 cdbc 7b27 433d 15ca 54bd 366f a13c
000001b0: 42d5 7fbd f8ec ad3c f6fe 92bc 6fb5 74bd
000001c0: c803 c9bc d423 ec3c 176f 35bc c099 3c3d
000001d0: 56c1 4cbd 42a2 f1bb ef46 873c f3c6 19bd
000001e0: 85a2 153d faec 143d 80c2 24bd be9c 923b
000001f0: 2a71 893d dfba 053c 8576 d4bc 29f0 d4bd
00000200: 748a f4bc babe d13c eaa7 54bd f719 11bd
00000210: 5856 a03d c8ec 2f3d 0b59 34bd 28ba 7abd
00000220: ca42 2f3d 89fe d33c d09b 01bd dfc9 58bc
00000230: 714d 81bc fe71 5bba 1e96 b8bc 7daa 78ba
00000240: 7e4a 143c 1980 4a3d a240 6fbd a253 4c3c
00000250: 10a3 c9bc 5167 06bd 221e ccbc a73f 803d
00000260: 7418 45bd be52 21bd f672 11bd 6ce2 d5bc
00000270: b5a9 083d 9971 883d 3c0e 723c f8be 01bd
00000280: cb38 80bb cd5d 8ebd 1752 47bd 567a b8bc
00000290: c0f2 bbbb 3110 583b 4fd8 bf3c 4d5e 673d
000002a0: dd75 c93c 3bc4 dcbc 9d4c c53c b9eb fcbc
000002b0: e92c c43c e2a6 2d3d 5d58 973d b9aa 3cbc
000002c0: 9e6f 503a 2340 94bc 839b 14bc 6d51 0bbd
000002d0: d6a5 5b3c a15b 9a3d e7b7 d03c b01b 6ebb
000002e0: 6ca0 193d d42d d2bc a35d fbbc abab a9bb
000002f0: 6367 60bb 8bac 00bd b13a de3c 65c3 f6bd
00000300: e27c 94bc d8bc 803d 54be 0d3d 3d05 f0bc
00000310: 556b 9a3b 8dad 99bb 5329 51bd db12 7a3c
00000320: bf7a 18bb 3741 183d e03d 96bd e465 773a
00000330: 7e5e 433b f9e3 92bd 3962 403d 4433 8fba
00000340: 9bfc 1b3d 0d84 5cbd 7f52 ff3b a99a 223d
00000350: a367 6abc 6b27 753d fcf7 913c 9cfe 80bd
00000360: 78b6 dc3b 706f 8bbc d411 f8bc c4ab 48bb
00000370: a74b 1bbd ebfc b8bb 2117 f03c 628a 903d
00000380: 994a 613d 9e63 ec3c c545 fd3a e11c c53c
00000390: a627 21bd 9f0f 00bd ee12 44bb 6ccf 4dbb
000003a0: 4685 713d 612b 18bc 1324 27bc cee0 763d
000003b0: bfc8 df3b 52fd 97bc e977 2c3d 7427 f03b
000003c0: ccaa 063d 5a3c 863d 1dbc c43d 1194 553c
000003d0: a913 563d 2dc6 9e3d 293d a33d f2bc 9f3d
000003e0: b582 e9bc c6a7 953d 6e29 5a3d c76d 103c
000003f0: 0f93 8abc e9b2 2cbd 0552 813d 2830 26bd
-0.046952363 -0.018678144 -0.07855017 0.027139504 -0.060924184 -0.024030589 0.03872114 0.046865527
-0.0125221005 -0.0388472 -0.04540947 0.06825291 -0.02779566 0.0367086 0.016604342 -0.053905588
-0.003678796 0.030970903 0.029508386 0.05094294 0.016584076 0.010993729 0.057729594 0.040096134
0.083874 -0.025356734 -0.10393971 -0.05711985 0.021706704 -0.06560261 0.048680834 -0.016779857
0.040102445 -0.06669125 0.040064123 0.062203474 0.0038903148 0.018861502 -0.08645636 0.03566009
0.121523075 -0.008981609 -0.05503561 0.09290122 -0.036432583 0.022206478 -0.012041173 0.056164306
-0.028930247 -0.0463511 0.023228198 -0.019977354 0.07383259 0.00072641025 0.018205527 -0.018963471
-0.008578539 0.08843522 -0.020359647 0.09550544 -0.060865615 0.03731539 0.07392081 -0.11081026
-0.011775492 -0.022924446 -0.04057063 -0.09294138 -0.009915648 0.08351173 0.0103428075 0.02959267
-0.031387817 -0.074538924 -0.00866682 0.015199646 0.0073932987 0.01072686 0.05378069 0.032239802
-0.025034519 0.006711123 0.093192406 -0.020780316 -0.006160613 0.07223861 0.050092004 0.08358963
0.013448546 0.025006173 -0.05136181 -0.012350696 0.023385478 -0.089853846 -1.0786822e-05 -0.012858983
-0.015855167 0.0405404 0.020570973 0.085035786 -0.037921224 0.016791545 -0.037511997 -0.003553672
-0.02514278 0.047645073 -0.051950533 0.01970635 -0.062459238 0.02123116 -0.01794384 -0.05974334
-0.024537936 0.028825678 -0.011073849 0.046045065 -0.049989067 -0.007374079 0.016513316 -0.03754325
0.036531944 0.03635881 -0.040224552 0.0044742515 0.067110375 0.008162229 -0.02593542 -0.103973694
-0.029851176 0.02560364 -0.051917948 -0.035425153 0.07828969 0.04295042 -0.04403023 -0.06121269
0.042788304 0.025878208 -0.031642735 -0.013231724 -0.015783997 -0.0008371173 -0.022532519 -0.0009485854
0.009050963 0.04943857 -0.058411248 0.0124711115 -0.024613887 -0.032813374 -0.024916712 0.06262141
-0.048119023 -0.03938555 -0.035510026 -0.026108943 0.03336497 0.06662292 0.014773902 -0.031676263
-0.0039130202 -0.06951485 -0.04866227 -0.022519272 -0.005735725 0.0032968635 0.023418574 0.056486417
0.024592334 -0.026949039 0.024084384 -0.03087412 0.023947196 0.04239548 0.07389901 -0.011515313
0.00079512026 -0.018096989 -0.00907028 -0.0340132 0.013406238 0.07537008 0.025478316 -0.003633242
0.037506506 -0.025656618 -0.030684298 -0.005177935 -0.003424131 -0.03141455 0.027127596 -0.12048987
-0.018125955 0.06286019 0.03460534 -0.029299373 0.004712502 -0.0046898783 -0.0510648 0.015263285
-0.0023266522 0.03717157 -0.073360205 0.0009437485 0.002981096 -0.071723886 0.046968672 -0.0010925313
0.0380827 -0.05383687 0.0077918167 0.039698277 -0.0143069355 0.059852045 0.017818443 -0.06298563
0.006735619 -0.017020911 -0.030281939 -0.0030619958 -0.037913945 -0.0056453845 0.029307904 0.070576444
0.055002782 0.028856095 0.0019323161 0.024061622 -0.039344452 -0.031264897 -0.002991851 -0.003140415
0.05896499 -0.009287686 -0.010201472 0.060272984 0.0068293507 -0.01855341 0.042106543 0.007328922
0.03287773 0.0655448 0.09606192 0.01303579 0.052264843 0.07752643 0.0797065 0.0779971
-0.028504709 0.07307391 0.053262167 0.008815235 -0.016915826 -0.04216281 0.06314472 -0.04057327

convs.3.att f4 [10, 4]
00000000: c962 32bb 9d56 8c3b 7d5c 803b e992 813c
00000010: cb0a 363a 7ca9 d1bb ac16 b83b 654b a63c
00000020: 5323 143a d579 d6bb 7966 413b 1520 6a3c
00000030: 51c2 b4ba 5e89 2abb e4bb 88bb 2571 38bb
00000040: bedb 54bb 1fcb 54bc 33e0 223c 9b0b 673c
00000050: 7779 203b 5caf 7ebc 4afd ae3b 98c2 7d3c
00000060: 0622 63bb 872d 30bc d056 713c e491 033c
00000070: f631 f6b9 fed0 42ba 40be 7a3c 469f f53b
00000080: 3e59 43bb 9691 7abb 876f 823c 2b0c cc3b
00000090: 26de b0b8 072d 8db8 d606 993b 2653 28ba
-0.0027219525 0.004282786 0.0039172755 0.015817123 0.00069443573 -0.006398378 0.005617937 0.020299623
0.00056510157 -0.006545285 0.0029510541 0.0142898755 -0.0013790821 -0.0026021819 -0.004172789 -0.0028143611
-0.003247961 -0.012987881 0.009941149 0.014101888 0.0024486461 -0.015544739 0.005340253 0.015488289
-0.003465773 -0.010753042 0.01473017 0.0080303885 -0.00046958 -0.0007431655 0.015304148 0.0074957935
-0.002980783 -0.0038233749 0.015922321 0.0062270365 -8.433712e-05 -6.731791e-05 0.0046700044 -0.00064210815
