results/flixster_testmode/model_checkpoint37.pth (torch_old, 199981 bytes, 19 tensors)

convs.0.basis f4 [4, 4, 32]
0	0x3c3e5e20	0.011619121
1	0x3c6ca9d3	0.014444786
2	0x3c99eded	0.01879021
3	0x3cd5f164	0.02611608
4	0xbd9687d6	-0.073501274
5	0x3e4678f6	0.1938208
6	0xbe01e74c	-0.12685889
7	0xbddda74c	-0.10822925
8	0x3db89e47	0.09014564
9	0xbe4b5add	-0.1985888
10	0x3db855e5	0.09000758
11	0xbdc1202a	-0.09429963
12	0xbe50e218	-0.20398748
13	0x3d97b2c0	0.07407141
14	0x3e196dea	0.14983335
15	0xbdd9bd8a	-0.10631855
16	0xbd7167c3	-0.058936846
17	0xbd9dde37	-0.077084
18	0xbe4adea0	-0.19811487
19	0xbc5b080e	-0.01336862
20	0x3d8ee125	0.06976537
21	0x3e466fb2	0.19378546
22	0x3d6bdfc0	0.05758643
23	0xbd9839d3	-0.07432904
24	0x3d9484ef	0.072519176
25	0xbdefba35	-0.11705438
26	0x3de9512e	0.11392437
27	0x3c76c85c	0.015062418
28	0x3e1c9ada	0.15293446
29	0x3e8b2128	0.27173734
30	0xbe113596	-0.14180598
31	0x3d19eaf9	0.037577603
32	0xbe3ad0b1	-0.18243672
33	0xbe0831b0	-0.13300204
34	0xbde1b134	-0.11020127
35	0x3d185cf3	0.03719802
36	0x3d0a5df3	0.033781003
37	0x3e7e0c3d	0.24809356
38	0xbbdb7b42	-0.006698043
39	0xbdac8bf9	-0.08425135
40	0xbe6bf2d9	-0.23041858
41	0xbda775e6	-0.08176784
42	0x3dcb7cff	0.099359505
43	0xbe57a366	-0.21058425
44	0x3ca69f1d	0.020339543
45	0x3bd3c320	0.0064624697
46	0x3cc75e3d	0.024336929
47	0xbdbd3c49	-0.09240014
48	0xbca90e03	-0.020636564
49	0xbe525d09	-0.20543303
50	0x3dcd94e4	0.10038164
51	0xbdf0b1d6	-0.117526695
52	0xbd88d538	-0.06681293
53	0x3e0622f5	0.13099273
54	0xbdc32ca2	-0.095299974
55	0xbdd8c153	-0.10583749
56	0xbb07bcf8	-0.0020712
57	0xbd81b94d	-0.063341714
58	0xbd0c688c	-0.03427939
59	0x3d3e48a3	0.04645599
60	0x3da0a28d	0.07843504
61	0x3df1b7d1	0.11802638
62	0xbe6f3c47	-0.23362838
63	0xbc45205d	-0.012031642
64	0xbd996578	-0.07490057
65	0xbdbd0642	-0.09229709
66	0x3cd3bac4	0.025845893
67	0x3c7665a6	0.015038883
68	0xb8a939c8	-8.0693106e-05
69	0xbd6e7b0a	-0.058222808
70	0x3c74fc0a	0.014952669
71	0xbeb44e8f	-0.35216185
72	0xbee6339c	-0.4496125
73	0x3d0b1914	0.033959463
74	0x3caf7f00	0.021422863
75	0x3d8fc520	0.070200205
76	0x3e8b0050	0.27148676
77	0x3d34d5c3	0.04414917
78	0x3d788c4c	0.060680673
79	0xbe425eb5	-0.1898144
80	0x3cb42b70	0.021993369
81	0xbda8cc31	-0.082420714
82	0x3d037f8f	0.03210407
83	0x3d879188	0.06619555
84	0x3d4d7270	0.050157964
85	0x3de4412a	0.111452416
86	0xbf3f5c05	-0.74749786
87	0xbef47b54	-0.47750342
88	0xbed05a51	-0.40693906
89	0x3d0383b6	0.03210803
90	0xbdb7bb41	-0.08971263
91	0x3d2e7b49	0.042598043
92	0xbd84329c	-0.064549655
93	0x3d03a370	0.032138288
94	0xbc9ac443	-0.018892413
95	0x3dde8e32	0.10866965
96	0x3de4abe7	0.111656
97	0xbd06402a	-0.032776035
98	0xb9d3400f	-0.00040292784
99	0x3c366f7e	0.01113498
100	0xbe064b80	-0.13114738
101	0xbe8ea0e2	-0.2785712
102	0xbd8b52fc	-0.068029374
103	0x3da3717b	0.07980629
104	0x3eb87942	0.36030012
105	0x3f1ee70b	0.62071294
106	0x3f258b7a	0.6466595
107	0x3e1ea0fc	0.15491098
108	0x3db795d0	0.08964121
109	0x3d5964a5	0.053074498
110	0x3d09dac7	0.033655908
111	0xbcc47704	-0.023982532
112	0xbed970b2	-0.42468792
113	0xbab3aca2	-0.0013708065
114	0xbe38c410	-0.18043542
115	0xbd100230	-0.035158336
116	0xbd977e77	-0.07397168
117	0xbf1209db	-0.5704629
118	0xbdd8bb4c	-0.10582599
119	0x3c91faeb	0.017819842
120	0xbd74b0f5	-0.059739072
121	0x3e8a6df5	0.27037016
122	0xbe1dc6c7	-0.15407859
123	0xbe5223b1	-0.20521428
124	0xbcec6b78	-0.028859839
125	0x3c9480bc	0.018127792
126	0x3e34c7f7	0.17654406
127	0x3d8946ed	0.06702981
128	0x3c5c2759	0.013437116
129	0x3d0e2d55	0.0347112
130	0x3c84bad9	0.016202377
131	0xba1f8edc	-0.00060866564
132	0xbd6b2811	-0.057411257
133	0x3d854c3a	0.0650868
134	0xbcefda26	-0.029278826
135	0xbd956c8f	-0.072960965
136	0xbcac2ff0	-0.021018952
137	0xbe06d8ed	-0.13168688
138	0x3d54b134	0.051926807
139	0x3ccbb6f3	0.02486751
140	0xbe07a6ac	-0.13247174
141	0x3cbd6e72	0.023123953
142	0x3e0be552	0.13661698
143	0xbe2ea5c0	-0.17055416
144	0xbd8bce14	-0.06826416
145	0xbc5941e7	-0.013260341
146	0xbdaec345	-0.085333385
147	0xbd596c99	-0.053082082
148	0x3ca34541	0.019930484
149	0x3e1852d2	0.14875343
150	0x3dda3a1c	0.10655615
151	0xbdc23423	-0.094826005
152	0x3d4b313c	0.0496075
153	0xbd4586e4	-0.048224345
154	0x3dd9ecce	0.1064087
155	0xbc2eb992	-0.010664361
156	0x3da9a68a	0.08283718
157	0x3e38d6fa	0.18050757
158	0xbd3fa959	-0.046792362
159	0x3ce4da5d	0.027936155
160	0xbe0f0c94	-0.13969642
161	0xbe0570f6	-0.13031372
162	0xbe068fcd	-0.13140793
163	0x3e0bb484	0.1364308
164	0x3c3d7396	0.011563202
165	0x3e58c975	0.211706
166	0xbd28c91c	-0.041207418
167	0xbcc2d6d6	-0.023784082
168	0xbe12a951	-0.14322402
169	0xbdf252a0	-0.11832166
170	0x3daa8a8a	0.083272055
171	0xbe4a147f	-0.19734381
172	0x3c3c0bac	0.011477392
173	0xbc130c80	-0.008975148
174	0x3dc7eda8	0.09762126
175	0xbd994d16	-0.07485406
176	0xbca32336	-0.01991425
177	0xbe060336	-0.13087162
178	0x3c9e8146	0.019348752
179	0xbdd81166	-0.105501935
180	0xbd9be80e	-0.0761262
181	0x3df1d12a	0.11807473
182	0xbcc36147	-0.023850096
183	0xbd7a4e28	-0.06110969
184	0x3c7702f4	0.015076388
185	0xbd006fdb	-0.031356674
186	0xbc93ce5f	-0.018042741
187	0x3bba9de1	0.00569509
188	0x3e13ade2	0.144218
189	0x3e5b2c3e	0.21403596
190	0xbe4c3fab	-0.19946162
191	0x3c96d293	0.018410956
192	0xbca63d0a	-0.020292778
193	0x3cb2d5e9	0.021830516
194	0xbde6a19a	-0.11261292
195	0x3cc7451e	0.02432495
196	0x3d7439c3	0.0596254
197	0x3dec3b2a	0.11534722
198	0x3c8f9b97	0.017530246
199	0xbe5a5439	-0.21321191
200	0xbf12470a	-0.57139647
201	0x3d83fc16	0.06444566
202	0xbdbe8ab5	-0.093038
203	0xbdf0b9d6	-0.117541954
204	0x3e911706	0.28337878
205	0xbabb545e	-0.0014292111
206	0xbe13b204	-0.14423376
207	0xbe51b4de	-0.20479152
208	0x3e109a4a	0.14121357
209	0xbd34c85d	-0.044136394
210	0x3db48fd0	0.088164926
211	0x3de04641	0.109509
212	0xbdb9b252	-0.09067215
213	0xbc95363b	-0.018214336
214	0xbf1aa53b	-0.6040837
215	0xbed8a5b6	-0.42313927
216	0xbeb3eb5f	-0.3514051
217	0x3cbd67b5	0.02312074
218	0x3d18edd6	0.037336193
219	0xbd4408ac	-0.047859833
220	0x3cc741a9	0.024323301
221	0xbd8cae24	-0.06869152
222	0xbd97a5d9	-0.0740468
223	0x3b80e5a5	0.0039336258
224	0xbca0cbba	-0.019628394
225	0x3e178b66	0.1479927
226	0x3c86e18e	0.016464975
227	0x3c469e61	0.012122721
228	0x3e17647b	0.14784424
229	0xbda379c5	-0.0798221
230	0x3d29d704	0.04146482
231	0xbdba5074	-0.090973765
232	0x3e894e4c	0.26817548
233	0x3efed068	0.49768376
234	0x3ec5edde	0.3865804
235	0xbf1bc99f	-0.60854524
236	0xbdb51b34	-0.08843079
237	0xbd2f8797	-0.042853918
238	0xbce7ccfc	-0.028295986
239	0x3cd3f4bc	0.025873534
240	0xbe7892bc	-0.24274725
241	0xbdc9b7b6	-0.09849493
242	0xbe4ea176	-0.2017878
243	0xbbf05335	-0.007334138
244	0x3d0ecda8	0.034864098
245	0xbec6c799	-0.38824156
246	0x3e38545d	0.18000932
247	0x3b9079a3	0.0044090315
248	0x3d83bda7	0.06432658
249	0x3e154ea5	0.14580782
250	0x3dc423be	0.0957713
251	0xbbd42c2a	-0.0064749913
252	0x3c31a872	0.010843383
253	0xbb585a8e	-0.003301296
254	0xbdf70a81	-0.1206255
255	0xbe171f0a	-0.14757934

convs.0.att f4 [10, 4]
0	0xbdb3f53c	-0.08787009
1	0xbe3bcfb8	-0.18340957
2	0x3e985e93	0.29759654
3	0x3e38a82d	0.18032904
4	0xbe4d134b	-0.20026891
5	0xbcd37ddc	-0.02581685
6	0x3ec41590	0.382977
7	0x3e28541d	0.16438337
8	0xbe79d2eb	-0.24396865
9	0x3df670dc	0.12033245
10	0x3ecc4d1a	0.39902574
11	0x3e0d52b1	0.13801076
12	0xbe44418f	-0.19165634
13	0x3e3f5392	0.18684223
14	0x3ebe3bd6	0.37155026
15	0x3dc512ad	0.09622703
16	0xbda3aa97	-0.07991522
17	0x3da22ff1	0.079193
18	0x3ea2fe71	0.31834748
19	0x3e3d4090	0.1848166
20	0xbc9ae8f1	-0.018909903
21	0x3e3150d8	0.17315996
22	0x3e8e7f15	0.2783133
23	0x3e24576b	0.16048972
24	0xbb4f22df	-0.0031606478
25	0x3e67b2a7	0.22626744
26	0x3e4a5d06	0.19762048
27	0x3dceb813	0.10093703
28	0x3db0f69b	0.08640786
29	0x3e52c00b	0.20581071
30	0x3e25286f	0.16128705
31	0x3d27a908	0.040932685
32	0x3e3c49e9	0.1838757
33	0x3e484a38	0.19559562
34	0x3d9df35e	0.07712434
35	0xbd431144	-0.047623888
36	0x3eac1d11	0.33615926
37	0x3e2279ff	0.1586685
38	0x3c9896ba	0.01862656
39	0xbdbcedfd	-0.0922508

convs.0.root f4 [4, 32]
0	0xbde9db77	-0.11418813
1	0x3cdd1cb4	0.026991226
2	0xbda463aa	-0.08026822
3	0x3e596e4d	0.21233483
4	0x3d67ccc6	0.05659177
5	0x3cd2bf38	0.025725946
6	0xbdc58196	-0.09643857
7	0xbe592464	-0.21205288
8	0x3e4ef41e	0.20210311
9	0x3ec0f0c4	0.3768369
10	0x3ea8e375	0.32986036
11	0xbdbde1bb	-0.0927157
12	0x3d96a9b6	0.073565885
13	0x3e2d2fd3	0.16912775
14	0xbb17485a	-0.0023083896
15	0xbd7087db	-0.058723312
16	0xbe555fba	-0.20837298
17	0x3e46bb58	0.19407403
18	0x3cf8c3c5	0.030366788
19	0xbe6c342e	-0.2306678
20	0xbd0861b7	-0.033296313
21	0xbe015c6f	-0.12632917
22	0xbce2b96e	-0.02767631
23	0x3e0777af	0.1322925
24	0x3c2b5f6d	0.010459763
25	0x3e40d59c	0.18831486
26	0x3c268b8a	0.010165105
27	0xbe5a3467	-0.21309052
28	0xbb48adf4	-0.0030621262
29	0xbe660411	-0.22462489
30	0x3d9ac420	0.07556939
31	0xbdf7849b	-0.12085839
32	0x3e211f2d	0.15734549
33	0x3d4663b0	0.048434913
34	0xbe18fbf5	-0.14939864
35	0x3e4b1170	0.1983087
36	0xbd98fece	-0.07470475
37	0xbd44244f	-0.04788619
38	0xbdd15119	-0.10220546
39	0xbd9b7caf	-0.07592141
40	0x3c5664fe	0.013085602
41	0xbe142ca7	-0.14470159
42	0xbcf0e614	-0.029406585
43	0x3dea6f03	0.11446955
44	0x3e6b8bf1	0.23002602
45	0x3e2a6280	0.16639137
46	0xbd3b860d	-0.045782138
47	0x3eb3dfd8	0.35131717
48	0xbd86a4d5	-0.06574408
49	0x3d82acd6	0.06380622
50	0xbca8ca48	-0.020604268
51	0x3b6cf8fa	0.0036159144
52	0xbd86c7a2	-0.06581046
53	0xbe073ddd	-0.13207193
54	0xbe11b0fa	-0.14227667
55	0xbea09ef7	-0.3137128
56	0xbe309a0b	-0.17246263
57	0x3d4232f2	0.047411866
58	0x3da47411	0.080299504
59	0xbccda45c	-0.025102787
60	0x3c3cf31e	0.011532573
61	0x3c16b0dc	0.00919744
62	0x3e3967c1	0.18105985
63	0x3e7ebada	0.24875966
64	0xbd521e3c	-0.051298365
65	0x3e038710	0.12844491
66	0xbc9631c9	-0.018334286
67	0xbbe501fe	-0.006988763
68	0xbd9963b5	-0.07489721
69	0xbe3c61f0	-0.18396735
70	0xbdc9b356	-0.09848659
71	0xbe235d38	-0.15953529
72	0xbdc3bce1	-0.0955751
73	0x3d593ec1	0.053038362
74	0xbe113ece	-0.14184114
75	0xbd0a5792	-0.03377492
76	0x3d677f56	0.05651792
77	0x3e36cb9a	0.17851105
78	0xbc78aca4	-0.0151778795
79	0xbd4680f8	-0.048462838
80	0xbdeed919	-0.11662502
81	0xbdf27bab	-0.11839994
82	0xbe11712f	-0.14203332
83	0x3e45cdd7	0.19316803
84	0xbca9d52e	-0.020731535
85	0x3d929032	0.07156409
86	0xbe17ae06	-0.14812478
87	0x3d00f070	0.0314793
88	0x3d02d439	0.031940673
89	0x3d9ba93f	0.076006405
90	0x3db9124a	0.090366915
91	0xbd3d9335	-0.046282966
92	0xbe1ca0cd	-0.15295716
93	0xbdcc0319	-0.09961528
94	0xbc96875e	-0.018375095
95	0xbd19e099	-0.03756771
96	0xbe04810e	-0.12939855
97	0xbbf9d6c0	-0.007624477
98	0xbda698d0	-0.081346154
99	0x3e5084a0	0.20363092
100	0xbd51f71b	-0.05126105
101	0xbd906f32	-0.07052459
102	0xbd82986a	-0.06376727
103	0xbe2085ea	-0.15676084
104	0xbe25e975	-0.16202338
105	0x3d877496	0.06614034
106	0xbd31eca6	-0.043438576
107	0xbdfc4e16	-0.12319581
108	0x3e1d6f7f	0.15374564
109	0x3e1c3530	0.15254664
110	0x3da1fb66	0.079092786
111	0xba1cd7c0	-0.0005983077
112	0x3c394f7b	0.0113104535
113	0xbe275357	-0.16340385
114	0xbd86ddbb	-0.065852605
115	0x3de1ddee	0.11028658
116	0xbd4598d8	-0.048241466
117	0x3e1675ba	0.14693347
118	0xbe3a5efe	-0.18200299
119	0xbddf206f	-0.10894858
120	0xbd4d8358	-0.050174087
121	0x3de9ac7b	0.11409851
122	0x3d1449a3	0.036203038
123	0xbd4bd5db	-0.049764495
124	0xbe1435b3	-0.1447361
125	0xbcc7445c	-0.024324588
126	0xbdeb3764	-0.11485174
127	0xbd6244d2	-0.055241413

convs.0.bias f4 [32]
0	0x3de81ad4	0.11333242
1	0xbc4d66c2	-0.012536706
2	0x3d928dc9	0.071559496
3	0xbe44fa17	-0.19236027
4	0x3d9bd504	0.07608989
5	0x3d0716b0	0.03298062
6	0x3dbfcb18	0.09364909
7	0x3e18b7a4	0.14913803
8	0x3e30205d	0.17199846
9	0xbca9f47f	-0.020746468
10	0x3ccf147a	0.025278319
11	0x3e1b2a76	0.15152916
12	0xbdb29927	-0.08720618
13	0xbe2f66ab	-0.17129008
14	0xbdf82355	-0.12116114
15	0x3d40f2df	0.04710662
16	0x3d586a22	0.05283559
17	0x3e485dde	0.19567057
18	0x3e044813	0.12918119
19	0xbdd7904e	-0.10525571
20	0x3d18715a	0.037217475
21	0xbe616a73	-0.22013263
22	0x3e1d8ef1	0.15386559
23	0x3ce16cc0	0.027517676
24	0x3c9f3fb5	0.019439558
25	0xbda98754	-0.08277765
26	0xbd83f6de	-0.064435706
27	0x3d3cc279	0.0460839
28	0x3db852aa	0.09000142
29	0xbda26dff	-0.07931136
30	0x3e117a5e	0.14206836
31	0x3c6ad8f4	0.014333952

convs.1.basis f4 [4, 32, 32]
0	0xbd88fb47	-0.06688552
1	0xbd7cfbef	-0.0617637
2	0xbd9157b9	-0.0709681
3	0xbd79f754	-0.061026886
4	0xbd7350ac	-0.059403107
5	0xbd19d708	-0.037558585
6	0xbe5b1d11	-0.21397807
7	0x3d2831b8	0.04106304
8	0x3d7019bb	0.05861829
9	0x3c0c2ed9	0.008556091
10	0xbd0e3b41	-0.034724478
11	0x3d584280	0.052797794
12	0xbd8b7f8c	-0.06811437
13	0xbda681f2	-0.08130254
14	0xbbe1ae3a	-0.0068872245
15	0x3c1a9f2f	0.009437366
16	0x3d80370c	0.06260499
17	0x3d0aadda	0.033857204
18	0x3d36f594	0.044667795
19	0xbb9ff674	-0.0048816744
20	0x3c090323	0.008362564
21	0xbe0cd12d	-0.13751669
22	0xbd7712a9	-0.06032053
23	0xbd499ba5	-0.0492207
24	0xbca93d29	-0.020659046
25	0x3d84caa1	0.06483961
26	0xbce0cfa2	-0.027442757
27	0x3d08aed4	0.033369854
28	0x3d86d0a8	0.06582767
29	0x3b06e3e4	0.002058261
30	0x3b6263bd	0.0034544312
31	0xbcc3a308	-0.02388145
32	0x3baed7a5	0.0053357654
33	0xbc16aef5	-0.009196986
34	0xbc7d2b80	-0.015452266
35	0xba52a5e1	-0.0008035582
36	0xbc032f6e	-0.008006914
37	0xbc253e9a	-0.010085726
38	0xbe038f16	-0.12847552
39	0xbd00977d	-0.03139447
40	0x3c480fb9	0.01221078
41	0x3b9dfb76	0.0048212362
42	0x3d68cf36	0.056838237
43	0x3d11ae6a	0.035566725
44	0xbccace06	-0.024756443
45	0xbc03843b	-0.008027132
46	0x3a351440	0.00069076195
47	0x3ca8a161	0.020584764
48	0x3cce9013	0.025215184
49	0x3c923ac7	0.017850293
50	0xbc832df6	-0.016013127
51	0x3c5e2df5	0.013560762
52	0x3c156d67	0.009120322
53	0xbd6c22e1	-0.05765045
54	0xbcb0867b	-0.0215485
55	0xbd333896	-0.043755136
56	0xbc780f02	-0.015140297
57	0x3d26460b	0.040594142
58	0x3c1afc42	0.009459557
59	0xbdc6bf67	-0.09704476
60	0x3c108180	0.008819938
61	0x3ce1cc46	0.027563225
62	0x3cd67040	0.026176572
63	0xbcd87d64	-0.026426978
64	0xbbe295c2	-0.006914825
65	0x3c98dfa8	0.018661335
66	0x3be4fbbb	0.0069880164
67	0xbd143b58	-0.036189407
68	0x3ba30ca7	0.0049758735
69	0x3cd1467d	0.025546307
70	0x3d70184e	0.05861693
71	0xbd7a5562	-0.061116584
72	0xbc624f3c	-0.013812836
73	0x3c36fe79	0.011169069
74	0x3d1df5c2	0.03856445
75	0xba64e43d	-0.000873152
76	0x3a2d7846	0.00066173484
77	0x3c3c0e37	0.011477998
78	0x3bef5465	0.007303762
79	0xbd843bb1	-0.06456698
80	0x3b4c915b	0.0031214568
81	0x3c1fc2a0	0.009750992
82	0xbc51cfa6	-0.012805855
83	0x3caf716c	0.021416388
84	0x3aa4bb69	0.001256806
85	0x3ca007aa	0.019534905
86	0xbb80c1ea	-0.0039293664
87	0x3c201045	0.009769504
88	0xbbf8839d	-0.007584049
89	0x3c6391b3	0.013889718
90	0x3cf436c7	0.029811276
91	0x3d1ce931	0.038308326
92	0xbc84e487	-0.016222252
93	0x3d07afa3	0.033126485
94	0x3c591c33	0.013251352
95	0x3bc74cf5	0.006082172
96	0xbccff702	-0.025386337
97	0x3a62506b	0.0008633199
98	0x3c3208d6	0.010866364
99	0x3c304ad9	0.010760033
100	0x3c9bd3e5	0.019021938
101	0xbc2b1edf	-0.010444372
102	0x3db4222a	0.08795579
103	0x3d2eb939	0.04265711
104	0xbba4eebb	-0.0050333417
105	0x3d0e8a25	0.034799714
106	0xbd62c32a	-0.055361904
107	0xbd436ccf	-0.04771119
108	0x3d6260b7	0.055268016
109	0xbd05aa50	-0.032633126
110	0xbc84db75	-0.016217927
111	0x3d0df899	0.03466091
112	0xbced2784	-0.028949507
113	0xbc882b08	-0.016622081
114	0x3ce2c2d5	0.027680794
115	0xbc7f57d7	-0.0155849075
116	0xbac7b333	-0.0015235901
117	0x3d131cff	0.035916325
118	0xbcbf3812	-0.023342166
119	0x3d3097f4	0.043113664
120	0x3d355300	0.044268608
121	0xbd241244	-0.040056482
122	0xbd1a1aa5	-0.037623066
123	0x3d5da8ca	0.054116048
124	0xbcacd055	-0.021095434
125	0xbb91ccf3	-0.0044494807
126	0xbc05ded3	-0.008170801
127	0x3d3e8c1c	0.046520337
128	0xbceea8bf	-0.029133199
129	0xbc43d00b	-0.011951457
130	0x3c7a1524	0.015263829
131	0xbc8f80c0	-0.017517447
132	0xbbb76b6b	-0.005597522
133	0xbc92e7b0	-0.017932743
134	0x3c1b9b34	0.0094974525
135	0x3d9bc2ca	0.076055124
136	0x3a0181d3	0.0004940305
137	0x3b405af9	0.00293511
138	0xbbc996ef	-0.006152026
139	0xbc3006e5	-0.010743831
140	0x3d114359	0.03546462
141	0x3bbc5e36	0.0057485355
142	0x3c4e0d90	0.012576476
143	0xbc4da2c8	-0.012551017
144	0xbc2a343b	-0.010388429
145	0x3ba235e3	0.0049502715
146	0xbc97ba8b	-0.018521568
147	0x3bcee210	0.00631357
148	0x3c961d21	0.018324437
149	0xbdbac22f	-0.09119069
150	0x3d1828ba	0.037148215
151	0xbbd77073	-0.0065746843
152	0xb9e7349d	-0.00044098953
153	0x3c40fbfd	0.011778829
154	0x3c1bf943	0.009519878
155	0x3d611b7d	0.054957855
156	0xbcc7c777	-0.024387104
157	0x3ca39a2d	0.019970978
158	0x3be31f16	0.006931196
159	0xbb689f00	-0.0035495162
160	0xbc995c72	-0.01872084
161	0xbba8b98c	-0.005149072
162	0x3c9e96ef	0.01935908
163	0xbd8a6d49	-0.06759126
164	0x3c0d6ac5	0.008631413
165	0x3d4c4411	0.0498696
166	0x3e87b9b9	0.26508883
167	0x3cf78f42	0.030219678
168	0x3befcaf8	0.007317897
169	0x3b1ef9bd	0.0024257742
170	0xbd2606e1	-0.040533904
171	0xb9d6913c	-0.0004092547
172	0x3de0317b	0.10946938
173	0x3bf2dbf3	0.007411474
174	0xbd805f60	-0.06268191
175	0x3d816875	0.06318752
176	0xbb0ddc36	-0.0021646149
177	0xbcac23d9	-0.021013187
178	0x3c84552b	0.016153893
179	0xbb02d311	-0.001996223
180	0xbc97419b	-0.0184639
181	0x3d5046f9	0.050848935
182	0xbd312d9a	-0.04325638
183	0x3cef7bdf	0.029233871
184	0x3daeaeec	0.085294574
185	0xbcb2c4e2	-0.021822397
186	0x39ffa89a	0.00048763008
187	0x3d8542a2	0.0650685
188	0xbc091fe4	-0.00836942
189	0xba4df423	-0.00078565086
190	0x3cf6f669	0.030146794
191	0x3d41cea3	0.047316205
192	0xbd01ca28	-0.03168693
193	0x3c62825f	0.013825028
194	0x3c2c3671	0.010511027
195	0x3c4012ca	0.01172323
196	0x3be1ac09	0.0068869633
197	0xbc88e5da	-0.016711164
198	0xbd26f0bb	-0.040756922
199	0x3c982e35	0.01857672
200	0xbcae4b4b	-0.021276137
201	0x3c9b4497	0.018953605
202	0x3ca64417	0.02029614
203	0xbc0cfe83	-0.008605602
204	0xbb05d11c	-0.0020418828
205	0x3c1f4efc	0.009723421
206	0xbc43a60f	-0.011941447
207	0x3cfbc339	0.030732738
208	0xbcd879ad	-0.026425207
209	0x3b8bba09	0.0042641205
210	0xbc5a6ec3	-0.013332072
211	0xbbdb6af9	-0.0066961017
212	0x3c12c63e	0.008958397
213	0xbcb3b056	-0.02193467
214	0xbc0e499f	-0.008684545
215	0x3cd4b263	0.025963968
216	0x3c90cefb	0.017676821
217	0xbb291cdd	-0.0025804557
218	0x3c4f12d2	0.012638764
219	0x3b87f3ee	0.0041489517
220	0xbc205e13	-0.009788054
221	0xbb0fd7a6	-0.0021948605
222	0x3c417152	0.011806803
223	0x3b487a95	0.0030590643
224	0xbe51a068	-0.20471346
225	0xbd7e4b46	-0.062083505
226	0xbd91f6b0	-0.0712713
227	0xbcee72f6	-0.029107552
228	0xbd871be6	-0.06597118
229	0xbe2c3989	-0.16818823
230	0xbe3d48b5	-0.18484767
231	0x3e2a812a	0.16650835
232	0x3d857eb7	0.065183096
233	0x3ba3f0a3	0.0050030514
234	0xbd85464c	-0.06507549
235	0x3cf920b6	0.030411106
236	0xbd84d220	-0.06485391
237	0xbdd15e48	-0.10223061
238	0x3ba0cfe2	0.004907594
239	0x3e5177a2	0.20455793
240	0x3d3cde6c	0.046110556
241	0x3a996a46	0.0011704646
242	0x3d5434a0	0.051808
243	0xbcb19820	-0.021678984
244	0x3c0437c7	0.008069939
245	0xbe96acba	-0.29428655
246	0xbc7c04c8	-0.015381999
247	0xbd0076eb	-0.03136341
248	0xbbf16da9	-0.007367809
249	0x3ca49dbb	0.020094743
250	0xbd6adae0	-0.05733764
251	0xbde20dac	-0.11037764
252	0x3daadf99	0.08343429
253	0xbd0891a0	-0.033342004
254	0xbc443488	-0.011975415
255	0xbcf829d2	-0.030293379

convs.1.att f4 [10, 4]
0	0xbdbbc243	-0.09167912
1	0x3e3e76f6	0.18600067
2	0xbe9d8021	-0.30761817
3	0x3b867109	0.0041028303
4	0x3d1476f2	0.036246248
5	0x3e0bc406	0.13648996
6	0xbe8989d5	-0.2686297
7	0xbb2a14b3	-0.002595228
8	0x3df4eeaa	0.11959584
9	0x3ddf718f	0.109103315
10	0xbe86b87d	-0.26312628
11	0xbd0fe801	-0.035133366
12	0x3de39cf6	0.11113922
13	0x3c433d26	0.011916434
14	0xbe4f89de	-0.20267436
15	0xbd9c761a	-0.076397136
16	0x3e010703	0.12600331
17	0xbd447946	-0.047967218
18	0xbe2050ae	-0.15655777
19	0xbd9d7838	-0.076889455
20	0x3d67a0ea	0.056549944
21	0xbdfc3f1f	-0.12316727
22	0xbdf3d21e	-0.11905311
23	0xbdbea853	-0.09309449
24	0x3d8a0307	0.06738859
25	0xbe1f97e7	-0.1558529
26	0xbd9fe5c1	-0.07807494
27	0x3d2b4ba6	0.04182019
28	0x3d244633	0.04010601
29	0xbe3c3e28	-0.18383086
30	0xbbd0e489	-0.0063748998
31	0x3dbcdfbb	0.09222361
32	0xbd5722c5	-0.052523393
33	0xbe2938c5	-0.16525562
34	0x3d24c967	0.040231135
35	0x3db6b0b9	0.08920426
36	0xbe349c55	-0.17637761
37	0xbe335d07	-0.17515956
38	0x3d841ae1	0.06450439
39	0x3cf8135a	0.030282665

convs.1.root f4 [32, 32]
0	0xbd1b4023	-0.037902962
1	0x3d23b949	0.039971624
2	0x3d0f7ab8	0.035029143
3	0xbc94097c	-0.018070929
4	0x3cf34407	0.029695524
5	0xbcd9ca86	-0.026585829
6	0xbe30c0c5	-0.17261036
7	0x3d9dc488	0.07703501
8	0xbcfad09a	-0.030617047
9	0xbc0b55cb	-0.008504341
10	0xbd0cb50e	-0.034352355
11	0xbc694fb4	-0.014240194
12	0xbd6c0bd9	-0.057628486
13	0xbbd08ddb	-0.0063645667
14	0xbd64e8de	-0.055886142
15	0x3c632a6c	0.013865095
16	0xbb585c6a	-0.0033014067
17	0xbd49f668	-0.049307257
18	0xbd9b7d74	-0.07592288
19	0xbb8e5a3e	-0.004344254
20	0xbd558fa7	-0.05213895
21	0x3c852277	0.016251786
22	0xbcbc8960	-0.023014724
23	0x3d140d21	0.036145333
24	0xbbe5d6c2	-0.0070141265
25	0xbd9203d8	-0.071296394
26	0xbd993cc4	-0.07482293
27	0x3e2a56e5	0.1663471
28	0xbc9a5d13	-0.01884321
29	0xbde47907	-0.11155897
30	0xbd9afaf4	-0.07567397
31	0x3d3e7da2	0.04650653
32	0xbc9030a2	-0.017601315
33	0xbd66606b	-0.056244295
34	0x3d9195c2	0.07108642
35	0x3d686ac6	0.056742452
36	0x3c593675	0.0132576125
37	0xbc98b1e1	-0.018639507
38	0x3dd92398	0.10602492
39	0x3da3aa19	0.07991428
40	0x3d1b41c0	0.0379045
41	0xbd857f5f	-0.06518435
42	0x3ccb64f4	0.024828412
43	0x3d868871	0.06568993
44	0xbd3359f3	-0.043786954
45	0xbda03d43	-0.07824185
46	0x3ad4b412	0.0016227982
47	0xbd8bd92c	-0.068285316
48	0x3c2a3c3c	0.010390338
49	0xbcb14e4a	-0.021643776
50	0x3de22da2	0.1104386
51	0x3d699384	0.057025447
52	0x3c175483	0.009236458
53	0x3d6e4e2f	0.05818003
54	0xbca2bdcd	-0.019865895
55	0xbde0811b	-0.10962125
56	0x3ccc671e	0.024951514
57	0x3d713579	0.058888886
58	0xbd239064	-0.039932624
59	0xbc82955a	-0.015940357
60	0x3bdb6cc0	0.0066963136
61	0xbd82929d	-0.063756205
62	0xbcfdd6dc	-0.030986242
63	0xbdb5c4b1	-0.088754065
64	0x3c6de04d	0.0145188095
65	0x3d8360df	0.06414961
66	0x3c0a7fb9	0.008453303
67	0x3da53a34	0.08067742
68	0x3d309a2e	0.043115787
69	0xbd7c53c7	-0.061603334
70	0x3d5a1173	0.053239297
71	0x3d5df02b	0.05418412
72	0x3be443ff	0.0069661136
73	0xbd044cb0	-0.032299697
74	0x3bf9fd6f	0.0076290886
75	0x3d364eca	0.044508733
76	0x3c47525a	0.01216563
77	0xbbf5b285	-0.007498088
78	0xbd4976fc	-0.049185738
79	0xbcf0de2c	-0.029402815
80	0x3c844872	0.016147826
81	0xbd3c50eb	-0.045975607
82	0xbcccf7bb	-0.02502047
83	0xbbe4e546	-0.0069853393
84	0x3c775164	0.015095089
85	0xbcda1cee	-0.026625123
86	0x3b01a634	0.0019782903
87	0xbc2e13a7	-0.010624803
88	0x3cf9601b	0.030441334
89	0x3d90b2f8	0.070653856
90	0x3db25310	0.08707249
91	0x3d695c92	0.056973048
92	0x3ca4594f	0.020062117
93	0xbda19a0a	-0.07890709
94	0x3afb0fc1	0.0019154475
95	0x3c2bbe9c	0.010482457
96	0x3cc90f9a	0.024543572
97	0x3d8fc262	0.070194975
98	0x3d1ee635	0.03879376
99	0xbdc51dc1	-0.09624816
100	0xbccfb135	-0.025353054
101	0x3ce378b5	0.027767519
102	0xbb13c2ac	-0.0022546453
103	0xbc76aa0c	-0.015055191
104	0xbcbc8a46	-0.023015153
105	0x3db44c64	0.08803633
106	0x3d8cf9aa	0.06883557
107	0xbcd77529	-0.026300984
108	0x3d71713a	0.058945872
109	0xbc745058	-0.014911734
110	0x3bcc4d4e	0.0062348014
111	0x3d5009f4	0.050790742
112	0xbcd93345	-0.026513705
113	0x3c3fd365	0.011708115
114	0x3dbb505d	0.091461875
115	0x3dc8d782	0.0980673
116	0xbd1c611c	-0.03817855
117	0x3c6a2d7d	0.014293072
118	0x3dc956a0	0.098309755
119	0xbbd708fe	-0.0065623512
120	0xbd604b4a	-0.0547593
121	0x3b354468	0.0027659182
122	0x3d3d9236	0.046282016
123	0x3d89221a	0.066959575
124	0x3d2d6b50	0.04233867
125	0xbb2a899b	-0.002602196
126	0xbc113f95	-0.008865257
127	0x3dda02ac	0.10645041
128	0x3cce47d8	0.025180742
129	0x3dd76ecd	0.105191804
130	0x3d8ace50	0.06777632
131	0x3c7c20cd	0.01538868
132	0x3db7f35b	0.08981963
133	0x3b5b2ad8	0.0033442285
134	0x3db2ce87	0.08730798
135	0xbd5b328d	-0.053515006
136	0xbd57e8b5	-0.05271216
137	0xbc736bfa	-0.014857287
138	0xbdb2d95b	-0.087328635
139	0xbb90cea3	-0.0044191643
140	0x3d9b3158	0.07577771
141	0xbc1eb4ec	-0.00968669
142	0xbdbb2c87	-0.09139352
143	0x3d58c67c	0.052923664
144	0xbc71d8be	-0.014761148
145	0xbd0eaa07	-0.03483012
146	0xbcd91026	-0.026496958
147	0x3d8490d7	0.064729385
148	0x3d976ad4	0.07393423
149	0x3e19733d	0.14985366
150	0xbc319297	-0.010838172
151	0xbcc23f54	-0.023711838
152	0xbce4c2f0	-0.027924985
153	0x3d70d6db	0.058798652
154	0x3c77b012	0.015117662
155	0xbd7d7883	-0.061882507
156	0xbc96bb18	-0.01839976
157	0xbd30666a	-0.04306642
158	0x3d9002c4	0.070317775
159	0xbd620b7d	-0.055186737
160	0x3d9b0342	0.07568981
161	0x3ce81eff	0.028335093
162	0x3d3a8f82	0.045547016
163	0x3db30b74	0.08742419
164	0x3d541176	0.051774465
165	0x3c752868	0.014963247
166	0xbc580c03	-0.013186458
167	0x3d8eb9c5	0.069690265
168	0x3d2ec769	0.04267064
169	0x3d2dce34	0.04243298
170	0x3de9f1c1	0.11423064
171	0xbe030141	-0.12793447
172	0xbd631e05	-0.05544855
173	0xbd437731	-0.04772109
174	0x3d7912e1	0.06080902
175	0x39418d3e	0.00018458531
176	0xbdf416f9	-0.11918444
177	0x3d374875	0.044746835
178	0xbd92def8	-0.07171434
179	0x3d08e9ba	0.033426024
180	0xbd025b9d	-0.03182565
181	0x3d711399	0.05885658
182	0x3daddc4b	0.08489283
183	0xbc9a2666	-0.018817138
184	0xbdfe2e8c	-0.12411222
185	0xbd176145	-0.036957998
186	0x3c11d94a	0.008901903
187	0x3e2fa02f	0.17150949
188	0xbe034570	-0.12819457
189	0xbad1fccb	-0.0016020773
190	0xbb6815d9	-0.0035413413
191	0xbce1f5b9	-0.02758299
192	0xbd24bae3	-0.04021729
193	0xbd4fcdb7	-0.050733294
194	0x3deab273	0.11459818
195	0xbd42b987	-0.047540214
196	0xbd884012	-0.066528454
197	0xbd0f4e98	-0.034987062
198	0xbce0a8ed	-0.0274243
199	0xbd649902	-0.055809982
200	0xbb7473b9	-0.0037300421
201	0xbba7f737	-0.005125906
202	0xbd9e40c9	-0.077272005
203	0x3c75cdb9	0.015002661
204	0xbc4b8aae	-0.0124232005
205	0x3d017b5a	0.031611778
206	0xbda6a0ec	-0.08136162
207	0xbc86d1dd	-0.016457492
208	0xbd4100b0	-0.047119796
209	0xbcb4e59e	-0.022082146
210	0xbddcf5df	-0.10789084
211	0x3c346cfb	0.011012311
212	0xba8dd995	-0.0010822291
213	0x3d83d0bb	0.064362966
214	0x3df8a5c7	0.121409945
215	0x3cc56201	0.024094583
216	0x3cab9d59	0.020949053
217	0x3cb7cea9	0.02243741
218	0xbd605892	-0.054771967
219	0xbd88e9b4	-0.066852
220	0xbde19879	-0.1101541
221	0xbd1cb6d1	-0.038260285
222	0x3d7d0b29	0.06177822
223	0x3dcc93cc	0.099891275
224	0xbb87645d	-0.0041318373
225	0x3d4e7ec5	0.050413866
226	0xbd3689a5	-0.04456486
227	0xbd70381d	-0.058647264
228	0xbce4271d	-0.027850682
229	0xbd5c3e88	-0.053770572
230	0xbe318cf7	-0.1733893
231	0xbd401845	-0.046898145
232	0xbb837d51	-0.0040127416
233	0x3d4cdabb	0.050013285
234	0x3d267325	0.040637154
235	0xbd39b41b	-0.045337778
236	0xbcd7cbaf	-0.026342241
237	0x3d9b8b8b	0.07594975
238	0xbd66d8dd	-0.05635916
239	0xbd33652a	-0.04379765
240	0xbc569840	-0.013097823
241	0x3bb8b04f	0.005636252
242	0x3d01052d	0.031499077
243	0x3d81a90e	0.06331073
244	0x3d4d071f	0.05005562
245	0xbd275283	-0.040850174
246	0x3a9e6fe0	0.0012087785
247	0xbc49f17c	-0.012325641
248	0xbd749aa3	-0.059717786
249	0xbc79718c	-0.015224826
250	0xbb99d181	-0.0046941643
251	0x3d35ba09	0.04436687
252	0x3ba6c5a2	0.0050894776
253	0x3d9c2fb9	0.0762629
254	0xbcf0fd94	-0.02941779
255	0xbd15584e	-0.036461167

convs.1.bias f4 [32]
0	0xbd94763a	-0.072491124
1	0xbd53715a	-0.051621772
2	0xbd101640	-0.03517747
3	0xbd160e83	-0.036634933
4	0xbca4cefa	-0.020118225
5	0xbdfadf2d	-0.12249599
6	0xbd25ee2b	-0.040510338
7	0x3d8ae2bc	0.067815274
8	0x3c8d1ecd	0.017226601
9	0xbca9215f	-0.020645795
10	0x3c0ed6af	0.008718177
11	0xbce379da	-0.027768064
12	0xbd9c0efa	-0.07620044
13	0x3c8c2e4e	0.017111924
14	0x3d9f924a	0.07791574
15	0x3dfc2271	0.12311257
16	0xbc56d65f	-0.0131126335
17	0x3d384519	0.04498777
18	0x3d8a39eb	0.06749328
19	0x3cb163cb	0.02165403
20	0xbbecc033	-0.0072250604
21	0xbcda6343	-0.02665866
22	0xbd012bdf	-0.03153598
23	0xbd74c2b6	-0.059756003
24	0xbd02b34f	-0.031909283
25	0x3d8c7138	0.06857532
26	0xbb8f4683	-0.0043724193
27	0xbdd37b95	-0.10326306
28	0xbc953989	-0.018215911
29	0xbbf48dee	-0.0074632084
30	0xbcdc5af0	-0.026898831
31	0x3d0a4b30	0.03376311

convs.2.basis f4 [4, 32, 32]
0	0x3ce71bc2	0.028211478
1	0xbb8130e8	-0.0039425977
2	0x3cc1e931	0.023670765
3	0x3d825ba2	0.06365134
4	0xbd8c6cf2	-0.06856717
5	0xbc7eae88	-0.015544541
6	0x3c1d9c5c	0.0096197985
7	0x3d68a55b	0.05679832
8	0xbd015b0b	-0.031580966
9	0x3c6f50b0	0.01460664
10	0xbcb8fa6a	-0.022580344
11	0x3d19d648	0.03755787
12	0x3d325f6c	0.043548033
13	0x3cb1a9a7	0.021687342
14	0x3cdee68b	0.02720954
15	0xbc151c13	-0.009100932
16	0x3a84278f	0.001008259
17	0x3d07ff2a	0.033202328
18	0xbd52ad4e	-0.051434807
19	0xbb3ebfd1	-0.002910603
20	0xbd0853f9	-0.033283208
21	0x3d00c952	0.031441994
22	0x3d22d719	0.039755914
23	0xbc3d154b	-0.011540721
24	0xbd61d9af	-0.05513924
25	0x3d44c3e1	0.048038367
26	0x3bf4d16d	0.0074712546
27	0x3d121944	0.035668626
28	0x3d4524f6	0.04813095
29	0xbd2a9eb0	-0.041655242
30	0x3a9cfd6c	0.0011977381
31	0xbd39103b	-0.045181494
32	0xbcc8b77f	-0.02450156
33	0x3d78e0e0	0.060761333
34	0xbc1586b5	-0.009126355
35	0xb853ffb1	-5.054445e-05
36	0x3ba470ae	0.0050183153
37	0xbce4d18e	-0.027931955
38	0xbb2e01b0	-0.0026551299
39	0xba87b75d	-0.0010354329
40	0x3d057067	0.0325779
41	0x3cd49463	0.025949663
42	0x3c9217b9	0.017833577
43	0xbbcf57a7	-0.0063275876
44	0xbcabd8c0	-0.020977378
45	0xbcded280	-0.027199984
46	0x3ca2786f	0.019832818
47	0x3d17ba55	0.037042934
48	0xbbbdb253	-0.00578908
49	0xbb612bf0	-0.0034358464
50	0xbd25e6f8	-0.040503472
51	0x3ca07f41	0.01959193
52	0x3d80024e	0.062504396
53	0x3d87f5da	0.06638689
54	0x3d874dee	0.06606661
55	0xbccb07d6	-0.02478401
56	0x3d7834c8	0.06059721
57	0xbde8dd6c	-0.11370358
58	0xbcdb760b	-0.026789686
59	0x3beae1ef	0.0071680467
60	0x3d1dee1f	0.038557168
61	0xbd9bc8d8	-0.07606667
62	0x3c70a712	0.01468827
63	0x3cb576fd	0.022151465
64	0xbd2a6c73	-0.04160733
65	0x3d719b8e	0.05898624
66	0xbcefecb5	-0.029287675
67	0x3c9c4a54	0.019078411
68	0xbc9bbdd5	-0.019011417
69	0xbc90713a	-0.017632116
70	0xbcc324fd	-0.023821348
71	0xbd77fbdd	-0.06054293
72	0xbc35c00a	-0.011093149
73	0x3c392be0	0.0113019645
74	0x3d5a9fd3	0.053375077
75	0x3d9f6415	0.07782761
76	0xba71ebe5	-0.00092285714
77	0x3d61e95b	0.055154186
78	0x3d2f5d3c	0.042813525
79	0xbc4373aa	-0.011929432
80	0x3b8c91ff	0.004289865
81	0x3d8565c9	0.065135546
82	0x3bfdf550	0.007750191
83	0xbc907f2c	-0.017638765
84	0xbb4fdf24	-0.0031718696
85	0x3d968855	0.07350222
86	0x3d8bcf7d	0.068266846
87	0xbcd617b5	-0.026134351
88	0x3dc298a9	0.09501774
89	0xbe076b65	-0.13224562
90	0xbd09dbb7	-0.033656802
91	0x3cf45630	0.029826254
92	0x3b05c7ec	0.0020413352
93	0xbc257205	-0.010097985
94	0xbb2a2db8	-0.0025967192
95	0x3d54a1ee	0.05191224
96	0xbc829a24	-0.01594264
97	0xbca2cfbe	-0.01987445
98	0x3b513ae7	0.0031925978
99	0x3c1c2e96	0.009532591
100	0x3d243f4d	0.04009943
101	0xbceb49c7	-0.028721703
102	0x3d5c0ec1	0.053725008
103	0x3da67fe7	0.08129864
104	0xbd04ce82	-0.032423504
105	0xbd8470d5	-0.064668335
106	0xbbbc0a88	-0.00573856
107	0xbc8ab76e	-0.01693317
108	0xbc935226	-0.017983507
109	0xbd86240b	-0.065498434
110	0xbd4a4600	-0.049383163
111	0x3d03e263	0.03219832
112	0x3c997d92	0.018736634
113	0xbd8aea18	-0.06782931
114	0x3d93bca5	0.072137155
115	0x3ab3a217	0.0013704923
116	0x3bcd550d	0.0062662424
117	0xbdbeb391	-0.09311593
118	0xbcd8e970	-0.0264785
119	0x3ce7d41d	0.028299386
120	0xbbafbfe5	-0.005363452
121	0x3c02b297	0.007977149
122	0xbd9c11de	-0.076205954
123	0xbc10b8a9	-0.008833089
124	0x3cde86e1	0.027163925
125	0x3cca0f7f	0.024665592
126	0xbdbe476e	-0.09290968
127	0x3d676c43	0.05649973
128	0xbbee2823	-0.0072679683
129	0x3da173b7	0.07883399
130	0xbce38941	-0.027775409
131	0xbc85f625	-0.016352722
132	0x3d13fc8d	0.036129523
133	0xbd763a5c	-0.06011425
134	0xbd5e59d0	-0.05428487
135	0xbbb245eb	-0.005440464
136	0xbd7298be	-0.059227698
137	0x3ce0197d	0.027355904
138	0x3cbc3381	0.022973778
139	0x3cafc056	0.021454018
140	0x3ca4301c	0.020042472
141	0x3d32213a	0.04348872
142	0x3cd82c72	0.02638838
143	0x3d5d3ae6	0.054011248
144	0xbd0b76bc	-0.03404878
145	0xbc21969b	-0.009862567
146	0xbcf43894	-0.029812135
147	0x3c277e3f	0.0102229705
148	0xbd905e6e	-0.07049261
149	0x3db610d1	0.08889926
150	0xbc839a9f	-0.01606494
151	0xbcb736d5	-0.022365013
152	0xba5c9cac	-0.000841568
153	0xbb6a4c72	-0.0035751131
154	0xbd06c5de	-0.032903545
155	0x3bf91707	0.007601622
156	0x3dc0645f	0.09394144
157	0xbca5db09	-0.020246046
158	0xbcc6de7a	-0.024276007
159	0x3c2bb2e9	0.010479667
160	0x3c0fb4d6	0.008771142
161	0x3bf22ee8	0.0073908456
162	0x3ba7f7a1	0.005125955
163	0x3d2027a7	0.039100315
164	0xbd1ad186	-0.037797473
165	0xbabd3c19	-0.0014437466
166	0x3d38afbc	0.04508947
167	0x3c092a83	0.008371952
168	0x3c5a9fbf	0.0133437505
169	0x3d6a4349	0.057193074
170	0x3b6beced	0.0035999373
171	0x3d36b9e9	0.04461089
172	0xbd45c29c	-0.048281297
173	0xbc64eef1	-0.013972984
174	0x3d5f35e4	0.054494753
175	0x3d2cd1af	0.042192157
176	0xbc7b99ca	-0.01535649
177	0x3d7529a1	0.059854154
178	0x3c89a7f7	0.016803725
179	0x3a930cf6	0.0011219073
180	0x3d0745d5	0.03302558
181	0x3d70f2b4	0.05882521
182	0x3bb7eb7b	0.0056127883
183	0xbd22d7d4	-0.03975661
184	0x3cd88204	0.026429184
185	0x3c37624e	0.011192871
186	0x3c20951b	0.0098011745
187	0x3d0e207f	0.03469896
188	0x3d13c07a	0.03607223
189	0xbd27640c	-0.040866897
190	0x3d6d421e	0.057924382
191	0x3ce59d88	0.028029218
192	0x3d590376	0.052981816
193	0x3d3cf57d	0.046132553
194	0xbd5ce6d3	-0.05393107
195	0x3ccbda46	0.024884354
196	0x3d57c2d3	0.052676033
197	0x3b065be9	0.002050156
198	0xbdc1a3be	-0.094550595
199	0xbdcc8945	-0.099871196
200	0xbd29e806	-0.04148104
201	0x3ba126f9	0.004917976
202	0x3d294471	0.041325036
203	0x3df9e8ca	0.12202604
204	0x3bf84e32	0.007577681
205	0xbcf42a0f	-0.029805211
206	0xba9efdde	-0.0012130102
207	0x3d324b53	0.043528866
208	0xbc65a10b	-0.014015446
209	0x3d5bb217	0.053636637
210	0x3c0ac486	0.008469706
211	0xbd1d2a4a	-0.038370408
212	0xbdaad8b4	-0.08342114
213	0xbd4bcd4e	-0.04975634
214	0x3d40c57b	0.047063332
215	0xbcbce8d6	-0.023060244
216	0xbc0d4407	-0.008622176
217	0xbcb2df21	-0.021834912
218	0x3dc5f290	0.09665406
219	0x3b7d55fe	0.0038655992
220	0xbd88da2d	-0.06682239
221	0xbcaa315a	-0.020775486
222	0xba445854	-0.00074899686
223	0xbb7096a6	-0.0036710887
224	0x3d91c2fc	0.071172684
225	0xbb8af0b9	-0.004240122
226	0xbcf7d4b0	-0.030252784
227	0xbcd2cb2a	-0.025731642
228	0x3d4a0dd0	0.04932958
229	0xbcbeb4fe	-0.023279663
230	0x3d7e2b7c	0.06205319
231	0xbd702fd5	-0.058639366
232	0xbb148f21	-0.002266832
233	0xbb8c4fd4	-0.004281977
234	0xbce0f7aa	-0.027461845
235	0x3bc5154d	0.006014502
236	0xbcc596a6	-0.024119686
237	0xbd0a9418	-0.03383264
238	0x3c84db42	0.016217832
239	0xbc253223	-0.010082754
240	0xbd88ca99	-0.066792674
241	0x3d267521	0.040639047
242	0xbd041e6d	-0.03225558
243	0xbc3860a0	-0.011253506
244	0xbcdbdb55	-0.026837984
245	0xbc60d38a	-0.01372231
246	0x3d047ddb	0.032346588
247	0xbdcbcc7e	-0.09951113
248	0x3dd6a5f1	0.104808696
249	0xbdcab415	-0.09897629
250	0x3c530071	0.012878523
251	0xbccae30b	-0.024766466
252	0x3ca9b968	0.020718291
253	0x3d4241d5	0.047426064
254	0xbd9d93b2	-0.07694186
255	0x3cd85c6b	0.026411256

convs.2.att f4 [10, 4]
0	0x3ca9170b	0.02064087
1	0x3bd298c7	0.006426904
2	0x3c721305	0.014775042
3	0x3cc4bd0c	0.024015926
4	0x3ba98d51	0.005174317
5	0x3b8821d3	0.004154423
6	0x3a8fcf14	0.0010971748
7	0x3c9925e5	0.018694827
8	0x3c0cf7b1	0.008603976
9	0xbb2257cf	-0.0024771576
10	0x3bda56af	0.0066631655
11	0x3c4c34b1	0.0124637345
12	0x3ca8abf7	0.020589812
13	0xbc93ace5	-0.018026778
14	0x3c892c9a	0.0167449
15	0x3cd4f6c4	0.025996573
16	0x3bd8c43e	0.0066151908
17	0xbb86aaa1	-0.004109696
18	0xbc25ed2a	-0.010127345
19	0x3c850bec	0.016241036
20	0xbc3b3f77	-0.011428705
21	0xbaf6e5fc	-0.0018836851
22	0xbc7e2d21	-0.015513689
23	0xbc6a6d80	-0.014308333
24	0xbb132406	-0.0022451892
25	0xbb28074d	-0.0025639117
26	0xbaad3dc5	-0.0013217261
27	0xbc1f01f4	-0.0097050555
28	0x3be30f4c	0.0069293138
29	0xb96bf4a1	-0.00022502478
30	0xba3bb5e5	-0.0007160588
31	0x3b95abb6	0.0045675887
32	0x3b7bcbb1	0.003842097
33	0xbb0967f2	-0.0020966497
34	0x3c34ee98	0.011043213
35	0x3c809e31	0.015700432
36	0xbbec8715	-0.0072182515
37	0x3aabe952	0.00131158
38	0xbc5f8140	-0.013641655
39	0xbc256258	-0.010094248

convs.2.root f4 [32, 32]
0	0xbcdedf3d	-0.027206058
1	0xbdad44eb	-0.08460411
2	0x3df945e6	0.12171535
3	0xbd29e927	-0.041482117
4	0x3c732af7	0.014841787
5	0xbdaac5e4	-0.08338526
6	0xbd932536	-0.07184832
7	0xbc41b729	-0.011823454
8	0x3d9c836e	0.07642256
9	0xbd104f20	-0.03523171
10	0x3ce05bea	0.027387578
11	0x3c9ac25f	0.018891511
12	0xbc066672	-0.008203136
13	0x3d6e48fc	0.058175072
14	0xbd5a2695	-0.05325945
15	0xbd56588d	-0.052330542
16	0x3b6b4d96	0.00359044
17	0x3ca0d144	0.019631036
18	0x3caceb65	0.021108339
19	0x3cbb096d	0.022831643
20	0xbcb4f0ee	-0.02208754
21	0xbdb869dd	-0.09004567
22	0xbd41b699	-0.04729328
23	0x3d0c2cc1	0.03422237
24	0xbe074c52	-0.13212708
25	0x3ce26e64	0.027640529
26	0x3d437f34	0.047728732
27	0x3b3b38f1	0.0028567875
28	0x3cbc1b51	0.022962244
29	0xbad9a5a2	-0.0016605149
30	0xbd694bd9	-0.0569571
31	0xbcfa992e	-0.03059062
32	0xbcea71d6	-0.028618734
33	0xbd324c7d	-0.043529976
34	0xbd5f6617	-0.05454072
35	0x3dd02860	0.10163951
36	0xbccac083	-0.02475
37	0x3ca423e2	0.020036642
38	0x3ced4133	0.028961753
39	0xbd8ebe16	-0.0696985
40	0x3bc6ddb5	0.00606891
41	0x3d1cafbd	0.038253535
42	0xbd40ee10	-0.047102034
43	0xbd9c40d3	-0.07629552
44	0xbd308271	-0.04309315
45	0x3c0995e3	0.008397552
46	0xbc146377	-0.009056917
47	0x3ba5e2ad	0.0050624222
48	0xbd516934	-0.05112572
49	0x3c4fe85a	0.012689674
50	0xbce8232c	-0.028337084
51	0xbd526a2b	-0.05137078
52	0x3d93911f	0.07205414
53	0x3d5e22bf	0.054232355
54	0xbb793623	-0.0038026653
55	0x3d318a11	0.04334456
56	0x3bddbee2	0.00676714
57	0xbdce5c0a	-0.10076149
58	0xbd6aaf5e	-0.05729615
59	0xbd89cf85	-0.06729034
60	0xbd12fa28	-0.0358831
61	0xbb47bef8	-0.0030478816
62	0x3d177ed2	0.03698618
63	0x3cedbc87	0.02902056
64	0xbc81c70a	-0.01584198
65	0xbde75936	-0.112963125
66	0x3b737b40	0.003715232
67	0x3cb1d39e	0.021707352
68	0x3c4d9030	0.012546584
69	0xbdd81295	-0.10550419
70	0xbb7170a1	-0.0036840814
71	0x3cb25036	0.021766763
72	0x3d4b2973	0.049600076
73	0xbbad287f	-0.0052843685
74	0x3d767dde	0.06017863
75	0xbda1981a	-0.07890339
76	0xbc93238c	-0.017961286
77	0xbdad93e3	-0.08475473
78	0x3ce82bf9	0.02834128
79	0xbd3af81d	-0.045646776
80	0x3c0a8cea	0.008456448
81	0x3cc50a60	0.024052799
82	0x3cb69e03	0.022292143
83	0x3bb5747e	0.0055375686
84	0xbc281e2c	-0.0102611
85	0xbd834ebc	-0.06411502
86	0xbcb406f0	-0.021975964
87	0x3d7cfb37	0.061763015
88	0xbd457ee5	-0.04821672
89	0x3d17fcee	0.037106447
90	0x3bec06e0	0.007202968
91	0x3ce84d65	0.028357217
92	0x3be42390	0.006962247
93	0x3c770feb	0.015079479
94	0x3c00ce1b	0.007861639
95	0xbd63d1ec	-0.05562012
96	0x3d1da605	0.038488407
97	0xbd6d0a34	-0.05787106
98	0x3d69addd	0.057050575
99	0xbd5cee1c	-0.053938016
100	0xbc4b6384	-0.012413863
101	0x3ca37de8	0.019957498
102	0x3ba67b26	0.0050805984
103	0x3ce0907f	0.027412651
104	0xbc1bf315	-0.0095184045
105	0x3ccd4ac8	0.025060073
106	0x3db871c5	0.09006075
107	0x3d88a568	0.06672174
108	0x3cf96ed9	0.030448364
109	0x3c2f5afd	0.010702846
110	0x3d1fae95	0.038984854
111	0xbc1d96e8	-0.009618498
112	0x3c81f8f9	0.01586579
113	0x3babadbb	0.005239216
114	0xbcfc278a	-0.030780572
115	0xbd08f54c	-0.03343706
116	0xbc2f7680	-0.010709405
117	0xbdb6c372	-0.08923997
118	0x3d762ca3	0.060101163
119	0xbd39a054	-0.045318916
120	0xbcc7541c	-0.024332099
121	0xbb36a18a	-0.002786728
122	0x3d03e4d5	0.032200653
123	0x3d19525e	0.037432067
124	0xbc1cfeff	-0.00958228
125	0xbd20824d	-0.039186765
126	0xbd058ba1	-0.032603864
127	0x3aa4d197	0.001257467
128	0x3d6473d0	0.05577451
129	0x3d3bd8d3	0.045861077
130	0xbcdb571e	-0.02677494
131	0x3ce51bdb	0.027967384
132	0xbc8c13af	-0.01709923
133	0x3d8e582d	0.06950412
134	0x3ca6daf8	0.020368084
135	0x3560a243	8.3682625e-07
136	0x3c985de3	0.018599456
137	0xbc5eeead	-0.013606709
138	0x3be9e72c	0.0071381535
139	0xbd0c70b9	-0.03428719
140	0x3d87c74b	0.06629809
141	0x3cccc0ba	0.024994243
142	0x3d9d5cdc	0.07683727
143	0x3c81cadb	0.0158438
144	0x3d41b0c2	0.04728771
145	0x3c6c812a	0.014435092
146	0xbd72454d	-0.05914812
147	0xbc82d4e5	-0.015970657
148	0x3cd6c514	0.026217021
149	0xbd4fe2a4	-0.05075325
150	0x3d69802c	0.057007
151	0x3cf79263	0.03022117
152	0x3d93b99e	0.07213138
153	0xbbec63ec	-0.00721406
154	0xbc23a307	-0.009987599
155	0xbcce3acd	-0.025174523
156	0xbc246b79	-0.010035389
157	0x3d15d727	0.03658214
158	0x3d418c30	0.047252834
159	0x3ca24d16	0.019812148
160	0xbd74e1b9	-0.05978558
161	0xbdd6ee2a	-0.10494645
162	0xbd129e94	-0.035795763
163	0x3cd9247a	0.026506651
164	0x3c3d9b4d	0.011572671
165	0x3ce6ab34	0.028157808
166	0xbd8931ac	-0.06698927
167	0xbd217342	-0.03941656
168	0x3cb1bc14	0.021696128
169	0x3cad9006	0.02118684
170	0x3da9dabd	0.08293674
171	0x3cf1a60c	0.029498123
172	0xbc1aacf2	-0.009440647
173	0xbc7560ee	-0.014976723
174	0xbcd65dee	-0.026167836
175	0xbd35a817	-0.044349756
176	0x3c3b060f	0.011415019
177	0x3cb9d093	0.022682464
178	0x3c80b119	0.015709447
179	0xbd698dee	-0.05702012
180	0xbceda07f	-0.029007195
181	0xbdab9c4c	-0.08379421
182	0xbb37326d	-0.002795364
183	0xbd55a839	-0.052162383
184	0xbd591e2b	-0.053007286
185	0x3c232bc7	0.009959168
186	0x3db614b2	0.08890666
187	0xbc081192	-0.00830497
188	0x3ce5820e	0.028016116
189	0xbc097dec	-0.0083918385
190	0x3cb70cf4	0.022345044
191	0xbceab227	-0.028649403
192	0xbca67dd3	-0.02032367
193	0x3d2f93d9	0.042865608
194	0xbd53dd30	-0.051724613
195	0x3db319e2	0.08745171
196	0x3c6b1e0d	0.014350426
197	0x3d7a40ab	0.06109683
198	0x3cc9a6de	0.024615701
199	0xbb38b8b0	-0.0028186254
200	0x3c243eab	0.010024707
201	0xbc961abd	-0.018323297
202	0xbd5ae2c9	-0.053438935
203	0xbd1eac5d	-0.038738597
204	0xbd065211	-0.03279311
205	0x3c2feafa	0.010737175
206	0x3b92d5a2	0.0044810334
207	0xbc9617cf	-0.0183219
208	0x3ce34b0d	0.027745748
209	0xbc9b435e	-0.018953022
210	0xba962286	-0.0011454381
211	0x3caf927e	0.021432158
212	0x3d736f92	0.059432574
213	0x3e35b420	0.17744493
214	0xbc9139fd	-0.017727846
215	0x3b3a0165	0.002838218
216	0x3dbddd62	0.09270741
217	0xbd39b564	-0.045339003
218	0xbcb49353	-0.022042906
219	0xbba7a8db	-0.0051165647
220	0x3c0040e3	0.00782797
221	0x3bd5927b	0.006517706
222	0x3c5ddb25	0.013541018
223	0xbbe7b378	-0.007070955
224	0x3bbdc0af	0.005790792
225	0xbd75135b	-0.059832912
226	0xbc152173	-0.009102213
227	0x3c296416	0.010338804
228	0x3c94b5b0	0.018153042
229	0xbd36f911	-0.044671122
230	0x3c69be5d	0.014266578
231	0xbd0df190	-0.0346542
232	0x3d1f13ad	0.038837124
233	0xbb48445b	-0.003055832
234	0x3bcf71d2	0.006330707
235	0x3d3b122b	0.045671623
236	0xbc6310de	-0.013859002
237	0x3cde27e2	0.027118627
238	0xbbf1a1be	-0.0073740175
239	0xbc4b0239	-0.012390667
240	0xbd7529b1	-0.059854213
241	0xbc221709	-0.009893187
242	0x3c5f727d	0.013638136
243	0x3bcfb2f0	0.0063384697
244	0xbc8a3329	-0.016870098
245	0xbbf7c375	-0.007561142
246	0xbd354c1c	-0.044262037
247	0x3c1935e0	0.009351224
248	0xbc9f462c	-0.01944264
249	0xbd0081ce	-0.03137379
250	0x3c880f2a	0.016608793
251	0x38d79aeb	0.000102808546
252	0x3d38e06c	0.0451359
253	0xbc12ac69	-0.008952239
254	0x3c0b340b	0.008496295
255	0x3bd2a00d	0.006427771

convs.2.bias f4 [32]
0	0x3b35f844	0.0027766386
1	0xbcc92d9d	-0.024557883
2	0x3c955e96	0.018233579
3	0xbcf2f791	-0.029659064
4	0xbc5ed768	-0.013601162
5	0xbc68b0be	-0.014202295
6	0xbc1bcf4e	-0.0095098745
7	0xbc8d27ae	-0.017230835
8	0xbb3be933	-0.0028672933
9	0x3b827998	0.0039817803
10	0x3cfe4bf9	0.031042086
11	0x3c940e5a	0.01807325
12	0x3c6493d6	0.013951262
13	0xbba78d10	-0.0051132515
14	0x3c5c8d57	0.013461432
15	0xbbb57c28	-0.005538482
16	0xbc160f2a	-0.009158889
17	0xbc18e059	-0.009330832
18	0xbc1621b2	-0.009163307
19	0xbc3b398b	-0.0114272935
20	0xbceb3c7f	-0.02871537
21	0xbd8b43e3	-0.06800058
22	0x3c94d0a3	0.018165892
23	0xbc396a5b	-0.011316861
24	0xbcd15002	-0.025550846
25	0x3850bec7	4.976874e-05
26	0x3b42124d	0.002961296
27	0x3c572985	0.013132458
28	0xbbe3f9a7	-0.006957251
29	0xb84536b4	-4.7019406e-05
30	0x3b26f40a	0.0025475048
31	0x3c194648	0.009355135
