results/flixster_testmode/model_checkpoint17.pth (torch_old, 199981 bytes, 19 tensors)

convs.0.basis f4 [4, 4, 32]
0	0x3dd37d38	0.10326618
1	0xbce48f85	-0.027900467
2	0x3d95e9d4	0.0731999
3	0x3d85313e	0.06503533
4	0xbd6183c8	-0.055057317
5	0x3e548024	0.20752007
6	0xbdde604a	-0.108582094
7	0xbe01c1e5	-0.12671621
8	0x3de5797b	0.11204811
9	0xbe3429dc	-0.17594093
10	0x3e1232af	0.14277147
11	0xbe200629	-0.1562735
12	0xbe5dad64	-0.21648175
13	0x3e0511cc	0.1299507
14	0x3e0fb24e	0.14032862
15	0xbdbdf919	-0.09276027
16	0xbd4b04c2	-0.049565084
17	0xbdb9de1e	-0.090755686
18	0xbe5f7aff	-0.21824263
19	0x3b6d903f	0.0036249307
20	0x3d0825fa	0.033239342
21	0x3e33e57d	0.17568012
22	0x3d74074d	0.059577275
23	0xbdb65cc4	-0.089044124
24	0x3d882472	0.066475764
25	0xbe21e439	-0.15809716
26	0x3dc191ab	0.09451612
27	0x3d340bad	0.043956447
28	0x3e17ac97	0.14811932
29	0x3e915cbf	0.28391072
30	0xbe801c59	-0.25021628
31	0x3ca81665	0.020518491
32	0xbe36167f	-0.17782019
33	0xbe0317c0	-0.12802029
34	0xbdfb1e07	-0.12261587
35	0xbca8d935	-0.020611385
36	0xbce5766a	-0.028010566
37	0x3e88bd33	0.26706848
38	0xbdaab40d	-0.08335123
39	0xbd9ba538	-0.07599872
40	0xbe68f08d	-0.22748013
41	0xbde26e86	-0.11056237
42	0x3df8e840	0.12153673
43	0xbe555da1	-0.20836498
44	0xbd9089b8	-0.07057518
45	0x3ba66b27	0.0050786915
46	0x3c21156f	0.00983177
47	0xbdee7757	-0.11643856
48	0xbdf3ad29	-0.11898262
49	0xbe56c566	-0.20973739
50	0x3dde5d92	0.10857691
51	0xbe082c75	-0.13298209
52	0xbe456033	-0.19274978
53	0x3e08a72d	0.13345022
54	0xbdb9a47b	-0.09064575
55	0xbd890d16	-0.06691949
56	0x3d234274	0.039858297
57	0xbd62a2fa	-0.055331208
58	0x3beec13e	0.00728622
59	0x3d0451d7	0.03230461
60	0x3e039b67	0.1285225
61	0x3e0795d0	0.13240743
62	0xbe569eb4	-0.20958978
63	0x3cf7d2e9	0.030251937
64	0xbda7fef9	-0.08202929
65	0xbdfae3aa	-0.12250455
66	0x3de47c3d	0.11156509
67	0x3e100ce5	0.14067419
68	0x3bf9be40	0.0076215565
69	0xbe021ee2	-0.12707093
70	0x3d91e9d2	0.07124676
71	0xbe74ec76	-0.23918328
72	0xbe92c285	-0.28664032
73	0xbd82be45	-0.06383947
74	0xbd8d4fd2	-0.0689999
75	0x3d8c84aa	0.06861241
76	0x3e71b222	0.23603109
77	0x3d406b74	0.046977475
78	0x3d3941e9	0.045228872
79	0xbe360b3f	-0.17777728
80	0x3d52e453	0.05148728
81	0xbd90c7c4	-0.07069352
82	0x3df11338	0.11771244
83	0x3e207342	0.15668967
84	0x3d8e1597	0.06937712
85	0x3dcd0bd6	0.10012023
86	0xbf156669	-0.5835939
87	0xbed85d71	-0.4225879
88	0xbeaaae4b	-0.333361
89	0x3be354db	0.006937606
90	0xbe1307a8	-0.1435839
91	0xbc95506a	-0.018226821
92	0xbdd286c2	-0.10279609
93	0x3d6669a5	0.056253094
94	0x3c780474	0.01513778
95	0x3da50624	0.08057812
96	0x3e0d1c2b	0.13780276
97	0xbc918566	-0.017763805
98	0xbce311aa	-0.027718384
99	0xbdd93890	-0.106064916
100	0xbe3dc10f	-0.18530677
101	0xbe929ce4	-0.28635323
102	0xbd04870f	-0.032355364
103	0xbafedec4	-0.0019445051
104	0x3eb8d128	0.36097074
105	0x3eebb758	0.46038318
106	0x3ef2d171	0.47425416
107	0x3e20530e	0.15656683
108	0x3dd12904	0.10212901
109	0x3d439b9a	0.047755815
110	0xbdacd9fd	-0.084400155
111	0xbd01746e	-0.031605177
112	0xbead8081	-0.33887103
113	0xbe14687d	-0.14492984
114	0xbdd2eef1	-0.10299481
115	0xbbf50e38	-0.0074785016
116	0xbd022b45	-0.031779546
117	0xbede684b	-0.43438944
118	0xbe009942	-0.12558463
119	0x3d97f3c4	0.074195415
120	0xbdb370a1	-0.08761717
121	0x3e2029f7	0.15641008
122	0xbe352364	-0.17689282
123	0xbe2a8ba1	-0.16654827
124	0x3b3bc93b	0.0028653878
125	0x3e28ece9	0.16496624
126	0x3e0ce303	0.13758473
127	0x3d9bff6e	0.07617079
128	0x3c80e24b	0.015732905
129	0xbce7b31d	-0.02828365
130	0x3d1b6edd	0.037947524
131	0x3dc414eb	0.09574302
132	0xbd9db628	-0.07700759
133	0x3e1e997e	0.1548824
134	0xbce39fd2	-0.02778617
135	0xbda2da4a	-0.079517916
136	0xbc9a7403	-0.018854147
137	0xbe0874ff	-0.1332588
138	0x3d847101	0.06466866
139	0xbd3de0f1	-0.0463571
140	0xbe1be30b	-0.15223329
141	0x3d9d492f	0.07679974
142	0x3e1527b2	0.14565924
143	0xbe35a883	-0.17740063
144	0xbda57f55	-0.08080927
145	0xbdcab76c	-0.09898266
146	0xbde3d82e	-0.111252174
147	0xbcffcc78	-0.031225428
148	0x3ba547c3	0.005043955
149	0x3e2c25e9	0.16811337
150	0x3ddfd8db	0.10930034
151	0xbdf9b88e	-0.12193404
152	0x3d5233a2	0.051318772
153	0xbddd0c5d	-0.10793374
154	0x3dc193ec	0.09452042
155	0x3c427b43	0.011870208
156	0x3d44dc32	0.048061557
157	0x3e63409e	0.22192618
158	0xbe4ce5d8	-0.20009553
159	0x3c36c796	0.011155983
160	0xbe00c0b7	-0.12573515
161	0xbd725364	-0.05916156
162	0xbe193c22	-0.14964345
163	0x3d9c2cf0	0.07625759
164	0xbd06a931	-0.032876197
165	0x3e5c9790	0.21542192
166	0xbdc24d67	-0.094874196
167	0xba8cd92d	-0.0010745876
168	0xbdeaf57b	-0.11472603
169	0xbdd780ae	-0.105225906
170	0x3dea0d95	0.11428372
171	0xbe5bb047	-0.21453963
172	0xbd9c0648	-0.076183856
173	0xbc28523c	-0.010273512
174	0x3dd63d0f	0.10460865
175	0xbd821621	-0.06351877
176	0xbdf716b8	-0.1206488
177	0xbe24d968	-0.16098559
178	0x3c70ed21	0.014704973
179	0xbd762200	-0.06009102
180	0xbe2fff18	-0.17187154
181	0x3dee5cef	0.116388194
182	0xba55ec8c	-0.00081605534
183	0xbcfb46c4	-0.030673392
184	0x3dacbeee	0.084348544
185	0xbd7aba6b	-0.06121294
186	0x3d0484d0	0.032353222
187	0x3cd4b4a2	0.025965039
188	0x3df5d83e	0.120041355
189	0x3e4a78aa	0.19772592
190	0xbe311e55	-0.17296727
191	0x3d64f9a3	0.055902135
192	0xbd130f3a	-0.035903193
193	0xbbf57dae	-0.007491789
194	0xbdc7f126	-0.09762792
195	0x3d4bfc7b	0.04980133
196	0x3d99279d	0.07478259
197	0x3e09e802	0.1346741
198	0x3ca4a12d	0.020096386
199	0xbe2f9199	-0.17145385
200	0xbf01c673	-0.50693434
201	0x3d06cc0b	0.032909434
202	0xbe31194d	-0.17294808
203	0xbdad4666	-0.08460693
204	0x3e7b0946	0.24515256
205	0xbc494eb1	-0.012286828
206	0xbe434d21	-0.19072391
207	0xbe80f268	-0.2518494
208	0x3e49bf72	0.19701937
209	0xbd7cc1e1	-0.061708335
210	0x3e0fbf7f	0.14037894
211	0x3e2cb656	0.1686643
212	0xbe071561	-0.13191749
213	0xbd8ed3c8	-0.06973988
214	0xbf0f3952	-0.5594684
215	0xbeca4487	-0.39505407
216	0xbe8fb161	-0.28065017
217	0x3d01d8cf	0.031700905
218	0x3d5e4ebd	0.05427431
219	0xbd96758d	-0.0734664
220	0xbcff15e4	-0.031138368
221	0xbd36bfe8	-0.04461661
222	0xbce708ec	-0.028202496
223	0xb9a66ba0	-0.00031742174
224	0x3b0bbcf8	0.002132235
225	0x3e327e3d	0.17430969
226	0xbb79e6a9	-0.003813187
227	0x3c013925	0.0078871595
228	0x3e147c08	0.14500439
229	0xbe32c49c	-0.17457813
230	0x3d0b6e42	0.034040697
231	0xbe432862	-0.19058374
232	0x3e6ed68e	0.23324034
233	0x3eb67a12	0.35640007
234	0x3ebb29f4	0.36555445
235	0xbee4cb35	-0.44686285
236	0xbe085cf7	-0.13316713
237	0xbd51db2a	-0.0512344
238	0xbddc9c17	-0.10771959
239	0x3d0c7335	0.034289557
240	0xbe56c410	-0.2097323
241	0xbe2da355	-0.16956837
242	0xbe33064b	-0.1748287
243	0xbd79e388	-0.061008006
244	0x3cbbb773	0.022914624
245	0xbebbe8d0	-0.3670106
246	0x3e64ba17	0.22336613
247	0x3d864167	0.06555443
248	0x3dcdd1aa	0.10049756
249	0x3dee9db8	0.11651176
250	0x3e1237fa	0.14279166
251	0xbcc10a32	-0.023564432
252	0xbbe8e23f	-0.0071070488
253	0x3df136d7	0.11778038
254	0xbe080db6	-0.1328648
255	0xbe1693e1	-0.14704849

convs.0.att f4 [10, 4]
0	0xbdb35822	-0.087570444
1	0xbe2b4ffc	-0.1672973
2	0x3e7f5058	0.24932992
3	0x3dd75a82	0.1051531
4	0xbe0d4142	-0.13794425
5	0xbd777326	-0.06041255
6	0x3e8c14b9	0.2735956
7	0x3d87b1c6	0.066257045
8	0xbe3e9fed	-0.18615694
9	0x3e06cd10	0.13164163
10	0x3e8bb53c	0.27286708
11	0x3d702f96	0.05863913
12	0xbe45f113	-0.19330244
13	0x3e37484c	0.17898673
14	0x3e8cb7f3	0.27484092
15	0x3d20327a	0.03911064
16	0xb9b566a0	-0.00034599472
17	0x3ca54421	0.020174088
18	0x3e894404	0.26809704
19	0x3e07fe44	0.13280588
20	0xbd59d7e8	-0.05318442
21	0x3e7a34b8	0.24434173
22	0x3e96c090	0.2944379
23	0x3e1ac7cb	0.15115277
24	0x3bfeb997	0.007773589
25	0x3e6e3f23	0.23266272
26	0x3e42c2ac	0.19019574
27	0x3de4f751	0.11179984
28	0x3dc1f614	0.09470764
29	0x3e6dd0ff	0.23224257
30	0x3e2d2681	0.1690922
31	0x3dd4673e	0.103712544
32	0x3e2aca4e	0.16678736
33	0x3e3ddc4f	0.18541072
34	0x3dca8ea2	0.09890486
35	0x3c2c0abe	0.010500608
36	0x3eac9b05	0.3371202
37	0x3e13b8cc	0.14425963
38	0x3d3f9881	0.0467763
39	0xbdff8c6d	-0.12477956

convs.0.root f4 [4, 32]
0	0xbd90dcaa	-0.07073338
1	0x3bcbdfe1	0.006221757
2	0x3cc109b5	0.023564199
3	0x3e2611e4	0.16217762
4	0x3e14b380	0.14521599
5	0xbb9063b1	-0.0044064154
6	0xbdfc9779	-0.123335786
7	0xbe87dac5	-0.26534095
8	0x3e65e9f9	0.22452535
9	0x3eccb910	0.3998494
10	0x3eb2b8fd	0.3490676
11	0xbd845b82	-0.06462766
12	0x3d9be35f	0.07611727
13	0x3e11d240	0.1424036
14	0xbde73e03	-0.11291125
15	0xbda0794c	-0.078356355
16	0xbe43db6c	-0.19126672
17	0x3e4b6724	0.19863564
18	0x3d36ec39	0.044658873
19	0xbe686b18	-0.22697103
20	0x3dbb2596	0.09138028
21	0xbe0391b4	-0.1284855
22	0x3db3dbee	0.08782183
23	0x3e6c38e2	0.23068574
24	0xbc9682e5	-0.018372962
25	0x3e5f8052	0.21826294
26	0xbd166005	-0.036712665
27	0xbe915693	-0.28386363
28	0x3ddea47c	0.10871217
29	0xbe7427e7	-0.23843347
30	0x3d7a3f42	0.061095484
31	0xbe3ec9b8	-0.18631637
32	0x3e20dac2	0.1570845
33	0x3e62451e	0.22096679
34	0xbe77e647	-0.24208938
35	0x3e14a837	0.14517294
36	0xbe133e4f	-0.14379238
37	0xbe3f399a	-0.18674317
38	0xbda674bb	-0.08127733
39	0xbe807691	-0.2509046
40	0x3ccbc68a	0.024874944
41	0xbe700c3b	-0.23442166
42	0x3e169651	0.14705779
43	0x3e3daf66	0.1852394
44	0x3ea42360	0.3205824
45	0x3e7a56fb	0.24447243
46	0xbe18ddb3	-0.14928322
47	0x3e99504f	0.29944083
48	0x3c4624b0	0.012093708
49	0x3dc8f3ba	0.09812112
50	0x3da9aa16	0.082843944
51	0xbdc50887	-0.09620767
52	0xbd2bc856	-0.041939102
53	0xbe71e3cb	-0.23622052
54	0xbe5abeed	-0.21361895
55	0xbec0de4d	-0.37669602
56	0xbe8585ad	-0.2607855
57	0xbd31bd2b	-0.043393295
58	0x3e538c39	0.2065896
59	0x3dba4c8d	0.09096632
60	0x3e0f4f32	0.13995054
61	0xbda77b16	-0.08177774
62	0x3e8616c1	0.26189235
63	0x3e8d38da	0.27582437
64	0xbd0d614d	-0.03451662
65	0x3e09e74c	0.13467139
66	0x3d47d6b1	0.04878873
67	0xbd52c78e	-0.05145984
68	0xbe208b88	-0.15678227
69	0xbe2f8d90	-0.17143846
70	0xbe053499	-0.13008346
71	0xbdb6ef25	-0.08932332
72	0xbdc6e824	-0.09712246
73	0xbcc41c19	-0.02393918
74	0xbe5d95af	-0.21639131
75	0x3a0399aa	0.0005020151
76	0x3cbe3936	0.02322064
77	0x3e478c82	0.19487193
78	0xbc1a4462	-0.009415718
79	0xbd3dab16	-0.04630574
80	0xbe04b0d6	-0.12958083
81	0xbdcbb5da	-0.09946795
82	0xbe27bf97	-0.1638168
83	0x3e2f76a7	0.17135106
84	0xbcc3e669	-0.023913579
85	0x3e0dd203	0.13849644
86	0xbe0b3061	-0.13592674
87	0x3d9ed238	0.0775494
88	0x3d4623e0	0.048374057
89	0x3dad58c2	0.08464195
90	0x3dadbcc2	0.08483268
91	0xbd216bcd	-0.039409447
92	0xbdfe3d72	-0.124140635
93	0xbdfb9c65	-0.12285689
94	0x3d2e8232	0.042604633
95	0x3c89c3fe	0.01681709
96	0xbde36b22	-0.11104418
97	0xbd4257cf	-0.047447022
98	0xbd53be3f	-0.051695105
99	0x3e630825	0.22171076
100	0x3c5f68c3	0.013635817
101	0xbd80b68c	-0.06284818
102	0xbcca6cd8	-0.024710104
103	0xbe238899	-0.15970077
104	0xbe280181	-0.16406824
105	0x3e0b2faf	0.13592409
106	0xbda71a14	-0.08159271
107	0xbe34e46a	-0.17665258
108	0x3e104db8	0.14092147
109	0x3de9b37c	0.11411187
110	0x3d3a401c	0.045471296
111	0x3cf4c563	0.029879278
112	0x3cd17fad	0.025573576
113	0xbe376a46	-0.17911634
114	0xbd693655	-0.05693658
115	0x3e1b1083	0.15143017
116	0xbdcda3f1	-0.10041035
117	0x3dda8e88	0.10671717
118	0xbe4368ab	-0.19082896
119	0xbe113a83	-0.14182477
120	0xbd0fac47	-0.035076406
121	0x3dda1278	0.10648054
122	0xbca5aa6d	-0.020222867
123	0xbc6bab24	-0.014384065
124	0xbe52725f	-0.20551442
125	0xbda7ba9f	-0.08189892
126	0xbdcfa043	-0.10137989
127	0xbdf6fb3c	-0.12059638

convs.0.bias f4 [32]
0	0x3e0e36d5	0.13888104
1	0x3ac5e2f2	0.0015097542
2	0x3df22338	0.11823124
3	0xbe78234d	-0.24232216
4	0x3e038071	0.12841965
5	0xbcc8acb4	-0.024496414
6	0x3de2957e	0.110636696
7	0x3dfdf758	0.12400693
8	0x3e34c8e7	0.17654763
9	0xbcbaf10d	-0.02282002
10	0x3d0658e6	0.032799624
11	0x3e5fb228	0.21845305
12	0xbd7e1609	-0.062032733
13	0xbe362a89	-0.17789663
14	0xbe61515d	-0.22003694
15	0x3d842dae	0.06454025
16	0x3dddff47	0.10839706
17	0x3e600256	0.21875891
18	0x3e43926c	0.19098824
19	0xbdd05d51	-0.10174049
20	0x3db773fa	0.08957668
21	0xbe91226f	-0.28346583
22	0x3e20fa86	0.15720567
23	0x3c7f3267	0.015575982
24	0x3b437a2b	0.0029827456
25	0xbd8e4d2e	-0.069483146
26	0xbde1872a	-0.110121086
27	0x3cba1f18	0.022719905
28	0x3ddf97ff	0.10917663
29	0xbe1f605d	-0.15564103
30	0x3e4d7385	0.20063598
31	0xbba8ca34	-0.0051510576

convs.1.basis f4 [4, 32, 32]
0	0xbe1a775a	-0.15084592
1	0xbd2ed373	-0.042682122
2	0x3d2fd322	0.04292596
3	0xbd792243	-0.06082369
4	0x3c1a6938	0.0094245
5	0xbd2313ae	-0.03981369
6	0xbd0bf3d2	-0.034168072
7	0x3e0c05bc	0.13674062
8	0x3d1162dd	0.035494674
9	0x3ba46b2d	0.005017659
10	0x3c9033e9	0.017602878
11	0xbc788610	-0.015168682
12	0xbccadc78	-0.02476333
13	0x3d80d9da	0.06291552
14	0x3dd81abd	0.10551975
15	0xbc7c990b	-0.015417348
16	0xbce0bce9	-0.02743383
17	0x3d18b850	0.03728515
18	0xbc4177ba	-0.01180833
19	0xbd4d20b7	-0.050080027
20	0x3c0d16fa	0.008611435
21	0xbd65fb92	-0.05614812
22	0x3da2b701	0.079450615
23	0xbc934318	-0.017976329
24	0x3c4c4081	0.012466551
25	0x3cbac067	0.022796823
26	0x39a6407e	0.00031710038
27	0x3d4f8955	0.05066808
28	0xbce9df40	-0.028548837
29	0x3c4bfd13	0.012450474
30	0x3bc681e5	0.006057965
31	0xbd0197ad	-0.03163879
32	0xbd3dfa4f	-0.04638129
33	0x3cad1cfc	0.021131985
34	0xbd58ead7	-0.052958336
35	0x3bd775e9	0.0065753353
36	0xbd5a2a27	-0.053262856
37	0x3bd5ae06	0.0065209894
38	0xbda50d78	-0.080592096
39	0x3c4d6de0	0.012538403
40	0xbc88603e	-0.016647454
41	0xbd22bb5d	-0.039729465
42	0x3d4dac82	0.050213344
43	0x3b0f2616	0.002184277
44	0x39d0a6f7	0.0003979725
45	0x3cf39bfb	0.029737463
46	0xbda5334d	-0.080664255
47	0x3dd0ab74	0.10188952
48	0x3c04dab5	0.008108784
49	0x3c637113	0.013881939
50	0x3d0e2138	0.03469965
51	0x3d02d4c2	0.031941183
52	0x3d390e5c	0.04517971
53	0xbdbc3c4b	-0.091911875
54	0xbcd01e83	-0.025405174
55	0x3cc59459	0.02411859
56	0x3c905a05	0.01762105
57	0x3b837cc8	0.004012678
58	0xbb942d4a	-0.0045220004
59	0xbd8d6cf7	-0.06905549
60	0x3cce2212	0.02516273
61	0xbd4c8b3f	-0.049937483
62	0x3b2c46ba	0.0026287274
63	0x3d21b548	0.039479524
64	0x3df07e8e	0.117428884
65	0x3d3a82db	0.04553495
66	0x3d222ade	0.039591663
67	0xbda1bd3c	-0.07897422
68	0xbca03d07	-0.01956035
69	0xbc063ead	-0.008193654
70	0x3dfe5982	0.12419416
71	0xbe2acc16	-0.16679415
72	0xbcf54277	-0.02993892
73	0xbcb66f91	-0.022269996
74	0x3cb6d2c2	0.022317294
75	0x3cec224f	0.028824953
76	0xbd710a8a	-0.05884794
77	0xbd450745	-0.048102636
78	0x3d6e473d	0.058173407
79	0xbe24ad57	-0.16081749
80	0xbc582be4	-0.013194058
81	0xbd4d46a8	-0.05011621
82	0x3c3da69d	0.011575368
83	0xbcf5df71	-0.030013772
84	0x3c8d4c8d	0.017248416
85	0x3d6d5f95	0.057952482
86	0x3abd1574	0.0014425949
87	0x3cd528cc	0.02602043
88	0xbdc7fe44	-0.09765294
89	0xbd954767	-0.072890095
90	0x3d2ab178	0.041673154
91	0x3d93f660	0.07224727
92	0xbb611345	-0.003434376
93	0x3b3dfab5	0.0028988544
94	0xbca1e71d	-0.019763524
95	0xbda14483	-0.07874396
96	0xbbab6e73	-0.0052316724
97	0xbd3d18ca	-0.04616622
98	0x3dac61a1	0.08417059
99	0x3d9ccc22	0.07656123
100	0x3d5c07e8	0.053718477
101	0xbc71a311	-0.014748351
102	0xbc4b2b6a	-0.012400487
103	0xba02473e	-0.00049697224
104	0xbb5a5521	-0.00333149
105	0x3cb8d77f	0.022563694
106	0x3d301599	0.042989347
107	0xbd61bef0	-0.055113733
108	0x3d0b7525	0.034047265
109	0xbb750f31	-0.0037393088
110	0xbd528a85	-0.051401634
111	0x3d6bf81d	0.057609666
112	0xbc130644	-0.008973662
113	0xbd69ceaa	-0.057081856
114	0x3cace65f	0.021105943
115	0x3c09a9f7	0.008402339
116	0xbd5937c4	-0.053031698
117	0x3ddff005	0.10934452
118	0xbd62506f	-0.05525249
119	0x3cb3414f	0.021881728
120	0x3c9fbd45	0.01949943
121	0xbd06a7d7	-0.03287491
122	0xbd058fdf	-0.03260791
123	0xbc3a7528	-0.011380471
124	0x3cbaef01	0.022819044
125	0xbc71011d	-0.014709738
126	0xbc0b3724	-0.008497033
127	0x3be58255	0.007004062
128	0x3e0c1542	0.13679984
129	0xbaa6c7dd	-0.0012724359
130	0x3d7c8abf	0.061655756
131	0x3c9375cf	0.018000511
132	0x3d7154a4	0.05891861
133	0xbc2220d4	-0.009895522
134	0x3db2d977	0.087328844
135	0xbd53dd58	-0.05172476
136	0x3d12a264	0.0357994
137	0x3c527b96	0.012846848
138	0x3d5e60c8	0.054291517
139	0xbd97283c	-0.07380721
140	0x3d854b25	0.06508473
141	0xbb589bba	-0.0033051805
142	0x3db44c14	0.08803573
143	0xbd684531	-0.05670661
144	0xbbfc7478	-0.007704314
145	0x3c295889	0.01033605
146	0xbdc7be58	-0.09753102
147	0x3d3abde4	0.04559125
148	0x3ce32c7c	0.027731173
149	0x3c0357ea	0.008016566
150	0x3dc1cd61	0.09463001
151	0xbcf45ef1	-0.029830428
152	0xbc15ce7b	-0.009143467
153	0xbd0f0270	-0.034914434
154	0xbd9397e7	-0.072067074
155	0x3df14d68	0.11782342
156	0xbdbb9630	-0.09159505
157	0x3dc17e32	0.09447898
158	0xbcd762ed	-0.026292289
159	0xbcd14479	-0.025545346
160	0x3c88405e	0.016632255
161	0xbd4b9f3e	-0.049712412
162	0x3c7c17bd	0.015386519
163	0xbb5b57bd	-0.0033469044
164	0x3d8d4208	0.0689736
165	0xbd08d44d	-0.03340559
166	0x3dad1642	0.08451511
167	0xbc3268eb	-0.010889272
168	0x3cdd508b	0.027015945
169	0xbd19e604	-0.037572876
170	0xba8896e8	-0.001042095
171	0xbc47c3d7	-0.012192688
172	0x3b95e1e2	0.0045740465
173	0xbb51587e	-0.0031943615
174	0xbde024d0	-0.109445214
175	0x3ddea472	0.10871209
176	0x3cd061dd	0.02543729
177	0xbd7a38a1	-0.06108916
178	0x3cbcab3a	0.023030866
179	0xbc387296	-0.011257788
180	0xbb9869cb	-0.0046512834
181	0x3d951841	0.07280017
182	0xbdd36ab0	-0.103230834
183	0x3d588826	0.052864216
184	0x3d9acea9	0.075589485
185	0x3d177ebe	0.036986105
186	0xbd11c9d3	-0.035592865
187	0x3c720970	0.014772758
188	0x3df4f3d0	0.11960566
189	0xbd056bbc	-0.032573447
190	0x3bf8d1fe	0.0075933924
191	0x3c547233	0.01296668
192	0xbcf0cb81	-0.029393913
193	0xbd2b1187	-0.041764762
194	0xbd3232c0	-0.04350543
195	0xbd3c8f32	-0.046035
196	0x3d1c8c39	0.038219664
197	0x3d81f3a4	0.06345299
198	0x3d56d9a2	0.052453645
199	0xbd0c9149	-0.034318242
200	0x3ab9e9ce	0.0014184059
201	0xbbe8d795	-0.0071057775
202	0x3c8721bb	0.016495576
203	0xbd3954fb	-0.04524706
204	0x3c7a40f0	0.015274271
205	0xbc1516c9	-0.009099671
206	0x3d876f8c	0.06613073
207	0xbdd85af2	-0.105642214
208	0xbd9e8c37	-0.077415876
209	0x3d6589bb	0.056039553
210	0x3a6611f0	0.00087764766
211	0x3d09da06	0.03365519
212	0x3cb722e5	0.022355506
213	0x3d573edf	0.052550193
214	0x3dcbaeed	0.09945474
215	0x3cd9964e	0.026560929
216	0xbc9310d4	-0.01795236
217	0xbd99a36a	-0.07501872
218	0xbd562f70	-0.052291334
219	0x3dd9875a	0.106215194
220	0xbdfc684b	-0.1232458
221	0xbc421d33	-0.011847782
222	0x3c883be5	0.016630122
223	0x3c9d214f	0.019180922
224	0xbe80a97f	-0.25129315
225	0xb9488277	-0.00019122088
226	0xbac213df	-0.0014806947
227	0xbd12b8ff	-0.035820957
228	0xbd82d4e1	-0.0638826
229	0xbd903def	-0.07043063
230	0xbe22269e	-0.15835044
231	0x3e3cf454	0.18452579
232	0x3d3573b7	0.044299807
233	0xbb0009bc	-0.0019537052
234	0x3bc7b36c	0.006094387
235	0xbd53577b	-0.0515971
236	0xbc91eeeb	-0.01781412
237	0xbcea84cd	-0.028627777
238	0x3d86e7cb	0.0658718
239	0x3e16b707	0.14718257
240	0x3cc1920d	0.023629213
241	0x3c553957	0.013014159
242	0xbcbd8861	-0.02313632
243	0x3c9083ab	0.01764091
244	0x3ca356af	0.019938795
245	0xbe85fffe	-0.2617187
246	0x3cc7bd33	0.02438221
247	0xbc239ea0	-0.00998655
248	0xbd4b086a	-0.04956857
249	0x3d26a7b9	0.040687297
250	0x3da3f503	0.08005717
251	0xbdec6a30	-0.11543691
252	0x3d47dcdb	0.04879461
253	0x3c64b24b	0.013958524
254	0xbc9b8a09	-0.018986719
255	0x3d0d2def	0.034467634

convs.1.att f4 [10, 4]
0	0x3bfd234d	0.0077251554
1	0x3e2ba624	0.16762596
2	0xbe7c3fc4	-0.246337
3	0xbd112ff2	-0.035446115
4	0x3dc87bef	0.097892635
5	0x3e03b978	0.1286372
6	0xbe77bc96	-0.24193034
7	0xbc95b624	-0.018275328
8	0x3dfb7714	0.12278572
9	0x3d740abe	0.059580557
10	0xbe653692	-0.22384098
11	0xbd3310e0	-0.043717265
12	0x3dcab10d	0.09897051
13	0xbacfa036	-0.0015840593
14	0xbe2d0893	-0.16897802
15	0xbdb49be5	-0.08818797
16	0x3dc4513e	0.09585808
17	0xbd3d04ce	-0.04614716
18	0xbe05f742	-0.13082603
19	0xbda934d8	-0.08262032
20	0x3c87d771	0.016582223
21	0xbda1966a	-0.07890017
22	0xbdd3c99f	-0.103411905
23	0xbd8be1e8	-0.068301976
24	0x3ca7212d	0.020401562
25	0xbdfc7ccc	-0.123284906
26	0xbd877e25	-0.06615857
27	0x3d576541	0.052586798
28	0x3d200c25	0.039074082
29	0xbe19e60c	-0.15029162
30	0x3cb9a6db	0.02266257
31	0x3da37bd2	0.07982601
32	0xbd344a37	-0.04401609
33	0xbe22bee6	-0.15893134
34	0x3cd9ce01	0.026587488
35	0x3dc24ce9	0.09487326
36	0xbe1e1791	-0.15438677
37	0xbe1255de	-0.14290568
38	0x3daa8f4d	0.08328114
39	0x3d1bb2a8	0.038012177

convs.1.root f4 [32, 32]
0	0xbd5b45da	-0.053533413
1	0x3d566acb	0.05234794
2	0xbbd05b1c	-0.0063585173
3	0x3cbc20f4	0.022964932
4	0x3c8ce705	0.017200002
5	0xbd18181f	-0.03713238
6	0xbe66a7bc	-0.22524923
7	0x3db38390	0.08765328
8	0xbc652b6f	-0.013987406
9	0xbc1b5179	-0.009479874
10	0x3d480a1e	0.048837774
11	0x3b33b91f	0.0027423573
12	0xbddedd66	-0.10882072
13	0xbd2609c5	-0.04053666
14	0xb9800ca0	-0.0002442347
15	0x3d320dc2	0.04347015
16	0x3ce08a66	0.027409744
17	0xbcf1135c	-0.029428177
18	0xbda6bc02	-0.081413284
19	0xbc80629a	-0.015672017
20	0xbba8bb81	-0.0051493053
21	0x3d0d72f3	0.034533452
22	0x3d40dc52	0.047085114
23	0x3cfa1d1a	0.030531455
24	0xbd6935e9	-0.05693618
25	0xbd3cce32	-0.04609508
26	0xbcfbfcf6	-0.03076027
27	0x3dd87c8f	0.10570633
28	0xbd6a6216	-0.05722245
29	0xbe047132	-0.12933806
30	0xbc7a0b84	-0.015261535
31	0x3cf70fa0	0.030158818
32	0xbc2d9afa	-0.010596031
33	0xbc6dd423	-0.014515909
34	0x3da8339f	0.08212971
35	0xbd280620	-0.041021466
36	0x3ce1c14e	0.027557995
37	0xbb23996b	-0.002496327
38	0x3db36285	0.087590255
39	0x3d6182c2	0.05505634
40	0x3c3e8272	0.01162778
41	0xbd0dfeff	-0.03466701
42	0x3d2bc8be	0.04193949
43	0x3d313989	0.04326776
44	0xbd32bfa1	-0.043639783
45	0xbdc37da9	-0.09545452
46	0x3b967b68	0.004592348
47	0xbd0c4363	-0.034243952
48	0xbbdf44e7	-0.0068136337
49	0xbd12e7a2	-0.035865434
50	0x3d874083	0.066041015
51	0xbc1ebbc0	-0.009688318
52	0xbbebc34f	-0.0071949135
53	0x3d96a99d	0.0735657
54	0x3caa7c66	0.02081127
55	0xbde1444f	-0.10999357
56	0x3daab5a5	0.08335427
57	0xbcedfa9d	-0.029050166
58	0x3d2727cc	0.040809438
59	0xbde35893	-0.111008786
60	0xbcca4dcf	-0.024695305
61	0xbdbdb59e	-0.09263156
62	0xbd1fdb84	-0.039027706
63	0x3cdeceba	0.027198184
64	0xbb7ee1a0	-0.0038891807
65	0xbcb18959	-0.021671938
66	0x3dae4a2a	0.085102394
67	0x3d08b773	0.033378076
68	0xbcd336fd	-0.025783056
69	0xbdb8c592	-0.090220585
70	0x3e054ade	0.13016841
71	0x3ddf2faf	0.10897767
72	0x3d073d45	0.033017416
73	0xbd1a775b	-0.037711482
74	0xbb9efaba	-0.0048516663
75	0xbd10e486	-0.035374187
76	0x3d4de28e	0.050264888
77	0xbd7dcb85	-0.06196167
78	0xbd780ebe	-0.060560934
79	0xbcda6502	-0.026659492
80	0xbd10b7f5	-0.035331685
81	0xbdb52826	-0.08845548
82	0xbd1c8131	-0.038209144
83	0xbd12d61a	-0.035848714
84	0xbd9a8f5e	-0.07546876
85	0x3c2fe507	0.010735757
86	0x3bf1e7f7	0.0073823887
87	0x3d3598c2	0.044335134
88	0x3d8365dc	0.064159125
89	0xbcb2832b	-0.021791061
90	0x3cebafb8	0.028770313
91	0xbd1aada1	-0.03776324
92	0x3d7d92ab	0.06190745
93	0xbd943209	-0.07236106
94	0xbd40bdc9	-0.047055993
95	0x3c40f271	0.011776553
96	0x3d642765	0.055701632
97	0x3dadc99b	0.08485719
98	0xbcc9db65	-0.024640748
99	0xbdb01684	-0.085980445
100	0xbd8a762e	-0.06760822
101	0x3d180dce	0.03712254
102	0xbd1a2037	-0.03762838
103	0xbd18cfc5	-0.03730752
104	0xbd534c9b	-0.05158673
105	0x3d977c9b	0.073968135
106	0x3db84c4a	0.08998926
107	0x3d2a0fdf	0.041519042
108	0x3cb39910	0.021923572
109	0xbca19e5e	-0.019728836
110	0x3c8992e0	0.016793668
111	0x3d8fea64	0.07027128
112	0x3cb431a4	0.021996327
113	0xbd450495	-0.048100073
114	0x3d6a33bc	0.057178244
115	0x3da55007	0.08071905
116	0xbd1f2a2c	-0.038858578
117	0x3b1d1db7	0.002397401
118	0x3df05a56	0.1173598
119	0x3a91e18a	0.0011129838
120	0xbd437bb5	-0.047725398
121	0x3c606342	0.01369554
122	0x3dea6a35	0.11446039
123	0x3dea6c96	0.114464924
124	0x3d083866	0.03325691
125	0xbd16b61b	-0.036794763
126	0xbca6089e	-0.02026778
127	0x3d4a4f59	0.049392078
128	0x3d63ada5	0.055585522
129	0x3dc5752c	0.096414894
130	0x3d6700a5	0.0563971
131	0xbd9f2785	-0.077712096
132	0x3d92d38b	0.07169255
133	0x3d71f9c6	0.059076093
134	0x3d789f56	0.06069883
135	0xbd8a8b51	-0.06764854
136	0xbd3a512a	-0.04548756
137	0xbd4ec2b9	-0.05047867
138	0xbdd7fd31	-0.10546339
139	0xbaac3b58	-0.0013140244
140	0x3de3947a	0.11112304
141	0xbbf39d0f	-0.0074344943
142	0xbdb9c788	-0.09071261
143	0x3cc22a7b	0.023701897
144	0x3d460019	0.048339937
145	0xbd99d02c	-0.07510409
146	0xbd56167f	-0.052267548
147	0xbcc60e41	-0.024176719
148	0x3de8aefd	0.11361501
149	0x3de52ca4	0.11190155
150	0x3c4b7786	0.012418633
151	0xbdad76c3	-0.084699176
152	0x3c23c8ef	0.009996637
153	0x3d35ca98	0.04438266
154	0x3d1edb40	0.03878331
155	0xbd70745a	-0.05870471
156	0xbc02bc4e	-0.007979466
157	0xbd05a746	-0.032630228
158	0x3d90b724	0.07066181
159	0xbdf9fc61	-0.122063406
160	0x3d8de2f4	0.069280535
161	0x3c9ec49d	0.019380862
162	0x3d02f52d	0.0319721
163	0x3d995691	0.07487214
164	0x3d8952c5	0.0670524
165	0x3d05625a	0.0325645
166	0xbd19aee3	-0.0375203
167	0x3dcb3e38	0.09923977
168	0x3da977eb	0.08274826
169	0x3b683c49	0.0035436323
170	0x3db98006	0.09057622
171	0xbdd8fe86	-0.105954215
172	0xbda2803f	-0.07934617
173	0xbd8f3b70	-0.06993759
174	0x3cc1fac7	0.02367915
175	0xbd517170	-0.051133573
176	0xbda9e279	-0.08295149
177	0x3d2e63d0	0.042575657
178	0xbd8a1c31	-0.06743658
179	0x3d9b375c	0.07578918
180	0xbd03e715	-0.0322028
181	0x3a8c25fe	0.0010692475
182	0x3d82b785	0.0638266
183	0xbd4033e8	-0.0469245
184	0xbddd39e2	-0.10802056
185	0xbd79b6f1	-0.060965482
186	0x3d027989	0.031854186
187	0x3e175458	0.14778268
188	0xbda7a898	-0.081864536
189	0xbd370d4b	-0.04469041
190	0xbbd30b55	-0.00644056
191	0xbcebbc4b	-0.028776309
192	0xba4b9130	-0.000776547
193	0x3c15ea18	0.009150051
194	0x3d84f386	0.06491761
195	0xbc9d37a9	-0.01919158
196	0xbd1fa2d9	-0.038973663
197	0xbc95ff4b	-0.01831021
198	0xbd81fae4	-0.06346682
199	0xbd9c4124	-0.07629612
200	0x3d6c10ce	0.057633214
201	0xbd3eed33	-0.04661293
202	0xbcab6450	-0.020921856
203	0x3d721899	0.05910549
204	0xbd8e8ebb	-0.069608174
205	0x3d0fe913	0.035134386
206	0xbd48f3ba	-0.04906056
207	0xbcc2b4a0	-0.02376777
208	0xbd337346	-0.043811105
209	0xbd086255	-0.0332969
210	0xbd9e01b6	-0.0771517
211	0x3c9a8b35	0.018865207
212	0xbcaa6651	-0.020800741
213	0x3d8b105c	0.0679023
214	0x3da59316	0.08084695
215	0xbd890fb3	-0.066924475
216	0xbb946059	-0.004528087
217	0x3d68cccb	0.05683593
218	0xbbd405bf	-0.0064704116
219	0xbc9ae6d0	-0.018908888
220	0xbda01d96	-0.07818143
221	0x3d529b52	0.051417656
222	0xbccc08e8	-0.02490659
223	0x3d86602b	0.06561311
224	0x3c0301d0	0.007996038
225	0x3d7e759e	0.062123887
226	0xbd891f37	-0.06695407
227	0xbd157585	-0.03648903
228	0xbd31e9f6	-0.043436013
229	0xbd39ef78	-0.04539439
230	0xbe2456d6	-0.1604875
231	0xbd759f7f	-0.05996656
232	0x3c9386c6	0.0180086
233	0x3d200719	0.03906927
234	0x3d1a6ba0	0.037700295
235	0xbd43cf69	-0.047805224
236	0xbcc31a45	-0.023816237
237	0x3dc3640a	0.09540565
238	0xbd64a44c	-0.05582075
239	0xbdc9b39e	-0.098487124
240	0xbb8011f7	-0.0039083916
241	0x3d1047c9	0.03522471
242	0x3d792cf7	0.060833897
243	0x3da34e07	0.07973867
244	0x3d64b0fd	0.05583285
245	0xbcab70cd	-0.020927811
246	0xbc40d00b	-0.011768351
247	0xbc56718d	-0.013088596
248	0xbda2a880	-0.07942295
249	0xbc063fc5	-0.008193915
250	0x3b64df73	0.0034923225
251	0x3d673980	0.05645132
252	0x3c3f94b9	0.011693173
253	0x3d535003	0.051589977
254	0xbcbe0034	-0.023193456
255	0xbd454505	-0.048161525

convs.1.bias f4 [32]
0	0xbd631730	-0.055442035
1	0xbd81116b	-0.0630215
2	0xbcf9ffba	-0.030517448
3	0xbd414e3c	-0.04719375
4	0xbd1953b7	-0.037433352
5	0xbdf1832a	-0.11792596
6	0xbda5d6bc	-0.08097598
7	0x3d15dc4e	0.036587052
8	0x3c47683a	0.012170846
9	0xbcbe7ceb	-0.023252925
10	0x3d3e0a5f	0.04639661
11	0xbd9ed05d	-0.07754586
12	0xbda7d163	-0.08194234
13	0x3d86ed0f	0.06588184
14	0x3ddec6f9	0.10877795
15	0x3de732e9	0.11289007
16	0xbd1071f0	-0.03526491
17	0x3daf0a8b	0.08546933
18	0x3d9430cf	0.07235872
19	0x3d155536	0.036458217
20	0xbd05df84	-0.032683864
21	0xbd72326b	-0.059130114
22	0xbbb6dad0	-0.0055802837
23	0xbda7f35a	-0.082007125
24	0xbd8cbf7d	-0.06872461
25	0x3dabda16	0.08391206
26	0x3c6db28a	0.014507899
27	0xbdda6e3b	-0.10665556
28	0xbdb3f330	-0.08786619
29	0x3c8e7fd0	0.01739493
30	0xbd406fec	-0.046981737
31	0x3d7eb867	0.06218758

convs.2.basis f4 [4, 32, 32]
0	0x3ccf3154	0.025292076
1	0xbd2d4b5a	-0.04230819
2	0x3ca92058	0.020645306
3	0x3d25395f	0.040337916
4	0xbd8407b8	-0.06446785
5	0xbc3a9e4f	-0.011390283
6	0x3d7f3eda	0.0623158
7	0x3cb8ab9e	0.022542771
8	0xbc879108	-0.016548648
9	0x3bff2cec	0.0077873375
10	0xbd611202	-0.054948814
11	0xbbb3af71	-0.0054835607
12	0x3d4e1be7	0.05031958
13	0xbcd628a4	-0.026142426
14	0x3cf07db9	0.029356824
15	0xbc440ce2	-0.011965962
16	0xba760c2a	-0.0009385968
17	0x3d70daae	0.0588023
18	0xbd7a39b7	-0.061090197
19	0x3d5026d4	0.05081828
20	0xbbfc64ad	-0.007702431
21	0xbc4ada02	-0.012381079
22	0x3d67b168	0.056565672
23	0xbd1f9bc7	-0.03896692
24	0xbd33ae43	-0.04386736
25	0xbd0ce980	-0.03440237
26	0x3cfe5b05	0.03104926
27	0xbc29c1e7	-0.010361171
28	0xbd4d06c6	-0.050055288
29	0x3cf6be45	0.030120024
30	0xbc76a1c5	-0.015053217
31	0xbdbe9dc1	-0.09307433
32	0xbc53469e	-0.012895254
33	0x3dd4dc9d	0.10393641
34	0xbc793e2c	-0.015212577
35	0xbc8367c7	-0.016040696
36	0xbcd81669	-0.026377873
37	0xbbf61998	-0.007510375
38	0xbd899d70	-0.06719482
39	0x3d2080da	0.039185382
40	0x3da34028	0.07971221
41	0x3cae30ab	0.021263441
42	0x3cb1c85a	0.02170198
43	0xbd7092d7	-0.058733787
44	0xbc114ff6	-0.008869162
45	0x3c8b9c8d	0.017042423
46	0x3d6e45af	0.058171924
47	0x3d3dbf61	0.04632509
48	0xbc795abd	-0.015219388
49	0x3c84def0	0.016219586
50	0xbd4973b7	-0.04918262
51	0x3d8c1db5	0.06841604
52	0x3d1a9ee2	0.03774918
53	0x3d8483a6	0.064704224
54	0x3d2e9e33	0.04263134
55	0xbc056aad	-0.008143109
56	0x3c83dfc3	0.016097909
57	0xbd063898	-0.032768816
58	0xbd8bddf9	-0.06829447
59	0x3d545c83	0.05184604
60	0x3d55a749	0.05216149
61	0xbd21c48a	-0.039494075
62	0xbca6577e	-0.020305391
63	0x3d7b5e35	0.06136914
64	0xbcbe881b	-0.02325826
65	0x3c5386fc	0.012910601
66	0xbd9083d6	-0.07056396
67	0x3d1a8571	0.037724916
68	0xbce083b6	-0.027406555
69	0xbd8fba90	-0.07018006
70	0x3b05dc5a	0.002042553
71	0x3c69515c	0.014240589
72	0xbd4c25cc	-0.049840733
73	0x3dcf8dad	0.101344444
74	0x3cb566c9	0.022143738
75	0x3d44c340	0.048037767
76	0xbcf893e8	-0.030343965
77	0x3ce72296	0.028214734
78	0x3d6f03bc	0.05835317
79	0xbd6f082a	-0.058357395
80	0xbc145a69	-0.009054759
81	0x3d864af8	0.06557268
82	0x3d1c122c	0.038103268
83	0xbc0d1926	-0.008611953
84	0x3d10fcd2	0.03539736
85	0x3d9cb25c	0.07651207
86	0x3d52be33	0.05145092
87	0xbcea859c	-0.028628163
88	0x3d4ae924	0.049538746
89	0x3c15e904	0.009149794
90	0xbde68295	-0.11255375
91	0x3cbed3fe	0.023294445
92	0xbc180e23	-0.009280714
93	0x3c76c771	0.015062199
94	0xbc809b6e	-0.015699115
95	0x3d14d3f6	0.036334954
96	0xbd0f1f4d	-0.03494196
97	0xbd98dfd1	-0.074645646
98	0x3d5c20ee	0.05374234
99	0x3d577f33	0.05261154
100	0x3d65b3d2	0.056079693
101	0x3cb29857	0.021801157
102	0x3d94d5fe	0.07267378
103	0x3d86f33b	0.06589361
104	0xbd869099	-0.065705486
105	0xbdd100de	-0.102052435
106	0xbbb5e2bf	-0.005550712
107	0x3d6bfda3	0.057614934
108	0x3c9e03e6	0.019288968
109	0xbc7b6d16	-0.015345832
110	0xbc447c1a	-0.011992479
111	0x3ca68d05	0.020330915
112	0xbc6ef21f	-0.014584093
113	0xbd1a9d3b	-0.037747603
114	0x3d832972	0.064043894
115	0xbce4c1ef	-0.027924506
116	0xbd02ab95	-0.031901915
117	0xbd9d9668	-0.07694703
118	0xbd34937a	-0.044085957
119	0x3cbe964a	0.023265023
120	0xbd48ed72	-0.04905457
121	0xbcf8fcfd	-0.030394072
122	0xbcf321f0	-0.029679269
123	0xbc9afc10	-0.01891902
124	0x3c453142	0.01203567
125	0xbaea520c	-0.0017877235
126	0xbd7ff7bf	-0.06249213
127	0x3d16347a	0.03667114
128	0x3d89e440	0.06732988
129	0x3d07ed30	0.033185184
130	0xbd859832	-0.065231696
131	0xbcf876c2	-0.030330066
132	0x3d08169e	0.033224694
133	0xbd6cb03d	-0.05778526
134	0xbd93f85c	-0.07225105
135	0x3d63d957	0.055627193
136	0xbd573e93	-0.05254991
137	0xbd3657dd	-0.044517387
138	0xbd8a0fe6	-0.06741314
139	0xbd49256f	-0.049107965
140	0x3bcc8b1e	0.00624217
141	0xbca8dc4e	-0.020612862
142	0x3d0a74d1	0.03380281
143	0x3cb93db6	0.022612434
144	0x3d19c44c	0.03754072
145	0x3c87b700	0.016566753
146	0xbd80b9eb	-0.06285461
147	0x3d86d845	0.06584219
148	0xbbed805d	-0.007247968
149	0x3dc7eb5a	0.097616866
150	0xbc25d662	-0.010121914
151	0xbc6f321f	-0.014599352
152	0xbd29308d	-0.041306067
153	0x3a0be74b	0.00053368945
154	0xbc8d9f14	-0.017287768
155	0xbd8348c7	-0.064103656
156	0x3cc4eacd	0.024037743
157	0xbcc0f86a	-0.023555953
158	0xbd08408d	-0.033264685
159	0xbce348a0	-0.027744591
160	0x3bf55395	0.0074867704
161	0x3b122250	0.0022298284
162	0x3b76e96c	0.0037675751
163	0x3cbab9e1	0.022793712
164	0xbd003652	-0.031301804
165	0x3d5ee620	0.054418683
166	0x3d5f6110	0.054535925
167	0x3ae8a743	0.0017750043
168	0x3ca15d61	0.019697847
169	0x3d987ab2	0.07445277
170	0xbb361358	-0.0027782526
171	0xbbf8f9de	-0.007598146
172	0xbcdde131	-0.027084919
173	0xbc41c1bc	-0.011825975
174	0x3d5a9753	0.05336697
175	0x3d727067	0.059189226
176	0xbcc18a2e	-0.02362546
177	0x3dc3ce9b	0.09560891
178	0x3d7db254	0.061937645
179	0x3d159669	0.036520395
180	0x3cea19fb	0.028576842
181	0xbc9096d8	-0.017650053
182	0xbb9d1b88	-0.0047945417
183	0x3d1233d6	0.035693966
184	0x3d23359f	0.03984606
185	0x3ca41665	0.02003021
186	0xbb23e93f	-0.0025010852
187	0x3d35b44b	0.044361394
188	0xbd2330c3	-0.039841425
189	0x3d225e9c	0.039641008
190	0x3d1afb8f	0.03783756
191	0x3c5a62b7	0.0133291995
192	0xbca0ca76	-0.01962779
193	0x3bc54f05	0.0060213828
194	0xbd4fb9a5	-0.050714154
195	0x3d8677c5	0.06565813
196	0x3d98d9f7	0.074634485
197	0xbc8b7c0f	-0.01702693
198	0x3a69e57c	0.00089224405
199	0xbd529a6d	-0.051416803
200	0xbc0f0536	-0.00872927
201	0xbc9d5037	-0.019203288
202	0xbd21a04c	-0.03945951
203	0x3d7e0d06	0.06202414
204	0xbc89d5d0	-0.016825587
205	0xbdd1e2ea	-0.102483585
206	0xbb8014d3	-0.0039087324
207	0x3c0a5c6d	0.008444888
208	0x3cfc8aeb	0.03082796
209	0x3d163547	0.036671903
210	0xbc5b9229	-0.0134015465
211	0x3c4a0444	0.012330119
212	0x3c2b6d5e	0.010463087
213	0xbca8a2dd	-0.020585472
214	0x3d844d56	0.06460063
215	0xbd7700d7	-0.060303535
216	0x3d2ca283	0.04214717
217	0x3d8e408e	0.069459066
218	0xbc880146	-0.01660217
219	0xbce25883	-0.027630096
220	0xbdaf08d0	-0.08546603
221	0xbd7e58aa	-0.062096275
222	0x3d161831	0.036644164
223	0xbd56f5f6	-0.05248066
224	0x3d945c29	0.07244141
225	0x3d0c9889	0.034325156
226	0xbc22cab9	-0.009936028
227	0x3cf6ec6e	0.030142035
228	0x3cbedf26	0.023299765
229	0xbb3dfecb	-0.002899098
230	0x3d2a1c29	0.041530762
231	0xbcbd812f	-0.023132889
232	0xbc464fc8	-0.012103982
233	0xbb4f912b	-0.003167222
234	0xbc5ff05a	-0.013668144
235	0x3d9000a7	0.070313744
236	0xbb1dd11c	-0.0024080938
237	0x3d7cd57a	0.061727025
238	0x3d1e80d1	0.038697068
239	0xbcdcf1eb	-0.026970824
240	0xbdbcc47e	-0.092171654
241	0x3d89fe05	0.067379035
242	0xbd1d00e5	-0.03833093
243	0xbd86e69b	-0.06586953
244	0xbd290b01	-0.04127026
245	0x3d289d0c	0.041165397
246	0xbc706b55	-0.014674027
247	0xbd835590	-0.06412804
248	0x3d7f78a5	0.062370915
249	0xbbc71fde	-0.006076797
250	0xbc585c94	-0.013205666
251	0x3ccb2dbb	0.02480208
252	0x3ddc2a33	0.10750236
253	0x3aa66f4a	0.0012697962
254	0xbd40de80	-0.047087193
255	0x3d056277	0.032564607

convs.2.att f4 [10, 4]
0	0x3c90a1f0	0.017655343
1	0x3b7dce80	0.003872782
2	0x3c8fa545	0.017534861
3	0x3c09771c	0.008390214
4	0x3cbe5acf	0.02323666
5	0xbcb7c850	-0.022434384
6	0x3c66ea52	0.014093952
7	0x3c9442be	0.018098231
8	0x3cc2a8ca	0.023762126
9	0xbc861fec	-0.016372643
10	0x3c5472ff	0.01296687
11	0x3c80a4a4	0.015703507
12	0x3b49c099	0.0030784963
13	0xbc80b227	-0.01570995
14	0x3bb67ab9	0.005568829
15	0x3becf35f	0.0072311605
16	0xbc367bd8	-0.011137925
17	0xbc5f5c25	-0.013632809
18	0xbc39bba1	-0.011336238
19	0xbb75dcf2	-0.0037515727
20	0xbc9ff9d2	-0.019528303
21	0x3b9a8bce	0.004716373
22	0xbc0ea51e	-0.008706359
23	0xbc80d326	-0.015725683
24	0xbb39451d	-0.0028269954
25	0x3c1f60af	0.009727641
26	0xbb2d9a62	-0.0026489724
27	0x3ad997a2	0.0016600976
28	0xb92fd208	-0.00016767543
29	0x3ab5f8c0	0.0013883337
30	0xba660cd9	-0.0008775718
31	0x3a5442b3	0.0008097097
32	0x3c491ba5	0.012274657
33	0xbc50417b	-0.012710924
34	0x3b1d0258	0.0023957696
35	0xbaedfd39	-0.0018157131
36	0x3930c0b1	0.00016856451
37	0x3b25c790	0.002529595
38	0x3a9ce1a0	0.0011969097
39	0xbaf2ff2d	-0.0018539183

convs.2.root f4 [32, 32]
0	0xbd10a5d6	-0.035314403
1	0xbd6314cf	-0.055439766
2	0x3da935ee	0.082622394
3	0xbca1f928	-0.019772127
4	0x3c835b98	0.016034886
5	0xbdb5ae36	-0.08871119
6	0xbd6012ce	-0.054705434
7	0xbd3b3330	-0.045703113
8	0x3d31d5a2	0.043416627
9	0xbd0e8373	-0.03479333
10	0x3c80bd48	0.015715256
11	0x3cb93c30	0.022611707
12	0xbcfb6210	-0.030686408
13	0x3d9649cd	0.07338295
14	0xbda7e6cf	-0.0819832
15	0xbd15c1a4	-0.036561623
16	0xba902635	-0.0010997715
17	0xbccbfd27	-0.024900986
18	0x3d2ff53d	0.042958487
19	0x3c062f05	0.008189921
20	0x3b961776	0.0045804335
21	0xbcd0e2a1	-0.02549869
22	0xbd5ddca0	-0.054165483
23	0x3d3a385c	0.045463905
24	0xbdba5d02	-0.09099771
25	0xb87aaab6	-5.976363e-05
26	0x3cbc8cf9	0.02301644
27	0xbab2d718	-0.0013644425
28	0x3d166ca1	0.03672469
29	0x3c3dd6eb	0.011586885
30	0xbd768ae7	-0.06019106
31	0xbd0a6b4e	-0.03379374
32	0x3c6c8179	0.014435166
33	0xbc0a3c14	-0.008437175
34	0xbd91bf66	-0.071165845
35	0x3d29b2ad	0.041430164
36	0xbc9f188e	-0.019420888
37	0x3db2b666	0.08726196
38	0xbd243587	-0.04009011
39	0xbd6d9085	-0.057999153
40	0x3be337b5	0.006934131
41	0xbbc39f51	-0.0059699197
42	0xbd928098	-0.071534336
43	0x3d037c4c	0.03210096
44	0x3c9d3690	0.019191056
45	0x3ccc5dec	0.02494713
46	0x3b3433cf	0.00274967
47	0x3d331d3b	0.04372905
48	0x3d548e55	0.05189355
49	0x3d282592	0.041051455
50	0xbc878af1	-0.016545745
51	0xbd7acc11	-0.06122977
52	0xbd09db6e	-0.03365653
53	0xbd15af79	-0.036544297
54	0xbcf2a71c	-0.0296207
55	0xbaafe9ae	-0.0013421082
56	0xbdaa8dab	-0.08327802
57	0xbd4d7fc3	-0.05017067
58	0x3d96c2b8	0.073613584
59	0x3c4bd85a	0.012441719
60	0xbd0b5bd6	-0.03402313
61	0xbcc2464e	-0.023715165
62	0xbd8a58e8	-0.06755239
63	0xbd128947	-0.03577545
64	0xbce29a08	-0.027661338
65	0xbe227a54	-0.15866977
66	0x3decefc2	0.11569168
67	0xbdad913e	-0.084749684
68	0xbd9a4fba	-0.07534738
69	0xbdf8932e	-0.12137447
70	0xbc9c516d	-0.019081796
71	0x3c67c19d	0.014145282
72	0x3d08a403	0.03335954
73	0xbd745e2c	-0.05966012
74	0x3d08d6f7	0.03340813
75	0xbc37a5ac	-0.011208933
76	0xbdcadd12	-0.09905447
77	0xbdb8ac04	-0.090171844
78	0x3cf2b7f6	0.029628735
79	0x3cea9fc9	0.028640645
80	0xbd9f2555	-0.077707924
81	0x3cecde80	0.02891469
82	0x3cc9d888	0.024639383
83	0xbd8562e9	-0.06513006
84	0xbe05cf70	-0.13067412
85	0xbd151f0d	-0.036406565
86	0xbd0cee28	-0.03440681
87	0x3bb5a117	0.005542885
88	0xbd1ccc4b	-0.038280766
89	0x3d206c1c	0.0391656
90	0x3db55d9a	0.08855744
91	0x3ce8d31b	0.028420975
92	0x3b6b0985	0.0035863828
93	0xba77ba73	-0.00094500853
94	0xbdefd64c	-0.11710796
95	0xbdc176cb	-0.09446486
96	0x3d31b003	0.04338075
97	0xbd53a7cb	-0.05167369
98	0xbc444b69	-0.01198087
99	0xbd386025	-0.045013566
100	0x3cbee5db	0.023302963
101	0xbdeacced	-0.11464868
102	0x3baf12aa	0.005342801
103	0xbd4b1b57	-0.04958662
104	0xbd1f6c65	-0.038921732
105	0xbceb1bb2	-0.02869973
106	0x3d6c6c54	0.057720497
107	0x3d31e4c0	0.043431044
108	0xbdb490e8	-0.08816701
109	0xbced0e10	-0.02893737
110	0x3adea3ad	0.0016986035
111	0x3ba272f8	0.004957553
112	0xbdca91d7	-0.09891098
113	0x3ca152e5	0.019692848
114	0x3cd5cae5	0.026097724
115	0xbd83d514	-0.06437126
116	0x3af13b4b	0.0018404512
117	0xbdc7c674	-0.09754649
118	0xbd7022fa	-0.058627106
119	0xbd6ea071	-0.058258478
120	0x3b8617ab	0.004092177
121	0x3c987252	0.0186092
122	0x3d215eac	0.039396927
123	0xbc94de78	-0.018172488
124	0xbca16a17	-0.019703908
125	0x3d5216f2	0.051291414
126	0xbd75d52d	-0.060017753
127	0x3d2b7150	0.04185611
128	0x3ca5e6fa	0.02025174
129	0x3d8ce208	0.068790495
130	0x3d8c6f53	0.06857171
131	0x3d234766	0.039863013
132	0xbc98bc3c	-0.018644445
133	0xbd598162	-0.053101905
134	0x3d50b81f	0.05095684
135	0x3d6e0069	0.05810586
136	0xbd4585e8	-0.048223406
137	0xbcaad82c	-0.020855032
138	0xbc3d33e2	-0.011548014
139	0x3d2c4dbc	0.04206632
140	0x3d28589e	0.041100137
141	0xbc09d6d0	-0.008413032
142	0xbd2a2612	-0.041540213
143	0x3ca84181	0.020539047
144	0xbb10ac2d	-0.002207528
145	0x3dbf161c	0.09330389
146	0x3d769a96	0.06020602
147	0xbd56bbee	-0.052425317
148	0x3d6ad0c0	0.057327986
149	0xbd49c800	-0.049263
150	0x3d5e5bca	0.054286756
151	0x3c24c08e	0.010055674
152	0xbcca59e3	-0.024701064
153	0xbd562b27	-0.052287247
154	0x3b8d7dd1	0.004317977
155	0x3d1bfc3a	0.03808234
156	0x3ad46631	0.0016204772
157	0xbb26f237	-0.002547396
158	0x3cfb1c93	0.030653274
159	0xbd5e2bc5	-0.05424096
160	0xbd457b8f	-0.048213538
161	0xbddc5fd8	-0.10760468
162	0xbd4af986	-0.04955437
163	0x3d412591	0.047154967
164	0x3cde7b3e	0.027158376
165	0x3c74e406	0.014946943
166	0xbd9813dc	-0.07425663
167	0xbd11a186	-0.03555443
168	0x3d0ce425	0.034397263
169	0x3d4b32f9	0.04960916
170	0x3d81dd48	0.06341034
171	0x3c31dabe	0.010855375
172	0x3c11015e	0.008850424
173	0xbcf77a9c	-0.030209832
174	0xbd317d5e	-0.04333245
175	0xbc9bf390	-0.019037038
176	0x3c937cfb	0.018003931
177	0x3d143773	0.036185693
178	0x3c1c7b87	0.009550936
179	0xbd401fde	-0.04690539
180	0xbcb66bea	-0.022268254
181	0xbd9b10ff	-0.07571601
182	0xbac7a4d3	-0.0015231617
183	0xbd69726e	-0.056993894
184	0xbd27c6a3	-0.04096092
185	0xbc505cec	-0.012717467
186	0x3dc0f6e0	0.09422088
187	0xbd3eccd0	-0.046582043
188	0x3c97f513	0.018549478
189	0xbc7448ab	-0.0149099035
190	0x3cf96d2a	0.030447561
191	0xbcc4a8ae	-0.024006214
192	0x3cf1b2b5	0.02950416
193	0x3e085ff4	0.13317853
194	0xbdf86cb5	-0.12130109
195	0x3e1029d8	0.14078462
196	0x3d220439	0.03955481
197	0x3de61112	0.11233725
198	0xbbe69036	-0.0070362343
199	0x3d5dccd2	0.05415041
200	0x3d7ea7ea	0.062171854
201	0x3d2d8356	0.04236158
202	0xbe25572c	-0.16146535
203	0xbe008b5e	-0.12553164
204	0x3cf32c85	0.029684315
205	0xbcb0f55f	-0.021601377
206	0xbd55f1dd	-0.052232612
207	0xbcd93070	-0.026512355
208	0x3dab8cff	0.08376502
209	0x3d59112b	0.05299489
210	0xbd429813	-0.04750831
211	0x3d5d0cfb	0.053967457
212	0x3dcd169f	0.1001408
213	0x3e58af96	0.2116073
214	0x3d15f61f	0.036611672
215	0x3ca0e8e6	0.019642305
216	0x3e319ae2	0.1734424
217	0xbd79a9b6	-0.060952865
218	0xbd90c3e9	-0.07068617
219	0xbd73e736	-0.05954667
220	0xbcf475a6	-0.029841255
221	0xbd026a5e	-0.03183972
222	0x3db25109	0.087068625
223	0x3d43a69a	0.047766306
224	0xbb92e3e9	-0.0044827354
225	0xbd1ab5dd	-0.037771095
226	0x3b939eb4	0.004505003
227	0x3c4bd7f2	0.012441622
228	0x3c99f727	0.01879461
229	0xbd87a7d8	-0.066238105
230	0xbca35a86	-0.019940626
231	0xbc8445e7	-0.016146613
232	0x3d9e0171	0.07715119
233	0xbc8e1dcd	-0.017348194
234	0xbba22dcd	-0.0049493075
235	0x3bdf6cc8	0.0068183877
236	0xbc6fa642	-0.014627041
237	0x3bdd68ea	0.0067568915
238	0xbcec5897	-0.028850837
239	0xbd5c406a	-0.053772368
240	0xbd3e842a	-0.04651276
241	0x3cf869b9	0.03032385
242	0x3cdcd9bc	0.026959293
243	0x3cc817ba	0.024425376
244	0xbca83840	-0.020534635
245	0xbda4113a	-0.08011098
246	0xbd3e8a36	-0.046518527
247	0x3d066de0	0.03281963
248	0xbd25161f	-0.0403043
249	0x3afa74cd	0.0019108296
250	0xbbdb2658	-0.0066879205
251	0xbc0271a8	-0.007961668
252	0x3b9a9d1a	0.004718435
253	0x3c519e9a	0.012794161
254	0x39d499c5	0.00040550358
255	0x3c37eb7e	0.011225579

convs.2.bias f4 [32]
0	0x3b59cf1e	0.0033235024
1	0xbd500e61	-0.050794963
2	0x3d60e788	0.054908305
3	0xbdb31967	-0.087450795
4	0xbcdaa0c8	-0.026687995
5	0xbdbc3cb8	-0.09191269
6	0x3c50830b	0.012726556
7	0xbd6edf5b	-0.058318477
8	0xbd4d6e87	-0.050154235
9	0xbd0b1506	-0.033955596
10	0x3da8e12d	0.08246074
11	0x3d9a9f93	0.075499676
12	0xbd2dc871	-0.042427484
13	0x3c595511	0.01326491
14	0x3ccffdfb	0.025389662
15	0x3d545096	0.051834665
16	0xbd84f67d	-0.064923264
17	0xbd354e66	-0.04426422
18	0x3d243e62	0.040098555
19	0xbd8546dc	-0.06507656
20	0xbd869ab6	-0.065724775
21	0xbdd23bed	-0.10265336
22	0xbd23227d	-0.039827812
23	0xbcc5ef65	-0.024162004
24	0xbd856863	-0.06514051
25	0x3d7bc90d	0.061471034
26	0x3cd8a7fe	0.026447292
27	0x3d012dc8	0.0315378
28	0x3d105f22	0.035246976
29	0x3c829a51	0.015942724
30	0xbd564e50	-0.05232078
31	0x3a0b7905	0.00053204625

convs.3.basis f4 [4, 32, 32]
0	0xbd1d67fc	-0.038429245
1	0x3d9dbd27	0.077020936
2	0xbd69196d	-0.056909014
3	0x3d38e15a	0.045136787
4	0x3c09a6e9	0.008401611
5	0xbcd998c6	-0.026562106
6	0x3d893cca	0.06701048
7	0x3d62abc6	0.055339597
8	0xbb600b1e	-0.0034186314
9	0xbd76305f	-0.060104724
10	0xbd832f68	-0.064055264
11	0x3ddd1c02	0.10796358
12	0xbdb25a28	-0.08708602
13	0x3c9d7fef	0.019226043
14	0x3d191a33	0.0373785
15	0xbd6cb640	-0.057790995
16	0xbcc88c30	-0.02448091
17	0xbbb26927	-0.005444664
18	0x3c20a77e	0.009805558
19	0x3c23a1ee	0.0099873375
20	0x3cf54c8a	0.029943723
21	0x3d465bfd	0.04842757
22	0x3dcb5de2	0.09930016
23	0x3d582b0d	0.05277543
24	0x3dce5bbc	0.10076091
25	0xbcc9b60e	-0.024622943
26	0xbdd3742c	-0.103248924
27	0xbded91da	-0.116000846
28	0x3ca0d703	0.019633776
29	0xbdd51181	-0.10403729
30	0x3d217f73	0.039428186
31	0xbc78855a	-0.015168512
32	0x3d8ef6a7	0.06980639
33	0xbd9f0092	-0.07763781
34	0x3d136b10	0.035990775
35	0x3d5e19fb	0.054223996
36	0x3cc0b237	0.02352248
37	0x3d388a2f	0.045053657
38	0xbda172f9	-0.078832574
39	0x3cea9f70	0.028640479
40	0x3e0548dd	0.13016076
41	0x3c8852ff	0.016641138
42	0xbcf9a457	-0.030473871
43	0x3d721ca2	0.059109338
44	0xbc80f951	-0.015743883
45	0x3d8f19c9	0.0698734
46	0xbd58722a	-0.05284325
47	0x3d7b483d	0.06134819
48	0xbd1ee92a	-0.03879658
49	0xbcfec348	-0.031098977
50	0x3ce22152	0.027603779
51	0x3b75291f	0.0037408543
52	0x3da79707	0.08183103
53	0xbd835e1e	-0.06414436
54	0xbc979040	-0.018501401
55	0xbd412eb3	-0.047163676
56	0xbd58b55a	-0.052907325
57	0x3da333bc	0.07968852
58	0xbd59837e	-0.053103916
59	0x3d82105c	0.063507766
60	0xbc9c28e1	-0.019062461
61	0x3d9a57e4	0.07536295
62	0x3d9ac2a6	0.075566575
63	0xbdcbbbe0	-0.09947944
64	0xbcd5c396	-0.02609424
65	0xbd40755c	-0.046986923
66	0x3d1a7202	0.037706383
67	0xbcf644bc	-0.030062072
68	0xbcfd3b66	-0.030912112
69	0x3d4d5c3f	0.0501368
70	0x3dadf161	0.08493305
71	0xbcf41d16	-0.029799026
72	0xbdd7e0f7	-0.105409555
73	0xbd653f41	-0.055968527
74	0xbd17e828	-0.037086636
75	0x3cdc1ca6	0.02686913
76	0xbb02e147	-0.0019970702
77	0x3be66a13	0.007031688
78	0x3da48e3f	0.08034944
79	0x3d82efe1	0.063934095
80	0xbcc252e4	-0.023721166
81	0xbc47cf8b	-0.012195478
82	0xbb60d493	-0.0034306392
83	0xbc58d35b	-0.013233985
84	0xbcd03260	-0.025414646
85	0x3d947d1a	0.07250424
86	0x3c26d634	0.010182906
87	0x3d4bd0ec	0.04975979
88	0xbc3e40fb	-0.011612172
89	0x3d631c6b	0.055447023
90	0xbd1af7e6	-0.03783407
91	0x3a3047b5	0.00067245524
92	0x3d87a7db	0.06623813
93	0xbdc6b4c7	-0.09702449
94	0x3d27b7ec	0.040946886
95	0x3ca0934c	0.019601487
96	0xbc935ce7	-0.017988635
97	0x3d51dbec	0.051235124
98	0x3c636d39	0.013881021
99	0x3d72e313	0.059298586
100	0x3cb39025	0.02191932
101	0x3c9a7da1	0.018858733
102	0xbd4a74f8	-0.049427956
103	0xbb1dbdd9	-0.0024069457
104	0xbc2216f6	-0.00989317
105	0x3d7a69df	0.061136123
106	0xbcbddb1a	-0.023175765
107	0xbca1525a	-0.019692589
108	0xbd86035b	-0.06543609
109	0x3d55b216	0.05217179
110	0xbc3e6977	-0.0116218245
111	0xbda347db	-0.0797269
112	0xbc8f24e0	-0.017473638
113	0x3d320419	0.04346094
114	0xbd492d48	-0.04911545
115	0x3d7d5814	0.061851576
116	0xbdb73b54	-0.08946863
117	0xbd769cd5	-0.06020816
118	0x3c058ce6	0.008151269
119	0xbd826273	-0.06366434
120	0x3d05bc61	0.032650355
121	0x3cfba034	0.03071604
122	0xbd6c26a4	-0.057654038
123	0xbd407d5f	-0.046994563
124	0x3dc2f04c	0.09518489
125	0x3d3d3b41	0.046199087
126	0x3d160b68	0.03663197
127	0xbde23eed	-0.110471584
128	0xbd1c1747	-0.038108137
129	0x3bb5f4e9	0.005552877
130	0xbbca115e	-0.006166621
131	0xbd17a771	-0.03702492
132	0x3d14ee0e	0.03635984
133	0xbc808867	-0.015690042
134	0xbd21c5e3	-0.03949536
135	0xbd74c575	-0.059758622
136	0x3d979a38	0.07402462
137	0x3ba21e95	0.0049474933
138	0x3d51d068	0.051224142
139	0xbbe3a9bf	-0.0069477255
140	0xbcb2154a	-0.021738667
141	0xbc7b2376	-0.015328279
142	0xbd2b1e95	-0.041777212
143	0xbcf8b9df	-0.030362068
144	0xbcd9f78f	-0.026607303
145	0x3d43118f	0.047624167
146	0xbd2410e7	-0.04005518
147	0xbcdc553f	-0.026896117
148	0xbd04f4ff	-0.03246021
149	0xbd43f210	-0.04783827
150	0xbd34ac12	-0.04410941
151	0x3d59f91b	0.05321608
152	0xbd8fb901	-0.070177086
153	0xbd845445	-0.06461386
154	0xbd10700e	-0.035263114
155	0xbcc80305	-0.024415502
156	0x3cc4a8e1	0.024006309
157	0x3d1b2875	0.03788038
158	0x3c759863	0.014989945
159	0xbd975713	-0.07389655
160	0xbb352b01	-0.002764404
161	0xbd7871df	-0.06065547
162	0xbdaae3a0	-0.08344197
163	0xbcb03517	-0.02150969
164	0x3cf2b98c	0.029629491
165	0x3c6ed2c0	0.014576614
166	0x3cffb3b9	0.031213628
167	0x3cd63352	0.026147518
168	0x3d95cd59	0.073145576
169	0xbc7919e6	-0.015203929
170	0x3cd86f47	0.026420249
171	0xbd91936b	-0.07108196
172	0x3d30b351	0.04313976
173	0x3d8a9cc7	0.06768184
174	0x3d558e68	0.052137762
175	0xbcd38e0a	-0.025824565
176	0x3b7e4600	0.0038799047
177	0xbcb262f2	-0.021775696
178	0xbd5111d5	-0.051042397
179	0xbcfa4771	-0.030551644
180	0xbc253c83	-0.010085228
181	0x3d033b78	0.032039136
182	0xbc16461f	-0.009171992
183	0xbc570100	-0.013122797
184	0x3d019f74	0.031646207
185	0xbccf84e2	-0.025331918
186	0xbd14ea5e	-0.036356322
187	0xbcaca1f1	-0.021073313
188	0x3b6bf7c0	0.0036005825
189	0xbba80cf6	-0.005128498
190	0x3d846f75	0.06466571
191	0xbde7cee0	-0.11318755
192	0xbd6354c0	-0.055500746
193	0xbb0d0056	-0.0021515093
194	0x3d343563	0.043996226
195	0xbd22db6f	-0.03976005
196	0x3cbcbddb	0.023039749
197	0x3ca32eff	0.01991987
198	0xbdb3c2c3	-0.08777382
199	0x3d358e4a	0.04432515
200	0xbd6c3cf8	-0.05767533
201	0x3cfa96e4	0.030589528
202	0xbc94a2dc	-0.018144064
203	0x3c9d2a82	0.019185308
204	0x3c20cb2c	0.009814065
205	0xbd679265	-0.056536097
206	0x3d8fefb1	0.070281394
207	0x3cce1fb4	0.025161602
208	0x3d2c3f16	0.04205235
209	0xbcced7e8	-0.025249436
210	0x3b631663	0.0034650795
211	0x3d347015	0.044052202
212	0x3c04c740	0.0081041455
213	0x3c70c3c4	0.014695112
214	0x3c04357b	0.008069391
215	0xbd7e9d70	-0.062161863
216	0xbd228f49	-0.03968743
217	0xbc9ebe61	-0.01937789
218	0x3b812791	0.0039414843
219	0xbd9fe42e	-0.07807194
220	0xbd4fbe04	-0.050718322
221	0xbd303ebc	-0.04302858
222	0xbd04b68f	-0.032400664
223	0x3da01653	0.07816758
224	0x3d7d0ad3	0.0617779
225	0xbd26ba1c	-0.04070483
226	0x3a9fc8c4	0.001219057
227	0x3ca075ab	0.019587358
228	0x3c895597	0.016764445
229	0xba40afba	-0.0007350404
230	0xbcd73ad6	-0.026273172
231	0xbc9f728c	-0.0194638
232	0x3dce6c23	0.10079219
233	0xbc16b2dd	-0.009197918
234	0x3b071baa	0.0020615854
235	0x3ca0e05d	0.019638235
236	0x3cb663ec	0.022264443
237	0x3cfeecaa	0.03111871
238	0x3d3d372b	0.04619519
239	0x3c95f46d	0.018305028
240	0x3d83dba3	0.06438377
241	0x3d92d70c	0.07169923
242	0x3d863678	0.06553358
243	0xbcf51dfb	-0.029921522
244	0x3ce60d3a	0.028082479
245	0x3d57fd0f	0.05273157
246	0x3d7a2aac	0.06107585
247	0x3d597f0f	0.05309969
248	0xbd0c6dcf	-0.03428441
249	0x3db928e1	0.09041
250	0x3cdb1a1a	0.026745845
251	0xbbc9305e	-0.006139799
252	0x3d3d1e51	0.04617149
253	0x3c0a7d05	0.008452659
254	0x3dd3b0cf	0.10336458
255	0xbd5f0601	-0.054449085
