results/flixster_testmode/model_checkpoint24.pth (torch_old, 199981 bytes, 19 tensors)

convs.0.basis f4 [4, 4, 32]
00000000: d18d 553d 9fcd 96b9 fb78 793d 3422 5c3d
00000010: 4948 8ebd dfd0 573e 056e 05be 9a56 febd
00000020: 326e d03d 7b6b 4bbe a4e3 e93d ef1a 15be
00000030: 85b6 57be b6a7 d83d 656a 103e 5d60 c9bd
00000040: a616 44bd 1e24 9ebd 2e06 52be 7209 66ba
00000050: a6e7 263d c013 363e 5d69 693d 019c b2bd
00000060: f6ea 933d 74c3 0cbe 0abc e33d 5973 fd3c
00000070: de6e 133e 297c 863e 9ca3 5abe a6a2 e63c
00000080: faef 49be e72d 12be 23ee 11be b8f7 cd3c
00000090: 03d0 cebc 0625 8d3e d5c9 33bd d757 8bbd
000000a0: fef6 75be 809f e5bd 0d2d 0b3e 865e 4dbe
000000b0: aa89 b2bc 1b5c b439 3eda 213d b5d0 f5bd
000000c0: ba9b a4bd 1715 58be 0285 8b3d 3af5 0ebe
000000d0: 3153 febd d437 213e 80be e0bd 3356 94bd
000000e0: 4633 493c 47de 52bd 3f1e 8a3c 6946 c03c
000000f0: eb7e 033e 68e2 203e a6f6 83be d6ac 103d
00000100: cafd 96bd 9286 d3bd 397f 0c3d c119 a13d
00000110: bbd7 4ebb d99c dbbd 1018 fe3c 79cd 88be
00000120: 2105 a3be 1a5f afbc 2bff debb a1af 883d
00000130: 3066 7f3e 469a 363d fad4 293d 4f10 09be
00000140: 6286 0d3d faa3 8bbd 8047 cb3d 15b6 c33d
00000150: aacc 743d 141b c93d 6699 23bf 10da e8be
00000160: 00ff babe 1378 5c3c 3554 c1bd 9f57 d23c
00000170: fc6a 83bd f9dd 583d 49ca 413c e404 c73d
00000180: 0bb7 0d3e b9c2 38bd 8e23 2abc edbc d9bc
00000190: 0bca 39be f642 94be 5896 6bbd ee90 953d
000001a0: 5701 bc3e 849b 053f 7454 043f c36f 1c3e
000001b0: 15a4 e93d f0ae 873d fc44 bcbd 03f3 57bd
000001c0: 0269 cabe 4778 cebd e833 fcbd 87e9 9ebc
000001d0: 2bde 78bd 10b4 01bf 9661 08be 048c a43d
000001e0: f389 8dbd 6c87 583e 6a03 3bbe 70bd 41be
000001f0: faa8 8c3b fb9d e93d f6e6 1c3e f6aa 8a3d
00000200: 8040 dc3b a109 013c 7c92 4d3d 4962 6c3d
00000210: b8b0 b1bd 700d 103e 08ad 42bd 4120 b5bd
00000220: f3b7 f6bc b8af 21be 0f22 3c3d cbac 2abd
00000230: fbb7 0abe 3fa8 9e3d 33fa 053e 5334 42be
00000240: 2a50 83bd 4092 93bd b31e b6bd ff69 03bd
00000250: 8cbb ed3c 9cf5 1d3e e884 c93d 3fea f9bd
00000260: 3980 433d 17ce c1bd 08aa e83d 71d3 353c
00000270: d997 5d3d 929c 543e b484 1dbe 0706 d23c
00000280: f54d 11be a16c b8bd f98c 0cbe 48c6 cb3d
00000290: 5416 c9bc 9d1d 5d3e f778 60bd 8955 eabc
000002a0: e85d 09be eec9 ddbd 2cca fc3d 98db 58be
000002b0: 51df 04bd b37f 29bc 6d92 da3d f2e1 a4bd
000002c0: 93b6 aabd c2e1 1dbe e655 bc3b 7047 a5bd
000002d0: 5102 f8bd 0097 033e bcca bfbc aaf2 3ebd
000002e0: 3eb2 543d 1980 41bd 644f cd3c ca72 993b
000002f0: 25a7 fa3d 6e11 5c3e f223 3fbe 7226 bf3c
00000300: 51e4 0cbd ebe6 15bc d94f c2bd a418 533d
00000310: 06fc a13d 75cf fb3d 2fa7 143d ab78 46be
00000320: 1ce3 16bf cf02 933d ef23 16be 4cb0 c5bd
00000330: de7b 833e 44cd 01bc 0a20 38be d421 76be
00000340: b491 333e 8d09 7bbd 11f6 0a3e 1998 213e
00000350: a1bd e0bd 0724 66bd a529 24bf f6d0 cfbe
00000360: 0595 9bbe e17d c23c 4bc5 343d f95c 82bd
00000370: 936f 6bbc 74a8 29bd a0e0 23bd 3fb5 973b
00000380: 47ab 2a3c f242 313e fd23 a23b ddf6 143d
00000390: c131 113e ca36 1dbe 0a34 253d 7cf6 d8bd
000003a0: 93e4 743e 8ece cb3e c92d c53e fb6a 04bf
000003b0: 4139 e8bd d61a 28bd e3e5 a1bd 818d 253d
000003c0: 94e8 58be 0568 24be 2175 44be 141e 39bd
000003d0: f6ba 513b 2f97 babe f7a1 523e d4cb 283d
000003e0: 4fe9 c03d a3a8 073e 190b d63d 3136 95bc
000003f0: 2529 4b3c d707 8e3d fbe7 febd 58bf 12be
0.0521372 -0.0002876343 0.06090639 0.053743556 -0.06947381 0.21075772 -0.1303025 -0.12418862
0.10177268 -0.1986522 0.11420372 -0.14561056 -0.2106572 0.10578863 0.14103086 -0.09832833
-0.04787316 -0.077217326 -0.2051017 -0.0008775211 0.04074826 0.17780972 0.056985248 -0.08721162
0.072225496 -0.13746434 0.1111985 0.030938791 0.14397761 0.26266602 -0.21351475 0.028153729
-0.1972045 -0.14275323 -0.14250998 0.025142536 -0.025245672 0.2756731 -0.043893654 -0.068038635
-0.24020001 -0.11212063 0.13591404 -0.20055589 -0.021794159 0.000344009 0.039514773 -0.12002698
-0.08037515 -0.21101795 0.068124786 -0.13960734 -0.12418211 0.15743953 -0.10973835 -0.07243004
0.012280291 -0.05148151 0.016860126 0.023471074 0.12841384 0.15711367 -0.25774115 0.03532108
-0.07372625 -0.103284016 0.034301016 0.0786624 -0.003156169 -0.10723276 0.031017333 -0.26719263
-0.3183985 -0.021407653 -0.0068053207 0.066741236 0.24941325 0.04458072 0.041462876 -0.13385127
0.034551986 -0.068183854 0.09925747 0.09556214 0.059765495 0.09819618 -0.6390594 -0.45478868
-0.36522675 0.013456362 -0.09439889 0.025676547 -0.0641689 0.052946065 0.011828014 0.0971773
0.13839357 -0.045107577 -0.010384453 -0.026579345 -0.1814348 -0.28957337 -0.057516426 0.07303034
0.36719772 0.52190423 0.51691365 0.15277009 0.11408249 0.066251636 -0.09192845 -0.05272199
-0.3953324 -0.10081535 -0.12314588 -0.019398464 -0.06075875 -0.5066538 -0.13318476 0.08034518
-0.06911077 0.2114541 -0.18263021 -0.18919921 0.0042926045 0.114070855 0.1532248 0.067708895
0.006721556 0.007875831 0.050188527 0.05771092 -0.086762846 0.14067626 -0.047528297 -0.088440426
-0.03011701 -0.15789688 0.04593092 -0.041668694 -0.13546745 0.07746934 0.13083725 -0.18965273
-0.064117745 -0.07205629 -0.08892574 -0.032083508 0.029020093 0.15425724 0.09839803 -0.12202882
0.047729705 -0.09463137 0.11360556 0.011097775 0.05409989 0.20762852 -0.15382653 0.02563764
-0.14189894 -0.09005094 -0.13725652 0.099499285 -0.02454678 0.21593328 -0.05480286 -0.02860524
-0.13414729 -0.10829531 0.12343249 -0.21177518 -0.032439534 -0.010345387 0.1067246 -0.08050908
-0.083356045 -0.15418151 0.0057475446 -0.08070266 -0.12109817 0.1285057 -0.023412101 -0.04661814
0.051927797 -0.047241304 0.02506227 0.0046828734 0.122389115 0.21491024 -0.18666056 0.023333762
-0.034397427 -0.009149293 -0.09487886 0.05153717 0.07909398 0.12295429 0.03629225 -0.19381969
-0.5894029 0.0717827 -0.14662145 -0.096527666 0.2568044 -0.007922474 -0.17980972 -0.24036342
0.1753605 -0.061288405 0.1357043 0.15780677 -0.10973669 -0.056186702 -0.64126045 -0.40589112
-0.3038713 0.023741664 0.044133466 -0.063653894 -0.014369863 -0.041420415 -0.04000914 0.0046297605
0.010416812 0.17310694 0.004948138 0.03636824 0.14179136 -0.15352932 0.04033283 -0.10593888
0.23915319 0.39806026 0.38511494 -0.5172574 -0.11339045 -0.041041218 -0.079051755 0.04041815
-0.21182472 -0.16055305 -0.19185306 -0.0451947 0.0032002307 -0.3644347 0.20569597 0.04121001
0.094195 0.13247924 0.104513355 -0.018214317 0.012399946 0.06935089 -0.124465905 -0.14330804

convs.0.att f4 [10, 4]
00000000: 2523 b7bd ff96 32be b824 8a3e 70a5 e23d
00000010: 4bf6 30be 8e7d 65bd b12b a53e 84a1 e73d
00000020: 98ce 53be e687 0c3e b4ca ac3e cfd5 fc3d
00000030: 3c95 48be 1367 4a3e 7da4 ab3e 9654 bf3d
00000040: cdc3 c5bc 6c44 913d 1f5c 983e 8503 193e
00000050: bc65 2ebd 2c3b 593e a438 903e 5ea0 123e
00000060: b570 353b 35a9 693e 137a 563e 1c2c d63d
00000070: ba9a c23d 8453 603e 963b 353e 3a1c a43d
00000080: 3e9d 423e f6cf 3f3e 313c 903d a972 ffbb
00000090: 0e5f a53e fa70 1b3e 3830 0b3d 4555 f4bd
-0.0894225 -0.17440413 0.2698114 0.11066711 -0.17281453 -0.05602794 0.32259896 0.113101035
-0.20684278 0.13723716 0.337484 0.12345468 -0.19588178 0.19765882 0.33523932 0.09342305
-0.024141217 0.070931286 0.29757783 0.14942749 -0.04257749 0.21213979 0.28168213 0.14318988
0.0027685587 0.22818454 0.20945005 0.10457632 0.09502168 0.21906859 0.17698511 0.08013196
0.19005296 0.18731675 0.070427306 -0.007795651 0.32299083 0.15179816 0.03398153 -0.11930326

convs.0.root f4 [4, 32]
00000000: b5fe a9bd 9323 893c 6665 24bd f354 4a3e
00000010: 9531 d93d b724 c5bb 429a d0bd eec4 60be
00000020: 3af0 643e 0d0d ce3e 11b6 b43e b912 9cbd
00000030: a9a8 783d f9bd 303e 8c6f ccbd e41f 93bd
00000040: f4de 5cbe d490 463e e2ee b83c 0a14 73be
00000050: 0c39 8c3c 4e2c 00be c92e 4c3d 2bba 5d3e
00000060: 6c1c 713c d137 5d3e d4b5 1abd 0139 81be
00000070: f96f ae3d 5fb1 82be 3084 8f3d 22a2 30be
00000080: 5bc9 233e 3387 243e 1ac8 68be 6a7c 3e3e
00000090: a548 d5bd 52e6 24be e724 c3bd 6f1a 5abe
000000a0: 482d 633d c33c 48be a18c a23d af89 2f3e
000000b0: f51f 9c3e d9a4 403e b3e8 04be 0720 a33e
000000c0: 9f97 5ebc 4723 c13d 9f74 803d 8a66 67bd
000000d0: 1fcd 98bd 1a52 62be a97b 76be 8d2e bebe
000000e0: d345 77be 16ca 04bc b09f 263e edf2 4c3d
000000f0: cbba d73d 27a6 85bd 27d6 7b3e 96ac 8b3e
00000100: c321 76bd 5b64 fd3d f501 7d3c f8ab a5bc
00000110: 1076 fcbd 6266 20be 1d00 bdbd 3c08 febd
00000120: f7f9 e0bd bddc b13b eade 2abe 36a6 93bc
00000130: 2c87 433d 0c44 2a3e 8b32 513b 6e3f 43bd
00000140: 5f3f ebbd 39e6 eabd d523 28be e4c8 353e
00000150: b356 b9bc fea5 0a3e 6af1 1dbe 8c93 363d
00000160: 12e2 093d 3f68 a73d af7e c83d 0526 36bd
00000170: f06c 18be 6c0e dabd da63 1d3c ca02 58bc
00000180: b82e 03be b328 a8bc 6574 60bd 03e6 503e
00000190: 036e f8bc ef24 46bd 85bc 60bd a0c0 23be
000001a0: 249d 27be 6c65 a93d 2121 a1bd 16b3 2ebe
000001b0: b8bc 103e d46f 153e 83ad 773d f15b e03b
000001c0: 8e90 773c 4b8b 36be 52b3 7fbd 90b1 0c3e
000001d0: e25f 8abd 642b 053e 0a35 3ebe da92 00be
000001e0: ce7d 1abd 65e0 c43d 4833 903c 0e74 c9bc
000001f0: 8661 41be 915d 56bd 7e5d 09be f65b 9fbd
-0.08300535 0.016740596 -0.040135764 0.19758968 0.1060516 -0.0060163396 -0.10185672 -0.21950123
0.22357264 0.40244332 0.35295156 -0.076207586 0.06070772 0.17259969 -0.099822134 -0.07183817
-0.21569425 0.19391185 0.022574846 -0.23738113 0.017117046 -0.12516901 0.049849305 0.21653049
0.014716249 0.21603324 -0.03777106 -0.25238803 0.08517451 -0.25525948 0.07007635 -0.17249349
0.1599478 0.160672 -0.22732583 0.18602148 -0.104142465 -0.16103485 -0.09528523 -0.21299146
0.055463105 -0.19554429 0.07936979 0.17142366 0.3049313 0.18812884 -0.12979393 0.31860372
-0.013585954 0.09430557 0.06272244 -0.056494273 -0.07460999 -0.22101632 -0.2407061 -0.3714489
-0.2414773 -0.008104822 0.16271853 0.05003636 0.10533675 -0.06525832 0.24593411 0.2728011
-0.06009079 0.12372657 0.015442361 -0.020223603 -0.12327206 -0.15664056 -0.09228537 -0.12403914
-0.10985177 0.0054279254 -0.16686597 -0.018023591 0.04773633 0.1662752 0.0031920995 -0.047667913
-0.114866965 -0.11469693 -0.16419919 0.17752415 -0.02262435 0.13539883 -0.15424123 0.044574305
0.033662863 0.0817418 0.09789788 -0.044469852 -0.14885306 -0.10647282 0.009606326 -0.013184259
-0.1281079 -0.02052722 -0.054798502 0.20400243 -0.030325895 -0.048375066 -0.054867286 -0.1599145
-0.16368538 0.08271298 -0.07867647 -0.17060503 0.1413449 0.1459344 0.060468208 0.006846898
0.015110148 -0.17826574 -0.062426873 0.1373961 -0.067565694 0.13004833 -0.1857492 -0.1255602
-0.037717633 0.09613112 0.017602578 -0.024591472 -0.18884858 -0.052335326 -0.1341457 -0.07781212

convs.0.bias f4 [32]
00000000: 1851 fe3d 264f 24ba c57f be3d a006 56be
00000010: 3024 bf3d 6cee 0d3b f243 cb3d be54 053e
00000020: e7f9 333e 619b afbc 5bbb 0e3d 4382 453e
00000030: 7086 82bd 511b 2cbe d858 49be 3727 3d3d
00000040: 4c8e 9f3d fce4 533e 2ec1 2b3e 7da2 e8bd
00000050: 1338 343d 549f 85be 743d 1b3e b970 9b3c
00000060: 0cd8 923b fb71 95bd 0b75 b1bd 6232 223d
00000070: 773c cf3d d172 08be a1c2 3b3e 9b03 3f3c
0.12417811 -0.00062678976 0.09301714 -0.20900965 0.09333074 0.0021657003 0.09925069 0.13020608
0.17575799 -0.021436395 0.034846645 0.19287972 -0.06373298 -0.16807295 -0.19662797 0.046179976
0.07790813 0.2069282 0.16772911 -0.11359117 0.04399879 -0.2609812 0.15160161 0.018974649
0.004481321 -0.07297131 -0.08664902 0.03959883 0.10118955 -0.13325049 0.18335964 0.011658574

convs.1.basis f4 [4, 32, 32]
00000000: 3b8b 03be 6122 86bd d11e febc b8ee 9fbc
00000010: 62e9 34bd 15f0 40bd 8e1e 75bd be21 f33d
00000020: eeb2 eb3c c473 9e3c ae7c 4a3b 9703 5f3d
00000030: c430 d0bc 78a6 c5bb be1e 7b3d 08a1 523c
00000040: 9adb 673c 4a48 42bc 6936 633d 79f1 6ebd
00000050: 593e 893d b992 bbbd d410 263d 662e 23bd
00000060: 3542 aebc 5f57 6f3d 9f5a 0cbc 3eb2 8d3d
00000070: d74f b83b 1a2f 163d 0dc0 cbbc 8bc7 a3bc
00000080: 5820 31bc 583e adbc 812d 6bbd cb27 2f3c
00000090: 2584 b5bc e158 a3bc 6e30 acbd c482 153c
000000a0: 37d4 83bc e163 053d b3c3 a63c 1afd 123d
000000b0: ae0c 95bb 4874 593c 562b 3fbd 7fb9 d63d
000000c0: 2c2f df3c 8056 3bbb 8330 5a3c 39a5 4fbb
000000d0: ede7 333d 0269 b0bd 82bd e6bc ad8c 903c
000000e0: 1da9 ea3b d755 053d 0e3d d03c 155d 92bd
000000f0: c76a d13c 603a 0abd 23f1 443c 3396 023d
00000100: ee1b a63d bf73 cc3c f8af 803c d423 4fbd
00000110: feef 26bc 1169 0bbc 4f5d f43d 0820 0ebe
00000120: de10 05bd 0c23 44bb b59e 2b3d 07fe 353c
00000130: d2be 40bd 88fe b339 a34c 1e3d 018e 05be
00000140: 6ca7 10bd 2507 bdbc be85 e2ba eb3b a33b
00000150: 9f37 ef3c 9029 863d 2084 013c c474 193d
00000160: ff88 c4bd 97a7 30bc 2acb 4b3d 8126 983d
00000170: b6b9 01bc a082 ce3c 1220 71bc 8ad7 f5bc
00000180: bad4 30bd 5202 0b3b 195c 643d 622c 813d
00000190: 05a0 323d 7f68 023d eb2d 023d ac18 9e3c
000001a0: 7b8b 913b 6540 42bc 3dbb 96ba ee9a 1bbd
000001b0: fdd8 553d fec6 12bd ca2c 3abd 807c d33c
000001c0: 19c5 2abb 5a2f e1bc 1446 033d 2632 903c
000001d0: 891c 49bd 6fda 823d 46f3 55bd 29e6 7dbc
000001e0: e340 2d3d cdec eabc a3b1 65bd f7b3 173d
000001f0: e39c 8c3a cd76 9d3c ef9f fbbc d660 02bb
00000200: 8d0b a93d a683 9e3c d8fe 413d a374 da3b
00000210: b148 183d c352 6cbc 40d4 cf3d 078d 8ebb
00000220: 7e00 ec3a afcd 5eba 84be 553d 95d6 11bd
00000230: 7aec 823d 0514 c23b f47f 873d dbad 8bbd
00000240: 6414 edbc 7c17 6bbb 2799 6fbd 913e 2a3d
00000250: c0b3 bb3c 4c0c 24bc d453 eb3d 56f6 32bc
00000260: b59c bbbb b48f 70bb 82bf ebbc e0d9 fc3d
00000270: e187 b0bd 1c31 cc3d f470 15bd 88ac 49bc
00000280: 50f7 f83b 2833 043d 91eb b0bb 0d58 1bbd
00000290: b98a 2b3d d7ff c03b 853d 3a3e 9e50 adbc
000002a0: c47d 973c f9a7 2ebd fcc8 48bc 1086 20bb
000002b0: ce60 453d 6403 27bd fac4 c8bd c95a ec3d
000002c0: dc45 b13c 0ca7 e7bc 6a97 22bb 387b d13c
000002d0: 760b e7bc 19d6 a63d 2a87 e1bd bead ca3c
000002e0: 76a2 c03d 52ef 983b 0653 ffbc d111 453d
000002f0: d8a1 7f3d 29e6 ddbc fcce 913c c506 313c
00000300: 399f 46bd 41ad 2ebc 4937 4ebc 4a75 a2bc
00000310: 1b8a 443b aa64 023d 2c97 c43c b1cf 9b3b
00000320: 57c9 8739 0926 21bb f640 a33b bcd9 72bc
00000330: 68de f9ba 6607 633a 035a 183d 3214 bfbd
00000340: f412 4abd 10b2 313c 1455 3d3c 86cd 583c
00000350: ca29 713c 8bb9 903c ea05 b23d 76a9 7f3b
00000360: 48d8 58bc 337d 63bc 7813 25bd f067 b53d
00000370: 90ae a0bd 7b9a 2b3c b08c 51bc fa08 9d3a
00000380: e506 70be 90b7 3dbd da71 40bd 2092 10bd
00000390: 22a5 8abd 29cf cdbd 907c 22be bf95 433e
000003a0: 94fc 1f3d 9d00 983c cd80 88bc 0c0d 173c
000003b0: f546 b8bb 186a 88bd 865d 573d a8b6 2a3e
000003c0: 93a1 8d3d a8b6 0abd 6dbe 0e3d bae9 22bd
000003d0: 66c8 853c 29f6 8dbe 8585 c13c 8ba2 52bd
000003e0: d688 01bc 6b06 e73b 524f 28bc 53ca c2bd
000003f0: 2d41 4b3d ed44 d7bb 3eff dbbb 9835 afbc
-0.12846081 -0.06549526 -0.031020554 -0.01952301 -0.044167884 -0.04710396 -0.059843592 0.1187167
0.028771844 0.01934231 0.0030897069 0.054446783 -0.025413878 -0.0060318075 0.061308615 0.012855776
0.014151478 -0.011858055 0.05547181 -0.058335755 0.06701345 -0.091588445 0.040543392 -0.03983917
-0.021271804 0.058432933 -0.008566528 0.069187626 0.005624752 0.036666013 -0.02487185 -0.01999261
-0.010810934 -0.021147892 -0.057416443 0.01069064 -0.022157738 -0.019939842 -0.08407675 0.009125415
-0.016092403 0.032565955 0.020356989 0.035885908 -0.0045486307 0.0132723525 -0.046672188 0.10484599
0.027244173 -0.0028585494 0.01331723 -0.0031684174 0.043922354 -0.08613779 -0.028166536 0.017645204
0.007161273 0.032552566 0.025419738 -0.0714666 0.02556361 -0.033747077 0.012020382 0.031881522
0.08110796 0.024957536 0.015708908 -0.050571278 -0.0101890545 -0.0085089365 0.1193186 -0.13879406
-0.03248679 -0.0029928116 0.0418994 0.011107928 -0.04705698 0.0003433118 0.038647305 -0.13042451
-0.035315916 -0.023074696 -0.001728229 0.004981508 0.029201327 0.06550896 0.007905036 0.037464872
-0.095964424 -0.010782144 0.0497543 0.07429219 -0.007917812 0.025208771 -0.014717119 -0.030010004
-0.04317162 0.00212111 0.055751894 0.063072935 0.043609638 0.031837936 0.031782072 0.019298874
0.004441676 -0.011856173 -0.0011499893 -0.03798955 0.05220889 -0.035834305 -0.04545287 0.025816202
-0.002605742 -0.0274884 0.032049254 0.017602038 -0.04909948 0.06389319 -0.052233957 -0.015496769
0.04229821 -0.028677369 -0.05607761 0.037036862 0.0010727908 0.019221688 -0.03071591 -0.0019894144
0.08254156 0.019349884 0.04736218 0.006666736 0.0371787 -0.014424029 0.10147905 -0.004350308
0.0018005518 -0.0008499277 0.052183643 -0.035605032 0.063927606 0.0059227967 0.06616202 -0.0682027
-0.028940387 -0.0035872152 -0.058495667 0.041563574 0.02291286 -0.010012697 0.11490598 -0.010922989
-0.005725468 -0.0036706747 -0.028777841 0.12346244 -0.08619667 0.09970304 -0.036484674 -0.012309201
0.0075978413 0.03227535 -0.0053991755 -0.03792577 0.041880343 0.0058898735 0.1818753 -0.021156605
0.018492587 -0.04264066 -0.01225495 -0.002449397 0.048188023 -0.040774718 -0.09803195 0.115407534
0.021639757 -0.028277896 -0.0024809488 0.02557145 -0.028203707 0.08146305 -0.110121086 0.02474105
0.09405987 0.004667201 -0.031167518 0.048112694 0.062410206 -0.027087288 0.017798893 0.010804837
-0.04849169 -0.010661424 -0.012586423 -0.019831318 0.0029989544 0.031834282 0.023997866 0.0047549834
0.00025899216 -0.002458932 0.004982109 -0.01482242 -0.0019063475 0.0008660465 0.037195217 -0.09330024
-0.04933448 0.010845676 0.011555929 0.013232594 0.014719436 0.017666599 0.08692534 0.0039010919
-0.013235159 -0.01388483 -0.04030177 0.08857715 -0.07845795 0.010473843 -0.01278989 0.0011980825
-0.2344013 -0.046317637 -0.046983577 -0.035295606 -0.06769778 -0.10049278 -0.1586783 0.19100092
0.039059237 0.01855498 -0.01666298 0.009219419 -0.005623693 -0.06660861 0.052579425 0.1667124
0.069155835 -0.0338656 0.034849573 -0.03977368 0.016330909 -0.27726868 0.023623237 -0.051424544
-0.007906159 0.0070503256 -0.010272818 -0.095112465 0.049622703 -0.006569496 -0.006713777 -0.02138786

convs.1.att f4 [10, 4]
00000000: 5f82 60bd b3c8 333e e467 89be 567e 963c
00000010: b6f5 433d 661a 0c3e 34d2 80be 271c b63c
00000020: 9352 e93d ac38 b03d 423e 63be dbb6 42bd
00000030: 7325 f23d 4006 48bb 0ccc 4abe df11 c7bd
00000040: 67e0 e23d 29bf 7abd 3289 09be 14ad c1bd
00000050: a2ae 283d 84bc cebd bd62 03be e971 9fbd
00000060: dcab 1c3d fb35 0cbe d79e 8ebd 38c3 3a3d
00000070: 3e1a 1d3d 4722 30be f6ec 9a3b fe31 b43d
00000080: c59b 2cbd 9ccf 2abe c403 013d 857a c03d
00000090: 55e0 22be b47d 38be fc80 a03d cb68 1a3d
-0.05481183 0.1755703 -0.26837075 0.018370789 0.04784175 0.13681945 -0.25160372 0.022230221
0.11392703 0.08604559 -0.22191718 -0.047537666 0.11823549 -0.0030521303 -0.198044 -0.097202055
0.110779576 -0.06121746 -0.13431242 -0.0945684 0.041182168 -0.1009455 -0.12830634 -0.077853985
0.038249835 -0.13692467 -0.0696389 0.04559633 0.038355105 -0.17200576 0.004727955 0.08798598
-0.04214074 -0.16680759 0.03149773 0.09398369 -0.15905888 -0.18016702 0.07837102 0.037697595

convs.1.root f4 [32, 32]
00000000: c7b8 59bd 2189 ca3d 1b68 233d a455 7c3c
00000010: 4cbd f83c 014a fcbc 9d6a 4fbe 9690 b03d
00000020: 4770 7a3a 4e19 03bd 7c1f 113c 3117 efbb
00000030: 52b2 b2bd d0cc 9ebc be70 c73b 3ea4 213d
00000040: cdc1 b5b9 a2ac 0abc 1937 98bd e352 8fb9
00000050: c23e 82bc d7b1 143d ad56 9b3c 26af 483d
00000060: 03a5 1abd 5693 3bbd 289f 1abd 4ab9 ca3d
00000070: 99aa 5cbd 522b ecbd 8057 9cbb f4bf ff3c
00000080: 6c01 2a3c 1fc5 eb3c 27d3 c13d 8de0 823b
00000090: 68ee 4f3d 5de5 a1bc 13f4 dc3d 4c21 0c3d
000000a0: 1b56 bc3c fce8 8bbd a786 023d 6720 8f3d
000000b0: 5298 45bd 37d0 b8bd c0e9 ba3b 7849 49bd
000000c0: f5fe 3abd 9afd 11bc 50e3 e23d ef7a c73b
000000d0: 0984 3e3c e561 ca3d a14b e1bb 0fbf 3cbd
000000e0: 8c81 3f3d 3268 c43c 94b7 7f3a f7a0 e8bd
000000f0: 21f4 31bc f0ed 9cbd 3bf3 b3ba eb04 e7bc
00000100: b4ad 993c 7466 593b 5095 0c3d a8d7 073d
00000110: df24 2f3c 713c 8fbd 8773 013e 475b 803d
00000120: a545 9e3c 6c08 00bb cb47 86bb 8213 a13b
00000130: 236b 423d a6a4 d5bc 42a8 87bd 9a59 04bd
00000140: bdf5 e5bc 640f c4bd 42aa 28bd b694 06bd
00000150: 5fc1 04bd 8ae6 2c3c 2d5e 5cbc b1fe 1f3d
00000160: 456a 793d b800 45bc 62eb 5b3d bc63 65bc
00000170: da9a 813d 2f9c a2bd 9cef 95bd 6570 273d
00000180: 3042 103d 61ba bc3d d695 23bc 2cd0 e8bd
00000190: a154 4dbd 4721 003d 78ec 2cbd 4eaf 0fbd
000001a0: 1bca 32bd 0fe7 5f3d 977d c23d 822f 223d
000001b0: b5d4 1f3c 382d 9ebc 59e2 003d 2090 a13d
000001c0: b445 18bc c90d 3abd ffd6 953d c46e cd3d
000001d0: 6610 29bd 6e01 233c 95e6 083e 57e4 06bc
000001e0: 7bbb 41bd b7bb 803c d6c9 b93d 6ae2 033e
000001f0: 3198 a43c 2c41 cd3b 3155 d1bc b2ac 453d
00000200: df48 843d bed4 e73d a5cf 7d3d c803 efbc
00000210: cc12 cd3d 4375 1c3d 7419 9e3d 1bb2 b6bd
00000220: 5e42 70bd 3f02 65bd 76b5 72bd 114d 093c
00000230: 3801 533d 1d9c 3ebc 3200 03be 0d08 113d
00000240: 8e6d 143b 082c 64bd 3d51 38bd c240 903b
00000250: 8fcc f53d 1eb0 1c3e dcf7 7bbc 1643 4ebd
00000260: 3b5f 37bd fcfa 443d 98f8 8d3d 55d7 58bd
00000270: 7cd2 583c 948a fabb 631a 5b3d 99aa 8abd
00000280: 9f7a 923d fe36 56b9 1221 4fbc 9306 8b3d
00000290: e70d 033d 30c3 173d 242e 18bd c148 bc3d
000002a0: 2001 b73d 6e01 5f3c 8ab0 d93d 7a7c c3bd
000002b0: 8ff9 d1bd 3806 abbd ca6d d43c 62b6 28bd
000002c0: 23c9 66bd e856 753d cef1 54bd bbc0 7d3d
000002d0: 6e84 60bc dd41 b63c ee04 743d 944e 44bd
000002e0: 458e 18be 18cb 1cbd 5b05 973c f2a1 193e
000002f0: ef4d aebd acd3 2dbd aa03 4fbc b937 e9bc
00000300: d909 fbbc 9102 8cbd 466c d03d 8fc1 32bd
00000310: b119 efbc ed2e e2bc 8bc5 69bd 14ef 6fbd
00000320: abf3 d33c 0482 493a 005d 2abd dce1 383d
00000330: f465 8bbd e939 133d b7c7 49bd 5bdb 68bc
00000340: 80b8 34bc fce6 49bd 0691 cabd 35cc 823b
00000350: de46 11bd d681 703d 3b2e d73d 4b90 aebd
00000360: fb17 3b3c 8559 6e3d 038b a93b 9400 d3bc
00000370: 4288 ddbd 46fe 3c3d fadc 16bb 1a32 813d
00000380: f4d6 2bbc f2e4 373d f743 7bbd 2db1 4bbd
00000390: efe7 4fbd 3318 3cbd fe0e 38be a70c f4bc
000003a0: eacc 133c e087 743d 9c4c e13c f7a9 48bd
000003b0: 20e7 dabc 7ee0 a03d 56ca 40bd 01f4 a7bd
000003c0: 7a07 16bb 34f1 d53c 25df 633d 69a5 ad3d
000003d0: 0373 663d 210f 08bd b206 04bc a165 0ebc
000003e0: a6c1 90bd b571 9dbb 1686 bcba 1fe8 693d
000003f0: 41c4 1bbb d5c9 8e3d 0b69 d3bc f146 0dbd
-0.053154733 0.098894365 0.039894205 0.015401278 0.030363701 -0.030797007 -0.20255513 0.086213276
0.0009553474 -0.032006554 0.008857604 -0.007296466 -0.08725418 -0.019384772 0.006086438 0.039463274
-0.00034667403 -0.00846401 -0.07432384 -0.0002733684 -0.015899066 0.036302414 0.018962229 0.04899516
-0.037755024 -0.045794807 -0.03774944 0.09898622 -0.053873632 -0.115317 -0.004771173 0.03121946
0.010376316 0.028780518 0.09464102 0.0039940537 0.05076447 -0.01976269 0.10788741 0.034211442
0.022990277 -0.068315476 0.031866696 0.06988602 -0.048240967 -0.09024089 0.0057041347 -0.04914233
-0.045653302 -0.008910561 0.11078513 0.006087653 0.011628159 0.09881953 -0.0068754707 -0.046080645
0.046754405 0.023975465 0.00097548333 -0.113588266 -0.0108614275 -0.076625705 -0.0013729105 -0.028200587
0.018759586 0.003317264 0.034322083 0.03316465 0.010689943 -0.0699395 0.12641726 0.0626741
0.019320318 -0.001953627 -0.004097914 0.0049156556 0.047465455 -0.026079487 -0.066238895 -0.032312013
-0.028071279 -0.09573248 -0.041177996 -0.032856666 -0.032410976 0.010553012 -0.013450188 0.039061252
0.060892362 -0.012024097 0.053691275 -0.014000829 0.06328364 -0.07939946 -0.073210925 0.040878672
0.03521937 0.092152365 -0.009984454 -0.11367831 -0.050129537 0.031281736 -0.0422177 -0.035079293
-0.043649774 0.054663714 0.094966106 0.03959609 0.009755303 -0.019308671 0.031465862 0.07888818
-0.009293962 -0.045423303 0.07316398 0.100308925 -0.041275404 0.009949071 0.1336921 -0.008233151
-0.047297936 0.01571451 0.090717 0.12879339 0.020092102 0.0062638726 -0.025553318 0.0482604
0.064592116 0.11319874 0.061965603 -0.029176608 0.10013351 0.038197767 0.077196985 -0.0892069
-0.058657043 -0.055910345 -0.059255086 0.0083801905 0.051514834 -0.0116339 -0.12793043 0.03540807
0.0022648307 -0.055706054 -0.04499935 0.004402251 0.12001907 0.15301558 -0.0153789185 -0.050356947
-0.044768553 0.04809092 0.06932181 -0.05293973 0.013233777 -0.0076459143 0.05349196 -0.0677082
0.07152294 -0.00020429117 -0.012642162 0.06788363 0.03199568 0.03705138 -0.037153378 0.09193564
0.089357615 0.013611181 0.10629375 -0.095452264 -0.10252678 -0.083507955 0.025931258 -0.04118956
-0.056344163 0.059897333 -0.051988415 0.06195138 -0.013703449 0.022248203 0.059575014 -0.0479265
-0.14898022 -0.038279623 0.01843517 0.15003183 -0.085109584 -0.042438194 -0.012635151 -0.028468953
-0.030644344 -0.06836427 0.101769015 -0.043641623 -0.029187055 -0.027610267 -0.057073157 -0.058577612
0.025873026 0.00076869153 -0.041592598 0.04513727 -0.068065554 0.0359439 -0.04926273 -0.014212455
-0.011030316 -0.04929255 -0.09890942 0.0039916285 -0.035467975 0.05871757 0.10506865 -0.085236154
0.011419292 0.05819084 0.005174042 -0.025757112 -0.10817005 0.04614093 -0.0023019896 0.06308384
-0.010488261 0.044896074 -0.061344113 -0.049729515 -0.0507583 -0.045921516 -0.17974469 -0.02979119
0.009021023 0.059699893 0.02750235 -0.048990216 -0.026721537 0.078553185 -0.047067963 -0.08200837
-0.002289264 0.026115991 0.05563273 0.08478815 0.056262027 -0.033217553 -0.008058237 -0.008691222
-0.070681855 -0.0048048147 -0.0014383222 0.057106134 -0.00237681 0.0697209 -0.025806924 -0.034491483

convs.1.bias f4 [32]
00000000: b59c 76bd d33b 29bd dfee a2bc a7f3 2cbd
00000010: 8801 b9bc c7de 07be e4b5 87bd 73cb 3b3d
00000020: 8514 413b 24cc c3bc 9787 373d 8553 a2bd
00000030: d807 9fbd 1476 a73d 2c81 ca3d d7a0 ff3d
00000040: 28df 0abd 550a ae3d 2be2 593d 00a2 183d
00000050: 2d46 d5bc 0c26 4fbd d3b7 d1bb bfac 9dbd
00000060: cae3 7bbd 1b69 723d 53c7 083d 1f0a ebbd
00000070: 6ea5 88bd 3b45 6d3c a8cf 16bd c0ad 843d
-0.06020804 -0.04131682 -0.019889293 -0.042224552 -0.022583738 -0.13268577 -0.0662649 0.04584832
0.0029461693 -0.023901053 0.044807043 -0.07926086 -0.07765168 0.081768185 0.09887919 0.1248185
-0.033904225 0.084980644 0.053194206 0.03726387 -0.026034439 -0.050573394 -0.0064000874 -0.07698964
-0.061496533 0.059182268 0.033393215 -0.1147654 -0.06672178 0.014481838 -0.03681913 0.06478453

convs.2.basis f4 [4, 32, 32]
00000000: aebf 913c a2cc 44bd b0b8 de3c 523a 0c3d
00000010: a0cb f7bd 9935 c3ba dbe7 103d b247 7e3c
00000020: 5b32 02bd d208 b1bc f5a3 77bd 447f c43c
00000030: dcae 383d ce04 ccbb 0bc6 0a3d 840c 26bc
00000040: 74bc 0bbb 572f 943c d13e 26bd 93c7 d13a
00000050: c10d a1bc 3026 903a cff1 053d d7e0 46bd
00000060: 9c84 7ebd 0954 b4bc 8292 803d 3b16 603a
00000070: 5211 35bc 1ae6 ad3c feca 01bd e1ec b8bd
00000080: ef0c 9a39 10a3 c73d 569c 2fbc 474d cabc
00000090: 5c9b e5bb 90d4 9dbc 3a37 63bd 68fc 233c
000000a0: ed24 243d 55db 5b3d 06e0 2a3d aa17 4cbd
000000b0: 2aac 03bd 95a4 bdbc 46fa b03d d394 3d3d
000000c0: f641 f03b ee12 96bb 843c b3bc 90b7 8c3c
000000d0: 5591 5a3c 6cb9 5c3d d2bc 373d d9f7 9dbd
000000e0: c134 013d 1643 bcbd 98d4 81bc 5578 273c
000000f0: baa6 903d f98c 88bd f603 7bbb d65e a03d
00000100: 2814 2abb 4375 243c 75c3 a5bd 03cf c03c
00000110: f14b 8c3b 8c11 60bd c182 adbc 8855 ddbc
00000120: a153 c3bc 7cda cb3d 35d5 153d 36ee 283d
00000130: bf07 fbbc ab64 d53c 56fe cc3d 54ba 39bd
00000140: c2ee 933c c372 273d 0f37 d83c 01ee afbc
00000150: babf a73c c9a9 813d 8422 433d 1cc6 87bd
00000160: 3c77 a53d 9000 64bd 87b6 14bc 9013 573c
00000170: a60f febb dc7d c43c aa63 013d 87e8 cb3d
00000180: ce2f 50bc ca73 37bd d44b b7b9 ae3b 9e3c
00000190: 263a 893d 7d55 133d 3535 603d 8054 053e
000001a0: 5ca5 78bd 130a 88bd f487 a13b 7314 3d3d
000001b0: 6795 523c 6aca a9bd 6487 3ebc 2bb5 7aba
000001c0: 968f e13c 6728 05bd aa50 553d 5770 7d3d
000001d0: a149 e039 155b a3bd 5288 14bd 0e23 883d
000001e0: c4a3 c1bc 5f21 86bc fab5 a9bd 7398 653c
000001f0: e56c 413c 1b1b 82bc 4858 28bd 67ac ae3d
00000200: a6f1 5a3d 37e8 8d3c c2e0 babd 9bb3 73bd
00000210: 098c 2e3d bd33 46bd 772f aabd a76f 753d
00000220: f2ec 6fbd 5217 b7bc af72 11bd f136 d4bc
00000230: ecd6 d53a 72d0 f3bc 1c9a 8f3d e89e 9d3c
00000240: 439d 483d 7024 23b8 6edd 3cbd 1931 923d
00000250: b917 89bc 4e0d af3d 9af1 d2bc 414d d1bb
00000260: aa69 cfbc 1a9e 90bb e4a7 803c a83c 57bd
00000270: 9375 6d3d 7160 f1bb 7cca 60bc a4ca e33c
00000280: a292 f13b 8b26 9e3c f486 933b e922 b63c
00000290: 72b0 9fbd a7f3 5c3d 4153 623d 128c ddba
000002a0: d5d6 9e3b 796c 383d a4b9 a1bc b855 f83a
000002b0: fc6e 4cbd 1f14 0bbd cc0e a03d 9c78 403d
000002c0: 777e b4bb 672e d13c 58a8 293d f860 273c
000002d0: f9f7 283d a2af 4d3b 043d 8abc f78e 9abc
000002e0: 8b23 013d f976 4b3c ab47 5d3d 227e 1c3d
000002f0: a8aa 0b3c 1197 073d dd1b bf3c 2f6c 76bc
00000300: 8dd8 203d 3c13 80bb 3019 e3bd 5169 413d
00000310: 85c9 9b3d 0bd5 10bd 853a 47bd cca9 f8bd
00000320: 17e1 08bd 4494 8ebc a693 5bbb 09ca f23d
00000330: c1a8 a03c c33f 95bd 7de7 943c ee44 243d
00000340: 5e5a 60ba 7720 203d 65b8 a73c d51f 63bc
00000350: 5062 09bd 5142 73bc 3b05 313d b0a2 79bd
00000360: 0a17 7c3d 48c2 d93c bbe0 163d 350b f0bc
00000370: 21d8 b4bd 80b6 86bc 0ff5 5e3d 14f9 383d
00000380: 0a70 b63d 05b7 3a3d ab49 2fbd 1544 c43c
00000390: 23d9 ac3d 2b8a 03bc b030 5b3d bffb fd3b
000003a0: c3a9 54bc 8dcd 283d 47cb 393a 0867 123d
000003b0: 0e5d 4abc 4f86 34bb dd09 1f3d 3386 0dbd
000003c0: 969c 8bbd fbde af3d 9471 56bd 6b06 853c
000003d0: 4c5d afbc 8e6e e63c 1ffc 8d3c ec3a 22bd
000003e0: f714 cb3d e2d3 e2bc 1035 4abd 1dc1 e43c
000003f0: b8c6 8f3d b607 4bba 44bc d8bc e959 6f3d
0.017791595 -0.048046716 0.027187675 0.034235306 -0.12099385 -0.0014893293 0.035377365 0.015520023
-0.031786304 -0.021610651 -0.060459096 0.023986466 0.045088634 -0.0062261587 0.033880275 -0.01013482
-0.0021322044 0.01808898 -0.04058725 0.0016004912 -0.019659879 0.0010997709 0.03270131 -0.048554268
-0.062138185 -0.022012727 0.06277944 0.00085482345 -0.011051493 0.021227885 -0.03168773 -0.09029556
0.00029382805 0.097478986 -0.010718426 -0.024695052 -0.0070070457 -0.019266397 -0.05547259 0.010008909
0.040074278 0.05367597 0.04171755 -0.049827255 -0.03214661 -0.023149768 0.08641486 0.046284508
0.007332082 -0.0045798933 -0.021879442 0.017177373 0.013340314 0.05388777 0.044857807 -0.07713289
0.03154445 -0.09192483 -0.015848443 0.0102215605 0.070630506 -0.066675134 -0.0038301921 0.078305885
-0.0025951955 0.010037723 -0.08093921 0.02353621 0.004281514 -0.054704234 -0.021180512 -0.027018324
-0.023843588 0.09953782 0.036580283 0.0412428 -0.030643342 0.026048979 0.10009448 -0.045343712
0.018058185 0.04088093 0.026393441 -0.021475794 0.020477165 0.06331212 0.04764034 -0.06629583
0.08079383 -0.0556646 -0.009076721 0.013127223 -0.0077533303 0.023985796 0.031589188 0.099564604
-0.01270671 -0.04478816 -0.00034960976 0.019315567 0.06700544 0.0359702 0.054738242 0.13020515
-0.060704574 -0.066425465 0.004929537 0.04616208 0.012853003 -0.082905605 -0.011628959 -0.00095637393
0.027534287 -0.032509234 0.05207888 0.061874714 0.00042779467 -0.07976357 -0.036262818 0.06647311
-0.02363766 -0.016373334 -0.082866624 0.0140133975 0.011805748 -0.015882066 -0.041099817 0.08528977
0.05345311 0.017322643 -0.091249004 -0.059497457 0.042614017 -0.048389185 -0.083098345 0.059920933
-0.058575578 -0.022349987 -0.03550976 -0.025905104 0.0016314662 -0.02976248 0.07011816 0.019240811
0.0489781 -3.8896163e-05 -0.04610961 0.07138271 -0.016734945 0.085474595 -0.02574997 -0.006387383
-0.02531894 -0.0044133784 0.015705056 -0.05254808 0.057973456 -0.007366233 -0.013720151 0.027806588
0.0073722163 0.019305488 0.0045021717 0.022233443 -0.07797326 0.053943302 0.05525518 -0.0016902706
0.0048473873 0.045025323 -0.01974184 0.0018946445 -0.04991053 -0.033954736 0.07815322 0.046990022
-0.00550824 0.025534822 0.04142031 0.01021599 0.04125211 0.0031385203 -0.016874798 -0.018867
0.031528037 0.012418502 0.054023426 0.038206227 0.008524574 0.033103053 0.023328716 -0.015040441
0.03926902 -0.003908543 -0.110887885 0.04721958 0.07606796 -0.035359424 -0.048639793 -0.12141761
-0.033417787 -0.017404683 -0.0033504753 0.118549414 0.019611718 -0.07287552 0.018176788 0.0401048
-0.00085583876 0.03909346 0.020473668 -0.01386257 -0.033541024 -0.014847354 0.04321788 -0.060946167
0.06154541 0.026581898 0.036835413 -0.029302219 -0.08830286 -0.016444445 0.054432925 0.045159414
0.089080885 0.045584697 -0.042794865 0.023958245 0.08439853 -0.008028547 0.05351323 0.0077509577
-0.0129799275 0.041211654 0.00070874806 0.03574279 -0.0123512875 -0.0027545874 0.038827766 -0.03455181
-0.06816976 0.08587452 -0.05235441 0.016238412 -0.021406792 0.028128888 0.017332135 -0.039606974
0.09916108 -0.027688924 -0.04936701 0.027924115 0.070203245 -0.00077449845 -0.02645696 0.058435354

convs.2.att f4 [10, 4]
00000000: 67c0 0a3d 541c c13c 815a c93c 13cd 94bb
00000010: fc96 8b3c b40d 9d3c 8262 703c e50d 0a39
00000020: 7709 1a3c efe9 02ba 7864 163c da59 213c
00000030: 2006 fbbb 6425 163c 15cb 10bc 6c2b 573b
00000040: e426 96ba ca51 c8bc 38a3 6b3b 86d6 f93b
00000050: fa10 5abc 0f37 a7bb 6e0a 8abc 0c10 80bc
00000060: 8a38 d13b 3802 213b 09af 7ebb b666 24bc
00000070: 2eff 833b a11a 1dba b4c9 2f3c 60e2 333c
00000080: 3e4d 103a 9efd 26bc e19a 17bc de54 5f3c
00000090: 3fa0 a0bb 0cea 7a3b 011f 22bc 3956 afbb
0.033874895 0.023573078 0.024579288 -0.0045410483 0.017039768 0.019171573 0.014671924 0.00013165882
0.009401671 -0.0004993965 0.009179227 0.009848082 -0.0076606423 0.009164188 -0.008837481 0.0032832278
-0.0011455682 -0.024453063 0.003595544 0.00762445 -0.013309712 -0.005102999 -0.016850676 -0.015632652
0.006384914 0.0024567973 -0.0038861653 -0.010034254 0.0040282225 -0.0005993043 0.010729242 0.010979265
0.0005504674 -0.010192303 -0.009253235 0.013631074 -0.0049019153 0.0038286475 -0.009895087 -0.0053508547

convs.2.root f4 [32, 32]
00000000: d731 f7bc 60de 4cbd 7a6a cc3d a902 0cbd
00000010: 4132 963b 606f d1bd 956f a7bd 1b89 55bd
00000020: 9b7d 3f3d 2afd 35bd 09ea e33c c0f7 343d
00000030: 1c12 7ebc 5fd5 923d 2291 90bd ac5a 22bd
00000040: abf2 4c3b d7ba 0f3c 1fde 3b3d 8cfc 943b
00000050: 8565 1abb 40f3 43bd ba23 47bd 6d6f 2d3d
00000060: 771a 00be 1810 9c3c 0039 163d d2a2 16bc
00000070: 7310 fb3c 0d44 0c3c a7b0 80bd cb53 24bd
00000080: dc9d 1f3d 3ef1 67bc cbeb 2bbd dd2d 2f3d
00000090: 8228 003b f430 303d 2540 65bd c83d d0bd
000000a0: 36c9 d33c 4ac7 823c b844 bbbc 8217 babb
000000b0: 6143 e0bc 10af 833d f618 9dbc fc4c 273d
000000c0: 148b f8bb ee79 073d 756e 083c 5392 65bd
000000d0: 7468 16bd 1853 26bd bf23 abbb 7e3a 98bb
000000e0: 2640 60bd 8466 8fbd 9a7f 073d ba4f 2fbd
000000f0: 0b4a c039 7e40 63bc efdb 6bbd 743a 293c
00000100: 9cf5 92bc bd58 ddbd 573e 513d c53f 87bd
00000110: 4079 80bc 3944 c2bd a2e7 3bbd 573c 993d
00000120: 76cf 393d f461 d03c f07f 213d e212 23bd
00000130: f8b9 e0bc 6d7e d9bd 3a52 f6ba 492d f6bc
00000140: 088f b1bc 19ba 8b3d 25a7 90bc 1e38 a3bc
00000150: 2ea4 d3bd 2e7a 57bd 9884 cdbb e6bb c13c
00000160: 82c3 53bd cbb8 8e3c 064a e23c 24a4 813c
00000170: 7cc2 9ebb 59f2 c1bb 7ff1 40bd d9d6 71bd
00000180: 2ece edbc 2dbb 2dbd dd11 c23c 4a67 7ebd
00000190: 9811 213c a8d5 bebd 5597 0cbc 595f 77bc
000001a0: 232c 85bd 4daf 1cbb 0d5c 833d 6cb9 553d
000001b0: 9fec 49bd 2e66 90bd 4a5e 6ebb 50a0 9e3c
000001c0: 594e 55bd 3c4f 943b 4d67 af3c 203b 9bbd
000001d0: 8dc0 19bc 7d4d adbd b6b8 94ba 3e72 16bd
000001e0: b555 19bc 4eb3 e43c 468d 343c 6925 2ebc
000001f0: cc32 3c3b 10bb 45bc e4eb 67bd 1dab a5bb
00000200: 8d1b 5b3c 0f87 a63d 8de7 75bc 6cee 8a3d
00000210: a335 12bd 1413 c23b d359 2e3d f538 8f3d
00000220: e3d4 84bc e784 f23c de5a 14bd 1d20 00bc
00000230: f4b0 6d3d 2716 0e3d afcc febc a7fd d03c
00000240: 2d88 1f3d 3b55 8d3c 70da 9a3c add7 de3b
00000250: c0ff 823d 699b 0abd 272b df3c e0fe d33c
00000260: 43dd 023c 457d 17bd a807 a6bd 4487 383d
00000270: ea9a 033c 3a50 243d 556f 9f3c 3892 c33c
00000280: be21 5dbd 0e07 c1bd 3add 5fbd 4bb3 083d
00000290: acaa 973c 9d92 793c 29d1 91bd f41c 03bd
000002a0: 2b49 d13c edea e33c 414b 963d cdb5 9e3c
000002b0: 0e3d 1bbb 86bf f8bc 11a2 1dbd 9a60 f4bc
000002c0: 04c3 2f3c c9b5 033d 4bf1 a33c 660f 46bd
000002d0: a90e e1bc 3383 9ebd 6bfd 0abb 8ba4 4dbd
000002e0: fa9a 26bd 767d 86bb f484 a63d 9cf7 2dbd
000002f0: 3f44 023d fa9a 13bc 3d35 a53c b6a9 75bc
00000300: 42e0 53bc a187 c33d 1ff5 ccbd 1c13 053e
00000310: afe8 fd3c 6c07 ab3d da98 5e3c d40b 093d
00000320: c239 cd3c d99b fa3c 59bb 08be c3be 9abd
00000330: cea0 953a 48ad a63c facb 08bd b6f1 ff3a
00000340: 2a0b 3b3d fc35 ec3c 5073 0dbc 6e5b 513d
00000350: 79d9 ce3d 45d2 5e3e 823d e0bb ad12 ec3b
00000360: 87cb 0e3e ddea 28bd f330 31bd 5b61 1fbd
00000370: d59b 373a a581 5cbc 71ad 1a3d cd9a a83c
00000380: 4b81 bbbc 8c80 61bd 8694 e0bb 3881 433c
00000390: e2ac d73c 2085 4ebd 2638 173c c7b3 adbb
000003a0: 3f81 583d 7c2e 7dbc 9746 b2ba 5be5 883c
000003b0: ace4 a2bc d581 94bc 357c 9cbc 2079 0cbd
000003c0: aca8 6bbd b517 d9bb 1cf6 b53c 973f 8c3c
000003d0: 7e85 d2bc b77c 62bd a8e0 56bd 6703 903c
000003e0: 4c00 92bc eea6 73bc 9f5a ccbb 8d9d 3fbb
000003f0: ae50 213d b799 94bb c1e0 553b 108a faba
-0.030175133 -0.05001676 0.09981246 -0.034182224 0.0045836275 -0.10226321 -0.081755795 -0.052132707
0.046750646 -0.04443089 0.027821558 0.044181585 -0.015507247 0.071696036 -0.07058932 -0.039637253
0.003127257 0.008772573 0.045866128 0.0045467075 -0.0023559046 -0.047839403 -0.048618056 0.042342592
-0.12510096 0.019050643 0.036675453 -0.009194093 0.030647492 0.008561146 -0.06283694 -0.040118974
0.038968906 -0.014156638 -0.041972917 0.042768348 0.0019555395 0.043015435 -0.055969376 -0.10168034
0.02585278 0.015964169 -0.022859916 -0.005679072 -0.027375879 0.06429875 -0.019176941 0.040844902
-0.007584939 0.033075266 0.008327116 -0.05604775 -0.036720708 -0.040606588 -0.005222767 -0.0046456447
-0.054748677 -0.07001975 0.033080675 -0.042800643 0.0003667626 -0.013870357 -0.057582792 0.010328878
-0.017939381 -0.10807941 0.051084843 -0.0660396 -0.015682817 -0.09485669 -0.0458752 0.07482212
0.045363866 0.025437333 0.03942865 -0.03981293 -0.027432427 -0.10619817 -0.0018792816 -0.03005089
-0.021674648 0.06822605 -0.017657826 -0.01992422 -0.10334049 -0.052606754 -0.00627191 0.023649167
-0.051700123 0.0174221 0.027623188 0.015825339 -0.0048449617 -0.0059187827 -0.04710531 -0.059042785
-0.029028978 -0.042414833 0.023690159 -0.062110223 0.009830855 -0.093180954 -0.008581002 -0.015098416
-0.06502559 -0.0023908198 0.06414042 0.052178785 -0.049297925 -0.07050739 -0.0036372119 0.019363552
-0.05207667 0.004526047 0.021411562 -0.075796366 -0.009384287 -0.08462045 -0.0011346552 -0.036730044
-0.009358813 0.02791753 0.01102001 -0.010629036 0.00287168 -0.012068525 -0.056621447 -0.0050557987
0.013373268 0.08131229 -0.015008819 0.067837566 -0.035695683 0.0059226844 0.04256613 0.069932856
-0.016214794 0.029604388 -0.03621947 -0.007820156 0.058030084 0.034689095 -0.03110346 0.025511576
0.038948227 0.017252555 0.018902987 0.006800613 0.06396437 -0.033839617 0.027242256 0.02587837
0.007987323 -0.0369847 -0.08106929 0.045050874 0.00803254 0.040115573 0.019462267 0.023873433
-0.053987257 -0.09425174 -0.054654337 0.033374112 0.018514 0.015232709 -0.07119972 -0.032010034
0.025547585 0.027821982 0.07338572 0.019373799 -0.0023687514 -0.030364763 -0.038484637 -0.02983122
0.010727648 0.032155786 0.020012518 -0.04835453 -0.02747281 -0.07739868 -0.0021208178 -0.05020575
-0.04067514 -0.0041043116 0.081308275 -0.042472467 0.031803366 -0.009009117 0.020166988 -0.0149940755
-0.012931885 0.095473535 -0.10007691 0.12995571 0.030994741 0.08351025 0.013586247 0.033458546
0.025051955 0.030591892 -0.13352717 -0.07555916 0.0011415721 0.020346299 -0.033397652 0.0019526992
0.045664944 0.028834336 -0.00863345 0.051112585 0.10100073 0.21759899 -0.00684327 0.0072043748
0.13944827 -0.041239608 -0.043259572 -0.038911205 0.0007004117 -0.013458644 0.037763063 0.020581627
-0.0228888 -0.055054232 -0.006853643 0.011932664 0.026327554 -0.050419927 0.009229695 -0.005300972
0.052857634 -0.015452977 -0.001360136 0.016710928 -0.01988443 -0.018128315 -0.019102195 -0.0342952
-0.057533905 -0.0066251406 0.02221208 0.017120166 -0.02569842 -0.05529472 -0.052460343 0.017579747
-0.017822407 -0.014871342 -0.006236389 -0.0029238195 0.039383583 -0.004534926 0.0032635184 -0.0019114632

convs.2.bias f4 [32]
00000000: 6357 fdbb c393 2bbd 5fc2 123d 8a1a 76bd
00000010: b5d7 61bc f670 8fbd f674 4e3b 4df8 33bd
00000020: a761 82bc ebf9 3cbc b9a8 9a3d 8b32 693d
00000030: c66a b1bc b487 013d e394 6c3c 8ddc b13c
00000040: 305f 04bd 00cb c7bc ed68 d53c ab4e 06bd
00000050: e157 40bd 8993 c1bd edac a2bc 2a63 16bb
00000060: fd2d 77bd 5d75 2f3d f704 ba3c 693b 2b3d
00000070: 2037 933c cbc6 74ba aa10 11bd 5f79 5abc
-0.0077313646 -0.041888963 0.035829898 -0.060083903 -0.013784339 -0.070039675 0.003150282 -0.04393797
-0.015915705 -0.011534194 0.075517125 0.056932967 -0.021657359 0.031623557 0.014439794 0.021711612
-0.03231734 -0.02438879 0.02605101 -0.032789867 -0.046958808 -0.09451968 -0.019857848 -0.002294729
-0.060346592 0.042836536 0.022707446 0.041804705 0.017970622 -0.0009337484 -0.035416283 -0.013334601

convs.3.basis f4 [4, 32, 32]
00000000: 183a 0bbc 38a6 bf3c 7a3f 48bd ac5e c23c
00000010: 52cb a43c 4a66 60bc 29d4 983d 613e 4f3d
00000020: d0a9 93bb 50d3 31bd 6362 2cbd dc3d cf3d
00000030: 99b1 88bd bde2 f13c 8764 843d e27b 0fbd
00000040: c874 12bc 5487 223c 331f 053d 00a6 7e3c
00000050: 9a08 a63c f85a 173d c5d5 9a3d d97a 583d
00000060: c6d6 aa3d 44e4 91bc cfa7 acbd ff20 b6bd
00000070: 2ce0 d43c 42c7 96bd 7e9e d33c 4a60 eaba
00000080: 2882 a63d 8705 d1bd 9e44 413d 778f 843d
00000090: 7bb1 fe3c d3f5 a13b 65ea 91bd 37f2 0b3d
000000a0: df52 033e db75 1e3c c7c3 08bd 1ab7 963d
000000b0: b97c 1ebd e968 703d 3a48 28bd d844 653d
000000c0: cabe 30bd b649 00bd 05eb 0c3c a653 613c
000000d0: f4e2 be3d eb40 40bd 3f6c b9bc 8de2 2cbd
000000e0: de15 1fbd 6806 973d f5a5 3ebd e9a1 203d
000000f0: 53e5 bebc 24cd 903d 5ef1 783d fed7 dbbd
00000100: e33d a4bd 5a53 073a c39a 303d 6ca7 1bbd
00000110: 2c9c c3bc bc7c 913d fb57 b23d f5bc c7bc
00000120: 0fc6 c0bd 9413 6fbd 89b6 0bbd e5ef 143c
00000130: 13ba b73c 55d9 e33b fd65 513d ec75 7f3d
00000140: 4b7c f0bc ba33 083b 5f50 a03c 123a 9fbc
00000150: 531d 0b3b 2c3c 883d b7d9 c13c a1a5 693d
00000160: 074c 37bc 820a 7d3d 44de c9bc 5a2c 0b3b
00000170: 4056 953d f792 b9bd 4ed2 323d efe8 9a3c
00000180: f9a7 663c 53ee b13c 05ed 0d3c 6622 b03d
00000190: 3d0b cc3b 0861 3cbc a27c 57bd 9b10 263c
000001a0: 7464 4cbb e3a3 6f3d e1af 6abc 9af4 22bb
000001b0: 7c12 a2bd e83b 2c3d 4ef7 91bc 9a04 9ebd
000001c0: e9eb ebbc 2cec 113d 2e2e 80bd 709e 723d
000001d0: 694f a8bd b8a5 3cbd 98dd 1b3b df9f 4cbd
000001e0: b583 0a3d d4c5 c23c 13b5 61bd e491 80bd
000001f0: b8c3 b43d 3978 f33c 6739 3c3b ab28 f2bd
00000200: 6ae7 00bc 9807 b2bc 0ad7 573b 8874 54bc
00000210: ba61 213d ffbc 19bd 5244 32bd e81e 2fbd
00000220: 50ea ae3d 31aa 243c 6afb 7b3d 0983 98b7
00000230: 3a00 f1bc 3b3d 06bd 0b4a 36bd 16c1 c6bc
00000240: 5fac e6bc 18aa 203d 97bb 84bd 9437 b8bc
00000250: 679f febc 06ae 15bd 26ed 35bd 878b 903d
00000260: 6a6b 60bd 8f32 97bd bdf0 dfbb 3eae f4bc
00000270: 7ff7 8f3c 6cac c43c c1aa 213c b0aa 82bd
00000280: 8b1e de3c ed34 98bd 551d 89bd efec 8e3b
00000290: 1139 5a3c 92b8 b8bc cb38 1a3c 292b 413d
000002a0: 2a7b 923d 2af3 51bc 678a 3a3d ea0d 53bd
000002b0: 1eaf ab3c 3ad5 813d ec45 3a3d 66f2 99bc
000002c0: ea84 e9bb 6b11 d7bc 0e85 4ebd a4ad c5bc
000002d0: 4938 9d3b dd37 443d 105d 0bbc 4883 aeba
000002e0: 095a f43c 779c fdbc 445b 01bd d1b2 63bd
000002f0: bb18 153b bb2e 3bbc 2d66 133d bdea f8bd
00000300: d018 99bc eb40 3bbb 20c0 213d 99ba efbc
00000310: a64f c93c 4ea8 ac3c 6f54 c7bd 5bad 203d
00000320: c1d2 85bd ffe5 0e3d e6af d8bb 12a8 eb3a
00000330: 1b66 343c 5c14 8abd bf44 1a3d aea7 e03b
00000340: 6442 363d 7a00 12bd 59f1 29bc 28e1 e63c
00000350: 9ff0 8e3a 3bf5 e03c f806 353b 5d2f 85bd
00000360: 91e7 79bc d53c dbbc 55a6 d3ba d9b8 84bd
00000370: 2535 5dbd dab9 32bd 62b6 c2bc 7333 a63d
00000380: ff2e 433d 5636 4bbc fb8b 4fbc 4444 3d3d
00000390: 9065 48ba c4b9 62bc 993c c7bc 0d61 91bc
000003a0: 6684 c03d 6504 633b 711a 813b d000 df3c
000003b0: 8b5b 433c 1f2b 753c 734c aa3c 84c5 7c3c
000003c0: fcd6 493d 3744 8c3d 6757 273d a4c6 50bb
000003d0: 7902 663d db64 793d 8c61 423d 3197 893d
000003e0: 3b9e aabc 9497 b23d 37a0 413c 48c8 5cbd
000003f0: 9659 113d 5907 c13a c4ab a83d 1977 63bd
-0.008497737 0.023394689 -0.04888866 0.023726784 0.020116482 -0.013696263 0.07462341 0.0505966
-0.004506327 -0.043414414 -0.042086016 0.101192206 -0.06674499 0.029527063 0.064644866 -0.035030253
-0.008938976 0.00991996 0.032500457 0.015542507 0.020267773 0.03695199 0.075603046 0.05285153
0.08341746 -0.01780904 -0.084304444 -0.08893012 0.0259858 -0.07362224 0.02583241 -0.001788148
0.08130294 -0.102061324 0.04718458 0.06472676 0.031090489 0.0049426346 -0.07124785 0.03416654
0.12824582 0.009671654 -0.033389833 0.073591426 -0.038693164 0.0586938 -0.041084506 0.055973858
-0.0431507 -0.031320296 0.008600955 0.0137528535 0.093206316 -0.04693691 -0.022634624 -0.042208243
-0.038839214 0.07374269 -0.046544988 0.03921691 -0.02330271 0.070703775 0.06077706 -0.107345566
-0.080196165 0.00051622617 0.043116342 -0.038001463 -0.02387818 0.07103869 0.08708187 -0.024382094
-0.09412777 -0.05836828 -0.034109626 0.009090398 0.022427594 0.006953398 0.051122654 0.06236832
-0.029356143 0.0020782785 0.019569574 -0.01943687 0.0021227195 0.06652102 0.023663385 0.05704272
-0.01118756 0.0617776 -0.024642117 0.0021236152 0.072918415 -0.090612344 0.043657593 0.0189099
0.014078134 0.021720087 0.008662467 0.08600311 0.0062269256 -0.011497743 -0.052609093 0.010135795
-0.0031187804 0.058505904 -0.014324159 -0.0024865032 -0.07913682 0.04204932 -0.01781812 -0.077157214
-0.028799014 0.03562562 -0.06258808 0.05923313 -0.08218271 -0.04605648 0.0023783203 -0.049957152
0.033817012 0.023775972 -0.055104326 -0.062778264 0.08826393 0.029720413 0.0028720738 -0.11824163
-0.007867673 -0.021732137 0.003293457 -0.012967236 0.03939984 -0.037533756 -0.043522187 -0.042754084
0.08540785 0.010050342 0.061519064 -1.818083e-05 -0.029419053 -0.032773238 -0.044504207 -0.024261992
-0.028158365 0.039224714 -0.064810924 -0.02248744 -0.031081868 -0.036542915 -0.044415615 0.07057863
-0.054789938 -0.0738269 -0.006834118 -0.029868241 0.01757407 0.024007998 0.009867371 -0.06380212
0.027114173 -0.0743197 -0.06695048 0.004361741 0.01331927 -0.022548947 0.009412955 0.0471603
0.07152398 -0.0128143225 0.045542147 -0.05152694 0.020957526 0.06339498 0.04547684 -0.018792342
-0.0071264403 -0.026253423 -0.05041986 -0.02413065 0.0047979695 0.047904838 -0.008506075 -0.0013314271
0.029828088 -0.030958397 -0.03158118 -0.055590454 0.0022750336 -0.011424716 0.035986114 -0.12154148
-0.01868859 -0.002857263 0.039489865 -0.029263781 0.024574112 0.021076348 -0.09732901 0.039227825
-0.06534339 0.03488731 -0.0066127656 0.0017979166 0.011010672 -0.067421645 0.037663218 0.0068559265
0.04449691 -0.035644986 -0.010372483 0.028183535 0.0010905451 0.027460685 0.0027622562 -0.065031745
-0.015252964 -0.026762405 -0.0016147593 -0.064805694 -0.05400576 -0.043634273 -0.023768608 0.08115282
0.04765224 -0.012403091 -0.012667651 0.04620768 -0.00076445285 -0.013838235 -0.024320887 -0.017746473
0.09400253 0.003464007 0.0039399196 0.027222067 0.011923681 0.014963894 0.020788407 0.015427951
0.04927729 0.068489484 0.040854838 -0.003185668 0.0561547 0.0608872 0.04745631 0.067182906
-0.020827403 0.087203175 0.011817983 -0.05390194 0.035485826 0.0014726921 0.08235887 -0.055533502

convs.3.att f4 [10, 4]
00000000: 882e 10bc 9ff2 5f3b d956 4e3c 647f 8b3c
00000010: d7dd cabb 0c5c ab3b ee58 8c3c 2cdb 983c
00000020: c879 74bb 60d5 53ba bbd0 be3b 35ba 383c
00000030: 7c3d 46bb b70a 8fba e0dd 853b 990c 283c
00000040: ebbc 213c a6a1 04bc 8f21 5ebc c0db 1abc
00000050: 5a24 b03b 0057 aabb 6548 8fbc 4754 a6bc
00000060: c198 51ba b5f9 c13a 816f db3b 63d4 d33a
00000070: ab61 30b9 6b6f 43ba bb82 1b3c 116d e33b
00000080: 6117 8a3a 0f93 42bb 07d6 e73a d47b 8c3b
00000090: 2410 283a 2e2d d23a 6bdd 373b e317 a43b
-0.008800156 0.0034171713 0.012593948 0.017028518 -0.006190996 0.0052294787 0.017132249 0.018659197
-0.0037304033 -0.00080808066 0.0058232225 0.011274864 -0.003024905 -0.0010913227 0.0040852875 0.01025691
0.009871702 -0.008095181 -0.013557806 -0.009451807 0.005375427 -0.0051983595 -0.017490575 -0.020303858
-0.00079954794 0.001479915 0.006696642 0.0016161319 -0.00016821052 -0.0007455262 0.009491618 0.006940492
0.0010535532 -0.0029689705 0.0017687686 0.0042872224 0.00064110965 0.0016035193 0.002805556 0.0050077303
