results/flixster_testmode/model_checkpoint34.pth (torch_old, 199981 bytes, 19 tensors)

convs.0.basis f4 [4, 4, 32]
000000 44 63 3d 3c b4 1a a9 3a 5c 5f 01 3d df 9c 07 3d
       0.011559311 0.0012901635 0.031585082 0.03310859
000010 b1 40 95 bd 9e cf 53 3e d3 90 05 be dc 0a ed bd
       -0.072877295 0.20684668 -0.13043527 -0.11574337
000020 ac 3d b5 3d 37 6d 4d be 5f 31 ac 3d e2 0f b5 bd
       0.088496536 -0.20061193 0.08407854 -0.0884092
000030 b3 2a 4c be ef 4c a2 3d 4c 5a 16 3e 0b cd dc bd
       -0.19938163 0.0792483 0.14682883 -0.10781296
000040 7e 0f 51 bd 89 49 99 bd 00 fc 47 be f7 6d 2a bc
       -0.051040165 -0.07484729 -0.19529724 -0.010402194
000050 a4 f5 2b 3d 27 41 40 3e 00 e5 5a 3d 37 3f a7 bd
       0.041982308 0.18774854 0.053441048 -0.08166354
000060 d5 9e 88 3d 99 33 f0 bd b1 58 e4 3d 1b fe ce 3c
       0.0667092 -0.117285915 0.11149729 0.025267651
000070 58 ca 16 3e 75 a7 88 3e 03 97 16 be e3 16 08 3d
       0.14725626 0.2669026 -0.14706044 0.03322495
000080 90 ea 34 be 18 50 03 be 16 28 fa bd 24 56 0c 3d
       -0.17667603 -0.12823522 -0.12214677 0.034261838
000090 38 87 1e 3c d0 95 7c 3e 42 96 22 ba c8 05 89 bd
       0.009675793 0.24666524 -0.00062022 -0.06690556
0000a0 f1 3f 69 be 9a c9 bd bd 3c 11 d1 3d 47 21 53 be
       -0.22778298 -0.09266968 0.10208365 -0.20618163
0000b0 af c1 e9 bb 9b 5e 2c 3b d9 0c 10 3d 0d 28 b0 bd
       -0.0071336846 0.0026301506 0.035168502 -0.08601389
0000c0 70 72 34 bd ea 0d 51 be 8d b0 8d 3d 5d 6b 02 be
       -0.04405445 -0.20415464 0.0691844 -0.12736268
0000d0 58 c9 8a bd 7e 38 14 3e 16 83 b7 bd 1c d6 a2 bd
       -0.067766845 0.14474675 -0.089605495 -0.07950994
0000e0 20 3e 4c 3c ba 63 7d bd a9 9d 22 3c 0d 0c 25 3d
       0.012465984 -0.061862685 0.009925284 0.040294696
0000f0 b4 67 cb 3d 2c 70 0a 3e 0f 8f 6f be 94 d2 99 3b
       0.09931889 0.13519353 -0.23394416 0.0046942923
000100 90 05 8d bd 7b 78 e6 bd 3f 9d 5d 3c 9c 1e 1d 3d
       -0.068858266 -0.112534486 0.01352626 0.03835927
000110 00 d7 2a bc 7a e9 ad bd dd 0f c1 3c d1 56 9f be
       -0.010427237 -0.08491798 0.023567135 -0.31120923
000120 da 46 d2 be c9 74 75 3c 76 c7 11 3d 7f 6e 94 3d
       -0.4106968 0.014981457 0.03559061 0.07247638
000130 c3 51 7e 3e 90 6e 57 3d c3 0c 5d 3d 18 c5 26 be
       0.24835877 0.052595675 0.05396725 -0.16286123
000140 63 26 3e 3c d7 0a 74 bd 31 88 22 3d d6 6f 54 3d
       0.011605832 -0.05958065 0.039680663 0.051864468
000150 a8 de 2d 3d b6 be cf 3d b9 d4 38 bf 1d 9a ea be
       0.04244867 0.10143797 -0.7219959 -0.45820704
000160 f8 55 c2 be 84 ac fe 3c fa 54 92 bd 2c 45 63 3d
       -0.37956214 0.031088121 -0.07145114 0.05548589
000170 83 5c 3c bd 80 6c 41 3d f5 b9 0f bc 76 d2 e4 3d
       -0.045986664 0.047222614 -0.008772363 0.11172955
000180 81 51 fe 3d 4c d1 41 bd 22 54 40 bc 9f fb dd bb
       0.124178894 -0.04731874 -0.011738809 -0.0067743803
000190 32 25 02 be 2e 58 97 be 47 3f 27 bd 95 df a4 3d
       -0.12709501 -0.29559463 -0.04083183 0.080504574
0001a0 14 ec be 3e db d8 1a 3f dc 32 21 3f 6d 48 21 3e
       0.37289488 0.60487145 0.6296823 0.15750284
0001b0 d4 4a 5c 3d 38 c8 1e 3d 0e d6 47 bb b6 ad 97 bc
       0.0537823 0.038765162 -0.0030492577 -0.018515449
0001c0 38 c4 e1 be 06 9f d6 bc 8a 0b 2c be 62 46 10 bd
       -0.44095016 -0.026198875 -0.16801277 -0.035223372
0001d0 89 6b 93 bd e4 56 17 bf 16 76 d9 bd a8 69 3e 3d
       -0.07198245 -0.5911696 -0.10618226 0.04648748
0001e0 0a a5 36 bd 25 cb 82 3e 1e 7f 2a be 14 1d 4d be
       -0.044590987 0.25545612 -0.16650054 -0.20030624
0001f0 4a da 84 bc ee 80 61 3d 19 47 2d 3e 8f ca 59 3d
       -0.01621737 0.055054598 0.16921653 0.05317169
000200 72 20 03 bb 17 43 91 3c fc 95 19 3d 47 57 0e 3c
       -0.0020008353 0.017732186 0.037496552 0.008687801
000210 24 ba 76 bd 9a 24 b6 3d d3 94 06 bd 6b a8 b3 bd
       -0.06023611 0.088937 -0.032856774 -0.087723576
000220 9f 2a f3 bc ab c4 fa bd 4b a6 50 3d 00 4e a4 3c
       -0.02968341 -0.12244543 0.05093984 0.020056725
000230 70 99 00 be 15 e6 cf 3c 2b 7a 03 3e a5 ae 3d be
       -0.12558532 0.025378266 0.12839572 -0.18523653
000240 66 b2 62 bd 22 23 14 bd 3a 8f ab bd 4e c3 3d bd
       -0.055345915 -0.036166318 -0.08376928 -0.046328835
000250 63 68 99 3c d5 59 09 3e d5 4e ce 3d d8 35 e0 bd
       0.018726533 0.13413174 0.1007363 -0.1094777
000260 c7 47 29 3d f7 35 6c bd 27 7d c8 3d dc c1 da 3b
       0.041328218 -0.057668652 0.09789496 0.006675942
000270 39 b6 92 3d 5f 11 38 3e a7 72 93 bd 3f 6d 8f 3c
       0.071636625 0.17975377 -0.071996026 0.017508147
000280 68 f8 09 be 52 6f e5 bd 92 47 0a be 9a dc fa 3d
       -0.13473666 -0.11202873 -0.13503864 0.12249108
000290 d6 13 07 bc 7a b0 4d 3e 98 ec 30 bd fc 87 8c bc
       -0.008244475 0.20086852 -0.043194383 -0.017154686
0002a0 e0 fc 03 be 2c f2 f5 bd 20 9f b6 3d 03 91 4e be
       -0.12889433 -0.12009081 0.089170694 -0.20172505
0002b0 b7 e5 38 bc 90 94 6b bc 99 8b d6 3d e1 a6 83 bd
       -0.011285237 -0.014378682 0.10475845 -0.06428314
0002c0 52 fa 2a bd be 7d 0f be 69 1c 05 3c 92 4e d1 bd
       -0.04174263 -0.1401281 0.008124449 -0.10220064
0002d0 c4 9e 9a bd 57 25 05 3e 3e 9c 4b bc ca 9f 28 bd
       -0.075498134 0.13002525 -0.012427388 -0.04116801
0002e0 35 e0 f1 3c a7 91 2c bd 52 7c 8f 39 9e 6b 84 3c
       0.029525856 -0.042131092 0.0002736771 0.016164597
0002f0 29 00 15 3e a5 e4 64 3e ea 59 50 be 51 5b 07 3d
       0.14550842 0.22352846 -0.203468 0.03304607
000300 af 25 b2 bc 8f 28 86 3c 4f 7f ea bd aa d1 d5 3c
       -0.021746485 0.016376762 -0.114500634 0.026100952
000310 f0 9b 93 3d 3c b2 d4 3d fc 54 16 3d bd 18 5e be
       0.07207477 0.10385558 0.03670214 -0.21689124
000320 71 eb 0f bf 13 b3 93 3d 80 ee eb bd 91 fb ea bd
       -0.5621863 0.0721189 -0.115201 -0.11473764
000330 47 c5 8e 3e b0 8e 0a 3b 6c 51 20 be 72 b6 56 be
       0.27884886 0.0021142177 -0.1565606 -0.20968035
000340 73 24 1d 3e a9 b5 1e bd 64 85 d2 3d 86 de fa 3d
       0.15345936 -0.038747463 0.102793485 0.12249474
000350 2d f9 d1 bd 4e 52 0e bd 3e 5b 1b bf 22 d7 d9 be
       -0.10252605 -0.03474646 -0.606861 -0.42546946
000360 77 59 af be 60 62 cb 3c 75 e2 59 3d 5d 27 17 bd
       -0.34247944 0.024827182 0.053194482 -0.036902774
000370 d2 9c 18 3c db 7b 8a bd 17 93 88 bd 9a cb a1 3b
       0.009314733 -0.06761905 -0.0666868 0.0049376013
000380 e5 1f 07 3b 71 c5 1b 3e aa 32 94 3c 59 44 e1 39
       0.0020618376 0.15212037 0.018090565 0.00042966267
000390 10 ba 16 3e 75 df b2 bd f9 c4 28 3d a7 b9 ab bd
       0.14719415 -0.08734027 0.041203473 -0.0838502
0003a0 eb 6b 87 3e 44 5d ee 3e 8e 25 c9 3e 93 32 14 bf
       0.26449522 0.4655553 0.39286464 -0.5788967
0003b0 70 07 d4 bd 50 ea 01 bd ae 65 03 bd 34 a1 11 3d
       -0.10352981 -0.0317176 -0.03207939 0.035554126
0003c0 b4 cb 6d be 0b 0a eb bd bf bb 55 be e5 d2 93 bc
       -0.23222238 -0.11476525 -0.208724 -0.018044898
0003d0 7a e6 ab 3c e7 9d b8 be 21 1d 44 3e c2 d4 86 3c
       0.020983923 -0.3605797 0.19151737 0.016458873
0003e0 42 16 a2 3d 78 7c 0f 3e 8b bd c0 3d a2 f3 57 bc
       0.079144016 0.14012325 0.094111525 -0.013180645
0003f0 1d d7 5a 3c 97 50 a6 3c a4 23 fd bd 73 86 12 be
       0.013356951 0.0203021 -0.123603135 -0.14309101

convs.0.att f4 [10, 4]
000000 34 33 b0 bd ee fc 33 be a6 f8 99 3e 7b cb 2a 3e
       -0.08603516 -0.17576954 0.30072516 0.16679184
000010 86 11 5a be 55 29 46 bd 19 1a c2 3e 1a 29 29 3e
       -0.21295747 -0.04837926 0.37910536 0.16519585
000020 2f 94 6d be e5 b7 06 3e b5 3a b9 3e ca f1 11 3e
       -0.23201059 0.13156088 0.36177602 0.14252391
000030 59 0c 51 be c0 19 32 3e 3a 3c bc 3e d9 fe fe 3d
       -0.20414867 0.17392635 0.367647 0.12450952
000040 c8 29 96 bd 12 b9 9b 3d 78 81 9f 3e ae 65 3e 3e
       -0.07332188 0.07603659 0.31153464 0.18593475
000050 8b 89 1b bd 8d 15 26 3e 4e e9 88 3e d4 83 23 3e
       -0.037972968 0.16219158 0.26740497 0.15968257
000060 c9 23 02 ba c8 d6 6a 3e ad f7 4f 3e 21 09 b9 3d
       -0.0004964439 0.22933495 0.20309325 0.09034944
000070 07 d6 bd 3d 75 e2 59 3e da 7b 1c 3e 15 7a 3c 3d
       0.09269338 0.21277793 0.1528162 0.046014864
000080 d0 ec 33 3e 79 06 37 3e b3 27 9a 3d 2d f1 43 bd
       0.17570806 0.17873563 0.07527103 -0.047837425
000090 4e 1e a6 3e 10 39 1d 3e f9 b4 87 3c 77 ec cc bd
       0.32444996 0.15353799 0.016565787 -0.100060396

convs.0.root f4 [4, 32]
000000 df e3 d3 bd a1 3c a4 3c 67 12 80 bd 72 4b 50 3e
       -0.10346197 0.020048441 -0.0625351 0.2034128
000010 6d d6 80 3d b8 a1 55 3c 0b bf c4 bd 06 2c 51 be
       0.062908985 0.013039045 -0.09606751 -0.2042695
000020 b7 31 5b 3e 73 c1 c7 3e 57 ff ac 3e 7a d4 b3 bd
       0.21405683 0.39014778 0.3378856 -0.08780761
000030 52 21 57 3d a4 ed 29 3e 37 6b f0 bc b8 49 5e bd
       0.05252201 0.16594559 -0.029347999 -0.054269522
000040 44 c4 5f be cc 62 4d 3e b0 34 6a 3c c2 46 75 be
       -0.21852213 0.2005722 0.014294788 -0.23952773
000050 45 9e ee bc 40 6d 01 be 2b fb 04 bb 2b 64 21 3e
       -0.029128203 -0.12639332 -0.002029131 0.15760867
000060 4a a5 4c 3c 5b 32 52 3e f7 a5 05 bc 31 4f 68 be
       0.01249058 0.20527022 -0.008157245 -0.22686459
000070 9f 6f d3 3c 9a 97 68 be b9 43 a0 3d a3 56 07 be
       0.025810061 -0.22714081 0.07825417 -0.13216643
000080 65 79 26 3e 05 40 76 3d 42 95 26 be 3d d8 4b 3e
       0.16257246 0.060119648 -0.16267875 0.19906707
000090 a8 18 d6 bd aa c0 84 bd aa a3 e5 bd 1c 32 fb bd
       -0.104539216 -0.0648206 -0.11212857 -0.12265417
0000a0 16 5a 1d 3d 6f 19 24 be 7a d1 63 bc 3c de 09 3e
       0.03841599 -0.16025327 -0.013904924 0.13463682
0000b0 16 5f 83 3e 72 57 2f 3e a8 ba 9a bd 43 98 ad 3e
       0.25658482 0.17123201 -0.07555133 0.3390523
0000c0 da f9 4b bd 28 d3 a7 3d 2e 56 a6 3b 4f 2c ee bb
       -0.049798824 0.08194572 0.0050761914 -0.0072684656
0000d0 a4 dd 80 bd 26 ef 29 be 26 2a 3d be eb d5 ad be
       -0.062922746 -0.16595134 -0.1847311 -0.3395227
0000e0 9a b6 4d be e2 8b 1f 3d 89 5e d1 3d a1 4a 3a bc
       -0.20089188 0.038951762 0.10223109 -0.011370332
0000f0 e8 84 b1 3c b6 79 73 bc 4a 9b 50 3e c9 27 84 3e
       0.02166982 -0.014860561 0.20371738 0.25811604
000100 8c 3f 3a bd 32 70 0e 3e b4 0f cc bb 55 80 a0 bc
       -0.04547076 0.13909987 -0.006227458 -0.019592443
000110 5e 74 ba bd 52 23 44 be f1 95 c9 bd 0c 89 1b be
       -0.091042265 -0.19154099 -0.09843052 -0.15188998
000120 02 69 b3 bd c3 52 4c 3d 0e 9b 10 be d2 06 05 bd
       -0.08760263 0.049883615 -0.14121649 -0.032477207
000130 6d d1 35 3d d0 2e 36 3e d1 c4 9a bc e1 9a 26 bd
       0.044389177 0.17791295 -0.018892678 -0.040675048
000140 e0 66 fe bd 20 6a f7 bd de be 1e be 77 b8 42 3e
       -0.124219656 -0.120807886 -0.15502498 0.1901568
000150 71 57 56 bc 37 6a aa 3d 03 55 11 be bc 92 1e 3d
       -0.013082371 0.0832104 -0.14192586 0.038714156
000160 19 9c 23 3d 3a 04 98 3d ff 25 ca 3d 6f f0 34 bd
       0.03994379 0.07422681 0.098705284 -0.044174608
000170 da 56 1e be a2 67 cf bd 24 83 62 bc 08 c9 08 bd
       -0.15462819 -0.10127188 -0.013825212 -0.033394843
000180 bb 3c f6 bd b0 d8 9e bc f6 9e 8a bd f5 85 50 3e
       -0.12023302 -0.019390434 -0.06768601 0.203636
000190 29 73 e0 bc e7 88 62 bd 11 94 85 bd fe 67 21 be
       -0.027398663 -0.05530634 -0.06522382 -0.15762326
0001a0 ca 58 25 be 16 cb a0 3d 2a f3 75 bd 08 26 06 be
       -0.16147152 0.078512356 -0.060046352 -0.13100445
0001b0 7e 88 1e 3e 70 a4 14 3e 87 30 90 3d 72 f0 dd 3b
       0.15481755 0.14515853 0.07040506 0.006773048
0001c0 89 12 dc 3c 7d 85 24 be c6 5c 4f bd f0 44 ff 3d
       0.026864307 -0.16066547 -0.050625585 0.12464321
0001d0 a0 9f 72 bd f2 6e 02 3e dd df 36 be 65 3f ec bd
       -0.05923426 0.12737635 -0.17858835 -0.11535529
0001e0 73 fa 4a bd 6b 40 d4 3d cb aa 4e 3c 0a fa f7 bc
       -0.049555253 0.10363849 0.012613962 -0.030270595
0001f0 d8 fa 25 be 33 22 4c bd 0d 66 eb bd d2 3f 7b bd
       -0.1620897 -0.049837302 -0.11494074 -0.06134016

convs.0.bias f4 [32]
000000 ab ad 04 3e 8c e6 60 bc e4 e9 b3 3d e3 ac 4e be
       0.12956874 -0.013726842 0.087848455 -0.20183139
000010 1e 9e a6 3d 2e d9 e9 3c 23 91 b3 3d 9f c3 13 3e
       0.08135627 0.028545942 0.08767917 0.14430092
000020 be 98 36 3e 6b c0 04 bc 96 cb ca 3c 75 68 28 3e
       0.17831704 -0.008102517 0.02475528 0.16446097
000030 44 b0 a4 bd 97 6a 34 be 4a 85 19 be cd 60 5f 3d
       -0.080414325 -0.17618786 -0.14992252 0.054535676
000040 f0 a4 86 3d ce ce 54 3e a0 df 0a 3e 93 97 e1 bd
       0.06574428 0.20782015 0.13561869 -0.110152386
000050 21 e6 0d 3d d3 5b 7b be 98 91 22 3e d7 dc a9 3c
       0.034643296 -0.24546747 0.15875852 0.020735187
000060 af 92 53 3c 27 17 9c bd 2b f0 b2 bd a9 f4 48 3d
       0.01291339 -0.076216035 -0.08737215 0.04906145
000070 bf 01 b0 3d 2a c1 e2 bd 5f a5 23 3e 5c 1d 82 3c
       0.08594083 -0.11071999 0.15981053 0.01588314

convs.1.basis f4 [4, 32, 32]
000000 99 d4 93 bd f3 8c 2f bd c5 de 9e bd 96 87 8e bc
       -0.07218284 -0.04285903 -0.07757334 -0.017398637
000010 95 f3 51 bd eb 49 2f bd fe e9 46 be 59 e6 7d 3d
       -0.05125769 -0.042795103 -0.19425198 0.061987255
000020 46 01 80 3d e0 7f 08 3c 16 5e cd bc 46 6c 59 3d
       0.06250243 0.008331269 -0.025069278 0.053081773
000030 bb 42 80 bd 7a 1e 9e bd 89 66 e0 3b 4a 86 84 3c
       -0.06262728 -0.07720657 0.0068481606 0.016177315
000040 2a 92 5d 3d 64 24 e4 3c eb 4c 75 3d a3 47 de bb
       0.05409447 0.027849384 0.059887808 -0.006783442
000050 ac f6 fa 3b e6 cb 00 be 5f 5b 45 bd 8e 3a 16 bd
       0.0076588 -0.12577781 -0.04818284 -0.036676936
000060 2a c0 d5 bc 5f fa 6e 3d f9 ec 17 bd 4c 9e 5c 3d
       -0.026092608 0.05834424 -0.03709123 0.0538619
000070 68 25 a6 3d d8 d2 0b 3c c8 04 5c bb 17 ab f1 bc
       0.081126034 0.008534156 -0.0033572186 -0.029500527
000080 40 11 2f 3c 95 16 01 3b 01 dc cd 3b 7d 88 8d 3c
       0.010685265 0.0019697298 0.00628233 0.017276997
000090 12 66 36 bc 60 55 a1 bc f6 77 f2 bd 86 78 bf bc
       -0.011132734 -0.01969403 -0.11839287 -0.0233729
0000a0 c1 da 1f 3c 3f 18 b0 ba 48 68 51 3d e1 c9 33 3d
       0.009756745 -0.001343496 0.05112484 0.0438937
0000b0 c1 3a e1 bc e8 95 51 3b d9 9f 39 3b 7f 75 30 3d
       -0.027493836 0.003198022 0.0028324036 0.043080803
0000c0 e7 59 21 3c 7f dd 2d 3c 08 d5 5f 3c 59 a5 09 3c
       0.009848095 0.010611891 0.01366163 0.008401238
0000d0 7f 8c d8 bc b3 cb 86 bd 2b b5 b1 bc a1 7e 6d bc
       -0.026434181 -0.06581821 -0.021692833 -0.014495523
0000e0 0e 35 16 bd 8a 33 24 ba 32 52 7c bc 15 d4 b6 bd
       -0.03667169 -0.00062637834 -0.015400456 -0.0892717
0000f0 93 4e 17 3d 34 ea 36 bb 51 29 34 3c c9 97 81 bc
       0.03694017 -0.0027910592 0.010996179 -0.015819447
000100 f0 86 c1 bb c6 7a 05 3d 2e ec ff 3c 1d 2e bc bc
       -0.0059059784 0.03258779 0.031240549 -0.022971207
000110 8d 57 b0 3b 0a d7 c7 3c 23 1b ae 3d 9b a9 6e bd
       0.0053815306 0.02439453 0.0850127 -0.058267217
000120 e3 a6 a3 bc e4 85 bb bb cd 9f 10 3d 5c 03 b4 3c
       -0.019977039 -0.005722748 0.035308648 0.021974258
000130 02 8f 7f 3b b5 bb 53 3c e7 3f 43 3d a8 40 a7 bd
       0.0038995151 0.012923171 0.047668364 -0.08166629
000140 45 cb 65 bc e1 46 32 3c 67 4b 3f bb df 9f 05 3d
       -0.014025514 0.010881157 -0.002918923 0.032623168
000150 49 eb ec bc be a0 dd 3c 1e c1 b1 3c 12 67 52 3c
       -0.028920786 0.027054187 0.02169853 0.012841957
000160 36 4c 31 bc 07 9a c1 bc bb d2 5a 3c fe d0 81 3d
       -0.010821393 -0.023633016 0.013355906 0.0633869
000170 a7 28 48 bc 4b 77 d5 3c f8 86 11 ba 51 32 3d bc
       -0.0122167235 0.02605786 -0.0005551423 -0.011547641
000180 39 60 8b bc 5c df 12 3c 2f 6a dd bc 95 57 94 3c
       -0.017013656 0.008964386 -0.027028171 0.018108169
000190 6a 1b b8 3c 92 98 d3 3b 87 56 a3 3d 99 c1 2a 3d
       0.02247401 0.006457397 0.07975488 0.041688535
0001a0 96 73 72 3c cd de 0a 3d c3 26 09 bd 94 c3 a7 bd
       0.014798066 0.033903886 -0.03348423 -0.081916004
0001b0 4d 00 80 3d c9 77 21 bd 47 97 16 bd 70 51 11 3d
       0.06250057 -0.039420877 -0.036765363 0.035478055
0001c0 fc 47 12 ba a6 04 7f bc 80 c7 3f bc 73 22 ea bb
       -0.00055801845 -0.015565073 -0.011705279 -0.00714522
0001d0 20 13 f9 3c f0 93 12 3d f6 7b 9a bc b9 3b b9 ba
       0.030404627 0.035785615 -0.018857937 -0.0014132179
0001e0 4a 09 72 3d 58 72 d4 3b 75 7d cc bc c0 ab 44 3d
       0.05909089 0.0064833574 -0.024962166 0.048015356
0001f0 ad b9 64 bd 0c 5f 04 3d 30 b5 0c 3c 19 90 01 3d
       -0.055841137 0.032317206 0.00858812 0.031631563
000200 c2 80 8c bc 27 b9 a0 bc 98 90 16 3c e5 9b a9 bc
       -0.01715124 -0.019619538 0.009189747 -0.02070422
000210 e1 bb 3b bc 01 52 5d bc ef d2 87 3d 57 46 9c 3d
       -0.011458368 -0.013508321 0.06632029 0.07630604
000220 59 ad 8e 3c 11 db 1c 3c b5 a1 a8 bc 4d 36 86 bc
       0.017416643 0.009573714 -0.02058492 -0.016383315
000230 73 71 23 3d c5 ea 88 bb 39 4e dc 3c eb be 0f bd
       0.039903115 -0.0041783773 0.026892768 -0.035094183
000240 6a df 4f bb 48 1c 6d 3c 82 96 62 bc 00 75 3d 3b
       -0.0031718859 0.014472075 -0.013829829 0.0028908849
000250 42 db 85 3c 0b ed 93 bd de 99 4c 3d f7 bd 9f bb
       0.016339902 -0.07222947 0.049951427 -0.0048749405
000260 ba ec 88 bb 8b a6 c8 3c 1d af 45 3c 64 e4 a4 3d
       -0.0041786106 0.024493476 0.012065676 0.080513746
000270 40 2c a9 bc bf d1 9f 3c f8 14 86 3b 1d de 44 3c
       -0.020650983 0.019509194 0.004091855 0.012015847
000280 76 85 97 bc d7 31 21 3c 41 70 7b bc 04 c4 a3 bd
       -0.018496256 0.009838543 -0.015346588 -0.079963714
000290 af 02 db 3b c5 ef e3 3c 7b b8 7e 3e eb 73 9f 3c
       0.0066836695 0.027824292 0.24875061 0.019464454
0002a0 b0 36 8b 3c 58 1b 90 bb c1 fb 0a bd fb b1 17 bd
       0.01699385 -0.004397791 -0.033931497 -0.03703497
0002b0 4a 67 d3 3d 72 ee b9 3b 8a 72 a2 bd 48 e7 ce 3d
       0.10322435 0.005674177 -0.07932003 0.10102707
0002c0 c5 8e f5 3b f2 d1 37 bc d8 07 ab bc d2 db 2d 3b
       0.007493826 -0.011219488 -0.020877764 0.0026528728
0002d0 e4 42 56 bb f0 b5 13 3d ea 51 23 bd 2c ce bc 3b
       -0.0032693679 0.03606218 -0.03987304 0.0057618823
0002e0 d9 f7 bd 3d b5 88 c6 39 ca 4e 50 3c 63 c2 57 3d
       0.09275789 0.00037867358 0.012714097 0.052675616
0002f0 31 ff a8 bc 16 83 1d 3c 57 e1 ed 3c a6 12 12 3d
       -0.020629497 0.009613773 0.029038114 0.035662316
000300 f9 64 2f bd f4 2b 43 bb 7b 06 d8 3c 50 1a 56 3c
       -0.042820904 -0.0029780837 0.026370278 0.013067797
000310 12 5f 25 3c ae 60 0c 39 af 73 b5 bc 53 0f ca 3c
       0.010093467 0.00013387456 -0.022149889 0.02466551
000320 06 b5 c8 b9 d6 89 61 3c 7b a3 1c bb c3 f5 da bc
       -0.00038281846 0.013765773 -0.0023901153 -0.026728516
000330 80 d1 03 bb d7 7a ed 3a b2 8f 98 bb d6 21 a4 bb
       -0.0020113885 0.0018118274 -0.0046558017 -0.0050089164
000340 db 1d 97 bc 40 39 a7 3c 35 d1 90 3c e1 e7 e7 3b
       -0.018446853 0.020413041 0.017677883 0.0070772027
000350 15 10 2c 3c 7c 06 bb 3b 81 e6 77 3c df 62 b7 3b
       0.010501881 0.00570756 0.01513064 0.005596503
000360 75 fb 54 3c 92 f3 c3 3c aa 1c 48 3c 40 a0 8d 3c
       0.012999405 0.023919854 0.012213865 0.017288327
000370 15 e2 85 bc b2 49 12 bc 8a b7 98 ba 7b da b9 3c
       -0.016343156 -0.008928703 -0.0011651379 0.022687187
000380 12 c9 47 be 86 16 86 bd 9a 24 e7 bd 86 7e 62 bb
       -0.19510296 -0.06547265 -0.11286278 -0.0034560277
000390 8f 66 9c bd a0 8b 10 be 70 cc 3b be b3 50 24 3e
       -0.07636749 -0.14115763 -0.18339705 0.1604641
0003a0 e2 53 c4 3d db bf 36 b9 c4 8d 94 bd 32 cc 8c 3c
       0.09586312 -0.00017428344 -0.07253602 0.017187212
0003b0 be d3 a9 bd 88 cc f9 bd 30 83 02 bc 37 68 42 3e
       -0.0829234 -0.12197214 -0.007965848 0.18985067
0003c0 65 10 a8 3d 05 b0 11 3b 78 b5 8a 3d 04 09 e5 bc
       0.08206252 0.002223016 0.06772894 -0.0279584
0003d0 1a 6f 2e 3d cc 73 8f be f2 e5 e2 bc 1b fe 20 bd
       0.042586423 -0.28018034 -0.027697537 -0.039304834
0003e0 2c b5 87 bc 6f b6 80 3d ce 4b 63 bd e6 53 b8 bd
       -0.016565882 0.062847964 -0.055492215 -0.09000377
0003f0 d7 bc eb 3d 68 3f a5 bc 7e f3 ad bc 92 d3 62 bc
       0.11510628 -0.020171836 -0.02123427 -0.013844388

convs.1.att f4 [10, 4]
000000 12 11 a8 bd 3c 4d 29 3e 8e ea 96 be a7 d0 5c ba
       -0.08206381 0.16533369 -0.29475826 -0.00084234256
000010 6b 19 1f 3d 31 48 04 3e f6 32 85 be 66 ac 0a bb
       0.0388426 0.12918164 -0.26015443 -0.0021159886
000020 10 69 00 3e a9 1f a9 3d 07 1d 72 be c2 02 12 bd
       0.12540078 0.08257992 -0.23643886 -0.03564716
000030 d6 cf f5 3d 35 6a c0 3c 60 4c 5c be 05 af a1 bd
       0.12002532 0.023488143 -0.2151351 -0.078947105
000040 8d 45 ee 3d 11 75 4d bd 43 92 18 be 5d 5d 88 bd
       0.116343595 -0.05016047 -0.14899544 -0.06658433
000050 12 8d 69 3d 87 ee 02 be f0 d7 e9 bd 9c 2d c3 bd
       0.0570193 -0.12786303 -0.1141814 -0.09530184
000060 64 2b 6a 3d 34 66 23 be 71 fa 9e bd c3 0f 19 3d
       0.057170287 -0.15956956 -0.07762612 0.037368547
000070 92 dc 1a 3d 9a a3 40 be 2d 05 ec 3a 78 69 c5 3d
       0.03780801 -0.18812409 0.0018006914 0.09639257
000080 d6 90 39 bd 28 fa 3b be d8 84 1c 3d eb 77 c2 3d
       -0.045304142 -0.18357146 0.038212627 0.09495529
000090 fb 57 2e be 4f af 2e be ec 5e 8e 3d 73 c8 18 3d
       -0.1702575 -0.17059062 0.06951699 0.03730054

convs.1.root f4 [32, 32]
000000 1c 7f 2b bd 06 c9 7d 3d 2d 3a 21 3d c1 ee 72 bc
       -0.041869268 0.06195929 0.03936212 -0.014827431
000010 b8 ba 58 3c 16 32 2b bd 92 57 31 be d6 e4 a3 3d
       0.013228111 -0.041795813 -0.17318562 0.08002631
000020 c5 cd 4b bd 10 1e 98 bc a4 98 bc bb 02 31 9f bc
       -0.049756784 -0.018569022 -0.005755501 -0.019432548
000030 38 e6 8a bd ac 78 51 bb 16 4e 2e bd f6 22 c7 3c
       -0.06782192 -0.0031962795 -0.042554937 0.024308663
000040 d5 fa f3 bb 1f 0e 3c bd 7f 38 91 bd a4 6a ef 3b
       -0.007445673 -0.045911904 -0.07090854 0.0073064137
000050 8e e2 f0 bc 59 80 33 3c d3 c8 ea bb 34 60 2a 3d
       -0.029404905 0.010955893 -0.0071650534 0.041595653
000060 73 60 7c bc ab 26 5e bd 96 c6 73 bd de 14 0c 3e
       -0.015403855 -0.054236095 -0.05951556 0.13679835
000070 6f 05 4d bd 26 0e d1 bd 8c 03 ac bd aa 49 0e 3d
       -0.05005401 -0.10207777 -0.08399114 0.03473822
000080 8b 56 5b bc 75 5c 74 bd 8d eb af 3d 9d 15 08 3d
       -0.013387333 -0.059658486 0.085898496 0.033223737
000090 21 93 fe 3b a7 c4 95 bc 1a 02 f6 3d 77 0e 99 3d
       0.007769004 -0.018282248 0.120121196 0.07473462
0000a0 50 5b d9 3c 31 30 92 bd ed 8e a7 3c 64 67 c0 3d
       0.026532799 -0.07138098 0.020453895 0.0939472
0000b0 55 a8 14 bd 6d 7a 9d bd 38 22 22 3c 9f 91 96 bd
       -0.036293346 -0.076893665 0.009895854 -0.07351994
0000c0 48 44 89 bb f4 90 5f bd 65 f0 dd 3d 9e 58 a7 3d
       -0.004189048 -0.054581597 0.10836867 0.08171199
0000d0 b0 d8 33 3b 5f a6 92 3d a7 dc 8c bc 74 7e e8 bd
       0.0027442388 0.07160639 -0.017195059 -0.11352244
0000e0 7b f3 11 3d c7 a8 f0 3c c6 0c ff bc 17 dc 0a bd
       0.03563259 0.029377354 -0.03113402 -0.0339013
0000f0 6d 03 d0 b9 70 4c 8e bd ec 2d e3 bb 54 ac b3 bd
       -0.00039675404 -0.06948173 -0.0069329645 -0.08773103
000100 8d 7c 69 3c 46 4a 11 3d 08 4c 48 bc 5f 8d a1 3d
       0.014250887 0.035471223 -0.0122251585 0.078882925
000110 c8 fe 48 3d 41 c6 96 bd 72 5d 9b 3d aa 11 63 3d
       0.049071103 -0.07362033 0.07586183 0.055436768
000120 d1 61 a5 3b 6e 31 00 3c 2c b7 8f bc b7 8e 7e 3d
       0.005047061 0.007824285 -0.017543398 0.062147822
000130 e7 00 d3 3b 99 09 79 bc b9 8a 02 bd 76 36 7e bc
       0.0064393166 -0.015200042 -0.031870577 -0.015515914
000140 f6 fe a4 3c a6 89 86 bd 5c 8f ee bb e0 76 c6 bc
       0.020141106 -0.06569223 -0.0072802734 -0.024226606
000150 b1 6a e3 3c 11 97 87 bb 4c c3 f0 bc db d9 b8 bc
       0.027760835 -0.0041378816 -0.02939 -0.02256482
000160 24 d8 9d 3c f4 09 88 3d c3 a3 ba 3d 06 fe b6 3c
       0.019268103 0.066425234 0.09113266 0.022337925
000170 0d a4 8f 3d 34 c6 f1 bd 8e 02 2a bd f1 e3 0d 3b
       0.07013712 -0.11805382 -0.041506343 0.0021650756
000180 75 f4 16 3d df c9 a9 3d fe e3 1c 3d 8f 27 c0 bd
       0.036854226 0.08290457 0.038303368 -0.09382545
000190 91 2c cf bc 03 58 32 3d 3e e8 85 bc 51 7e cb bc
       -0.025289806 0.043540966 -0.016346093 -0.024840506
0001a0 69 ec e2 bc 0c 6b 68 3d 80 bc b2 3d 78 df 0e bd
       -0.02770062 0.056742713 0.0872736 -0.034881085
0001b0 0d 2d 80 3d 37 e6 9b bb f1 37 64 3b 9f ef 05 3d
       0.06258593 -0.0047576684 0.0034823383 0.032699224
0001c0 94 e9 f3 bc 44 eb f8 3c 1b c8 88 3d 58 bd c1 3d
       -0.029774465 0.03038562 0.06678792 0.094599426
0001d0 2d 32 87 bd 23 7f 28 bc d0 d2 ea 3d 05 e9 2f bc
       -0.06601367 -0.010284218 0.114659905 -0.0107367085
0001e0 89 95 34 bd 90 0f 04 bb f2 b0 89 3d 4d 63 de 3d
       -0.04408792 -0.0020150878 0.06723203 0.10858784
0001f0 85 c7 8c 3c 97 b8 d5 3c b2 e4 63 3d 0e ed 02 3e
       0.017184982 0.026088996 0.055638023 0.12785742
000200 17 9e 18 3d cd b5 f1 3d b4 70 9f 3d ac b6 a7 bb
       0.03726014 0.11802254 0.07785168 -0.0051182117
000210 74 4f a5 3d bd 41 c7 3c 76 5b af 3d 37 36 70 bd
       0.08071795 0.024323339 0.08562367 -0.058645453
000220 a5 b6 0e bd df 8c 8c bd 6b e2 9e bd 21 1c 96 3c
       -0.034842152 -0.068628065 -0.077580296 0.01832396
000230 9e da ea 3d 5a 74 ee bb 8f 66 ce bd 48 c7 40 3d
       0.11467479 -0.007277054 -0.10078155 0.04706505
000240 7d 92 0c bc 89 4f f9 bc fa f0 1b bd 5e 19 6c 3d
       -0.008579847 -0.030433433 -0.03807161 0.05764138
000250 a9 f9 91 3d 3d 08 12 3e ca 71 75 bc cf f8 61 bd
       0.07127697 0.14260955 -0.014980743 -0.055168923
000260 91 35 b8 bc dc c3 4c 3d 28 68 d3 3c 73 ef 5b bd
       -0.02248648 0.049991474 0.025806502 -0.053695153
000270 69 58 25 bc b5 b3 e1 bc 81 d0 eb 3d 7d 95 82 bd
       -0.010091879 -0.027551511 0.11514378 -0.06376169
000280 9f cd a6 3d ee bc d3 3c d0 be 11 3d 73 45 77 3d
       0.08144688 0.025846925 0.035582364 0.060368966
000290 06 ce 4e 3d 96 1f 05 3d f5 e5 8d bc 4d 9b 87 3d
       0.050489448 0.032500826 -0.017321566 0.06621418
0002a0 bd 7f 53 3d ae c9 a3 3c a6 09 ec 3d 66 e5 e3 bd
       0.051635493 0.01999363 0.11525278 -0.11127739
0002b0 ef a9 90 bd 91 a1 69 bd a3 e7 35 3d 18 2b 6c bc
       -0.07063662 -0.057038847 0.04441036 -0.014414571
0002c0 37 34 d3 bd 3d 02 4b 3d 31 9b b1 bd 8c 1f 61 3d
       -0.103126936 0.04956268 -0.086721785 0.054961726
0002d0 ad 13 15 bd 69 57 3a 3d f6 99 93 3d e7 1b 1e bd
       -0.036395717 0.045493517 0.072071 -0.03860083
0002e0 8e 76 f8 bd 54 3d 3d bd 70 4f d4 3c 4d 98 33 3e
       -0.121319875 -0.046201065 0.025916785 0.17538567
0002f0 7b ea cc bd 5e e7 f5 bc 79 e9 80 3c f1 ac ab bc
       -0.10005661 -0.030017551 0.015736328 -0.020956488
000300 ea 6d 2b bd 01 5a 36 bd cb 18 01 3e 9a 5a 08 bd
       -0.04185287 -0.04451943 0.12607114 -0.03328953
000310 5b 5b 38 bd d2 89 98 bc 1b 93 28 bd 50 8a 56 bd
       -0.045009 -0.018620405 -0.041155916 -0.052378
000320 7c 6f 63 3c 49 d4 f3 38 46 2d 54 bd ab 21 53 3c
       0.01388156 0.00011626684 -0.05180099 0.012886445
000330 e5 c4 03 bc 14 22 3d 3d 5f d7 a0 bd e0 50 dd bc
       -0.008042549 0.046175078 -0.07853579 -0.027016103
000340 ad 37 33 bd 5a be 06 bd 3c 70 f9 bd 6e 4e b9 bc
       -0.04375427 -0.032896377 -0.1217961 -0.022620406
000350 49 d4 4f bc 2a d9 91 3d fb f4 f8 3d 2b 69 ec 3b
       -0.01268489 0.07121499 0.12156101 0.0072146854
000360 d2 4a 18 3d c4 58 6c 3c 22 0c 28 bd 72 d7 4b bd
       0.03718073 0.01442546 -0.041027196 -0.04976601
000370 45 3c f4 bd 6a be 84 ba 41 7e b7 3d 29 fe c9 3d
       -0.11925558 -0.0010127549 0.08959628 0.0986293
000380 90 3a fc bb 29 de 44 3d 8b d2 44 bd 96 da 64 bd
       -0.007697411 0.04806343 -0.048052352 -0.055872522
000390 f7 73 45 bd 3c e6 6e bd f1 ca 33 be 03 f9 39 bd
       -0.048206296 -0.058325037 -0.17557885 -0.04540349
0003a0 26 3d 4a bc e6 fc 5b 3d 48 4e 14 3d 77 85 2c bd
       -0.0123436805 0.05370798 0.036207467 -0.04211947
0003b0 42 59 1a bd a9 32 b3 3d 0c 51 76 bd 7a dc 49 bd
       -0.03768278 0.08749897 -0.060135886 -0.04928253
0003c0 70 37 97 bb be fc c9 3c 40 91 35 3d d4 a6 78 3d
       -0.004614763 0.02465665 0.044327974 0.060705975
0003d0 a6 dd 4b 3d ce 68 05 bd be 97 c5 bb 0d 75 86 3b
       0.049771927 -0.032570653 -0.006030052 0.004103309
0003e0 ae 22 88 bd 3a 32 95 bc b9 a2 ab ba 10 c4 1a 3d
       -0.066472396 -0.018212426 -0.001309476 0.037784636
0003f0 0b ed 3e 3c 88 63 73 3d 58 9f f6 bc ed 77 fd bc
       0.011653195 0.059421092 -0.030105278 -0.030940974

convs.1.bias f4 [32]
000000 7b ba 9c bd 30 c1 d5 bc 08 bf b1 bc 95 c5 40 bd
       -0.07652756 -0.026093096 -0.021697536 -0.04706343
000010 b9 7c 81 bc 8c 17 06 be 66 d4 59 bd 3a 01 95 3d
       -0.015806543 -0.1309492 -0.053181075 0.072756246
000020 39 26 ab 3b ba f3 e0 bc 58 a5 f7 3c b0 8a 59 bd
       0.0052230624 -0.027459968 0.03023021 -0.05311078
000030 06 72 89 bd 81 a2 11 3d c0 28 b8 3d 6b d3 03 3e
       -0.06711201 0.035555366 0.089921474 0.12873618
000040 0b 83 e8 bc 82 e8 80 3d 3b 14 8a 3d 17 7a c5 3c
       -0.028382799 0.06294347 0.0674214 0.024106069
000050 0a 20 e2 bc 4c 70 13 bd 41 e5 a5 bc ae 20 7e bd
       -0.027603168 -0.035995767 -0.020250918 -0.062042885
000060 ff 08 09 bd b9 9c 8b 3d 1f e5 d2 ba a9 0e e3 bd
       -0.033455845 0.06817002 -0.0016090012 -0.110867806
000070 e5 e5 2b bd bc 76 7c 3c 67 38 49 bd 07 47 45 3d
       -0.04196729 0.015409168 -0.049126055 0.04816344

convs.2.basis f4 [4, 32, 32]
000000 67 a6 92 3c 02 c0 36 bc 46 4b 4c bb 89 fa 47 3d
       0.017901612 -0.011154177 -0.0031172796 0.048822913
000010 78 a8 b3 bd 21 8c d8 3a 64 ff d8 3b 79 c1 ae 3d
       -0.08772367 0.0016521254 0.006622242 0.08532996
000020 dc ca ca bc 3e 09 e9 bb ca 8d 84 bd 71 a7 24 3b
       -0.024754934 -0.0071116975 -0.064723566 0.0025124217
000030 16 90 34 3d f5 03 19 bc 6a b1 f3 3b 11 3e 1b bd
       0.044082724 -0.009339322 0.007436921 -0.037900988
000040 99 34 97 3c 7f f2 41 3d 02 30 36 bd 48 1b a4 bc
       0.018457698 0.047350403 -0.044479378 -0.02003254
000050 62 f1 9f 3b 65 f7 ea 3c 18 d6 41 3d d0 5b 8f 3a
       0.00488107 0.02868242 0.047323316 0.0010937396
000060 c1 fa 1d bd 03 c9 7b 3c 5b bf 21 3d 4e 8c 9e 3b
       -0.038569216 0.015367749 0.03948913 0.004838503
000070 d5 f8 82 3c 8d 1f d1 3b 15 9a ca bc a0 bc 83 bd
       0.015987793 0.006381935 -0.024731675 -0.06432462
000080 30 82 7f bc a9 32 60 3d 93 b7 9a ba 41 c4 09 bb
       -0.015595004 0.054735813 -0.0011803977 -0.0021021517
000090 17 eb 34 3c c3 d0 33 bd eb f3 06 3c 0c be 98 3b
       0.011042378 -0.043900263 0.0082368655 0.004661327
0000a0 89 a7 f3 3c 6d 3a 99 3c 1a f9 50 3d ce 00 87 bc
       0.029742973 0.018704617 0.05101881 -0.016479876
0000b0 c0 24 b2 bc e9 17 4a bd 73 6e e7 3c 15 8c 51 3d
       -0.02174604 -0.04933921 0.028250908 0.051158983
0000c0 4b 26 b8 3b a9 de 47 3c 65 55 5a bd d0 50 01 3d
       0.0056197993 0.012199082 -0.053304095 0.03157121
0000d0 21 4a 4a 3d ce 56 61 3d 84 b2 8c 3d 6f 78 0c bd
       0.0493871 0.055014424 0.06869987 -0.034294542
0000e0 01 02 8c 3d c8 1d 0e be ee 31 f1 bc a0 79 0c bb
       0.0683632 -0.13878548 -0.029442754 -0.00214348
0000f0 ff fb 42 3d 82 5a ca bd 12 f1 5e bb ff fd 27 3d
       0.047603603 -0.09880544 -0.00340182 0.041013714
000100 a6 fe d5 bc e8 07 77 3d 73 b5 5b bd 6d c5 16 3d
       -0.026122402 0.060310274 -0.05363984 0.036809374
000110 d9 0d 0a ba f2 da b7 bc 2e fe 2d bc 7b 9b 56 bd
       -0.00052663457 -0.022443268 -0.010619683 -0.05239437
000120 a4 2f b2 bb 71 1b 07 3d 44 af 45 3d ba 24 9b 3d
       -0.005437808 0.032985155 0.04826285 0.075753644
000130 10 bb 12 3c e7 43 52 3d e2 54 76 3d 88 86 06 bc
       0.008955732 0.051334288 0.060139544 -0.008210786
000140 26 56 d1 3b 18 93 ab 3d e6 10 a7 3b 8d 50 26 bc
       0.0063884435 0.08377665 0.00509845 -0.010151041
000150 ed 47 53 bc 96 ce b0 3d 4d 2a 93 3d e2 43 28 bd
       -0.012895566 0.08633153 0.071858026 -0.041080363
000160 87 85 ea 3d 6c 17 1a be 5c 4c 11 bd 79 3a 6f 3c
       0.114512496 -0.15047997 -0.035473213 0.014601343
000170 2f 20 3f 3c 85 a1 97 bc 61 f5 f8 3b 45 81 a7 3d
       0.011665388 -0.018509636 0.007597611 0.08178953
000180 b2 30 92 bb 87 34 17 bc 25 ec 1b 3d a7 99 b7 3c
       -0.0044613713 -0.009228832 0.038067 0.022412134
000190 c3 ee 39 3d aa f6 d5 3b 56 c4 0f 3b 71 fb a7 3d
       0.045393717 0.006529649 0.0021937094 0.082022555
0001a0 2e 7b ed bb 59 a4 8d bd 4a b8 36 bc 99 db 37 bd
       -0.00724735 -0.069161125 -0.011152336 -0.04488716
0001b0 f1 cd a1 3b 11 35 59 bd 54 8b 7e bd de f7 34 3c
       0.00493788 -0.053029124 -0.062144592 0.011045424
0001c0 e8 07 81 3d fc 1f 89 bd f3 a5 38 3d 98 5f 16 3d
       0.06300336 -0.06695554 0.045080137 0.03671226
0001d0 4f e4 b3 3c 00 de f7 bd fb fc cf 38 9d 6f 0d 3d
       0.021959452 -0.1210289 9.9176505e-05 0.03453027
0001e0 2b 83 8d bc b8 0d 45 ba ed 9a 5e bd 47 e5 4b bc
       -0.01727446 -0.0007516998 -0.054346967 -0.012444801
0001f0 be 5b ce 3c 7d b7 77 bb a8 1f e8 bd 3c 91 6a 3d
       0.02519023 -0.0037798577 -0.11334163 0.057267413
000200 8a c4 b5 bb 0b 39 f3 3d d6 69 db bc 91 57 93 bc
       -0.005547111 0.118761145 -0.026783865 -0.01798609
000210 17 23 95 3c 65 88 22 bd f2 14 bd bd d2 62 01 3c
       0.018205209 -0.039680857 -0.092325106 0.007897096
000220 9f 0b 58 bd 2e e7 e5 3b 5b 93 00 bd 92 e7 3e bc
       -0.052745458 0.007016084 -0.03139053 -0.01165189
000230 6b 60 25 3d da b2 6d 3d 12 af ae 3c 39 8a e1 3c
       0.040375154 0.058031894 0.021323714 0.02753173
000240 3d 6f 20 3c e0 29 3d 3c be 24 fb bb fb 7e 3a 3b
       0.009792146 0.011545628 -0.007664292 0.0028457034
000250 2e f9 0c bd ca df bc 3d 39 13 22 bb 6a ef af bb
       -0.034417324 0.09222372 -0.0024730696 -0.0053691166
000260 f8 0e b6 3b 1b ef 05 bd 26 ea db bc 1a 66 01 bd
       0.0055559836 -0.032698732 -0.02684505 -0.031591512
000270 71 be 95 3d c6 1e 39 3b ad 3a a8 bc 46 84 50 3c
       0.073117144 0.0028247102 -0.020535791 0.012726849
000280 3b c4 1c 3d c7 d8 f4 bc 10 c6 5a bc 0b 25 1c 3d
       0.038273077 -0.029888524 -0.013352886 0.038121264
000290 8f 17 76 bc da 6c c3 3c ee d2 65 3d 36 1b 3f 3d
       -0.015020265 0.023855615 0.05610936 0.04665681
0002a0 cc 16 04 3d 7d f6 47 3d 38 af 9d 3b 1b 6f 38 3c
       0.032248303 0.048819054 0.0048121475 0.011256958
0002b0 40 61 5b bd 0b e8 66 bd 7e 22 2c 3d 9b a1 8f 3c
       -0.05355954 -0.056373637 0.04202508 0.017533114
0002c0 d6 20 20 bc b1 76 7f 3d 65 75 c2 3c 36 0b a5 bc
       -0.009773454 0.062369052 0.023737619 -0.020146947
0002d0 d9 e6 6b 3d b1 3a 14 3d 94 30 bd 3c 92 9f 08 bd
       0.0575932 0.036188785 0.023094453 -0.033355303
0002e0 c7 64 16 3d 81 c5 1d bc a8 1e a0 3d a5 39 25 3b
       0.036717203 -0.009629608 0.07818347 0.002521136
0002f0 61 46 9e 3c 2b 4d 02 bd 8a 3c 45 3d 9b 3a d8 38
       0.019320669 -0.031811874 0.048153438 0.00010310599
000300 36 cf a1 3c 84 3e b7 3d ff 9e 94 bd 45 9e 76 3d
       0.019752126 0.08947471 -0.072568886 0.06020953
000310 c9 8e 26 3d be 22 bf 3b 00 7e f2 bd bc 8e 07 be
       0.040663514 0.005832999 -0.11840439 -0.13238043
000320 1b 39 2d bd 16 d6 4f 3c 9c 0f dc bc 05 e1 d9 3d
       -0.04229079 0.012685319 -0.026862912 0.10638622
000330 d1 a6 a0 3c 41 d3 21 ba 60 44 14 3c dd c1 06 3d
       0.019610794 -0.0006173142 0.009049505 0.032899726
000340 8a 43 c4 bb 7d f2 ac 3d e3 95 72 3c 9c d0 e4 bc
       -0.0059894966 0.084446885 0.014806244 -0.027931504
000350 b1 1f 97 bd 2c a8 a5 3b c9 a0 1a 3d f3 44 6a bc
       -0.073790915 0.005055448 0.037750993 -0.014298665
000360 85 6c 85 3c 15 22 39 bd 82 b2 51 3d 53 b3 83 bc
       0.016287098 -0.04519852 0.05119563 -0.01607672
000370 4a 53 c0 bd 14 05 f9 3b 12 4e 09 3d 27 58 6c 3c
       -0.09390886 0.0075994823 0.03352172 0.014425314
000380 82 3f c4 3d 32 e8 f2 3b 69 9a ff 3b 8d c4 27 3a
       0.09582426 0.0074129337 0.0078003895 0.0006399833
000390 6a ba 91 3d 39 77 89 bc f2 99 08 3d 47 bf a1 bd
       0.07115634 -0.016780483 0.03334994 -0.078978114
0003a0 d8 50 84 3c 7c 15 91 3c 28 28 d2 ba cb 44 7e 3c
       0.01615183 0.01771044 -0.0016033696 0.015519331
0003b0 d9 3e c3 bb 21 ae cb b9 19 1e fd 3c 87 36 27 bc
       -0.0059584198 -0.00038848913 0.03089814 -0.010205871
0003c0 e6 34 6f bd 1b 61 0a 3d b8 70 6b bd c3 a7 8d 3c
       -0.058400057 0.033784013 -0.057480544 0.01729191
0003d0 b5 85 44 bd 4c 5d df bc 4a 38 3c 3d eb 36 dc bd
       -0.047979075 -0.027266167 0.04595212 -0.10752662
0003e0 20 27 b5 3d 96 9d a3 bd 59 f0 09 3b 3e eb 14 bc
       0.08845353 -0.079890415 0.00210478 -0.009089289
0003f0 4c e3 3a 3d 97 ae 59 bc 05 ee 8b bd f6 1d 21 3d
       0.045626923 -0.013286254 -0.06832508 0.039335214

convs.2.att f4 [10, 4]
000000 0e fe b2 3c f6 5e d7 3b 41 f2 4a 3c f3 8c fd 3c
       0.021849658 0.0065725995 0.012386859 0.030950999
000010 d4 46 e4 bb aa 29 34 3c 66 cd e6 bb 81 88 41 3c
       -0.006966451 0.010996262 -0.0070435284 0.01181233
000020 60 73 69 3c b2 2b a5 bb 95 47 8e 3c 1e d3 14 3d
       0.014248699 -0.0050406093 0.017368117 0.03633415
000030 b0 7c 7b 3c f1 2c 91 bc 57 3b 26 3c 22 d4 ad 3c
       0.015349552 -0.017721625 0.010145984 0.021219317
000040 44 70 e7 bb 89 8a 35 ba 55 a4 ab 3c 90 1b e9 ba
       -0.0070629437 -0.00069252454 0.020952383 -0.0017784704
000050 45 ab 26 bc fb e0 e9 3b d8 e5 a0 bc 87 03 66 bc
       -0.01017267 0.0071374155 -0.019640848 -0.014038927
000060 32 3e d8 bb 59 8b a3 3b dd dc 02 3c 45 06 eb bb
       -0.006599211 0.004990977 0.007987228 -0.0071723782
000070 b0 05 03 3b a1 0d 5b 3c eb 1e 2d bb 16 d5 3c ba
       0.0019992404 0.013369949 -0.0026416134 -0.0007203383
000080 28 e0 06 3b fd d6 a4 bb c1 e0 b1 ba 44 3d 11 3c
       0.0020580385 -0.0050305114 -0.001357101 0.0088647045
000090 0d af 32 3c 54 b6 e8 3b f7 33 f9 b9 92 2b 8b 3b
       0.010905993 0.0071018133 -0.00047531698 0.0042471373

convs.2.root f4 [32, 32]
000000 d6 7f 8f bc 92 02 b0 bd 3a c3 d3 3d d5 cd e7 bc
       -0.017517012 -0.0859424 0.10339971 -0.02829639
000010 8f 72 85 3c 25 d4 c1 bd fa cc 82 bd 7e 81 9e bb
       0.016289977 -0.094642915 -0.063867524 -0.004837214
000020 b8 52 67 3d 6e f0 35 bc d4 25 12 3d d4 ef 9a 3c
       0.05647537 -0.011104686 0.035680607 0.018913187
000030 55 31 bf bc 6c 38 24 3d e6 70 88 bd 74 7c 4b bd
       -0.023338953 0.04009287 -0.06662159 -0.049679235
000040 d3 03 8d bb 40 10 c0 3c 71 98 1a 3d 2c 43 e7 3c
       -0.0043034344 0.023445249 0.037743036 0.028230272
000050 c1 1a 5b bb 5d 4e a1 bd 17 fc 68 bd f0 0d 29 3d
       -0.0033432695 -0.07876275 -0.056881037 0.041273057
000060 aa a0 00 be cb dd 08 3d 28 e6 47 3d 26 18 3b 3c
       -0.12561288 0.033414643 0.04880348 0.011419332
000070 8b c1 d3 3c ef fa c5 bb ab 6d 0a bd b0 17 02 bd
       0.025849124 -0.0060418765 -0.033795994 -0.03176087
000080 a4 b9 35 bd 0b 72 8f bc 5d c6 82 bd 0b 9a 1a 3d
       -0.044366494 -0.017510435 -0.06385491 0.037744563
000090 4f 3c 19 bb 90 cb db bb 89 53 2e bd 73 a0 e9 bd
       -0.0023381894 -0.006707616 -0.042560134 -0.114075564
0000a0 c1 33 ad bc 0c 29 77 3d e7 c6 91 bd 03 7a 06 bd
       -0.021142842 0.06034188 -0.07118016 -0.032831203
0000b0 51 87 a5 bc 80 e0 3a 3b 8e e2 1c bb ad e4 ca 3c
       -0.020206125 0.002851516 -0.0023938748 0.024767244
0000c0 50 b5 9b bd 3f c6 71 3d 27 8e 52 bd b8 0f 7c bd
       -0.07602942 0.059026953 -0.0514051 -0.061538428
0000d0 db d9 04 3d 7b fc 1b 3d 46 d7 b1 bc 3f 3c eb ba
       0.032434326 0.03808258 -0.021709096 -0.0017947032
0000e0 35 e6 bf 3c 3e 3c db bd d3 68 47 bd 76 60 5a bd
       0.023425201 -0.1070485 -0.048683953 -0.05331465
0000f0 22 18 5d bd ed e5 ea 3b 0d a7 14 3d 51 de 9a 3d
       -0.053978093 0.0071685226 0.036292125 0.07561935
000100 ec fd da bc 68 17 e2 bd fa e7 a3 3c 9c 16 0d bd
       -0.026732408 -0.11039621 0.020008076 -0.03444539
000110 f9 2c 19 bb ce 31 bb bd 0b 76 12 bd 4b 2f 90 3c
       -0.0023372753 -0.09140359 -0.035757106 0.017600676
000120 97 fd 8d 3d f9 33 0c bb e3 d9 48 3d 85 a9 78 bd
       0.06933134 -0.0021393283 0.049035918 -0.06070854
000130 dc b6 f9 bb c8 b1 cb bd ae 1f f3 3c cb 68 08 bd
       -0.0076206755 -0.099460185 0.029678192 -0.033303063
000140 2e 0e 16 bc e2 26 22 3d 9d dc e9 3c 67 00 a2 bc
       -0.009158654 0.039587863 0.02854758 -0.019775582
000150 26 1f 8f bd 3f 32 7c bd 54 b9 15 bc d8 34 0f 3d
       -0.06988363 -0.061571356 -0.009138424 0.034962505
000160 66 53 25 bd aa 54 03 3d d7 21 82 3c 76 5b 67 3c
       -0.040362738 0.032063164 0.015885277 0.014120927
000170 1c cd b9 bc 47 ba ee bc f4 72 1e bb 6c df 03 bd
       -0.022680812 -0.029141558 -0.0024177404 -0.032195494
000180 4b 56 f2 3c c2 41 7c bd 92 45 2b 3d 23 15 6d bd
       0.029582163 -0.06158615 0.041814394 -0.057881486
000190 73 7d a3 bc cd 6d bf 3b 90 6f 38 bd 3d b7 64 3b
       -0.01995728 0.0058419467 -0.04502827 0.0034899258
0001a0 81 0b 88 bc 3a f1 f4 3c 1c cf 8c 3d 58 4c dd 3c
       -0.016607048 0.029900182 0.068754405 0.027013943
0001b0 ce d6 f2 3c d3 74 b0 bc e6 cd 96 3c e1 f7 80 3b
       0.029643442 -0.021540081 0.018408727 0.0039357995
0001c0 a6 61 cb 3c 3c 87 72 ba 9a 68 96 bc 6d 05 6b bd
       0.024826836 -0.0009251719 -0.018360425 -0.05737822
0001d0 29 33 5b bd 9b cb bc bd 10 85 7f 3d 43 82 6a bd
       -0.053515587 -0.09218522 0.062382758 -0.057253134
0001e0 d9 c3 09 bd fe fb d8 bc 4e 4d 30 3d 68 88 90 3c
       -0.03363404 -0.026487347 0.043042473 0.017643169
0001f0 19 87 8e bc dd 0b 37 bd e4 ed e8 bb 96 b6 8f 3c
       -0.017398404 -0.044689048 -0.007108437 0.017543118
000200 5d ff c6 3c 52 5e 77 3d 8c ac 58 bc 30 32 42 bc
       0.024291689 0.060392685 -0.013224732 -0.011852786
000210 6f 42 50 bd 75 84 1b 3d 90 2d 67 3c 01 2e c7 3a
       -0.050844606 0.037968118 0.014109984 0.0015196205
000220 95 7d 93 3c 01 91 81 3a 9a 2f bf bb 41 c7 da b9
       0.018004218 0.0009885133 -0.005834532 -0.00041728656
000230 37 be a5 3c 9c a3 8e 3c 6d 94 7c 3c bc 81 f5 3c
       0.020232303 0.017412 0.015416247 0.029969089
000240 29 1f d2 3c 6a bb 81 3c ae 21 20 3b 57 59 40 bd
       0.025649624 0.015836436 0.0024434137 -0.0469602
000250 4f 6b 16 3c c4 f3 6d bd ce 45 04 3d 9d 4f 3e 3d
       0.009180858 -0.0580938 0.032293133 0.046462644
000260 5d ad 09 3d 6c 8e 18 3d 3b 58 5f bd 1f b0 ba bc
       0.033612598 0.0372452 -0.054527503 -0.02278906
000270 4a 40 8c bc a7 08 48 3c 49 1a 19 3d af d9 3c bc
       -0.0171205 0.012209094 0.037378583 -0.011526509
000280 20 da 75 bd 99 af cf bd aa 8a 30 bd 31 c5 e4 3c
       -0.060022473 -0.101409145 -0.04310099 0.02792606
000290 ef 87 be 3b 54 c6 4c 3b fe 5c 7f bd b6 9d 28 bd
       0.0058145444 0.0031246142 -0.062344544 -0.04116603
0002a0 5a 83 7a 3c d2 26 ab 3c 6d 46 bd 3d c2 a0 e2 3c
       0.015290106 0.020892534 0.09241948 0.027664546
0002b0 a2 11 3f bc 20 ac ad bc 3d 3a 2a bd bb e3 e9 bc
       -0.011661919 -0.02120024 -0.041559447 -0.028550973
0002c0 ab 0b 22 3a 1a 6f 9f 3b b5 38 b1 3c b0 c1 46 bd
       0.0006181548 0.0048655393 0.021633485 -0.04852456
0002d0 2f d2 9a bc fd ed a2 bd 81 03 61 bc ef 44 27 bd
       -0.018899051 -0.07955549 -0.013733746 -0.040837225
0002e0 7d 88 3f bd 1b 37 a5 3c a0 80 8f 3d 0b 28 18 bc
       -0.046761025 0.020167878 0.07006955 -0.009286891
0002f0 5b 6e 1d 3d a5 0d 12 bc 5a a1 68 3c df 77 d6 bc
       0.03843532 -0.008914386 0.014198625 -0.026180206
000300 73 f8 91 bc 3c 29 66 3d 43 92 82 bd c7 33 ac 3d
       -0.017818665 0.056191668 -0.063755535 0.08408313
000310 2e 89 87 3c e7 78 91 3d 8d 1b 95 3b cf af 57 3c
       0.016544905 0.071031384 0.0045504034 0.013164475
000320 08 2e 76 3c 96 a2 cd bb 5b 05 9a bd 48 a4 12 bd
       0.015025623 -0.0062754853 -0.07520553 -0.035801202
000330 4a bd 88 bc d0 67 da 3c 7e 3b ad bc 92 3e f4 bb
       -0.016691823 0.02666083 -0.021146532 -0.007453748
000340 70 bd 16 3d ce c3 11 bc 18 6f 73 3c 72 ea ce 3c
       0.036801755 -0.008896781 0.01485803 0.025258277
000350 a1 ec 44 3d dd 17 35 3e b2 d3 dc bb 04 95 ed bb
       0.04807723 0.17684884 -0.0067391032 -0.00725043
000360 f2 74 a4 3d 5a 3d 30 bd dd 0d 96 bc bc a3 9c bb
       0.08030118 -0.04302726 -0.018317157 -0.004780261
000370 8c 4c 66 3c 1b 12 6a bb dc 45 89 3c 79 21 48 ba
       0.014056336 -0.0035716358 0.016756944 -0.00076343823
000380 72 90 61 bc 50 f5 54 bd a1 b6 80 3b cf 37 a6 bb
       -0.013767349 -0.05199176 0.003928021 -0.005072571
000390 be 76 8b 3b 13 9c 20 bd 4e 6b 03 bc 95 7f 44 bd
       0.0042560985 -0.039211344 -0.008021189 -0.047973234
0003a0 af 31 55 3d 1a 32 00 bd b1 fb dd bb 9c 8b 15 3d
       0.052049335 -0.03129778 -0.0067743887 0.036510095
0003b0 7f 8a a1 bb 00 b1 b6 3c d7 b6 b2 bb 14 44 0c bc
       -0.00492984 0.022301197 -0.005453925 -0.008561153
0003c0 40 63 24 bd 94 70 8a bc 20 d8 19 3c f2 d7 2b bc
       -0.040133715 -0.016899385 0.009389907 -0.010488497
0003d0 ab d7 44 bd bf cf 93 bc c1 1b 18 bd 71 cf 0d 3c
       -0.04805724 -0.018043397 -0.037135843 0.008655415
0003e0 53 ee 03 bd 7e c3 12 bd e4 03 2b 3c 4d b1 6e bc
       -0.032209706 -0.035830967 0.010437939 -0.014568639
0003f0 31 54 04 3d 57 85 04 bc 7f c4 1c bb 2d 80 9e 3b
       0.032306854 -0.008088431 -0.0023920832 0.004837057

convs.2.bias f4 [32]
000000 89 a9 8e ba f0 f3 9a bc cb 10 bd 3c 91 a9 35 bd
       -0.0010884266 -0.018915147 0.023079297 -0.044351164
000010 26 37 6b bb 9d ca 08 bd b6 99 72 bc e3 e5 0c bd
       -0.0035891025 -0.033396352 -0.014807155 -0.034398925
000020 ec fa 8f 38 7c d4 75 bc f7 3c 26 3d 8b a8 10 3d
       6.865509e-05 -0.0150042735 0.040585484 0.035316985
000030 3c c9 21 bb 25 74 92 3c 25 d1 8c 3c a4 48 3c 3b
       -0.0024686595 0.017877648 0.017189572 0.002872982
000040 5c 52 ab bc c5 62 af 3c d2 f2 93 3b 0c d9 85 bc
       -0.020913295 0.021409402 0.0045150304 -0.016338848
000050 6d 40 0a bd e9 af b2 bd 25 89 c4 bb cc 59 8c 3a
       -0.033752847 -0.087249584 -0.005997794 0.0010707914
000060 56 40 0f bd ff be 12 3c e6 d1 91 3b bb b9 cb 3c
       -0.034973465 0.00895667 0.0044500707 0.024868837
000070 94 00 3d bc c1 72 1a 3c 0a c0 4a ba dd fb 51 3c
       -0.011535782 0.0094267735 -0.00077343045 0.012816397
