results/flixster_testmode/model_checkpoint16.pth (torch_old, 199981 bytes, 19 tensors)

convs.0.basis f4 [4, 4, 32]
0	0x3dd3d87c	0.103440255
1	0xbd3345a8	-0.0437676
2	0x3da37243	0.07980778
3	0x3d91be2e	0.07116352
4	0xbd275243	-0.040849935
5	0x3e5dc695	0.21657784
6	0xbdca5fda	-0.098815635
7	0xbe09118a	-0.13385597
8	0x3dd920a8	0.10601932
9	0xbe28aada	-0.16471425
10	0x3e0f54cf	0.13997196
11	0xbe1424b2	-0.14467123
12	0xbe571693	-0.21004705
13	0x3df9d780	0.121993065
14	0x3e09eb8e	0.13468763
15	0xbdc8de22	-0.098079935
16	0xbd1ee9e5	-0.038797278
17	0xbdbda65a	-0.09260245
18	0xbe58cf12	-0.21172741
19	0x3c258775	0.010103096
20	0x3d06aa68	0.032877356
21	0x3e2bfbc8	0.16795266
22	0x3d53d190	0.051713526
23	0xbdc8162b	-0.09769853
24	0x3d6bad79	0.057538483
25	0xbe150a3d	-0.14554687
26	0x3d9c428e	0.07629882
27	0x3d25d8c9	0.040489946
28	0x3e114055	0.14184697
29	0x3e900893	0.28131542
30	0xbe7ce95a	-0.24698392
31	0x3c23743f	0.009976446
32	0xbe28023b	-0.16407101
33	0xbdfa9293	-0.12234988
34	0xbde3852b	-0.11109384
35	0xbd0254d3	-0.031819176
36	0xbcca6322	-0.024705473
37	0x3e8681b1	0.26270822
38	0xbdc03425	-0.09384946
39	0xbdac8f89	-0.08425815
40	0xbe640a3f	-0.22269534
41	0xbdee3942	-0.11632015
42	0x3df9eb1e	0.12203048
43	0xbe59feba	-0.21288577
44	0xbd95779f	-0.072982065
45	0x3c862543	0.01637519
46	0x3ae38879	0.0017359398
47	0xbdfd6158	-0.123720825
48	0xbe00f9a2	-0.12595227
49	0xbe5caa7f	-0.21549414
50	0x3df24ac4	0.11830667
51	0xbe04fc06	-0.12986764
52	0xbe45611d	-0.19275327
53	0x3dff53f3	0.12467184
54	0xbdb7b3e0	-0.08969855
55	0xbd8f7a8f	-0.07005798
56	0x3d3b8bb9	0.045787547
57	0xbd70dfc3	-0.058807146
58	0x3bfd184e	0.0077238446
59	0x3d1329dc	0.035928592
60	0x3e002916	0.12515673
61	0x3e01ba2a	0.12668672
62	0xbe4731a2	-0.19452527
63	0x3ccaff3f	0.024779914
64	0xbda57349	-0.080786295
65	0xbdefaab0	-0.11702478
66	0x3e0ca6d5	0.13735516
67	0x3e12d8d4	0.14340526
68	0xbbb2d5a3	-0.0054575964
69	0xbe06b8e6	-0.1315647
70	0x3dc72270	0.09723365
71	0xbe6e38a6	-0.23263797
72	0xbe912d28	-0.28354764
73	0xbd8cf2f9	-0.06882281
74	0xbd8b9e0c	-0.068172544
75	0x3d9046c3	0.07044747
76	0x3e69e1a4	0.22839981
77	0x3d48a40d	0.048984576
78	0x3d2b6382	0.041842945
79	0xbe4186d9	-0.18899097
80	0x3d5a16eb	0.053244513
81	0xbd8b2e5d	-0.067959525
82	0x3df9de82	0.12200643
83	0x3e2581cc	0.16162795
84	0x3d858d4b	0.0652109
85	0x3dca1dba	0.09868951
86	0xbf12ac57	-0.5729422
87	0xbed31b4d	-0.41231766
88	0xbea72e54	-0.32652533
89	0xbbd875d9	-0.0066058454
90	0xbe0b3c3b	-0.13597195
91	0xbc418571	-0.0118116
92	0xbdf20a8e	-0.118184194
93	0x3d57cfbb	0.05268834
94	0x3c8f8028	0.017517164
95	0x3da6f957	0.081530266
96	0x3e16fd07	0.1474496
97	0xbc976f3c	-0.018485658
98	0xbb3f5b79	-0.002919881
99	0xbde3eb13	-0.11128821
100	0xbe47f56c	-0.19527215
101	0xbe8d863a	-0.2764147
102	0xbd6472cd	-0.055773545
103	0xbc820ab3	-0.015874242
104	0x3eb7bee9	0.3588784
105	0x3ee61800	0.44940186
106	0x3eee2108	0.46509576
107	0x3e18268c	0.14858454
108	0x3dbc8ed8	0.09206933
109	0x3d5a2d59	0.053265903
110	0xbdab72fe	-0.083715424
111	0xbd253273	-0.040331315
112	0xbea14b79	-0.31502894
113	0xbe2363ad	-0.15955992
114	0xbddfac2e	-0.109215125
115	0xbc23a0bd	-0.009987053
116	0xbc516ee3	-0.012782785
117	0xbed8ea90	-0.42366457
118	0xbe075aa5	-0.13218172
119	0x3d949fb2	0.07257022
120	0xbdd2667c	-0.102734536
121	0x3e1ee212	0.15515926
122	0xbe3554c2	-0.17708114
123	0xbe2d2a04	-0.16910559
124	0x3c092316	0.008370182
125	0x3e2da322	0.16956761
126	0x3e10bd67	0.14134751
127	0x3d61a90d	0.05509286
128	0x3cccc2cb	0.024995228
129	0xbd1a2f3e	-0.03764271
130	0x3d4c763c	0.049917445
131	0x3de05711	0.109541066
132	0xbd88cd36	-0.06679766
133	0x3e2e8015	0.17041047
134	0xbc7cc575	-0.015427937
135	0xbda9c1f0	-0.08288944
136	0xbc8ccae9	-0.017186599
137	0xbded5f07	-0.11590391
138	0x3d7f90b7	0.06239387
139	0xbd258913	-0.040413927
140	0xbe13a8b9	-0.14419831
141	0x3d9290f4	0.07156554
142	0x3e073941	0.13205434
143	0xbe34c75e	-0.17654178
144	0xbd4d3ce4	-0.050106898
145	0xbdb7bd73	-0.089716814
146	0xbdc86663	-0.09785154
147	0xbce44a86	-0.027867567
148	0x3b9e1882	0.004824699
149	0x3e1a92a1	0.15094997
150	0x3de31adb	0.11089107
151	0xbe06500a	-0.1311647
152	0x3d45fa2e	0.048334293
153	0xbddd0283	-0.10791495
154	0x3d82752c	0.06370005
155	0x3bfa7ac3	0.007644029
156	0x3d2c014e	0.04199343
157	0x3e5528ac	0.20816296
158	0xbe3f6224	-0.18689781
159	0xbbb559ee	-0.005534402
160	0xbdeb4306	-0.11487393
161	0xbd549e58	-0.05190882
162	0xbe180605	-0.14846046
163	0x3d8de98d	0.06929312
164	0xbd1338e2	-0.03594292
165	0x3e5caa78	0.21549404
166	0xbdd27125	-0.10275487
167	0xbac04d9e	-0.0014671569
168	0xbdd19890	-0.10234177
169	0xbdd94c18	-0.10610217
170	0x3defb779	0.117049165
171	0xbe61fdf3	-0.2206953
172	0xbdad0a04	-0.08449176
173	0x3b3efa63	0.0029140941
174	0x3dd24744	0.10267499
175	0xbd723ec4	-0.05914189
176	0xbe075d96	-0.13219294
177	0xbe2d6806	-0.16934213
178	0x3cb15f40	0.021651864
179	0xbd59a44a	-0.053135194
180	0xbe3447c0	-0.17605495
181	0x3dee6d73	0.116419695
182	0x3bb730b4	0.0055905227
183	0xbcd0790e	-0.025448348
184	0x3dbd7b8f	0.092520826
185	0xbd8c2228	-0.06842452
186	0x3d09b1e1	0.033616904
187	0x3cefaf35	0.02925835
188	0x3def072c	0.1167129
189	0x3e44864e	0.19191858
190	0xbe306cba	-0.17228976
191	0x3d8a125b	0.06741782
192	0xbd1469cc	-0.03623371
193	0xbbca69cf	-0.006177164
194	0xbdb90c5e	-0.09035562
195	0x3d396011	0.04525763
196	0x3d94632e	0.072454795
197	0x3e0a32e4	0.13495976
198	0x3cf5a99d	0.029988104
199	0xbe2721e7	-0.16321526
200	0xbef72250	-0.48268366
201	0x3cea8ac0	0.028630614
202	0xbe2c3496	-0.16816935
203	0xbdab891f	-0.08375763
204	0x3e729f3d	0.23693557
205	0xbc3d122e	-0.011539979
206	0xbe458e2b	-0.19292514
207	0xbe859148	-0.26087403
208	0x3e4af6af	0.19820665
209	0xbd7a7fc2	-0.061156996
210	0x3e0ec94b	0.13943975
211	0x3e2af27e	0.16694066
212	0xbe0a939e	-0.13532874
213	0xbd90db3b	-0.07073065
214	0xbf0722df	-0.52787584
215	0xbec3568b	-0.38151965
216	0xbe8b4cd6	-0.2720706
217	0x3d01bcec	0.03167431
218	0x3d86c6a8	0.065808594
219	0xbd8ee4d0	-0.06977236
220	0xbd146408	-0.03622821
221	0xbd3a74af	-0.045521434
222	0xbce1b8cd	-0.02755394
223	0x3ae43636	0.0017411176
224	0x3bafb533	0.005362177
225	0x3e345751	0.17611434
226	0x3b50cf92	0.0031862003
227	0x3c23d09d	0.009998468
228	0x3e13c2d8	0.14429796
229	0xbe355ea8	-0.1771189
230	0x3d0730b4	0.03300543
231	0xbe5668d8	-0.20938432
232	0x3e6bd190	0.2302916
233	0x3eb4b21d	0.3529214
234	0x3ebabea5	0.36473575
235	0xbee5c869	-0.44879463
236	0xbe0ea7cb	-0.13931195
237	0xbd5a5e75	-0.053312737
238	0xbdec1483	-0.1152735
239	0x3d3468ae	0.044045143
240	0xbe5e4b01	-0.21708299
241	0xbe312803	-0.1730042
242	0xbe35b8f6	-0.17746338
243	0xbd90aec8	-0.07064587
244	0x3cdadadc	0.026715688
245	0xbebe66a9	-0.37187698
246	0x3e5dfc11	0.21678187
247	0x3d8feb1c	0.070272654
248	0x3db683e9	0.089118786
249	0x3dfa7f1a	0.12231274
250	0x3e110709	0.1416284
251	0xbcb18cb9	-0.021673547
252	0xba29a193	-0.0006470915
253	0x3e000b7f	0.12504385
254	0xbe0353aa	-0.12824884
255	0xbe13f5c4	-0.14449221

convs.0.att f4 [10, 4]
0	0xbdbc3a6f	-0.09190833
1	0xbe2dd1c5	-0.16974552
2	0x3e79462c	0.24343175
3	0x3dda9ae9	0.10674078
4	0xbe0bef6b	-0.1366555
5	0xbd7c6538	-0.061619967
6	0x3e7df3d8	0.2480005
7	0x3d977423	0.07395198
8	0xbe3cd5ee	-0.18440983
9	0x3e0de086	0.1385518
10	0x3e8afc01	0.2714539
11	0x3d847ada	0.064687446
12	0xbe3d86f6	-0.18508515
13	0x3e3d46b4	0.18484002
14	0x3e883045	0.26599327
15	0x3d07a029	0.033111725
16	0x3c1bf8eb	0.009519796
17	0x3c95b609	0.018275278
18	0x3e7fa415	0.24964936
19	0x3e0913e3	0.13386492
20	0xbd7dd77d	-0.061973084
21	0x3e74f8f4	0.23923093
22	0x3e952e0d	0.29136696
23	0x3e1b3761	0.15157844
24	0x3c856138	0.01628171
25	0x3e71e825	0.23623712
26	0x3e3daf22	0.18523839
27	0x3dda131f	0.10648178
28	0x3dae574c	0.08512744
29	0x3e6b87ba	0.23000994
30	0x3e2d8b04	0.16947562
31	0x3de34640	0.110973835
32	0x3e2a6901	0.16641618
33	0x3e3fa521	0.18715335
34	0x3ddcffe6	0.10790996
35	0x3baae88d	0.0052157105
36	0x3ead5b26	0.33858603
37	0x3e1c34ca	0.15254512
38	0x3d4570d3	0.0482033
39	0xbdec9083	-0.11551001

convs.0.root f4 [4, 32]
0	0xbd98b18b	-0.07455739
1	0x3c814d5c	0.015783958
2	0x3d274957	0.040841427
3	0x3e1cd5dc	0.15315956
4	0x3e227517	0.15864979
5	0xbb7d3c7a	-0.0038640783
6	0xbdf7383a	-0.12071271
7	0xbe8ddf6e	-0.27709526
8	0x3e67f8a5	0.22653444
9	0x3eccce98	0.4000137
10	0x3eb38161	0.35059646
11	0xbd89aa2b	-0.0672191
12	0x3db41b43	0.08794262
13	0x3e1b34ec	0.15156907
14	0xbdeb7e1c	-0.11498663
15	0xbda65e67	-0.081234746
16	0xbe49ad3b	-0.19694988
17	0x3e499152	0.19684342
18	0x3d612546	0.054967187
19	0xbe68334d	-0.2267582
20	0x3dcf4fec	0.10122666
21	0xbe069606	-0.13143167
22	0x3db68039	0.08911175
23	0x3e714627	0.23561917
24	0xbcbb6eff	-0.022880075
25	0x3e61f068	0.22064364
26	0xbcfda96b	-0.030964574
27	0xbe92f35b	-0.2870129
28	0x3ddeb046	0.10873465
29	0xbe739470	-0.23787093
30	0x3d742d86	0.059613727
31	0xbe439143	-0.19098382
32	0x3e1de378	0.15418804
33	0x3e67a0ab	0.22619884
34	0xbe689ca3	-0.22716002
35	0x3e08b52b	0.1335036
36	0xbe189ce6	-0.14903602
37	0xbe404596	-0.18776545
38	0xbd96617e	-0.07342814
39	0xbe8287f8	-0.2549436
40	0x3cbfe1f8	0.02342318
41	0xbe7276ee	-0.2367818
42	0x3e2b0b91	0.16703631
43	0x3e3fe464	0.18739468
44	0x3ea46372	0.3210712
45	0x3e660d72	0.22466066
46	0xbe1ba596	-0.15199885
47	0x3e94e9e3	0.2908469
48	0x3c61a0d6	0.013771256
49	0x3dca1b3b	0.09868475
50	0x3daf2dd7	0.08553665
51	0xbdd0f214	-0.10202423
52	0xbd07efe3	-0.03318776
53	0xbe73b57b	-0.23799698
54	0xbe60561f	-0.21907853
55	0xbec2dcc0	-0.38059044
56	0xbe863bfd	-0.26217642
57	0xbd726d82	-0.059186466
58	0x3e5dc371	0.21656586
59	0x3dcff980	0.1015501
60	0x3e03b098	0.12860334
61	0xbdae2031	-0.08502234
62	0x3e86ce67	0.26329347
63	0x3e8d1364	0.27553856
64	0xbc6ad8ad	-0.014333886
65	0x3e0b1a02	0.1358414
66	0x3d7c44d4	0.061589077
67	0xbd7804c1	-0.06055141
68	0xbe211d41	-0.15733816
69	0xbe35d464	-0.17756802
70	0xbe05df82	-0.13073543
71	0xbdbaf064	-0.09127882
72	0xbdb73ef6	-0.08947556
73	0xbce77d12	-0.02825788
74	0xbe6d2b7c	-0.23161119
75	0x3915f791	0.00014301973
76	0x3cc98153	0.0245978
77	0x3e5117ee	0.20419285
78	0xbc8709a6	-0.016484093
79	0xbd41e612	-0.047338553
80	0xbe05b7c1	-0.13058378
81	0xbdcb75a7	-0.0993455
82	0xbe1d27b6	-0.1534718
83	0x3e36cdbf	0.17851923
84	0xbcaccb3b	-0.021093002
85	0x3e0849fe	0.13309476
86	0xbe085531	-0.13313748
87	0x3da4895e	0.08034013
88	0x3d51d95e	0.051232688
89	0x3da77a62	0.081776395
90	0x3da0b41f	0.07846855
91	0xbd189a6c	-0.037256643
92	0xbe008a22	-0.12552693
93	0xbe0548a7	-0.13015996
94	0x3d61638a	0.05502657
95	0x3c940921	0.01807076
96	0xbdd318bd	-0.10307453
97	0xbd57f431	-0.052723113
98	0xbd39f71b	-0.045401674
99	0x3e691fb9	0.22766007
100	0x3cae5742	0.021281842
101	0xbd5cc269	-0.05389634
102	0xbca3d9b0	-0.020001262
103	0xbe25258c	-0.16127604
104	0xbe25f75e	-0.16207644
105	0x3e15815d	0.1460013
106	0xbda33071	-0.07968224
107	0xbe31ca2a	-0.17362276
108	0x3e1305d3	0.1435769
109	0x3de253a4	0.110511094
110	0x3d19867b	0.037481766
111	0x3d094dd8	0.033521503
112	0x3d23e2db	0.040011268
113	0xbe2e44d9	-0.17018451
114	0xbd5320f2	-0.05154509
115	0x3e1a6392	0.15077046
116	0xbdd9b33a	-0.10629888
117	0x3dcce6da	0.10004969
118	0xbe421a09	-0.18955244
119	0xbe154ff2	-0.14581278
120	0xbd18704c	-0.03721647
121	0x3de8c846	0.11366324
122	0xbd1e0847	-0.038582113
123	0xbc809622	-0.015696589
124	0xbe53f6d8	-0.20699632
125	0xbdba60a4	-0.09100464
126	0xbdc0937f	-0.09403133
127	0xbe05373c	-0.13009351

convs.0.bias f4 [32]
0	0x3e0f690e	0.14004919
1	0x3b34f7f1	0.0027613605
2	0x3e0b5255	0.13605626
3	0xbe80148c	-0.25015676
4	0x3e0e3562	0.13887551
5	0xbcc19899	-0.023632335
6	0x3defcaec	0.11708626
7	0x3df52e8e	0.1197177
8	0x3e38dae3	0.18052249
9	0xbca355a8	-0.019938305
10	0x3d18d442	0.0373118
11	0x3e6037c9	0.2189628
12	0xbd6b5746	-0.057456277
13	0xbe37ae17	-0.17937504
14	0xbe6886ee	-0.22707722
15	0x3d83ccc1	0.06435538
16	0x3df23ba0	0.11827779
17	0x3e6178a4	0.22018677
18	0x3e4c4fd9	0.19952334
19	0xbdceb140	-0.100924015
20	0x3dcaca99	0.09901924
21	0xbe944dac	-0.2896551
22	0x3e2302bb	0.1591901
23	0x3c5b4510	0.013383165
24	0x3b062ac6	0.0020472272
25	0xbd8c4ffd	-0.06851194
26	0xbdf28523	-0.118418
27	0x3cc36234	0.023850538
28	0x3dd76051	0.10516418
29	0xbe25199f	-0.16123055
30	0x3e4fef42	0.20306113
31	0xbc2a7586	-0.010403996

convs.1.basis f4 [4, 32, 32]
0	0xbe096da4	-0.13420731
1	0xbcb5bb30	-0.022183985
2	0x3cfcf844	0.030880101
3	0xbd5fc518	-0.054631323
4	0x3d2e26d9	0.042517517
5	0xbc95242e	-0.018205728
6	0xbc9dd685	-0.01926733
7	0x3e02126f	0.12702344
8	0x3c80eb1d	0.01573711
9	0x3c267c14	0.0101614185
10	0x3c25caa3	0.010119113
11	0xbcd188db	-0.025577953
12	0xbcf4f5ce	-0.029902365
13	0x3d9cc022	0.07653834
14	0x3dc563d9	0.09638185
15	0xbd1122de	-0.035433643
16	0xbd358199	-0.044313047
17	0x3d0fe74c	0.03513269
18	0xbbb72e16	-0.0055902107
19	0xbd2cc3c1	-0.042178873
20	0x3c076572	0.008263933
21	0xbd12886f	-0.035774644
22	0x3d8fcb7e	0.07021235
23	0x3c2ca8ea	0.010538319
24	0x3c3874b6	0.011258295
25	0x3d088cec	0.03333752
26	0xba0d5e85	-0.00053928077
27	0x3d94f5c9	0.07273442
28	0xbcd4bff5	-0.025970438
29	0x3d04fbde	0.03246676
30	0xbb93da82	-0.004512132
31	0xbd4f2574	-0.050572827
32	0xbd41b282	-0.04728938
33	0x3c278bb9	0.010226184
34	0xbd3732cb	-0.044726174
35	0x3af75cd6	0.0018872272
36	0xbd7594d2	-0.05995638
37	0x3c60c33a	0.013718421
38	0xbd9d5f0f	-0.076841466
39	0x3c8dbe93	0.017302787
40	0xbcdc609d	-0.026901538
41	0xbd375e61	-0.04476774
42	0x3d86feb4	0.065915495
43	0xbc8b317b	-0.016991368
44	0x3bec8174	0.0072175805
45	0x3d2b593a	0.04183314
46	0xbda2ccd3	-0.07949223
47	0x3ded1738	0.11576694
48	0x3b302337	0.0026876458
49	0x3bbc5944	0.005747946
50	0xbc0d0fb0	-0.008609697
51	0x3d2ba037	0.04190084
52	0x3d00104d	0.031265546
53	0xbdbc28d6	-0.09187476
54	0xbce18009	-0.027526872
55	0x3d0de05a	0.034637786
56	0x3d040d12	0.032239027
57	0xbcabb195	-0.020958701
58	0xbc543e0a	-0.012954244
59	0xbd92868e	-0.071545705
60	0x3c8df0b1	0.017326685
61	0xbd56559b	-0.052327733
62	0x3c7d1fa6	0.01544944
63	0x3d2dd853	0.04244263
64	0x3e081cb3	0.13292198
65	0x3d4eb9d2	0.05047018
66	0x3d1feb09	0.039042506
67	0xbd9a2f5d	-0.07528565
68	0x3b52c141	0.0032158645
69	0xbb279594	-0.0025571333
70	0x3e018bee	0.12651035
71	0xbe35b308	-0.17744076
72	0xbcce5b23	-0.025189942
73	0xbccaf5cd	-0.02477541
74	0x3c38f703	0.011289361
75	0x3d297d4b	0.041379254
76	0xbd83e580	-0.06440258
77	0xbd31b7d0	-0.043388188
78	0x3d4df1e1	0.0502795
79	0xbe359c3c	-0.1773538
80	0xbc656312	-0.014000671
81	0xbd90495f	-0.070452444
82	0x3cd660a0	0.026169121
83	0xbd24518d	-0.040116835
84	0x3c39c387	0.011338121
85	0x3d8a7a20	0.06761575
86	0xbbce7a9a	-0.0063012363
87	0x3cfe9253	0.031075632
88	0xbdd918c7	-0.10600429
89	0xbd598fa4	-0.053115502
90	0x3d395839	0.04525015
91	0x3da1ac8f	0.07894241
92	0xbbab4a21	-0.0052273427
93	0x3c485111	0.012226359
94	0xbcdce4ae	-0.026964512
95	0xbdb35265	-0.0875595
96	0xbc1ce821	-0.009576828
97	0xbd4823c1	-0.048862223
98	0x3d989c2f	0.07451665
99	0x3d97d823	0.07414272
100	0x3d16ce79	0.036818
101	0xbd0bc818	-0.03412637
102	0xbcb3721c	-0.021904998
103	0xbc0c8767	-0.008577204
104	0x3ab3c73f	0.0013715996
105	0x3cb9f81c	0.022701316
106	0x3d517836	0.051140033
107	0xbd68f2f1	-0.056872312
108	0x3ccdb3f9	0.025110232
109	0xbbbadc6c	-0.005702546
110	0xbd30a3e3	-0.043125045
111	0x3d682c60	0.056682944
112	0x3ad79822	0.0016448537
113	0xbcf6ba7e	-0.030118223
114	0x3d56702e	0.052353077
115	0x3bba393e	0.0056830933
116	0xbd074f2e	-0.033034496
117	0x3dcf641c	0.10126516
118	0xbd3c89cf	-0.046029862
119	0x3cbc96f2	0.023021195
120	0x3c28e2f0	0.010308012
121	0xbce99209	-0.028512018
122	0xbcc6f019	-0.02428441
123	0xbccb9407	-0.024850858
124	0x3d2f5b6c	0.042811796
125	0xbcfebceb	-0.031095942
126	0xbcdbed7d	-0.026846642
127	0x3c500b22	0.012697967
128	0x3e11ffa7	0.1425768
129	0xbaecac36	-0.0018056694
130	0x3d740639	0.059576247
131	0x3cbf89b8	0.0233811
132	0x3d93c580	0.072154045
133	0xbc6dd957	-0.01451715
134	0x3dab7bd9	0.083732314
135	0xbd75f926	-0.06005206
136	0x3d19f47c	0.037586674
137	0x3ca44a4f	0.020054964
138	0x3d534358	0.051577896
139	0xbd83d210	-0.064365506
140	0x3d60cb46	0.054881357
141	0x3a7215f9	0.00092348416
142	0x3db1839f	0.08667683
143	0xbd796fa7	-0.060897496
144	0xbbc6844d	-0.006058252
145	0x3c36520b	0.011127959
146	0xbd915c8f	-0.07097732
147	0x3d1e61e0	0.03866756
148	0x3d09f238	0.033678263
149	0x3c5efe2d	0.013610405
150	0x3dc00373	0.09375658
151	0xbcd987e4	-0.026554056
152	0xbc9c24dd	-0.019060547
153	0xbca4ed5a	-0.02013271
154	0xbd90a814	-0.07063308
155	0x3df0c84d	0.11756954
156	0xbdb56c39	-0.088585325
157	0x3dbd419d	0.0924103
158	0xbd39651e	-0.04526245
159	0xbcfc2515	-0.0307794
160	0x3ca275fc	0.01983165
161	0xbd88b80e	-0.06675731
162	0x3c4750f1	0.012165294
163	0xbbd65cc8	-0.006541822
164	0x3d5e8d9d	0.05433427
165	0xbd530c8e	-0.051525645
166	0x3d79b9d6	0.060968243
167	0xbcac8519	-0.02105956
168	0x3d5bed19	0.05369291
169	0xbcfbc0ff	-0.030731676
170	0x3c882187	0.01661755
171	0xbc6e62af	-0.014549895
172	0xbc18e6b8	-0.009332351
173	0x3bd5f3dc	0.0065293144
174	0xbdb81806	-0.08988957
175	0x3dedc5ed	0.11610017
176	0x3d2486f2	0.040167756
177	0xbd167a48	-0.03673771
178	0x3cfcf4c7	0.030878438
179	0xbc22aff9	-0.00992965
180	0x3c849803	0.016185766
181	0x3d99a08f	0.07501327
182	0xbdbb0356	-0.09131496
183	0x3d39b714	0.045340613
184	0x3d7d306a	0.06181375
185	0x3d5eb524	0.054371968
186	0xbcc41e05	-0.023940096
187	0x3b8bae62	0.0042627314
188	0x3e01b6f9	0.12667455
189	0xbd1ed74b	-0.038779538
190	0xbcb0cb58	-0.021581337
191	0x3ceebafc	0.029141895
192	0xbce04953	-0.027378714
193	0xbd1b0668	-0.037847906
194	0xbd6bee48	-0.05760029
195	0xbd2fdcff	-0.042935368
196	0x3d5825e3	0.052770507
197	0x3d860e04	0.06545642
198	0x3d60f23f	0.054918524
199	0xbd251dd0	-0.040311635
200	0x3838fb70	4.4103188e-05
201	0xbbc6eef6	-0.006070967
202	0x3c36c129	0.011154451
203	0xbd17295c	-0.036904678
204	0x3c16bd97	0.009200475
205	0xbc1b9b64	-0.009497497
206	0x3d797eb6	0.060911857
207	0xbdeefe78	-0.1166963
208	0xbda226a3	-0.079175256
209	0x3d80a11b	0.062807284
210	0x3d036956	0.032082878
211	0x3cf358b3	0.029705381
212	0x3cec8ee5	0.028876731
213	0x3d5ec01c	0.05438243
214	0x3dccb74b	0.09995898
215	0x3d0a4a5a	0.033762313
216	0xbcf04222	-0.02932841
217	0xbd8d6b2b	-0.06905206
218	0xbd4ccffd	-0.05000304
219	0x3ddd8b0f	0.10817539
220	0xbdf77320	-0.12082505
221	0xbc66dc3f	-0.014090597
222	0x3c00b355	0.007855256
223	0x3c67ab36	0.014139941
224	0xbe8532e1	-0.2601538
225	0x3a2808b8	0.00064099906
226	0xba12e287	-0.0005603213
227	0xbd0f6faf	-0.03501862
228	0xbdbf0f7f	-0.093291275
229	0xbd83809b	-0.06421014
230	0xbe1d458f	-0.15358566
231	0x3e483872	0.19552782
232	0x3cebbaf5	0.028775671
233	0x3ba2c765	0.0049676173
234	0x3cd61caa	0.026136715
235	0xbd9dbb6d	-0.07701764
236	0xbc1ba9f3	-0.009500968
237	0xbcf5843f	-0.029970286
238	0x3d9674fa	0.0734653
239	0x3e267dda	0.16258946
240	0x3c978b63	0.018499082
241	0x3d157e76	0.036497556
242	0xbd67882d	-0.05652635
243	0x3cf4e042	0.02989209
244	0x3cec914b	0.028877875
245	0xbe89b0fe	-0.26892847
246	0x3ce2270e	0.027606513
247	0xba93bd4e	-0.0011271627
248	0xbd2463c9	-0.040134225
249	0x3b980bde	0.0046400866
250	0x3dab5a93	0.08366885
251	0xbddf6fca	-0.10909994
252	0x3d47f229	0.048814926
253	0x3c4243dc	0.011856999
254	0xbc92e515	-0.0179315
255	0x3d3832eb	0.044970434

convs.1.att f4 [10, 4]
0	0x3cac845e	0.021059211
1	0x3e38193a	0.17978373
2	0xbe761096	-0.24029765
3	0xbd3d164d	-0.046163846
4	0x3ddf311b	0.10898038
5	0x3e099076	0.13434014
6	0xbe70b687	-0.23507129
7	0xbc721a2d	-0.014776749
8	0x3dfa9f7a	0.12237449
9	0x3d56d465	0.05244865
10	0xbe656b55	-0.22404225
11	0xbd2b41a4	-0.041810647
12	0x3dc2cd3e	0.09511803
13	0xbc429aa4	-0.0118776895
14	0xbe24f202	-0.16107944
15	0xbdb38202	-0.087650314
16	0x3db5477e	0.08851527
17	0xbd412e92	-0.047163554
18	0xbdf8c8c4	-0.12147668
19	0xbd985a0e	-0.074390516
20	0x3c9450f9	0.018105017
21	0xbd84c5c5	-0.06483034
22	0xbdcca01e	-0.099914774
23	0xbd91a355	-0.07111231
24	0x3c8d1a2c	0.017224394
25	0xbdebb2fb	-0.11508747
26	0xbd822ca3	-0.0635617
27	0x3d579d3c	0.052640185
28	0x3d0a7b2e	0.03380888
29	0xbe0ee720	-0.13955355
30	0x3cd668c5	0.026173005
31	0x3da18a60	0.07887721
32	0xbd56e5ed	-0.052465368
33	0xbe0f63d4	-0.14002925
34	0x3d02946d	0.03187983
35	0x3dbf2bbb	0.09334513
36	0xbe17a79b	-0.1481003
37	0xbe1739af	-0.14768098
38	0x3daf99ba	0.08574243
39	0x3d4e1f7a	0.050322987

convs.1.root f4 [32, 32]
0	0xbd889bfa	-0.06670375
1	0x3d95a9a6	0.073077485
2	0x3bb2e74a	0.0054597007
3	0x3ce41d71	0.02784607
4	0x3c9e10ff	0.019295214
5	0xbd183964	-0.037164107
6	0xbe6897ed	-0.22714205
7	0x3dc15370	0.094397426
8	0x3ada79a2	0.001666833
9	0xbcc4d10a	-0.024025459
10	0x3d75c9ff	0.06000709
11	0xbc3b271b	-0.011422898
12	0xbdcd6e2d	-0.1003078
13	0xbd3488f0	-0.044075906
14	0x3afe4025	0.0019397779
15	0x3d4491f9	0.047990773
16	0x3c7328ff	0.014841317
17	0xbcbcad05	-0.02303172
18	0xbdb0b13b	-0.08627554
19	0xbbe757ca	-0.007060026
20	0xbca5d92e	-0.02024516
21	0x3d063ccf	0.032772835
22	0x3d44ed46	0.048077844
23	0x3d13de31	0.03610057
24	0xbd511eef	-0.05105489
25	0xbd338e6a	-0.04383699
26	0xbcabe55c	-0.02098339
27	0x3de87710	0.11350834
28	0xbd73f7d1	-0.059562508
29	0xbdea8031	-0.11450232
30	0xbc6d429f	-0.014481216
31	0x3d5e5af9	0.054285977
32	0xbc57e02b	-0.013176004
33	0x3c0feda0	0.008784682
34	0x3db3695b	0.08760329
35	0xbd3c9f1b	-0.046050172
36	0x3d5237e0	0.051322818
37	0x3c1ada43	0.009451452
38	0x3db5236b	0.08844646
39	0x3d627c8b	0.055294555
40	0x3d2580e7	0.040406134
41	0xbd6a2be3	-0.05717076
42	0x3d368c76	0.044567548
43	0x3d0b4e20	0.034010053
44	0xbd3eb0be	-0.046555273
45	0xbdb80137	-0.08984607
46	0x3bf23d10	0.007392533
47	0xbd4565c5	-0.048192758
48	0xbcd4d474	-0.025980212
49	0xbd2ac6cf	-0.041693505
50	0x3d81d8c8	0.06340176
51	0x3c41922e	0.011814637
52	0xbca06bd1	-0.01958266
53	0x3d8b3405	0.06797031
54	0x3c9effc7	0.019409074
55	0xbdc6929f	-0.096959345
56	0x3da1a2c2	0.07892372
57	0xbc37e50f	-0.011224045
58	0x3d5410ba	0.051773764
59	0xbdde088b	-0.10841473
60	0xbcd3cfe4	-0.025855966
61	0xbda0a61e	-0.07844184
62	0xbd1daa64	-0.038492575
63	0x3d2d368c	0.042288348
64	0xbbd88e33	-0.0066087483
65	0xbd2fa443	-0.04288126
66	0x3da245bc	0.07923457
67	0x3cf09a81	0.029370548
68	0xbd0043b4	-0.031314567
69	0xbdc67d4d	-0.09691868
70	0x3e074c09	0.13212599
71	0x3de6620f	0.11249172
72	0x3d326a53	0.04355843
73	0xbd20439f	-0.03912699
74	0xbc06e242	-0.008232655
75	0xbd0b8751	-0.034064595
76	0x3d2ca499	0.04214916
77	0xbd73df93	-0.05953939
78	0xbd6bce35	-0.0575697
79	0xbcc4c362	-0.024018947
80	0xbcd04d53	-0.025427496
81	0xbdb15e14	-0.08660522
82	0xbd205e03	-0.039152157
83	0xbceeb534	-0.029139139
84	0xbd9bfdc7	-0.076167636
85	0x3c5b1cd1	0.01337357
86	0x3c4731e3	0.01215789
87	0x3d2e7105	0.042588253
88	0x3d771e0b	0.060331386
89	0xbc8f4bba	-0.017492164
90	0x3cc0fe96	0.023558896
91	0xbd39a24b	-0.04532079
92	0x3d73b800	0.059501648
93	0xbd9bc19d	-0.07605288
94	0xbd2c2af1	-0.04203314
95	0x3c1105e3	0.008851501
96	0x3d72076c	0.05908911
97	0x3da8136f	0.08206832
98	0xbd033db8	-0.03204128
99	0xbdac1db2	-0.084041014
100	0xbd86355a	-0.06553145
101	0x3d0ee0fc	0.03488253
102	0xbd1f680a	-0.03891758
103	0xbd293ad8	-0.041315883
104	0xbd520bfa	-0.051280953
105	0x3d92c205	0.071659125
106	0x3dad823e	0.08472107
107	0x3d38d517	0.045125093
108	0x3c3ee765	0.011651848
109	0xbcb471ef	-0.022026984
110	0x3c81dda8	0.015852764
111	0x3d8f9a27	0.07011824
112	0x3d0b762f	0.034048256
113	0xbd1d7f2a	-0.03845135
114	0x3d954979	0.072894044
115	0x3d97500c	0.073883146
116	0xbd088c54	-0.033336952
117	0x3beb578a	0.0071820663
118	0x3df34c3b	0.11879774
119	0x3aff31f2	0.0019469841
120	0xbd77cc89	-0.060497794
121	0x3cc8a8c1	0.02449453
122	0x3dea6db6	0.11446707
123	0x3dee7ffb	0.11645504
124	0x3d104d2e	0.035229854
125	0xbd08a200	-0.03335762
126	0xbcb10325	-0.021607945
127	0x3d3ea8ec	0.046547815
128	0x3d682932	0.056679912
129	0x3dc24414	0.09485641
130	0x3d5fde72	0.0546555
131	0xbdaf1a1c	-0.08549902
132	0x3db34bb8	0.087546766
133	0x3d843356	0.06455104
134	0x3d7651d8	0.060136646
135	0xbd8f2ed8	-0.069913566
136	0xbcc1d518	-0.023661181
137	0xbd739ff4	-0.059478715
138	0xbe0afd41	-0.13573171
139	0x3c5e40ea	0.013565281
140	0x3db13543	0.08652737
141	0xbc37e4e4	-0.011224005
142	0xbdbc3fe7	-0.09191876
143	0x3c879b0e	0.016553428
144	0x3d541c4e	0.051784806
145	0xbdbf4a2e	-0.093403205
146	0xbd14b99d	-0.036309827
147	0xbc6e218d	-0.014534366
148	0x3dfa80f5	0.12231628
149	0x3deb801a	0.11499043
150	0x3c5d7a88	0.013517983
151	0xbdb800a1	-0.08984495
152	0xbc05ebcd	-0.008173895
153	0x3d77553a	0.060384013
154	0x3cf53f50	0.029937416
155	0xbd832000	-0.06402588
156	0xbc490892	-0.01227011
157	0xbcecb581	-0.028895142
158	0x3da21275	0.07913677
159	0xbe0a1a3a	-0.13486567
160	0x3d947e60	0.072506666
161	0x3c6da47e	0.01450455
162	0x3d166c4d	0.036724377
163	0x3da563ed	0.080757
164	0x3d90e760	0.07075381
165	0x3cf7b3bb	0.03023707
166	0xbd257337	-0.04039308
167	0x3dc65553	0.09684243
168	0x3da2fe1c	0.07958624
169	0x3be990b8	0.0071278475
170	0x3da4ab05	0.08040432
171	0xbdceea8d	-0.10103331
172	0xbd98c11b	-0.07458707
173	0xbd83080d	-0.0639802
174	0x3ca8cc75	0.020605305
175	0xbd407a9b	-0.046991926
176	0xbda29f14	-0.07940498
177	0x3d1c49d7	0.038156357
178	0xbd8bde5f	-0.06829523
179	0x3d8b7e7a	0.06811233
180	0xbcde3950	-0.027126938
181	0x3b992dca	0.004674648
182	0x3d81c785	0.063368835
183	0xbd4f8baa	-0.050670303
184	0xbde01d04	-0.10943034
185	0xbd36fccb	-0.044674676
186	0x3ce9bd04	0.028532512
187	0x3e185536	0.14876255
188	0xbda9c4df	-0.08289503
189	0xbd33bbde	-0.043880336
190	0xbb43f7f6	-0.0029902435
191	0xbd01f5f8	-0.031728715
192	0x3c1f951e	0.009740142
193	0x3b1debf1	0.002409693
194	0x3d6d37c2	0.057914503
195	0xbcb0818a	-0.021546144
196	0xbd8338e8	-0.064073384
197	0xbcbbdbe5	-0.022932002
198	0xbd86d975	-0.065844454
199	0xbdc20e5f	-0.09475397
200	0x3d3cfd82	0.0461402
201	0xbd1bca7a	-0.038034894
202	0xbc8f34e3	-0.017481273
203	0x3d8410f5	0.06448547
204	0xbd984a0e	-0.07436
205	0x3c9f3f5d	0.019439394
206	0xbd37441e	-0.044742696
207	0xbc88a108	-0.016678348
208	0xbcc62027	-0.024185253
209	0xbb8a965e	-0.004229351
210	0xbd88f9b6	-0.066882536
211	0xbb617399	-0.0034401177
212	0xbc58bc90	-0.013228551
213	0x3d90b3d6	0.07065551
214	0x3db810f8	0.089876115
215	0xbd8be79b	-0.068312846
216	0xbb8d5193	-0.004312703
217	0x3d14a4f6	0.03629013
218	0xbc8f703b	-0.01750957
219	0xbc1a4339	-0.009415441
220	0xbd94a021	-0.07257105
221	0x3d06ab6d	0.032878328
222	0xbd18ad1e	-0.037274472
223	0x3d7c5906	0.061608337
224	0x3c4a09e7	0.012331462
225	0x3d609fea	0.054840006
226	0xbd83888a	-0.06422527
227	0xbcff4a0f	-0.031163244
228	0xbd2c3502	-0.04204274
229	0xbd3c8904	-0.046029106
230	0xbe24bd3a	-0.16087809
231	0xbd8c80b9	-0.068604894
232	0x3c7da21e	0.015480546
233	0x3d373712	0.044730254
234	0x3ce9d56b	0.028544148
235	0xbd1de654	-0.038549736
236	0xbca7c5f1	-0.020480128
237	0x3dc52ff9	0.09628291
238	0xbd70577e	-0.05867719
239	0xbdc0be99	-0.094113536
240	0x3a6e72dd	0.00090960955
241	0x3d0daaf0	0.034586847
242	0x3d8a9e67	0.06768494
243	0x3d8f49fa	0.06996532
244	0x3d610a99	0.054941747
245	0xbc6192cf	-0.013767912
246	0xbc610b18	-0.013735555
247	0xbc83d5e0	-0.016093194
248	0xbda15412	-0.07877363
249	0x3bda89a1	0.0066692387
250	0xba0d4c5c	-0.00053901016
251	0x3d7493f4	0.05971141
252	0x3c5271a1	0.012844474
253	0x3d549e6d	0.0519089
254	0xbcac4cb8	-0.021032676
255	0xbd476cba	-0.048687674

convs.1.bias f4 [32]
0	0xbd67420d	-0.056459475
1	0xbd7c4915	-0.061593134
2	0xbceeb73b	-0.029140105
3	0xbd4ad7ad	-0.04952209
4	0xbd3694f3	-0.044575643
5	0xbdea2576	-0.11432926
6	0xbda29b08	-0.07939726
7	0x3d1f617e	0.038911335
8	0x3cba623c	0.02275192
9	0xbcf82cfc	-0.030294888
10	0x3d34daef	0.044154104
11	0xbda1d197	-0.07901304
12	0xbdacf803	-0.08445742
13	0x3d8664a7	0.06562167
14	0x3de383d0	0.111091256
15	0x3ddf3963	0.108996175
16	0xbd1a0a28	-0.037607342
17	0x3dac706b	0.084198795
18	0x3d75bd2e	0.05999487
19	0x3d51bc89	0.05120519
20	0xbd0a2076	-0.033722363
21	0xbd7d6bd8	-0.061870426
22	0xbb849d97	-0.0040471065
23	0xbda8131a	-0.08206768
24	0xbd819755	-0.063276924
25	0x3d982646	0.07429175
26	0x3c44306e	0.011974437
27	0xbddb0661	-0.10694576
28	0xbdb8dd28	-0.09026557
29	0x3c567775	0.013090004
30	0xbd46e851	-0.048561398
31	0x3d84ccda	0.06484385

convs.2.basis f4 [4, 32, 32]
0	0x3d0cd35d	0.03438126
1	0xbd3afb32	-0.045649715
2	0x3ceaf41a	0.02868085
3	0x3d0b4ce1	0.034008864
4	0xbd82bd56	-0.06383769
5	0xbc8117c4	-0.015758403
6	0x3d8e4223	0.06946208
7	0x3bb317e3	0.005465494
8	0xbcaf3733	-0.021388626
9	0x3c285dcc	0.010276269
10	0xbd65ec90	-0.056133807
11	0xbbad7b95	-0.005294273
12	0x3d2dda27	0.042444374
13	0x3bcb9334	0.0062126163
14	0x3d6d49f3	0.05793185
15	0xbc4c22de	-0.012459485
16	0x3bda332b	0.0066589317
17	0x3d7bb837	0.061454978
18	0xbd91fb8f	-0.07128059
19	0x3d2ae31d	0.0417205
20	0xbc79719c	-0.0152248405
21	0xbc7ee903	-0.015558484
22	0x3d746341	0.05966497
23	0xbd30f35b	-0.04320083
24	0xbd0c7e65	-0.034300227
25	0xbd5834e9	-0.052784834
26	0x3cf825b3	0.030291414
27	0xbba71e9a	-0.0051000835
28	0xbd86d325	-0.065832414
29	0x3d0fa219	0.035066698
30	0xbbccc8d7	-0.006249528
31	0xbda0ed07	-0.078577094
32	0xbc803e09	-0.01565458
33	0x3de031aa	0.10946973
34	0xbc77b9c2	-0.015119972
35	0xbbcc10c3	-0.006227584
36	0xbd12544c	-0.035724923
37	0xbc0e442b	-0.008683245
38	0xbd601349	-0.05470589
39	0x3d85d8dc	0.06535503
40	0x3db51bce	0.08843194
41	0x3c289af3	0.010290849
42	0x3d08fb74	0.03344293
43	0xbd6f71de	-0.0584582
44	0xbc965c14	-0.018354453
45	0xbd4ad799	-0.049522016
46	0x3c680b41	0.014162839
47	0x3d1cb7b4	0.03826113
48	0xbd1d933d	-0.038470495
49	0x3cda72a5	0.026665995
50	0xbd4e048c	-0.050297305
51	0x3dc13b0d	0.09435091
52	0x3d70635e	0.058688514
53	0x3d999118	0.074983776
54	0x3cb4b3ee	0.022058453
55	0xbc80143f	-0.015634654
56	0x3c8fe04e	0.017563011
57	0xbc011d89	-0.007880577
58	0xbd699168	-0.057023436
59	0x3d8c0d0b	0.06838425
60	0x3d523889	0.051323447
61	0xbd2d37ab	-0.042289417
62	0xbd1875d4	-0.037221745
63	0x3d2682ef	0.04065221
64	0xbce2726f	-0.027642457
65	0x3c3926d2	0.011300759
66	0xbd908c98	-0.07058066
67	0x3d5fd6c9	0.054648194
68	0xbcfec9d7	-0.031102104
69	0xbd736042	-0.05941797
70	0x3c7b7ea0	0.015350014
71	0x3cf856b5	0.030314783
72	0xbd1ba6cb	-0.038000863
73	0x3db61cfe	0.088922486
74	0x3cd8dece	0.026473429
75	0x3d112e72	0.035444684
76	0xbd0c3507	-0.03423026
77	0x3ce26aed	0.027638877
78	0x3d48cebb	0.04902528
79	0xbd89d79b	-0.067305766
80	0xbc0ce71e	-0.0086000245
81	0x3d9c918a	0.07644947
82	0x3d3fcc3c	0.046825632
83	0xbb411707	-0.0029463188
84	0x3d4d0856	0.050056778
85	0x3db43730	0.08799589
86	0x3d4f08f2	0.05054564
87	0xbce3399a	-0.027737428
88	0x3d3f2af0	0.046671808
89	0x3c60eebd	0.013728795
90	0xbdbcd439	-0.09220166
91	0x3ca0d535	0.019632915
92	0xbc15f57a	-0.009152764
93	0x3bff4e64	0.0077913273
94	0xbc932a7c	-0.017964594
95	0x3c9ff834	0.019527532
96	0xbd0e5717	-0.034751024
97	0xbd92edc9	-0.0717426
98	0x3d5d717b	0.0540633
99	0x3d3ad472	0.04561276
100	0x3d5518e7	0.0520257
101	0x3bb9e20f	0.0056727002
102	0x3db2318b	0.08700856
103	0x3da2d678	0.07951063
104	0xbda4f8d9	-0.080552764
105	0xbdc5f041	-0.096649654
106	0x3bbf12e9	0.0058311117
107	0x3d87c7b2	0.06629886
108	0x3c075813	0.008260745
109	0xbd2d217b	-0.042268258
110	0xbced1011	-0.028938325
111	0x3ca029ad	0.019551123
112	0xbce6aebc	-0.028159492
113	0xbd164770	-0.03668922
114	0x3d705679	0.058676217
115	0xbcca1f7d	-0.024673218
116	0xbcd6b3ec	-0.02620884
117	0xbda4949e	-0.08036159
118	0xbd2040dc	-0.039124355
119	0x3c22d0a0	0.009937435
120	0xbd3d75bb	-0.046254855
121	0xbce86c44	-0.028371938
122	0xbd24e425	-0.040256638
123	0xb8c1357e	-9.212921e-05
124	0x3be7c1ef	0.007072679
125	0xbbcb7b66	-0.0062097786
126	0xbd894f43	-0.06704571
127	0x3cca311b	0.024681618
128	0x3d86c904	0.065813094
129	0x3d173064	0.036911383
130	0xbd86917f	-0.0657072
131	0xbd0c78b5	-0.034294803
132	0x3cbeef83	0.023307567
133	0xbd8373c7	-0.06418567
134	0xbd683b9d	-0.056697477
135	0x3d7d4c0d	0.061840106
136	0xbd758a08	-0.05994609
137	0xbd518ba3	-0.05115856
138	0xbd514970	-0.051095426
139	0xbd688523	-0.056767594
140	0xbbbd06a0	-0.005768612
141	0xbcfcbe0b	-0.030852338
142	0x3cf61f9e	0.030044373
143	0x3c8e4f0a	0.017371673
144	0x3d072224	0.032991543
145	0x3c973d16	0.018461745
146	0xbd7d06f9	-0.061774228
147	0x3d88ac15	0.06673447
148	0xbbb3d0f4	-0.0054875556
149	0x3dcd97da	0.10038729
150	0xbc0ecd71	-0.008715973
151	0xbced7781	-0.028987648
152	0xbd0f2f00	-0.034956932
153	0xb89bc032	-7.426775e-05
154	0xbb3fc9e8	-0.0029264633
155	0xbd66104f	-0.056167897
156	0x3c9fb646	0.019496094
157	0xbc9ac847	-0.018894328
158	0xbd24e6a7	-0.04025903
159	0xbd113567	-0.03545132
160	0x39ee8b63	0.0004549875
161	0xbb3f8f64	-0.0029229755
162	0x3c9c307c	0.019066088
163	0x3c78ec3e	0.015193043
164	0xbd2baac2	-0.041910894
165	0x3d59f4b1	0.05321187
166	0x3d62beb8	0.055357665
167	0xbc1adcbd	-0.009452042
168	0x3c80ef77	0.015739186
169	0x3d835299	0.06412239
170	0x3c05ad38	0.008158974
171	0xbc188e8d	-0.0093113305
172	0xbd3fa8af	-0.04679173
173	0xbc82b3b6	-0.015954833
174	0x3d8d6c0e	0.069053754
175	0x3d4fb082	0.05070544
176	0xbcb14eb8	-0.021643981
177	0x3dbdc31a	0.09265728
178	0x3d97089c	0.07374689
179	0x3d142688	0.03616956
180	0x3ceabddc	0.028654985
181	0xbcb711ff	-0.022347448
182	0xbcb0c66f	-0.021578996
183	0x3cbae518	0.022814319
184	0x3d402109	0.046906505
185	0x3c9ac8bf	0.018894551
186	0x3c6892ff	0.014195203
187	0x3d6070de	0.05479514
188	0xbd81f207	-0.06344991
189	0x3d4fcb38	0.050730914
190	0x3d099607	0.033590343
191	0x3c540876	0.01294147
192	0xbcd9bb1d	-0.02657848
193	0x3b3ad76e	0.0028509754
194	0xbd576030	-0.052581966
195	0x3d7952ed	0.0608701
196	0x3d99a46f	0.07502066
197	0xbc9c9b74	-0.019117095
198	0x3c0dbf21	0.008651526
199	0xbd47e092	-0.04879815
200	0xbc276d10	-0.010218874
201	0xbc9ea4c8	-0.019365683
202	0xbd0e0516	-0.03467282
203	0x3d6472b6	0.05577346
204	0xbcc83aaa	-0.024442036
205	0xbda618d2	-0.08110203
206	0xba6a1230	-0.0008929102
207	0x3c403880	0.011732221
208	0x3d10bb00	0.035334587
209	0x3d14ce6b	0.036329668
210	0xbc66d1d6	-0.014088115
211	0x3b140df8	0.0022591334
212	0x3b3c735e	0.0028755288
213	0xbce6cccd	-0.028173828
214	0x3da64b85	0.08119873
215	0xbd871985	-0.06596664
216	0x3d2f46f3	0.04279227
217	0x3d78584a	0.060631074
218	0xbc8a1f9b	-0.016860774
219	0xbd05b2ed	-0.03264134
220	0xbdbaf29b	-0.091283046
221	0xbd8cc9b6	-0.06874411
222	0x3d29209a	0.041290857
223	0xbd5d854a	-0.054082192
224	0x3d792018	0.060821623
225	0x3d23e0c4	0.040009275
226	0xbc7dadd1	-0.015483336
227	0x3d0aff80	0.03393507
228	0x3c9acd05	0.018896589
229	0xbbc6d0c3	-0.006067367
230	0x3d2916d6	0.041281544
231	0x3b8c4663	0.0042808517
232	0xbc867f43	-0.016418105
233	0xb82cd10c	-4.1202686e-05
234	0xbbb988a3	-0.0056620403
235	0x3d943505	0.07236675
236	0xb9aefd69	-0.00033376671
237	0x3c19e9aa	0.009394089
238	0xbb455a2a	-0.0030113556
239	0xbce5493a	-0.027989019
240	0xbde9e04e	-0.11419736
241	0x3d84950f	0.06473743
242	0xbcc7aa65	-0.024373243
243	0xbd545167	-0.051835444
244	0xbcfd20c5	-0.030899415
245	0x3d2cef6a	0.04222051
246	0xbc5c2eac	-0.013438862
247	0xbd8ada86	-0.06779961
248	0x3d58a659	0.052893016
249	0x3c8560c7	0.016281499
250	0xbc9dfb46	-0.019284856
251	0x3cf7c134	0.030243494
252	0x3df1118f	0.11770927
253	0xbbc8d11d	-0.006128444
254	0xbd7c5e69	-0.061613474
255	0x3bf49d11	0.007465013

convs.2.att f4 [10, 4]
0	0x3d162752	0.036658593
1	0xbba9e1ae	-0.005184374
2	0x3cbfd03b	0.023414722
3	0x3bdbdace	0.006709433
4	0x3d14a7b7	0.036292758
5	0xbc0c0ab7	-0.0085474765
6	0x3c758f1f	0.014987736
7	0x3c739b82	0.014868619
8	0x3d1419a8	0.03615728
9	0xbc243508	-0.010022409
10	0x3c9b32fc	0.01894521
11	0x3c13c39c	0.009018805
12	0x3c4a51a6	0.012348568
13	0xbc1104ff	-0.008851289
14	0xba8882c0	-0.0010414943
15	0x3ba5a8b3	0.005055511
16	0xbbcb32a7	-0.0062011066
17	0xbc9849d6	-0.018589895
18	0xbc4d1a26	-0.012518441
19	0xbc5ff68d	-0.013669622
20	0xbc37f8e5	-0.011228775
21	0x3bebfa8f	0.0072015
22	0xbbfdfcec	-0.007751098
23	0xbc0bcd1c	-0.008532789
24	0x3af2005c	0.0018463242
25	0x3c40eb2a	0.0117748175
26	0x3c637920	0.013883859
27	0x3c7fda76	0.01561605
28	0x3ad2420f	0.0016041416
29	0xbb99b4d9	-0.004690748
30	0xbaf81542	-0.0018927234
31	0x3bf309e8	0.0074169524
32	0x3bf98f59	0.0076159653
33	0x3977e29d	0.00023640176
34	0xbbec8288	-0.007217709
35	0xbc18630a	-0.0093009565
36	0xbbe55bab	-0.006999453
37	0x3aec86d6	0.0018045555
38	0xb9b05211	-0.0003363048
39	0x39b91fa1	0.00035309515

convs.2.root f4 [32, 32]
0	0xbd74f67e	-0.059805386
1	0xbd2455b4	-0.040120795
2	0x3d977a96	0.07396428
3	0xbcaca809	-0.02107622
4	0x3c672792	0.014108555
5	0xbdade44c	-0.0849081
6	0xbd251048	-0.04029873
7	0xbd29fac0	-0.0414989
8	0x3d414563	0.047185313
9	0xbd1494e5	-0.03627481
10	0x3c96a244	0.018387921
11	0x3bf4afbb	0.0074672378
12	0xbd510a40	-0.051035166
13	0x3dac9456	0.0842673
14	0xbdac53d9	-0.0841443
15	0xbd21bbca	-0.03948573
16	0xbb67aec7	-0.0035351978
17	0xbc953024	-0.018211432
18	0x3d633371	0.05546898
19	0x3c298417	0.010346434
20	0xbb697478	-0.00356224
21	0xbc9db2b1	-0.019250246
22	0xbd373c27	-0.0447351
23	0x3d4823d3	0.04886229
24	0xbda2408f	-0.0792247
25	0xbc818af0	-0.01581332
26	0x3c0fad78	0.0087693855
27	0xbab893ce	-0.0014082135
28	0x3d09e4d2	0.033665486
29	0x3ce02bf7	0.027364714
30	0xbd806a09	-0.062702246
31	0xbd23b841	-0.03997064
32	0x3b36084b	0.002777594
33	0x39bcc14b	0.0003600217
34	0xbd99fa0d	-0.075183965
35	0x3d1cb6d9	0.038260315
36	0xbd002167	-0.031281855
37	0x3dbc2a36	0.091877386
38	0xbd1d33f9	-0.038379643
39	0xbd5b07c4	-0.053474203
40	0xbc13b043	-0.009014192
41	0xbd03c443	-0.03216959
42	0xbdacc695	-0.08436314
43	0x3d5f5243	0.05452181
44	0x3d58f76e	0.052970342
45	0x3d0aed09	0.03391746
46	0x3cb0108c	0.021492265
47	0x3d37299c	0.044717416
48	0x3d834817	0.064102344
49	0x3d2e30a1	0.042526845
50	0xbcf2318a	-0.029564638
51	0xbd9f8de1	-0.07790733
52	0xbd49764b	-0.04918508
53	0xbd07ce30	-0.03315562
54	0xbcfef705	-0.031123647
55	0xbc95bb2e	-0.01827773
56	0xbdb0cac4	-0.086324245
57	0xbd408ebf	-0.047011133
58	0x3d9f95be	0.07792233
59	0x3bcdd52b	0.006281515
60	0xbd1ca9b5	-0.038247783
61	0x3ba6975c	0.0050839614
62	0xbd89d25f	-0.06729578
63	0xbce877bf	-0.028377412
64	0xbd08c03e	-0.03338646
65	0xbe197d15	-0.14989121
66	0x3dee9a24	0.11650494
67	0xbdaa470b	-0.083143316
68	0xbda8772f	-0.082258575
69	0xbdf21998	-0.11821288
70	0xbcdb42ae	-0.026765194
71	0x3ab6a1bd	0.00139337
72	0x3ca2c544	0.019869454
73	0xbd967ee0	-0.07348418
74	0x3cc63f10	0.024199992
75	0xbbe14ee9	-0.006875862
76	0xbd97540f	-0.0738908
77	0xbd9e11e6	-0.077182576
78	0x3d0a1ce8	0.033718973
79	0x3cd2d1e6	0.025734853
80	0xbd90a4af	-0.07062661
81	0x3c8b34d6	0.016992968
82	0x3c8d4809	0.017246263
83	0xbd86c0db	-0.06579753
84	0xbe07e0e5	-0.13269384
85	0xbd118015	-0.03552254
86	0xbd01fe83	-0.031736862
87	0xbc653e4c	-0.0139919035
88	0xbd030ff1	-0.031997625
89	0x3d193214	0.037401274
90	0x3db0c7c7	0.086318545
91	0x3d22a6ca	0.039709844
92	0x3c5dfc00	0.013548851
93	0x3d010502	0.031498916
94	0xbdeeaec0	-0.11654425
95	0xbd9f9450	-0.0779196
96	0x3d12e084	0.035858646
97	0xbd4d3c00	-0.05010605
98	0xbc316f33	-0.010829735
99	0xbd24fb09	-0.04027847
100	0x3d081159	0.03321967
101	0xbde1fb57	-0.110342674
102	0x3bacf11e	0.005277767
103	0xbd35dd58	-0.044400543
104	0xbd396a53	-0.045267414
105	0xbd01af69	-0.031661425
106	0x3d552f66	0.052047156
107	0x3d3ffd34	0.046872333
108	0xbdc0de95	-0.09417454
109	0xbce15988	-0.027508512
110	0xbc0be175	-0.00853764
111	0xba6cb707	-0.0009029959
112	0xbddf5e44	-0.109066516
113	0x3cb1f1b2	0.021721695
114	0x3cbf6bf7	0.023366911
115	0xbd6817de	-0.056663387
116	0x3c01801d	0.00790408
117	0xbdc49a93	-0.09599795
118	0xbda37395	-0.0798103
119	0xbd78ea92	-0.06077058
120	0x3bee46d2	0.007271626
121	0x3cfd13d2	0.03089324
122	0x3cf6f47a	0.030145872
123	0xbcb234d0	-0.021753699
124	0xbc08f339	-0.00835877
125	0x3d621f41	0.055205587
126	0xbd89ab7a	-0.0672216
127	0x3d45c262	0.04828108
128	0x3c8f0a2a	0.017460901
129	0x3d92f82b	0.071762405
130	0x3d9cf492	0.076638356
131	0x3d39a15d	0.045319904
132	0xbc7723a8	-0.015084185
133	0xbd490546	-0.049077295
134	0x3d9a8688	0.07545191
135	0x3d836c57	0.064171486
136	0xbd7a455a	-0.061101295
137	0xbca1c796	-0.01974849
138	0xbccc2249	-0.024918692
139	0x3d47da42	0.04879213
140	0x3d7bedb3	0.061505985
141	0xbb75e690	-0.003752146
142	0xbd1c0c82	-0.038097866
143	0x3cb98e21	0.02265078
144	0x3ae3edae	0.001738956
145	0x3dd26c26	0.10274534
146	0x3d3bf730	0.045890033
147	0xbd49be1a	-0.04925356
148	0x3d6af1f8	0.057359666
149	0xbd4921c6	-0.049104474
150	0x3d5840cb	0.052796166
151	0xbc5f18b7	-0.013616732
152	0xbcb5bbf2	-0.022184346
153	0xbd5fbcf3	-0.054623555
154	0x3cb2e348	0.021836892
155	0x3cd4e1b8	0.025986537
156	0xbbad5c75	-0.0052905628
157	0x3c1519cd	0.00910039
158	0x3cb43aae	0.022000637
159	0xbd8787a0	-0.06617665
160	0xbd83b760	-0.064314604
161	0xbdc90c70	-0.098168254
162	0xbd52da14	-0.051477507
163	0x3d1fa895	0.03897913
164	0x3cd4877f	0.025943516
165	0x3c85013b	0.016235938
166	0xbd8489e2	-0.064716116
167	0xbd1d2387	-0.03836396
168	0x3d0fc4b9	0.03509972
169	0x3d32bc78	0.04363677
170	0x3d7ceb5e	0.0617479
171	0x3b691af9	0.0035569055
172	0x3bd90d91	0.0066239317
173	0xbcfdede6	-0.030997228
174	0xbd191e3c	-0.03738235
175	0xbccf618c	-0.025315069
176	0x3c9949a1	0.018711867
177	0x3d10c261	0.035341624
178	0x3c9c9c7e	0.01911759
179	0xbd4150da	-0.047196247
180	0xbd1577c8	-0.036491185
181	0xbda06e04	-0.07833484
182	0x3bc8be79	0.0061262217
183	0xbd748fcf	-0.05970746
184	0xbd21a8a1	-0.039467458
185	0xbc55f9f2	-0.01306008
186	0x3db1a713	0.08674445
187	0xbd35df27	-0.044402268
188	0x3c7db1c6	0.015484279
189	0xbba030a6	-0.004888612
190	0x3d10b278	0.03532645
191	0xbcc1a474	-0.023637988
192	0x3c95427e	0.018220183
193	0x3e0bc933	0.1365097
194	0xbdf44426	-0.11927061
195	0x3e0f4802	0.13992313
196	0x3d1bef42	0.03806997
197	0x3deaa23a	0.114567235
198	0xbc83dae3	-0.016095584
199	0x3d23e477	0.040012803
200	0x3d78913d	0.060685385
201	0x3d244708	0.040106803
202	0xbe233f3e	-0.15942094
203	0xbe0c04e4	-0.1367374
204	0x3c8a1b68	0.016858771
205	0xbbe01c5c	-0.006839318
206	0xbd350201	-0.044191364
207	0xbd046f96	-0.03233298
208	0x3dc365e9	0.09540922
209	0x3d4549d6	0.04816612
210	0xbd2ca89c	-0.042152986
211	0x3d608b46	0.05482032
212	0x3dcfc6b6	0.10145323
213	0x3e55d65d	0.20882554
214	0x3d10a2ed	0.035311628
215	0x3ce6896a	0.028141696
216	0x3e391cb4	0.18077356
217	0xbd911484	-0.07083991
218	0xbd6c8b7e	-0.057750218
219	0xbd5d0d10	-0.053967535
220	0xbd0f0824	-0.034919873
221	0xbbfc2b13	-0.0076955645
222	0x3daf6a16	0.08565156
223	0x3d5648f7	0.05231568
224	0x3c0cc947	0.00859291
225	0xbd57b4e4	-0.052662745
226	0x3c4ddd95	0.012565036
227	0x3c938381	0.018007042
228	0x3cc26afc	0.023732655
229	0xbd864f04	-0.0655804
230	0xbd15ca29	-0.036569748
231	0xbc73a8c8	-0.014871784
232	0x3d98a43a	0.07453199
233	0xbc990485	-0.018678913
234	0xbc4676cc	-0.012113284
235	0x3c93a5f6	0.018023472
236	0x3b82a2a1	0.003986672
237	0xbc056d9a	-0.008143807
238	0xbd09ba57	-0.033624973
239	0xbd5cfdfd	-0.05395316
240	0xbd2fd4ea	-0.04292766
241	0x3cbefc39	0.023313629
242	0x3c8fdd25	0.017561505
243	0x3ce9b73d	0.028529758
244	0xbb4bad10	-0.0031078495
245	0xbdaf3203	-0.08554461
246	0xbd7277ab	-0.059196156
247	0x3cd822f1	0.026383849
248	0xbd4e2b34	-0.05033417
249	0x3c9cdc10	0.019147903
250	0x3b57cff0	0.0032930337
251	0xbc2ed419	-0.010670685
252	0x3c0cf9e0	0.008604497
253	0xbaf36538	-0.0018569594
254	0x3ba4f0c6	0.0050335852
255	0x3cac6b6f	0.021047322

convs.2.bias f4 [32]
0	0x3b9f5533	0.0048624515
1	0xbd5b5aca	-0.05355338
2	0x3d66a0aa	0.056305565
3	0xbdb983df	-0.090583555
4	0xbd040e55	-0.03224023
5	0xbdc3ef9d	-0.09567187
6	0x3b85e328	0.004085917
7	0xbd8ebf17	-0.06970041
8	0xbd6680f2	-0.056275316
9	0xbcf81e73	-0.030287957
10	0x3dad45c6	0.08460574
11	0x3d9e2029	0.07720978
12	0xbd562698	-0.0522829
13	0x3ca91a4d	0.020642424
14	0x3cc93846	0.024562966
15	0x3d6181f8	0.05505559
16	0xbd87952f	-0.066202514
17	0xbd58a92d	-0.052895714
18	0x3d1ad85b	0.03780399
19	0xbd91edb0	-0.071254134
20	0xbd8b860d	-0.068126775
21	0xbdd42754	-0.10359064
22	0xbd39a7b2	-0.045325942
23	0xbcc27d93	-0.02374152
24	0xbd7bf0b1	-0.061508838
25	0x3d57a7bc	0.0526502
26	0x3d10aab5	0.03531905
27	0x3d1c346c	0.03813593
28	0x3cf7b9f7	0.030240042
29	0x3cc0c0ed	0.023529494
30	0xbd608ac5	-0.05481984
31	0x3b2629ae	0.0025354433

convs.3.basis f4 [4, 32, 32]
0	0xbd178082	-0.03698779
1	0x3da6893f	0.08131646
2	0xbd6b61bf	-0.057466265
3	0x3d3fb7a0	0.046805978
4	0x3c0771f3	0.008266914
5	0xbce945fc	-0.028475754
6	0x3d8be9f7	0.06831735
7	0x3d610a9b	0.054941755
8	0xbbc5f832	-0.00604155
9	0xbd7b1d22	-0.06130708
10	0xbd8478a5	-0.064683236
11	0x3ddbc5cd	0.10731087
12	0xbdb19315	-0.08670632
13	0x3cb582e0	0.022157133
14	0x3d215a8f	0.039393004
15	0xbd7009b4	-0.058603004
16	0xbcc23bd6	-0.023710173
17	0xbba83183	-0.0051328554
18	0x3c28ee23	0.0103106825
19	0x3c373eec	0.011184435
20	0x3ce36b80	0.027761221
21	0x3d44072b	0.0478584
22	0x3dcdf494	0.10056415
23	0x3d574df2	0.05256457
24	0x3dcbcb41	0.09950877
25	0xbcb7b756	-0.022426289
26	0xbdcd52a4	-0.10025528
27	0xbdea6309	-0.11444671
28	0x3c9a1e23	0.018813198
29	0xbdd471b9	-0.103732534
30	0x3d1c7540	0.038197756
31	0xbc735cbe	-0.014853654
32	0x3d8aeb13	0.06783118
33	0xbda56acc	-0.080770105
34	0x3d320d99	0.04347
35	0x3d5f4afd	0.054514874
36	0x3ccfec75	0.025381306
37	0x3d3c4ea8	0.04597345
38	0xbda3a514	-0.079904705
39	0x3cd7a722	0.026324812
40	0x3e0713c9	0.13191141
41	0x3ca1ed79	0.019766556
42	0xbcd9b5fa	-0.026576031
43	0x3d6dde8f	0.058073577
44	0xbc9c6b74	-0.019094206
45	0x3d90f6b6	0.070783064
46	0xbd6fca10	-0.05854231
47	0x3d819d7b	0.06328865
48	0xbd1f29e0	-0.038858294
49	0xbcd800e8	-0.02636762
50	0x3cb46cd8	0.022024557
51	0x3c09ea34	0.008417655
52	0x3da3648b	0.079781614
53	0xbd84e20e	-0.06488429
54	0xbc9de0c6	-0.01927222
55	0xbd35041e	-0.04419338
56	0xbd52e7d4	-0.05149062
57	0x3da3133b	0.07962652
58	0xbd670705	-0.05640318
59	0x3d7c1d27	0.06155124
60	0xbc34c565	-0.011033391
61	0x3d94ef17	0.07272165
62	0x3d9aaf76	0.07552998
63	0xbdc67fc0	-0.09692335
64	0xbce1b663	-0.02755279
65	0xbd2ab3f6	-0.04167553
66	0x3d01f8a3	0.03173126
67	0xbcf50dad	-0.029913748
68	0xbd08a2c3	-0.033358347
69	0x3d4d13e7	0.05006781
70	0x3dae0556	0.084971115
71	0xbcdd57f9	-0.027019488
72	0xbddb2bef	-0.10701739
73	0xbd69777f	-0.056998726
74	0xbd3aa089	-0.045563255
75	0x3ce58fbe	0.028022643
76	0xb9fb40e5	-0.000479228
77	0x3bafb495	0.005362103
78	0x3dad4a8c	0.08461484
79	0x3d7f5a76	0.06234213
80	0xbcce0dd6	-0.025153082
81	0xbc8b1f7d	-0.016982788
82	0xb9e43072	-0.00043523643
83	0xbcc3c7a9	-0.023898916
84	0xbcae5905	-0.021282682
85	0x3d94ae77	0.07259839
86	0x3c2fcba3	0.010729703
87	0x3d3ecd4e	0.046582513
88	0xbc581b90	-0.013190165
89	0x3d62da7c	0.055384144
90	0xbd218c70	-0.039440572
91	0xba297ddf	-0.00064655946
92	0x3d786895	0.060646612
93	0xbdc4f489	-0.09616954
94	0x3d26b994	0.040704325
95	0x3c8fec8c	0.017568849
96	0xbcbff282	-0.023431066
97	0x3d46fb7f	0.04857969
98	0x3c778a3e	0.015108643
99	0x3d6b816a	0.057496466
100	0x3c94a0d1	0.01814309
101	0x3cb3ebba	0.02196299
102	0xbd676e91	-0.05650193
103	0x390a69dd	0.00013200143
104	0xbbabafe3	-0.005239473
105	0x3d682b3f	0.056681868
106	0xbcab2098	-0.020889565
107	0xbc6e6f38	-0.014552884
108	0xbd9cc34c	-0.076544374
109	0x3d3d38ba	0.046196677
110	0xbc718dda	-0.014743293
111	0xbdadf10a	-0.0849324
112	0xbccaa68f	-0.024737624
113	0x3d2a03a3	0.041507374
114	0xbd49e071	-0.04928631
115	0x3d9062cb	0.07050093
116	0xbdba67e3	-0.09101846
117	0xbd60835b	-0.05481277
118	0x3c82531a	0.015908767
119	0xbd63d2d9	-0.055621002
120	0x3d2bd083	0.0419469
121	0x3cd2cdee	0.02573296
122	0xbd788000	-0.060668945
123	0xbd4ca963	-0.049966227
124	0x3dbd9301	0.092565544
125	0x3d1d254e	0.038365655
126	0x3d29a194	0.04141386
127	0xbdedf586	-0.116190955
128	0xbd287f43	-0.04113699
129	0x3b21755b	0.00246366
130	0xbb8c2157	-0.0042764354
131	0xbd1cfcef	-0.038327154
132	0x3d1aced7	0.037794914
133	0xbc81e458	-0.015855953
134	0xbd2c166b	-0.042013567
135	0xbd7d3d5e	-0.061826102
136	0x3d977dd4	0.07397047
137	0x3bb08b8f	0.0053877304
138	0x3d5b6c80	0.05357027
139	0xbbe97ed0	-0.007125713
140	0xbcc42a7a	-0.023946036
141	0xbc821814	-0.015880622
142	0xbd44292f	-0.04789084
143	0xbcfdafb8	-0.030967578
144	0xbcfc4d1d	-0.03079849
145	0x3d4ef615	0.05052765
146	0xbd23c09d	-0.039978612
147	0xbce0c389	-0.027436988
148	0xbd0e7f02	-0.034789093
149	0xbd43fc8e	-0.047848277
150	0xbd33f468	-0.043934256
151	0x3d61c0bd	0.05511545
152	0xbd8a4ef7	-0.067533426
153	0xbd875d18	-0.06609553
154	0xbd169b26	-0.036769055
155	0xbccf80fa	-0.025330056
156	0x3ce47eeb	0.02789255
157	0x3d131020	0.03590405
158	0x3c82b799	0.015956687
159	0xbd964403	-0.07337191
160	0xbc3fbfe5	-0.011703466
161	0xbd84b6a4	-0.064801484
162	0xbda4d13a	-0.08047719
163	0xbcbeec00	-0.023305893
164	0x3cd6e826	0.026233744
165	0x3c8ee94c	0.017445229
166	0x3ce4553d	0.027872676
167	0x3cdf83b5	0.027284482
168	0x3da0f85d	0.078598715
169	0xbc9d3c27	-0.019193722
170	0x3cfb4a33	0.03067503
171	0xbd8789eb	-0.06618103
172	0x3d0545bf	0.03253722
173	0x3d7b1b46	0.061305307
174	0x3d3d05a4	0.046147957
175	0xbd03cd07	-0.03217795
176	0xbb343ef3	-0.002750334
177	0xbcc0b226	-0.023522448
178	0xbd63a2f0	-0.05557531
179	0xbca3971f	-0.019969521
180	0xbc42bc22	-0.011885675
181	0x3d1ab1f4	0.037767366
182	0xbb6e6659	-0.0036376922
183	0xbbc2e1c8	-0.0059473254
184	0x3d28f7d5	0.041251976
185	0xbcfef3ed	-0.031122172
186	0xbd2e026a	-0.04248277
187	0xbcd4188d	-0.025890613
188	0x3b82b1c2	0.0039884755
189	0xbc68c5ff	-0.014207362
190	0x3d8cdb85	0.068778075
191	0xbdf0bef7	-0.11755174
192	0xbd714d76	-0.058911763
193	0xbc28aff8	-0.0102958605
194	0x3d1d6c4b	0.038433354
195	0xbd276a2f	-0.04087275
196	0x3cbf5fcf	0.023361115
197	0x3c9e3af9	0.01931523
198	0xbdb53390	-0.088477254
199	0x3d405d9e	0.04696428
200	0xbd64ceb2	-0.055861183
201	0x3cf09749	0.029369013
202	0xbcb0c9fa	-0.021580685
203	0x3cae62b1	0.021287294
204	0x3c54013c	0.012939747
205	0xbd617686	-0.055044673
206	0x3da6eede	0.08151029
207	0x3ce0dd0a	0.02744915
208	0x3d2d2200	0.042268753
209	0xbcd5a66f	-0.026080338
210	0x3ba0df3d	0.0049094246
211	0x3d144960	0.03620279
212	0x3bcfebb3	0.006345236
213	0x3c4676fd	0.01211333
214	0x3bcea040	0.0063057244
215	0xbd87ece3	-0.066369794
216	0xbd283f7e	-0.041076176
217	0xbca54c31	-0.020177932
218	0x3c143a20	0.009047061
219	0xbda35a9b	-0.07976266
220	0xbd570ac7	-0.052500512
221	0xbd2b7887	-0.04186299
222	0xbd02e176	-0.031953298
223	0x3d9c6b46	0.07637648
224	0x3d6c6d21	0.05772126
225	0xbd2d31c7	-0.0422838
226	0x3b826b9a	0.0039801123
227	0x3c991170	0.018685073
228	0x3c5ad30e	0.013355983
229	0x3b431b56	0.0029770932
230	0xbd0681db	-0.032838684
231	0xbc7e1dd8	-0.015510045
232	0x3dd7edc2	0.105433956
233	0xbc7ed9cf	-0.015554859
234	0x3ab7ac23	0.0014013093
235	0x3cd1dc05	0.025617609
236	0x3c22a920	0.009928018
237	0x3cd0f632	0.02550802
238	0x3d29e629	0.041479263
239	0x3c687082	0.01418698
240	0x3d69e829	0.05710617
241	0x3d8e62bb	0.06952425
242	0x3d86df25	0.0658553
243	0xbcd9167a	-0.026499975
244	0x3ce12128	0.02748163
245	0x3d717551	0.058949772
246	0x3d8ddf47	0.069273524
247	0x3d7b504b	0.06135587
248	0xbcd500b8	-0.02600132
249	0x3dae54b6	0.08512251
250	0x3cba08e3	0.022709316
251	0xbbef8263	-0.0073092445
252	0x3d3769d6	0.044778667
253	0xb97fb89f	-0.00024387472
254	0x3dd8888e	0.10572921
255	0xbd77a1da	-0.060457088
