results/flixster_testmode/model_checkpoint38.pth (torch_old, 199981 bytes, 19 tensors)

convs.0.basis f4 [4, 4, 32]
0.00783012 0.0072373236 0.019932829 0.024115466 -0.07006445 0.18058838 -0.1133802 -0.11131343
0.08522847 -0.18906018 0.09363066 -0.08773402 -0.198297 0.07369466 0.14762136 -0.11204236
-0.05874666 -0.087924674 -0.19528961 -0.009510003 0.053107657 0.19071406 0.051991366 -0.07686829
0.06633233 -0.10743158 0.10719151 0.005130063 0.14921093 0.27919272 -0.13340834 0.03853275
-0.18435924 -0.12518547 -0.10621729 0.03107833 0.030386878 0.2425762 -0.008628814 -0.091668434
-0.23313332 -0.0746122 0.108510226 -0.21670054 0.019569855 0.0038784426 0.01777339 -0.099444255
-0.025292179 -0.21317342 0.097745605 -0.112757586 -0.05981525 0.12369805 -0.098024316 -0.110477574
-0.0005958131 -0.06890345 -0.024061792 0.049347594 0.07439585 0.11089323 -0.23763694 -0.014981402
-0.05938155 -0.096919216 -0.0037595124 0.029739182 -0.006469138 -0.06537877 0.024222627 -0.3539928
-0.44832262 0.025985442 -0.0033009571 0.079419866 0.2720873 0.06492869 0.059327252 -0.17839
0.03736112 -0.05621353 0.029699221 0.064047836 0.05146778 0.10979402 -0.74689883 -0.47491422
-0.40926766 0.045298524 -0.08473424 0.059625737 -0.05952975 0.010341799 -0.01463012 0.12512366
0.109120995 -0.022406325 0.011422406 -0.00298593 -0.122720934 -0.28420487 -0.069979854 0.06568224
0.3750015 0.6362545 0.6673859 0.14441466 0.08526395 0.04411305 0.028966282 -0.038283296
-0.44116414 0.002909941 -0.19048928 -0.028850857 -0.06742509 -0.5864107 -0.0911068 0.008868708
-0.04915983 0.2867353 -0.14833549 -0.20739792 -0.029626293 0.01765812 0.17034002 0.053619646
0.016793812 0.019080844 0.029777532 -0.00039614018 -0.045006182 0.05738343 -0.01917852 -0.08118618
-0.025411827 -0.11886859 0.054120574 0.031762857 -0.11779358 0.018587923 0.12625289 -0.1749104
-0.060236994 -0.0222317 -0.07556438 -0.042111047 0.015513464 0.12999117 0.097980574 -0.103858806
0.035949286 -0.038094 0.08688612 -0.015906245 0.07396418 0.17096344 -0.03936181 0.024542421
-0.1210512 -0.11262172 -0.13666977 0.12571314 0.0028495064 0.1982271 -0.04877435 -0.0070900316
-0.12784174 -0.10736079 0.096253 -0.20694882 -0.006860579 -0.019521452 0.09861531 -0.057202082
-0.036009006 -0.13940747 0.0020502128 -0.100876376 -0.06725696 0.115285516 -0.008835397 -0.038834058
0.03320331 -0.04107326 -0.0024015065 0.0135799395 0.15413535 0.21183379 -0.20451272 0.025596557
-0.0085587 0.012778714 -0.1314613 0.021960186 0.04925256 0.10440742 0.018614722 -0.21301103
-0.56887186 0.06252866 -0.10478146 -0.113109514 0.28276294 0.0140087865 -0.14168999 -0.18904136
0.14933562 -0.031852737 0.08769225 0.10695407 -0.095519274 -0.019680375 -0.5952223 -0.41914958
-0.35252172 0.041544724 0.044008538 -0.046103034 0.021413947 -0.08162736 -0.07089969 0.013343844
-0.024751708 0.15432827 0.009236707 0.0071628466 0.15632181 -0.07706662 0.036759146 -0.10212789
0.26743543 0.50471395 0.3827068 -0.6303587 -0.08122688 -0.044723373 -0.022070106 0.023030477
-0.25250325 -0.092193566 -0.20747031 -0.0030136108 0.03810011 -0.38653916 0.18626994 -0.00633101
0.06032696 0.15418525 0.10910825 0.0033859126 0.0006857552 0.010287017 -0.12644516 -0.14014356
00000000: e749 003c 1227 ed3b 2c4a a33c cc8d c53c
00000010: f37d 8fbd 29ec 383e e133 e8bd 4cf8 e3bd
00000020: 448c ae3d fe98 41be 6ec1 bf3d e5ad b3bd
00000030: 5e0e 4bbe 3aed 963d 0e2a 173e 7776 e5bd
00000040: 56a0 70bd da11 b4bd 00fa 47be d8cf 1bbc
00000050: 6a87 593d 8c4a 433e e6f4 543d 1f6d 9dbd
00000060: 3fd9 873d 1705 dcbd 3987 db3d 161a a83b
00000070: c0ca 183e 59f2 8e3e 329c 08be 84d4 1d3d
00000080: abc8 3cbe 9f30 00be 7388 d9bd fb97 fe3c
00000090: e7ed f83c e565 783e de5f 0dbc a9bc bbbd
000000a0: 80ba 6ebe 48ce 98bd 9c3a de3d bfe6 5dbe
000000b0: f650 a03c 782d 7e3b 8099 913c 6ea9 cbbd
000000c0: 8b31 cfbc 224a 5abe d92e c83d 73ed e6bd
000000d0: d600 75bd 6755 fd3d f9c0 c8bd 1142 e2bd
000000e0: 5730 1cba 411d 8dbd 3c1d c5bc b420 4a3d
000000f0: da5c 983d fd1b e33d 1957 73be 8e74 75bc
00000100: 113a 73bd 957d c6bd 2762 76bb 969f f33c
00000110: 10fb d3bb 4ee5 85bd 886e c63c 8b3e b5be
00000120: 8b8a e5be 6cdf d43c df54 58bb e2a6 a23d
00000130: 074f 8b3e 55f9 843d 2201 733d deab 36be
00000140: f907 193d 2940 66bd c84b f33c 832b 833d
00000150: e1cf 523d b0db e03d c334 3fbf f527 f3be
00000160: 888b d1be f28a 393d 2589 adbd 1e3a 743d
00000170: 78d5 73bd a670 293c 2cb3 6fbc 6b20 003e
00000180: d47a df3d 788d b7bc 0b25 3b3c 98af 43bb
00000190: 1d55 fbbd 4d83 91be 9951 8fbd 6984 863d
000001a0: 3200 c03e 93e1 223f cdd9 2a3f 70e1 133e
000001b0: de9e ae3d e3af 343d b24a ed3c f2ce 1cbd
000001c0: 44e0 e1be b5b4 3e3b 9f0f 43be a258 ecbc
000001d0: 2a16 8abd 031f 16bf 3496 babd 0f4e 113c
000001e0: d15b 49bd f8ce 923e 42e5 17be 1f60 54be
000001f0: d7b2 f2bc c3a7 903c 9d6d 2e3e 46a0 5b3d
00000200: 2d93 893c 6e4f 9c3c 03f0 f33c 09b1 cfb9
00000210: 6758 38bd e30a 6b3d 461c 9dbc f144 a6bd
00000220: 772c d0bc 6071 f3bd 89ad 5d3d c519 023d
00000230: c33d f1bd b345 983c 7048 013e b61b 33be
00000240: 11bb 76bd 411f b6bc 7fc1 9abd a27c 2cbd
00000250: 2f2c 7e3c 681c 053e 0aaa c83d edb3 d4bd
00000260: 8f3f 133d 7408 1cbd 5af1 b13d d04d 82bc
00000270: 887a 973d 0a11 2f3e d939 21bd 300d c93c
00000280: b1e9 f7bd 37a6 e6bd 29f3 0bbe f2ba 003e
00000290: c9be 3a3b 0bfc 4a3e 9dc7 47bd 7f53 e8bb
000002a0: f2e8 02be f9df dbbd 4b20 c53d 64ea 53be
000002b0: b5ce e0bb 74eb 9fbc d3f6 c93d bb4c 6abd
000002c0: 2e7e 13bd d5c0 0ebe dd5c 063b 4698 cebd
000002d0: 04be 89bd d01a ec3d 57c2 10bc 7610 1fbd
000002e0: 3200 083d 6f3c 28bd 9862 1dbb 657e 5e3c
000002f0: a8d5 1d3e f5ea 583e c86b 51be dfaf d13c
00000300: ca39 0cbc d05d 513c cb9d 06be d9e5 b33c
00000310: 0dbd 493d 8fd3 d53d e77d 983c 901f 5abe
00000320: 96a1 11bf 070f 803d a997 d6bd f6a5 e7bd
00000330: 4ec6 903e 1c85 653c 2e17 11be 0f94 41be
00000340: 70eb 183e 0478 02bd ff97 b33d bc0a db3d
00000350: 9c9f c3bd bd38 a1bc 7d60 18bf c69a d6be
00000360: ba7d b4be cd2a 2a3d 4c42 343d 89d6 3cbd
00000370: 4d6c af3c 3f2c a7bd db33 91bd 23a0 5a3c
00000380: 18c4 cabc 3b08 1e3e 8f55 173c 50b6 ea3b
00000390: d312 203e 1bd5 9dbd c290 163d 6d28 d1bd
000003a0: 4ced 883e ef34 013f 25f2 c33e 305f 21bf
000003b0: 475a a6bd db2f 37bd 5ecc b4bc 69aa bc3c
000003c0: 1b48 81be fbcf bcbd 1973 54be 0080 45bb
000003d0: dc0e 1c3d 76e8 c5be 8cbd 3e3e 5c74 cfbb
000003e0: 6719 773d bde2 1d3e 2574 df3d 30e6 5d3b
000003f0: 41c4 333a e08a 283c d77a 01be cb81 0fbe

convs.0.att f4 [10, 4]
-0.086940125 -0.18608774 0.30113214 0.18050672 -0.1952983 -0.023607055 0.365181 0.1592266
-0.2475862 0.119206816 0.38781726 0.12792227 -0.20518899 0.17326897 0.37686658 0.10410532
-0.09644349 0.0661298 0.31957382 0.18396883 -0.020881567 0.16698416 0.2736699 0.16369273
-0.00620031 0.23468871 0.21023773 0.09541743 0.091258444 0.21789382 0.14915268 0.035244465
0.17468126 0.19656137 0.08016169 -0.046858143 0.3385097 0.17484625 0.01920414 -0.092507
00000000: aa0d b2bd c98d 3ebe fe2d 9a3e c1d6 383e
00000010: 47fc 47be 9563 c1bc 01f9 ba3e 4c0c 233e
00000020: 3d87 7dbe b422 f43d fc8f c63e 0efe 023e
00000030: 101d 52be 6c6d 313e a8f4 c03e 2c35 d53d
00000040: 2a84 c5bd 106f 873d 2e9f a33e 5362 3c3e
00000050: d20f abbc e5fd 2a3e 761e 8c3e 119f 273e
00000060: f82b cbbb 3d52 703e 8f48 573e 376a c33d
00000070: b5e5 ba3d 8f1f 5f3e 7bbb 183e 805c 103d
00000080: a5df 323e 6247 493e d02b a43d 53ee 3fbd
00000090: 2551 ad3e e50a 333e 0052 9d3c 4f74 bdbd

convs.0.root f4 [4, 32]
-0.11616346 0.01879931 -0.08661263 0.21410051 0.041824754 0.026235823 -0.11184241 -0.21001002
0.20186968 0.3745924 0.32846954 -0.09266589 0.095203765 0.18019913 0.0075934534 -0.07594332
-0.204244 0.19931358 0.02385512 -0.23502263 -0.044303365 -0.1251124 -0.03611207 0.12483089
-0.017848358 0.1922319 0.007885623 -0.2147451 -0.008536551 -0.2116856 0.08016479 -0.10758644
0.16376628 0.055473935 -0.15602607 0.17876343 -0.07949267 -0.044836562 -0.09736687 -0.05870731
0.014076635 -0.13923585 -0.029302329 0.11219147 0.22023205 0.1752725 -0.038127027 0.36031538
-0.06321764 0.06695711 -0.021397812 0.0057034846 -0.062291935 -0.12810902 -0.11819511 -0.30257547
-0.16186406 0.06228313 0.09368822 -0.036149062 -0.0014072276 0.012631867 0.17748019 0.249998
-0.044216927 0.14353763 -0.024611894 -0.01536057 -0.07733128 -0.19402151 -0.105094776 -0.14780729
-0.08202795 0.07222018 -0.12532252 -0.04270912 0.039014637 0.16420148 -0.015124888 -0.037920766
-0.13689302 -0.1259508 -0.15673433 0.19768661 -0.022877946 0.06540833 -0.13585354 0.05012833
0.048847627 0.06981749 0.09774257 -0.04192455 -0.14522772 -0.10016026 -0.023143021 -0.036380388
-0.11605189 -0.019080149 -0.07213953 0.20771493 -0.045661602 -0.07303406 -0.059328344 -0.15481745
-0.15717153 0.07416425 -0.038469814 -0.11417201 0.16141632 0.14706892 0.073134385 0.0042021736
0.015872965 -0.16276534 -0.062308155 0.11389476 -0.049912427 0.13465372 -0.18108712 -0.108033
-0.05631472 0.12165809 0.018659241 -0.05401998 -0.14456543 -0.030780554 -0.107531704 -0.047200408
00000000: 1ce7 edbd 0301 9a3c f661 b1bd 2a3d 5b3e
00000010: 6f50 2b3d 82ec d63c a20d e5bd de0c 57be
00000020: edb6 4e3e 93ca bf3e 292d a83e 9dc7 bdbd
00000030: 31fa c23d 1f86 383e 81d2 f83b 2c88 9bbd
00000040: 5725 51be dc18 4c3e d06b c33c c6a9 70be
00000050: 7277 35bd 771d 00be 40ea 13bd 56a7 ff3d
00000060: b836 92bc 70d8 443e b332 013c 24e6 5bbe
00000070: e4dc 0bbc 1cc4 58be 702d a43d 4856 dcbd
00000080: 59b2 273e a338 633d 4cc5 1fbe c30d 373e
00000090: 0ecd a2bd 8ba6 37bd 4868 c7bd 1477 70bd
000000a0: b0a1 663c d893 0ebe 700b f0bc a4c4 e53d
000000b0: 8384 613e a27a 333e 162b 1cbd 427b b83e
000000c0: 4078 81bd cf20 893d 774a afbc 4ce4 ba3b
000000d0: d425 7fbd 032f 03be 4710 f2bd 2ceb 9abe
000000e0: b1bf 25be 981c 7f3d 9cdf bf3d 0a11 14bd
000000f0: b972 b8ba e4f5 4e3c 5ebd 353e 7aff 7f3e
00000100: cf1c 35bd 87fb 123e e29e c9bc e6aa 7bbc
00000110: dd5f 9ebd 93ad 46be ee3b d7bd cb5a 17be
00000120: 45fe a7bd 2ce8 933d 8c54 00be c2ef 2ebd
00000130: d0cd 1f3d 6f24 283e 61ce 77bc ce52 1bbd
00000140: af2d 0cbe 3ff9 00be f77e 20be 5c6e 4a3e
00000150: 886a bbbc cdf4 853d 311d 0bbe 5d53 4d3d
00000160: 7314 483d 79fc 8e3d 422d c83d 14b9 2bbd
00000170: 93b6 14be d320 cdbd 6f96 bdbc 9a03 15bd
00000180: 9dac edbd f94d 9cbc e4bd 93bd 39b3 543e
00000190: a907 3bbd e292 95bd 4702 73bd 7788 1ebe
000001a0: 93f1 20be 6de3 973d 8692 1dbd 04d3 e9bd
000001b0: 524a 253e 3c99 163e 7bc7 953d 63b2 893b
000001c0: 0508 823c f5ab 26be d636 7fbd a841 e93d
000001d0: f970 4cbd aae2 093e e76e 39be 6840 ddbd
000001e0: 44aa 66bd e027 f93d 44db 983c 0e44 5dbd
000001f0: f608 14be 8027 fcbc 9539 dcbd 3755 41bd

convs.0.bias f4 [32]
0.13065146 -0.0117057385 0.072451495 -0.20007998 0.069545075 0.028174067 0.09060221 0.15650998
0.1792814 -0.010482276 0.03190331 0.14549775 -0.087939456 -0.17006913 -0.12083178 0.054569926
0.051909544 0.19393788 0.122899294 -0.105306275 0.03316435 -0.2274693 0.15752052 0.03331074
0.020799603 -0.07500533 -0.07493762 0.040991377 0.08742117 -0.08074602 0.14604346 0.025996491
00000000: 7fc9 053e 6dc9 3fbc 7361 943d c4e1 4cbe
00000010: a66d 8e3d 4dcd e63c a78d b93d 2744 203e
00000020: 8b95 373e dabd 2bbc 0cad 023d 5dfd 143e
00000030: 9a19 b4bd 9a26 2ebe a776 f7bd b784 5f3d
00000040: 1a9f 543d a797 463e a0b2 fb3d d1aa d7bd
00000050: 57d7 073d b6ed 68be 0f4d 213e d870 083d
00000060: ee63 aa3c 659c 99bd e578 99bd 93e6 273d
00000070: df09 b33d 2b5e a5bd 6b8c 153e 98f6 d43c

convs.1.basis f4 [4, 32, 32]
-0.057969786 -0.06298603 -0.07187384 -0.059600305 -0.058627136 -0.04840768 -0.20852101 0.03349063
0.05471974 0.013157915 -0.039253242 0.051134814 -0.05480715 -0.07166935 -0.0019730756 0.01471081
0.06689571 0.028165735 0.05752061 -0.009228466 0.024237515 -0.13284606 -0.051870994 -0.04606251
-0.021444855 0.074408144 -0.01944943 0.037320454 0.082424976 -0.0247361 0.011363211 -0.020453036
0.0045479443 -0.016664363 -0.004684058 0.008595478 -0.029192064 -0.012379693 -0.10647363 -0.020722236
-0.006876072 0.017423287 0.011424029 0.041210126 -0.017536353 -0.0028099709 -0.011023082 0.020318707
0.033637222 0.0014021832 -0.005251126 -0.014809915 0.04140943 -0.06234764 -0.02140428 -0.055335276
-0.020314485 0.08381115 0.011065926 -0.08669403 0.020509033 0.013732748 0.026497036 -0.03125941
-0.013906848 0.017192274 0.007596592 -0.039504852 -0.004891912 0.027218869 0.05298837 -0.05303732
-0.016949108 -0.003299766 0.018550647 0.002622535 0.005518436 0.0100237215 0.0077071046 -0.05126285
-0.0035305785 -0.0025227354 -0.007812616 -0.0075640376 -0.0028975382 0.0105909305 0.0021963546 0.0044204933
-0.0030133228 0.018784301 0.017323345 0.033722438 -0.023082003 0.025888119 0.0075302995 0.002457776
-0.026217017 0.0063186944 -0.0124126915 -0.0033248195 0.045026667 -0.007579725 0.071443886 0.03513583
0.02355046 0.022538092 -0.024541741 -0.058006503 0.041939925 -0.03700675 0.0038672592 0.024168639
-0.03718273 0.004262862 0.025982836 0.026181316 -0.035418537 0.042341754 -0.01858409 0.06267466
0.046931893 -0.08891458 -0.04271283 0.05281327 -0.024350768 -0.008675206 -0.019101951 0.04819159
-0.018129256 0.003633488 0.015620343 -0.019062374 -0.0015458089 -0.0052831615 -0.0023299656 0.067779735
-0.003933665 -0.0027254827 0.0052512763 -0.021062749 0.049464937 0.018055651 0.0074751396 -0.019594979
-0.020521112 -0.012197897 -0.024878787 0.01298844 0.006170217 -0.08252705 0.039066795 0.008014164
-0.008566659 -0.009625175 0.010428935 0.048138015 -0.029236248 0.010444948 0.016728267 -0.011647219
-0.016811213 0.0068671037 0.003350969 -0.08244879 0.017212937 0.06233754 0.24457176 0.02602131
0.02850113 -0.014908332 -0.008048744 -0.02005525 0.10274655 0.0027916841 -0.061782584 0.05019166
-0.0043932935 -0.00876677 0.009254402 0.030294199 -0.031346958 0.05758641 -0.034641635 0.040370982
0.08280953 -0.064867325 0.0059593576 0.06987353 -0.0073033753 -0.011373042 0.026868118 0.043030128
-0.02436139 0.0033231915 -0.009453245 0.0053015454 -0.006664096 -0.014116079 -0.0288617 0.01599342
0.0009513436 0.014438966 0.0116203595 -0.004494436 -0.006068925 -0.007347381 -0.003352321 0.024656974
-0.01902578 -0.024750499 0.0058052074 0.015714882 0.002452347 -0.01840633 -0.009297306 0.021288589
0.006173005 -0.010981596 -0.014270714 -0.007124609 -0.008257059 0.0066800085 -0.0027358837 -0.022075288
-0.20731185 -0.06573332 -0.07534533 -0.028493563 -0.053251695 -0.17698169 -0.18816984 0.16709058
0.07482584 0.002260269 -0.07298297 0.04521476 -0.057555158 -0.11438789 -0.007029191 0.20654446
0.06343777 -0.0055121724 0.067598574 -0.00030999316 0.020065356 -0.29604357 -0.0246028 -0.020842444
0.002939321 0.035046034 -0.07497698 -0.1050631 0.10145603 -0.06532305 -0.0006821399 -0.050938725
00000000: ba71 6dbd d2fe 80bd 9832 93bd 731f 74bd
00000010: 0223 70bd 2247 46bd 8886 55be 792d 093d
00000020: ce21 603d 4c94 573c 02c8 20bd bd72 513d
00000030: 767d 60bd 61c7 92bd b74e 01bb 9c05 713c
00000040: 9e00 893d d4bb e63c bb9a 6b3d fe32 17bc
00000050: c18d c63c cc08 08be ae76 54bd 0bac 3cbd
00000060: 1fad afbc 4c63 983d 6954 9fbc 55dd 183d
00000070: 6dce a83d 5da3 cabc c32c 3a3c 208d a7bc
00000080: ec06 953b b483 88bc ba7c 99bb 0cd4 0c3c
00000090: 3224 efbc 32d4 4abc d90e dabd aec1 a9bc
000000a0: ac50 e1bb 48bb 8e3c da2b 3b3c f3cb 283d
000000b0: 66a8 8fbc 7d27 38bb 289a 34bc 6b73 a63c
000000c0: 2fc7 093d 76c9 b73a a311 acbb 49a5 72bc
000000d0: ef9c 293d 3d60 7fbd 0758 afbc 3ea7 62bd
000000e0: 906a a6bc 2ea5 ab3d dc4d 353c a48c b1bd
000000f0: 8f02 a83c 52ff 603c 5010 d93c de09 00bd
00000100: 8cd9 63bc d0d6 8c3c d5ec f83b d7cf 21bd
00000110: 554c a0bb 1bfa de3c 550a 593d a93d 59bd
00000120: dbd8 8abc e340 58bb 87f7 973c d6de 2b3b
00000130: ffd3 b43b 893a 243c e18b fc3b fff8 51bd
00000140: 4761 67bb 7a54 25bb 7d00 00bc bfdb f7bb
00000150: a0e4 3dbb 9585 2d3c b7f0 0f3b c9d9 903b
00000160: 2b7b 45bb 89e1 993c b0e9 8d3c 8a20 0a3d
00000170: 7816 bdbc 5213 d43c bbc0 f63b a412 213b
00000180: 12c5 d6bc 0d0d cf3b 9a5e 4bbc 37e5 59bb
00000190: e26d 383d 575f f8bb 2c51 923d 97ea 0f3d
000001a0: e5ec c03c cea1 b83c c30b c9bc 3a98 6dbd
000001b0: 33c9 2b3d 6494 17bd d871 7d3b 4ffd c53c
000001c0: eb4c 18bd 7aaf 8b3b f5d9 d43c 337a d63c
000001d0: 0713 11bd 8c6e 2d3d a93d 98bc 925b 803d
000001e0: a83b 403d d918 b6bd a6f3 2ebd ba52 583d
000001f0: 437b c7bc 7422 0ebc b27b 9cbc 8b64 453d
00000200: ce83 94bc d01f 6e3b 78ec 7f3c b228 9cbc
00000210: bd9c caba 5f1e adbb 56b2 18bb 1ad0 8a3d
00000220: f9e5 80bb 039e 32bb e612 ac3b c98b acbc
00000230: bf9b 4a3d 72e9 933c 04f2 f43b a685 a0bc
00000240: e41b a8bc b0d9 47bc 99ce cbbc 77cd 543c
00000250: 882f ca3b f103 a9bd 8104 203d d74d 033c
00000260: 2c5b 0cbc e9b2 1dbc 20de 2a3c 5e2c 453d
00000270: db80 efbc 4a21 2b3c b809 893c fad3 3ebc
00000280: abb7 89bc 7105 e13b ee9b 5b3b e9da a8bd
00000290: 2502 8d3c a655 7f3d 0571 7a3e a42a d53c
000002a0: 347b e93c 1442 74bc e1de 03bc e84a a4bc
000002b0: c96c d23d b0f4 363b bc0f 7dbd c595 4d3d
000002c0: 9ef5 8fbb 80a2 0fbc c69f 173c 8a2b f83c
000002d0: ab65 00bd badf 6b3d 63e4 0dbd 0b5c 253d
000002e0: 0b98 a93d 29d9 84bd b746 c33b da19 8f3d
000002f0: 2751 efbb ff55 3abc 871a dc3c 5c40 303d
00000300: 8a91 c7bc e7c9 593b c9e1 1abc 96b8 ad3b
00000310: 7d5e dabb 2047 67bc 5f6f ecbc a204 833c
00000320: 9763 793a 6a91 6c3c 5263 3e3c 1046 93bb
00000330: d5dd c6bb 4dc2 f0bb 9db2 5bbb 6cfd c93c
00000340: f4db 9bbc 8fc1 cabc 9c39 be3b 7fbc 803c
00000350: 8eb7 203b dfc8 96bc ba53 18bc 6865 ae3c
00000360: eb46 ca3b 27ec 33bc b6cf 69bc 8d75 e9bb
00000370: 9e48 07bc f9e3 da3b 834c 33bb 3cd7 b4bc
00000380: 8f49 54be 319f 86bd a74e 9abd 556b e9bc
00000390: 731e 5abd b03a 35be 98af 40be cb19 2b3e
000003a0: 4a3e 993d 0521 143b 1878 95bd 1d33 393d
000003b0: f5be 6bbd 3344 eabd 2155 e6bb 6480 533e
000003c0: a9eb 813d 749f b4bb 1f71 8a3d 9486 a2b9
000003d0: 1a60 a43c 0693 97be d08b c9bc c6bd aabc
000003e0: a0a1 403b 6e8c 0f3d 888d 99bd 532b d7bd
000003f0: 2ec8 cf3d 17c8 85bd a2d1 32ba 20a5 50bd

convs.1.att f4 [10, 4]
-0.10020865 0.18641044 -0.30419493 0.009622095 0.033235565 0.1337418 -0.2657254 -0.003869926
0.1154317 0.09037636 -0.24809995 -0.03116754 0.11795714 0.019177543 -0.21075681 -0.084689826
0.13132975 -0.04694548 -0.1558813 -0.082047 0.05833123 -0.109813295 -0.1158679 -0.095536456
0.06227926 -0.15254414 -0.07458652 0.04317657 0.035725363 -0.1882 0.0002947483 0.097364016
-0.053505726 -0.17466973 0.038555715 0.07991834 -0.18151352 -0.18664539 0.07049674 0.04456163
00000000: 313a cdbd 61e2 3e3e 70bf 9bbe fea5 1d3c
00000010: 0422 083d 9cf3 083e 290d 88be 969e 7dbb
00000020: 7567 ec3d 3e17 b93d ea0d 7ebe 1253 ffbc
00000030: 8393 f13d 391a 9d3c a2d0 57be dc71 adbd
00000040: 4e7b 063e e749 40bd 599f 1fbe 4208 a8bd
00000050: baec 6e3d cbe5 e0bd 264c edbd 9ea8 c3bd
00000060: 8a18 7f3d 8834 1cbe d1c0 98bd ead9 303d
00000070: c254 123d 80b7 40be 7288 9a39 c966 c73d
00000080: d228 5bbd 9fdc 32be 99ec 1d3d 3aac a33d
00000090: aede 39be f81f 3fbe 9860 903d 4186 363d

convs.1.root f4 [32, 32]
-0.034254637 0.035751946 0.029993866 -0.0135881575 0.029716734 -0.029441405 -0.1718684 0.078880236
-0.01642616 -0.02712192 -0.020108344 -0.019761246 -0.060239565 -0.009704465 -0.063711256 0.018256584
0.0004854897 -0.041085213 -0.067519836 0.013095422 -0.065122314 0.0044114175 -0.020160563 0.03473627
-0.013256266 -0.09223391 -0.081044294 0.16570139 -0.01911867 -0.11945644 -0.0776905 0.03804243
-0.013946537 -0.049987547 0.083431035 0.060928036 0.019709723 -0.012791392 0.10205915 0.077442646
0.030374756 -0.06934103 0.02396714 0.05237635 -0.040027775 -0.06733724 -0.00032379996 -0.076406464
0.005314146 -0.019595426 0.09933254 0.030270172 0.012927341 0.05851639 -0.017236888 -0.10478284
0.025440212 0.057290938 -0.03435313 -0.016281258 0.0053464794 -0.052865934 -0.030475736 -0.06261484
0.016131757 0.069089554 0.0030017784 0.074258685 0.026376447 -0.05959355 0.056617025 0.04653101
-0.017633352 -0.01891056 -1.9354302e-05 0.037146203 0.001449962 -0.0041186064 -0.034583673 -0.028340332
0.0022915744 -0.07651792 -0.02396846 -0.038977783 0.024128228 -0.029649073 0.010335124 -0.014434428
0.026588153 0.08150504 0.09327032 0.053412113 0.014763329 -0.073750414 -0.00988683 0.021550452
0.032911062 0.100703314 0.04174247 -0.10106964 -0.010009189 0.030836998 -0.008987762 -0.020295298
-0.026298169 0.062432982 0.10013858 -0.052209374 0.06727758 -0.015410733 0.0018767348 0.046480846
-0.042633988 0.0041946783 0.06893989 0.06537096 -0.031354755 0.0019424871 0.09721589 0.040407103
-0.024021788 -0.0031675645 0.027136499 0.07695229 0.041749775 0.039494794 0.008150252 0.13390088
0.020316727 0.10856633 0.07358728 0.00654719 0.07614274 0.0011864685 0.07860624 -0.04604793
-0.047925238 -0.029829198 -0.088776164 -0.011980903 0.07158946 -0.00893476 -0.08430906 0.04561923
-0.014877555 -0.03944807 -0.037657134 0.050865535 0.083513565 0.14697663 -0.014996579 -0.022995247
-0.029776677 0.05527707 0.010986179 -0.0656323 -0.013977613 -0.01977359 0.06755239 -0.033372752
0.078746565 0.02068262 0.043541536 0.08275912 0.02645965 0.017905934 -0.017834898 0.06530189
0.041721158 0.046585675 0.11142493 -0.11423819 -0.05544943 -0.056536745 0.061921168 0.000504784
-0.1112115 0.024883216 -0.059638996 0.023268031 -0.02559901 0.06500425 0.08349648 -0.031192612
-0.11731565 -0.026422204 0.0010277574 0.18436459 -0.12415718 0.0010118758 -0.0027210023 -0.045030415
-0.039083146 -0.03622562 0.12901445 -0.037189096 -0.05033566 -0.028306492 -0.025958357 -0.047607943
-0.013284898 -0.004870374 -0.062779985 0.010524811 -0.0061561232 0.0440325 -0.06538152 -0.032240607
-0.064275965 -0.018375516 -0.11431313 0.025610244 0.0043482906 0.07728989 0.1237354 0.026950225
0.014574999 -0.0006412239 -0.04619367 -0.07242574 -0.12072091 -0.02849206 0.05430143 0.094155036
0.00087822764 0.042956583 -0.0453918 -0.047955897 -0.033625223 -0.052791197 -0.15597709 -0.042328767
-0.0067992946 0.046262078 0.04316415 -0.042448208 -0.025068836 0.07338572 -0.068638 -0.037838873
-0.0046442123 0.005984899 0.032652866 0.05897882 0.051201466 -0.031900533 -0.0041883155 -0.00952353
-0.060187932 -0.008694958 0.0052017216 0.043681934 0.0053868843 0.0725012 -0.028415719 -0.038462155
00000000: 974e 0cbd a270 123d b2b5 f53c dda0 5ebc
00000010: 8270 f33c 1a2f f1bc 45fe 2fbe f68b a13d
00000020: 2790 86bc ca2e debc 41ba a4bc 56e2 a1bc
00000030: c3bd 76bd 7aff 1ebc 0c7b 82bd d58e 953c
00000040: 5389 fe39 f848 28bd d747 8abd 2e8e 563c
00000050: d95e 85bd a78d 903b c427 a5bc 9e47 0e3d
00000060: cf30 59bc 22e5 bcbd 8dfa a5bd a0ad 293e
00000070: c29e 9cbc 94a5 f4bd 321c 9fbd 61d2 1b3d
00000080: 0480 64bc bebf 4cbd e4dd aa3d ad8f 793d
00000090: 4976 a13c fd92 51bc 6304 d13d 409a 9e3d
000000a0: 7bd4 f83c ac02 8ebd bc56 c43c 9588 563d
000000b0: 2af4 23bd 1be8 89bd b2c3 a9b9 fe7a 9cbd
000000c0: 4a22 ae3b 9686 a0bc dc6e cb3d 27f9 f73c
000000d0: 33cd 533c e2ae 6f3d 6034 8dbc 6398 d6bd
000000e0: fe67 d03c e7a9 6a3d deb5 0cbd 4660 85bc
000000f0: 8531 af3b f389 58bd 40a8 f9bc 363c 80bd
00000100: bf26 843c d37e 8d3d 7cb9 443b f014 983d
00000110: 6b13 d83c 5e18 74bd 41e7 673d 4d97 3e3d
00000120: d273 90bc 52ea 9abc 0c5b a2b7 9e26 183d
00000130: a70c be3a 60f5 86bb 9ca7 0dbd fc29 e8bc
00000140: 3d2e 163b 6db5 9cbd 8159 c4bc 2ba7 1fbd
00000150: 90a8 c53c 9de2 f2bc a754 293c 617e 6cbc
00000160: 66cf d93c 1dec a63d 8204 bf3d a9c6 5a3d
00000170: e4e1 713c 750a 97bd 5ffc 21bc 938a b03c
00000180: c0cd 063d 8a3d ce3d 27fa 2a3d 99fd cebd
00000190: 95fd 23bc df9d fc3c 6841 13bc 5342 a6bc
000001a0: 426f d7bc bab9 7f3d 7515 cd3d 7fd9 55bd
000001b0: d4c8 893d 4d7d 7cbc c5fc f53a b362 3e3d
000001c0: faa0 2ebd 8373 893b 5b30 8d3d 36e1 853d
000001d0: d86d 00bd 0d9b fe3a 2019 c73d eb81 253d
000001e0: 57c9 c4bc ea96 4fbb 5d4d de3c 2a99 9d3d
000001f0: d001 2b3d 4bc5 213d a288 053c 501d 093e
00000200: 446f a63c 0658 de3d eeb4 963d cf89 d63b
00000210: baf0 9b3d 4783 9b3a 4ffc a03d c19c 3cbd
00000220: 414d 44bd 5d5c f4bc 47d0 b5bd 8d4b 44bc
00000230: 7f9d 923d 1963 12bc 3aaa acbd 3bdb 3a3d
00000240: fdc0 73bc 4d94 21bd 5e3e 1abd 6158 503d
00000250: 2909 ab3d 0b81 163e 36b4 75bc 8760 bcbc
00000260: 38ee f3bc 356a 623d 60ff 333c 3a6a 86bd
00000270: 5c02 65bc 39fc a1bc e858 8a3d deb1 08bd
00000280: e145 a13d 996e a93c 9c58 323d 9d7d a93d
00000290: e8c1 d83c 77af 923c 7e1a 92bc ffbc 853d
000002a0: cee3 2a3d 9fd0 3e3d c132 e43d b6f5 e9bd
000002b0: f11e 63bd 1393 67bd 0da1 7d3d 7b53 043a
000002c0: dbc2 e3bd e3d7 cb3c 0548 74bd 999c be3c
000002d0: 04b5 d1bc f320 853d 3400 ab3d a687 ffbc
000002e0: 3043 f0bd 6173 d8bc d1b5 863a 12ca 3c3e
000002f0: 1f46 febd eba0 843a d852 32bb d071 38bd
00000300: a615 20bd 5161 14bd 5d1c 043e 9853 18bd
00000310: c42c 4ebd 04e3 e7bc 9fa6 d4bc 8c00 43bd
00000320: e7a8 59bc a997 9fbb cb92 80bd 4270 2c3c
00000330: 4eb9 c9bb 6c5b 343d bfe6 85bd ba0e 04bd
00000340: 1ea3 83bd 4088 96bc 011d eabd 93cc d13c
00000350: 1b7c 8e3b 294a 9e3d fc68 fd3d b8c6 dc3c
00000360: facb 6e3c cf17 28ba 9335 3dbd f253 94bd
00000370: 863c f7bd 2e68 e9bc 2d6b 5e3d 5bd4 c03d
00000380: dc38 663a 3ef3 2f3d c1ec 39bd 676d 44bd
00000390: 9aba 09bd 953b 58bd 75b8 1fbe ee60 2dbd
000003a0: 9ecc debb 4e7d 3d3d e4cc 303d 2cde 2dbd
000003b0: 295d cdbc 414b 963d 1492 8cbd effc 1abd
000003c0: 7a2e 98bb f91c c43b 03bf 053d c693 713d
000003d0: a1b8 513d 22aa 02bd 233e 89bb 9408 1cbc
000003e0: 9f87 76bd 4c75 0ebc 3473 aa3b d4eb 323d
000003f0: 7684 b03b 827b 943d 15c8 e8bc 7e8a 1dbd

convs.1.bias f4 [32]
-0.07496776 -0.040510844 -0.03583312 -0.037093107 -0.011359712 -0.12267135 -0.040502377 0.07850027
0.029122751 -0.022231888 0.00079489313 -0.035643056 -0.06751479 0.01842968 0.082865216 0.12291773
-0.008396133 0.03878972 0.068569906 0.016867245 -0.008382547 -0.03308899 -0.025579719 -0.065012574
-0.039436135 0.064173035 -0.018218754 -0.10481427 -0.023730554 -0.009368664 -0.023360088 0.027897596
00000000: b288 99bd b3ee 25bd c0c5 12bd f1ee 17bd
00000010: 161e 3abc 1e3b fbbd d2e5 25bd c0c4 a03d
00000020: d692 ee3c a61f b6bc 6060 503a 74fe 11bd
00000030: 3245 8abd d7f9 963c 3db5 a93d 4abc fb3d
00000040: ef8f 09bc f8e1 1e3d 616e 8c3d 2d2d 8a3c
00000050: f356 09bc 5288 07bd 8f8c d1bc 5025 85bd
00000060: c987 21bd 276d 833d 7f3f 95bc dda8 d6bd
00000070: 9466 c2bc 067f 19bc a85d bfbc 8089 e43c

convs.2.basis f4 [4, 32, 32]
0.030939395 -0.005386002 0.019486593 0.04197907 -0.06698691 -0.027236525 -0.0047274735 0.056652304
-0.029954268 0.014521278 -0.005607936 0.043734614 0.038624924 0.004305235 0.026588894 0.010720499
0.026205448 0.038704563 -0.060654715 -0.006001238 -0.04587042 0.020302331 0.04079845 -0.012502158
-0.07145352 0.04167485 0.015999211 0.02262853 0.056960892 -0.04385583 -0.026809655 -0.043579742
-0.024888813 0.05181858 -0.014343173 0.014803381 -0.0011810877 -0.004573827 -0.0035811258 0.006251756
0.034024846 0.015395296 -0.0049897074 -0.03749452 -0.019911567 -0.028611578 0.042646945 0.03099929
0.018211726 -0.01604703 -0.04106046 0.023809822 0.07165515 0.06474943 0.07803741 -0.01699429
0.05156803 -0.11030655 -0.02136671 -0.00041638713 0.031283315 -0.062261887 0.020594524 0.02518123
-0.049942322 0.052299168 -0.026145829 0.020070244 -0.02175558 -0.013750764 -0.022251345 -0.057489503
-0.01701097 0.004901405 0.043016154 0.056979682 -0.004104457 0.046099238 0.051897775 -0.008176584
0.015912397 0.05190768 0.005405046 -0.013870077 0.004652017 0.06789821 0.07659879 -0.02678471
0.083978705 -0.12820141 -0.028135901 0.029635958 0.0034860207 -0.0073746373 -0.009906242 0.04930246
0.012204864 -0.022386929 -0.007997935 0.0206386 0.031229278 0.004155084 0.040338833 0.080810495
-0.007908371 -0.07285013 -0.035260607 -0.03810354 -0.0033331455 -0.053351775 -0.015723154 0.021267863
0.024896163 -0.07863733 0.084119685 0.0019512976 0.018324941 -0.09901286 -0.019332008 0.040191885
0.0005320794 0.007861527 -0.065461725 -0.027612375 0.0041451575 0.03549511 -0.06304978 0.083108954
-0.022596177 0.060967702 -0.044062592 -0.03344904 0.03867594 -0.05036312 -0.07044162 -0.0069424035
-0.06712974 0.024515592 0.01511522 0.013058632 0.019958764 0.020966295 0.02285957 0.06624224
-0.007239821 -0.00277585 -0.045527462 0.017367398 -0.061615188 0.07327441 0.004788328 -0.024897207
-0.014148266 -0.014443379 -0.027387246 -0.0070751975 0.09473753 -0.013021065 -0.039135464 0.013501932
0.0323274 0.013468822 0.0011697365 0.035489175 -0.046592318 -0.018721303 0.047599595 0.017129939
0.024190733 0.052462325 0.017417977 0.053778343 -0.057326086 -0.02021837 0.05936728 0.051445268
-0.005849094 0.0646106 0.018443452 -0.013640626 0.016136821 0.05795821 -0.0018058503 -0.032605037
0.017965365 0.013755464 0.0014301153 0.018505922 0.03297691 -0.04191889 0.049545325 0.0344937
0.037829056 0.030034428 -0.053176712 0.0069888644 0.061522022 0.009785119 -0.11356891 -0.10127934
-0.043885067 0.009259694 0.03192965 0.111376695 0.01383469 -0.04722879 -0.008199736 0.037335675
-0.013125814 0.05399087 -0.0028292686 -0.03184951 -0.0792257 -0.068477154 0.061087474 -0.03141139
-0.02177067 -0.01920899 0.09530565 -0.0022753382 -0.06376639 -0.023292257 -0.00754639 0.00621477
0.08503795 -0.0047399015 -0.030752964 -0.0031997762 0.04479088 0.004454473 0.06596148 -0.060302652
0.010199291 -0.009652536 -0.056670547 -0.011650981 -0.011427463 -0.013738754 0.038338672 -0.031914763
-0.08244299 0.030916411 -0.02067617 -0.007071 -0.010858905 -0.007897084 0.034848202 -0.08941136
0.11813973 -0.09602298 0.010183688 -0.024698146 -0.00022093861 0.055548657 -0.036828816 0.04235604
00000000: 9d74 fd3c 0f7d b0bb 59a2 9f3c 3ff2 2b3d
00000010: 6f30 89bd 221f dfbc ece8 9abb 3f0c 683d
00000020: a762 f5bc a8ea 6d3c c7c2 b7bb 1123 333d
00000030: 2b35 1e3d ee12 8d3b f4d0 d93c 08a5 2f3c
00000040: cfac d63c ad88 1e3d 1471 78bd 08a6 c4bb
00000050: 9fe2 3bbd 1351 a63c 471c 273d dad5 4cbc
00000060: 3956 92bd 3fb3 2a3d c710 833c 785f b93c
00000070: d34f 693d 2ca2 33bd ec9f dbbc ac80 32bd
00000080: a0e3 cbbc b83f 543d a1ff 6abc e189 723c
00000090: bace 9aba 0be0 95bb 52b1 6abb 88db cc3b
000000a0: a35d 0b3d 8d3c 7c3c b380 a3bb db93 19bd
000000b0: 951d a3bc d462 eabc 90ae 2e3d 39f2 fd3c
000000c0: c230 953c 1075 83bc 032f 28bd d10c c33c
000000d0: efbf 923d 599b 843d 14d2 9f3d 9c37 8bbc
000000e0: 0039 533d 67e8 e1bd 3d09 afbc 894e dab9
000000f0: ef22 003d 5206 7fbd d9b5 a83c de48 ce3c
00000100: 5290 4cbd a737 563d c72f d6bc 5a6a a43c
00000110: c238 b2bc e24a 61bc 7448 b6bc 1d7a 6bbd
00000120: 975a 8bbc f79b a03b b531 303d 8763 693d
00000130: ae7e 86bb 8ed2 3c3d c392 543d 14f7 05bc
00000140: b75a 823c 269d 543d d01c b13b 523f 63bc
00000150: f26f 983b 370e 8b3d d4df 9c3d 9c6b dbbc
00000160: 07fd ab3d 3b47 03be 437d e6bc 1cc7 f23c
00000170: b975 643b f1a6 f1bb ca4d 22bc 60f1 493d
00000180: e9f6 473c cb64 b7bc c509 03bc 4812 a93c
00000190: 8bd4 ff3c 5f27 883b 553a 253d f97f a53d
000001a0: 1d92 01bc 7332 95bd 6d6d 10bd 7512 1cbd
000001b0: e770 5abb 6487 5abd d8cd 80bc f139 ae3c
000001c0: 0af3 cb3c 9c0c a1bd f146 ac3d afc2 ff3a
000001d0: 301e 963c 41c7 cabd 295e 9ebc 3fa0 243d
000001e0: 3e7b 0b3a a2cd 003c cc10 86bd 5933 e2bc
000001f0: 1ad4 873b 5263 113d 3e20 81bd 0735 aa3d
00000200: 9e1b b9bc 45b9 793d fa7a 34bd dc01 09bd
00000210: aa6a 1e3d 8f49 4ebd b243 90bd 1a7d e3bb
00000220: 517b 89bd ecd4 c83c d4a5 773c dff3 553c
00000230: 9080 a33c 82c1 ab3c fe43 bb3c 03aa 873d
00000240: 053c edbb 09eb 35bb 017b 3abd 1346 8e3c
00000250: 3560 7cbd e510 963d 68e7 9c3b 3af5 cbbc
00000260: 21ce 67bc eca3 6cbc 385b e0bc 0fd7 e7bb
00000270: c005 c23d 4e56 55bc 824c 20bd 3537 5d3c
00000280: bc69 043d 56ac 5c3c d851 993a 195d 113d
00000290: 96d7 3ebd 6b5d 99bc cbf7 423d 1654 8c3c
000002a0: a52b c63c bce2 563d 25b0 8e3c ae46 5c3d
000002b0: c2ce 6abd ffa0 a5bc 1b2b 733d 46b8 523d
000002c0: c2a9 bfbb 9052 843d b916 973c ef7c 5fbc
000002d0: 5e31 843c 9765 6d3d 48b2 ecba dc8c 05bd
000002e0: 1a2c 933c 995e 613c b572 bb3a bb99 973c
000002f0: cc12 073d 24b3 2bbd 0af0 4a3d 4449 0d3d
00000300: a4f2 1a3d c30a f63c d3cf 59bd d802 e53b
00000310: 84fe 7b3d c451 203c d196 e8bd 8b6b cfbd
00000320: d4c0 33bd f9b5 173c aac8 023d 7719 e43d
00000330: e5aa 623c fa72 41bd 2f58 06bc 4bed 183d
00000340: a70d 57bc 8825 5d3d 406b 39bb a274 02bd
00000350: 1541 a2bd c03d 8cbd dc36 7a3d 3ba9 00bd
00000360: 6758 b2bc 2c5c 9dbc 9c2f c33d d71d 15bb
00000370: f497 82bd 67cf bebc b547 f7bb 45a5 cb3b
00000380: 6028 ae3d 2d51 9bbb a4ed fbbc 56b3 51bb
00000390: a476 373d d4f6 913b d016 873d eaff 76bd
000003a0: ed1a 273c ac25 1ebc 601f 68bd c2e3 3ebc
000003b0: 413a 3bbc 8318 61bc 0309 1d3d 0eb9 02bd
000003c0: dfd7 a8bd 6a44 fd3c 1261 a9bc d9b3 e7bb
000003d0: 8ce9 31bc c562 01bc fdbc 0e3d 4e1d b7bd
000003e0: 3ef3 f13d b2a7 c4bd 7cd9 263c c453 cabc
000003f0: c2ab 67b9 fd86 633d d0d9 16bd 877d 2d3d

convs.2.att f4 [10, 4]
0.014122925 0.0077081597 -0.0019829979 0.018813532 0.006184895 0.010916276 0.007553894 0.008515656
0.013364973 -4.825916e-05 0.014039039 0.01624016 0.025503742 -0.0026402785 0.017728142 0.024327355
0.008705119 0.015543426 0.0011906173 0.0066088904 -0.010720026 0.006615354 -0.01797404 -0.010587188
0.004330196 -0.0026285506 -0.005222751 -0.00480937 -0.0014141415 -0.010981568 0.007470538 0.010693361
0.004110648 0.004859054 0.02439568 0.0114717325 0.010673395 -0.005342533 0.004354451 0.0052294265
00000000: d763 673c bb94 fc3b 2ff5 01bb d61e 9a3c
00000010: a9aa ca3b 2eda 323c a886 f73b 4085 0b3c
00000020: c2f8 5a3c e169 4ab8 ff03 663c 160a 853c
00000030: 39ed d03c 8608 2dbb 9c3a 913c 294a c73c
00000040: ea9f 0e3c dba9 7e3c 7d0e 9c3a 648f d83b
00000050: 0ca3 2fbc 9dc5 d83b 4b3e 93bc e375 2dbc
00000060: 51e4 8d3b c343 2cbb 9c23 abbb eb97 9dbb
00000070: b75a b9ba 09ec 33bc 6acb f43b 3533 2f3c
00000080: 9db2 863b b338 9f3b 73d9 c73c eff3 3b3c
00000090: 77df 2e3c 6a10 afbb c8af 8e3b 9c5b ab3b

convs.2.root f4 [32, 32]
-0.023704467 -0.07538827 0.120463766 -0.04042539 0.026250236 -0.10087893 -0.06204497 -0.005919309
0.067870505 -0.03582483 0.026185928 0.03169294 0.0018466032 0.058220785 -0.051187433 -0.04043804
-0.00039401735 0.034842383 0.02277269 0.024739118 -0.0077497847 -0.09034292 -0.046308063 0.039282702
-0.12940642 0.027497385 0.051649164 -0.0057993713 0.03412414 0.0013258979 -0.053544026 -0.02950843
-0.023520807 -0.048381217 -0.04923193 0.101842836 -0.027053693 0.028408924 0.015351829 -0.0710023
0.0017917164 0.041967656 -0.040469825 -0.07771751 -0.036347706 0.023966158 0.0027263442 0.012105045
-0.052669134 0.026748598 -0.022689573 -0.034532633 0.040722128 0.063037485 -0.003205802 0.054228663
0.0010067059 -0.10082511 -0.086969845 -0.058165524 -0.047402114 0.008886363 0.054422442 0.033571832
0.009804777 -0.12516183 -0.0017798924 0.038954075 0.010254756 -0.08396786 -0.021078939 0.02658231
0.057004694 0.017232092 0.0624526 -0.078249194 -0.009704694 -0.08502509 0.04600277 -0.04934087
0.008043733 0.02272495 0.018039996 0.027261687 -0.027743103 -0.067750886 -0.009431372 0.060867418
-0.060716607 0.043655265 -0.000875508 0.028589146 -0.0010189915 0.03277618 0.024738496 -0.046845146
0.06356069 -0.043615777 0.05420737 -0.06639601 -0.0064110835 0.0050271396 -0.004413288 0.03436814
0.0027193779 0.03181364 0.0909911 0.072891444 0.022625778 -0.0049481336 0.008723896 0.009489287
0.010712593 0.036781423 -0.015593547 -0.030605957 -0.03437783 -0.10313144 0.043503255 -0.03274834
-0.04442176 0.011677534 0.015759887 0.031127201 -0.028377589 -0.044207804 -0.030481396 0.0075508268
0.07346844 0.042623106 -0.056444902 0.041865036 -0.013914729 0.07967062 -0.0047042556 0.009450888
0.024357207 -0.0022822241 0.014981008 -0.009793472 0.07967177 0.020944593 0.09753534 -0.0077458257
0.04222526 0.021641614 -0.051101603 -0.014856474 0.0055823694 -0.04601651 0.071220085 0.03592668
0.060437564 -0.004390648 -0.031033227 -0.046359167 -0.0066098627 0.049392186 0.056225754 0.01763889
-0.06383815 -0.10208735 -0.032437064 0.02767763 0.012952595 0.017837498 -0.06017067 -0.027868627
0.025389265 0.022564044 0.09228406 0.045038827 -0.013762803 -0.025090104 -0.034375165 -0.046952132
0.0020400567 0.029312683 0.01239542 -0.057300646 -0.025726408 -0.08219988 -0.0110538285 -0.0474779
-0.051034603 0.018062362 0.080887295 -0.006958703 0.032692775 -0.010059348 0.022960164 -0.026052635
-0.00955316 0.05125549 -0.044714123 0.081417486 0.03426908 0.038471922 0.033468165 -0.002192179
0.0045269085 -0.002189035 -0.053441692 -0.021399181 -0.027170202 0.006095021 -0.014604701 -0.0030651223
0.018161517 -0.0043068393 -0.004900548 0.023832195 0.07361671 0.17196685 -0.019907683 -0.012794462
0.09056532 -0.045976315 -0.018320983 0.009399026 0.009055734 -0.004688759 0.013717214 -0.0063073663
0.0124341175 -0.062071785 -0.019745886 0.008762946 0.011039568 -0.025109138 -0.0010310899 -0.03635169
0.0527316 -0.004444544 0.0062087607 0.029798431 -0.02146824 0.015679572 -0.01608615 -0.020083908
-0.056789722 -0.0064368383 0.017233972 0.0042232713 -0.042282786 -0.011219364 -0.04477162 0.009967856
-0.023865722 -0.0318995 0.008365816 -0.0070069665 0.023679536 -0.008716516 0.013493017 0.0086408425
00000000: df2f c2bc 2a65 9abd b5b5 f63d 1895 25bd
00000010: bc0a d73c 9d99 cebd de22 7ebd c3f6 c1bb
00000020: b1ff 8a3d 0fbd 12bd df83 d63c 75d0 013d
00000030: b909 f23a eb78 6e3d eaa9 51bd 5ca2 25bd
00000040: 1d94 ceb9 e3b6 0e3d cb8d ba3c b1a9 ca3c
00000050: e8f1 fdbb b505 b9bd 86ad 3dbd e6e6 203d
00000060: 1e83 04be 3242 e13c 138e 533d a708 bebb
00000070: c1c5 0b3d c0c9 ad3a fb50 5bbd aabb f1bc
00000080: b5ae c0bc 622b 46bd 6ca7 49bd fa92 d03d
00000090: b59f ddbc d5b9 e83c 3d86 7b3c a769 91bd
000000a0: 07d8 ea3a 47e6 2b3d b0c3 25bd 5c2a 9fbd
000000b0: 55e1 14bd ad54 c43c 77ac 323b 3d54 463c
000000c0: 97bb 57bd e01f db3c 7cdf b9bc 1772 0dbd
000000d0: 3fcc 263d cc19 813d 6f18 52bb e01e 5e3d
000000e0: 72f3 833a 657d cebd 3f1d b2bd f93e 6ebd
000000f0: b828 42bd 1c98 113c 11ea 5e3d 9e82 093d
00000100: 37a4 203c 6c2a 00be 474b e9ba 4f8e 1f3d
00000110: 9003 283c 57f7 abbd bdad acbc 25c3 d93c
00000120: c17d 693d 512a 8d3c 4cce 7f3d 1d41 a0bd
00000130: 7000 1fbc a221 aebd 676d 3c3d a719 4abd
00000140: ddc9 033c ad29 ba3c 9dc8 933c e753 df3c
00000150: 8145 e3bc fac0 8abd 0b86 1abc 1d50 793d
00000160: fab1 78bd ddcf 323d 5982 65ba c933 ea3c
00000170: ae8f 85ba 5140 063d 63a8 ca3c b2e0 3fbd
00000180: 1b2c 823d 75a6 32bd 8c08 5e3d a2fa 87bd
00000190: 1114 d2bb b4ba a43b 589d 90bb 9bc5 0c3d
000001a0: 9737 323b 054f 023d 8b59 ba3d 1c48 953d
000001b0: b259 b93c f423 a2bb acee 0e3c f478 1b3c
000001c0: df83 2f3c 1ea8 163d 147c 7fbc 58b9 fabc
000001d0: c4cf 0cbd 9436 d3bd 7830 323d 2023 06bd
000001e0: 97f3 35bd 2153 3f3c e11a 813c 79fe fe3c
000001f0: 1e78 e8bc 3e13 35bd 1fb4 f9bc ed6c f73b
00000200: 9f76 963d 9195 2e3d c532 67bd ac7a 2b3d
00000210: 9afa 63bc 5a2a a33d 2826 9abb e6d7 1a3c
00000220: c488 c73c 5e91 15bb e772 753c cc74 20bc
00000230: f42a a33d ff93 ab3c 9cc0 c73d b2d0 fdbb
00000240: 65f4 2c3d c149 b13c ea4f 51bd 9168 73bc
00000250: 4fec b63b cf7b 3cbd d6db 913d db27 133d
00000260: 618d 773d 6ddf 8fbb 6539 febc 1ce3 3dbd
00000270: 8c97 d8bb 764f 4a3d fa4c 663d 6f7f 903c
00000280: 93bd 82bd 2c13 d1bd badc 04bd 32bc e23c
00000290: 1f37 543c f21f 923c 8575 76bd bf4c e4bc
000002a0: 26fd cf3c 3bd8 b83c 6dff bc3d a27a 383d
000002b0: 617d 61bc c389 cdbc f9cc 0cbd e150 40bd
000002c0: 79b2 053b 2721 f03c 2916 4b3c 15b4 6abd
000002d0: 30c0 d2bc 6958 a8bd 1e1b 35bc 3078 42bd
000002e0: a909 51bd 85f7 933c 3da8 a53d d505 e4bb
000002f0: dce8 053d f7cf 24bc f416 bc3c 566c d5bc
00000300: db84 1cbc 47f1 513d 2826 37bd 36be a63d
00000310: bc5d 0c3d bc94 1d3d ea15 093d a9aa 0fbb
00000320: 7656 943b ea75 0fbb ade5 5abd 564d afbc
00000330: 0b94 debc beb8 c73b 8e48 6fbc 38e0 48bb
00000340: 76c7 943c 6320 8dbb c794 a0bb bc3b c33c
00000350: 5cc4 963d 1418 303e 7015 a3bc dd9f 51bc
00000360: 4f7a b93d a951 3cbd e315 96bc 5ffe 193c
00000370: 805e 143c 29a4 99bb 2abe 603c 06ae cebb
00000380: 78b8 4b3c fc3e 7ebd 20c2 a1bc 7692 0f3c
00000390: 4edf 343c aeb1 cdbc a325 87ba 82e5 14bd
000003a0: 17fd 573d 8aa3 91bb dc72 cb3b d71b f43c
000003b0: 2ade afbc 7272 803c 1ac7 83bc 0287 a4bc
000003c0: 579c 68bd 1dec d2bb 422e 8d3c 5e63 8a3b
000003d0: b730 2dbd 6cd1 37bc 7262 37bd 3850 233c
000003e0: 0c82 c3bc 0da9 02bd c710 093c b29a e5bb
000003f0: 96fb c13c b8cf 0ebc d111 5d3c 5292 0d3c

convs.2.bias f4 [32]
0.014930775 -0.024902616 0.0141445575 -0.04385466 -0.014770298 -0.014734525 -0.014039434 -0.0065540057
0.004238265 -0.0011000469 0.014559421 0.020286279 0.021801528 -0.006788214 0.0037604051 -0.008198954
-0.011042181 -0.002821251 -0.0064275907 -0.014669607 -0.029418835 -0.07763712 0.023330994 -0.014959475
-0.03177966 -0.0058623576 0.013032606 0.012855826 -0.012400201 -0.007660237 -0.0067749005 0.0027056276
00000000: 36a0 743c 9200 ccbc 93be 673c f2a0 33bd
00000010: 1fff 71bc 1469 71bc a705 66bc fcc2 d6bb
00000020: 25e1 8a3b 732f 90ba a38a 6e3c 692f a63c
00000030: 1e99 b23c ab6f debb 2171 763b e854 06bc
00000040: 44ea 34bc bde4 38bb 8a9e d2bb cb58 70bc
00000050: c5ff f0bc 3600 9fbd a420 bf3c 9618 75bc
00000060: 642b 02bd 0519 c0bb b686 553c 3ea1 523c
00000070: 362a 4bbc ba02 fbbb fcff ddbb e650 313b

convs.3.basis f4 [4, 32, 32]
-0.0930908 -0.018814173 -0.11174604 0.025053238 -0.0790964 0.030059436 0.02333318 0.030235538
-0.009237801 -0.06254096 -0.078107685 0.10186105 -0.0180466 0.030773142 0.033621896 -0.060113147
-0.0065896 0.010751995 0.018626997 0.024978664 -0.021733519 0.021374049 0.08789966 0.036877133
0.07585077 0.000835611 -0.13624887 -0.06734645 0.008632988 -0.12122554 0.10645283 -0.041037526
0.047462497 -0.09082059 0.06768172 0.047558524 -0.0031523935 0.037234962 -0.09462685 0.029014483
0.069762744 -0.013471711 -0.07743623 0.07677295 -0.036791816 0.0065246727 0.018061278 0.063760094
0.012172244 -0.044494167 0.008060005 0.02010136 0.060384594 -0.0022139314 0.0063065137 0.0061183483
-0.00032871377 0.0759753 -0.046998266 0.077260256 -0.010506348 0.059949365 0.08311568 -0.09767535
-0.029182175 -0.020729769 -0.006552678 -0.07542621 -0.032793816 0.06527072 0.039333895 0.054589134
-0.026330192 -0.09399475 0.034867696 0.03980531 -0.0019523257 0.00533958 -0.022096848 0.036752835
-0.012888332 -0.020740742 0.08757469 -0.026899882 0.017835027 0.065715216 -0.01238833 0.0392067
0.01691619 0.026687749 -0.030747863 -0.024512306 0.029058248 -0.07028425 -0.01571078 0.0004088243
0.00689119 0.030172741 0.023785267 0.04332155 -0.03797758 0.00482039 -0.040707875 -0.033500094
-0.047715776 0.067468256 -0.03675221 -0.002893741 -0.04975329 0.035293166 0.010102156 -0.05026593
-0.012347142 0.0601417 -0.014925873 0.069417566 -0.06609166 -0.0314703 -0.003892447 -0.04378505
-0.0037424185 0.04000806 -0.055929046 -0.000910678 0.09007346 0.01594399 -0.01386965 -0.08893141
-0.053139262 0.045971837 -0.013468383 -0.037256632 -0.0036496706 0.111847 -0.023775427 -0.079891585
0.0022569816 0.029396966 -0.018851496 0.00829035 0.018668192 0.038338117 -0.005242728 -0.018844834
0.037353083 0.059040207 -0.05557425 0.011624723 -0.046115227 -0.022813687 -0.026616888 0.022367032
-0.0938492 -0.016433828 -0.030158192 -0.015032486 0.034731243 0.019812495 0.030405145 -0.032250866
-0.02076812 -0.037559003 -0.051418796 -0.015131148 0.022336097 -0.027367886 0.038151663 0.043403827
0.035765793 -0.0065700314 0.02937008 -0.045855794 0.018904293 0.0372686 0.06297368 0.0027379137
-0.026734343 -0.0026750679 -0.009992086 0.0058520497 0.03221758 0.05399596 0.024548927 0.013219179
0.023059197 -0.03510921 -0.0018169926 -0.023726782 -0.001855 -0.022708355 0.007928689 -0.1442591
-0.00097259175 0.071382545 0.060158726 0.02241924 0.02660261 -0.028022496 0.00040481368 -0.01795543
-0.05471909 0.07156085 -0.047015786 -0.039029602 0.0055428417 -0.045847647 0.07835829 0.006169177
0.06951274 -0.028418222 -0.022681378 0.01314563 -0.030944271 0.02147687 -0.07658555 -0.0961342
-0.020334722 -0.005048114 -0.039304018 0.003304074 0.011608656 -0.008580169 0.036602046 0.07796373
0.04611192 0.042172097 0.009732008 0.0020127716 -0.021687904 -0.03171704 0.011894762 0.0019747799
0.047790248 -0.020074315 0.024590056 0.019919109 -0.017068231 -0.035346575 -0.0007840909 -0.0053616147
0.035707008 0.083211236 0.11592649 0.043772653 0.06060259 0.051683296 0.031113608 0.071364
-0.021251107 0.040547743 0.06473636 0.0043650307 -0.032001793 -0.0054216846 0.012687887 -0.055448327
00000000: 64a6 bebd 2e20 9abc 1cdb e4bd 733c cd3c
00000010: 4bfd a1bd 353f f63c 3a25 bf3c 85b0 f73c
00000020: 255a 17bc 7a15 80bd ecf6 9fbd 879c d03d
00000030: 77d6 93bc f517 fc3c 1db7 093d 3439 76bd
00000040: 92ed d7bb 2329 303c a597 983c 0ea0 cc3c
00000050: 7e0a b2bc a118 af3c bd04 b43d 7a0c 173d
00000060: a657 9b3d e80c 5b3a d384 0bbe f0ec 89bd
00000070: 6071 0d3c 1945 f8bd f103 da3d f716 28bd
00000080: 0968 423d 2500 babd b79c 8a3d bacc 423d
00000090: 6398 4ebb b083 183d b9cb c1bd c8af ed3c
000000a0: c5df 8e3d 74b8 5cbc e396 9ebd 233b 9d3d
000000b0: 04b3 16bd eccc d53b 3ff5 933c a794 823d
000000c0: 176e 473c 843f 36bd 1c0e 043c 9bab a43c
000000d0: d655 773d 9b17 11bb dfa6 ce3b 6d7c c83b
000000e0: 3757 acb9 f098 9b3d 4181 40bd a03a 9e3d
000000f0: d122 2cbc 778d 753d 8e38 aa3d 040a c8bd
00000100: 750f efbc 7ad1 a9bc d9b7 d6bb 0f79 9abd
00000110: cf52 06bd a8ac 853d 941c 213d db98 5f3d
00000120: 6ab2 d7bc 5280 c0bd 6ed1 0e3d e50a 233d
00000130: 2ee5 ffba a5f7 ae3b 7304 b5bc 248a 163d
00000140: 9529 53bc 7de8 a9bc 5c5a b33d 245d dcbc
00000150: c31a 923c b395 863d 6cf8 4abc 3497 203d
00000160: d293 8a3c 44a0 da3c f1e2 fbbc 08ce c8bc
00000170: 900b ee3c 30f1 8fbd e5b3 80bc 7857 d639
00000180: 7ecf e13b d32c f73c 52d9 c23c f071 313d
00000190: 618e 1bbd 5df4 9d3b 4dbd 26bd 6537 09bd
000001a0: 9e71 43bd cc2c 8a3d 7c89 16bd eba4 3dbb
000001b0: 1bca 4bbd 918f 103d 8383 253c a6e3 4dbd
000001c0: ab4b 4abc 2557 763d a68b 74bc cc2a 8e3d
000001d0: 105b 87bd 00e7 00bd 6d18 7fbb f457 33bd
000001e0: 5d43 75bb 7edf 233d db15 65bd 91ba 6eba
000001f0: 6f78 b83d f89c 823c 873d 63bc ac21 b6bd
00000200: 8ea8 59bd f74c 3c3d 7eaa 5cbc 699a 18bd
00000210: 502f 6fbb 0a10 e53d afc4 c2bc 339e a3bd
00000220: dee9 133b e8d1 f03c 746e 9abc 40d4 073c
00000230: 09ee 983c 6e08 1d3d 31cb abbb 7b60 9abc
00000240: 8cff 183d 25d4 713d d3a1 63bd 9f75 3e3c
00000250: 52e3 3cbd c5e3 babc a90b dabc 113b b73c
00000260: 0234 c0bd 3ca0 86bc 500e f7bc d14a 76bc
00000270: 5942 0e3d d04d a23c 3614 f93c 7c19 04bd
00000280: e821 aabc 78d7 19bd 849c 52bd a2e8 77bc
00000290: 31fa b63c 9e32 e0bc eb44 1c3d 36c8 313d
000002a0: 277f 123d 6b49 d7bb 8699 f03c 49d3 3bbd
000002b0: 2ddd 9a3c f6a6 183d 58f8 803d 926e 333b
000002c0: fb01 dbbc 3150 2fbb d9b5 23bc 8dc2 bf3b
000002d0: 95f6 033d de2a 5d3d d51a c93c 4195 583c
000002e0: a4e6 bc3c adce 0fbd 2828 eeba ab5e c2bc
000002f0: 7923 f3ba df06 babc 55e7 013c a8b8 13be
00000300: 87f5 7eba 0331 923d ff68 763d 8ea8 b73c
00000310: b7ed d93c 6f8f e5bc 2c3d d439 4417 93bc
00000320: 2021 60bd 7f8e 923d a093 40bd 81dd 1fbd
00000330: baa0 b53b beca 3bbd 507a a03d cf26 ca3b
00000340: b25c 8e3d 55cd e8bc 4cce b9bc c560 573c
00000350: d77e fdbc 43f0 af3c e3d8 9cbd 02e2 c4bd
00000360: 0195 a6bc a66a a5bb 40fd 20bd 2a89 583b
00000370: 3b32 3e3c d693 0cbc 07ec 153d 73ab 9f3d
00000380: dadf 3c3d a6bc 2c3d 0073 1f3c b4e8 033b
00000390: d5aa b1bc bae9 01bd 3fe2 423c 4f6b 013b
000003a0: b5bf 433d e472 a4bc 1671 c93c 662d a33c
000003b0: add2 8bbc 92c7 10bd 738b 4dba 7cb0 afbb
000003c0: 8341 123d a76a aa3d de6a ed3d f44a 333d
000003d0: 6c3a 783d ddb1 533d f7e1 fe3c 4a27 923d
000003e0: cd16 aebc 6415 263d 7f94 843d 8808 8f3b
000003f0: 5014 03bd 63a8 b1bb dbe0 4f3c c91d 63bd

convs.3.att f4 [10, 4]
-0.007680318 -0.012077145 -0.0059589026 -0.0134219 -0.010523307 -0.009353284 -0.010363213 -0.00959339
-0.003981166 -0.003238863 -0.0072207036 -0.011551388 -0.0005061568 -0.0042472174 -0.016786635 -0.023169344
-0.0026220453 -0.004176439 -0.005611461 -0.009729416 -0.002388369 -0.004126342 0.00076320145 -0.003713888
0.004938247 -0.0025550781 0.004206977 0.0054950747 0.00041322203 0.004164217 0.008180085 0.024772719
-0.0026748602 0.0013568797 -0.0010374178 0.01349278 0.0021456603 0.013153955 0.00049855054 0.011149491
00000000: 2dab fbbb 38df 45bc e642 c3bb 87e7 5bbc
00000010: f369 2cbc 843e 19bc 77ca 29bc 982d 1dbc
00000020: 7174 82bb 1b43 54bb a79b ecbb 0842 3dbc
00000030: 9caf 04ba 3e2c 8bbb 2084 89bc a3cd bdbc
00000040: 9fd6 2bbb 82da 88bb 59e0 b7bb 2168 1fbc
00000050: 2f86 1cbb 4436 87bb 9511 483a b464 73bb
00000060: 05d1 a13b 1973 27bb aeda 893b 0710 b43b
00000070: b9a5 d839 fc73 883b c305 063c 28f0 ca3c
00000080: b54c 2fbb 54d9 b13a f7f9 87ba d210 5d3c
00000090: 359e 0c3b b083 573c 29b1 023a 5bac 363c
