results/flixster_testmode/model_checkpoint4.pth (torch_old, 199981 bytes, 19 tensors)

convs.0.basis f4 [4, 4, 32]
0	0x3e239382	0.15974239
1	0xbe3adbd1	-0.18247916
2	0x3e220758	0.15823114
3	0x3d094a20	0.033517957
4	0x3dc7f531	0.097635634
5	0x3e80c5ad	0.25150815
6	0xbd883406	-0.06650548
7	0xbe3f3c0e	-0.18675253
8	0x3d9a222c	0.07526049
9	0xbe1a5c57	-0.15074287
10	0x3e1f4f9d	0.15557714
11	0xbd0d9245	-0.03456332
12	0xbe37964c	-0.17928427
13	0x3d2390c4	0.03993298
14	0x3dab6b48	0.08370072
15	0xbdeff1c5	-0.11716036
16	0x3d7e2874	0.062050298
17	0xbcb80cf9	-0.022467123
18	0xbe41d806	-0.18930063
19	0x3d73423d	0.05938934
20	0x3d8d164d	0.06889019
21	0x3df60206	0.12012105
22	0xbc235d28	-0.009970941
23	0xbe2cdd5c	-0.16881317
24	0xbc42d829	-0.011892357
25	0xbda8ef40	-0.08248758
26	0xbe11ad7c	-0.14226335
27	0xbd1f88ec	-0.03894894
28	0x3e00228e	0.12513182
29	0x3e78b155	0.24286397
30	0xbe4dd2ff	-0.2010002
31	0xbd7b92db	-0.06141935
32	0xbdc99e33	-0.09844627
33	0xbdadc519	-0.08484859
34	0xbda66fe3	-0.081268094
35	0xbe1c70d7	-0.1527742
36	0xbbfda067	-0.0077400687
37	0x3e690102	0.2275429
38	0xbde0ead7	-0.10982292
39	0xbdebf2c5	-0.11520914
40	0xbe28e3b3	-0.1649311
41	0xbdf9e858	-0.12202519
42	0x3e0a184e	0.13485834
43	0xbe5b5523	-0.21419196
44	0xbe0e92f1	-0.13923241
45	0x3d791827	0.06081405
46	0xbd930cd0	-0.07180178
47	0xbdc18982	-0.09450056
48	0xbe460f3c	-0.19341749
49	0xbe617388	-0.22016728
50	0x3e2dec0a	0.16984573
51	0xbe08312e	-0.1330001
52	0xbe32dd23	-0.1746717
53	0x3dd31fd9	0.10308809
54	0xbc4a6fc8	-0.012355752
55	0xbd33be53	-0.04388268
56	0x3e30abf7	0.172531
57	0x3c8f8328	0.017518595
58	0x3b172857	0.0023064816
59	0xbdd27133	-0.10275497
60	0x3df9a9d4	0.12190595
61	0x3d47d81e	0.04879009
62	0xbdf77b64	-0.12084082
63	0xbc0ae67a	-0.008477801
64	0xbd9ee35b	-0.07758208
65	0xbdcd5f84	-0.10027984
66	0x3e6f4a8d	0.23368283
67	0x3e38dbd5	0.1805261
68	0xbda5a146	-0.08087401
69	0xbe12cbfa	-0.14335623
70	0x3d88eb22	0.06685473
71	0xbe26732c	-0.16254872
72	0xbded61eb	-0.11590942
73	0xbdff3db2	-0.12462939
74	0xbd9188cd	-0.07106171
75	0x3d69f01c	0.05711375
76	0x3e40b68c	0.18819636
77	0x3dfcb3a6	0.12338953
78	0x3d93671f	0.07197403
79	0xbe701f61	-0.2344947
80	0x3d81ede4	0.06344202
81	0xbd798246	-0.060915254
82	0x3e0d99bc	0.13828176
83	0x3e3b444d	0.18287773
84	0x3da6175a	0.08109923
85	0x3e05a567	0.13051377
86	0xbe89f40a	-0.26944
87	0xbe675c88	-0.22593892
88	0xbe81bcab	-0.25339255
89	0xbe0327b0	-0.12808108
90	0xbe015f0e	-0.12633917
91	0x3c49c8d9	0.012315952
92	0xbdf062a8	-0.11737567
93	0x3d648f4d	0.055800725
94	0xbb60b6ce	-0.0034288648
95	0x3db06ddc	0.08614704
96	0x3e3b9339	0.1831788
97	0x3e048513	0.12941389
98	0x3d961dbe	0.073298916
99	0xbe0c9c8d	-0.13731594
100	0xbe553ea6	-0.2082468
101	0xbe8fed06	-0.28110522
102	0xbdeba9ea	-0.11507018
103	0xbd933f8a	-0.071898535
104	0x3e825868	0.25458074
105	0x3eb831ec	0.35975587
106	0x3ebd57b7	0.36980984
107	0x3e23a7a6	0.15981922
108	0xbd0e2a40	-0.03470826
109	0xbd37a72d	-0.044837166
110	0xbda3a5ee	-0.07990633
111	0x3c4c2510	0.012460008
112	0xbe8fc456	-0.2807948
113	0xbe1d7703	-0.1537743
114	0xbdf1b4d2	-0.11802067
115	0xbcd15090	-0.02555111
116	0x3d64b9d5	0.055841286
117	0xbea1901d	-0.31555262
118	0xbe302b26	-0.1720396
119	0x3db83faf	0.08996522
120	0xbe43353f	-0.1906328
121	0x3e160773	0.14651279
122	0xbde9e498	-0.11420554
123	0xbe2452c2	-0.16047195
124	0xbd7aa1e7	-0.06118956
125	0x3e49c8ae	0.1970546
126	0x3da9f898	0.082993686
127	0xbc858671	-0.016299458
128	0x3d4fb525	0.050709862
129	0xbd90322f	-0.07040822
130	0x3d3e326f	0.046434816
131	0x3dc1e67c	0.094677895
132	0x3d6bd3db	0.057575088
133	0x3e6ac5b6	0.22926983
134	0x3d989a4a	0.07451303
135	0xbdbf9aed	-0.093557216
136	0x3a718b67	0.0009214193
137	0xbd058d57	-0.032605495
138	0xbd0121f6	-0.03152653
139	0xbc1bf294	-0.009518284
140	0xbe1e3e3c	-0.15453428
141	0x3d2b61e3	0.0418414
142	0x3ddeeb80	0.10884762
143	0xbe215d29	-0.15758194
144	0xbdb0c2dd	-0.08630917
145	0xbdab04a2	-0.08350493
146	0xbcc1479d	-0.023593718
147	0x3b0112be	0.001969501
148	0x3d073312	0.03300769
149	0x3e062f31	0.1310394
150	0x3e159490	0.14607453
151	0xbe321a75	-0.17392905
152	0x3d8ac8b3	0.067765616
153	0xbe1599c7	-0.14609443
154	0x3dcb2599	0.099192806
155	0x3c95e9aa	0.018299896
156	0xbb2dd9c4	-0.0026527504
157	0x3e27610e	0.16345617
158	0xbe2acdf4	-0.16680127
159	0xbe0c2cbb	-0.13688938
160	0xbc9c89e5	-0.019108722
161	0x3d0badf6	0.03410145
162	0xbdcd8c5e	-0.100365385
163	0x3d89ccc3	0.06728508
164	0x3cde1ace	0.02711239
165	0x3e507578	0.20357311
166	0xbdc6bdf3	-0.09704199
167	0xbcd86786	-0.026416551
168	0x3c895b10	0.016767055
169	0xbd983831	-0.07432593
170	0x3db00ae6	0.08595829
171	0xbe8144dd	-0.2524785
172	0xbe0e4cac	-0.13896435
173	0xbca89661	-0.020579519
174	0x3db31e8d	0.087460615
175	0xbcba9cbe	-0.022779819
176	0xbe22a3c4	-0.15882784
177	0xbe44c54d	-0.1921589
178	0x3deffcf4	0.11718169
179	0x3d951716	0.07279794
180	0xbe2ea4ff	-0.17055129
181	0xbcb74910	-0.022373706
182	0x3d3ac6b9	0.045599673
183	0xbd82a4a5	-0.0637906
184	0x3e4707c9	0.19436564
185	0xbdb5fa32	-0.088856116
186	0x3c7989b2	0.015230583
187	0xbd94e84e	-0.07270871
188	0x3d9239e9	0.07139952
189	0x3e35a787	0.17739688
190	0x3bdc9eff	0.006732821
191	0x3e0faae3	0.14030032
192	0xbca3b4a6	-0.0199836
193	0x3cdaa8f6	0.026691895
194	0xbd58b456	-0.052906357
195	0x3d2f2b64	0.04276599
196	0x3d97004f	0.07373106
197	0x3e128c89	0.14311422
198	0xbd8f91cc	-0.070102304
199	0xbdd36f7d	-0.10323999
200	0xbe6440eb	-0.22290389
201	0xbc8c1911	-0.017101796
202	0xbe1b9d95	-0.15196832
203	0xbd957448	-0.072975695
204	0x3e477fa0	0.19482279
205	0xbcd06c97	-0.025442405
206	0xbe5137d4	-0.20431453
207	0xbe831e3f	-0.25609013
208	0x3e6bd952	0.2303212
209	0xbd565c0b	-0.052333873
210	0x3e06e243	0.1317225
211	0x3e42dab5	0.19028743
212	0xbe125665	-0.1429077
213	0xbd8853ab	-0.066565834
214	0xbe0eb1cf	-0.13935016
215	0xbe84af50	-0.25915003
216	0xbe5f3891	-0.21798922
217	0xbcfd28aa	-0.03090318
218	0x3dc62df8	0.096767366
219	0xbd2951f4	-0.041337922
220	0xbd66e6cb	-0.056372445
221	0xbd408963	-0.047006022
222	0xbcf186a3	-0.029483145
223	0x3c424216	0.011856576
224	0xbd0b7bc2	-0.03405357
225	0x3e7d2a5e	0.24723193
226	0x3cb22fca	0.021751303
227	0xbd86d21f	-0.06583046
228	0x3e1ac016	0.15112337
229	0xbe12ff97	-0.14355312
230	0x3d21426f	0.039369997
231	0xbe5c60a5	-0.21521242
232	0x3e5db763	0.21651988
233	0x3e84da53	0.25947818
234	0x3e8e8591	0.27836278
235	0xbeabfbcb	-0.3359054
236	0xbe2c417a	-0.16821852
237	0xbd92ac46	-0.07161765
238	0xbe03a706	-0.12856683
239	0x3d2d19b4	0.04226084
240	0xbe1a832e	-0.15089104
241	0xbe247e28	-0.1606375
242	0xbe33949f	-0.17537163
243	0xbdf7e9ee	-0.121051654
244	0x3d80bcdd	0.06286023
245	0xbe9d572a	-0.30730563
246	0x3e4d10cd	0.2002594
247	0x3dc63b00	0.09679222
248	0x3d937b25	0.07201222
249	0x3e183bea	0.14866605
250	0x3e7c9c17	0.24668919
251	0xbd317c28	-0.043331295
252	0xbd22d69d	-0.039755452
253	0x3e12d420	0.14338732
254	0xbe444292	-0.1916602
255	0xbe2b1f3b	-0.16711132

convs.0.att f4 [10, 4]
0	0xbd725da7	-0.059171345
1	0xbe33f343	-0.17573266
2	0x3e3ad9d5	0.18247159
3	0x3d8acd1a	0.06777401
4	0xbd4105da	-0.04712472
5	0xbd3227b8	-0.04349491
6	0x3d8d5d39	0.069025464
7	0x3d0cb3a7	0.034351017
8	0xbe1376ac	-0.14400738
9	0x3e18c7e5	0.14920004
10	0x3e622cb6	0.22087368
11	0xbcde9d16	-0.027174514
12	0xbe4d0c09	-0.20024122
13	0x3e241ab4	0.16025811
14	0x3dbeaee4	0.093107015
15	0xbdae52b0	-0.08511865
16	0x3dbeedd6	0.09322707
17	0xbdb04649	-0.08607156
18	0x3dab343d	0.08359573
19	0x3d22d42c	0.039753124
20	0xbdd11735	-0.102095045
21	0x3e8275d0	0.2548051
22	0x3e8db956	0.27680463
23	0x3e45107a	0.19244567
24	0xbbd8109d	-0.0065937773
25	0x3e16a2ce	0.14710543
26	0x3d9cdf62	0.076597944
27	0x3d9b6184	0.07586959
28	0x3daff084	0.085907966
29	0x3e6007d0	0.2187798
30	0x3e52be2c	0.20580357
31	0x3e0b9bb2	0.13633612
32	0x3e337d54	0.17528278
33	0x3e556b62	0.20841745
34	0x3df834c9	0.12119443
35	0xbb6d05a0	-0.0036166683
36	0x3e970bb3	0.29501113
37	0x3dd0d54c	0.10196933
38	0x3c9b6003	0.01896668
39	0xbe416a9e	-0.18888327

convs.0.root f4 [4, 32]
0	0xbdd70bb3	-0.10500278
1	0x3d70ff89	0.058837447
2	0x3da1c1e4	0.0789831
3	0x3e17a92b	0.14810626
4	0x3e3379d7	0.17526947
5	0x3d54b3af	0.051929172
6	0xbdd0e545	-0.1019998
7	0xbe6ddcb3	-0.23228721
8	0x3e325ff7	0.1741942
9	0x3ea96115	0.3308188
10	0x3e95a6b0	0.29228735
11	0xbcb8c881	-0.022556545
12	0x3e2240a3	0.1584497
13	0x3dc00f73	0.09377947
14	0xbdacac22	-0.08431269
15	0xbe2dbfa3	-0.16967635
16	0xbdce0344	-0.100592166
17	0x3e59c472	0.21266344
18	0x3d6ed081	0.058304314
19	0xbe579e02	-0.21056369
20	0x3debd092	0.11514391
21	0xbd959799	-0.073043056
22	0x3dd75560	0.10514331
23	0x3e500a7e	0.20316502
24	0xbd8cfd78	-0.06884283
25	0x3e4b3237	0.19843374
26	0x3c0e6300	0.008690596
27	0xbe962e0b	-0.29332003
28	0x3d8851de	0.0665624
29	0xbe5813ea	-0.21101347
30	0x3cf7122b	0.03016003
31	0xbe6400db	-0.22265951
32	0x3e0a933d	0.1353273
33	0x3e884e73	0.26622352
34	0xbe0f4010	-0.13989282
35	0x3dbd6914	0.09248558
36	0xbdbfc92a	-0.09364541
37	0xbe48373f	-0.19552325
38	0xbda3b14c	-0.07992801
39	0xbe8a1789	-0.2697108
40	0xbcd2dc7d	-0.025739903
41	0xbe6de957	-0.23233543
42	0x3e5c1e98	0.21496046
43	0x3e3b5b63	0.1829658
44	0x3e9e3b31	0.30904534
45	0x3e53204f	0.20617794
46	0xbe159ab9	-0.14609803
47	0x3e5f2d19	0.21794547
48	0x3c51e9c7	0.0128120845
49	0x3dc4416b	0.0958279
50	0x3db7a56b	0.08967098
51	0xbdf01a93	-0.11723819
52	0x3ce92f75	0.028465012
53	0xbe6db900	-0.23215103
54	0xbe472601	-0.19448091
55	0xbeab6750	-0.3347726
56	0xbe7eea1e	-0.24893996
57	0xbdbedc0f	-0.093193166
58	0x3e88dd50	0.26731348
59	0x3e02a2a7	0.1275736
60	0x3d4a456c	0.049382612
61	0xbdb743c8	-0.08948475
62	0x3e835b39	0.25655535
63	0x3e87d650	0.26530695
64	0x3e0446c3	0.12917618
65	0x3dfae02e	0.1224979
66	0x3dc0945a	0.09403296
67	0xbd9443dc	-0.07239506
68	0xbe49d270	-0.19709182
69	0xbe287c1d	-0.16453595
70	0xbe12efa2	-0.14349225
71	0xbd64489d	-0.055733312
72	0x3c34f54e	0.011044813
73	0xbd4817de	-0.048850887
74	0xbe725788	-0.23666203
75	0x3d940df7	0.07229226
76	0xbd83dc1b	-0.06438466
77	0x3e5d7783	0.21627621
78	0xbcbfb56f	-0.023401944
79	0x3c63a2bb	0.013893778
80	0xbe31c314	-0.17359573
81	0xbd6a8ed5	-0.05726512
82	0xbe4b15ad	-0.19832487
83	0x3e0db7a5	0.13839586
84	0x3d54f85f	0.051994678
85	0x3e1066fa	0.14101782
86	0xbdaa172b	-0.083052
87	0x3e2e5050	0.17022824
88	0x3db15eb4	0.08660641
89	0x3e2b94e4	0.16756016
90	0x3cb9c64d	0.022677565
91	0xbe42e2bf	-0.1903181
92	0xbd8b21e2	-0.06793572
93	0xbe019959	-0.12656154
94	0x3de73dde	0.11291097
95	0x3d7191f0	0.058977067
96	0xbcf51253	-0.029915964
97	0xbdf77a45	-0.12083868
98	0xbb3a534d	-0.0028430999
99	0x3e3586af	0.17727159
100	0x3e2c4eed	0.16826983
101	0xbddd4536	-0.108042166
102	0x3d28f645	0.041250486
103	0xbe393611	-0.18087031
104	0xbe246292	-0.16053227
105	0x3e818b2a	0.25301486
106	0xbe013ea2	-0.12621549
107	0xbdba2a86	-0.09090142
108	0x3e33fa1d	0.1757588
109	0xbc16f7f5	-0.009214391
110	0xbce1b3bc	-0.027551524
111	0x3da3dfce	0.08001672
112	0x3dcf81e2	0.10132195
113	0xbdd07437	-0.10178416
114	0xbc34ecc0	-0.011042774
115	0x3e43c3fc	0.19117731
116	0xbdf8a3b0	-0.12140596
117	0x3d130d5d	0.035901416
118	0xbe580923	-0.21097235
119	0xbe4c9b6c	-0.19981164
120	0xbd99e1a8	-0.07513744
121	0x3e4cf822	0.2001653
122	0xbe287c12	-0.16453579
123	0xbd88eb45	-0.06685499
124	0xbe76d080	-0.24102974
125	0xbe381110	-0.17975259
126	0x3c96e31c	0.018418841
127	0xbe6f3158	-0.23358667

convs.0.bias f4 [32]
0	0x3e0fc2ab	0.14039104
1	0x3bb0f5a3	0.005400376
2	0x3e5c7e47	0.21532546
3	0xbe91bc38	-0.28463912
4	0x3e4c0868	0.19925082
5	0xbcb8e237	-0.022568805
6	0x3e229213	0.15876035
7	0x3df84681	0.121228226
8	0x3e276373	0.1634653
9	0xbce9b125	-0.028526852
10	0x3a36ff54	0.0006980796
11	0x3e836111	0.25659993
12	0xbd4e2375	-0.050326783
13	0xbe817e6e	-0.2529177
14	0xbe75a4af	-0.23988603
15	0x3d8838c2	0.06651451
16	0x3e26be96	0.1628364
17	0x3e73ab5d	0.23795839
18	0x3e550fb8	0.20806777
19	0xbd9ee07b	-0.0775766
20	0x3e1169f8	0.1420058
21	0xbe8e6548	-0.27811646
22	0x3e1b048c	0.15138453
23	0xbabbb3ab	-0.0014320513
24	0xbc70e5b6	-0.014703205
25	0xbd33fc81	-0.04394198
26	0xbe0c8753	-0.13723497
27	0xbbe18519	-0.0068823216
28	0x3d92141d	0.071327426
29	0xbe2f4dd9	-0.1711954
30	0x3e4f7ce2	0.20262483
31	0xbd6a7811	-0.05724341

convs.1.basis f4 [4, 32, 32]
0	0xbcdb54e6	-0.026773881
1	0xbd2986a8	-0.041388184
2	0x3d4435e3	0.047902953
3	0xbd2b113e	-0.04176449
4	0x3d8d6832	0.06904639
5	0xbd2101b2	-0.039308257
6	0xbcd7daec	-0.026349507
7	0xbd0d57a1	-0.034507398
8	0x3d2fbef2	0.04290671
9	0x3b4539c8	0.0030094255
10	0x3d94cc07	0.07265478
11	0xbd2bc45d	-0.041935313
12	0xbd84bcc0	-0.06481314
13	0x3df96e21	0.121792085
14	0x3dc90a2b	0.098163925
15	0xbdb786c3	-0.08961251
16	0xbd895b76	-0.06706898
17	0x3d4b455d	0.049626697
18	0xbb4eb735	-0.0031542305
19	0xbca4f80b	-0.020137807
20	0x3ae76bd2	0.0017656034
21	0x3d6068f3	0.054787587
22	0x3d7c2d73	0.06156678
23	0x3d51f6b5	0.05126067
24	0x3d14b375	0.036303956
25	0x3d8ef5a9	0.0698045
26	0x3c4762ad	0.012169522
27	0x3cb2a1d4	0.021805681
28	0xbcd25bea	-0.025678594
29	0x3bad3597	0.0052859294
30	0x3c76f1f5	0.0150723355
31	0xbd535b03	-0.051600467
32	0xbd5c8475	-0.05383726
33	0x3c221133	0.009891796
34	0xbd5519e8	-0.05202666
35	0xbdbf25cd	-0.09333382
36	0xbd40505f	-0.046951648
37	0x3d0ce6b3	0.0343997
38	0xbdae360d	-0.08506403
39	0x3c350c93	0.011050361
40	0xbd419d53	-0.047269177
41	0xbd898409	-0.06714637
42	0x3d829729	0.06376488
43	0xbdaf9ca6	-0.085748
44	0x3c7496c7	0.014928526
45	0x3d994fca	0.07485922
46	0xbdc59796	-0.09648053
47	0x3e120591	0.14259936
48	0xbd351253	-0.04420693
49	0x3c74b4d2	0.014935689
50	0xbc202c67	-0.009776211
51	0x3d89055b	0.066904746
52	0x3c465e48	0.012107439
53	0xbd2622db	-0.040560585
54	0xbb8d8fbf	-0.0043201144
55	0x3d7fe394	0.062472895
56	0x3d5887f9	0.05286405
57	0xbcca074d	-0.024661684
58	0xbd62d8ed	-0.055382658
59	0xbdaa88a9	-0.08326847
60	0x3c2cf731	0.010556982
61	0xbd5de39b	-0.05417214
62	0x3b00c4a0	0.0019648448
63	0x3d91041d	0.07080863
64	0x3e13da6f	0.14438795
65	0x3d396b9f	0.04526865
66	0x3d9f157d	0.077677704
67	0xbcd6baba	-0.026212085
68	0xbd14e5fb	-0.03635214
69	0xbd627256	-0.05528482
70	0x3e077760	0.13229132
71	0xbe4792b3	-0.19489555
72	0x3be40485	0.0069585466
73	0xbd9fa6db	-0.07795497
74	0x3d871854	0.06596437
75	0x3d582f1a	0.052779295
76	0xbd992728	-0.074781716
77	0xbd8557a6	-0.06510858
78	0x3cf8000f	0.030273465
79	0xbe3203a0	-0.17384195
80	0xbccefc15	-0.025266686
81	0xbda05f41	-0.07830668
82	0x3d6ecabf	0.058298822
83	0xbcaf5b6a	-0.021405894
84	0xbb96e854	-0.0046053324
85	0x3cb273cc	0.021783732
86	0xbd812d81	-0.06307507
87	0x3d98b504	0.07456401
88	0xbdb05dad	-0.08611617
89	0xbd708b80	-0.058726788
90	0x3d982c5e	0.07430337
91	0x3d38f09d	0.04515134
92	0x3b1547cc	0.002277839
93	0xbcaa89b0	-0.020817608
94	0xbd04aee8	-0.032393366
95	0xbd94c672	-0.07264413
96	0xbd9cf611	-0.07664121
97	0xbd8b18c1	-0.06791831
98	0x3d70864f	0.058721837
99	0x3d7e37a5	0.062064786
100	0x3d35e219	0.044405077
101	0x3bd96701	0.0066345935
102	0xbcd25988	-0.025677457
103	0x3cacb9be	0.021084663
104	0xbc02bcdc	-0.007979598
105	0x3c94f13d	0.018181438
106	0xbbb07587	-0.005385104
107	0xbc68bacd	-0.014204693
108	0xb921955b	-0.00015409796
109	0xbcf5d1cf	-0.030007271
110	0xbd027346	-0.031848215
111	0x3d8e33ed	0.06943498
112	0x3d80d631	0.06290854
113	0xbdaa2bda	-0.08309145
114	0x3c0c3630	0.008557841
115	0xbd694db7	-0.05695888
116	0x3d1e08a1	0.038582448
117	0x3d29448f	0.04132515
118	0xbc997bc4	-0.018735774
119	0xbc2577eb	-0.010099391
120	0xbd44bd14	-0.04803188
121	0xbd0176b4	-0.031607345
122	0x3bc151eb	0.005899658
123	0x3c9d1fa3	0.019180125
124	0x3d847718	0.06468028
125	0xbb49700c	-0.003073695
126	0xbb327abf	-0.0027233807
127	0xbc305524	-0.010762487
128	0x3e27a9f1	0.16373421
129	0xb9652382	-0.0002185237
130	0x3d5ccddd	0.053907264
131	0x3de6d0ec	0.112703174
132	0x3cf2abf2	0.029623006
133	0xbd482e39	-0.048872206
134	0x3d27dbe2	0.04098118
135	0xbdf85f43	-0.12127545
136	0x3d55c5dd	0.05219065
137	0x3ca54ead	0.020179117
138	0x3de946f9	0.1139049
139	0xbd4a4fcf	-0.049392518
140	0x3d1d9b07	0.038477924
141	0x3af8784b	0.0018956749
142	0x3dda49aa	0.106585816
143	0xbd4cf238	-0.050035685
144	0x3ca0a5d7	0.019610329
145	0x3cc5a67b	0.024127236
146	0xbd5cf737	-0.0539467
147	0x3d424917	0.047432985
148	0x3d3e8c96	0.046520792
149	0xbba32fd6	-0.0049800677
150	0x3dac263d	0.08405731
151	0xbd5d6176	-0.054048024
152	0xbcfa8608	-0.03058149
153	0xbc37ded7	-0.011222563
154	0xbd3cb899	-0.046074484
155	0x3dadeeeb	0.084928356
156	0xbdaccef5	-0.084379114
157	0x3da4e174	0.08050814
158	0xbd6c12e9	-0.05763522
159	0xbb73919c	-0.0037165647
160	0x3ccc10bc	0.024910323
161	0xbd8a6100	-0.067567825
162	0xbcbdf3e5	-0.023187587
163	0xbc3d12bc	-0.011540111
164	0x3dadce8e	0.08486663
165	0xbd08436d	-0.033267427
166	0x3bf1996c	0.0073730256
167	0xbc4702c0	-0.012146652
168	0x3d8598d7	0.065232925
169	0xbd6ea361	-0.05826128
170	0xbc0a7a3f	-0.008451997
171	0xbb32e00b	-0.0027294185
172	0xbcf02410	-0.029314071
173	0x3d43949e	0.047749154
174	0xbc9ba10c	-0.018997692
175	0x3dd21e30	0.10259664
176	0x3d7cc4ad	0.061711002
177	0xbcc283bb	-0.023744455
178	0xbcbd9069	-0.02314015
179	0x3c99c094	0.018768586
180	0x3dae4f70	0.08511245
181	0xbd26bdb3	-0.040708255
182	0xbabfd9f3	-0.0014637097
183	0x3d1fb3d1	0.038989846
184	0x3c3d005c	0.01153573
185	0x3d884f35	0.066557325
186	0x3c92cbb5	0.0179194
187	0x3d27b535	0.040944297
188	0x3deaec63	0.114708684
189	0xbd098400	-0.03357315
190	0xbc98b124	-0.018639155
191	0x3c46d38d	0.012135399
192	0xbc6ed5d8	-0.0145773515
193	0xbd6560d0	-0.05600053
194	0xbdce32ce	-0.10068284
195	0x3d198562	0.03748072
196	0x3d804eb9	0.06265015
197	0x3d531d11	0.05154139
198	0x3d4a6835	0.049415786
199	0xbddd4676	-0.10804455
200	0xbc6598aa	-0.014013449
201	0xbd14fc4d	-0.036373425
202	0x3d867324	0.0656493
203	0xbc951bb6	-0.01820169
204	0x3c50f297	0.01275315
205	0xbcf20f89	-0.029548423
206	0x3d5710ef	0.052506384
207	0xbe08413d	-0.13306136
208	0xbda6c338	-0.08142704
209	0x3db0e401	0.08637238
210	0x3d810108	0.06299025
211	0x3d1afdb3	0.037839603
212	0x3d010539	0.03149912
213	0x3d9b85f7	0.07593911
214	0x3d91988e	0.071091756
215	0x3d4814df	0.04884803
216	0xbce383fd	-0.027772898
217	0xbde757b7	-0.11296027
218	0xbd16d9f9	-0.03682897
219	0x3dc03cfc	0.09386632
220	0xbdf6f628	-0.12058669
221	0xbd2a6540	-0.041600466
222	0x3cb04b20	0.021520197
223	0x3d56efd5	0.052474815
224	0xbe2bd786	-0.16781434
225	0x3dd1acc3	0.1023803
226	0xbc7dd436	-0.01549249
227	0xbd868650	-0.06568587
228	0xbd454022	-0.048156865
229	0xbae95075	-0.0017800467
230	0xbe2412b3	-0.16022758
231	0x3dacd203	0.08438494
232	0xbd89bac7	-0.06725078
233	0x3d9982ae	0.07495628
234	0xbcccc808	-0.024997726
235	0xbe02de8a	-0.12780204
236	0x3ce30bbc	0.027715556
237	0xbd10be0b	-0.03533749
238	0x3db922a7	0.090398125
239	0x3d9b9f9a	0.07598801
240	0xbca19981	-0.019726517
241	0x3dba69d8	0.09102219
242	0xbe03ebf3	-0.12882976
243	0x3d33738f	0.043811377
244	0x3ce3dd61	0.027815523
245	0xbe102089	-0.14074911
246	0x3da7fc61	0.08202434
247	0xbcc4a41f	-0.02400404
248	0xbd7a006c	-0.06103556
249	0xbd0173f9	-0.03160474
250	0x3ddcb3b8	0.10776466
251	0xbdaf2003	-0.085510276
252	0x3d5132a9	0.051073704
253	0x3d3f65b0	0.046727836
254	0xbb1646a7	-0.0022930296
255	0x3ca4ad37	0.020102127

convs.1.att f4 [10, 4]
0	0x3d5644e0	0.052311778
1	0x3d14ff69	0.03637639
2	0xbe345a68	-0.17612612
3	0xbda1e425	-0.07904843
4	0x3db7e46e	0.089791164
5	0x3d945577	0.072428636
6	0xbe51b52f	-0.20479272
7	0xbb0f7191	-0.002188776
8	0x3e09fe78	0.13475978
9	0x3d9a6172	0.075381175
10	0xbe3f139f	-0.18659829
11	0xbcdbf80b	-0.026851675
12	0x3df4c1de	0.1195104
13	0x3d3dcc13	0.0463372
14	0xbe00b87c	-0.12570375
15	0xbde51a47	-0.11186653
16	0x3e0e98b8	0.13925445
17	0x3b96e5c0	0.004605025
18	0xbd96d363	-0.073645376
19	0xbd9e5d96	-0.07732694
20	0xbcff2feb	-0.031150779
21	0x3d28a260	0.041170478
22	0xbd22080a	-0.039558448
23	0xbd7ed92f	-0.06221884
24	0xbb3fc7cd	-0.0029263378
25	0xbda2dbe8	-0.079521
26	0xbd352f40	-0.044234514
27	0x3cfb10a9	0.030647593
28	0x3c91a1b2	0.017777298
29	0xbd54e84c	-0.051979348
30	0x3d255d98	0.04037246
31	0x3cdfe3f4	0.027330376
32	0xbd3ae29d	-0.04562627
33	0x3c849c30	0.016187757
34	0x3caeef65	0.021354387
35	0x3d6d02b2	0.0578639
36	0xbd817bdd	-0.06322453
37	0xbd6e3487	-0.058155563
38	0x3d646221	0.055757646
39	0x3c896c3a	0.01677524

convs.1.root f4 [32, 32]
0	0xbd42373c	-0.047415957
1	0x3cc5974e	0.02412
2	0xbc9f220a	-0.01942541
3	0x3cea5e2b	0.028609356
4	0xbc1ed711	-0.0096948305
5	0xbca800c2	-0.020508174
6	0xbe2dae02	-0.1696091
7	0x3d71d81e	0.059043996
8	0x3c55ed97	0.013057134
9	0xbd395081	-0.04524279
10	0x3d78676d	0.06064551
11	0xbce32242	-0.027726296
12	0xbdba5966	-0.09099083
13	0xbc84a31a	-0.016191054
14	0xbb8b0775	-0.0042428323
15	0x3d47fa3f	0.048822638
16	0x3d58ffb7	0.052978244
17	0xbd248524	-0.040166035
18	0xbddbd4f7	-0.10733979
19	0xba84e70a	-0.0010139656
20	0x3cfc2c92	0.030782972
21	0x3c79d37b	0.015248175
22	0x3d3b4fa5	0.04573025
23	0x3c8e3a43	0.017361766
24	0xbdac1c24	-0.08403805
25	0xbcefbd8e	-0.029265191
26	0xbc77d2fd	-0.015125987
27	0x3da4245a	0.08014746
28	0xbd8e0e44	-0.06936315
29	0xbd88fcfd	-0.06688879
30	0x3bf31b20	0.007419005
31	0x3d8fec70	0.07027519
32	0xbd1947e4	-0.037422076
33	0xbac096e0	-0.0014693402
34	0x3d7fd774	0.06246133
35	0xbd8a1b64	-0.067435056
36	0x3cd3c9ed	0.025853122
37	0x3b7fde9c	0.0039042598
38	0x3d74701d	0.059677232
39	0x3d93f3f6	0.07224266
40	0x3d9d2ed0	0.076749444
41	0xbda53e9f	-0.08068585
42	0x3d1ce750	0.038306534
43	0xbbe022bf	-0.0068400796
44	0xbe0cbdec	-0.13744324
45	0xbdb1719d	-0.08664248
46	0x3cf6015e	0.030029949
47	0xbcf6d8cb	-0.030132672
48	0x39f34bec	0.00046405138
49	0xba7ed2e3	-0.00097207556
50	0x3d16cf7a	0.03681896
51	0x3d38f6a4	0.04515709
52	0xbcd9efde	-0.026603635
53	0x3d164f4b	0.036696713
54	0x3d240c09	0.04005054
55	0xbdf143de	-0.11780523
56	0x3ce05dcd	0.027388478
57	0x3ce1ce37	0.027564151
58	0x3dd485c5	0.10377077
59	0xbd871d3d	-0.06597374
60	0xbd4ec159	-0.05047736
61	0xbce3da76	-0.027814131
62	0xbc5bebd0	-0.013422921
63	0x3d5ec89e	0.054390542
64	0xbca63410	-0.020288497
65	0xbc441ab2	-0.011969255
66	0x3d864e2d	0.065578796
67	0xbbdbd817	-0.0067091095
68	0xbce25b80	-0.027631521
69	0xbdbdddce	-0.092708215
70	0x3dcbdf4e	0.09954701
71	0x3dd2bab9	0.10289521
72	0x3b9915f8	0.0046718083
73	0xbce53c8e	-0.027982976
74	0x3c75726a	0.014980892
75	0xbd85e3a3	-0.06537559
76	0x3c8130e4	0.015770383
77	0xbd5396c3	-0.05165745
78	0xbc9e145f	-0.019296823
79	0xbd33cca0	-0.043896317
80	0xbc328261	-0.010895343
81	0xbd9bf63f	-0.07615327
82	0xbd944c9f	-0.07241177
83	0xbd9efc6c	-0.077629894
84	0xbd9d4acc	-0.07680282
85	0x3b4a9d20	0.0030916408
86	0x3d5733f2	0.052539773
87	0x3d384727	0.04498973
88	0x3d1f7458	0.038929313
89	0xbc93ce03	-0.01804257
90	0x3d610d31	0.05494422
91	0xbcf4088c	-0.029789232
92	0x3d0c0e51	0.03419334
93	0xbd0b4307	-0.03399947
94	0xbd3266e1	-0.043555144
95	0x3ba52138	0.0050393604
96	0x3da96c5f	0.08272623
97	0x3d976a7e	0.07393359
98	0xbc9a4c8d	-0.01883533
99	0xbd77e6bf	-0.06052279
100	0xbd87d0d0	-0.06631625
101	0x3d7629a1	0.060098294
102	0xba3c8205	-0.0007191005
103	0xbd67e96f	-0.056619104
104	0xbd6712c7	-0.05641439
105	0x3d800aa6	0.06252031
106	0x3db4d554	0.088297516
107	0x3d9b053a	0.07569356
108	0x3d6ac1a8	0.05731359
109	0xbd2a982c	-0.04164903
110	0xbc747783	-0.014921072
111	0x3d50307e	0.050827496
112	0x3d44c410	0.048038542
113	0xbd99c776	-0.07508747
114	0x3d9bfa5f	0.07616114
115	0x3d49f70c	0.049307868
116	0xbcb2517a	-0.021767367
117	0x3cc27b6d	0.023740495
118	0x3db6007c	0.08886811
119	0x3c050799	0.008119487
120	0xbd269289	-0.04066709
121	0x3cfc5bb6	0.03080545
122	0x3dc0baf8	0.094106615
123	0x3dc56537	0.09638446
124	0x3d7752b8	0.06038162
125	0xbd8ec2a9	-0.06970722
126	0xbc7d71bd	-0.015469012
127	0x3d609097	0.05482539
128	0x3d0ba521	0.034093026
129	0x3dd8a4f5	0.10578338
130	0x3cbc68de	0.022999223
131	0xbda768ad	-0.08174262
132	0x3d97fe8f	0.074216
133	0x3d84b46b	0.064797245
134	0x3c606cc8	0.0136978105
135	0xbd71f517	-0.059071627
136	0xbcd15bad	-0.02555641
137	0xbd56840d	-0.052372027
138	0xbd800dde	-0.06252645
139	0xbd1848a2	-0.037178643
140	0x3de666ee	0.11250101
141	0x3d21ca90	0.03949982
142	0xbd2170c9	-0.0394142
143	0x3c1ad001	0.009449006
144	0x3ce63b69	0.0281045
145	0xbd607ead	-0.054808307
146	0xbd89e077	-0.067322664
147	0x3cf7e150	0.030258805
148	0x3da9d047	0.08291679
149	0x3cd4805f	0.025940118
150	0x3d39ab0e	0.045329146
151	0xbbe6d592	-0.0070445025
152	0x3cc1a5b1	0.023638578
153	0x3d2882c7	0.041140344
154	0x3d2dcd7c	0.042432293
155	0xbcf90fe2	-0.030403081
156	0xbd9568b2	-0.0729536
157	0x3b7875f0	0.0037912093
158	0x3da736ae	0.08164726
159	0xbdb0f6e5	-0.086408414
160	0x3dbbc6dd	0.091687895
161	0x3c73fd9f	0.014892011
162	0x3da45069	0.080231495
163	0x3d9bd351	0.07608665
164	0x3db5fa25	0.08885602
165	0x3cc2b392	0.023767266
166	0xbc8baee9	-0.017051177
167	0x3dabb9a4	0.083850175
168	0x3d930e17	0.07180422
169	0x3be44713	0.0069664805
170	0x3db093b4	0.08621922
171	0xbda8e216	-0.082462475
172	0xbd3d3548	-0.04619339
173	0xbd86bd1c	-0.065790385
174	0xba877a21	-0.001033608
175	0xbd47f9a9	-0.04882208
176	0xbdf57871	-0.11985863
177	0x3d21be7a	0.039488293
178	0xbd59c148	-0.053162843
179	0x3d77314a	0.06034974
180	0xbd759e66	-0.059965514
181	0x3c844868	0.016147807
182	0x3d241824	0.040062085
183	0xbd54eb3d	-0.051982153
184	0xbd8874eb	-0.06662925
185	0xbd855558	-0.06510419
186	0x3ccf9662	0.025340263
187	0x3de2ebf1	0.110801585
188	0xbd8d96df	-0.06913542
189	0xbdb72289	-0.08942134
190	0xbc84a016	-0.016189616
191	0xbcf72087	-0.030166877
192	0xbc6f42fc	-0.014603373
193	0x3b8c69dd	0.004285081
194	0x3d1c3e29	0.038145218
195	0xbab0b8be	-0.0013482792
196	0xbda55c3b	-0.08074232
197	0xbcb12189	-0.021622436
198	0xbd3fe33a	-0.04684756
199	0xbd87a2f7	-0.0662288
200	0x3db3417c	0.087527245
201	0xbd7195eb	-0.058980864
202	0x3c0aa9f5	0.0084633725
203	0x3d771690	0.06032425
204	0xbd566bab	-0.052348774
205	0x3ce0708f	0.027397422
206	0xbd55df72	-0.052215047
207	0x3c77d99c	0.015127566
208	0xbc46f927	-0.0121443635
209	0xbd1b6c43	-0.037945043
210	0xbdc4da9f	-0.09612011
211	0xbd09c571	-0.03363556
212	0xbcd5620f	-0.026047735
213	0x3dad7144	0.08468869
214	0x3dab1e94	0.08355442
215	0xbd9328ee	-0.07185541
216	0xbba16360	-0.0049251765
217	0x3cd78ba7	0.026311709
218	0xbd2b1baf	-0.041774448
219	0xbd6c5e00	-0.057706833
220	0xbd2c9be5	-0.04214086
221	0x3db30172	0.0874051
222	0x3c37c3e0	0.011216134
223	0x3d887e03	0.0666466
224	0x3cfae210	0.030625373
225	0x3d3e6e23	0.046491753
226	0xbd606e83	-0.054792892
227	0xbc471fa6	-0.012153542
228	0xbd52e824	-0.051490918
229	0xbd4bdaa0	-0.049769044
230	0xbdf8c0cb	-0.12146147
231	0xbdb013f5	-0.085975565
232	0x3bc0478c	0.005867904
233	0x3d61f93a	0.05516932
234	0x3caabe32	0.020842645
235	0xbcde745a	-0.02715509
236	0x3ccc4fb3	0.024940347
237	0x3dc5cdfd	0.0965843
238	0xbda5e7e0	-0.08100867
239	0xbdb5135a	-0.08841582
240	0xbca86345	-0.020555148
241	0x3c8015be	0.015635367
242	0x3d94c430	0.07263982
243	0x3d612525	0.054967064
244	0x3d7c5ae7	0.06161013
245	0x3b9cdce0	0.0047870725
246	0xbd15c4ae	-0.03656452
247	0x39969771	0.00028723062
248	0xbd648064	-0.055786505
249	0xbc2f2ac3	-0.0106913475
250	0xbc94a13b	-0.018143287
251	0x3c7cc21d	0.01542714
252	0x3d072b10	0.033000052
253	0x3cb99f6d	0.022659028
254	0xbd312e03	-0.04325677
255	0xbd1cee24	-0.038313046

convs.1.bias f4 [32]
0	0xbd25caa4	-0.040476456
1	0xbd904298	-0.07043952
2	0xbcf9d3a3	-0.030496424
3	0xbd57c1bd	-0.052674998
4	0xbd273476	-0.040821515
5	0xbdbb4eab	-0.09145864
6	0xbdb2c663	-0.087292455
7	0x3c05d53b	0.008168514
8	0x3b736641	0.0037139805
9	0xbcd2c1fd	-0.025727266
10	0x3d69b003	0.057052623
11	0xbdbb04ab	-0.0913175
12	0xbdb2a143	-0.087221645
13	0x3dab6719	0.08369274
14	0x3de02598	0.109446704
15	0x3da65f02	0.0812359
16	0xbd0924db	-0.033482414
17	0x3db76a5c	0.08955833
18	0x3d52c4c6	0.05145719
19	0x3d80605d	0.0626838
20	0xbd1480a6	-0.0362555
21	0xbd693606	-0.056936286
22	0xbbe5adaa	-0.0070092278
23	0xbda0989c	-0.07841608
24	0xbd73e19c	-0.05954133
25	0x3d77d8d6	0.060509525
26	0x3c99a38d	0.018754745
27	0xbd97abc9	-0.07405812
28	0xbdc3d7ba	-0.09562631
29	0x3d19de2e	0.037565403
30	0xbd4ef2b1	-0.050524417
31	0x3d599de4	0.05312909

convs.2.basis f4 [4, 32, 32]
0	0x3d2cfba5	0.042232174
1	0xbd519114	-0.051163748
2	0x3c072dbc	0.00825065
3	0x3cc6ebaf	0.024282305
4	0xbd8d4017	-0.0689699
5	0xbcf38711	-0.02972749
6	0x3d54076c	0.05176489
7	0xbba335bc	-0.004980771
8	0x3c910c3b	0.017706027
9	0x3c713418	0.014721893
10	0xbd99d867	-0.075119786
11	0xbaad9422	-0.0013243
12	0x3d391024	0.04518141
13	0x3b2088a2	0.0024495502
14	0x3d7d6bee	0.061870508
15	0x3c723d11	0.014785067
16	0xbb0e828d	-0.0021745295
17	0x3d8501e3	0.064945005
18	0xbd82ce03	-0.0638695
19	0x3d097527	0.03355899
20	0xbd16d6bf	-0.03682589
21	0xbcb444d5	-0.022005478
22	0x3d8561d9	0.065128036
23	0xbd91c3a1	-0.071173914
24	0xbd04fdfd	-0.032468785
25	0xbd7d0eec	-0.06178181
26	0x3d1666b9	0.036719058
27	0xbc9b7d3b	-0.018980613
28	0xbd539c4b	-0.051662724
29	0xbbcc65c0	-0.0062377155
30	0xbc495e94	-0.012290616
31	0xbd8b43b8	-0.06800026
32	0xbcfc7121	-0.030815663
33	0x3dc7f3a4	0.09763268
34	0x3d79328e	0.06083923
35	0xbd77dd29	-0.06051365
36	0xbcf1e2bd	-0.029527063
37	0xbd46da81	-0.048548225
38	0xbd5ea453	-0.05435593
39	0x3d82c522	0.06385256
40	0x3d7d1c8b	0.0617948
41	0xbcbdd032	-0.023170564
42	0x3d6b5405	0.057453174
43	0xbc0314f7	-0.008000604
44	0xbbb2f870	-0.005461745
45	0xbd507a75	-0.050898034
46	0xbd39827e	-0.045290463
47	0x3d878067	0.06616288
48	0xbd55ebf1	-0.052226964
49	0xbb0c4e03	-0.0021408803
50	0xbd604cc6	-0.054760717
51	0x3da5cd2f	0.08095776
52	0x3d5e7f81	0.054320816
53	0x3c80c8c7	0.015720738
54	0xbc818205	-0.015809068
55	0x3c020a64	0.007937048
56	0xbcf1285d	-0.029438192
57	0x3c06518f	0.008198156
58	0xbcb39e4e	-0.021926071
59	0x3d563605	0.05229761
60	0x3d516bd7	0.051128235
61	0xbce06947	-0.02739395
62	0xbd64c1ff	-0.05584907
63	0x3b15ea03	0.0022875078
64	0xbd45af47	-0.04826286
65	0xbb6d91d9	-0.0036250262
66	0xbd945bdc	-0.07244083
67	0x3d073624	0.033010617
68	0xbc6e14e2	-0.014531346
69	0xbd9f6de1	-0.077846296
70	0x3cb972a1	0.022637667
71	0x3cf90996	0.030400079
72	0xbd516db5	-0.051130015
73	0x3d9e4b34	0.077291876
74	0x3c9d20c3	0.019180661
75	0x3d83a18c	0.06427297
76	0xbccc0943	-0.02490676
77	0x3d481161	0.0488447
78	0x3da93480	0.08261967
79	0xbd47f270	-0.04881519
80	0x3c1bf1af	0.009518071
81	0x3d85b49d	0.0652859
82	0x3d6c701d	0.057724107
83	0xba628150	-0.0008640485
84	0x3d5e21cd	0.054231454
85	0x3da0957e	0.07841013
86	0x3d0ebbee	0.034847192
87	0x3d15df28	0.03658977
88	0x3cd08642	0.025454644
89	0x3cb996d8	0.022654936
90	0xbda7c489	-0.08191783
91	0x3c031a04	0.008001808
92	0x3cbb7050	0.022880703
93	0x3cdac0a1	0.02670318
94	0xbcb096c2	-0.021556262
95	0xbc9041c6	-0.017609488
96	0xbd33f397	-0.043933477
97	0xbd7933ff	-0.060840603
98	0x3d378995	0.044808943
99	0x3d4f3577	0.050588097
100	0x3d6c5af7	0.05770394
101	0x3b6fd62e	0.0036596167
102	0x3d95df85	0.073180236
103	0x3d9cf1ca	0.07663305
104	0xbdaad454	-0.083412796
105	0xbd9e063b	-0.07716032
106	0xbc1982b8	-0.009369545
107	0x3d8bd417	0.06827562
108	0x3bfd3c05	0.007728102
109	0xbda807d2	-0.082046166
110	0xbd762b37	-0.060099807
111	0x3ce35f1e	0.027755316
112	0xbce38259	-0.027772116
113	0xbd1f5887	-0.038902786
114	0x3d9ddb7e	0.077078804
115	0xbce61581	-0.028086426
116	0xbc8716e7	-0.016490413
117	0xbdaa5641	-0.08317233
118	0xbd1f0d84	-0.03883125
119	0x3d3e80cc	0.04650955
120	0xbd3bd69f	-0.045858975
121	0xbd046773	-0.03232522
122	0xbd3dc0c7	-0.046326425
123	0xbbbee0c8	-0.005825136
124	0xbadc7f1f	-0.0016822553
125	0xbcaf6ceb	-0.02141424
126	0xbd7116d1	-0.05885965
127	0x3cb01b79	0.021497475
128	0x3d885c59	0.06658239
129	0x3d40363a	0.046926714
130	0xbd8e0fac	-0.06936583
131	0xbd33f384	-0.043933406
132	0x3d0cb18c	0.03434901
133	0xbd96b4c7	-0.07358699
134	0xbd8ba1a4	-0.0681794
135	0x3d7561a3	0.059907567
136	0xbd7206c5	-0.059088487
137	0xbd48cb89	-0.04902223
138	0xbd86323f	-0.065525524
139	0xbd6c5304	-0.057696357
140	0xbc243c0b	-0.010024081
141	0xbd737527	-0.059437897
142	0xba4c3c55	-0.00077909726
143	0x3cc3bea8	0.023894623
144	0x3d3531b8	0.04423687
145	0x3c8ab7c0	0.016933322
146	0xbd75066b	-0.059820574
147	0x3d8a0ff0	0.06741321
148	0x3c30e0f6	0.010795822
149	0x3dbbd9e3	0.09172418
150	0xbcb00c3d	-0.02149021
151	0x3cad90db	0.021187237
152	0xbd2e8a2b	-0.042612236
153	0xbab3e927	-0.0013726101
154	0x39d2137a	0.00040068832
155	0xbd713efb	-0.058897953
156	0x3cad743a	0.021173585
157	0xbcb60c5e	-0.022222694
158	0xbd090802	-0.033454902
159	0xbd4b8da6	-0.049695633
160	0x3c4691df	0.012119739
161	0xbc305124	-0.010761533
162	0x3ce67261	0.028130712
163	0xbc1285c2	-0.008943023
164	0xbd423b33	-0.047419738
165	0x3d1ead2a	0.03873936
166	0x3d820c0f	0.06349956
167	0xbcba8a33	-0.022770977
168	0x3ca746d9	0.020419525
169	0x3d69df8b	0.057097953
170	0xb96cabd8	-0.0002257073
171	0x3ba186a4	0.0049293805
172	0xbd310d77	-0.04322573
173	0xbb0ebea2	-0.0021781106
174	0x3db7883a	0.0896153
175	0x3da93331	0.08261717
176	0xbcd4f6d8	-0.02599661
177	0x3d91ecf3	0.071252726
178	0x3daa10c0	0.08303976
179	0x3c489ab3	0.012243914
180	0x3bb67c23	0.0055689975
181	0xbd324cd9	-0.04353032
182	0xbcf37eed	-0.029723609
183	0x3cb8dae8	0.02256532
184	0x3d17b7b5	0.03704043
185	0x3caaf081	0.020866634
186	0x3d0f4b4e	0.034983926
187	0x3d6c9b78	0.057765454
188	0xbd8a5745	-0.067549266
189	0x3d55f430	0.05223483
190	0x3ce05162	0.027382556
191	0x3c73c710	0.014879003
192	0xbd5054ff	-0.05086231
193	0xbbb062c0	-0.0053828657
194	0xbd910128	-0.07080299
195	0x3d7821ff	0.060579296
196	0x3dafd97b	0.08586403
197	0xbce853b0	-0.028360218
198	0xbb19ca9a	-0.0023466707
199	0xbd63b45c	-0.055591926
200	0xbc3c2b05	-0.011484866
201	0xbcb47e1d	-0.022032792
202	0xbd4fd8f9	-0.05074403
203	0x3d8d6381	0.069037445
204	0xbc7b281a	-0.015329385
205	0xbdc98cd0	-0.09841311
206	0x3b37671f	0.002798505
207	0x3d04ae5a	0.032392837
208	0x3d17741a	0.036975957
209	0x3d097159	0.033555362
210	0xbbbb77e3	-0.0057210787
211	0x3c1bd0af	0.009510203
212	0x3b3bcfb0	0.0028657727
213	0xbcd53f4f	-0.026031164
214	0x3d97b055	0.074066795
215	0xbd0c2a4f	-0.034220036
216	0x3d27f03d	0.041000593
217	0x3da6540e	0.08121501
218	0xbcbf837e	-0.02337813
219	0xbd520f4d	-0.051284123
220	0xbd772d70	-0.060346067
221	0xbd89791a	-0.067125514
222	0x3d1c9a86	0.038233303
223	0xbd88a037	-0.066711836
224	0x3d13add2	0.03605444
225	0x3d4386d4	0.047736004
226	0x3d193772	0.037406392
227	0x3d31dcd9	0.043423507
228	0x3cc5728e	0.024102475
229	0x3ac0b0ab	0.0014701089
230	0x3d99fb95	0.075186886
231	0x3ca6ca2d	0.020360077
232	0xbda2ccb6	-0.07949202
233	0x3c910d82	0.017706636
234	0x3c945993	0.018109119
235	0x3da51247	0.08060127
236	0xbb22a7b0	-0.0024819188
237	0xbcaa1a0b	-0.020764371
238	0xbd550676	-0.052008115
239	0xbd5ea3dc	-0.054355487
240	0xbdcee1b6	-0.10101645
241	0x3d6eec60	0.058330894
242	0xbcc03704	-0.023463733
243	0xbd36e336	-0.04465028
244	0x3bcd3baf	0.0062632184
245	0x3d07df1d	0.03317176
246	0xbced0a92	-0.028935704
247	0xbc2bde18	-0.010489963
248	0x3d14e050	0.036346734
249	0x3d3b9e51	0.04580528
250	0xbcc1f7eb	-0.023677787
251	0x3d30e8c6	0.04319074
252	0x3dbd7d3e	0.09252404
253	0x3d0dd325	0.03462519
254	0xbd51e612	-0.051244803
255	0xbd235a58	-0.03988108

convs.2.att f4 [10, 4]
0	0x3cb8b9bd	0.022549504
1	0x3bbae03d	0.005703001
2	0x3d2795d7	0.040914383
3	0xbca7be9b	-0.02047663
4	0x3d4f479a	0.050605394
5	0x3d0fc6cd	0.0351017
6	0x3d5997da	0.053123333
7	0x3d2b5d6b	0.041837137
8	0x3d069ba0	0.03286326
9	0x3b837649	0.0040119034
10	0x3d5ebb67	0.05437794
11	0xbb32950c	-0.0027249483
12	0x3ca785ac	0.020449482
13	0x3cb02027	0.021499706
14	0xbad96ecb	-0.0016588805
15	0x3bcb61a9	0.0062067104
16	0xbd4500dd	-0.048096526
17	0xbd657fb6	-0.056029998
18	0xbcbf3340	-0.023339868
19	0xbd7a346f	-0.06108516
20	0xbb3c1ee4	-0.0028704936
21	0xbab64ad4	-0.0013907799
22	0xbd424ffe	-0.047439568
23	0xbd02dae0	-0.031947017
24	0x3cb105a0	0.021609128
25	0x3bc36dbc	0.005964009
26	0x3cad882f	0.021183101
27	0x3d3ce3bb	0.04611562
28	0xbd0d041c	-0.034427747
29	0x3c883e1c	0.016631179
30	0x3abf9f5b	0.0014619635
31	0xbcd135df	-0.025538383
32	0x3d4d8c23	0.050182473
33	0xbcfec507	-0.03109981
34	0xbc9b1eb3	-0.018935537
35	0xbd0577d5	-0.032584984
36	0xbc6d696c	-0.014490467
37	0x3c9bbad6	0.019009989
38	0x3cacb11f	0.021080552
39	0xbd278c85	-0.040905494

convs.2.root f4 [32, 32]
0	0xbd0787c1	-0.03308845
1	0xbc59c470	-0.013291463
2	0x3c027f2d	0.007964891
3	0xbbc3ab70	-0.0059713647
4	0x3bd20111	0.0064088185
5	0xbd5c437a	-0.05377529
6	0xbd7afc79	-0.061275933
7	0xbb591dba	-0.003312929
8	0x3d804c9e	0.062646136
9	0xbd88843f	-0.06665849
10	0xbc050e17	-0.008121035
11	0xbc26c2fb	-0.010178323
12	0xbc7b2f99	-0.015331172
13	0x3dcd754f	0.100321405
14	0xbd8f6b5e	-0.070029005
15	0xbdab70db	-0.08371135
16	0x3cfda3b1	0.030961843
17	0xbc0f5b76	-0.008749833
18	0xbc67cfd8	-0.014148675
19	0x3ca0a25c	0.019608669
20	0x3ba6a7f5	0.00508594
21	0x3ca7a0fa	0.020462502
22	0xbc8bc628	-0.017062262
23	0x3d5181b7	0.051149096
24	0xbd3896f3	-0.04506583
25	0xbd71f7e3	-0.059074294
26	0x3d0f25de	0.034948222
27	0x3c6b1068	0.014347173
28	0x3caba849	0.020954268
29	0x3d3daccf	0.04630738
30	0xbd0fc79d	-0.035102475
31	0xbcbfebe3	-0.02342791
32	0xbccc9199	-0.02497177
33	0x3c05ba2e	0.0081620645
34	0xbd7fc8e1	-0.062447432
35	0x3d6ef255	0.058336575
36	0x3cfa0415	0.030519525
37	0x3da167fe	0.07881163
38	0xbc7b67c3	-0.015344563
39	0xbd59e786	-0.053199314
40	0x3d24d084	0.04023792
41	0xbd7d06c3	-0.061774027
42	0xbdbe3334	-0.0928711
43	0x3d98ab45	0.07454542
44	0x3dae4518	0.08509272
45	0x3d77a271	0.06045765
46	0x3d872686	0.06599145
47	0x3d57bf36	0.052672587
48	0x3d8b7865	0.06810073
49	0xbc9186f6	-0.01776455
50	0xbd688af9	-0.05677316
51	0xbd75decc	-0.06002693
52	0xbcecf3ec	-0.028924905
53	0xbd15ef58	-0.03660521
54	0xbd409146	-0.047013544
55	0xbd969e28	-0.07354385
56	0xbdd13a30	-0.102161765
57	0xbd4e99d6	-0.050439678
58	0x3dac7cd4	0.084222466
59	0x3c80e820	0.015735686
60	0xbd276969	-0.04087201
61	0x3d444112	0.04791362
62	0xbd99bce4	-0.07506731
63	0xbd45f9de	-0.048333995
64	0x3a1da730	0.00060139876
65	0xbd97ae66	-0.07406311
66	0x3d98943b	0.07450148
67	0xbc59f37b	-0.013302679
68	0xbd840808	-0.06446844
69	0xbd9d3931	-0.07676924
70	0xbcda5981	-0.026654007
71	0xbccc321a	-0.024926234
72	0x3d9f501f	0.07778954
73	0xbd8d3c00	-0.0689621
74	0xbd94fac4	-0.07274392
75	0xbd89e594	-0.06733242
76	0xbd0eb0d2	-0.034836598
77	0xbd1ce725	-0.038306374
78	0xbcc762d0	-0.02433911
79	0xbd4595d6	-0.048238598
80	0x3b0dc0d2	0.0021629822
81	0x3d94e380	0.07269955
82	0xbb5b8c23	-0.0033500276
83	0xbd96f7d7	-0.073714904
84	0xbdb4652a	-0.08808358
85	0x3d114235	0.03546353
86	0x3c386392	0.011254208
87	0x3d43ef75	0.047835786
88	0x3d3a94ca	0.045552053
89	0xbca2d5cb	-0.019877335
90	0x3ce84a00	0.028355598
91	0x3d13a1ca	0.036042966
92	0x3d97bb3d	0.0740876
93	0xbc3f4fdf	-0.011676758
94	0xbd4ab10e	-0.04948526
95	0xbcce4a6b	-0.02518197
96	0x3d29b6f5	0.041434247
97	0x3c96b06d	0.018394673
98	0xbdbc84c5	-0.09205011
99	0x3c0f49e3	0.008745643
100	0x3d9a53bf	0.075355045
101	0xbd5ddee7	-0.054167654
102	0xbd0a700b	-0.03379826
103	0x3c953d03	0.01821757
104	0x3c0897d1	0.008336977
105	0x3c88650d	0.016649747
106	0xbc7a6cd6	-0.015284738
107	0xbbe603c9	-0.007019494
108	0xbd56c19a	-0.052430727
109	0xbd8be7ce	-0.068313226
110	0xbd8b8761	-0.06812931
111	0xbd6671f9	-0.056261037
112	0xbd8ea94f	-0.06965887
113	0x3d8d101f	0.068878405
114	0xbd789a02	-0.06069375
115	0x3974b263	0.00023336108
116	0x3d988403	0.07447054
117	0xbd124b67	-0.03571644
118	0xbd13be1e	-0.03606998
119	0xbd7e14cd	-0.062031556
120	0x3d9f1732	0.07768096
121	0xbd553053	-0.05204804
122	0x3d35e64c	0.04440908
123	0xbd863a22	-0.06554057
124	0xbd5e1b81	-0.05422545
125	0x3d6ecd62	0.058301337
126	0xbd0e0b58	-0.034678787
127	0x3de077bb	0.10960337
128	0x3d1060b6	0.03524848
129	0x3d98847f	0.074471466
130	0x3da78fda	0.081817344
131	0x3d75a13b	0.059968214
132	0x3cfd6c46	0.030935418
133	0xbd833a8b	-0.064076506
134	0x3d81b181	0.06332684
135	0x3d648380	0.05578947
136	0xbd3f387b	-0.046684723
137	0xbc4232f8	-0.011852972
138	0xbd621064	-0.055191413
139	0x3d530989	0.051522765
140	0x3da19814	0.07890335
141	0xbcad19c2	-0.021130446
142	0xbd54616c	-0.05185072
143	0x3cbb9add	0.022900993
144	0x3d045fab	0.0323178
145	0x3dc1c52e	0.09461437
146	0x3dbebb7e	0.09313105
147	0xbda0873d	-0.07838295
148	0x3d53c00a	0.051696815
149	0xbd467d36	-0.048459254
150	0x3d8adeac	0.067807525
151	0xbccf6693	-0.025317466
152	0xbc3a891b	-0.011385228
153	0xbd6bb16c	-0.05754225
154	0xbc0a96ce	-0.008458806
155	0x3d706114	0.05868633
156	0xbbcb868c	-0.0062111076
157	0x3b96f759	0.004607123
158	0x3d11466d	0.035467554
159	0xbd9aa443	-0.07550862
160	0xbd584465	-0.0527996
161	0xbdd94490	-0.106087804
162	0xbdaef4bd	-0.08542774
163	0x3d917d33	0.07103958
164	0x3d57bfab	0.052673023
165	0x3d3000f0	0.042969644
166	0xbda8df19	-0.082456775
167	0xbd6a4abe	-0.057200186
168	0x3d8bd54f	0.06827795
169	0x3c291e87	0.01032222
170	0x3d1d1236	0.038347445
171	0xbbedb9c5	-0.0072548115
172	0x3cd90510	0.026491672
173	0xbcc4072e	-0.023929205
174	0xbc9dedc6	-0.019278418
175	0xbc96ab2e	-0.018392172
176	0x3d418d75	0.047254045
177	0x3d77baaf	0.06048077
178	0x3c837397	0.016046328
179	0xbd664106	-0.056214355
180	0xbd2ae9b6	-0.04172679
181	0xbd34fc75	-0.044186074
182	0x3ce56245	0.02800096
183	0xbd845ba8	-0.064627945
184	0xbccdde88	-0.025130525
185	0xbd30003b	-0.04296897
186	0x3db80d81	0.08986951
187	0xbd68cde6	-0.056836985
188	0x3d02cff0	0.031936586
189	0x3cb03f82	0.021514658
190	0x3da88ca5	0.08229951
191	0xbd1505e5	-0.036382575
192	0x3caacf9d	0.02085095
193	0x3e0d100d	0.13775654
194	0xbde9eac6	-0.114217326
195	0x3dc25c91	0.09490312
196	0x3d04cad7	0.032420006
197	0x3d927b04	0.071523696
198	0xbd6290f7	-0.05531403
199	0x3b8a1c19	0.0042147753
200	0x3d1540bd	0.036438692
201	0x3b02075b	0.001984081
202	0xbe0a4b34	-0.1350525
203	0xbe1052e8	-0.14094126
204	0x3d28a5fd	0.041173924
205	0x3c849676	0.016185027
206	0xbdbeeb73	-0.09322252
207	0xbccb7354	-0.024835266
208	0x3e08258f	0.13295577
209	0x3c4bd4e6	0.012440896
210	0xbd9440df	-0.07238936
211	0xbbd54678	-0.0065086447
212	0x3d86fe93	0.06591525
213	0x3e2a4275	0.16626914
214	0x3d6ab232	0.057298847
215	0x3d494be6	0.049144648
216	0x3e2ab5d0	0.16670918
217	0xbd350cd2	-0.04420168
218	0xbdac3e0f	-0.08410274
219	0x399528bf	0.00028449853
220	0xbc33ed20	-0.010981828
221	0xbb638dc0	-0.003472194
222	0x3c94cbde	0.018163618
223	0x3dc262fe	0.094915375
224	0xbc9d26d9	-0.019183563
225	0xbd4dcb33	-0.050242614
226	0x3d8f9876	0.070115015
227	0x3d1936af	0.037405666
228	0x3d475487	0.048664596
229	0xbda5e31e	-0.0809996
230	0xbc90147d	-0.017587895
231	0xbd397695	-0.045279104
232	0x3dac7506	0.08420758
233	0x3c93ce34	0.018042661
234	0xbc7d9995	-0.015478511
235	0xbae6765a	-0.0017582879
236	0xbc424d44	-0.011859242
237	0x3c0d31df	0.008617847
238	0xbd3b7e00	-0.04577446
239	0xbd21d461	-0.03950918
240	0xbd65a239	-0.05606291
241	0x3ce9ff83	0.02856422
242	0x3d8dcff4	0.069244295
243	0x3d0a1907	0.033715274
244	0x3d037e22	0.03210271
245	0xbdd841da	-0.10559435
246	0xbdb18869	-0.08668596
247	0x3d7e18b9	0.062035296
248	0xbd827e27	-0.06371718
249	0x3d4b7d21	0.04967988
250	0xbd82dd29	-0.06389839
251	0xbd1e3e62	-0.03863371
252	0x3cb7ed64	0.022452064
253	0xbd2f7c15	-0.042842943
254	0x3b8fb3c7	0.004385445
255	0x3cc5703c	0.02410137

convs.2.bias f4 [32]
0	0xbc5238bd	-0.01283091
1	0xbd7810c3	-0.06056286
2	0x3d6675db	0.05626474
3	0xbde9eab3	-0.114217184
4	0xbd6eb2d5	-0.058276016
5	0xbde3ea3a	-0.111286595
6	0x3c53eb84	0.012934569
7	0xbddaafb9	-0.10678048
8	0xbdbdb36a	-0.09262736
9	0xbd5c0fcf	-0.053726014
10	0x3dc8e502	0.09809305
11	0x3db4c42b	0.088264786
12	0xbd9d2ce5	-0.076745786
13	0x3d441ede	0.047881
14	0x3cb8552b	0.022501549
15	0x3da4b17d	0.08041666
16	0xbd8e350b	-0.06943711
17	0xbdb762a1	-0.08954359
18	0x3d70cf72	0.058791585
19	0xbdcda00c	-0.10040292
20	0xbdc57b24	-0.09642628
21	0xbddb4c79	-0.107079454
22	0xbd7783c1	-0.060428385
23	0xbd637fad	-0.055541683
24	0xbd8709da	-0.06593676
25	0x3dacc68e	0.08436309
26	0x3cae54a4	0.021280594
27	0x3dbb9dea	0.09160979
28	0x3d563600	0.052297592
29	0x3d3716f8	0.04469964
30	0xbdb71b30	-0.089407325
31	0xbbe37854	-0.0069418345

convs.3.basis f4 [4, 32, 32]
0	0xbd1ca683	-0.038244735
1	0x3da6573c	0.081221074
2	0xbd4d73f4	-0.05015941
3	0x3d6484c9	0.055790696
4	0x3c90b66f	0.017665116
5	0xbd085996	-0.03328856
6	0x3d9a512e	0.07535015
7	0x3d1f4925	0.038888115
8	0xbccf69ba	-0.025318969
9	0xbd651fa3	-0.055938374
10	0xbdaf83cc	-0.0857006
11	0x3dcc44cc	0.099740595
12	0xbdb29500	-0.08719826
13	0x3d241994	0.040063456
14	0x3d19e688	0.037573367
15	0xbd5291c2	-0.051408537
16	0xbc84b34c	-0.016198777
17	0x3ad6b1e7	0.0016379923
18	0xbbe49e5e	-0.0069768867
19	0x3cb674a2	0.022272412
20	0x3ca8ba57	0.020596666
21	0x3d160514	0.036625937
22	0x3ddc89f9	0.10768504
23	0x3d3b821e	0.045778386
24	0x3dbcdefb	0.09222218
25	0xbb94fae3	-0.0045465096
26	0xbdcbddf3	-0.09954443
27	0xbde990a9	-0.11404545
28	0x3d08838b	0.033328574
29	0xbdcac61b	-0.09901067
30	0x3ceb97d1	0.028758915
31	0xb9f613b7	-0.00046935465
32	0x3db51006	0.08840947
33	0xbd83a179	-0.06427283
34	0x3d7f01ff	0.062257763
35	0x3d91cfaa	0.07119687
36	0x3cf21350	0.029550225
37	0x3cf78930	0.030216783
38	0xbd9e8708	-0.07740599
39	0x3c95b7ad	0.01827606
40	0x3dfecf7d	0.12441919
41	0x3d2772bc	0.040880904
42	0xbc5be8d2	-0.013422208
43	0x3d63d69b	0.055624586
44	0xbc055ce4	-0.008139823
45	0x3db3611e	0.08758758
46	0xbd8b561e	-0.06803535
47	0x3d9de9f7	0.07710641
48	0xbd1cc97f	-0.0382781
49	0xbc4749c0	-0.012163579
50	0x3c57a564	0.013161991
51	0xbbde1f06	-0.0067786006
52	0x3da70ddd	0.08156941
53	0xbda9c2e3	-0.08289125
54	0xbce58b9f	-0.028020678
55	0xbd288a48	-0.0411475
56	0xbd776cc7	-0.060406473
57	0x3dbaebe4	0.09127024
58	0xbd37eeb5	-0.044905383
59	0x3d85c5b2	0.06531848
60	0xbc2ae193	-0.010429758
61	0x3da7027f	0.08154773
62	0x3d8161f3	0.063175105
63	0xbd923ce2	-0.07140519
64	0xbd3a4d45	-0.045483846
65	0xbd275118	-0.04084882
66	0x3d047652	0.0323394
67	0xbd2c8a0b	-0.042123836
68	0xbd63a939	-0.055581305
69	0x3d855db8	0.06512016
70	0x3d9c7041	0.07638598
71	0xbd147bb0	-0.03625077
72	0xbddff022	-0.109344736
73	0xbd3d0ead	-0.046156574
74	0xbd105565	-0.03523769
75	0x3cd6271d	0.026141698
76	0x3ba62482	0.00507027
77	0x3bc6e072	0.0060692364
78	0x3db1509a	0.08657952
79	0x3d66a3e3	0.05630864
80	0xbc1cfe03	-0.0095820455
81	0xbd07f18e	-0.03318935
82	0x3b80abbe	0.0039267233
83	0xbd1b934f	-0.03798228
84	0xbd825e70	-0.06365669
85	0x3d990467	0.07471543
86	0xbb466a50	-0.003027577
87	0x3cfc75b4	0.030817844
88	0xbc9e352f	-0.01931247
89	0x3d40c7a0	0.047065377
90	0xbd8026db	-0.06257411
91	0x3c021b83	0.00794113
92	0x3d6599b4	0.056054786
93	0xbdc3dfac	-0.095641464
94	0x3d30295a	0.043008186
95	0xbba859ba	-0.0051376494
96	0xbc858b0b	-0.016301652
97	0x3d79fa9a	0.061030008
98	0x3d471f3b	0.048613768
99	0x3d97ff8e	0.0742179
100	0x3d1b5603	0.037923824
101	0xbc180811	-0.009279267
102	0xbd39acf8	-0.04533097
103	0xbc8b196f	-0.016979901
104	0xbccd2d14	-0.025045909
105	0x3d9ac0d6	0.07556312
106	0xba9744da	-0.0011540905
107	0xbca7b762	-0.020473186
108	0xbd8c4691	-0.06849397
109	0x3d86cc64	0.06581953
110	0x3c31226f	0.010811432
111	0xbd91fc20	-0.07128167
112	0xbc8234e0	-0.015894353
113	0x3d85aacf	0.0652672
114	0xbd85a3d0	-0.065253854
115	0x3d94d3b8	0.07266945
116	0xbdae94d8	-0.085244834
117	0xbd98d9ae	-0.07463394
118	0x3bbcdec4	0.0057638604
119	0xbd7009be	-0.05860304
120	0x3d302606	0.043005012
121	0x3d31969b	0.04335652
122	0xbcf37385	-0.02971817
123	0xbd51c7d5	-0.051215965
124	0x3dbb3406	0.09140782
125	0x3d671351	0.056414906
126	0x3d052eba	0.032515265
127	0xbdb34918	-0.08754176
128	0xbcf97f3c	-0.030456178
129	0xbc144c77	-0.009051434
130	0x3b6037ae	0.0034212875
131	0xbd42f5c5	-0.047597665
132	0x3cec8478	0.02887176
133	0xbc7764c1	-0.015099705
134	0xbd6aee16	-0.057355963
135	0xbd698876	-0.057014905
136	0x3d745654	0.05965264
137	0xba662b09	-0.00087802164
138	0x3d7b9028	0.061416775
139	0xbb1c55c1	-0.0023854824
140	0xbcfd7f8c	-0.030944608
141	0xbbee90fa	-0.007280466
142	0xbd9ac028	-0.07556182
143	0xbd2599b1	-0.040429775
144	0xbd443adb	-0.04790769
145	0x3d7de1ab	0.061982792
146	0xbc70bd77	-0.014693609
147	0xbd5c37b3	-0.053764056
148	0xbce2ceee	-0.027686562
149	0xbd6bb195	-0.057542402
150	0xbd3ac514	-0.045598105
151	0x3d6556a3	0.055990826
152	0xbd77975c	-0.060447082
153	0xbd7eec92	-0.06223733
154	0xbd23e39a	-0.04001198
155	0xbc2796ce	-0.010228826
156	0x3cbc7837	0.023006542
157	0x3cbd3022	0.02309424
158	0xbc0aefa5	-0.008479987
159	0xbd931ed0	-0.071836114
160	0xbc3226d8	-0.010873519
161	0xbd74ee70	-0.059797704
162	0xbd934f61	-0.07192875
163	0xbc1ee40b	-0.009697924
164	0x3d0cd128	0.034379154
165	0xbc70726f	-0.014675721
166	0x3d5f1ea7	0.05447259
167	0x3c218450	0.009858206
168	0x3d96b4ad	0.0735868
169	0xbc9a0d83	-0.018805271
170	0x3d27dfab	0.04098479
171	0xbd8a5338	-0.06754154
172	0x3d24d0a3	0.040238034
173	0x3d8968c4	0.067094356
174	0x3d47c24b	0.048769277
175	0xbcf696ee	-0.030101266
176	0xbc0c1379	-0.0085495645
177	0xbc35ece7	-0.011103845
178	0xbda74765	-0.08167914
179	0xbcea2f46	-0.028586995
180	0xbc0310d6	-0.0079996195
181	0x3ce25c83	0.027632004
182	0xbc52d41b	-0.012867953
183	0xbb5fca56	-0.0034147701
184	0x3d4ffc5a	0.05077777
185	0xbcdef135	-0.027214626
186	0xbc97ec23	-0.018545216
187	0xbcc6e04b	-0.024276873
188	0xbb96b402	-0.0045990953
189	0xbc298fb9	-0.010349208
190	0x3d838282	0.06421377
191	0xbdba15a9	-0.090861626
192	0xbd910a80	-0.07082081
193	0xbbe9f2fd	-0.007139562
194	0x3d11ad4f	0.03556567
195	0xbd841bd5	-0.06450621
196	0x3cbc3d39	0.022978412
197	0x3d0c810c	0.034302756
198	0xbd9d1f8c	-0.07672033
199	0x3d7910c2	0.060806997
200	0xbd6a020f	-0.05713087
201	0x3cb62651	0.022235068
202	0xbd3ed336	-0.046588145
203	0x3cec0faa	0.028816063
204	0x3cd814bd	0.026377076
205	0xbd27a7cc	-0.040931508
206	0x3db311fc	0.087436646
207	0x3d322963	0.0434965
208	0x3d4170c6	0.04722669
209	0xbcc5371d	-0.024074132
210	0xbaf05a48	-0.0018337453
211	0x3cfb8e59	0.030707525
212	0x3ccd4d6f	0.025061337
213	0xbbadb094	-0.005300591
214	0x3c3d6b79	0.011561268
215	0xbd966913	-0.0734426
216	0xbd699597	-0.057027426
217	0xbc383080	-0.011242032
218	0x3ca6dc7a	0.020368803
219	0xbda43e84	-0.080197364
220	0xbd568983	-0.052377235
221	0xbd0d4063	-0.034485232
222	0xbd21b71c	-0.039481267
223	0x3d73337f	0.059375282
224	0x3d8eed06	0.069788024
225	0xbd5bce8a	-0.053663768
226	0x3cf3911d	0.029732281
227	0x3ce998ab	0.02851518
228	0x3c55b360	0.013043255
229	0xbc34a194	-0.011024851
230	0xbd070132	-0.032960124
231	0xbbf13673	-0.007361227
232	0x3dde9727	0.10868674
233	0xbcc42da4	-0.023947544
234	0xba843d52	-0.0010089076
235	0x3d2a5ac3	0.041590463
236	0xbb375db1	-0.0027979428
237	0x3d1ee9fb	0.03879736
238	0x3d7de3ed	0.061984945
239	0x3c6f4ed6	0.014606198
240	0x3d64e84d	0.0558856
241	0x3d9983e6	0.07495861
242	0x3d8f7dc4	0.0700641
243	0xbd2a5676	-0.04158636
244	0x3c203f2b	0.009780685
245	0x3d6c4b60	0.05768907
246	0x3d92c493	0.071664
247	0x3d8d0bdf	0.0688703
248	0xbc905273	-0.01761744
249	0x3da80c8a	0.08205517
250	0x3d31bd65	0.04339351
251	0x3bdc4370	0.0067219064
252	0x3d2b1106	0.04176428
253	0xbb3da51a	-0.002893752
254	0x3dcfbb2a	0.101431206
255	0xbd59da63	-0.053186785
