results/flixster_testmode/model_checkpoint29.pth (torch_old, 199981 bytes, 19 tensors)

convs.0.basis f4 [4, 4, 32]
00000000: 4e93 0e3d 037f 8a3b e4e2 153d 352f 423d
00000010: c6f3 bebd a40d 473e cc38 09be 18cf e5bd
00000020: ecc1 d13d 2b3a 53be b061 e33d ed18 f5bd
00000030: 8e96 59be 6096 bc3d 0e45 1c3e 820f c5bd
00000040: 3e0c 83bd 182c a5bd b861 5bbe e5ca 77bc
00000050: ab23 3f3d 4331 453e fd95 7d3d 75c7 99bd
00000060: efd2 9b3d 29ee f6bd 9cb3 033e c624 903c
00000070: 9c9e 203e c30a 903e 0e8a 43be 2822 433d
00000080: a802 38be 62db 0abe 6978 0bbe 4c77 073d
00000090: c25a d13b 7eb7 863e 4da6 8abc 0b4c 85bd
000000a0: ab07 6cbe 7216 c7bd 420c e93d 6e2a 58be
000000b0: 86bf 33bc 0716 dbbb 30c7 1a3d 8685 babd
000000c0: f2c5 5bbd 1803 59be 776c 963d 13cf 03be
000000d0: f047 d7bd 4b35 183e fc93 bcbd c390 a1bd
000000e0: 0067 813c 995a 87bd bfb8 703c 1853 393d
000000f0: 9eaf e63d a30c 143e 4647 84be a338 7d3c
00000100: 14f2 91bd d99f c4bd 6a59 4d3c e067 123d
00000110: dbf4 04bb b732 a5bd 0796 ff3c 080a 93be
00000120: 0e36 c4be 37e6 9bba 48f9 6c3c da7c 8e3d
00000130: 84f2 753e f6a5 623d 79ce 383d 8430 1abe
00000140: cd22 7e3c 38f1 8cbd c016 843d beda 8d3d
00000150: 3a80 4c3d 07ac cc3d 6faa 34bf 1327 e9be
00000160: 9b8d b9be 86e7 123d 0af4 b3bd aba0 033d
00000170: 36e3 40bd 72b9 3f3d 5360 593b 55f1 d03d
00000180: 7f32 f03d 4d57 52bd 07f0 3cbc b234 81bc
00000190: 3b67 1fbe b7de 9dbe a46a 8bbd 8839 b53d
000001a0: 050f c03e 7d04 123f 4c5f 103f cf83 1d3e
000001b0: 39a4 bc3d 2be0 5e3d c680 5fbd 0263 1fbd
000001c0: bcac d8be 9c35 85bd c6ec 15be 1c5a a8bc
000001d0: 250f 82bd 9460 06bf 5472 11be a507 a13d
000001e0: 9436 4abd 21a1 7a3e b662 31be 4fcd 54be
000001f0: c877 cebc 66b5 b43d 4c5d 253e 45c4 b03d
00000200: 1169 683c b182 083d f7b9 d03c d848 d03c
00000210: 7035 ccbd e7fe dd3d d36b 5dbd 17ac 90bd
00000220: 9c8e a9bc 7311 16be dd95 8a3d e7bc b6bc
00000230: bc8a 21be fc8c 513d 8ed0 173e 2d71 32be
00000240: d9eb a8bd ba3e 40bd 7946 ecbd 8af4 5ebd
00000250: c1f2 1a3d 021a 2d3e 6932 e03d 7628 bebd
00000260: e422 8b3d 403f a6bd 228c 043e 59d3 e83b
00000270: c97d b23d e082 543e a59c f8bd 99b4 0e3d
00000280: 389e 03be 2ecb ccbd f086 0ebe 0dc5 e13d
00000290: cabc 28bc baf9 553e 3783 65bd f92d cebc
000002a0: 463a 02be 17e0 debd 8223 dc3d 3ac6 59be
000002b0: 9b11 cdbc af5e b5bb 1ac7 e03d dd53 92bd
000002c0: 59ee 84bd 5a80 17be 0f01 153a d888 b4bd
000002d0: 482d dbbd 01d7 073e 27a9 31bc 044f 23bd
000002e0: e19c 393d 73a7 48bd 1302 c13c e5f8 853c
000002f0: 3b3c 0a3e 104a 5d3e 58b1 51be 9909 d83c
00000300: b9f3 efbc 8b2c c13b 9937 e5bd d730 003d
00000310: 7105 923d 1215 f23d 656d ff3c 7c31 50be
00000320: 2600 13bf 5381 a43d e6ac fabd b0e3 d4bd
00000330: 2cc7 883e 5a6c 0f3c a9f3 2fbe d8d5 66be
00000340: 5bbd 1d3e abdd 72bd 987d ec3d a91a 133e
00000350: 4360 c7bd adbf 40bd 6bab 22bf 4b32 d7be
00000360: 5422 a5be 0325 f13c 25c6 2e3d abce 6cbd
00000370: 09c5 59ba 7393 55bd 0d20 5bbd d7e0 3a3b
00000380: d7c7 98ba 8191 273e ec0e 7f3c a37d 633c
00000390: 8690 1b3e c6f2 e8bd aeaa 0b3d ad61 b4bd
000003a0: 91a9 7b3e 7148 d83e 8011 c43e f517 0dbf
000003b0: 694b d9bd 22ca 2fbd d2a4 6fbd f318 3b3d
000003c0: 7f09 52be 51b1 0ebe 6ba1 49be 767d c7bc
000003d0: d71d a33c 796b bfbe 87c3 473e 8ce3 be3c
000003e0: 48ac b43d e854 0e3e 2645 d33d b28b 9bbc
000003f0: 94f8 ca3b 93f8 653d 7a0c fdbd 225b 1ebe
0.03480845 0.0042265668 0.036593333 0.0474083 -0.0932384 0.19438797 -0.13400573 -0.112211406
0.10242066 -0.20627658 0.11102617 -0.11967645 -0.21248838 0.09208369 0.15260717 -0.096220985
-0.063988194 -0.08065051 -0.21423995 -0.015124057 0.046664875 0.19257073 0.061910618 -0.075087465
0.07608592 -0.12057144 0.12861484 0.01759566 0.15685505 0.2813321 -0.19095632 0.047639996
-0.17969763 -0.1356025 -0.13620152 0.033072755 0.006388993 0.26311868 -0.016925002 -0.06508645
-0.230498 -0.09721078 0.11379291 -0.21109936 -0.010970956 -0.0066859755 0.037787616 -0.09107499
-0.053655572 -0.21192586 0.07344907 -0.12871961 -0.10511768 0.1486408 -0.09207913 -0.07888939
0.015796185 -0.06609077 0.014692484 0.04524526 0.11263965 0.14457946 -0.25835627 0.015455398
-0.07126251 -0.09600801 0.012533525 0.035743594 -0.0020287547 -0.08066314 0.031199468 -0.2871859
-0.3832249 -0.0011894171 0.01446373 0.06957407 0.24018294 0.055334054 0.045118783 -0.1505757
0.015511227 -0.06881946 0.06449652 0.069264874 0.049926974 0.09993749 -0.7057256 -0.45537624
-0.3624085 0.03586533 -0.08786781 0.032135647 -0.047091685 0.046807714 0.0033168986 0.102022804
0.11728381 -0.051352788 -0.011531836 -0.015772197 -0.15566723 -0.3083398 -0.068074495 0.08848864
0.3751146 0.570381 0.5639541 0.15382312 0.092110105 0.054413002 -0.054566167 -0.03891278
-0.42319286 -0.06504366 -0.14641103 -0.02055078 -0.06350545 -0.52491117 -0.14203769 0.07862786
-0.049368456 0.24475528 -0.17322811 -0.20781444 -0.0252036 0.088236615 0.16148871 0.086311854
0.014185206 0.033327762 0.0254793 0.02542536 -0.0997113 0.108396344 -0.054057907 -0.070640735
-0.020697884 -0.14655094 0.067668654 -0.022306873 -0.15775579 0.051159844 0.14825651 -0.17425986
-0.08248109 -0.04693482 -0.11536879 -0.05443243 0.037829164 0.16904452 0.10947115 -0.09285061
0.06793764 -0.08117533 0.12944081 0.0071052727 0.08715398 0.2075305 -0.121392526 0.0348402
-0.12853324 -0.09999691 -0.13918662 0.110239126 -0.010298917 0.20896044 -0.05603334 -0.025168406
-0.12717542 -0.108825855 0.1074896 -0.21267024 -0.025032809 -0.005534969 0.109754756 -0.07144902
-0.06490774 -0.14795056 0.00056840567 -0.088151634 -0.10701996 0.13265611 -0.010843552 -0.039870277
0.045315627 -0.048987817 0.02356056 0.016354034 0.13499539 0.21610284 -0.20477808 0.026371764
-0.02929102 0.0058952025 -0.11192245 0.031296577 0.07129944 0.11820425 0.031180093 -0.20331377
-0.574221 0.08032479 -0.12240009 -0.103949904 0.26714456 0.00875386 -0.17182793 -0.22542512
0.15404265 -0.05929343 0.115473926 0.14365639 -0.09735157 -0.047057796 -0.63542813 -0.42030558
-0.32252753 0.029436594 0.042669434 -0.05781428 -0.00083072536 -0.05214257 -0.053497363 0.0028515363
-0.0011656237 0.16364099 0.0155675225 0.013884935 0.1519185 -0.1137443 0.03409832 -0.08807693
0.24576403 0.42242768 0.382946 -0.5511468 -0.106100865 -0.04291738 -0.058506794 0.04567809
-0.20511435 -0.13934828 -0.19690482 -0.024351817 0.01991169 -0.37386683 0.19508182 0.023301862
0.088219225 0.13899577 0.103159234 -0.01898751 0.0061941836 0.056145262 -0.12355895 -0.15464452

convs.0.att f4 [10, 4]
00000000: 5f41 b4bd e049 31be 92c4 9b3e 4951 0f3e
00000010: c52f 34be 1e1c 09bd 87f9 b83e 912d 093e
00000020: 34a0 61be 483a 0d3e 5f3c b43e e9a8 133e
00000030: a25f 48be feba 403e b3dc b63e 4b64 0a3e
00000040: eb84 85bd 7bf8 993d 8dce a13e 899b 373e
00000050: e213 46bd 6587 423e 2cd3 8b3e 6d3c 1d3e
00000060: 85e1 fc38 d329 6c3e eaf7 503e 589e c03d
00000070: f76c d33d c140 583e 910a 243e eea2 4d3d
00000080: a826 363e bef4 253e ea13 893d 544f 01bd
00000090: dbcc a83e fc43 273e 8a89 103d 5c29 cebd
-0.08801531 -0.17313337 0.3042341 0.13995852 -0.17596348 -0.03347408 0.36127874 0.13396288
-0.22033769 0.13791764 0.3520231 0.14419903 -0.19567731 0.18821332 0.35715255 0.13514821
-0.06519493 0.07518097 0.31602898 0.17930426 -0.048358805 0.18996961 0.2730955 0.15355082
0.00012058303 0.2306283 0.20407072 0.09405202 0.10323518 0.21118452 0.16019656 0.05020421
0.17788184 0.16206643 0.066932514 -0.031569794 0.32968792 0.16334528 0.035287417 -0.100664824

convs.0.root f4 [4, 32]
00000000: b1ce c7bd 9b3c 0e3c 8ded 67bd 2661 4f3e
00000010: a088 a83d 12dc 37ba a49e c0bd c6ee 50be
00000020: d079 653e cbbc d03e e2da b73e 3399 a3bd
00000030: 039c 753d cccd 323e f10d 9abd f81d 5cbd
00000040: fd1d 66be ba55 4a3e f5be 603c f2f3 73be
00000050: f406 b93a 4ed7 01be 68c9 0b3c fb67 3f3e
00000060: aac0 41bb cf85 593e 6a4e b7bc 15b3 74be
00000070: 9b56 623d 3279 6bbe 6ec0 993d 5972 19be
00000080: 48ee 253e 7c1c 033e 1255 3cbe 44b7 393e
00000090: 9100 c1bd 1486 05be 4256 b3bd 1441 30be
000000a0: 0246 6c3d a131 30be 26b3 183d 7c75 203e
000000b0: 9d2e 913e 7321 273e 7c9d ddbd bbd4 a93e
000000c0: cbc0 1abd afbd b73d 7074 243d 1314 10bd
000000d0: adb1 70bd bd0f 4ebe 4106 64be d903 b9be
000000e0: cc06 63be f505 373c e2fc 1b3e 1452 f13c
000000f0: f97b 633d b7fa 4fbd 05e0 693e 0f05 883e
00000100: 5760 1abd cc89 093e 6dcc 92bb 5a68 c2bc
00000110: ac43 c4bd db71 30be 5108 c4bd 3337 06be
00000120: b922 afbd 2356 0c3d 05e1 13be 5c33 febc
00000130: b857 1e3d d1f6 2f3e 2357 8c3b b125 f7bc
00000140: a640 fabd f5b7 f2bd f2a0 29be 396c 3f3e
00000150: 0ad4 6abc 1342 ee3d a782 0abe ef11 433d
00000160: 1478 3d3d f1ec 943d 1d86 dd3d bb49 25bd
00000170: 72fa 1dbe 74de e2bd bc6d 0ebc ce78 dcbc
00000180: 1aac ecbd 71e9 45bc 1614 9abd 5f21 4d3e
00000190: 5188 2dbd e7f9 79bd 5fb9 87bd fe21 16be
000001a0: 11ec 1fbe a49f 943d 5523 74bd 82db 1dbe
000001b0: c75b 083e 4c75 183e aac7 9b3d d4cc 443c
000001c0: 71d3 333c 9df4 2dbe cd82 92bd eca0 fa3d
000001d0: d4c4 6abd c6f2 0e3e 83f5 32be abbb d9bd
000001e0: 81cf f8bc 2b62 d33d aafd cd3c 955f 25bd
000001f0: 8fe5 23be 7c6d 1bbd b2fc 02be abdd 78bd
-0.0975622 0.008681442 -0.05662303 0.20251903 0.08229184 -0.0007013689 -0.09405258 -0.20403585
0.22409749 0.40769038 0.35909182 -0.07988205 0.059963237 0.17461318 -0.0752219 -0.053739518
-0.22472377 0.19759265 0.013717403 -0.23823527 0.0014116452 -0.12679788 0.008531906 0.18692009
-0.00295643 0.2124245 -0.022376258 -0.2389644 0.055258375 -0.22995451 0.07507406 -0.14985026
0.16204178 0.12803835 -0.18391827 0.18136317 -0.09423936 -0.13039428 -0.08756687 -0.17212325
0.057683952 -0.17206432 0.037280224 0.15669817 0.28355876 0.16321354 -0.108210534 0.33170113
-0.037781518 0.08971726 0.040150106 -0.035175394 -0.058763195 -0.20123191 -0.2226801 -0.36135748
-0.22170562 0.011170854 0.15233186 0.029458083 0.05553815 -0.05077621 0.22839363 0.2656636
-0.037689533 0.13431472 -0.004479936 -0.0237314 -0.0958322 -0.17230932 -0.09571899 -0.13106994
-0.08551545 0.034261834 -0.14441307 -0.03103035 0.038657874 0.17183997 0.0042828484 -0.03016934
-0.12219362 -0.11851493 -0.16565302 0.18693627 -0.014332781 0.116336964 -0.13526402 0.047624525
0.046257094 0.072717555 0.10816596 -0.040353518 -0.15427569 -0.11077586 -0.008693155 -0.026913073
-0.11556263 -0.012079583 -0.07523362 0.20032261 -0.04236633 -0.06102934 -0.066271536 -0.14661404
-0.15617396 0.072570115 -0.059604008 -0.15415767 0.1331626 0.14888495 0.07606442 0.012011725
0.0109757045 -0.16987844 -0.071538545 0.12237725 -0.057316616 0.13959798 -0.17476468 -0.10631498
-0.030372383 0.103214584 0.02514537 -0.040374357 -0.16005538 -0.03794621 -0.12791708 -0.060758274

convs.0.bias f4 [32]
00000000: f9d0 0a3e 3610 1a3b 8c81 9b3d caa4 59be
00000010: 296b a73d b0a1 6c3b 618d c33d 49f7 1a3e
00000020: 754d 403e 077f 7fbb ddab 413d 429b 343e
00000030: 3199 b4bd 03a9 30be ffb9 2cbe 6880 793d
00000040: 8c56 603d 5ce8 533e c948 0c3e 3591 efbd
00000050: 61c9 533d e00f 7ebe f174 273e e08d fd3c
00000060: 601d c13c 6c9d 9abd a728 8cbd 4b98 253d
00000070: c018 d93d 8061 e9bd d2a9 2f3e 9348 a73c
0.13556279 0.0023508198 0.075930685 -0.21254268 0.08174736 0.0036107115 0.0954845 0.15133394
0.18779548 -0.0038985626 0.047283042 0.17637351 -0.088182814 -0.17251973 -0.16867827 0.060913473
0.054770038 0.20694107 0.1369964 -0.11697618 0.05170572 -0.24810743 0.16353203 0.03095144
0.023573577 -0.07549557 -0.06843691 0.04042844 0.10600424 -0.1139555 0.17154625 0.020420348

convs.1.basis f4 [4, 32, 32]
00000000: d0f5 f6bd 10ad 77bd 77ea 78bd b867 00bd
00000010: 6540 5cbd 338d 85bd cdd6 fdbd 0a33 d43d
00000020: 8526 8a3d af96 2abc 6fcc b1bc 5cd2 8a3d
00000030: d74b 70bd e5aa 55bd df92 3f3d 8de4 893c
00000040: c534 743d a224 dfbc 1d5b 943d cd3b 3fbd
00000050: d2a5 0d3d 1b44 0dbe 2326 4cbb 5561 aaba
00000060: 94f6 94bc 14c9 843d 4e3b 02bd f005 143d
00000070: b7bf 963d 9973 dbbc 528c e8bc d95e 44bd
00000080: d6d4 82bb e3a9 bbba f4c6 1ebd 2d44 933c
00000090: 9fb9 f5bc 9309 bdbc 54d8 b8bd c4fe 873a
000000a0: 1fc9 5f3c 299c 5ebc cff6 8f3c ca47 de3c
000000b0: 0263 01bd 5e4c c8bc dd1e 97bc f3a9 973d
000000c0: 03d7 3d3d dc52 af3b 1311 a53c 645d 21bc
000000d0: 94bd 033d 442d cbbd 3b0c c7bc 188a 01bc
000000e0: 14d4 11bc 4793 a83c e4dc a9b9 e14b 75bd
000000f0: ea6f 2d3d 013d bdbc 80b3 31bc f505 883c
00000100: 183e 573c 1f20 603c 1ee7 e13c 78ad 16bd
00000110: 4aba efbb a903 44bc b46d c43d 4527 a6bd
00000120: 1c1b 91bc 879f 0dbb be67 e73c f9bf f1bb
00000130: 60f8 5b3b 1777 553c 4e11 663d 1d2c a9bd
00000140: ad55 e8bc 8d77 303b b826 f6bc bdc9 863c
00000150: 82b0 a9bc 480b 323d f1a9 cf3c 526c 223b
00000160: 9ac5 4cbd da8b 95bc 16ce 733c 48cd 633d
00000170: f7cb 33bc 4fc0 0d3d e844 c33c 6abe a7bc
00000180: e1f2 cfbc 6875 eebb 18e7 d83b 7bce 0f3d
00000190: 3f59 063d 58d2 bc3c 931a 273d 70a7 a63c
000001a0: ae48 cdbb fa0d 173d 93bc 92bb 28c0 aebc
000001b0: c269 2e3d 699b 98bc e1be 38bd 9cc6 123c
000001c0: 2861 68bc dc55 f4bc 0746 d63c 1d69 863b
000001d0: aadc 80bc f086 5a3d 83d5 4fbd c05e a53c
000001e0: 69cc 1f3d 7a19 56bb ba0f 8dbc 1be8 443d
000001f0: eeaa 03bd 8cb7 e23c e5de 6ebc 6788 b73b
00000200: c7d7 f23c 2291 66bc d14a fc3c 3002 03bd
00000210: f312 ce3a 1c2b e3bb b356 a93d 5479 2b3d
00000220: 398a c73b 84a7 583c 8fe5 a93b ace2 1cbc
00000230: f786 8a3d 31be 133c 819a 623d c217 82bd
00000240: 349a c8bc e2f3 2ebc c6fe 22bd 9eaa 0c3c
00000250: 6730 af3c 0414 e6bc 8750 c63d 719e c4bb
00000260: d93d 07bb 400a 183c cb74 18bc aa93 f63d
00000270: e3a7 71bd ea4e 9c3d b9b0 7339 7f25 ea39
00000280: d689 febc a195 34bc aa1b babc 7dea 73bd
00000290: 3e86 d43b 8740 603c 7cfa 503e 825d 043c
000002a0: d258 9ebc 109e af3c 799f 88bb 745e a4bc
000002b0: 8ecb a43d 3ac1 c4ba d999 c0bd bc4d d83d
000002c0: a1c1 88bc 07e5 02bd 0896 1ebc fe7c 02bc
000002d0: 2c15 60bc 0725 263d 83f6 bbbd 69db 313d
000002e0: b960 d13d 84f7 1c3c 5d95 783c b773 813d
000002f0: b437 6cba d03c 533d 1d4a 4e3c d861 753d
00000300: 48d9 0cbd 7a7b 55bc 773f ddbb 6e67 67bc
00000310: 2c77 c6bb 9961 df3c b8ca caba 8153 543c
00000320: 6e30 703c 6429 723b 4e20 aabc d133 25bb
00000330: 871c fdbb 1aa6 0a3b 1eb9 223c 4aed 8ebd
00000340: 7358 d0bb 91ee 573c a306 643c b5c1 9c3c
00000350: c783 c73b d772 993c a840 053d c9b2 f23b
00000360: 3337 e2bb edf8 c33b 98b6 bdbc 87eb 863d
00000370: d621 4fbc 8b6d 6fbc 5f5e 4bba 6998 eabb
00000380: ecc1 46be 628a 0dbd a3d9 93bd 31a0 b0bc
00000390: 515a 85bd 0d97 dfbd d2bd 1cbe b6a3 1f3e
000003a0: 60cd 8a3d cb71 b1bc a71f f2bc 8622 393d
000003b0: 8a36 9cbd a7ab cebd 784c 2a3d 2cdd 273e
000003c0: 990d a83d 008b 2abd 3526 aa3d 62e8 25bd
000003d0: a044 103d 4c68 91be de9f af3c 95dc b3bc
000003e0: 0d42 e6bc 4d79 4e3d ab73 ddbc 06d3 b4bd
000003f0: 2583 873d 6517 15bd b92e 48bd 32d6 1dbd
-0.12058604 -0.06046778 -0.060770478 -0.031348914 -0.05377235 -0.06521072 -0.123944856 0.103612974
0.06745628 -0.010411902 -0.021703927 0.06778404 -0.058666077 -0.05216493 0.046770927 0.016832614
0.059620637 -0.027239148 0.07243941 -0.04668789 0.034581967 -0.13795511 -0.003115066 -0.0012998978
-0.018183984 0.06483665 -0.03179484 0.036138475 0.073607855 -0.02678852 -0.028387222 -0.047942016
-0.003992657 -0.0014317598 -0.038763955 0.017976845 -0.029995738 -0.023075854 -0.09025636 0.0010375609
0.013658791 -0.013587036 0.017573742 0.027133841 -0.03158856 -0.024450477 -0.018447334 0.07405462
0.04634763 0.005350454 0.020149743 -0.009848926 0.032163218 -0.09920743 -0.024297824 -0.007906459
-0.008900661 0.02057804 -0.00032398768 -0.059886817 0.042343058 -0.023100378 -0.010846019 0.016604403
0.013137363 0.013679533 0.027576026 -0.036786526 -0.0073159086 -0.011963763 0.09591237 -0.08112959
-0.017713122 -0.0021609978 0.02824771 -0.0073776213 0.003356479 0.0130288815 0.056168847 -0.08260367
-0.028361166 0.0026926727 -0.03004776 0.016453618 -0.020714048 0.04346779 0.025349589 0.0024783802
-0.049993135 -0.018255163 0.014880678 0.055615693 -0.010973922 0.034607228 0.023836568 -0.020476539
-0.025384368 -0.0072771795 0.0066193454 0.035109024 0.032799955 0.023049518 0.040796828 0.020343512
-0.0062647676 0.036878563 -0.004478046 -0.021331862 0.042581327 -0.018628793 -0.04510391 0.008958485
-0.01418332 -0.029826097 0.026156439 0.004101886 -0.01573022 0.053351343 -0.05074073 0.020186782
0.0390133 -0.0032668994 -0.017219413 0.048072916 -0.032145433 0.027675413 -0.014579509 0.005600977
0.029643906 -0.014072688 0.030797394 -0.031984508 0.00157222 -0.0069326293 0.0826849 0.041863754
0.0060894755 0.013223533 0.005184836 -0.009575527 0.06764024 0.009017513 0.055323128 -0.06352188
-0.024487592 -0.010678263 -0.039793752 0.0085856 0.021385385 -0.028085716 0.09683328 -0.006000333
-0.002063623 0.009279788 -0.009305189 0.120398834 -0.058998 0.07632239 0.0002324012 0.00044659895
-0.031071585 -0.011022002 -0.02271827 -0.059549797 0.0064857295 0.0136872595 0.20408052 0.008078935
-0.019329462 0.021437675 -0.0041694012 -0.02006457 0.080466375 -0.0015011199 -0.09404344 0.10561702
-0.016693892 -0.0319567 -0.009679325 -0.007964371 -0.013676923 0.040562656 -0.09177878 0.043422136
0.102235265 0.009580497 0.01517233 0.06320899 -0.0009010986 0.051571667 0.012590912 0.059907764
-0.034386903 -0.013029927 -0.0067519504 -0.014123781 -0.006056687 0.027268218 -0.0015471792 0.012959362
0.014659984 0.003695094 -0.020767357 -0.0025207887 -0.007724348 0.0021156133 0.009931831 -0.06978853
-0.0063582 0.013179437 0.013917598 0.019135335 0.006088707 0.018731518 0.032532364 0.0074065668
-0.006903553 0.005980602 -0.023158357 0.06587892 -0.012642344 -0.014613519 -0.0007757898 -0.007159282
-0.19409913 -0.0345558 -0.07219245 -0.02156076 -0.06511367 -0.109174825 -0.15306786 0.15589795
0.067774534 -0.021660706 -0.029556109 0.04519894 -0.0762759 -0.10091334 0.041576833 0.16392964
0.082057185 -0.041636467 0.08308069 -0.04050482 0.035221696 -0.28399885 0.021438535 -0.021955768
-0.028107667 0.05040865 -0.027032694 -0.08829312 0.06616811 -0.036399264 -0.048872683 -0.03853435

convs.1.att f4 [10, 4]
00000000: e1fa a6bd 36f5 423e cabe 97be a03f b23c
00000010: 79c9 373d 1ec2 053e 6bef 81be 801a 3bbc
00000020: 72c9 dc3d e0b7 bd3d 8f05 6bbe bb64 0dbd
00000030: 6287 e43d 7cae ad3c 5da4 4fbe 32c1 9dbd
00000040: 0717 f03d ed00 7cbd 32a6 12be 033d a5bd
00000050: c3d7 803d 85a4 d6bd ab2b 04be 9453 c2bd
00000060: 96fa 3e3d c25a 18be 2ca3 95bd de8f 103d
00000070: f8e7 033d 1eee 33be 6d62 853b 769e ba3d
00000080: 1b52 32bd 4fa4 29be 069d 0e3d c04c b83d
00000090: 5855 2abe ceda 38be dd4d 9e3d 4ac6 293d
-0.0815332 0.19038853 -0.29637748 0.021758854 0.044869874 0.13062331 -0.25377974 -0.011419892
0.1078061 0.09263587 -0.22951339 -0.034519892 0.11158635 0.021201365 -0.20277543 -0.07702865
0.11723142 -0.06152432 -0.14321211 -0.08068278 0.06291153 -0.10480598 -0.12907283 -0.094885975
0.046625696 -0.14878371 -0.07306513 0.035293452 0.032203645 -0.17571303 0.004070571 0.09112255
-0.043535333 -0.16566585 0.034817718 0.08999014 -0.16634119 -0.18052217 0.07729695 0.04144887

convs.1.root f4 [32, 32]
00000000: 0a8b 24bd a326 b53d 628f 593d ba90 1f3c
00000010: 1e87 083d 96b5 3abd d724 3fbe 5be1 ae3d
00000020: 0f94 93bc 585b 48bc 8b2f 7fbc 6427 eebc
00000030: 051d 8ebd b92d 0cbd 100c a7bc 889c 0d3d
00000040: a881 86bc 6810 80bd 9dbc 42bd f0c8 75bc
00000050: 8134 f3ba cb19 5c3d 039a 813a af44 583d
00000060: 0608 09bc 7f86 26bd 9e06 a1bd 40a2 ce3d
00000070: 0041 06bd 4d1b dcbd 98ad 66bd d743 df3c
00000080: 7a64 bbbb e1f0 13bd 32f6 ac3d 1ee2 aa3c
00000090: 5ba8 ccbb 1271 08bd db91 dd3d 085e 793d
000000a0: 49a2 273d d189 52bd f568 463c a8eb 8e3d
000000b0: 2741 00bd c85e b4bd 3b17 8aba e947 62bd
000000c0: a54e d4bc 8c29 87bd 9688 e43d 96f4 903c
000000d0: 5285 ce3c 68ee ce3d d640 e5bc 8326 a4bd
000000e0: caf1 453d 02a3 173d 5630 0bbd fbd3 92bd
000000f0: 01fa cb3c 2436 70bd d158 523b de48 8fbd
00000100: c333 373c 461b 043d 6395 a63b 43e4 7b3d
00000110: f765 653d adf3 78bd 6450 db3d e20c 873d
00000120: 46a0 d53b e777 dfbc 26cb 093d 9a0e 0f3d
00000130: 4935 e23c fdb2 32bc 39db 62bd e903 bebb
00000140: ba81 943c 1ec4 92bd 6ecf 0ebd 58c5 90bb
00000150: 3d6a 02bd 2d4d e4bb 8a4a 99bc 2618 153c
00000160: fbba ec3c ccb9 b9bb 7e99 903d 0a7c dd3b
00000170: a75e 173d b99e c6bd 7889 e6bc 75e2 653b
00000180: fe17 793c 689a 903d cf2c 85bb 2f9f f1bd
00000190: bebd 97bd adcf ed3b 1de5 2dbd df43 8abc
000001a0: 1bad 31bd 0a90 743d 45f4 733d d506 3e3d
000001b0: bc89 b33c f1cb 8fbc 6fd9 ac3c c40f 833d
000001c0: 9a3a 7ebc a690 e7bc 3d13 b43d 96d4 a23d
000001d0: f6eb 05bd 6ea6 8fba 84ed 003e 0dbc 2ebb
000001e0: 531b 18bd ee56 063d 0ded 663d e2b4 e13d
000001f0: e95b d53c fc1a 673c 2cbb 7fbb 3025 893d
00000200: 1bf0 2e3d eb41 7a3d 9a69 c03c 7d7c 45bb
00000210: 63fe 323d e2da b83c fc91 963d 0994 85bd
00000220: 5ba9 90bc 1824 62bd aa52 c4bd 6959 803d
00000230: 42cd 713d 5751 0dbd d009 ddbd 581b 593d
00000240: c153 763c 88f2 a4bd a9da 1ebd 2633 64b9
00000250: 4c07 cf3d 3712 1b3e 0be4 35bd cf8a a1bc
00000260: 04b5 ebbc 984f 683d ba2d ecba 532d 2abd
00000270: fb1b a03c 712d 1fbc d36c b73d 891a c8bd
00000280: 6e8f 9a3d f2c6 1d3c edd8 683a 77f9 8d3d
00000290: 38dc 083d d3fa 0d3d f7ec 06bd 66f1 a83d
000002a0: d7e8 8a3d 2eb1 a33c fe58 fd3d bf8e d6bd
000002b0: fea8 a4bd f373 94bd a2d3 0a3d 9e83 01bd
000002c0: 6f5d 98bd 5e14 5e3d e00f 93bd 8c3b 5f3d
000002d0: 3cb9 0bbd d4b5 133d 4fdd 7b3d 33e9 fdbc
000002e0: 0b9b 07be 2ab4 42bd 66d3 1c3c ad2a 143e
000002f0: 69f3 acbd 7873 1bbd a8e4 67bb 8892 20bd
00000300: cee2 59bd 4f8f adbd b447 993d 8dff 4abd
00000310: 828f a3bd 3136 eabc 247d 56bd 1360 20bd
00000320: 29fd 32bb 4e24 353d c282 7abd 2039 573d
00000330: 75d9 7abd 7373 323d bd02 99bd 315e 4dbc
00000340: 3fcd 2cbc 1890 51bd 9871 f5bd 8e51 98bc
00000350: f17b 38ba a126 ec3c 90d4 bc3d 00e5 dbbc
00000360: dc38 083d 0ee3 473d 7ab2 1ebc dd36 93bc
00000370: 3828 cfbd d8df c93c 6364 4c3d 3e57 b13d
00000380: 471e a1bb 39a9 6b3d c86c 3ebd 5c0e 66bd
00000390: 9d7d 07bd 0bd4 2fbd 8cb7 36be 3daf 2bbd
000003a0: 07cb adbb fcda 553d 9061 fd3c 9849 4dbd
000003b0: a56c ffbc 4092 903d 9659 4ebd e74d 92bd
000003c0: d5bf f7bb 2230 df3c 1bd6 803d a19d a33d
000003d0: e8b8 603d 7350 37bd daf8 4e3a 67ce 6abb
000003e0: e169 82bd 3a0b 11bb 330c 2e39 fed2 543d
000003f0: 9eb4 9dbb 1111 813d 409a 13bd 763d dcbc
-0.04017166 0.0884526 0.053115256 0.009739095 0.033331983 -0.04558333 -0.18666397 0.08539077
-0.018014936 -0.012228809 -0.0155753 -0.029071517 -0.06939129 -0.034223292 -0.020391494 0.034573108
-0.016419247 -0.06253129 -0.047543157 -0.0150015205 -0.0018555076 0.053735536 0.0009887818 0.052799877
-0.008363729 -0.04065561 -0.0786259 0.100895405 -0.032776833 -0.10747395 -0.056317896 0.027254028
-0.005718765 -0.036118392 0.084453955 0.020859774 -0.0062456555 -0.033310957 0.10818835 0.06088069
0.04092625 -0.051400963 0.012109985 0.069785416 -0.031312134 -0.088071406 -0.0010535488 -0.05524436
-0.025916407 -0.06599721 0.11158864 0.017694753 0.025210056 0.10104066 -0.027985018 -0.08015158
0.04832629 0.03702069 -0.033981644 -0.07169338 0.024899485 -0.058645383 0.0032096396 -0.0699632
0.011181775 0.032252572 0.0050837263 0.061496984 0.056005444 -0.060779262 0.10708693 0.06594254
0.00651935 -0.027278854 0.033641003 0.034926035 0.027613299 -0.010906932 -0.05538485 -0.005798806
0.018128265 -0.07166313 -0.03486579 -0.0044180565 -0.031839598 -0.006967208 -0.0187123 0.009099996
0.028897753 -0.0056679007 0.07060526 0.0067591714 0.036955502 -0.09698243 -0.028141722 0.0035077606
0.015203474 0.07060701 -0.0040641795 -0.1179794 -0.07409237 0.007257423 -0.042454828 -0.016878067
-0.043377977 0.05970768 0.059559125 0.046393234 0.021916263 -0.017553302 0.021099774 0.063994914
-0.015516901 -0.028267216 0.08792732 0.07950704 -0.032695733 -0.0010959634 0.12590605 -0.002666238
-0.037135433 0.032797746 0.056378413 0.11020829 0.026044803 0.014105555 -0.0039021475 0.06696546
0.04270945 0.06109802 0.023487855 -0.0030134015 0.043699633 0.022565309 0.07352063 -0.06522376
-0.01765888 -0.055210203 -0.095860794 0.06267054 0.05903364 -0.0345014 -0.10792887 0.053004593
0.015034617 -0.08054072 -0.03878275 -0.00021762829 0.10108814 0.15143667 -0.04440693 -0.01971951
-0.028772838 0.05671653 -0.0018018999 -0.04154713 0.019544592 -0.009715424 0.089563034 -0.09770686
0.07546888 0.009629952 0.0008882422 0.06932347 0.033413142 0.034663033 -0.03294083 0.08249168
0.06782692 0.019981947 0.123704895 -0.104764454 -0.08040045 -0.07248678 0.033893235 -0.03161966
-0.07439696 0.054218642 -0.07180762 0.054500148 -0.0341122 0.036062077 0.061490353 -0.030994987
-0.13242738 -0.0475351 0.009571886 0.14469405 -0.08444864 -0.037951916 -0.0035384092 -0.039202243
-0.053194813 -0.084745996 0.074843794 -0.04956012 -0.07986356 -0.028590294 -0.052365437 -0.039154124
-0.002731154 0.044224076 -0.061159857 0.052544713 -0.06124254 0.043567132 -0.074712254 -0.012534664
-0.010546981 -0.05116281 -0.11984557 -0.018593576 -0.00070375117 0.028827013 0.092202306 -0.026842594
0.03325735 0.04880052 -0.009686107 -0.017970497 -0.10115093 0.02464287 0.049900424 0.08659218
-0.0049169394 0.05753443 -0.04649046 -0.056166038 -0.03307878 -0.04292683 -0.17843455 -0.041915167
-0.0053037438 0.052210793 0.03093031 -0.050119013 -0.031179735 0.07059145 -0.050378405 -0.07143765
-0.00756071 0.027244631 0.062908374 0.0798905 0.05486384 -0.044754457 0.0007895358 -0.0035828592
-0.06367851 -0.0022131936 0.00016598478 0.05195903 -0.004812791 0.06302083 -0.036035776 -0.026884776

convs.1.bias f4 [32]
00000000: 3a09 89bd ea96 1dbd b613 aebc 0a7c 21bd
00000010: 9caf a4bc cd8e 0ebe 6828 73bd 9969 6b3d
00000020: 624b ad3c 5883 f7bc ce13 8b3c e0bc 80bd
00000030: 345f a4bd cce1 303d 23cb c33d 719d 063e
00000040: beb3 13bd 6e2a 893d 25c4 643d afe1 8d3c
00000050: 1b63 3fbc 1e03 30bd 8948 eebb 74fe 85bd
00000060: cd20 20bd 529f 813d 1a5b c93b 4e7f f2bd
00000070: 1988 75bd 9af4 fc3b 212e 63bd f222 473d
-0.06691213 -0.038474 -0.021249633 -0.039424933 -0.020103268 -0.13921662 -0.059364706 0.057473753
0.02115411 -0.030213997 0.016977217 -0.06286025 -0.08025971 0.043184087 0.0956023 0.13145997
-0.036060087 0.06697546 0.05585112 0.017319528 -0.011681343 -0.042971723 -0.0072718305 -0.06542674
-0.03909378 0.06329216 0.0061448934 -0.11840688 -0.059944246 0.0077195885 -0.055463914 0.04861731

convs.2.basis f4 [4, 32, 32]
00000000: 0746 803b 5c30 6dbd f0f9 653c 7b31 4b3d
00000010: beae 95bd 7802 95bc d206 113b 89c7 203c
00000020: ad91 8439 dd28 0bbc c119 a1bc b14a ef3a
00000030: c079 ec3c dddf ef3b e99f 2f3d 5e96 f1bc
00000040: 6c82 853c 6825 373d 76b7 84bd 280e 6ebc
00000050: 6801 eabc 9301 7e3a d090 8a3d ead4 20bc
00000060: c0a9 2bbd 3b15 00bd cc83 483d e4b6 9b3b
00000070: 7b77 be3c f0a0 963b d612 21bd 3315 5bbd
00000080: 6285 ecbc 4e42 d23d 945f 6e3b 0ddf c5bc
00000090: d05d 3d3c a903 24bd 639f 3fbc 067a 303c
000000a0: 129e b53c 85ac c63c 535b 1c3d 0aef 9fbb
000000b0: 7dd2 19bd c1ff d6bc 6435 533d 33fd a13d
000000c0: e151 a2bc 41f3 263d dcd5 ddbc 037a 28bc
000000d0: db84 cc3c 4953 2d3d 462a fd3c cafb 2abd
000000e0: 31ee 9c3c 863f c5bd 886f 12bd b936 74bc
000000f0: ce88 3f3d 9df1 96bd 98ca cf3c 20c8 b43c
00000100: 677f a0bc 0103 7c3d 41cc 6bbd 19c3 e43c
00000110: 5886 eb3c e348 acbb c38f 22bc 1dae d3bc
00000120: d846 293c a4fc 5d3d d3e7 4d3d 19b8 8b3d
00000130: 93aa 053c 4172 503d 3b5c 953d faf7 79bc
00000140: f164 4d3c dc3d cc3d 09e0 1dbc 0efe 51bc
00000150: bd06 0bbc 11f4 6d3d 3e9b 7f3d a72e 2fbd
00000160: 5215 a03d 6c8d cebd cc1a aebc 5126 173c
00000170: 2fae c73c 4ea7 d7bc f3ee 2c3d bac1 9d3d
00000180: 4e4e 2fbc 41fd aa3c e6c3 3dbc 1fb4 a23c
00000190: 62e3 203d 5085 903c 15a4 2d3c 6c64 a03d
000001a0: dc3b 47bd fc35 aabd 71d0 e6bb 0883 ce3c
000001b0: da5c 26bc 01e7 fcbb cb3f edbc a82a 233d
000001c0: a5cf 883b 9cb4 9fbd 9f2b a83d 036b 42b8
000001d0: 7dd9 1a3d 616c 8abd 8c68 61bd 186a 0f3d
000001e0: f914 f3bc 7685 28bc c84c 09bd 7207 09bc
000001f0: 593c 343d b823 e0bb 23c8 97bd c285 703c
00000200: 3eda 073c 77a6 8e3d e66e 64bd 97bc 4bbd
00000210: f6c9 463d 072b 4ebd 1e1f e1bd a7f5 19bc
00000220: da18 83bc e098 54bd 51c6 1c3c 55e9 53bc
00000230: 5aac 6d3c a834 3d3d bb0c 3b3d f56c 5c3d
00000240: 3c27 753c 61e7 313c 79cc 34bd 94e9 ff3b
00000250: 8f26 f5bc e9b4 8b3d e2ec ff3b 402d 5d3b
00000260: e94a abbc a916 21bd 184d 14ba b98a 8bbd
00000270: c0d6 ce3d e71d debc 0f93 69bd b363 2ebc
00000280: 88d7 703b 943c 63bc f43b 2d3c ec9f be3c
00000290: 6e7d ffbc 62bf 1b3d 68da 8a3d 7cfb 203b
000002a0: 350f 253d 509e 8b3d 7e67 9a3c 35e3 69bb
000002b0: 39cf 36bd 80ef 0cbd 8b08 8c3d 4500 093d
000002c0: 9e67 9ebb 274d 7a3d 201b ce3b b6ad 043c
000002d0: fd71 c63c dc42 cab6 e843 c93c f092 d3bc
000002e0: 0025 113d c7e3 fbbb 647e 523d 7afc 0b3d
000002f0: 7093 693c c17f 5a3b 639f 8e3c 605f 7d3a
00000300: 658b 7b3d e6a0 173d 3031 03be b9c5 b93d
00000310: a7f5 963d 38c6 703c 68aa eebd b3c2 debd
00000320: 80c9 84bb 12d8 3ebc 3d1a 793c 5e3c d43d
00000330: 7672 523c 3fb6 d9bc b5cc b1bb 6bad 5b3d
00000340: 7654 f63c 3b9a 993d b421 4dbc ab66 d9bb
00000350: f22d 43bc d445 b3bc 1237 5d3d 89cf a63b
00000360: ed1e 083d f8d9 dabb 68ea 513d 5314 9bbb
00000370: 9b81 a4bd 1fbd fbbc eee2 2d3d 5e91 cf3c
00000380: a40d ca3d d62c a13d a025 0dbd df73 153c
00000390: ce13 2e3d 57ca ceba b164 633d 0b96 90bc
000003a0: b53b e6bc 9126 d83c e9ca 1dbd c6fd 4b3d
000003b0: b6d2 25bc b89f c33c 85ac 9a3c 16f4 483c
000003c0: 8b82 bdbd d6db 113d 8916 7cbc bea0 1dbc
000003d0: 67ed f739 b23f 083d 3172 6bbc 3f11 b4bd
000003e0: 2625 a33d 2bac 09bd a07e 34bc 1146 ea3b
000003f0: 6bf7 563d adcc a03a d8c6 01bd 469d 0a3b
0.003914598 -0.057907447 0.0140366405 0.049607735 -0.0730872 -0.018189654 0.002212931 0.009813198
0.0002528554 -0.008493629 -0.0196656 0.0018256513 0.028866649 0.0073203878 0.04287711 -0.029490646
0.016297542 0.044713408 -0.06480305 -0.014529742 -0.028565124 0.00096895656 0.06765902 -0.009816388
-0.041909933 -0.031270247 0.048953816 0.004752027 0.023250332 0.004596822 -0.039324604 -0.053487014
-0.028872196 0.10266553 0.0036372887 -0.02415421 0.011558011 -0.040042553 -0.011695716 0.01077128
0.0221701 0.024252186 0.03817303 -0.0048807906 -0.037554253 -0.026245 0.05156459 0.07909622
-0.019814434 0.04075933 -0.027079515 -0.010282996 0.024965694 0.042315755 0.030903947 -0.04174403
0.019156547 -0.09631257 -0.035750896 -0.014905625 0.046761326 -0.07370303 0.025365159 0.022068083
-0.019592 0.061526302 -0.05756784 0.027925061 0.028750584 -0.005257712 -0.009921971 -0.02583986
0.010331832 0.054196015 0.050269913 0.06822223 0.008158344 0.05089021 0.07292982 -0.015256876
0.012536273 0.09972736 -0.009635934 -0.012816919 -0.008485493 0.058094088 0.06240391 -0.0427691
0.078165665 -0.10085568 -0.021253012 0.009225444 0.02437505 -0.026324894 0.042220067 0.07702966
-0.010699822 0.020872714 -0.01158235 0.019861279 0.03927935 0.017641693 0.010598202 0.07831654
-0.04864107 -0.08311078 -0.007043891 0.025208965 -0.0101539735 -0.0077179675 -0.028961083 0.039835602
0.004175144 -0.077981204 0.08211445 -4.6352867e-05 0.03780507 -0.06758953 -0.055031344 0.03501329
-0.029673086 -0.010285726 -0.03352049 -0.0083635915 0.044002865 -0.0068401955 -0.0741122 0.014680328
0.008291779 0.069653444 -0.055769823 -0.0497404 0.04853245 -0.050334003 -0.10992263 -0.009396947
-0.016003061 -0.051903605 0.009568767 -0.012934049 0.014506424 0.046192795 0.045666438 0.053814847
0.0149629675 0.010858388 -0.044140313 0.007809827 -0.029925613 0.06821615 0.007810221 0.0033748895
-0.020909743 -0.03932825 -0.000565724 -0.068135686 0.10099554 -0.027113868 -0.05702501 -0.010643887
0.003674956 -0.013869423 0.010573376 0.023269616 -0.03118774 0.038024314 0.06779939 0.002456396
0.040297706 0.06817305 0.018848177 -0.0035688404 -0.044631217 -0.034408092 0.06837567 0.033447523
-0.0048341295 0.061108734 0.0062898546 0.008098057 0.024224276 -6.0278526e-06 0.024568513 -0.025826901
0.035435677 -0.0076870653 0.051390067 0.034176327 0.014256343 0.0033340307 0.017409986 0.0009665396
0.061412234 0.03701868 -0.12811732 0.09070916 0.07371073 0.0146956965 -0.11653596 -0.1087698
-0.004052341 -0.011648195 0.01520401 0.103630766 0.012844672 -0.02657616 -0.0054260143 0.05363218
0.030069571 0.0750012 -0.0125202425 -0.0066345534 -0.01191281 -0.021883883 0.054007597 0.005090658
0.033232618 -0.006678816 0.051248938 -0.0047326474 -0.08032533 -0.030729828 0.042452745 0.025337871
0.09865883 0.0786988 -0.03445971 0.009121864 0.042499356 -0.0015776855 0.05551595 -0.017649671
-0.028104642 0.026385577 -0.03852359 0.049802564 -0.010121038 0.02387987 0.018881092 0.012265226
-0.09253415 0.035610043 -0.015386232 -0.009620843 0.0004728839 0.03326387 -0.014370487 -0.08792352
0.0796607 -0.033611458 -0.011016518 0.007149466 0.05248205 0.0012268029 -0.031683773 0.0021150871

convs.2.att f4 [10, 4]
00000000: 3838 bd3c 59a1 153c 3194 a13c 0785 d93c
00000010: 10a1 fe3b f771 cdb9 a3e7 153c 3587 9e3c
00000020: 3272 163b c00a 06bc 908c 2a3c fa78 b03c
00000030: 6641 9b3b b6cd 94bc a1ef 2f3c 1907 093c
00000040: 93b2 45bc ddd2 853b 2216 7839 d9eb a3bb
00000050: 6113 3ebb 378d 2f3c b3e6 9ebb 51e3 7bbc
00000060: cea3 643c dc1c 2c3b b7a6 833b bd3a db3b
00000070: 1752 24ba ac6e 75ba d99f 493b a689 463a
00000080: 4c62 003c 091f 70bb ea74 a43b f623 403c
00000090: 477a 0a3b b39b 40bc 9313 a03b 7996 9c3a
0.023098096 0.009132707 0.019723983 0.02655269 0.007770665 -0.00039185557 0.009149465 0.019351581
0.002295625 -0.008181274 0.010409489 0.021542061 0.0047380207 -0.018164497 0.010738284 0.008363509
-0.012066501 0.0040839748 0.00023659368 -0.0050024805 -0.002900325 0.010714821 -0.004849279 -0.015374021
0.01395507 0.0026262319 0.0040176767 0.0066903518 -0.0006268336 -0.00093624997 0.0030765443 0.0007573612
0.007835936 -0.0036639592 0.00501882 0.011727324 0.0021130012 -0.011755872 0.004885146 0.00119467

convs.2.root f4 [32, 32]
00000000: 6691 2ebd 06b1 97bd 001b d53d 876e 5ebc
00000010: c7e3 8a3c 6f0c b8bd 9aae b8bd 3ba0 15bd
00000020: 65e7 7e3d 115f 42bd b7d1 aa3b 7bb0 9a3c
00000030: 0661 21bc efc0 6a3d 9f80 6cbd a917 8cbd
00000040: 25ad 6ebb dd75 073c 2995 543d 8370 bf3b
00000050: f5f5 c73b 2a5c 67bd b28d 5fbd 912e 273d
00000060: d61e 03be 1066 823c c98f 563d 9bfc 44bc
00000070: 8423 c63b 1641 473b a18c 21bd 3c2d 19bd
00000080: a410 f3bc 685e 0cbd beb1 86bd 2468 e63c
00000090: a99a fab9 2f93 c1bc dfa6 a8bc 309f a8bd
000000a0: 3dec 1ebb 25bd 2a3d bb56 53bd 9401 a1bc
000000b0: 94cb 27bd 2b98 bd3c c6bc 37bd 4087 0d3d
000000c0: 1230 62bd a97b 053d 2056 14bc 1077 56bd
000000d0: 5a0b 1d3d 4dba a7bc 99b2 e23a 4481 ae3c
000000e0: 4d0e 0cbd a69f 8fbd c7a4 f8bc 35e1 83bd
000000f0: 94ec 4b3c 0e37 d3bc e916 5bbc 6b45 d93c
00000100: 0d71 efbb 891a 0fbe 16db 673c af41 90bd
00000110: bf96 12bd 2723 08be 658c afbc 5515 833d
00000120: a246 4a3d f9fc 8c3c 6213 953d 9f34 86bd
00000130: 04b4 30bd d7ea f8bd 594c df3b d190 b0bc
00000140: 4464 3bbd 6de7 b33b e970 473d e873 38bd
00000150: cc18 4bbd d915 afbd d87f 283b d061 503d
00000160: 8ea1 8ebd 2d5f 613d 4be7 1f3c e484 6cbc
00000170: aae7 5ebb 192b b5bc 01ec 00bd b22a 6cbd
00000180: 9d43 843c 8c95 26bd aae9 b53b 8fb8 83bd
00000190: a25a 14bd 382d d1bc ef96 2ebc 1353 b3bc
000001a0: e593 06bd f984 bfba ac29 623d 2ab7 cf3c
000001b0: 03ea 803c 520b 41bd 5a87 673c 39d5 87bc
000001c0: 46c5 edbb 762e 11bc 45f9 763b 47ba 21bd
000001d0: dbc1 eebb 1cbc a4bd 63bf fd3c 8d5b 63bd
000001e0: 5905 703a 1064 513c d51b 403d 18f0 7eba
000001f0: bd70 88bb 185c 36bc cc98 3fbd 48b2 8a3c
00000200: bc08 3b3d 9b49 803d 3dfe bebc 8d97 b23b
00000210: 9cb9 b5bd 342c daba 5790 e83b 328b 1a3c
00000220: 76e3 fcbc b108 303c 0284 c7bc f968 e3bc
00000230: 9db0 913c 71bf ee3c bf55 66bb 394d 2c3d
00000240: bfb2 003d 298e 87bd 3cd4 513d c39a 82bd
00000250: 8610 923d ae9e 78bd 91a5 223d 8e19 223d
00000260: de15 d3ba 9f78 8d3c 50bf 84bd 44c4 733c
00000270: 939c 9bbc 8d76 4c3d 4755 4e3c efdf 1abd
00000280: f08b 6ebd b382 ccbd 8b7c e4bc ca5f 043d
00000290: 96dc e73b 097b c63a c8bd 9ebd fd6e 0cbd
000002a0: dbec c93c bf1d 673c c9b2 973d 9f7a bd3c
000002b0: 394d 91bb 3038 50bc b578 17bd c551 0fbd
000002c0: 7383 33b9 5653 913c afd8 8e3c c1e0 57bd
000002d0: 58da bbbc c35a 9fbd 96cf 73bb aba0 5ebd
000002e0: 539c 60bd 1308 503c da6d a13d fc29 f2bc
000002f0: 8bb1 d73c 7775 51bc c423 4d3b f1ca e1bc
00000300: 0469 07bc dd26 993d 619e b4bd 7aa4 f23d
00000310: b83c 653c 125d ab3d 7e69 173c 0cd1 953c
00000320: f49f 043d fd4a de3b 617d d1bd 4fdc 88bd
00000330: d0db 91bb 74ad aa3c 4eb2 ecbc 5e3e e7bb
00000340: 79a3 083d 1b50 983c 6693 3ebc 6263 043d
00000350: 065b b23d 4b7f 523e 9470 9c3a b0b4 1d3c
00000360: 88a2 e63d 6f82 38bd e76a 25bd 6df8 02bd
00000370: 4b8a bf3a 92d5 493c 57be 0f3d ce43 da3c
00000380: 383f 593c 8911 64bd 7c2d 493b 2155 bdbc
00000390: 98b7 69bb 03e0 4cbd 5813 ca3b bc8d acbc
000003a0: 7083 2e3d 3230 8abc 8ad5 b63c 4183 053d
000003b0: 3cce 48bc 9c4a 0a3b 4ca8 81bc 435f 0abc
000003c0: b1b3 0fbd a317 08bc 22a2 013c f2d6 9f3c
000003d0: 6495 2abd b2ab 49bd 5ef8 1dbd 0230 ad3b
000003e0: 1fa6 e2bc 76ee 46bc d639 0a3c cca8 1e3c
000003f0: e363 553d 9dd4 8e3b e469 9dbc 64c8 3a3b
-0.04261913 -0.074068114 0.104055405 -0.013576156 0.016954316 -0.089867465 -0.090176776 -0.03652976
0.062232394 -0.047453944 0.0052129882 0.01888298 -0.009849792 0.057312902 -0.05773985 -0.0684045
-0.003641912 0.008267847 0.051900063 0.00584227 0.0061023184 -0.05648438 -0.05457849 0.040815894
-0.12804732 0.015917808 0.052383218 -0.012023116 0.0060467143 0.0030403784 -0.039440755 -0.037396654
-0.02967102 -0.03426972 -0.065768704 0.02812583 -0.00047798947 -0.023629753 -0.020587383 -0.082334876
-0.0024249696 0.04168429 -0.051596384 -0.019654073 -0.04096563 0.023143848 -0.044857763 0.034552813
-0.055221625 0.032588635 -0.009053737 -0.05235964 0.038340904 -0.020474577 0.0017295658 0.021301873
-0.034193326 -0.070128724 -0.03035201 -0.06439439 0.012446541 -0.025783088 -0.013372161 0.026522359
-0.007307178 -0.13974966 0.014151355 -0.07043778 -0.035788294 -0.1329466 -0.02142925 0.06400553
0.049383767 0.01721047 0.072790876 -0.065530054 -0.043140426 -0.12154167 0.0068145213 -0.021553429
-0.045749918 0.0054902346 0.048691664 -0.04503241 -0.049584195 -0.08549089 0.0025710966 0.05087453
-0.06964408 0.055022407 0.009759734 -0.0144359805 -0.0034012594 -0.022115277 -0.03147507 -0.057657905
0.016145522 -0.040669963 0.0055515366 -0.06431686 -0.036219247 -0.025534257 -0.010656103 -0.021890199
-0.032855887 -0.0014611772 0.055215523 0.025355894 0.015736585 -0.047129937 0.014131391 -0.016581165
-0.007256183 -0.008861175 0.0037685197 -0.03948429 -0.007286293 -0.080436915 0.03097505 -0.05550723
0.00091560703 0.012780204 0.046901543 -0.0009725108 -0.00416383 -0.011130355 -0.046776578 0.016930714
0.045662627 0.06264039 -0.02331459 0.005450195 -0.08873293 -0.0016645254 0.007097285 0.009432601
-0.03087018 0.01074426 -0.024354938 -0.027760016 0.017784411 0.02914402 -0.0035146323 0.042065833
0.031420466 -0.06618912 0.051227793 -0.06377175 0.07132058 -0.060698204 0.039708678 0.039575152
-0.0016104539 0.01726943 -0.064818025 0.014878336 -0.018995559 0.049917746 0.012593574 -0.037811216
-0.058238924 -0.099858664 -0.027891418 0.032317914 0.0070758564 0.0015142869 -0.07751042 -0.034285534
0.024649074 0.014106213 0.074071474 0.02312976 -0.0044342545 -0.012708709 -0.03698035 -0.03499009
-0.00017119739 0.017739933 0.017437307 -0.052704576 -0.022931263 -0.07780983 -0.0037202588 -0.054352444
-0.054836582 0.012697238 0.07882281 -0.029561035 0.026329776 -0.012784353 0.0031301836 -0.02756259
-0.008264784 0.07478116 -0.08819271 0.11847778 0.013991527 0.08367361 0.00924146 0.018288158
0.032379106 0.0067838416 -0.10228992 -0.066826455 -0.0044512525 0.020834662 -0.028893616 -0.0070569953
0.033359025 0.018592885 -0.011631822 0.03232134 0.087087676 0.20556371 0.0011935406 0.009625599
0.11261469 -0.045046266 -0.040385153 -0.0319752 0.0014613358 0.012318986 0.03509363 0.02664366
0.013259701 -0.055680785 0.0030697277 -0.023111882 -0.003566241 -0.05001832 0.0061668567 -0.021063678
0.042605817 -0.016868684 0.02231862 0.032595877 -0.012256201 0.00211016 -0.01582732 -0.008445564
-0.035083476 -0.008306417 0.007912191 0.019511674 -0.041646376 -0.049236007 -0.03856694 0.005285264
-0.027667103 -0.012141814 0.008436641 0.009683799 0.052097213 0.0043588416 -0.019215532 0.002850079

convs.2.bias f4 [32]
00000000: 7288 45bc b542 1bbd 4562 fb3c d926 5dbd
00000010: 3897 09bc bb49 63bd fd01 dfbb cb08 06bd
00000020: 1050 aabc 0dc2 d0bb 1a45 803d 202b 4b3d
00000030: 853f 67bc f444 853c 3120 443c 7d23 063c
00000040: 30f0 cbbc 5490 76bb bc67 023c 846b e0bc
00000050: d50e 3cbd 2384 bebd 3004 8abc 6408 b0bb
00000060: 7eed 6dbd 02df ff3c fad3 ac3c 4429 903c
00000070: 00a9 833c 9b6e 9b3a 0f73 aebc fd45 5bbc
-0.012056457 -0.037905414 0.030686507 -0.053992126 -0.00839787 -0.055490237 -0.006805657 -0.03272323
-0.02079013 -0.006370789 0.0626318 0.049601674 -0.014114265 0.016268231 0.011970566 0.008187172
-0.024894804 -0.0037622647 0.0079593025 -0.027395017 -0.045912582 -0.09302547 -0.0168477 -0.005372094
-0.05808782 0.031234268 0.021097172 0.017597802 0.016071796 0.0011858525 -0.021295099 -0.013383386

convs.3.basis f4 [4, 32, 32]
00000000: 605f 33bd 13ca 01bd 974d 8abd 0198 f03c
00000010: 093f 0dbd af1d bfbb 8ca6 813c c223 a53d
00000020: eedf 24ba 199a 19bd 3ec1 85bd f4f5 de3d
00000030: 50d1 48bd 9424 993c 9d91 023d 3288 72bd
00000040: 8953 513a 0f96 a23c c3a2 183d 85fd ef3c
00000050: 71d1 e53c 592a 293d bc3f af3d 4c60 943d
00000060: fa4d b03d 724c bcbc 3342 eabd 57df 41bd
00000070: de17 3c3c 8965 a7bd 10d8 143d 748c 4abb
00000080: 9dd9 503d e0fe bdbd 577d 4f3d cb32 b43d
00000090: d747 e73c c67a 2fbb f6b1 67bd 738f cb3c
000000a0: 7a68 123e ca06 21bb 95ab 32bd db03 c43d
000000b0: a377 40bd 060b c03c 12a2 57bc a30f 803d
000000c0: 07e6 55bd aeaa 21bd 4433 f83c dc38 b33c
000000d0: 29c1 bc3d e519 abbc 123f 8839 2e6d 37bd
000000e0: d308 64bc 8394 913d fffb 4fbd 070c a43d
000000f0: 6284 5dbd cfc1 253d a58a 983d a627 0cbe
00000100: 8a63 4fbd 5fd6 86bc 9ce9 413c 65c9 afbd
00000110: 0433 d7bb 80ed 963d 4e4c 4b3d aa04 a53b
00000120: 8b6c 8ebd 76d5 51bd 2432 29bd 2c7b 7cba
00000130: 5f51 203d fbca 153d 3e34 7c3d 1828 3d3d
00000140: 5f80 88bb 7a10 df3c ca75 b23c 851f 27bd
00000150: a130 01bd c752 5b3d 179f bc3c acc8 f13d
00000160: c17f a5bc 0d04 913d dcdb 6bbd 2ef7 14bd
00000170: b3ed 843d 12ee 78bd 7808 1b3d 2fbc c33c
00000180: f14b d2bb 2813 3b3d 6cd9 9a3b bcac b73d
00000190: 29b5 203c bce8 a93a 3d0e cdbc 7b9c 483c
000001a0: 2d0e 68bc fa7e 2a3d bad0 3abd 482c d03c
000001b0: acbe a7bd 0fff 3d3c 0a5c b93b 06c7 86bd
000001c0: a879 06bd 52de eb3c 6958 26bb e643 be3d
000001d0: 1c4d 45bd 1b7a a3bc b62c e33c caf3 4cbd
000001e0: 8825 1b3d 6199 ea3b 92de 7cbd 9d5c 9dbc
000001f0: 4809 753d 446a f8bb 9c6c 6dbc b593 0ebe
00000200: 9b36 5d3c 1e7c 643c fadb 823c 7625 edbc
00000210: c086 993d 981b 26bc e4d0 923b e72e 80bd
00000220: 1d60 583d 03db 043d 1912 fc3c 79d6 2cbc
00000230: 810b 8bbc 6d33 0abc b6b0 4abd a969 b33a
00000240: b3c8 de3b dae4 763d 2f11 7abd acf6 b8bb
00000250: d362 9d3c c193 0dbd 0efa 29bd 331e 733c
00000260: f22f 98bd bc0b 30bd c087 833c 8d21 0dbc
00000270: bf38 e33c 3260 3a3d 9db5 a8bc 183c 1cbd
00000280: ce70 713c 4bfb 9ebd 30ae a2bd 029c 98bc
00000290: 5eaa a43c 1c15 81bb ded5 673c 78c1 7e3d
000002a0: 0b2a 833d 47e5 2abd 798b e23c 2e79 93bc
000002b0: 67a0 203c 9505 c83c b7ee cc3d 059b b2bc
000002c0: 9f98 16bc 2306 1bbd b11c a53c 8d52 243b
000002d0: 3cc9 553c a92d a43d ddbd e53c 634f 0fba
000002e0: aa22 453d 0d52 6dbd 9fa0 1bbd a159 8bbc
000002f0: 4ac9 8fbc 75f7 4fbd de38 013d c746 23be
00000300: b913 d93b 9b20 8e3d 0a86 ff3c f358 9dbd
00000310: 2d0d f5bc 90a4 93bc 4d4b aabd 376a c03d
00000320: d8ad 6cbd 7744 003d 246c 6bbd ceb5 0c3d
00000330: 5c97 d63a 5106 87bd 7cfb 413d 0d3d eabb
00000340: 983b 0a3d 1b40 42bd 1ba9 3b3d d3dc 043d
00000350: 08fa bf3b fde5 8a3d a089 513d 5836 71bd
00000360: 1939 b93b 49fe acbc 564f 15bd 004e 02ba
00000370: f311 75bd ba74 4abd 26d1 c6bb 51d1 953d
00000380: 28f9 593d 9d81 a03c e7fe 0abd 9ed9 cc3c
00000390: 195f 8fbc 37ff f1bc 70cb 45bc c50a 843b
000003a0: 8d11 b33d 4a2b 81bc 8a32 36bd d290 993d
000003b0: d2c0 19bb 527f dcbc f0d4 be3d ccb8 3ebc
000003c0: 22b3 073d ce4a 643d a29c ed3d c509 d53c
000003d0: 5f65 2a3d b6b3 d53d 0783 c93d b3c6 a43d
000003e0: d586 ddbb aacd 7f3d 175e 05bc 0ed4 00bb
000003f0: 610c c7bc dede 5bbd 5aaa ae3d 0cfa c7bd
-0.04379213 -0.031686854 -0.0675308 0.029369356 -0.034483943 -0.005832396 0.015826486 0.08063461
-0.00062894716 -0.037500475 -0.06530999 0.108867556 -0.04902774 0.0186942 0.03187715 -0.059211917
0.0007985165 0.019846944 0.037264597 0.029295692 0.028053971 0.04130015 0.08557078 0.0724493
0.08608623 -0.02298567 -0.11438408 -0.047332134 0.0114803 -0.08173663 0.036338866 -0.003090647
0.050988782 -0.09277129 0.050656643 0.087987505 0.028232498 -0.002677606 -0.0565662 0.024848675
0.14297667 -0.0024570697 -0.043620665 0.09571048 -0.046989094 0.023442756 -0.013161199 0.062529825
-0.052221324 -0.039469413 0.030297883 0.021877699 0.0921653 -0.02088637 0.00025986932 -0.044781856
-0.0139181195 0.071084045 -0.05077743 0.080101065 -0.05408133 0.040468033 0.07448319 -0.13687
-0.050632037 -0.016459642 0.011835482 -0.08583335 -0.006567361 0.07369518 0.049633317 0.0050359564
-0.06954297 -0.051228963 -0.041307583 -0.0009631391 0.0391401 0.03657053 0.06157326 0.046180815
-0.0041656937 0.027229536 0.021784682 -0.040801544 -0.031540517 0.05354574 0.023025079 0.11805853
-0.02020252 0.07080851 -0.05758272 -0.03636854 0.0649065 -0.060773917 0.037849873 0.023893444
-0.0064177443 0.045672566 0.0047256257 0.08968493 0.009808817 0.0012963037 -0.025031203 0.012244339
-0.014163536 0.041625 -0.045609213 0.02541174 -0.08190665 0.011596455 0.005656724 -0.065809295
-0.032830864 0.028792534 -0.0025382286 0.09290294 -0.04816924 -0.019955685 0.02773128 -0.050037183
0.03787759 0.0071593975 -0.061735697 -0.0192092 0.059823304 -0.007581027 -0.0144912265 -0.13923533
0.0135017885 0.0139456075 0.015974034 -0.028948527 0.07496405 -0.010138415 0.004480468 -0.06258946
0.052826036 0.03243543 0.030770348 -0.010549181 -0.016973259 -0.008435112 -0.04948493 0.0013688105
0.0067988276 0.060276844 -0.061051544 -0.00564464 0.019212162 -0.034564737 -0.041498236 0.014838743
-0.0743102 -0.04297994 0.016055942 -0.008613956 0.02773702 0.045501895 -0.020594412 -0.038143247
0.014736367 -0.07762774 -0.0794338 -0.018629078 0.020100769 -0.003939284 0.014150111 0.062196225
0.064045034 -0.041722562 0.027654396 -0.018002119 0.009803868 0.024416724 0.10006469 -0.021802435
-0.009191661 -0.03784765 0.020155283 0.0025073618 0.013048466 0.080165215 0.028044635 -0.00054668466
0.04812876 -0.057939578 -0.037994977 -0.017010512 -0.017552037 -0.050773103 0.031548373 -0.15944968
0.0066246656 0.06939813 0.031191844 -0.07682981 -0.02991351 -0.018022805 -0.08315144 0.09395259
-0.057782978 0.031315293 -0.057476178 0.03435307 0.0016372013 -0.06593002 0.047358975 -0.007148391
0.03374824 -0.047424417 0.04581557 0.032437157 0.0058586635 0.06782148 0.05115664 -0.058889717
0.0056525585 -0.021117346 -0.036452614 -0.00049707294 -0.05983157 -0.049427725 -0.006067413 0.073153146
0.05321613 0.019593054 -0.0339345 0.025006112 -0.0175014 -0.029540641 -0.012072429 0.004029604
0.08743582 -0.015767712 -0.04448179 0.074983254 -0.0023460877 -0.02691618 0.09317958 -0.011640739
0.03312982 0.0557354 0.11602141 0.026005635 0.04160058 0.10434668 0.098394446 0.08045711
-0.006760458 0.062451996 -0.008140109 -0.0019657644 -0.024297895 -0.05367934 0.08528586 -0.097644895

convs.3.att f4 [10, 4]
00000000: 1c41 ed3b d43c 8f3a d878 ceba 495e 0fbb
00000010: b50b 45bb 25f8 bd3b 22e8 4d3b 3a79 09bb
00000020: a3a5 44bb 035b af3b ad3b f53a 9734 f1ba
00000030: 6cbb 08ba 3530 c53a b30c ecbb be2a 17bb
00000040: 0b87 cf3a 8c99 b93a 17a2 793b 5192 143a
00000050: dd92 ba3c eb6c 40bb 80b4 b1bb 5a2d f73a
00000060: dbd3 2f3c 5ea6 a93b 4a58 c83b 6fcd 893b
00000070: c220 453c 3174 c03b 17d8 3a3b 07ba 963a
00000080: 55c9 0b3c a289 823b b335 233b 072b fb39
00000090: 368c 053c 1ea3 bbba 2f10 81bb 81d1 3db9
0.0072404277 0.0010928162 -0.0015752567 -0.0021876267 -0.0030066792 0.0057974034 0.003141888 -0.0020976798
-0.0030005954 0.0053514256 0.0018709801 -0.0018402514 -0.00052159163 0.0015044274 -0.0072036623 -0.0023066248
0.0015833093 0.001416014 0.0038090998 0.0005667555 0.022775108 -0.0029361795 -0.0054231286 0.001885812
0.010731663 0.005177303 0.0061140405 0.004205398 0.012031736 0.005873226 0.0028510147 0.0011499532
0.008531888 0.0039836923 0.0024903833 0.0004790651 0.008151105 -0.001431558 -0.003938697 -0.00018102491
